experiments/darpa2000/s1_inside/deepproblog/phase_classifiers/models/w10/resampled/phase_2.pth (torch, 194061 bytes, 8 tensors)

lstm.weight_ih_l0 f4 [256, 112]
0	0xbe2746d9	-0.1633562
1	0x3dd69dec	0.1047934
2	0x3ce695f5	0.028147677
3	0xbdf7a336	-0.12091677
4	0xbd817ca5	-0.06322602
5	0xbe2c4093	-0.16821508
6	0xbcae778e	-0.021297242
7	0x3cdf08ce	0.027225878
8	0x3dc7844b	0.0974203
9	0x3d0c66de	0.03427779
10	0xbb5ff24c	-0.003417152
11	0x3e87b272	0.2650333
12	0x3d4113b6	0.04713794
13	0xbec7db93	-0.3903471
14	0xbcdea78b	-0.0271795
15	0xbe2ce88a	-0.16885582
16	0xbd586fd8	-0.052841038
17	0x3e47b9e9	0.19504513
18	0xbcac1afb	-0.021008959
19	0x3e2957e5	0.16537435
20	0x3d8d87db	0.06910678
21	0x3ec443f9	0.3833311
22	0x3d41a136	0.047272883
23	0x3d34c392	0.044131823
24	0xbdac81ce	-0.08423196
25	0xbc3ace06	-0.011401659
26	0x3d034d18	0.032055944
27	0x3d2fb0cd	0.04289322
28	0x3e2e586d	0.1702592
29	0xbdbee097	-0.09320181
30	0xbd5717c1	-0.052512888
31	0xbc21ddde	-0.009879557
32	0xbd250a86	-0.04029324
33	0xbadde6e2	-0.001692977
34	0x3e54ee7f	0.20794104
35	0xbe2756c0	-0.16341686
36	0x3ee776b4	0.4520775
37	0xbe89f333	-0.2694336
38	0x3e190ddb	0.14946692
39	0xbe11fa42	-0.14255622
40	0x3dcc43cc	0.09973869
41	0xbc6ec485	-0.014573221
42	0xbd8caba8	-0.06868678
43	0xbd7acc0b	-0.061229747
44	0xbb66e8a1	-0.0035233872
45	0xbd42a8db	-0.047524314
46	0x3dd904c1	0.1059661
47	0x3d738df3	0.059461545
48	0x3dc7075f	0.09718203
49	0xbc70163f	-0.014653741
50	0x3c6e0682	0.014527919
51	0xbd9f15ca	-0.07767828
52	0x3bc0ab84	0.0058798213
53	0xbb99e11a	-0.0046960237
54	0xbcf9ae6e	-0.030478682
55	0xbdfae954	-0.12251535
56	0xbd0d709f	-0.034531232
57	0xbdaf4331	-0.085577376
58	0xbe1e6834	-0.15469438
59	0xbe0438a7	-0.12912236
60	0x3d7d4afd	0.061839093
61	0x3d31ff6a	0.043456472
62	0xbdad027e	-0.08447741
63	0xbc325f46	-0.010886973
64	0x3de936ec	0.11387429
65	0x3d234038	0.039856166
66	0xb9a1504d	-0.00030768142
67	0xbddb95fb	-0.10721966
68	0xbd72474a	-0.059150018
69	0xbe1bb206	-0.1520463
70	0xbe45e2df	-0.19324826
71	0xbe120f24	-0.14263588
72	0x3ec7680f	0.38946578
73	0xbd6abb78	-0.05730769
74	0x3d97796b	0.073962055
75	0x3d0edd5b	0.03487907
76	0xbe05fd81	-0.13084985
77	0x3d21ab29	0.03946987
78	0xb901ccfb	-0.0001237876
79	0xbdb55743	-0.088545345
80	0x3c5cb664	0.01347122
81	0xbd8fcffa	-0.0702209
82	0xbde528c0	-0.11189413
83	0xbe4d655d	-0.20058198
84	0xbd3b1d13	-0.045682024
85	0xbd407f00	-0.046996117
86	0x3df87d13	0.12133231
87	0x3cc8d2da	0.024514604
88	0xbdec4cf9	-0.11538119
89	0x3d2b6c6a	0.04185144
90	0xbc5aaaf8	-0.013346426
91	0xbe017ec0	-0.12646008
92	0xbe915df5	-0.28391996
93	0x3ecf12c9	0.4044402
94	0x3c918b22	0.017766539
95	0x3d0780f3	0.03308196
96	0xbcea6c26	-0.028616022
97	0x3d769a8b	0.060205977
98	0x3d1eaba9	0.038737927
99	0x3daf7954	0.085680634
100	0x3de55fd6	0.1119992
101	0x3d4e830b	0.05041794
102	0xbd977331	-0.07395018
103	0x3cd6ea5b	0.026234796
104	0xbdeb03f7	-0.114753656
105	0xbcb42365	-0.021989534
106	0xbdb184da	-0.086679175
107	0xbd680f4c	-0.056655213
108	0x3d8587c9	0.065200396
109	0x3acc9467	0.0015608192
110	0x3d564c6b	0.05231897
111	0x3daae940	0.0834527
112	0x3e598058	0.21240366
113	0x3cb4467c	0.022006266
114	0x39798b1f	0.00023798317
115	0xbc4469d0	-0.011988118
116	0x3dc7c249	0.09753854
117	0x3deac1c0	0.11462736
118	0x3e44f43d	0.19233795
119	0x3e1e52b8	0.15461242
120	0x3ea29792	0.31756264
121	0xbd4a9ac2	-0.049463995
122	0x3dda8a59	0.10670919
123	0x3e83a3c2	0.25710875
124	0x3dbd80ab	0.09253057
125	0xbcfbeb1d	-0.03075176
126	0xbe58f713	-0.21188001
127	0x3e0d31ba	0.137885
128	0xbd57a923	-0.052651536
129	0xbd8ed8cd	-0.06974945
130	0x3d5977e9	0.05309287
131	0x3dbf941f	0.09354424
132	0x3dff2480	0.12458134
133	0x3d3b7db0	0.04577416
134	0x3e0b21dc	0.13587135
135	0xbc8879c0	-0.016659617
136	0x3e4b4545	0.19850643
137	0x3edfe3ea	0.43728572
138	0x3da8a7df	0.08235144
139	0xbdead1cb	-0.11465796
140	0x3e974cdd	0.2955083
141	0x3d8cc511	0.06873525
142	0x3d9fe995	0.07808224
143	0xbe17a06b	-0.14807288
144	0x3deaa18b	0.11456593
145	0xbd0352ed	-0.032061506
146	0x3e3b044b	0.18263356
147	0x3c3f2fda	0.011669124
148	0x3cc8b2f0	0.024499387
149	0xbde1c237	-0.11023372
150	0x3ee8037b	0.45315155
151	0x3e1dd691	0.15413882
152	0x3ef3889e	0.47565168
153	0xbc65a6a4	-0.014016781
154	0xbd85daf6	-0.06535904
155	0x3c9cee3e	0.019156571
156	0x3d2f636d	0.04281943
157	0x3daa7215	0.08322541
158	0x3c65feff	0.014037847
159	0x3d3688ba	0.044563986
160	0x3df94839	0.121719785
161	0xbdbed8d8	-0.093187034
162	0x3d492548	0.04910782
163	0x3d1663ad	0.036716152
164	0xbd539fb8	-0.05166599
165	0x3e17d2ed	0.14826556
166	0x3dc1c4ba	0.09461351
167	0xbc3bf7e5	-0.011472677
168	0x3e0f376b	0.13985984
169	0xbdb25782	-0.08708097
170	0xbe6fa009	-0.23400892
171	0x3e146c30	0.14494395
172	0xbd96b420	-0.07358575
173	0xbda0d3c7	-0.07852893
174	0x3cba0f05	0.02271224
175	0x3d34623c	0.044038996
176	0xbc8b6b83	-0.017019039
177	0x3dd4b5ed	0.10386262
178	0x3e2dadcd	0.16960831
179	0xbde8fecf	-0.11376726
180	0xbd3079b9	-0.043084834
181	0x3cda5b68	0.026654914
182	0x3e8f1a5f	0.27949807
183	0x3e3b042e	0.18263313
184	0x3d345bba	0.04403279
185	0xba7bf7ce	-0.0009611816
186	0x3de02ddd	0.10946248
187	0xbdb48951	-0.088152535
188	0xbd9e4948	-0.07728821
189	0x3b86fd54	0.0041195545
190	0xbc2da6b4	-0.010598827
191	0x3dd0c268	0.1019333
192	0xbd118e52	-0.035536118
193	0x3af1c228	0.0018444704
194	0x3e0fdd9f	0.14049385
195	0xbbc85579	-0.0061137048
196	0x3ba2341d	0.00495006
197	0x3c153bef	0.009108528
198	0xbcf0950f	-0.029367952
199	0xbda632cb	-0.08115157
200	0x3bd15ca5	0.006389218
201	0xbc834af8	-0.016026959
202	0x3be0d89e	0.0068617603
203	0xbb7a44c8	-0.003818797
204	0x3e903682	0.28166586
205	0x3bf3135a	0.0074180784
206	0xbd4ff175	-0.05076738
207	0xba721e3e	-0.0009236074
208	0xbc0a37db	-0.008436169
209	0x3d72c43e	0.059269182
210	0x3dfe427e	0.12415026
211	0x3d8c39c9	0.06846959
212	0x3d9767d6	0.07392852
213	0xbe05dc7c	-0.1307239
214	0xbc83df40	-0.016097665
215	0x3d0fe703	0.03513242
216	0x3dea0013	0.114257954
217	0x3ca3f2c5	0.020013222
218	0x3dc18236	0.09448664
219	0xbc9cf099	-0.019157695
220	0x3deb8e5a	0.11501761
221	0x3ec44866	0.38336486
222	0xbd1fc66c	-0.03900759
223	0x3db4eeff	0.088346474
224	0xbe47e396	-0.19520411
225	0xbcd9e1f0	-0.026596993
226	0x3df312fc	0.11868855
227	0x3df70f38	0.120634496
228	0xbdc63e10	-0.09679806
229	0x3deacab3	0.11464443
230	0xbd981a88	-0.074269354
231	0x3cdd3385	0.027002105
232	0x3e173442	0.14766029
233	0xbe319721	-0.17342807
234	0x3c9fae0f	0.019492177
235	0x3d380088	0.04492238
236	0xbc5e9c0d	-0.01358701
237	0xbdeb4e2a	-0.11489518
238	0x3e181d2d	0.1485488
239	0x3e1f0c1b	0.15531962
240	0xbd896ce8	-0.06710225
241	0xbde82112	-0.11334433
242	0x3e709b6e	0.23496792
243	0x3da19966	0.078905866
244	0x3e411b78	0.18858135
245	0xbbc8905a	-0.0061207237
246	0x3c1ac953	0.0094474135
247	0x3d5a8e48	0.053358346
248	0x3e47a781	0.19497491
249	0x3e45390b	0.19260041
250	0x3bf8cad9	0.0075925407
251	0x3db885af	0.09009873
252	0x3e227df7	0.15868364
253	0x3df425a9	0.119212456
254	0xbd47ec40	-0.04880929
255	0xbdbeb55f	-0.093119375

lstm.weight_hh_l0 f4 [256, 64]
0	0x3ca4131a	0.02002864
1	0x3e3b16ea	0.1827046
2	0xbe4fc24a	-0.20288959
3	0xbc81c40b	-0.01584055
4	0x3cc16f9e	0.023612794
5	0x3df1c6ab	0.11805471
6	0xbd24421b	-0.040102106
7	0xbe3923c3	-0.18080048
8	0x3c02ddd2	0.007987456
9	0x3d9fbae0	0.077993155
10	0xbe1053a5	-0.14094408
11	0xbe04346a	-0.1291062
12	0xbd4ac097	-0.049500074
13	0x3d7523b8	0.059848517
14	0xbd91841d	-0.07105277
15	0x3db3e3df	0.08783697
16	0xbe57eab5	-0.21085627
17	0x3e347fb2	0.17626837
18	0xbba4e3b2	-0.005032026
19	0xbdb854ec	-0.090005726
20	0xbe4b8f4a	-0.19878879
21	0x3daa5c72	0.08318414
22	0xbe59df2d	-0.21276541
23	0xbda75559	-0.08170576
24	0xbd7d2e4f	-0.06181174
25	0x3d995f42	0.07488872
26	0xbd8bc2e0	-0.06824279
27	0xbdaa16ae	-0.08305107
28	0x3e056083	0.13025098
29	0xbd391bfe	-0.04519271
30	0x3cf5930d	0.029977346
31	0xbe2d0ace	-0.16898653
32	0xba9e30e5	-0.0012069015
33	0x3dc83221	0.09775186
34	0xbcab2c09	-0.020895021
35	0x3dd82ebf	0.10555791
36	0x3e195606	0.14974222
37	0x3deb98e4	0.11503771
38	0x3e3fbe52	0.18724945
39	0x3cc1a18e	0.023636606
40	0x3acae6fc	0.0015480216
41	0xbc49c636	-0.012315324
42	0xbd27b838	-0.04094717
43	0xbd021e8b	-0.03176741
44	0x3d805c09	0.06267554
45	0x3e364093	0.1779807
46	0x3e9338f4	0.2875439
47	0x3ba3075d	0.004975243
48	0xbd87b120	-0.06625581
49	0xbd2b6a06	-0.04184916
50	0xbe555595	-0.20833428
51	0x3ddaa412	0.10675825
52	0x3c7ed98e	0.015554799
53	0x3e3c8ca7	0.1841303
54	0xbdcc6390	-0.099799275
55	0x3bde9c74	0.006793553
56	0xbce95654	-0.028483547
57	0x3ced2559	0.028948473
58	0x3dfe52e9	0.124181576
59	0xbc97dd45	-0.018538127
60	0x3dd0945e	0.10184549
61	0xbc8dbfc6	-0.017303359
62	0x3e21d17b	0.15802567
63	0xbd65ed28	-0.056134373
64	0x3d791cde	0.060818546
65	0x3dad71b0	0.0846895
66	0xbdd11b5d	-0.10210297
67	0x3c95af5d	0.018272096
68	0xbdb82544	-0.08991483
69	0x3c2f74d3	0.010709005
70	0x3d95a36e	0.07306562
71	0x3d95efe9	0.0732115
72	0x3d6e135b	0.058123928
73	0xbca273d2	-0.019830618
74	0x3de8aa0b	0.11360558
75	0x3e09c1aa	0.13452783
76	0x3dbee7d7	0.09321564
77	0x3db1d9d5	0.08684126
78	0x3cc5db03	0.024152284
79	0xbdbd25e7	-0.09235745
80	0xbd7eb21b	-0.062181573
81	0xbdd3d4a8	-0.10343295
82	0xbcaec26b	-0.02133294
83	0xbc9663f3	-0.018358206
84	0xbdf205e1	-0.118175276
85	0xbdde95b4	-0.10868397
86	0xbe2fbdd8	-0.17162263
87	0xbc49ccd8	-0.012316905
88	0x3ced2c0b	0.028951665
89	0x3dab428e	0.08362304
90	0x3d0d7347	0.034533765
91	0xbd36c9e7	-0.044626143
92	0x3daede74	0.08538523
93	0x3e16f267	0.14740907
94	0xbac6ed80	-0.0015176982
95	0xbb8f59e3	-0.004374729
96	0xbdf25d1d	-0.11834166
97	0x3e1f679e	0.1556687
98	0x3cfa69ea	0.030568082
99	0x3e00ba15	0.12570985
100	0x3d08c10a	0.03338722
101	0xbdb32bc5	-0.08748583
102	0x3d3ef63b	0.046621542
103	0x3e0149a6	0.12625751
104	0x3dc7c524	0.097543985
105	0x3e6e66f6	0.23281464
106	0x3e31f997	0.17380367
107	0xbb029041	-0.0019922408
108	0xbd5e5679	-0.054281686
109	0x3d6cf8ee	0.057854585
110	0x3d8b9a52	0.06816544
111	0x3d84d649	0.06486184
112	0xbc833871	-0.016018124
113	0xbd826bce	-0.06368218
114	0x3d6ba1d4	0.05752738
115	0x3d15d93e	0.03658413
116	0xbda69b10	-0.081350446
117	0x3d196a3c	0.03745483
118	0xba988842	-0.0011637288
119	0x3dfc1c5f	0.12310099
120	0xbdd32ee9	-0.10311682
121	0xbe2ae5fe	-0.16689298
122	0xbd488398	-0.048953623
123	0x3d91c755	0.07118098
124	0x3dc2567d	0.094891526
125	0xbca4f58f	-0.020136623
126	0x3e2e7715	0.17037614
127	0xbd4a1563	-0.049336802
128	0xbe86e38e	-0.26345485
129	0x3dd1d9d2	0.10246624
130	0x3d238e35	0.03993054
131	0x3db240f6	0.087037966
132	0xbe22a6e2	-0.15883973
133	0xbd72a97f	-0.059243675
134	0x3dbb387d	0.09141634
135	0x3b452d2e	0.0030086744
136	0x3b6cc38a	0.0036127293
137	0x3d094a7c	0.0335183
138	0xbd8a69be	-0.0675845
139	0x3d6e0bad	0.058116604
140	0x3e21a150	0.15784192
141	0xbdbe8646	-0.093029544
142	0x3d56a90e	0.052407317
143	0x3c153021	0.009105713
144	0x3d0e1ce4	0.03469552
145	0xbd234026	-0.0398561
146	0xbd61703b	-0.055038672
147	0x3df80133	0.12109604
148	0xbbef8b76	-0.007310326
149	0xbd3d4677	-0.04620978
150	0x3e258c58	0.16166818
151	0x3d8f67dc	0.070022315
152	0xbe00c586	-0.12575349
153	0xbd38a22e	-0.04507654
154	0xbd4d1010	-0.050064147
155	0x3d0d9827	0.034568932
156	0xbdc0ecd4	-0.094201714
157	0x3d7841ca	0.060609616
158	0xbdc1e4f5	-0.09467498
159	0x3c8ea3cc	0.017412089
160	0xbd6ce664	-0.057836905
161	0x3e4c8f9e	0.1997666
162	0x3e22feb9	0.15917481
163	0xbe539a5c	-0.20664352
164	0x3da41b8e	0.08013068
165	0xbcc0ac2d	-0.0235196
166	0xbbd5baa6	-0.0065224944
167	0x3dd0324c	0.10165843
168	0xbd5556fc	-0.052084908
169	0xbd8a5b12	-0.067556515
170	0x3da84c3b	0.08217665
171	0xbdaecfc6	-0.085357234
172	0xbda2d541	-0.07950831
173	0xbdefa143	-0.1170068
174	0xbdc2531a	-0.094885066
175	0x3dc82c97	0.0977413
176	0xbc1252f6	-0.008930912
177	0xbbfe679a	-0.007763815
178	0x3db5c866	0.088761136
179	0xbe15bbbd	-0.14622398
180	0xbd0e0f72	-0.0346827
181	0xbe393150	-0.18085217
182	0x3e0f9d34	0.14024812
183	0x3d1c25e9	0.03812209
184	0x3dc955b5	0.098308004
185	0xbd563f3d	-0.052306402
186	0xbd3533c6	-0.044238828
187	0xbc843899	-0.01614027
188	0x3d6eaab0	0.05826825
189	0xbe66d50f	-0.22542213
190	0x3e7f112e	0.24908897
191	0x3d879694	0.066205174
192	0x3e4bfcb9	0.19920625
193	0x3e8cbd13	0.27488002
194	0xbde741a2	-0.11291815
195	0xbe7fb37e	-0.24970815
196	0x3e244c2a	0.1604468
197	0x3e8fc25c	0.28077972
198	0xbdc27d06	-0.094965026
199	0xbe0cb273	-0.13739948
200	0xbdf634d2	-0.120217934
201	0xbbfd9da4	-0.0077397395
202	0x3ebc6f22	0.36803538
203	0x3d0e9027	0.034805443
204	0xbe710444	-0.23536783
205	0x3cf8fd89	0.030394332
206	0xbe5df8ab	-0.2167689
207	0x3e21b9f3	0.1579359
208	0x3db4f17d	0.08835123
209	0x3e6e40e2	0.23266938
210	0x3d04f41c	0.032459363
211	0xbe00259e	-0.1251435
212	0xbe2a6dcb	-0.16643445
213	0xbd87dba6	-0.066336915
214	0xbe1d2e62	-0.15349725
215	0xbe36901b	-0.1782841
216	0x3ea54f9c	0.322873
217	0x3e68ee0b	0.22747056
218	0x3e41f3ef	0.1894071
219	0xbe82b86c	-0.25531328
220	0x3e3c05af	0.18361543
221	0xbe9c05d8	-0.30473208
222	0x3e4ed414	0.20198089
223	0xbe19c546	-0.1501666
224	0xbe8271bb	-0.25477394
225	0x3d155688	0.036459476
226	0xbe06b4a8	-0.13154852
227	0x3ec6e4cf	0.38846442
228	0x3d5c572c	0.05379407
229	0x3db66702	0.08906366
230	0x3dce8c96	0.100854084
231	0x3e3a5941	0.1819811
232	0xbe235d9e	-0.15953681
233	0x3e8828ba	0.26593572
234	0x3e50a24d	0.20374413
235	0x3b8df394	0.0043320153
236	0x3e4f3f47	0.20238982
237	0x3e2cc2e2	0.16871217
238	0xbd34b174	-0.044114545
239	0xbe5bd2e0	-0.21467161
240	0xbe8725ac	-0.2639593
241	0xbadeb311	-0.0016990622
242	0xbdbb31c7	-0.09140354
243	0x3e5582c8	0.2085067
244	0x3dd13da2	0.10216834
245	0x3d9731ff	0.07382583
246	0xbdfbcafb	-0.12294575
247	0x3e684e8c	0.22686213
248	0xbcb7f887	-0.022457374
249	0xbdc684b5	-0.096932806
250	0x3d6aba06	0.057306312
251	0xbe51a5e2	-0.20473436
252	0x3e19e661	0.15029289
253	0x3e7d5141	0.24738027
254	0x3e162a64	0.14664608
255	0xbe6372ac	-0.22211713

lstm.bias_ih_l0 f4 [256]
0	0x3d3e2cdd	0.046429504
1	0x3df9ea38	0.12202877
2	0xbd01e25a	-0.031710006
3	0x3c4fd530	0.012685105
4	0xbc0bc243	-0.008530202
5	0x3ce918b0	0.028454155
6	0xbdafa1f7	-0.08575814
7	0xbdc16bc7	-0.09444385
8	0x3e1810fe	0.14850232
9	0x3d457f0a	0.048216857
10	0x3e0cdcb3	0.13756065
11	0x3e2b7db4	0.1674717
12	0xbd8d47a5	-0.06898431
13	0xbd9ab530	-0.0755409
14	0xbe16904b	-0.14703481
15	0x3e1aac68	0.1510483
16	0x3df7dd3c	0.12102744
17	0x3e369d17	0.17833363
18	0x3bf9ea18	0.007626783
19	0xba269096	-0.00063539424
20	0xbc652e44	-0.013988081
21	0xbd995486	-0.07486825
22	0xbda07b01	-0.07835961
23	0x3aba1418	0.0014196662
24	0x3e2a787b	0.16647522
25	0x3e1324a2	0.14369443
26	0x3e980b99	0.29696348
27	0xbd8abdff	-0.0677452
28	0x3d937d7f	0.07201671
29	0xbd63c727	-0.05560985
30	0x3e1727eb	0.14761321
31	0xbcb5439b	-0.022126963
32	0xbd6408b4	-0.055672362
33	0x3e1fe256	0.15613684
34	0xbde4eef9	-0.11178393
35	0xbd16a1c9	-0.036775384
36	0x3db6e2af	0.08929955
37	0x3d1ab6f2	0.037772126
38	0xbdcc3a01	-0.09972001
39	0x3dcd5d50	0.100275636
40	0xbd727bc5	-0.059200067
41	0x3e0085af	0.12550996
42	0xbb4bc8ba	-0.0031094984
43	0xbb22db71	-0.0024850036
44	0x3e12ae82	0.14324382
45	0x3e215d01	0.15758134
46	0x3e3a90ae	0.18219253
47	0xbdea70eb	-0.11447319
48	0xbe1e8e12	-0.15483883
49	0xbd8ef1c0	-0.06979704
50	0x3d0682cd	0.032839585
51	0x3e23f40d	0.16011067
52	0x3d6d5a28	0.057947308
53	0x3d251bb4	0.040309623
54	0x3dcc1a47	0.099659495
55	0xbe3aabb1	-0.18229558
56	0xbe126172	-0.14294985
57	0x3d314d17	0.04328641
58	0xbe29c2e0	-0.16578245
59	0x3decbd45	0.11559538
60	0x3ddc80fd	0.1076679
61	0x3e021034	0.12701494
62	0x3e86e4b9	0.26346377
63	0x3e0f1ada	0.13975087
64	0xbdc3d41e	-0.095619425
65	0x3c34d554	0.0110371895
66	0xbca88a39	-0.020573722
67	0xbcb0f5cb	-0.021601578
68	0x3d0dba01	0.034601215
69	0xbd3d8116	-0.046265684
70	0xbe415d86	-0.18883333
71	0xbe53c018	-0.20678747
72	0xbdea7cdf	-0.114495985
73	0xbdec858d	-0.1154891
74	0x3d5ec5ed	0.054387975
75	0x3ce6b8ff	0.028164385
76	0x3de2c649	0.11072976
77	0x3e12ff98	0.14355314
78	0xbd0b1f50	-0.03396541
79	0x3da09e03	0.07842638
80	0xbe1291b6	-0.14313397
81	0xbd99720a	-0.07492454
82	0xbda66c03	-0.0812607
83	0x3dbbff22	0.09179522
84	0x3df5a2b0	0.11993921
85	0x3d6c197d	0.057641495
86	0xbd51464f	-0.051092442
87	0xbde85e24	-0.11346081
88	0x3d4a05e7	0.049322035
89	0x3dec6a13	0.115436696
90	0x3e461f13	0.19347791
91	0xbd19083c	-0.03736137
92	0x3d4b2f6f	0.049605783
93	0xbd82a51d	-0.06379149
94	0xbd9dafea	-0.076995686
95	0xbe025920	-0.12729311
96	0xbcf73ea4	-0.030181237
97	0xbd45312f	-0.04814261
98	0x3dae708b	0.085175596
99	0x3e15f1d0	0.14643025
100	0xbd72f78a	-0.059318103
101	0xbd469a82	-0.048487194
102	0xbd01a9ec	-0.03165619
103	0x3c2efb67	0.010680056
104	0xbd59c511	-0.053166453
105	0xbcd4ae80	-0.025962114
106	0x3d90a4cf	0.07062685
107	0x3b5c79dd	0.0033641972
108	0x3cdecbb3	0.02719674
109	0x3e009c19	0.12559547
110	0x3ba57f6e	0.005050591
111	0xbd3a0b7a	-0.0454211
112	0xbdcba301	-0.099432
113	0xbcf5e6f3	-0.030017352
114	0x3d66cc24	0.056347027
115	0x3d896fc4	0.06710771
116	0xbdfb01e8	-0.12256223
117	0x3d664ca4	0.056225434
118	0x3e205a97	0.15659557
119	0xbe079eba	-0.13244143
120	0x3acb337c	0.0015503014
121	0xbdc75341	-0.09732676
122	0xbd29a803	-0.041419994
123	0x3d3a65cc	0.045507237
124	0xbd915516	-0.07096307
125	0x3d9c043e	0.07617997
126	0xbd6a61e4	-0.057222262
127	0x3c0ffe40	0.008788645
128	0xbdf9dafb	-0.1219997
129	0x392560f8	0.0001577175
130	0xbd42ae4d	-0.047529507
131	0xbdd62fce	-0.10458337
132	0x3c8694be	0.016428348
133	0x3cba2476	0.022722464
134	0xbd7a8382	-0.061160572
135	0xbdbe02eb	-0.092779
136	0xbc0aae56	-0.0084644165
137	0x3cec7694	0.028865136
138	0x3d718963	0.058968913
139	0xbc071b37	-0.008246235
140	0xbdec2372	-0.11530198
141	0x3de4edd5	0.11178175
142	0xbd42defa	-0.04757593
143	0xbd67a71a	-0.056555845
144	0xbda730cc	-0.08163604
145	0x3df8675c	0.12129089
146	0x3cc5f48c	0.02416446
147	0xbca8247a	-0.020525206
148	0xbdfdd636	-0.12394373
149	0xbd0aa647	-0.03384998
150	0x3c1830f4	0.009289015
151	0x3cef1191	0.029183181
152	0x3d47e312	0.048800536
153	0x3dd5ea7a	0.104451135
154	0x3e457ba3	0.19285445
155	0xbd1f92e6	-0.038958453
156	0x3de5a5c4	0.11213258
157	0xbd2ef779	-0.042716477
158	0xbd88865e	-0.066662535
159	0xbe2af3e9	-0.16694607
160	0xbd1b9c73	-0.037991
161	0xbd90c595	-0.07068936
162	0xbd0f02dc	-0.034914836
163	0xbdea273a	-0.11433263
164	0x3de91bda	0.113822654
165	0xbdbcb819	-0.09214801
166	0xbd74ffcb	-0.059814256
167	0x3d5217a6	0.051292084
168	0xbd0414a7	-0.032246258
169	0x3daf0036	0.08544962
170	0x3e02150d	0.12703343
171	0x3c761d05	0.015021567
172	0x3d6c7e0c	0.057737395
173	0xbcab5db5	-0.020918706
174	0xbd44ba84	-0.048029438
175	0xbce2c4be	-0.027681705
176	0xbbc86454	-0.0061154757
177	0x3d4e134e	0.05031138
178	0x3da08e3c	0.07839629
179	0x3da962e0	0.08270812
180	0x3d245f63	0.04013003
181	0xbd8a1bc5	-0.06743578
182	0xbdc5e812	-0.096634045
183	0x3dac51c6	0.084140345
184	0xbd8e52b8	-0.06949371
185	0xbc898140	-0.016785264
186	0xbdf4e8da	-0.119584754
187	0xbd95c09f	-0.0731213
188	0x3d407e42	0.04699541
189	0xbd558649	-0.052130017
190	0xbdd60075	-0.10449306
191	0xbdf3dcad	-0.11907325
192	0x3e322a19	0.17398871
193	0xbd62c977	-0.055367913
194	0xbe2d0413	-0.16896085
195	0x3e15ebb9	0.14640702
196	0x3d1d1e21	0.03835881
197	0xbd1bc2fb	-0.038027745
198	0xbc03c806	-0.008043295
199	0xbdecd0e7	-0.115632825
200	0x3e1c9d1b	0.15294306
201	0xbd09f44f	-0.033680256
202	0xbd27540d	-0.04085164
203	0x3d9e3c83	0.077263854
204	0xbbc686a0	-0.006058529
205	0x3e01cc34	0.12675554
206	0xbd201344	-0.039080873
207	0xbd47cd6c	-0.04877989
208	0x3e3bed37	0.18352209
209	0x3d924522	0.07142092
210	0x3d814a6a	0.063130215
211	0xbdb10cf1	-0.086450465
212	0xbdb8a196	-0.09015195
213	0x3df5c129	0.11999733
214	0x3db1c4ea	0.086801365
215	0xbdee9974	-0.116503626
216	0x3de73be3	0.11290719
217	0x3df45776	0.11930744
218	0x3e0d765c	0.13814682
219	0x3b7354cf	0.0037129407
220	0x3e5f538c	0.21809214
221	0xbc40fa98	-0.011778496
222	0xbdc9b021	-0.09848047
223	0xbcc1ae8c	-0.0236428
224	0x3d34ce28	0.04414192
225	0x3e63b5bb	0.22237293
226	0xbdee6986	-0.11641221
227	0xbd070a98	-0.032969087
228	0x3e18c9b5	0.14920695
229	0xbda0a270	-0.078434825
230	0xbd2fcb6f	-0.04291862
231	0xbc09a499	-0.00840106
232	0xbe263d80	-0.16234398
233	0x3d92929c	0.0715687
234	0xbc9f8b0f	-0.019475488
235	0x3c0e2162	0.008674951
236	0x3d8d7ab0	0.069081664
237	0xbd16256d	-0.036656786
238	0xbd0b6be6	-0.034038447
239	0xbe10ea24	-0.14151818
240	0xbdcd3e30	-0.10021627
241	0xbba9757b	-0.0051714755
242	0xbd6ae3fb	-0.057346325
243	0x3e2bfc9c	0.16795582
244	0xbdfdd3aa	-0.12393887
245	0xbd8e2b94	-0.069419056
246	0xbd94bdd6	-0.07262771
247	0x3a7a3e5d	0.0009546036
248	0x3bb0c38f	0.005394406
249	0xbdc53edc	-0.0963113
250	0xbd2e9271	-0.042620126
251	0x3cb0924d	0.021554137
252	0x3d8a5865	0.06755141
253	0x3c9042bc	0.017609946
254	0x3e619d24	0.220326
255	0xbda15527	-0.0787757

lstm.bias_hh_l0 f4 [256]
0	0x3d91a064	0.0711067
1	0xbd078c98	-0.033093065
2	0xbe0c9984	-0.13730437
3	0x3d8b87d6	0.06813018
4	0xbdf66e0d	-0.12032709
5	0xbda76ddd	-0.08175252
6	0xbd3ba9f4	-0.045816377
7	0x3d306881	0.043068413
8	0x3d85e048	0.06536919
9	0x3cba09b0	0.022709697
10	0xbcf51a52	-0.029919777
11	0x3b6c4a94	0.0036055194
12	0xbdc09c2e	-0.09404789
13	0x3bb2f550	0.0054613724
14	0xbe1ae4e3	-0.15126376
15	0x3c7a28f2	0.015268551
16	0xbc5cf297	-0.013485572
17	0x3e18d64f	0.14925502
18	0xbdfc2171	-0.12311066
19	0xbddd276c	-0.10798535
20	0xbe03257d	-0.1280727
21	0x3e0eaf1a	0.13933983
22	0x3d714c82	0.058910854
23	0xbe076a0c	-0.13224047
24	0x3d8bc5f2	0.068248644
25	0xbc84b663	-0.01620025
26	0x3e009ac3	0.12559037
27	0x3d90239e	0.070380434
28	0xbc922ed7	-0.0178446
29	0xbc671be3	-0.01410577
30	0xbcc447db	-0.023960045
31	0x3d3e5e1d	0.046476472
32	0xbde192e3	-0.110143445
33	0x3e744544	0.23854548
34	0x3bbd8f94	0.005784938
35	0x3de8c382	0.11365415
36	0x3e6ddf46	0.23229703
37	0xbc574827	-0.013139761
38	0xbd8121c4	-0.063052684
39	0x3e1510b0	0.14557147
40	0xbcbf846d	-0.023378575
41	0x3d8f0135	0.06982652
42	0x3d942d0e	0.07235156
43	0x3d9b297a	0.075762704
44	0x3d806104	0.06268504
45	0x3e096265	0.13416441
46	0xbd099a56	-0.03359445
47	0x3d75f42c	0.060047314
48	0xbe1e0676	-0.15432152
49	0x3c5fa7ca	0.013650844
50	0x3d99dfc2	0.075133815
51	0x3e1802b3	0.1484478
52	0x3d8249d4	0.06361738
53	0xbde290ff	-0.11062812
54	0xbc3d8f3b	-0.011569793
55	0xbe57d92e	-0.21078941
56	0xbd3cf2f4	-0.046130136
57	0xbcb534d0	-0.02211991
58	0xbd10a670	-0.035314977
59	0xbd901d63	-0.07036855
60	0xbdb4bf23	-0.08825519
61	0xbd03e382	-0.03219939
62	0x3e8934bb	0.26798043
63	0x3e24fea6	0.16112766
64	0xbe3962dd	-0.1810412
65	0xbdda7a72	-0.10667886
66	0x3d92591d	0.07145903
67	0xbe417da3	-0.18895583
68	0x3bb32124	0.005466597
69	0xbe000afb	-0.12504189
70	0xbca44040	-0.020050168
71	0xbe64a46f	-0.22328351
72	0xbc1f4c9d	-0.009722856
73	0xbc474184	-0.012161616
74	0x3e1f4ccd	0.15556641
75	0xbca52a71	-0.02016184
76	0x3e2b382b	0.16720645
77	0x3dfa60ce	0.12225495
78	0xbe44c6d3	-0.1921647
79	0x3df43ca1	0.119256265
80	0xbdc15488	-0.09439951
81	0xbd0a60f1	-0.033783857
82	0xbd3b0197	-0.045655813
83	0x3d9d5f1e	0.07684158
84	0x3dde448c	0.10852918
85	0xbd7bfdfa	-0.061521508
86	0xbce38be1	-0.02777666
87	0xbdba09e6	-0.09083919
88	0x3c07d2e3	0.008290025
89	0x3cc8be62	0.024504844
90	0x3e8a4fcb	0.27014002
91	0x3e114c19	0.14189185
92	0xbe2d17ef	-0.16903661
93	0xbb15782c	-0.0022807224
94	0x3db90dea	0.09035857
95	0xbd07df34	-0.033171847
96	0xbd2c9870	-0.042137563
97	0xbd862a90	-0.06551087
98	0xbdcda6ad	-0.100415565
99	0xbd562edb	-0.05229078
100	0xbe351e49	-0.17687334
101	0x3d89d022	0.06729151
102	0x3d8a4750	0.06751883
103	0x3d863fb6	0.06555121
104	0x3bf09eb0	0.007343136
105	0x3dabc50c	0.08387193
106	0x3deaf11d	0.1147177
107	0xbd8401a4	-0.064456254
108	0x3debaa61	0.115071066
109	0x3dbf3ec2	0.09338142
110	0xbc701a5d	-0.014654723
111	0x3b0112aa	0.0019694963
112	0xbdbb68e9	-0.091508694
113	0x3d8950ec	0.06704888
114	0x3dd105db	0.10206195
115	0x3d112739	0.035437796
116	0x3d0f34dc	0.03496252
117	0xbbe232c6	-0.0069030253
118	0x3d02fe0b	0.031980556
119	0xbe4d0372	-0.20020846
120	0x3db78db8	0.089625776
121	0x3d19e68e	0.03757339
122	0xbd6b45e9	-0.05743972
123	0xbd79b692	-0.06096513
124	0xbdc2aaae	-0.09505211
125	0x3dd73088	0.105073035
126	0x3d8f9a56	0.07011859
127	0x3e02b1e8	0.12763178
128	0xbe109e04	-0.14122778
129	0x3dbadf9a	0.0912468
130	0xbcc52e6b	-0.024069985
131	0x3d91e524	0.07123783
132	0x3d62bfa7	0.055358555
133	0x3d5d794c	0.054070756
134	0xbd90722a	-0.07053025
135	0x3d402729	0.046912346
136	0x3e0ed253	0.1394742
137	0xbd289f17	-0.041167345
138	0x3d8f47b3	0.069960974
139	0xbd0a26c2	-0.03372837
140	0xbbc9ef61	-0.0061625694
141	0xbc78b936	-0.0151808765
142	0xbd0bffe1	-0.034179572
143	0xbd77a456	-0.060459457
144	0xbdff3782	-0.12461759
145	0x3df39acd	0.1189476
146	0xbccabbc8	-0.024747744
147	0x3dbef369	0.093237706
148	0xbce22824	-0.027607031
149	0xbdaa0873	-0.08302393
150	0xbd714722	-0.05890573
151	0xbde13ec3	-0.10998299
152	0x3e079e80	0.13244057
153	0xbda20198	-0.0791046
154	0x3dcac190	0.099002
155	0x3d122476	0.035679303
156	0x3d235ab4	0.039881423
157	0x3defbb12	0.11705603
158	0xbc1bf051	-0.009517745
159	0x3d1f4628	0.038885266
160	0xbbaa74f1	-0.005201929
161	0x3dcbd0e3	0.09951951
162	0xbc4698e5	-0.012121414
163	0xbcb11d40	-0.021620393
164	0xbd5da654	-0.0541137
165	0x3d22a21c	0.03970538
166	0x3d26eb7a	0.04075191
167	0x3dd59d27	0.10430365
168	0x3d97a419	0.07404346
169	0xbd107e8a	-0.035276927
170	0xbce25c77	-0.027631981
171	0x3d87de56	0.06634204
172	0xbd12c640	-0.035833597
173	0x3de3b0aa	0.1111768
174	0xbcf3cfa1	-0.029762091
175	0xbda4ca25	-0.080463685
176	0xbd6d724b	-0.057970326
177	0x3da59e90	0.08086884
178	0xbda56fd6	-0.08077972
179	0xbd336884	-0.043800846
180	0x3cad0e86	0.02112509
181	0x3dea217f	0.1143217
182	0x3db974ca	0.09055479
183	0xbcb75d0a	-0.022383232
184	0xbc5f7141	-0.013637842
185	0x3d84b928	0.06480628
186	0xbd18f149	-0.037339482
187	0xbc89d97f	-0.016827343
188	0x3dbb2fc1	0.09139968
189	0xbb8f4a41	-0.0043728654
190	0xbc0246c3	-0.007951441
191	0xbd5fec92	-0.05466897
192	0xbd26262f	-0.04056376
193	0xbdbc607b	-0.0919809
194	0x3d3cc537	0.046086516
195	0x3da5b76f	0.08091628
196	0xbdbbdf1b	-0.09173413
197	0x3da31df0	0.079646945
198	0xbe342675	-0.17592795
199	0x3cb88042	0.022522096
200	0x3e037d9e	0.12840888
201	0xbd01f990	-0.031732142
202	0xbdb83779	-0.089949556
203	0x3e2e5793	0.17025594
204	0x3cd9c806	0.026584636
205	0xba0db041	-0.0005404987
206	0xbe428466	-0.18995818
207	0x3deec9cb	0.11659583
208	0x3e269bed	0.16270418
209	0x3e0af2e5	0.1356922
210	0x3d822906	0.06355481
211	0xbcbd3286	-0.02309538
212	0x3bc6aea0	0.0060632974
213	0xbdf20f9d	-0.11819384
214	0x3db2b0aa	0.08725102
215	0xbdf9ebfc	-0.122032136
216	0x3dab5141	0.08365107
217	0x3be69298	0.0070365183
218	0x3e2e69f2	0.17032602
219	0xbd82d9c0	-0.06389189
220	0x3d382e70	0.04496616
221	0xbe26e736	-0.16299137
222	0x3e04963e	0.12947938
223	0xbc90eaef	-0.01769015
224	0xbcef8f64	-0.029243179
225	0x3e1cec65	0.15324552
226	0xbde6e45f	-0.11274027
227	0x3d83fdf7	0.06444924
228	0xbcf3a9d4	-0.029744066
229	0xbc7036ad	-0.014661473
230	0xbe040679	-0.12893094
231	0x3cc571b0	0.024102062
232	0xbe1133f6	-0.14179978
233	0x3dbeacc8	0.09310299
234	0x3d92f0a8	0.07174808
235	0x3d1e17b4	0.038596824
236	0x3cd1ff48	0.025634423
237	0x3e362929	0.17789139
238	0x3e4de83b	0.2010812
239	0xbdf816e1	-0.12113739
240	0xbdfb24a6	-0.122628495
241	0xbd9480d7	-0.07251137
242	0x3ca5c085	0.020233402
243	0x3d030dd0	0.031995595
244	0xbda977b5	-0.082747854
245	0xbce16275	-0.027512768
246	0x3d2ed3a1	0.042682294
247	0xbe55a8db	-0.20865194
248	0xbde020da	-0.10943766
249	0xbd90fc6d	-0.070793964
250	0xbe491e28	-0.1964041
251	0xbd0fe910	-0.035134375
252	0x3d6d6123	0.057953965
253	0xbcce8de5	-0.025214145
254	0x3e3878f6	0.18014893
255	0xbdacb421	-0.08432794

classifier.0.weight f4 [32, 64]
0	0x3e9bac1c	0.30404747
1	0x3d42e2ca	0.047579564
2	0x3c080a22	0.008303197
3	0xbef7441a	-0.48294145
4	0x3dc69669	0.09696657
5	0x3e4715db	0.19441931
6	0xbda6d87e	-0.08146761
7	0x3cf54ed7	0.02994482
8	0x3dad8aa3	0.084737085
9	0x3e6db019	0.23211707
10	0x3e03e25c	0.12879318
11	0xbe53ae0f	-0.20671867
12	0xbdfa562c	-0.12223467
13	0x3e2c15d1	0.16805197
14	0xbe5feff2	-0.21868876
15	0x3e8977e0	0.2684927
16	0x3dd48cc8	0.103784144
17	0x3f108f99	0.5646911
18	0x3d1771a5	0.036973614
19	0x3e3af047	0.18255721
20	0xbdf13fd7	-0.117797546
21	0x3ed7362d	0.4203352
22	0xbce0be7f	-0.027434586
23	0xbd4a380a	-0.04936985
24	0x3e87854a	0.2646888
25	0x3d29f1ec	0.04149048
26	0x3a66839e	0.0008793416
27	0xbe3632ac	-0.17792767
28	0xbced8d76	-0.028998118
29	0xbe252252	-0.16126373
30	0x3e5a70cc	0.21332091
31	0xbe201e2f	-0.15636514
32	0xbe612f18	-0.21990621
33	0xbec7c73f	-0.390192
34	0xbdb4d20e	-0.08829127
35	0x3c5cc235	0.013474037
36	0x3f06d984	0.5267565
37	0x3eb264ba	0.34842473
38	0x3d8820bf	0.06646871
39	0x3e461a5e	0.19345996
40	0xbd91f9ce	-0.071277246
41	0xbd1260d1	-0.035736863
42	0x3d7ce0a9	0.06173769
43	0x3c942631	0.018084617
44	0x3e99b236	0.30018777
45	0xbe554eed	-0.20830889
46	0x3e6db039	0.23211755
47	0xbdb26fe2	-0.08712746
48	0x3b598c29	0.0033195114
49	0x3dc429ed	0.09578309
50	0xbda376b7	-0.079816274
51	0x3f069194	0.52565885
52	0x3d9a7ff1	0.07543934
53	0x3e0ad1b0	0.13556552
54	0xbdf41214	-0.11917511
55	0x3e0ab3c0	0.13545132
56	0x3c9bdfff	0.019027708
57	0x3dbce2fa	0.0922298
58	0x3dc1cd06	0.09462933
59	0xbdda1a19	-0.10649509
60	0xbe3182d2	-0.1733506
61	0xbc2c6e70	-0.010524377
62	0xbeee846e	-0.4658541
63	0xbe26217f	-0.16223715
64	0x3e5460fa	0.20740119
65	0x3d81eb7d	0.06343744
66	0xbe21b30e	-0.1579096
67	0xbe85f48e	-0.26163143
68	0xbdf2ff1a	-0.11865063
69	0x3e6e743f	0.23286532
70	0xbe57d1d3	-0.21076135
71	0xbb9ee3b1	-0.0048489203
72	0x3ea19f8c	0.31567037
73	0x3d75868e	0.059942774
74	0x3e106570	0.14101195
75	0xbeb18dc2	-0.34678465
76	0xbe5e2f63	-0.21697764
77	0x3db07daf	0.08617722
78	0xbeb93c86	-0.36178988
79	0x3d6aa9e4	0.057290927
80	0x3e2cfee0	0.16894102
81	0x3ed9b158	0.42518115
82	0x3d8e149c	0.06937525
83	0x3e210f77	0.15728556
84	0x3d027a87	0.031855132
85	0x3e1cb5d1	0.15303732
86	0xbe07bcf1	-0.13255669
87	0x3d1651ff	0.03669929
88	0x3e4ee06c	0.20202798
89	0xbd5aa442	-0.053379305
90	0x3da1c0ee	0.078981265
91	0xbc0c1cbb	-0.008551772
92	0x3e05c5b8	0.13063705
93	0x3ca1d279	0.019753681
94	0x3e32c5fa	0.17458335
95	0xbdc6eb05	-0.09712795
96	0xbe5988fd	-0.21243663
97	0xbec79c09	-0.38986233
98	0xbb29d943	-0.0025916852
99	0x3d7c43c8	0.06158808
100	0x3f1b941b	0.60772866
101	0x3e94ff14	0.2910086
102	0x3cabce21	0.020972313
103	0x3d1971aa	0.037461914
104	0x3d11218f	0.035432395
105	0xbe421afb	-0.18955605
106	0x3d0b2152	0.033967324
107	0xbd82f9bc	-0.06395289
108	0x3e57310b	0.21014802
109	0x3d2b939e	0.041888826
110	0x3e062ff6	0.13104233
111	0x3be78ae7	0.007066119
112	0xbd39690a	-0.04526619
113	0x398cade1	0.0002683243
114	0xbe42ec40	-0.19035435
115	0x3f057016	0.52124155
116	0x3d1a37c6	0.037650846
117	0xbd425fc1	-0.0474546
118	0xbd8dbdd3	-0.06920972
119	0x3df78faa	0.120879486
120	0x3cb2bb92	0.021817956
121	0xbd5a3e48	-0.053282052
122	0x3e83585b	0.25653347
123	0xbdc2c245	-0.0950971
124	0xbd6d1940	-0.05788541
125	0x3e2c6f6b	0.16839378
126	0xbed9fdaf	-0.42576358
127	0xbdfebbd8	-0.12438172
128	0xbdbaf2aa	-0.09128316
129	0x3e184d91	0.14873339
130	0xbd393d73	-0.04522462
131	0xbe0577b7	-0.13033949
132	0xbd7ade06	-0.061246894
133	0x3e47a9d3	0.19498377
134	0xbdec9b3c	-0.11553046
135	0xbd8aa396	-0.06769483
136	0x3efd5036	0.4947526
137	0x3dfbf220	0.12302041
138	0x3e273c01	0.16331483
139	0xbd4bb91a	-0.049737073
140	0x3c32bf39	0.010909849
141	0x3dd918f8	0.106004655
142	0xbe6b73a3	-0.2299333
143	0xbdf553a5	-0.119788446
144	0x3d2db8e5	0.042412657
145	0x3e79aff3	0.24383526
146	0xbb30925c	-0.0026942706
147	0x3e41c0f7	0.18921266
148	0xbde3db45	-0.11125807
149	0x3e276f4f	0.16351055
150	0x3e09e569	0.1346642
151	0x3ca3cd07	0.019995226
152	0x3e03dee3	0.12877993
153	0xbcbb1a4b	-0.022839686
154	0x3d735bf6	0.059413873
155	0x3d996104	0.074892074
156	0x3e7a5f17	0.24450336
157	0xbbac1273	-0.0052512228
158	0x3e181853	0.14853029
159	0xbe0c7cb8	-0.13719451
160	0x3d886dbb	0.066615544
161	0xbe9189e0	-0.28425503
162	0xbd4d0575	-0.050054032
163	0xbe0f53f3	-0.13996868
164	0x3f22b3e7	0.6355576
165	0x3d49eac0	0.04929614
166	0x3c1b5160	0.0094798505
167	0x3d88593b	0.06657644
168	0xbce31097	-0.027717872
169	0xbe6b64b4	-0.22987634
170	0xbd3b5f29	-0.04574505
171	0x3991b1b9	0.0002778897
172	0x3e2fe9e7	0.1717907
173	0xbd469f78	-0.048491925
174	0x3da7fcc0	0.08202505
175	0x3d19e1c8	0.037568837
176	0x3d8cd682	0.068768516
177	0x3e2ff5d0	0.17183614
178	0xbe8581d8	-0.26075625
179	0x3e205ca5	0.15660341
180	0x3d18b323	0.037280213
181	0xbddd1416	-0.10794847
182	0x3d4641c5	0.048402566
183	0x3e00bdb6	0.12572369
184	0x3deb3c5f	0.11486124
185	0xbe0913b5	-0.13386424
186	0x3c870216	0.016480487
187	0xbd979c42	-0.07402851
188	0xbe4c5c64	-0.19957119
189	0x3d0b9050	0.034073174
190	0xbeb30fed	-0.34973088
191	0x3df07ff5	0.11743156
192	0xbea1ca85	-0.31599823
193	0x3e5c57ab	0.21517818
194	0xbd209f08	-0.039214164
195	0x3ee87e37	0.45408794
196	0x3e3c5e6d	0.18395396
197	0x3def16aa	0.11674245
198	0xbdf77953	-0.12083688
199	0xbe8a5aa9	-0.27022293
200	0xbe82da9d	-0.25557414
201	0xbe7ea16c	-0.24866265
202	0x3d961f2d	0.07330165
203	0x3eb512e3	0.35365972
204	0xbd21e65a	-0.03952632
205	0xbe58fffd	-0.21191402
206	0x3e15d287	0.14631091
207	0x3e8d750e	0.27628368
208	0xbeb3ff3d	-0.3515567
209	0xbf021f22	-0.50828755
210	0xbd2d42d6	-0.042300068
211	0xbe9a6b73	-0.30160102
212	0x3c542161	0.012947411
213	0xbe84c6d8	-0.25932956
214	0xbe6c03af	-0.2304828
215	0xbe8a8b62	-0.27059466
216	0x3c20fc2c	0.009825747
217	0x3e05980c	0.13046283
218	0x3e47d262	0.19513848
219	0xbe1005da	-0.14064732
220	0x3d3653a6	0.044513367
221	0xbe004dd4	-0.12529689
222	0x3bee01c4	0.007263394
223	0xbe3e432f	-0.18580316
224	0x3d0a73a7	0.0338017
225	0x3ee2229d	0.44167033
226	0xbe619b65	-0.22031935
227	0xbe07af48	-0.13250458
228	0xbf044248	-0.5166364
229	0xbead28ea	-0.33820277
230	0x3d4cef70	0.050033033
231	0x3dd7b5b9	0.10532708
232	0xbe37715c	-0.17914337
233	0x3e049997	0.12949215
234	0x3e76c39f	0.24098061
235	0x3e391ef8	0.1807822
236	0xbd4c15c1	-0.049825434
237	0x3ec68d7c	0.3877982
238	0xbe88aed3	-0.2669588
239	0xbe7effc0	-0.24902248
240	0xbdd55823	-0.10417201
241	0xbd79abd9	-0.060954902
242	0xbc893c33	-0.016752338
243	0xbece6cb0	-0.40317297
244	0x3e2a46e5	0.16628607
245	0x3e79d195	0.24396355
246	0xbe265e00	-0.16246796
247	0xbc03f154	-0.008053143
248	0xbd888f90	-0.066680074
249	0xbde09e2a	-0.109676674
250	0x3e3ba08a	0.1832296
251	0xbe1851ee	-0.14875004
252	0x3ea0df13	0.31420192
253	0x3e8bd1a6	0.27308387
254	0x3f0f62d0	0.5601015
255	0x3b5daeb1	0.0033826048

classifier.0.bias f4 [32]
0	0x3e6ebe5c	0.23314804
1	0x3d45ebd4	0.048320606
2	0x3dc5bf35	0.096556105
3	0xbc97cfc5	-0.01853169
4	0x3db1346c	0.08652577
5	0x3de101e0	0.10986686
6	0x3dfbc8a6	0.1229413
7	0x3deb8057	0.11499088
8	0x3d002989	0.03128961
9	0x3e2507ed	0.16116305
10	0x3e1e6f9e	0.15472266
11	0xbe15ad2e	-0.14616844
12	0x3e400282	0.18750957
13	0x3e264a28	0.16239226
14	0x3e7be188	0.24597752
15	0x3db01ac3	0.085988544
16	0x3d9d55ff	0.07682418
17	0x3db55c53	0.088555
18	0x3e03a785	0.12856872
19	0x3d990543	0.07471707
20	0x3d1b5fb1	0.037933055
21	0x3e461586	0.19344148
22	0x3e760238	0.24024284
23	0x3df625b9	0.12018914
24	0x3d6722d5	0.056429703
25	0x3e05ea6d	0.13077708
26	0x3e2f80cd	0.17138977
27	0x3da95f68	0.082701504
28	0x3e7b0032	0.24511793
29	0x3d95caa0	0.07314038
30	0x3d53d4b5	0.051716525
31	0x3dc286d2	0.09498371

classifier.2.weight f4 [2, 32]
0	0x3ec3bee7	0.38231584
1	0x3eed600a	0.46362334
2	0x3eb06bba	0.3445719
3	0xbefb9f4b	-0.49144968
4	0xbe94d352	-0.29067475
5	0xbed7c265	-0.421405
6	0xbeea5c34	-0.4577347
7	0x3f10c665	0.56552726
8	0x3e0c493c	0.13699812
9	0x3eeded98	0.46470332
10	0xbeaec416	-0.34133977
11	0xbd2f1dad	-0.04275291
12	0x3f0e6753	0.5562641
13	0x3e7a8d30	0.24467921
14	0x3e7e7218	0.24848211
15	0xbed8eab8	-0.42366576
16	0xbef766a4	-0.48320496
17	0x3e88f24d	0.2674736
18	0x3ebe049b	0.3711289
19	0x3f59a3c9	0.8501554
20	0xbeabac06	-0.3352968
21	0x3f018190	0.5058832
22	0x3e5865ea	0.21132627
23	0xbec4cd17	-0.3843772
24	0xbf01d7af	-0.5071973
25	0x3ea4d08d	0.32190362
26	0x3e5a0f94	0.21295005
27	0x3e96b8ba	0.2943781
28	0x3ec79838	0.3898332
29	0x3ee41392	0.4454618
30	0x3e46726e	0.19379589
31	0x3e6266ba	0.221095
32	0xbf1e8ce6	-0.61933744
33	0xbf15e617	-0.58554214
34	0xbeac0222	-0.33595377
35	0x3ec678c7	0.3876402
36	0x3eecfef6	0.4628827
37	0x3e4fa2a5	0.20276888
38	0x3e853f0e	0.2602467
39	0xbf10048e	-0.5625695
40	0xbee49467	-0.44644472
41	0xbeefd71b	-0.468438
42	0x3eae822a	0.34083682
43	0x3dc9bd95	0.09850613
44	0xbee2ef7d	-0.4432334
45	0xbe963944	-0.29340565
46	0xbf116bf5	-0.56805354
47	0x3eb690e8	0.3565743
48	0x3ead9038	0.33899093
49	0xbe5a95c8	-0.213462
50	0xbe80bb5b	-0.2514294
51	0xbf3ba975	-0.73305446
52	0x3ed9c89a	0.4253586
53	0xbebc1707	-0.36736318
54	0xbef4974b	-0.47771677
55	0x3eb8c8fa	0.36090833
56	0x3eb9da3e	0.36299318
57	0xbe0fdaf6	-0.1404837
58	0xbebfad50	-0.37436914
59	0xbec7e44c	-0.39041364
60	0xbf09d4fd	-0.5384062
61	0xbf065929	-0.524798
62	0xbe888c2b	-0.2666944
63	0xbebf386c	-0.37347734

classifier.2.bias f4 [2]
0	0x3d9e7479	0.07737059
1	0xbe0787b4	-0.1323536
