src/DARPA/baselines/multi_class_lstm/original/no_class_weights/run_20260126_1147/model.pth (torch, 194545 bytes, 8 tensors)

lstm.weight_ih_l0 f4 [256, 112]
0	0x3d7beed3	0.061507057
1	0xbd1581ca	-0.03650073
2	0xbdafa3a0	-0.08576131
3	0x3dfd3f5e	0.12365602
4	0xbd7135a9	-0.058889065
5	0x3dab88d2	0.08375706
6	0x3d373c5a	0.04473529
7	0x3df37e86	0.11889367
8	0x3d5ad884	0.05342914
9	0x3de3edc2	0.11129333
10	0xbd24bf84	-0.040221706
11	0x3d36ca93	0.044626784
12	0x3db5a6f0	0.088697314
13	0x3de98b7e	0.11403559
14	0xbe123c90	-0.14280915
15	0xbdeb3b49	-0.11485917
16	0x3dbafe05	0.09130482
17	0x3d33f404	0.043933883
18	0x3df7da00	0.12102127
19	0x3cdbdffa	0.026840199
20	0xbd65ca0c	-0.05610089
21	0x3d947046	0.07247977
22	0xbd8a72a1	-0.06760145
23	0x3dbee88d	0.09321699
24	0xbdc01bd1	-0.093803056
25	0x3e0f7838	0.14010704
26	0x3d889137	0.066683225
27	0xbd5921e4	-0.053010836
28	0x3c66f346	0.014096087
29	0xbbe5633f	-0.0070003564
30	0x3da81203	0.082065605
31	0x3e12bf5c	0.1433081
32	0x3dd053a4	0.10172203
33	0x3dbea7c0	0.093093395
34	0x3ddce7c8	0.10786396
35	0x3d098ced	0.033581663
36	0x3dc59461	0.09647442
37	0x3d6a549d	0.0572096
38	0xbc137688	-0.009000428
39	0xbd4f88b7	-0.05066749
40	0xbd486fac	-0.048934624
41	0x3e045e9c	0.12926716
42	0xbbaf721e	-0.00535418
43	0xbdae0037	-0.08496135
44	0x3e3376db	0.17525809
45	0xbdab969b	-0.08378335
46	0x3dcf18e2	0.10112168
47	0x3d5284e7	0.051396277
48	0xbc5248ca	-0.012834737
49	0x3cf722c9	0.030167954
50	0xbc91f151	-0.017815264
51	0xbc19cc6d	-0.009387118
52	0x3daccc76	0.08437435
53	0xbd22c8da	-0.03974233
54	0x3dcf9b41	0.10137034
55	0xbcbf31c6	-0.023339164
56	0xbd45a035	-0.04824849
57	0x3d1a8045	0.037719984
58	0xbdd4ff58	-0.104002655
59	0x3e4c5597	0.19954525
60	0x3a686ffe	0.0008866786
61	0x3e0db26d	0.13837595
62	0xbd9946ca	-0.07484205
63	0xbd87dacc	-0.06633529
64	0xbdf92817	-0.1216585
65	0x3e420057	0.18945442
66	0xbd453fc7	-0.048156526
67	0x3de75d1f	0.11297058
68	0x3ca23043	0.019798404
69	0xbe0916be	-0.13387582
70	0xbcf7f4c0	-0.030268073
71	0x3d7ab210	0.06120497
72	0xbd0dd459	-0.03462634
73	0x3d58fb3b	0.052973967
74	0xbbb6032b	-0.005554577
75	0xbdcb4532	-0.09925307
76	0x3d9af9fb	0.07567211
77	0x3afebb4c	0.0019434481
78	0x3e2dbaed	0.16965838
79	0x3dbf85ca	0.0935169
80	0x3d6fc478	0.058536977
81	0xbd644e08	-0.05573848
82	0xbcaa2a64	-0.020772167
83	0x3d81f205	0.0634499
84	0x3d13229e	0.035921685
85	0x3e2f491d	0.17117734
86	0xbd4c7ceb	-0.04992382
87	0x3dce086e	0.100602016
88	0xbcbe603e	-0.023239251
89	0xbd238604	-0.03992273
90	0x3c7123e0	0.014718026
91	0x3e19040e	0.14942953
92	0x3cb8c544	0.022555001
93	0xbdd048d9	-0.101701446
94	0xbd3eab95	-0.046550352
95	0xbd1e16fc	-0.03859614
96	0x3da674ce	0.081277475
97	0x3e131eea	0.14367262
98	0x3d44ea83	0.04807521
99	0xbda7bb44	-0.08190015
100	0xbdba3d18	-0.09093684
101	0x3d5e4af7	0.05427071
102	0xbd72ce4d	-0.059278775
103	0x3dc38b85	0.095480956
104	0x3c86a189	0.016434448
105	0x3d259c6c	0.04043238
106	0x3dc14bab	0.09438261
107	0x3e0ac438	0.13551414
108	0x3817d727	3.620158e-05
109	0x3cdce883	0.026966339
110	0x3dc7fe42	0.09765293
111	0x3d2a76d2	0.041617222
112	0x3b245329	0.0025073981
113	0x3debe8f1	0.115190394
114	0xbdcf8a5a	-0.1013381
115	0x3cde0040	0.027099729
116	0x3d631cc0	0.05544734
117	0x3dfb8d10	0.12282765
118	0x3d8cceea	0.06875403
119	0xbd877025	-0.06613187
120	0xbd845c3e	-0.06462906
121	0x3d71e283	0.05905391
122	0x3d762ceb	0.06010143
123	0xbe0d7bbf	-0.13816737
124	0x3ea8d1c9	0.32972553
125	0x3d82b196	0.06381528
126	0xbcad8b31	-0.021184536
127	0xbd6cf03b	-0.05784629
128	0x3d5c3e3d	0.053770293
129	0x3de2dd03	0.11077311
130	0x3e37a328	0.17933333
131	0x3d41aa42	0.04728151
132	0x3e243bcf	0.1603844
133	0xbd56a532	-0.052403636
134	0x3e6a06cf	0.2285416
135	0x3d7cdce9	0.061734114
136	0xbdb02569	-0.086008854
137	0xbdbf9d3b	-0.09356161
138	0xbba08f2f	-0.0048998813
139	0xbd404a22	-0.0469457
140	0x3e1e220e	0.15442678
141	0xbce065c6	-0.02739228
142	0x3dfac53c	0.12244651
143	0x3d7bcc59	0.061474178
144	0x3e60bb81	0.21946527
145	0x3cd43f4d	0.02590909
146	0x3d90eae6	0.07076053
147	0x3e42162d	0.18953772
148	0x3d2f568f	0.042807158
149	0x3dcfabcf	0.10140192
150	0xbd1785f2	-0.036992975
151	0xbd7ac668	-0.06122437
152	0xbcbcb661	-0.023036184
153	0x3d9dfe67	0.07714539
154	0x3d485873	0.048912477
155	0x3e4039ca	0.18772045
156	0x3e99cbbd	0.30038252
157	0x3e09c23d	0.13453002
158	0x3e84ad7e	0.25913614
159	0xbd97bfeb	-0.07409652
160	0x3df00b03	0.1172085
161	0x3d4d6ca7	0.050152447
162	0x3d9fefb3	0.07809391
163	0xbd5194e6	-0.05116739
164	0x3e285cf6	0.16441712
165	0x3dfe681b	0.124222
166	0x3e3a2f05	0.18181999
167	0x3c8f073c	0.017459504
168	0x3d0253f3	0.03181834
169	0xbd73021b	-0.05932818
170	0x3e06122d	0.13092871
171	0x3e47f66a	0.19527593
172	0x3e1ba306	0.15198907
173	0x3e2c1224	0.16803795
174	0x3ddd19e8	0.10795957
175	0x3dca19c8	0.09868199
176	0x3dc22e22	0.094814554
177	0x3df9db2c	0.12200007
178	0x3e2e0142	0.16992667
179	0x3bc68629	0.0060584736
180	0xbdc90e57	-0.09817188
181	0xbd922321	-0.071356066
182	0x3d996b5e	0.07491182
183	0xbd52f66a	-0.05150453
184	0xbd000c48	-0.031261712
185	0xbdaf691f	-0.08564972
186	0xbb67dd0e	-0.0035379562
187	0x3bb98cd9	0.0056625423
188	0xbce4ae9c	-0.027915291
189	0xbde49288	-0.11160761
190	0xbb754a0a	-0.0037428164
191	0x3d66a625	0.05631079
192	0x3e5da544	0.21645075
193	0x3d94bad8	0.072622
194	0x3e63bdc9	0.22240366
195	0x3dbebe10	0.09313595
196	0x3e79a766	0.24380264
197	0xbbf05737	-0.0073346156
198	0x3e727341	0.23676778
199	0x3dbf90d9	0.093537994
200	0x3dcd6ff6	0.100311205
201	0x3db1cf52	0.08682121
202	0x3e086a25	0.13321741
203	0x3e39ee0c	0.18157214
204	0x3e1d6950	0.15372205
205	0x3dc6c6a2	0.09705855
206	0x3d50dac7	0.050989892
207	0xbba3c31b	-0.0049976236
208	0x3d0a907c	0.033829197
209	0xbd1dd38b	-0.03853182
210	0x3e22b93a	0.15890971
211	0xbd904d3e	-0.07045983
212	0x3e043ee5	0.12914617
213	0x3ddf2185	0.10895065
214	0x3e3f4ccc	0.1868164
215	0xbd056632	-0.032568164
216	0x3b92b25d	0.004476829
217	0x3dae6b22	0.08516528
218	0x3da15965	0.07878379
219	0x3dc7d5dd	0.09757588
220	0x3e01a7c8	0.1266166
221	0xbda4953e	-0.08036278
222	0xbe00f496	-0.12593302
223	0x3d7152bb	0.05891679
224	0x3d635224	0.055498257
225	0x3d85f54b	0.065409265
226	0x3da2f9a8	0.079577744
227	0x3dad2f7e	0.08456324
228	0x3cb5fa43	0.02221406
229	0x3ce9359d	0.028467948
230	0xbddc7156	-0.107638046
231	0xbcd889bf	-0.02643287
232	0xbd93a378	-0.072089136
233	0xbc98d2b1	-0.018655153
234	0xbd3bd603	-0.045858394
235	0x3bd579bd	0.0065147565
236	0x3e9a72b4	0.30165637
237	0x3dcbc7b0	0.09950197
238	0xbda88012	-0.082275525
239	0x3e255910	0.16147256
240	0x3e41f918	0.18942678
241	0xbe1e65cd	-0.15468521
242	0xbc746a5d	-0.014917937
243	0x3e20f614	0.15718871
244	0x3e2f9552	0.17146805
245	0xbde0d013	-0.10977187
246	0x3e3caed8	0.18426073
247	0x3ded3687	0.11582666
248	0x3e1a1d32	0.150502
249	0x3d9cd690	0.07658112
250	0x3ea457ac	0.32098138
251	0xbd5b9bec	-0.053615496
252	0xbda97068	-0.08273393
253	0x3e5250d2	0.20538643
254	0x3e48c545	0.19606502
255	0x3ba36acd	0.004987097

lstm.weight_hh_l0 f4 [256, 64]
0	0x3d9acc89	0.07558543
1	0x3d00d6c0	0.0314548
2	0xbd104313	-0.035220217
3	0xbdb6db0e	-0.089285
4	0x3d3477dd	0.044059623
5	0xbd5be741	-0.053687338
6	0xbda85f93	-0.08221354
7	0x3dc608ae	0.09669624
8	0xbe01dc8e	-0.12681791
9	0xbcb69f85	-0.022292862
10	0xbd5f57a5	-0.054526944
11	0x3e0059ae	0.1253421
12	0xbdc19674	-0.09452525
13	0x3ba580a4	0.0050507355
14	0x3d9b8c95	0.07595173
15	0xbd1f4286	-0.0388818
16	0xbc5d78f1	-0.013517604
17	0x3cef149f	0.029184638
18	0x3e02b7f7	0.1276549
19	0x3d8eee33	0.06979027
20	0x3d47b35d	0.04875504
21	0xbbecdf72	-0.007228785
22	0x3c647efd	0.013946292
23	0xbe0396d2	-0.12850502
24	0xbdbcdb75	-0.092215456
25	0xbd61326d	-0.05497973
26	0xbde8ba8d	-0.11363707
27	0x3dc79878	0.09745878
28	0x3d6be2ee	0.057589464
29	0x3c2caca9	0.010539212
30	0xbd8d8dfb	-0.06911846
31	0xbde5d5f6	-0.112224504
32	0xbd38950b	-0.045064013
33	0xbd8bdff6	-0.068298265
34	0xbdf1a7b3	-0.11799564
35	0x3ccfec7c	0.02538132
36	0xbdb822b8	-0.08990997
37	0xbd1b5b93	-0.03792913
38	0x3c1993f4	0.009373654
39	0x3e147ba4	0.1450029
40	0x3e1a1a82	0.15049174
41	0x3ab61478	0.0013891598
42	0xbd5dec0b	-0.054180186
43	0xbe1c5c88	-0.15269673
44	0x3de215e2	0.1103933
45	0x3dc703fd	0.097175576
46	0xbd6a9781	-0.05727339
47	0x3db54118	0.08850306
48	0xbd5b51b6	-0.053544722
49	0x3d1d55f4	0.03841205
50	0x3d315d20	0.0433017
51	0xbdaa5b55	-0.083182015
52	0xbcee8dd0	-0.029120356
53	0x3e0f1e2e	0.13976356
54	0xbdb43560	-0.08799243
55	0xbde88026	-0.113525674
56	0xbc82fce3	-0.015989726
57	0xbd9a9c29	-0.075493164
58	0x3deb5b2a	0.114919975
59	0x3d90b3d5	0.0706555
60	0x3c9c3687	0.01906897
61	0x3dfb4cc4	0.12270501
62	0x3e19d507	0.1502267
63	0x3d03ab81	0.03214598
64	0x3cc12b21	0.023580136
65	0xbc7c41ea	-0.0153965745
66	0xbdd7c0f9	-0.105348535
67	0x3dde96e4	0.10868624
68	0x3d172de0	0.036908984
69	0xbccc37cf	-0.024928955
70	0x3e07c111	0.13257243
71	0x3d64bdcf	0.055845078
72	0xbd191714	-0.037375525
73	0x3e0de4db	0.13856833
74	0x3d56943d	0.052387465
75	0xbd9585c5	-0.07300905
76	0x3da1656e	0.07880674
77	0xbcb09ad0	-0.021558195
78	0xbe000878	-0.1250323
79	0x3d3c58f8	0.045983285
80	0x3dd452de	0.10367368
81	0xbd935596	-0.071940586
82	0xbddf7e9e	-0.10912822
83	0xbc745f14	-0.0149152465
84	0xbdec6646	-0.115429446
85	0x3c62b395	0.013836761
86	0xbd940db3	-0.072291754
87	0xbdb0ff34	-0.08642426
88	0xbdb9f737	-0.090803556
89	0xbccdb2cc	-0.025109671
90	0xbdfc1fee	-0.123107776
91	0x3d3a7f3f	0.045531508
92	0xbc4f2e95	-0.012645383
93	0xbcce8385	-0.025209198
94	0x3dc9586a	0.09831317
95	0x3dc65ffb	0.096862756
96	0xbdd3727a	-0.10324569
97	0xbe06066c	-0.13088387
98	0x3d967c40	0.073479176
99	0xbde1a4d5	-0.11017767
100	0x3e1f964d	0.15584679
101	0x3a273b51	0.0006379383
102	0xbd0da5ce	-0.03458195
103	0xbd91c9d5	-0.071185745
104	0x3dcafbf1	0.09911335
105	0xbe0454a7	-0.12922917
106	0xbb4a9ca8	-0.0030916128
107	0x3baaeedb	0.005216462
108	0xbd8caf2a	-0.068693474
109	0x3ded377d	0.11582849
110	0xbd23100d	-0.03981023
111	0x3d952a78	0.07283491
112	0xbdf75767	-0.120772175
113	0x3c980693	0.018557822
114	0xbd9ddbb9	-0.077079244
115	0xbddad61e	-0.10685371
116	0x3dd73fc6	0.10510211
117	0x3df854ba	0.12125535
118	0xbc805862	-0.015667144
119	0x3dac19a7	0.0840333
120	0xbbf5698b	-0.0074893883
121	0xbd12352f	-0.03569525
122	0x3e144d19	0.14482535
123	0xbce2fcf0	-0.0277085
124	0x3da379a7	0.07982188
125	0xbda0eba9	-0.078574486
126	0x3bcb3312	0.0062011564
127	0xbdcde6c3	-0.1005378
128	0x3e24ea1b	0.16104929
129	0xbd6ed500	-0.0583086
130	0x3e164f80	0.14678764
131	0x3d35c217	0.04437455
132	0xbcbfecb3	-0.023428297
133	0xbbc600b3	-0.006042564
134	0x3c47a9ee	0.0121865105
135	0x3d1acc64	0.03779258
136	0xbd4a94e4	-0.0494584
137	0xbd19b359	-0.037524555
138	0xbd8102a8	-0.06299335
139	0x3d3f1cd0	0.046658337
140	0xbddfc204	-0.109256774
141	0x3dedfd58	0.11620587
142	0xbdfcffa4	-0.12353447
143	0xbd6b9236	-0.057512484
144	0xbce58c4c	-0.028021
145	0xbd30b22c	-0.043138668
146	0xbd780624	-0.06055273
147	0x3c93f573	0.018061375
148	0x3c824091	0.015899928
149	0x3cda1e4a	0.026625771
150	0x3d9c7c10	0.076408505
151	0x3d055374	0.03255029
152	0x3c944488	0.018099084
153	0x3c490ff5	0.012271871
154	0x3defc4ba	0.117074445
155	0x3d990955	0.07472483
156	0x3c187361	0.009304852
157	0xbca22678	-0.019793734
158	0xbb7a2038	-0.0038166177
159	0xbd542c1d	-0.051799882
160	0xbd5c5f1c	-0.05380164
161	0xbddb6d2c	-0.10714182
162	0xbda5ca34	-0.08095208
163	0x3d71427d	0.0589013
164	0xbd03e729	-0.032202873
165	0xbdf32000	-0.11871338
166	0xbc98ec90	-0.01866749
167	0x3df7ce58	0.12099904
168	0x3d75576c	0.059897825
169	0xbe2874aa	-0.16450754
170	0x3e006159	0.12537135
171	0xbc990d94	-0.018683232
172	0xbcac52f3	-0.021035647
173	0xbd956d98	-0.07296294
174	0xbd660fc5	-0.056167383
175	0x3e1d6e07	0.15374003
176	0x3dab6d1d	0.08370421
177	0xbd89c3a9	-0.06726772
178	0xbda0c3cc	-0.07849845
179	0x3dc27535	0.09495012
180	0x3ddeb2fa	0.10873981
181	0x3dfa0a2b	0.12208971
182	0x3d595b8d	0.053065825
183	0x3d833427	0.06406432
184	0xbc086623	-0.008325133
185	0xbe12a94a	-0.14322391
186	0xbd211c04	-0.03933336
187	0xbdb9474d	-0.09046803
188	0x3dce29a4	0.10066536
189	0x3df79e4b	0.12090739
190	0x3d8aeb87	0.067832045
191	0xbae9e080	-0.0017843395
192	0x3e2a5dc0	0.16637325
193	0x3e028c90	0.12748933
194	0x3dc354f0	0.09537685
195	0xbd590d39	-0.052991126
196	0x3de448dd	0.1114671
197	0x3d041f30	0.032256305
198	0xbd37f29c	-0.044909105
199	0x3cc65464	0.024210162
200	0xbdae2666	-0.08503418
201	0x3b5652ab	0.0032703083
202	0xbd76b8a1	-0.06023467
203	0xbd244911	-0.040108744
204	0x3dca85de	0.098888144
205	0x3e18e27e	0.1493015
206	0xbd5eff20	-0.054442525
207	0xbd2625d9	-0.040563438
208	0x3ba6de5a	0.0050924243
209	0x3d9db6dd	0.07700894
210	0x3dc8d9ac	0.098071426
211	0x3e2421a0	0.16028452
212	0x3d978900	0.073991776
213	0x3d88cea5	0.06680039
214	0xbda2d6f4	-0.07951155
215	0xbda2665e	-0.07929681
216	0xbd8d08d5	-0.0688645
217	0xbb4e0b63	-0.0031439892
218	0xbd1e7b90	-0.038692057
219	0x3e0fbc1e	0.14036605
220	0xbca1467f	-0.019686935
221	0x3d99e1ad	0.07513747
222	0xbdc1b1a5	-0.09457711
223	0xbe098a18	-0.13431585
224	0xbc0d682c	-0.008630794
225	0xbe11a9a2	-0.14224866
226	0xbde2ff54	-0.11083856
227	0x3d922060	0.07135081
228	0xbd5dab9e	-0.054118745
229	0xbcca0f76	-0.024665575
230	0xbcced11f	-0.025246201
231	0xbc29240e	-0.0103235375
232	0x3cd10e25	0.02551944
233	0x3d5c1303	0.05372907
234	0x3e1cbce5	0.15306433
235	0x3a80fcf9	0.0009841017
236	0x3e20d96c	0.1570794
237	0xbd6dd19e	-0.058061235
238	0xbdcc0c62	-0.09963299
239	0x3e06af09	0.13152708
240	0x3d87b28a	0.066258505
241	0x3ceafe57	0.028685732
242	0xbced7dfc	-0.028990738
243	0xbd61eff3	-0.055160474
244	0x3e311200	0.17292023
245	0xbcc71437	-0.024301631
246	0xbd2e39f5	-0.04253574
247	0x3d9c7ff1	0.076415904
248	0xbb8244bb	-0.0039754785
249	0xbe1c5d85	-0.1527005
250	0xbdc3cfce	-0.0956112
251	0xbd8e4c18	-0.069481075
252	0x3db8be0f	0.09020626
253	0x3d983e4b	0.074337564
254	0x3cd42794	0.025897779
255	0xbd0d5dcf	-0.03451329

lstm.bias_ih_l0 f4 [256]
0	0xbd8d502f	-0.069000594
1	0xbd0a4a0b	-0.03376202
2	0xbd0fa33e	-0.03506779
3	0x3d0a4e0e	0.033765845
4	0x3d462dd6	0.048383556
5	0x3debcb39	0.11513371
6	0x3db41493	0.08792987
7	0xbcdd0219	-0.02697854
8	0xbd49c5b9	-0.04926083
9	0x3dda70ac	0.10666022
10	0xbde7e617	-0.11323183
11	0xbd4855f8	-0.04891011
12	0x3daf6ea8	0.08566028
13	0x3e039ae9	0.12852062
14	0x3e2e89bb	0.17044728
15	0x3e1b525d	0.15168138
16	0x3e05fd4b	0.13084905
17	0xbcc8de8a	-0.024520177
18	0xbc987ee7	-0.0186152
19	0x3e081f07	0.13293086
20	0xbd9f235e	-0.07770418
21	0xb9c715bf	-0.0003797244
22	0x3e02c416	0.12770113
23	0xbc954c31	-0.018224807
24	0x3e243765	0.16036756
25	0x3da3aa99	0.07991523
26	0x3d20add4	0.039228275
27	0x3e0728fc	0.13199228
28	0x3e2c41b9	0.16821946
29	0xbc5a0161	-0.013305993
30	0xbcab06fb	-0.020877352
31	0xbdb0d78f	-0.086348645
32	0x3e016065	0.12634428
33	0xbcc56dab	-0.024100145
34	0xbd7368b8	-0.05942604
35	0xbd0beca4	-0.034161225
36	0x3d9680d3	0.0734879
37	0x3d8c00a3	0.06836059
38	0xbd525711	-0.051352564
39	0x3e0a690d	0.13516636
40	0x3dc14dd4	0.09438673
41	0x3e033d43	0.12816338
42	0xbdc637a8	-0.09678584
43	0x3e20875c	0.15676636
44	0xbd73a0fa	-0.05947969
45	0xbda17461	-0.07883526
46	0x3d938e9e	0.072049364
47	0x3c847e85	0.01617361
48	0xbd88742f	-0.06662785
49	0xbd476c26	-0.048687123
50	0xbd5342e2	-0.051577456
51	0x3d933bce	0.07189141
52	0x3e1d22e0	0.15345335
53	0xbc0d4a6f	-0.008623703
54	0x3dea9779	0.11454672
55	0xbd9c7c76	-0.076409265
56	0x3dc95361	0.098303564
57	0xbd378024	-0.04479994
58	0x3dd9905d	0.10623238
59	0xbd4d246e	-0.05008357
60	0xbceff0f7	-0.029289706
61	0x3d3789c1	0.044809107
62	0x3d300ccc	0.042980954
63	0x3e278e69	0.16362919
64	0xbd81f0a2	-0.06344725
65	0x3c8ce4fb	0.01719903
66	0x3d89fde3	0.06737878
67	0x3de46101	0.111513145
68	0x3dbfd035	0.09365884
69	0xbdeda1de	-0.11603139
70	0x3da20426	0.079109475
71	0xbcd50f4e	-0.026008274
72	0xbd35e600	-0.0444088
73	0x3c7c6cfd	0.015406844
74	0x3d25d5a0	0.04048693
75	0xbe01eda0	-0.12688303
76	0x3d68f85d	0.056877483
77	0x3e022eb7	0.12713133
78	0xbb718f4b	-0.003685909
79	0xbd867567	-0.065653615
80	0xbc8880b8	-0.01666294
81	0x3e0255c2	0.12728027
82	0x3dd8e7dd	0.105910994
83	0xbd3a7905	-0.04552557
84	0xbd7ce2a0	-0.061739564
85	0x3a51808f	0.0007991874
86	0xbc9cd419	-0.019144105
87	0x3e278611	0.16359736
88	0xbd59f0df	-0.05320823
89	0xbda4783b	-0.08030745
90	0xbce1dcb6	-0.027571063
91	0xbd704753	-0.05866177
92	0xbdf604d3	-0.12012639
93	0x3d99b3c8	0.07504994
94	0xbdb08133	-0.08618393
95	0xbda98c3e	-0.08278702
96	0x3b27eef9	0.0025624617
97	0xbd187daf	-0.037229236
98	0x3dc258c4	0.09489587
99	0xbd914eb4	-0.070950896
100	0xbd6235ca	-0.05522708
101	0x3dda24e3	0.10651567
102	0x3dee264a	0.11628397
103	0x3d91684e	0.07099973
104	0xbcdd3b16	-0.027005713
105	0xbc19e65f	-0.009393304
106	0x3c176e82	0.009242656
107	0x3c546856	0.012964329
108	0x3e08045f	0.13282917
109	0x3d3d071b	0.046149354
110	0xbcc321e8	-0.023819879
111	0xbd4b54e2	-0.049641497
112	0x3af56bd4	0.0018724152
113	0xbd82a152	-0.06378426
114	0xbd6f752c	-0.058461353
115	0x3df47b51	0.11937583
116	0x3da7064c	0.08155498
117	0xbd90fbfd	-0.07079313
118	0x3d5255f2	0.051351495
119	0xbd015398	-0.03157386
120	0x3e11f857	0.1425489
121	0x3cd26a66	0.0256855
122	0x3d8d6d77	0.069056444
123	0x3d87bb47	0.06627517
124	0x3d1509bb	0.036386233
125	0x3d218a53	0.039438557
126	0x3d5ab079	0.053390954
127	0xbd1595c6	-0.03651979
128	0xbc53c15f	-0.012924521
129	0x3d418a0a	0.047250785
130	0xbd7aef72	-0.06126351
131	0x3ca7cb44	0.020482667
132	0x3da83de0	0.08214927
133	0x3d74b6fd	0.059744824
134	0x3d86c31a	0.065801814
135	0xbddac4c8	-0.10682064
136	0xbdbcc099	-0.092164226
137	0x3d2ea860	0.042641044
138	0xbdfc61ad	-0.12323318
139	0x3da406bb	0.08009096
140	0xbd965f80	-0.07342434
141	0x3dedd8c0	0.116136074
142	0xbdaeeda6	-0.085414216
143	0x3e02fa1a	0.12790719
144	0xbcca1fba	-0.024673332
145	0x3cacc99d	0.02109223
146	0x3d9982f0	0.074956775
147	0x3d017f5e	0.031615607
148	0xbd816c97	-0.0631954
149	0xbd783202	-0.060594566
150	0x3d4fe099	0.050751302
151	0xbe0e3744	-0.1388827
152	0xbbf41983	-0.0074493303
153	0x3cf82ad5	0.030293861
154	0xbddd5c30	-0.10808599
155	0xbaa1fbaf	-0.0012358333
156	0xbd17900a	-0.0370026
157	0xbd71aedc	-0.05900465
158	0xbc70d80d	-0.014699948
159	0xbd46a244	-0.048494592
160	0x3c6dc0e7	0.0145113235
161	0xbdebe3bc	-0.11518046
162	0xbda7c48a	-0.08191784
163	0xbd66ca65	-0.056345362
164	0xbd2ca1fa	-0.04214666
165	0xbd34ce6b	-0.044142168
166	0x3d8ab68e	0.06773101
167	0x3e04003b	0.12890713
168	0x3c427f24	0.011871133
169	0xbe022a71	-0.12711503
170	0x3dd319c6	0.1030765
171	0x3d8568a2	0.06514098
172	0xbda1d685	-0.079022445
173	0x3d45da98	0.04830417
174	0xbd89e638	-0.06733364
175	0x3d8e238f	0.06940376
176	0xbda628ac	-0.08113226
177	0x3d50f2c6	0.051012777
178	0x3d96e31d	0.07367537
179	0xb8f0fd4f	-0.00011491274
180	0xbc8db52d	-0.017298305
181	0x3d90819c	0.07055971
182	0xbe045175	-0.12921698
183	0xbd7119cf	-0.058862504
184	0xbdb50eeb	-0.08840736
185	0x3ca036b2	0.01955733
186	0x3d675d7d	0.05648564
187	0xbc3ab997	-0.011396787
188	0x3dced5bd	0.10099361
189	0x3de47925	0.11155919
190	0x3da64eeb	0.08120521
191	0xbd855d5d	-0.06511948
192	0x3d5ea67b	0.054357987
193	0xbba90581	-0.005158127
194	0xbd23d240	-0.039995432
195	0x3d6411e3	0.05568112
196	0xbcbfbd67	-0.023405744
197	0xbd54321c	-0.0518056
198	0x3e1409ab	0.14456813
199	0x3d4ac252	0.049501725
200	0x3e196d65	0.14983137
201	0xbde5fe46	-0.112301394
202	0x3df99ee8	0.12188512
203	0x3e1ef81c	0.15524334
204	0x3e1a259d	0.15053411
205	0x3cac12aa	0.021004993
206	0x3d88d7da	0.066817954
207	0xbd3fe65b	-0.046850543
208	0xbd54fc15	-0.051998217
209	0x3d9be201	0.07611466
210	0x3e0516d7	0.12996994
211	0x3e2c571f	0.16830109
212	0x3de96418	0.113960445
213	0x3dee922f	0.11648976
214	0x3e1d2db8	0.15349472
215	0x3e2155cb	0.15755384
216	0x3dcf578e	0.101241216
217	0x3da67ee4	0.08129671
218	0xbd15045f	-0.03638112
219	0x3da8f14f	0.08249151
220	0x3d96d1ef	0.073642604
221	0x3e2c9bad	0.1685626
222	0x3c9a229b	0.01881533
223	0xbda40b93	-0.0801002
224	0x3e20d131	0.157048
225	0x3d50c785	0.050971527
226	0x3df3f204	0.11911395
227	0xbd69e619	-0.057104204
228	0xbc277e3f	-0.0102229705
229	0x3b433b57	0.0029790008
230	0x3c49ca5a	0.012316311
231	0x3d83d7c6	0.0643764
232	0x3e2570cd	0.16156311
233	0x3c19c8e3	0.009386274
234	0xbd9d4e03	-0.07680895
235	0x3e055eed	0.13024493
236	0x3d66cce8	0.056347758
237	0xbd462750	-0.048377335
238	0xbd2a4656	-0.041570984
239	0x3d04ad2b	0.03239171
240	0x3d95cac3	0.07314064
241	0x3dbafaff	0.09129905
242	0xbd45cabd	-0.04828905
243	0x3de061d1	0.10956157
244	0x3daf1705	0.085493125
245	0x3dc0cd9e	0.09414218
246	0x3e148ab5	0.14506038
247	0x3cfca5e6	0.030840825
248	0x3dd8aefb	0.1058025
249	0xbd4351ea	-0.04768554
250	0x3e2b4f7c	0.1672954
251	0x3dccc9d6	0.09999435
252	0x3d255608	0.04036525
253	0xbd9e05bd	-0.07715938
254	0x3dd8956e	0.105753765
255	0xbd76f2e9	-0.06029025

lstm.bias_hh_l0 f4 [256]
0	0x3d03a921	0.032143716
1	0xbd0b71ef	-0.034044202
2	0xbd780032	-0.06054706
3	0x3de0aa0d	0.109699346
4	0x3d35c8d2	0.04438097
5	0xba5fb457	-0.00085336476
6	0x3e3d5e7b	0.18493073
7	0x3de63da8	0.11242229
8	0x3d9a8e22	0.07546641
9	0xbd8000c7	-0.06250148
10	0xbdacc823	-0.084366105
11	0x3e263dec	0.16234559
12	0x3cc79a85	0.024365673
13	0xbd1c1b02	-0.038111694
14	0xbcc11235	-0.023568252
15	0x3e4a063d	0.19728942
16	0xbda86f16	-0.08224313
17	0x3dbf924a	0.09354074
18	0x3d74b62d	0.05974405
19	0xbce6aeb4	-0.028159477
20	0xbd31a5e2	-0.04337109
21	0xbd536abc	-0.05161546
22	0xbd252542	-0.040318735
23	0x3c837191	0.016045364
24	0x3d56c458	0.05243334
25	0x3dd7b1ff	0.10531997
26	0x3d1e8a20	0.038705945
27	0xbd33ca65	-0.04389419
28	0x3c24a4a8	0.010049023
29	0x3dfc5dee	0.12322603
30	0x3dcd930f	0.10037815
31	0xbdb7c62b	-0.089733444
32	0x3e050432	0.12989882
33	0xbd8998b2	-0.067185774
34	0xbcd7e25a	-0.02635305
35	0x3d38114e	0.044938378
36	0x3cabbcbc	0.020964019
37	0x3d930a3f	0.07179689
38	0xbd0ede4b	-0.034879964
39	0x3e25d4d9	0.16194476
40	0xbd3d89cc	-0.04627399
41	0xbdc001e5	-0.09375361
42	0xbd78734e	-0.060656838
43	0xbacf9720	-0.0015837885
44	0x3dd92886	0.10603432
45	0x3de1d6d1	0.11027301
46	0xbd9d203a	-0.07672162
47	0x3df22166	0.118227765
48	0xbd29e044	-0.041473642
49	0x3da9cbda	0.08290835
50	0xbd2babf8	-0.04191205
51	0x3cc293ee	0.023752179
52	0x3dc064e0	0.093942404
53	0xbd5289c9	-0.051400933
54	0xbd228eeb	-0.03968708
55	0xbbb21278	-0.0054343306
56	0xbd76447f	-0.060123917
57	0xbc8db495	-0.017298022
58	0xbc2e690d	-0.010645163
59	0xbdb76e5d	-0.08956597
60	0x3e1b71f2	0.15180185
61	0x3e0f11d4	0.13971645
62	0x3c3c139c	0.011479285
63	0xbd8b2d9e	-0.0679581
64	0x3e1ae014	0.15124542
65	0xbd99070d	-0.07472048
66	0xbb5ff7a0	-0.0034174696
67	0x3e05584f	0.13021968
68	0x3d4c067a	0.049810864
69	0xbccb0aab	-0.02478536
70	0x3d026f15	0.031844217
71	0xbc09e183	-0.008415583
72	0x3d9eb414	0.07749191
73	0xba8095c7	-0.0009810262
74	0x3db0b484	0.086281806
75	0x3d3b9f6d	0.045806337
76	0xbd4d4149	-0.05011109
77	0x3cfd8840	0.030948758
78	0xbdd0f507	-0.10202985
79	0x3d8c2e70	0.06844795
80	0x3d21de08	0.039518386
81	0x3be39c55	0.0069461265
82	0x3da835ff	0.08213424
83	0x3dbea85d	0.093094565
84	0xbdc78445	-0.09742025
85	0xbdcc2049	-0.099670954
86	0x3d7f21f9	0.06228826
87	0x3c31fc99	0.010863447
88	0x3d49b0cd	0.049240876
89	0x3e187b89	0.14890875
90	0x3cae9b92	0.021314416
91	0x3b458cbb	0.0030143696
92	0xbc893a3c	-0.016751401
93	0x3dce6fb4	0.100798994
94	0xbd6cfe72	-0.057859845
95	0x3d1b4b1a	0.03791342
96	0xbd5606c2	-0.05225254
97	0x3c2b4d04	0.010455374
98	0xbd017a10	-0.03161055
99	0xbddba708	-0.10725218
100	0x3dfb0ad1	0.122579224
101	0xbcc76bf9	-0.024343478
102	0xbd94f484	-0.072732
103	0xbcbe0e8e	-0.0232003
104	0x3e056ea6	0.1303049
105	0xbd8a8b0a	-0.06764801
106	0xbd205efe	-0.03915309
107	0x3cbbc596	0.022921365
108	0x3dd1b8ef	0.102403514
109	0x3dadc138	0.08484119
110	0xbd8bae09	-0.06820304
111	0x3d018e6e	0.031629972
112	0x3b164199	0.0022927283
113	0xbdd9368e	-0.106061086
114	0xbc9621e9	-0.018326716
115	0x3ca8ced9	0.020606445
116	0x3d8f244d	0.06989346
117	0xbd846a37	-0.064655714
118	0x3dc95f8b	0.098326765
119	0x3d86f213	0.06589141
120	0xbda0e19f	-0.07855534
121	0x3e17262e	0.14760658
122	0x3df20c71	0.11818779
123	0xbdd389b5	-0.10329
124	0xbd877c8c	-0.06615552
125	0x3da555fd	0.080730416
126	0x3e059ea7	0.13048802
127	0x3d0affc0	0.03393531
128	0x3d49ca57	0.049265232
129	0x3d761640	0.060079813
130	0x3c976118	0.018478915
131	0x3da7c355	0.081915535
132	0xbdb2692e	-0.08711468
133	0xbd64dd47	-0.05587509
134	0x3c4818bc	0.012212928
135	0xbd39b14c	-0.0453351
136	0xba8f13b4	-0.0010915906
137	0x3da6b34b	0.08139666
138	0xbd1cdfdf	-0.038299438
139	0xbd4e2a02	-0.05033303
140	0xbcd2ef67	-0.025748922
141	0xbc3e022e	-0.011597199
142	0xbdc124d4	-0.094308525
143	0x3d3abf36	0.04559251
144	0x3e107599	0.1410736
145	0x3be33d68	0.0069348104
146	0x3b1263cc	0.0022337316
147	0x3d87c4a6	0.066293046
148	0xbe1ccd2b	-0.1531264
149	0x3d74ca90	0.05976349
150	0xbd8df8d0	-0.06932223
151	0xbd8bbf88	-0.06823641
152	0xbb516dba	-0.0031956271
153	0x3d94f66e	0.07273565
154	0x3d9f96d2	0.077924386
155	0x3cc95e1a	0.024581004
156	0xbd8c0209	-0.06836326
157	0x3ccb9d5d	0.02485531
158	0xbcc54e59	-0.02408521
159	0xbdc11d56	-0.094294235
160	0x3c71c0cd	0.01475544
161	0xbdaa2760	-0.083082914
162	0xbcb07e79	-0.021544682
163	0x3d73dc15	0.05953606
164	0x3bd2774f	0.006422914
165	0x3d855a01	0.065113075
166	0xbd193bc9	-0.03741053
167	0x3d2852e8	0.04109469
168	0xbd4dada7	-0.050214436
169	0x3d5b9c9c	0.05361615
170	0x3dbbc06a	0.091675594
171	0xbd36b842	-0.044609316
172	0x3d9516f9	0.07279772
173	0x3ca61156	0.020271938
174	0xbaa42236	-0.0012522403
175	0x3a0e5f75	0.00054310943
176	0xbd8395ff	-0.06425094
177	0xbbeb8f36	-0.007188703
178	0x3d21fc19	0.03954706
179	0x3cb41c0a	0.021986026
180	0x3e1e1cf1	0.15440728
181	0xbd98969a	-0.074506
182	0x3dc951a5	0.098300256
183	0xbe1fd799	-0.15609588
184	0xbd8916f1	-0.06693829
185	0x3dbf9315	0.093542255
186	0xbe013900	-0.126194
187	0x3c858f15	0.016303578
188	0xbdb54177	-0.08850377
189	0x3dfa7570	0.12229431
190	0x3e066512	0.13124493
191	0x3da55d3d	0.080744244
192	0xbda11dc4	-0.078670055
193	0x3d0145d5	0.031560738
194	0xbd96af92	-0.07357706
195	0xbd7894c0	-0.060688734
196	0x3e1285c6	0.14308843
197	0xbc7a246e	-0.015267475
198	0x3d971185	0.073763885
199	0x3dad8876	0.084732935
200	0x3e1a1d80	0.15050316
201	0xbcfed87b	-0.031109085
202	0xbd71bdb4	-0.059018806
203	0xbd189020	-0.037246823
204	0x3e010b26	0.12601909
205	0x3ca5d848	0.020244732
206	0xbd64e5c7	-0.055883195
207	0xbd59ce6d	-0.05317538
208	0xbda97a9c	-0.08275339
209	0x3dd26483	0.10273077
210	0x3dc63eab	0.09679922
211	0xbd55ab58	-0.05216536
212	0x3df10f0e	0.117704496
213	0x3c9c4e6f	0.019080369
214	0x3d810e47	0.06301551
215	0xbd972444	-0.07379964
216	0xbc816920	-0.015797198
217	0x3e0ed99a	0.13950196
218	0x3cc22de8	0.02370353
219	0x3da2d29b	0.07950326
220	0x3e4bf6e2	0.19918397
221	0xbd4b72ce	-0.049670033
222	0x3cf1b1f5	0.029503802
223	0x3c357c71	0.011077032
224	0x3e22c343	0.15894799
225	0x3d9c4df1	0.07632054
226	0x3dfacd56	0.12246196
227	0xbccd1982	-0.025036577
228	0x3b879337	0.0041374224
229	0x3d9aa8c7	0.07551723
230	0x3c951a75	0.018201092
231	0x3dfe9838	0.12431377
232	0xbd2904e3	-0.041264426
233	0x3e22f2e2	0.15912965
234	0x3dd39023	0.10330226
235	0x3d9b29f8	0.07576364
236	0x3c93ac84	0.018026598
237	0x3deed5bf	0.116618626
238	0x3da482ba	0.080327466
239	0x3d908a50	0.07057631
240	0xbcf3dba5	-0.02976782
241	0x3d8b3051	0.06796325
242	0x3b8745b6	0.0041281832
243	0x3e1af195	0.15131219
244	0x3dd696a9	0.10477955
245	0x3cceb0f6	0.025230866
246	0xbd57512d	-0.05256765
247	0xbd8b6529	-0.06806404
248	0x3e20f7f8	0.15719593
249	0xbc61ef8e	-0.013790024
250	0x3e45525c	0.19269699
251	0xbda8852c	-0.082285255
252	0x3e0bf2f3	0.13666897
253	0x3b58b097	0.003306424
254	0x3cbaceb8	0.02280365
255	0xbd861f31	-0.06548918

classifier.0.weight f4 [32, 64]
0	0x3e1a3dbb	0.15062611
1	0x3e01dba3	0.12681441
2	0x3e01eced	0.12688036
3	0xbdd9a8c7	-0.10627895
4	0x3e12e91b	0.14346735
5	0x3dc27c3b	0.09496351
6	0x3d7fdb7c	0.062465176
7	0xbe262089	-0.16223349
8	0xbdcef85b	-0.10105964
9	0x3e0241fd	0.12720485
10	0xbce1a267	-0.02754326
11	0xbdecb11c	-0.115572184
12	0xbe232a6d	-0.15934153
13	0x3e0b3a92	0.13596562
14	0xbdb71b3e	-0.08940743
15	0x3dff135b	0.12454864
16	0x3c6f392a	0.014601031
17	0xbc30e8db	-0.010797705
18	0xbcd30069	-0.025757032
19	0x3e1ea686	0.15493211
20	0x3d966881	0.07344151
21	0xbcfca9c2	-0.030842666
22	0xbd0c0cbe	-0.03419184
23	0xbdae243c	-0.08503005
24	0x3d81d8ce	0.0634018
25	0xbc2fb8a0	-0.01072517
26	0xbd36da39	-0.044641707
27	0x3d764e1e	0.060133092
28	0x3d2ceb61	0.042216662
29	0xbd2d02a8	-0.04223886
30	0xbdd9752f	-0.10618054
31	0xbcc7ac94	-0.024374284
32	0x3dc7c907	0.0975514
33	0xbdd59de2	-0.104305044
34	0xbcbf4bd4	-0.023351587
35	0x3c153e08	0.009109028
36	0x3d97f644	0.07420018
37	0xbda21234	-0.07913628
38	0x3de244f2	0.110483065
39	0xbdd49c54	-0.1038138
40	0x3e12d98b	0.14340799
41	0xbdd5d383	-0.10440733
42	0x3e0fa157	0.1402639
43	0x3dba67de	0.09101842
44	0x3dec948b	0.1155177
45	0x3d9bee50	0.07613814
46	0xbd62e7d7	-0.05539688
47	0xbd039687	-0.032125976
48	0xbe0f7d4a	-0.14012638
49	0x3e20c6e4	0.15700871
50	0x3e2762f0	0.16346335
51	0x3d53faf8	0.051753014
52	0x3dc2b38c	0.09506902
53	0x3e0e6cd7	0.13908707
54	0xbde0631e	-0.10956405
55	0xbe087878	-0.13327205
56	0xbcf827c5	-0.030292401
57	0xbd9acf75	-0.075591005
58	0xbd8b1fef	-0.067932
59	0x3d8a0a04	0.067401916
60	0xbc541b48	-0.0129459575
61	0xbd18c4f9	-0.037297223
62	0x3e28ca39	0.16483392
63	0xbc0d25eb	-0.008614997
64	0x3dd05130	0.10171735
65	0xb9cc7de5	-0.0003900371
66	0xbd2e49e2	-0.04255093
67	0xbc458b92	-0.012057202
68	0x3cd09429	0.025461273
69	0x3d80b14d	0.062838174
70	0xbab35908	-0.001368315
71	0xbdea26ff	-0.11433219
72	0xbc4c2b34	-0.012461472
73	0x3e092320	0.13392305
74	0xbd9711f5	-0.07376472
75	0xbddbdf88	-0.107359946
76	0x3e144f0c	0.14483279
77	0x3d90a5c2	0.07062866
78	0xbbcc7d2b	-0.006240507
79	0xbe1d7d7b	-0.15379898
80	0x3da4c6bc	0.08045718
81	0xbd4282f5	-0.04748817
82	0x3d8d4e42	0.06899692
83	0x3d878d70	0.06618774
84	0xbbbd0b5c	-0.0057691764
85	0xbc386fb9	-0.0112571055
86	0x3dfe8673	0.12427988
87	0x3dc997d7	0.09843414
88	0x3e1775dc	0.14791054
89	0x3e0bb255	0.13642247
90	0x3e4003b9	0.1875142
91	0x3b70f77e	0.003676861
92	0x3d8be68b	0.06831082
93	0xbe39ab39	-0.18131723
94	0x3b4c2079	0.0031147285
95	0x3d980302	0.07422449
96	0xbdbecd25	-0.09316472
97	0xbe060ceb	-0.13090865
98	0xbdf66e20	-0.120327234
99	0xbdd49ae2	-0.10381104
100	0xbe0ea908	-0.13931668
101	0xbdf9bc15	-0.12194077
102	0x3d0b0d8c	0.033948466
103	0x3e2f8e23	0.17144065
104	0xbd8a8f79	-0.067656465
105	0x3ce3ccf7	0.027807696
106	0x3cdb08ae	0.026737537
107	0xbdc1354f	-0.09433996
108	0x3df9f96a	0.12205775
109	0x3d20c9e7	0.03925505
110	0xbd831e52	-0.064022675
111	0xbdb2f8ac	-0.08738837
112	0xbbc132fd	-0.005895971
113	0x3d4f1a06	0.050561927
114	0x3d2abbe4	0.041683093
115	0xbd816d9a	-0.06319733
116	0xbc7e8495	-0.01553454
117	0x3d9785ee	0.07398592
118	0xbd3db53c	-0.046315417
119	0xbda5f326	-0.081030175
120	0xbd1a3d54	-0.037656143
121	0xbdb4754e	-0.088114366
122	0x3d19d534	0.037556842
123	0xbdbd8329	-0.092535324
124	0x3d8ba8de	0.06819318
125	0xbcac9345	-0.021066317
126	0xbd9372f5	-0.07199661
127	0xbd0f0837	-0.034919944
128	0xbda66078	-0.08123869
129	0xbcb7eaf5	-0.022450903
130	0x3da3c663	0.07996824
131	0x3e45cd48	0.1931659
132	0xbdb7341d	-0.08945487
133	0xbdd892f5	-0.10574905
134	0xbddddb07	-0.10832792
135	0xbd62d477	-0.055378404
136	0xbc944b40	-0.018102288
137	0x3bd1ce79	0.0064027873
138	0xbd94116a	-0.07229884
139	0xbcd1fca1	-0.025633158
140	0x3e45d2ea	0.19318739
141	0x3dd2afbd	0.10287426
142	0x3e3a277c	0.18179125
143	0x3d1135dd	0.03545176
144	0xbdd4e90e	-0.10396014
145	0x3db8090e	0.08986102
146	0x3d671fa8	0.056426674
147	0xbdf6eff3	-0.120574854
148	0x3cd4709c	0.025932603
149	0x3d973376	0.07382862
150	0xbd99691b	-0.074907504
151	0x3c17ba8a	0.009260783
152	0xbd141c0b	-0.036159556
153	0x3e1a775a	0.15084592
154	0x3e81471d	0.25249568
155	0x3bc9126d	0.0061362297
156	0xbd9c0e0e	-0.07619868
157	0x3e276ec6	0.1635085
158	0x3de51407	0.111854605
159	0xbda7f98d	-0.08201895
160	0xbe0b85f1	-0.13625313
161	0x3cd3b0a1	0.02584106
162	0xbdde3fa4	-0.10851982
163	0x3cef4bed	0.029211009
164	0x3cb790c8	0.022407904
165	0x3cd44057	0.025909586
166	0xbce84861	-0.028354825
167	0x3dd7aabe	0.10530613
168	0xbd753129	-0.059861336
169	0xbd1a1b56	-0.037623726
170	0x3c50c7e0	0.012742966
171	0x3da9a7be	0.082839474
172	0x3e38a659	0.18032207
173	0x3dc48eaa	0.095975235
174	0x3ddcc2a0	0.10779309
175	0xbc89ef2d	-0.01683768
176	0x3cbd5496	0.023111623
177	0x3d1ea863	0.038734805
178	0xbe030476	-0.1279467
179	0xbe414eee	-0.18877766
180	0x3d5958c7	0.05306318
181	0x3de9b80f	0.114120595
182	0xbbed6d8f	-0.0072457264
183	0xbc8ec1c3	-0.017426377
184	0x3e37e0a8	0.17956793
185	0xbaf0fec1	-0.001838647
186	0x3e384b38	0.17997444
187	0xbdafdf24	-0.085874826
188	0xbc158cad	-0.009127778
189	0xbd0121f7	-0.031526532
190	0xbc85c440	-0.01632893
191	0xbe1d0b47	-0.15336333
192	0x3d83b6bc	0.06431338
193	0xbd3fc951	-0.04682285
194	0xbd0bdb1a	-0.0341445
195	0xbd8abc5b	-0.06774207
196	0xbe38aac5	-0.18033893
197	0xbe334cf0	-0.17509818
198	0x3e413a10	0.18869805
199	0x3bc93ac6	0.0061410395
200	0xbe0ecd8e	-0.139456
201	0x3c0b94bd	0.008519349
202	0x3d3fcf82	0.046828754
203	0xbdb529d7	-0.08845871
204	0xbd9cc124	-0.07654026
205	0xbbb8c173	-0.0056382953
206	0xbe456e39	-0.19280328
207	0xbe5d6f88	-0.21624577
208	0x3e10c107	0.14136134
209	0xbe2046d1	-0.15652014
210	0x3e1cf873	0.15329151
211	0xbd4e2cf6	-0.050335847
212	0xbc8497c4	-0.016185649
213	0xbe0d07e9	-0.13772549
214	0x3e2a5f9c	0.16638035
215	0xbb456e95	-0.0030125726
216	0xbd3abb9d	-0.04558908
217	0x3cf5ca19	0.030003594
218	0x3bf1d733	0.00738039
219	0x3d3a0421	0.045414094
220	0xbb49ebfa	-0.003081082
221	0x3da34f72	0.07974137
222	0xbd484597	-0.04889449
223	0xbe160a0e	-0.14652273
224	0x3db8bff0	0.09020984
225	0xbe078d94	-0.13237602
226	0x3ca81bd5	0.020521084
227	0xbcaf576e	-0.021403994
228	0xbe66c6a5	-0.22536714
229	0xbc360847	-0.011110372
230	0x3e4099bc	0.18808645
231	0xbb4e47ea	-0.003147597
232	0x3ca40277	0.020020707
233	0xbd95fb31	-0.073233016
234	0x3d6fe6f2	0.058569856
235	0xbc8757a8	-0.01652129
236	0x3d54b84a	0.051933564
237	0xbdc8d9cb	-0.09807166
238	0xbe38dedc	-0.18053764
239	0xbbc592f0	-0.006029479
240	0xbd5a8b71	-0.053355638
241	0x3cf7fa47	0.030270709
242	0xbd35d1b1	-0.04438943
243	0x3d845a0f	0.0646249
244	0xbd15fe52	-0.036619492
245	0x3db109ef	0.08644473
246	0xbe1c6ce0	-0.15275908
247	0xbc9632b2	-0.01833472
248	0x3d398e96	0.045301996
249	0xbe374a2a	-0.17899385
250	0xbcf111fd	-0.029427523
251	0xbd89aa64	-0.067219526
252	0x3c87782d	0.016536796
253	0x3cd001d0	0.02539149
254	0xbce15740	-0.027507424
255	0x3cfeef84	0.03112007

classifier.0.bias f4 [32]
0	0x3db981f7	0.09057992
1	0x3e0194f9	0.12654485
2	0xbd4247b7	-0.047431674
3	0x3da79cff	0.081842415
4	0xbd494752	-0.049140282
5	0x3c9b169e	0.018931683
6	0x3e047a41	0.12937261
7	0x3d819f60	0.063292265
8	0xbd522381	-0.05130339
9	0xbcc2acc7	-0.023764027
10	0x3d8aecf9	0.0678348
11	0x3da5b8f5	0.080919184
12	0x3cf40c1d	0.029790932
13	0x3e287010	0.16448998
14	0xbde01473	-0.109414004
15	0xbdf315d1	-0.118693955
16	0xbc9cafc5	-0.019126782
17	0x3d77a119	0.06045637
18	0xbd340887	-0.043953445
19	0x3dbd5a50	0.09245741
20	0xbcd16550	-0.025561005
21	0xbcf35f7c	-0.029708616
22	0x3d56c302	0.052432068
23	0x3d5c5118	0.053788275
24	0x3db89f4d	0.09014759
25	0x3d2bfa00	0.041986465
26	0xbc11d8b9	-0.008901768
27	0x3d23ea51	0.040018383
28	0xbd822ae7	-0.06355839
29	0x3dd82ba5	0.105551995
30	0x3d3b5cb3	0.0457427
31	0x3d1ef045	0.038803358

classifier.2.weight f4 [6, 32]
0	0x3e082c11	0.1329806
1	0xbd631602	-0.05544091
2	0xbdccab0f	-0.09993564
3	0x3d859214	0.06522003
4	0xbd6040fb	-0.05474947
5	0x3deca481	0.11554814
6	0x3e07f2d4	0.13276225
7	0x3e248e1a	0.16069832
8	0x3e48c79e	0.19607398
9	0x3d31de70	0.043425024
10	0x3db83e79	0.08996291
11	0xbd913eb6	-0.07092039
12	0xbd56485c	-0.0523151
13	0x3e8bfa21	0.2733927
14	0x3c431967	0.011907912
15	0x3cde76b9	0.02715622
16	0x3e0d9aed	0.13828631
17	0x3e0ded00	0.1385994
18	0x3b6995c2	0.003564224
19	0xbe1b660e	-0.1517565
20	0x3e817a26	0.25288504
21	0xbe80f38c	-0.25185812
22	0xbe5e7601	-0.21724702
23	0x3e64f1f7	0.22357927
24	0x3dcd72e0	0.10031676
25	0x3c0a1199	0.008427047
26	0x3e083435	0.13301165
27	0x3e1b147b	0.15144531
28	0xbe012518	-0.12611806
29	0xbe9b23ad	-0.30300656
30	0x3d4af7e4	0.049552813
31	0x3e0fe529	0.14052261
32	0xbdaf7e34	-0.08568993
33	0xbe363b94	-0.17796165
34	0x3e76c00c	0.24096698
35	0xbe6afb71	-0.2294748
36	0xbf1b3ca6	-0.6063942
37	0xbe234693	-0.1594489
38	0xbd4ec9ab	-0.050485294
39	0xbdfbfe23	-0.12304332
40	0xbec276a0	-0.3798113
41	0xbecb570c	-0.3971485
42	0xbe98c705	-0.2983934
43	0x3d3f050d	0.046635676
44	0x3e0dcd05	0.1384774
45	0xbe03eef1	-0.12884118
46	0x3c40d75b	0.011770095
47	0x3d5f13bd	0.054462183
48	0xbd9daa71	-0.07698525
49	0xbeb551f0	-0.35414076
50	0x3c4058e5	0.011739944
51	0xbecd6218	-0.40113902
52	0xbd0b93f0	-0.03407663
53	0xbe362c78	-0.17790401
54	0x3e80ab06	0.2513048
55	0xbe48bd6d	-0.1960351
56	0xbe40871b	-0.18801539
57	0xbe22d2f6	-0.15900788
58	0xbe380141	-0.17969228
59	0xbee758a4	-0.45184815
60	0xbf42c448	-0.7608075
61	0xbe4b3bff	-0.19847105
62	0xbec8fc55	-0.39255014
63	0xbe4040b7	-0.18774687
64	0xbe8644cb	-0.2622436
65	0xbeea716d	-0.45789662
66	0x3e1345dd	0.1438212
67	0xbe0ef567	-0.13960801
68	0xbed625db	-0.41825756
69	0xbd82d034	-0.06387368
70	0xbd00f61e	-0.031484716
71	0x3df085d9	0.117442794
72	0xbe204de2	-0.1565471
73	0xbe426926	-0.18985423
74	0x3c1b141c	0.009465244
75	0xbe53c55f	-0.2068076
76	0xbe3c0045	-0.18359478
77	0x3c771359	0.015080296
78	0x3dad486e	0.084610805
79	0xbde06538	-0.10956806
80	0xbd23e0ca	-0.040009297
81	0xbe54ea40	-0.20792484
82	0x3e112b0d	0.14176579
83	0xbe39a88d	-0.18130703
84	0xbd0acb4c	-0.033885285
85	0xbd1f4d34	-0.038891986
86	0xbe22b59e	-0.15889594
87	0xbe735893	-0.23764257
88	0xbcd3e509	-0.025866048
89	0xbed393ce	-0.41323704
90	0xbe21f6d8	-0.1581682
91	0xbe272638	-0.16323173
92	0xbf7b19bd	-0.9808615
93	0x3da845c4	0.08216432
94	0xbea0926f	-0.3136172
95	0xbd11a432	-0.03555698
96	0x3d341e1f	0.04397404
97	0xbf18c945	-0.5968211
98	0xbce62053	-0.028091585
99	0xbe0dc5cc	-0.13844985
100	0xbe383351	-0.17988326
101	0xbe399e7c	-0.18126863
102	0xbddddddf	-0.10833334
103	0x3e2de47a	0.16981688
104	0xbe00cb34	-0.12577516
105	0xbe7b3341	-0.2453127
106	0xbe20bcf3	-0.15697078
107	0x3e8a917d	0.27064124
108	0xbe8466ff	-0.2585983
109	0x3d14b4bc	0.036305174
110	0xbd521840	-0.051292658
111	0x3ced3af6	0.028958779
112	0xbea51d80	-0.3224907
113	0xbea98b75	-0.3311421
114	0x3ce19339	0.027536022
115	0xbefa664c	-0.4890617
116	0xbde1871d	-0.11012099
117	0x3e7b097b	0.24515335
118	0xbd9c57e4	-0.07633951
119	0xbd5a4b87	-0.053294685
120	0xbe61b180	-0.22040367
121	0xbe3c016d	-0.18359919
122	0xbe3dca04	-0.18534094
123	0xbdfb8ec6	-0.12283091
124	0xbf201d6b	-0.6254489
125	0x3c07c5ea	0.0082869325
126	0xbe764b2f	-0.24052118
127	0xbe2ffc5c	-0.17186111
128	0xbe46cddb	-0.19414465
129	0xbe845ec0	-0.2585354
130	0xbd040083	-0.03222705
131	0xbe94096a	-0.28913432
132	0xbf14ee81	-0.5817643
133	0xbe5333d5	-0.20625241
134	0xbe85fb01	-0.26168063
135	0xbe301659	-0.17196025
136	0xbe5a5dc5	-0.21324833
137	0xba81596c	-0.0009868569
138	0xbe6208e8	-0.2207371
139	0x3d806046	0.06268363
140	0xbe89bf93	-0.26903972
141	0x3d1e0c20	0.038585782
142	0x3e0016be	0.12508675
143	0x3b8f8d01	0.0043808226
144	0xbdc64f42	-0.09683086
145	0xbd2c722e	-0.042101078
146	0x3d835206	0.06412129
147	0xbe83a6c8	-0.25713181
148	0xbdf6bdf5	-0.1204795
149	0xbe26bf3c	-0.16283888
150	0x3bd98b4f	0.0066389213
151	0x3d745337	0.059649672
152	0xbe355e4c	-0.17711753
153	0xbe18173f	-0.14852618
154	0x3ccfceef	0.025367228
155	0xbe90647a	-0.28201658
156	0xbf8c609d	-1.0966984
157	0x3e53f47e	0.20698735
158	0xbeaa07ec	-0.3320917
159	0xbd55dccd	-0.052212525
160	0xbda7bd56	-0.0819041
161	0x3e6f9a45	0.23398693
162	0x3d418b11	0.047251765
163	0x3e032456	0.1280683
164	0x3dd0a065	0.10186843
165	0xbd9158a2	-0.070969835
166	0xbdadc238	-0.0848431
167	0xbf0752c6	-0.5286068
168	0xbed1f67a	-0.4100836
169	0xbe70cab9	-0.23514833
170	0xbd9685b7	-0.07349723
171	0xbe019fce	-0.12658617
172	0xbe45d9df	-0.19321392
173	0xbf029086	-0.51001775
174	0xbd09c2e6	-0.033633135
175	0xbda7ed1e	-0.081995234
176	0x3df1f354	0.11813989
177	0x3dc320f6	0.09527771
178	0x3d4055ec	0.04695694
179	0x3e04cac4	0.12967974
180	0xbf08e569	-0.5347505
181	0xbe7defeb	-0.24798553
182	0xbe4c6a75	-0.19962485
183	0xbd95f6bb	-0.07322451
184	0x3e172294	0.14759284
185	0x3e4109a8	0.1885134
186	0xbe8baf45	-0.27282158
187	0xbea5cbc9	-0.32382038
188	0x3e5c7223	0.21527915
189	0xbe7dde9f	-0.24791954
190	0x3d78db83	0.060756218
191	0x3d95fc5d	0.07323525

classifier.2.bias f4 [6]
0	0x3dc0b164	0.094088346
1	0x3dd49b0a	0.10381134
2	0xbe311125	-0.17291696
3	0xbcd1542e	-0.025552835
4	0xbe05f322	-0.13081029
5	0x3daadaec	0.08342537
