src/DARPA/pretrained/models/w50/resampled/phase_3.pth (torch, 194061 bytes, 8 tensors)

lstm.weight_ih_l0 f4 [256, 112]
0	0x3e0ac692	0.13552311
1	0x3e4dfa35	0.20114978
2	0x3da7b507	0.08188825
3	0xbd575438	-0.05257055
4	0x3e00655a	0.12538663
5	0x3dc19814	0.09452835
6	0x3e16f9a1	0.14743663
7	0x3d632c1a	0.05546198
8	0x3d90add7	0.07064407
9	0x3e54d04d	0.20782585
10	0xbdb64929	-0.08900673
11	0x3e02af64	0.12762219
12	0x3d32e624	0.04367651
13	0xbcdfa18e	-0.027298715
14	0x3e53d5cd	0.20687027
15	0x3b4f841e	0.0031664441
16	0xbe425f2a	-0.18981615
17	0x3ca5c423	0.020235127
18	0xbdbd94a5	-0.09256867
19	0x3cdeb74a	0.027187008
20	0xbaf24456	-0.00184835
21	0xbe0ba675	-0.13637717
22	0xbe0768cc	-0.1322357
23	0xbd828abc	-0.06374118
24	0x3db7df17	0.08978098
25	0x3e313673	0.17305927
26	0x3de0edfd	0.10982893
27	0x3e42a2e3	0.19007449
28	0x3e024db1	0.1272495
29	0x3dabc7ab	0.08387693
30	0x3d1c4169	0.038148317
31	0x3d11a87c	0.03556107
32	0xbcdf8297	-0.02728395
33	0x3ded2bf9	0.11580653
34	0x3bf07c2e	0.007339022
35	0x3e42f775	0.1903971
36	0x3dcd3dd9	0.10021562
37	0x3d3da925	0.046303887
38	0x3dafce88	0.085843146
39	0xbd29707a	-0.04136703
40	0x3db26000	0.08709717
41	0x3d9ddfd0	0.077087045
42	0x3cb323bd	0.021867627
43	0x3d358edb	0.04432569
44	0xbc3fbe43	-0.011703077
45	0xbd4c1834	-0.04982777
46	0xbd0b6b70	-0.034038007
47	0xbdf08542	-0.11744167
48	0xbdde1db3	-0.108455084
49	0xbd8322aa	-0.06403096
50	0x3d7a0be3	0.061046492
51	0x3c07b746	0.008283442
52	0x3c1a26bb	0.009408648
53	0x3d4281be	0.047487013
54	0xbd902d44	-0.07039884
55	0xbc5c867d	-0.013459799
56	0xbd6a2d8b	-0.05717234
57	0x3d3673ae	0.044543914
58	0xbd0746c1	-0.03302646
59	0x3df795e8	0.12089139
60	0xbd816bfd	-0.06319425
61	0x3c73027d	0.014832136
62	0xbd50936d	-0.050921846
63	0x3cb47f3c	0.022033326
64	0xbd43ddfc	-0.047819123
65	0x3db9db8f	0.090750806
66	0xbcff6fa4	-0.031181164
67	0x3dc80613	0.097667836
68	0xbbf5c14e	-0.0074998504
69	0x3deea997	0.116534404
70	0x3e268dd2	0.16265038
71	0x3dee0f95	0.11624066
72	0x3e430a64	0.19046932
73	0xbdc53052	-0.09628357
74	0xbdf82af8	-0.12117571
75	0x3d1d8532	0.038457103
76	0xbc838301	-0.016053678
77	0x3de3de6c	0.11126408
78	0xbcac5c96	-0.021040242
79	0x3dae1cdd	0.08501599
80	0xbdfbc7e7	-0.12293988
81	0xbdc832a2	-0.097752824
82	0xbd08e5e9	-0.033422384
83	0xbd6290ad	-0.055313755
84	0x3cd76125	0.02629144
85	0x3deee994	0.11665645
86	0xbd96545d	-0.0734031
87	0xbdb8a342	-0.09015514
88	0x3e2cc8b3	0.16873436
89	0xbd8c7d5f	-0.0685985
90	0x3d822e41	0.063564785
91	0x3dc0fb00	0.094228745
92	0x3cb1b7c1	0.021694066
93	0xbe4cdf5a	-0.20007077
94	0x3d72df14	0.059294775
95	0x3d2919a3	0.041284215
96	0xbd4fb42d	-0.05070894
97	0xbd7fc672	-0.06244511
98	0x3dfd127c	0.12357041
99	0xbd55d796	-0.052207552
100	0x3dca1658	0.09867543
101	0xbd9027bd	-0.070388295
102	0x3d6e3321	0.05815423
103	0x3e03c8df	0.12869595
104	0x3e955fa8	0.29174542
105	0xbd38aaea	-0.04508487
106	0xbcad2d11	-0.021139653
107	0x3a99a561	0.001172226
108	0x3e314e03	0.17314915
109	0x3df67da5	0.120356835
110	0x3e45587f	0.1927204
111	0xbd26fa15	-0.04076584
112	0x3d979732	0.07401885
113	0x3ca77c3f	0.020444987
114	0xba86e09f	-0.0010290331
115	0x3dad36cc	0.08457717
116	0xbdbdb362	-0.0926273
117	0xbe223e6e	-0.15844128
118	0x3d4a4360	0.04938066
119	0x3d0def00	0.034651756
120	0x3e3797a4	0.1792894
121	0x3d547ce3	0.051876914
122	0xbb36db9b	-0.002790189
123	0x3d2978a4	0.041374817
124	0xbde1731a	-0.11008282
125	0x3dc7bdb7	0.09752982
126	0x3e095834	0.13412553
127	0x3e1d07fe	0.1533508
128	0xbd479b32	-0.04873199
129	0xbdb140e9	-0.08654959
130	0xbca62531	-0.020281406
131	0x3e0007d9	0.12502994
132	0x3d5d28ea	0.053994097
133	0x3dde2f90	0.108489156
134	0x3d0939db	0.03350244
135	0x3daa0773	0.08302202
136	0xbd1abeaf	-0.037779506
137	0xbd72714c	-0.05919008
138	0xbe37f599	-0.17964782
139	0x3e4977aa	0.19674554
140	0x3e150e10	0.14556146
141	0x3dadd166	0.08487205
142	0xbe10a48e	-0.14125273
143	0xbd890126	-0.06689672
144	0x3ddaee30	0.10689962
145	0x3d5cae52	0.053877182
146	0x3e6aa136	0.2291306
147	0x3cbf1ba8	0.023328617
148	0xbe111248	-0.1416713
149	0x3e092a14	0.13394958
150	0xbcbe5246	-0.02323259
151	0x3d09b1f4	0.033616975
152	0x3e34fbe8	0.1767422
153	0xbdacdb1f	-0.084402315
154	0x3b50e6da	0.003187588
155	0xbd4bc16e	-0.049745016
156	0xbdd7eea2	-0.105435625
157	0xbaa0ae37	-0.0012258951
158	0x3d606712	0.054785796
159	0x3ba1b114	0.0049344394
160	0x3d503aec	0.050837442
161	0x3cca0b86	0.024663698
162	0xbdba1640	-0.09086275
163	0xbd2aeb7c	-0.04172848
164	0xbda28a6d	-0.07936559
165	0xbe00678d	-0.12539501
166	0xbdaab0b4	-0.08334485
167	0xbdc3ce55	-0.09560839
168	0x3d53b0f1	0.051682416
169	0x3c7eb857	0.01554688
170	0x3b93a427	0.0045056525
171	0x3dba2c86	0.090905234
172	0xbe44597d	-0.19174762
173	0x3da41833	0.08012428
174	0xbdf42996	-0.119219944
175	0xbd094ca4	-0.033520356
176	0x3cf136d8	0.029445097
177	0xbc3ac7f6	-0.011400213
178	0xbdaeff57	-0.08544796
179	0xbdc024ce	-0.0938202
180	0xbc9c4c6e	-0.019079413
181	0x3d3793af	0.044818576
182	0x3cf2731f	0.02959591
183	0xbd6cf970	-0.05785507
184	0xbe4f08e0	-0.2021823
185	0xbc657541	-0.014005006
186	0x3d96e629	0.07368118
187	0x3d8b9504	0.06815532
188	0xbdafb567	-0.085795216
189	0xbd2e294c	-0.042519853
190	0x3c1dceac	0.009631794
191	0xba780bc9	-0.00094622053
192	0x3b18de28	0.0023325775
193	0x3de6e649	0.11274392
194	0xbdf2da0e	-0.11857997
195	0x3cacbbd0	0.02108565
196	0x3a57cd46	0.0008232187
197	0x3c4346d6	0.011918744
198	0xbdbcf684	-0.092267066
199	0xbd88abf4	-0.066734225
200	0xbbb327f9	-0.0054674116
201	0x3d93969d	0.072064616
202	0xbdc68ee5	-0.09695224
203	0x3dbca0e7	0.09210377
204	0xbe3f8767	-0.18703996
205	0x3e0b7467	0.13618623
206	0xbdbfbf9a	-0.09362717
207	0x3e2a8b54	0.16654712
208	0x3d712d65	0.058881182
209	0xbdfcc69b	-0.123425685
210	0xbdbd3f68	-0.092406094
211	0x3dbc453d	0.09192894
212	0xbcc600fc	-0.024170391
213	0x3df5fa9e	0.12010692
214	0xbdfce83e	-0.12348984
215	0xbdc110a9	-0.09427006
216	0xbe3491d7	-0.17633758
217	0x3d275a88	0.04085782
218	0xbc8243bf	-0.015901444
219	0xbd5161d5	-0.05111869
220	0x3dbd7eb1	0.0925268
221	0x3e1cf537	0.15327917
222	0xbddb6584	-0.10712722
223	0xbd28b8d7	-0.041191902
224	0xbeb54d86	-0.35410708
225	0xbe17b4ed	-0.14815111
226	0xbe72f615	-0.23726685
227	0x3c3f1e30	0.011664912
228	0xbe5ce37a	-0.2157115
229	0x3d20a59a	0.03922043
230	0xbe3bb3c0	-0.18330288
231	0xbe9c0878	-0.3047521
232	0x3cef4552	0.02920786
233	0xbb8512a9	-0.0040610624
234	0x3d497440	0.04918313
235	0x3e3261d2	0.17420128
236	0x3d8dffa9	0.06933529
237	0xbecc9b78	-0.39962363
238	0xbe5b06dd	-0.21389337
239	0x3e330ffb	0.17486565
240	0xbd6996d8	-0.05702862
241	0x3de5fe4b	0.11230143
242	0x3d07714a	0.033067025
243	0xbdc1055c	-0.0942485
244	0x3dd077c2	0.10179092
245	0xbdaaaed3	-0.08334126
246	0x3b9b3145	0.004736098
247	0xbb2edeb2	-0.002668303
248	0x3e1f5da2	0.15563062
249	0xbbec789a	-0.0072165253
250	0x3d17ad50	0.037030518
251	0x3dda3357	0.106543235
252	0x3c63ad79	0.01389634
253	0x3e4e2828	0.20132506
254	0xbd9a757e	-0.07541941
255	0xbd82d274	-0.06387797

lstm.weight_hh_l0 f4 [256, 64]
0	0x3da15886	0.07878213
1	0x3e269fcf	0.162719
2	0x3db96da5	0.09054116
3	0x3dc7ef00	0.097623825
4	0x3d8f74b6	0.07004683
5	0xbd9de1ed	-0.077091075
6	0x3de9d764	0.114180356
7	0x3ca6f5ba	0.020380843
8	0x3dc1a259	0.094547935
9	0x3e7c6a5b	0.24649946
10	0x3d7accc7	0.061230447
11	0xbe301327	-0.17194806
12	0x3d46f1bc	0.04857038
13	0x3d32d6fe	0.043662064
14	0x3dcc7156	0.099825546
15	0x3cbd1842	0.023082856
16	0x3bc92368	0.006138254
17	0xbe07d398	-0.1326431
18	0x3dfc7aeb	0.12328132
19	0xbc8b943e	-0.01703846
20	0x3decfeb6	0.1157202
21	0x3d4d4b56	0.050120674
22	0x3da10cf1	0.078637965
23	0xbe17f989	-0.14841284
24	0xbe584621	-0.21120502
25	0x3e0cd615	0.13753541
26	0x3d60b72a	0.05486218
27	0x3c450d8c	0.012027156
28	0xbc34243c	-0.010994967
29	0xbe0d48de	-0.13797328
30	0x3daccdb3	0.084376715
31	0xbc9ba825	-0.019001076
32	0x3de04345	0.10950331
33	0x3d110d56	0.03541311
34	0xbe8f52fd	-0.27993003
35	0xbc830fe7	-0.015998794
36	0xbda8bce8	-0.08239156
37	0xbd816229	-0.06317551
38	0x3d2595d9	0.04042611
39	0x3e476f26	0.19475994
40	0x3e1f1237	0.15534292
41	0x3e51256b	0.2042443
42	0x3df12fd9	0.11776704
43	0xbde83feb	-0.113403164
44	0x3bc30ca7	0.005952436
45	0x3e2feae6	0.1717945
46	0xbb9e4be2	-0.0048308233
47	0x3e548b9a	0.20756379
48	0x3dfd6771	0.123732455
49	0x3e84e777	0.25957844
50	0x3e0cd543	0.13753228
51	0xbdb60ef4	-0.08889571
52	0xbe026975	-0.12735541
53	0x3cbce886	0.023060095
54	0x3e00d065	0.12579496
55	0xbdede904	-0.1161671
56	0x3dbb95d0	0.09159434
57	0x3c777d69	0.015105584
58	0x3c63dda7	0.0139078265
59	0xbda6c997	-0.08143919
60	0x3cd70a7b	0.026250115
61	0x3bd99186	0.006639662
62	0x3e27b434	0.16377336
63	0x3be64bdf	0.0070280875
64	0xbcad5ed1	-0.021163376
65	0xbdc84ee4	-0.09780672
66	0xbda996a0	-0.082806826
67	0x3d7321db	0.05935846
68	0xbd92d8e8	-0.07170278
69	0x3d90f130	0.07077253
70	0x3d950d4a	0.07277925
71	0xbd7b3824	-0.061332837
72	0x3c286d9b	0.010280038
73	0x3d9eeeda	0.07760401
74	0x3d45bf76	0.048278295
75	0xbd7afc63	-0.06127585
76	0xbdb80356	-0.08985011
77	0x3d9ff565	0.07810477
78	0x3d70e19f	0.05880892
79	0xbd5393a1	-0.05165446
80	0xbc61bbfd	-0.01377773
81	0x3db3354a	0.087503985
82	0xbce6bd89	-0.02816655
83	0xbca50ffd	-0.020149225
84	0xbb1a7e9b	-0.0023573998
85	0xbd37e79f	-0.044898625
86	0x3ccc3081	0.024925472
87	0xbc56a34f	-0.013100459
88	0xbc0b6075	-0.008506884
89	0xbdbc6f63	-0.09200933
90	0xbde23b49	-0.11046464
91	0xbc85d41d	-0.016336495
92	0x3d754778	0.05988261
93	0xbcdca1d4	-0.026932634
94	0xbdac8d1b	-0.08425351
95	0x3cd2749c	0.02569037
96	0xbe0364da	-0.1283144
97	0x3e067469	0.13130344
98	0xbddc12cd	-0.107457735
99	0xbd8b366e	-0.06797491
100	0x3dc21c88	0.09478098
101	0xbc24ea43	-0.010065618
102	0x3d8fdaa6	0.07024126
103	0x3db70640	0.08936739
104	0xbda1111d	-0.07864592
105	0xbb0af3ae	-0.0021202373
106	0x3e25df80	0.1619854
107	0x3dd9ef0e	0.10641299
108	0x3cf8f139	0.030388461
109	0x3d483398	0.04887733
110	0xbe63a1b4	-0.22229654
111	0xbc83960a	-0.016062755
112	0xbc52c750	-0.012864903
113	0x3d7e7b8e	0.06212955
114	0x3b503152	0.0031767678
115	0xbda5e4fc	-0.08100316
116	0xbda29f08	-0.07940489
117	0xbbaf7fed	-0.005355826
118	0xbdca2b96	-0.098715946
119	0x3dc16b67	0.094443135
120	0x3d7bb32e	0.061450176
121	0x3d1c7284	0.038195148
122	0xbdfa036c	-0.12207684
123	0xbcad2f18	-0.02114062
124	0xbcfbefd6	-0.030754011
125	0x3d925f6b	0.07147106
126	0x3d53473c	0.051581606
127	0x3c1c848d	0.009553087
128	0xbdcdca70	-0.100483775
129	0x3e00819e	0.12549445
130	0x3d1e4a08	0.03864482
131	0x3d31d625	0.043417115
132	0x3de3d364	0.11124304
133	0xbdc0eb23	-0.09419849
134	0xbc5e81e4	-0.013580773
135	0x3e3d7abb	0.18503849
136	0x3d0a637a	0.033786274
137	0x3e3c4c17	0.18388401
138	0x3d8d8ec6	0.069119975
139	0x3e10a396	0.14124903
140	0x3bd6a247	0.0065501067
141	0xbe1ba3f0	-0.15199256
142	0xbdf68d45	-0.12038664
143	0x3d8b65f6	0.06806557
144	0xbca68a7c	-0.020329706
145	0xbd0d2ae4	-0.03446473
146	0x3e5bff28	0.21484053
147	0xbd998a7d	-0.07497118
148	0x3c8bcf89	0.017066734
149	0xbd3853be	-0.045001738
150	0x3d6021d7	0.054719772
151	0x3da0dd59	0.07854719
152	0xbd989963	-0.07451131
153	0xbd8b79c9	-0.06810338
154	0x3d93077b	0.07179161
155	0xbd7fccef	-0.0624513
156	0x3e706276	0.2347506
157	0xbd060f44	-0.032729402
158	0xbe2737b3	-0.16329841
159	0xbce2d185	-0.027687797
160	0xbdce76e2	-0.10081269
161	0x3d8b04b4	0.067880064
162	0xbce13d52	-0.02749506
163	0x3b97bf89	0.004630987
164	0xbe00373c	-0.1252107
165	0xbe500d37	-0.20317541
166	0x3df018ac	0.11723456
167	0xbd3f239d	-0.046664823
168	0x3d321b4e	0.04348307
169	0x3e464261	0.19361259
170	0xbdc9e0c6	-0.09857325
171	0xbd7b7678	-0.061392277
172	0x3dcf88f2	0.10133542
173	0x3b96568b	0.0045879534
174	0x3e5567ff	0.20840453
175	0xbe1dc000	-0.15405273
176	0x3e474d0c	0.19462985
177	0x3de34a16	0.11098115
178	0xbe257386	-0.1615735
179	0x3d08b27d	0.033373345
180	0x3da5da86	0.08098321
181	0x3d4e67b1	0.050391857
182	0x3ddff8c9	0.10936124
183	0xbc3b980e	-0.011449827
184	0xbe239dab	-0.15978114
185	0x3ddcfc79	0.10790343
186	0x3c63d8a6	0.0139066335
187	0x3d2b0a67	0.041757967
188	0x3cdc0dc0	0.026862025
189	0x3c85c8fd	0.01633119
190	0xbd82993b	-0.06376883
191	0xbe126e25	-0.1429983
192	0x3d9c13cc	0.076209635
193	0x3d44eae3	0.048075568
194	0x3d63cc80	0.05561495
195	0x3e280c10	0.16410851
196	0x3de5c45e	0.11219095
197	0x3d5fcbdf	0.054637786
198	0xbdf5c520	-0.12000489
199	0xbd493ee3	-0.04913224
200	0xbde22dfe	-0.110439286
201	0xbd2b936d	-0.041888643
202	0x390bb793	0.0001332446
203	0xbced0024	-0.028930731
204	0xbdb1391b	-0.0865347
205	0xbdd7fd0a	-0.1054631
206	0xbd1a6aee	-0.037699632
207	0x3d4c9d8b	0.049954932
208	0xbd224b57	-0.03962263
209	0x3df6a99b	0.120440684
210	0xbe1f31f6	-0.15546402
211	0x3c5e8b53	0.013583022
212	0xbdb0a064	-0.08624342
213	0xbc17637f	-0.00924003
214	0x3ddb8c13	0.107200764
215	0xbe244df6	-0.16045365
216	0x3e065eac	0.13122052
217	0xbe3323d2	-0.17494133
218	0x3d02554a	0.03181962
219	0xbd941217	-0.07230013
220	0x3a27ef55	0.00064062077
221	0x3c4353b4	0.011921812
222	0xbdcc6ca1	-0.09981657
223	0x3d5f227a	0.05447624
224	0xbcc6c3b3	-0.024263239
225	0xbde72491	-0.11286271
226	0xbceaece5	-0.028677413
227	0x3e26c592	0.16286305
228	0x3d1816d2	0.03713114
229	0x3d3e6c96	0.046490274
230	0xbcdbe017	-0.026840253
231	0x3c0d3f27	0.008621014
232	0xbd287cc6	-0.04113462
233	0x3dd8e9ab	0.10591444
234	0x3cfba3aa	0.03071769
235	0x3d25a19a	0.04043732
236	0x3dc8af75	0.09799091
237	0xbe33ff16	-0.17577776
238	0xbe2e5239	-0.17023553
239	0xbe04a774	-0.12954503
240	0xbe0a1f31	-0.13488461
241	0xbe37c5b1	-0.17946507
242	0xbc875a66	-0.016522598
243	0x3e0d8749	0.13821138
244	0xbd92584d	-0.07145748
245	0xbb1e7d8b	-0.0024183716
246	0x3cc0d33a	0.02353822
247	0x3e07e7e7	0.13272057
248	0xbda11084	-0.07864478
249	0xbc119fe9	-0.008888223
250	0xbc8c51fc	-0.017128937
251	0x3d26b7f7	0.040702786
252	0xbd973af8	-0.07384294
253	0xbcce73d9	-0.025201725
254	0x3d8292f7	0.063756876
255	0x3de32b3a	0.11092229

lstm.bias_ih_l0 f4 [256]
0	0x3e45866d	0.1928956
1	0xbd8e3f6f	-0.06945693
2	0x3df6c420	0.120491266
3	0xbde1457c	-0.10999581
4	0xbcb9ec6f	-0.022695748
5	0xbdec9f0b	-0.115537725
6	0xbe262a0a	-0.16226974
7	0xbdbaec5b	-0.091271125
8	0x3ce7b442	0.028284196
9	0xbd3e7729	-0.04650036
10	0xbce467b7	-0.027881486
11	0xbdda3f5e	-0.106566176
12	0xbd36c82e	-0.0446245
13	0x3e2fa095	0.17151101
14	0xbbaa74bb	-0.0052019036
15	0xbd8e2b71	-0.069418795
16	0x3dfb974f	0.12284719
17	0x3d95f42b	0.07321962
18	0x3b0139e3	0.001971834
19	0x3e003a6d	0.12522288
20	0x3da56e48	0.08077675
21	0xbe26a5e5	-0.16274221
22	0xbced35e1	-0.028956356
23	0x3e3abb22	0.18235448
24	0xbe018428	-0.1264807
25	0x3d48f079	0.049057458
26	0x3cb7d470	0.022440165
27	0x3e22a71c	0.1588406
28	0x3d3a4a68	0.045481116
29	0x3db880c1	0.09008933
30	0x3dc60a2e	0.0966991
31	0x3db1f2c2	0.086888805
32	0x3db068a4	0.086137086
33	0xbc421a6c	-0.01184712
34	0x3dece0c5	0.11566309
35	0xbd2be945	-0.04197051
36	0x38e826fe	0.00011069885
37	0xbd115ec8	-0.03549078
38	0xbc39d137	-0.011341385
39	0x3e419ce1	0.18907501
40	0xbda04504	-0.07825664
41	0xbcddeed6	-0.027091425
42	0x3d0285a3	0.031865727
43	0x3d668fb4	0.05628939
44	0x3d08b491	0.033375327
45	0x3db1eefb	0.0868816
46	0x3ded55ed	0.11588655
47	0x3e15fe14	0.14647704
48	0xbde72ebf	-0.11288213
49	0xbda38313	-0.07983985
50	0x3d58b23e	0.05290436
51	0xbd3b3c77	-0.04571196
52	0xbd0f5a99	-0.03499851
53	0x3dc87b55	0.09789149
54	0xbdfb2f5e	-0.12264894
55	0x3e0fd215	0.14044984
56	0x3d6720e9	0.05642787
57	0x3bf973b9	0.007612672
58	0xbd83002a	-0.06396516
59	0x3b3d1bfb	0.002885579
60	0x3d8e4659	0.069470115
61	0xbdcd1a14	-0.1001474
62	0x3d72f378	0.05931422
63	0x3e02450a	0.12721649
64	0x3d49af88	0.049239665
65	0x3d29c670	0.04144901
66	0xbde6ce84	-0.112698585
67	0xbd526ef7	-0.051375356
68	0x3dc4f1fe	0.09616469
69	0xbdb8c5f3	-0.09022131
70	0xbd714c1a	-0.058910467
71	0xbc6c3215	-0.014416237
72	0xbd5c3f32	-0.053771205
73	0x3c98a16c	0.01863166
74	0xbd07a566	-0.03311672
75	0xbd8819b4	-0.066455275
76	0xbb6f1937	-0.0036483535
77	0x3b49fa5b	0.003081939
78	0x3d2d4b8a	0.042308368
79	0x3d4cde7c	0.050016865
80	0x3d8da715	0.06916634
81	0x3de2593a	0.11052175
82	0xbd51b172	-0.051194616
83	0xbe0660a2	-0.131228
84	0xbe14562f	-0.14486001
85	0xbd13c744	-0.036078706
86	0xbde18699	-0.110120006
87	0x3d37bd6d	0.044858385
88	0xbce9af47	-0.028525962
89	0xbdd0d666	-0.10197143
90	0x3cd4c887	0.025974525
91	0xbda0a798	-0.07844466
92	0xbd5d0227	-0.05395713
93	0x3d08ba73	0.033380937
94	0xbdf72634	-0.120678335
95	0xbc66e4f0	-0.014092669
96	0x3d5daa93	0.05411775
97	0x3c68f0ef	0.014217599
98	0xbd3157f0	-0.043296754
99	0x3cc8c354	0.024507202
100	0x3df07e7c	0.11742875
101	0xbc908d5a	-0.017645527
102	0x3d90a62b	0.07062944
103	0x3de4ebd0	0.1117779
104	0x3dcc479b	0.09974595
105	0xbda5c10c	-0.080934614
106	0xbd319dbd	-0.04336332
107	0xbd0083f6	-0.031375848
108	0x3e114303	0.14185719
109	0xbd97b74e	-0.074080095
110	0xbd6908c1	-0.056893114
111	0x3c90cd20	0.017675936
112	0x3df2de55	0.11858813
113	0x3e04a231	0.12952496
114	0xbdcc404b	-0.099732004
115	0x3d8d6ba0	0.069052935
116	0xbdba136a	-0.09085734
117	0x3d84b416	0.06479661
118	0xbd4fde89	-0.050749335
119	0xbde1730d	-0.11008272
120	0xbc3aaad8	-0.011393271
121	0x3ca5b967	0.020230008
122	0xbe36eea9	-0.17864479
123	0xbd9f5d72	-0.07781495
124	0xbe4e4bcc	-0.20146102
125	0x3df6eb9f	0.1205666
126	0xbdd1b2b1	-0.10239161
127	0x3e6d8db3	0.23198585
128	0x3bf4112a	0.007448335
129	0x3d9c4de5	0.07632045
130	0x3d4facc4	0.05070187
131	0xbc68a7ba	-0.014200145
132	0x3e1b4f94	0.15167075
133	0xbd61ae82	-0.055098064
134	0xbc4d4047	-0.012527532
135	0xbca1eec1	-0.019767167
136	0xbd9ed75d	-0.07755921
137	0x3d91c852	0.07118286
138	0xbd8fd5ae	-0.07023178
139	0xbc72b260	-0.014813036
140	0xbdd2f3b1	-0.10300387
141	0x3d543415	0.05180748
142	0x3d5f1c30	0.05447024
143	0xbd9ff0ce	-0.07809602
144	0xbd8d422c	-0.06897387
145	0x3d726d02	0.05918599
146	0xbd03ee01	-0.0322094
147	0x3d97e0f1	0.07415951
148	0xbd2b71e7	-0.041856673
149	0xbca0239b	-0.019548228
150	0x3dcbfec4	0.09960702
151	0x3d9a8cc7	0.075463824
152	0xbdfa1ccc	-0.12212524
153	0xbd516e0a	-0.051130332
154	0x3d5b4ba0	0.05353892
155	0xbe288f8f	-0.16461013
156	0x3cfefdf6	0.031126957
157	0x3d538eac	0.051649734
158	0xbc144d2f	-0.009051605
159	0xbe3983d2	-0.18116692
160	0x3c0ae431	0.008477257
161	0x3d00eff4	0.031478837
162	0x3d995a5e	0.07487939
163	0xbc663cbb	-0.014052565
164	0xbdf3877f	-0.11891078
165	0xbdd5bf38	-0.10436863
166	0xbe758ecd	-0.23980255
167	0xbc23fb89	-0.010008701
168	0x3d6e58c5	0.058190126
169	0x3d616b98	0.05503425
170	0x3d6e84fe	0.0582323
171	0x3bcec5ff	0.006310224
172	0x3e0ba8fc	0.13638681
173	0x3dfdce8e	0.12392913
174	0x3d840ead	0.06448112
175	0x3b0817a9	0.0020766056
176	0x3b8d0f68	0.004304815
177	0xbdc93334	-0.09824219
178	0x3da4f9c6	0.08055453
179	0xbd8da677	-0.06916516
180	0xbd808321	-0.06275011
181	0xbd3ae2c5	-0.04562642
182	0x3d24d85d	0.040245403
183	0xbd6b925b	-0.057512622
184	0xbdc80fe5	-0.09768657
185	0xbdb872f3	-0.090063
186	0xbd26e9cd	-0.040750314
187	0xbd2cefaf	-0.042220768
188	0xbd9a217a	-0.075259164
189	0x3dbbf26c	0.09177098
190	0x3c9f382d	0.019435966
191	0xbe3486b3	-0.17629509
192	0xbd299621	-0.04140294
193	0xbd180926	-0.0371181
194	0xbe026ac5	-0.12736042
195	0xbbed4422	-0.007240788
196	0x3df692dd	0.12039731
197	0x3d8b79b2	0.06810321
198	0x3cbda6ec	0.023150884
199	0xbe0e0749	-0.13869967
200	0xbcf7ba3e	-0.030240174
201	0xbdb423e0	-0.08795905
202	0xbd8a1563	-0.067423604
203	0x3d8a6835	0.06758157
204	0x3d8cc5f6	0.068736956
205	0x3dc323e2	0.095283285
206	0x3ca2dd5a	0.01988094
207	0x3d2202f7	0.03955361
208	0x3e036f8a	0.12835518
209	0x3d659975	0.05605455
210	0xbe0a557f	-0.13509177
211	0x3d0e4e61	0.034742717
212	0x3db2e000	0.08734131
213	0x3d8ed83b	0.069748364
214	0xbcb96ba0	-0.022634327
215	0xbce11c3f	-0.02747929
216	0xbcd1eb3b	-0.025624862
217	0x3d228580	0.039678097
218	0x3d46b6cc	0.048514172
219	0xbd86f55e	-0.06589769
220	0x3d29bc72	0.04143948
221	0xbd449237	-0.047991004
222	0x3dfe3d65	0.12414054
223	0x3c5153ba	0.01277631
224	0xbd967d0d	-0.0734807
225	0xbc169033	-0.009189653
226	0x3d859279	0.06522078
227	0x3da9f036	0.0829777
228	0xbd59a954	-0.05314
229	0x3db6bcdd	0.089227416
230	0x3dd747c8	0.10511738
231	0x3dd63da4	0.10460976
232	0x3c1572ec	0.009121638
233	0x3e275836	0.16342244
234	0x3d920a56	0.07130878
235	0x3d08aeeb	0.03336994
236	0x3d19197a	0.037377812
237	0x3c82444b	0.015901705
238	0x3cdb61f1	0.0267801
239	0xbc18f4a1	-0.009335668
240	0xbd600aac	-0.054697677
241	0x3e0b8e1a	0.13628426
242	0x3e06e39b	0.13172762
243	0xbd188a98	-0.03724155
244	0xbc311a7d	-0.010809538
245	0x3e13ee96	0.14446482
246	0x3d127367	0.035754588
247	0xbd66818a	-0.05627588
248	0x3d9d713b	0.076876126
249	0xbd5943c1	-0.05304313
250	0xbabb7053	-0.0014300443
251	0x3defbcd3	0.11705937
252	0xbdfd6cbb	-0.12374254
253	0x3d9b9f06	0.07598691
254	0x3d9cc30c	0.0765439
255	0xbd9bb724	-0.07603291

lstm.bias_hh_l0 f4 [256]
0	0x3c9bb740	0.019008279
1	0x3cf37b44	0.029721864
2	0x3d29900b	0.041397136
3	0x3cbfb412	0.023401294
4	0x3dba148c	0.0908595
5	0x3d13a10a	0.03604225
6	0xbe24f4f2	-0.16109064
7	0xbcc96ad7	-0.024587078
8	0xbcb7c430	-0.022432417
9	0xbb1e21e3	-0.0024129085
10	0x3dda55d0	0.10660899
11	0xbd17adb1	-0.03703088
12	0xbda7bf9e	-0.08190845
13	0xbccd8b9d	-0.025090987
14	0xbceaf0ed	-0.028679335
15	0xbde6cd19	-0.11269588
16	0x3d1f3322	0.038867123
17	0xbe002369	-0.12513508
18	0x3d2e7028	0.04258743
19	0x3e00c6f5	0.12575896
20	0xbdbe15fc	-0.09281537
21	0xbe31de5d	-0.17369981
22	0xbdca6e08	-0.09884268
23	0x3e348832	0.1763008
24	0x3d819212	0.06326689
25	0xbd9d5bc0	-0.076835155
26	0x3d29ac21	0.04142392
27	0x3e0d9700	0.13827133
28	0xbd674f1c	-0.05647193
29	0xbd68ef44	-0.056868806
30	0x3cf47d57	0.029844923
31	0x3dff5607	0.1246758
32	0x3cf8cd4f	0.030371336
33	0x3d1375bb	0.03600095
34	0x3d555258	0.052080482
35	0x3bbf08a6	0.0058298884
36	0xbd3d6cd5	-0.04624637
37	0xbd9107c4	-0.07081559
38	0x3e1c0e11	0.15239741
39	0xbce8ba47	-0.028409136
40	0xbd521fee	-0.05129998
41	0x3d19b994	0.037530497
42	0xbccac1b7	-0.024750574
43	0x3dd094a6	0.101846024
44	0x3d93f071	0.07223595
45	0xbda27b67	-0.079336934
46	0x3d70bb1e	0.0587722
47	0x3e09001b	0.13378946
48	0x3d7a240e	0.06106954
49	0xbcd053c4	-0.025430568
50	0x3b9d2536	0.0047956957
51	0xbd81982a	-0.06327851
52	0x3ac243e7	0.0014821262
53	0x3df08b73	0.11745348
54	0xbdf578a6	-0.119859025
55	0xbd97e54a	-0.0741678
56	0x3c7ce5dd	0.015435663
57	0x3e1998a7	0.14999638
58	0xbddc6fad	-0.10763488
59	0x3d3c7f3a	0.04601977
60	0x3a94b928	0.0011346685
61	0xbc054384	-0.008133773
62	0xbd3e7a46	-0.046503328
63	0x3e594874	0.21219045
64	0x3d373cd2	0.044735737
65	0x3dd1d4da	0.10245676
66	0xbc26fd46	-0.010192221
67	0x3df03fdb	0.117309295
68	0xbd45b1e6	-0.04826536
69	0xbc4d7803	-0.01254082
70	0xbd0c45ef	-0.03424638
71	0xbcaf7261	-0.021416845
72	0xbd0dde99	-0.034636114
73	0xbd930070	-0.07177818
74	0xbdcb159f	-0.09916233
75	0x3dbd7808	0.0925141
76	0xbd458ac4	-0.04822804
77	0xbc6c6708	-0.014428861
78	0x3d921b43	0.07134106
79	0x3ceb1757	0.028697653
80	0xbd90bf2d	-0.07067714
81	0x3d8e9b1c	0.069631785
82	0xbc1ac13f	-0.0094454875
83	0x3b71f73b	0.0036921042
84	0xbdf63684	-0.12022117
85	0x3b374a75	0.0027967964
86	0xbddb0dd5	-0.106959976
87	0xbe03381d	-0.12814374
88	0x3d1c70aa	0.038193382
89	0x3d6e9756	0.058249794
90	0xbc4806ff	-0.012208699
91	0x3c905967	0.017620755
92	0x3dc1e7b6	0.094680235
93	0x3da782f3	0.081792735
94	0x3b82ca40	0.0039913952
95	0x3de3df1c	0.11126539
96	0x3dfa2952	0.122149125
97	0x3d990372	0.0747136
98	0xbd9f3cc2	-0.077752605
99	0xbd93982a	-0.07206757
100	0x3e0afb0f	0.13572334
101	0xbdb3ffa8	-0.08788997
102	0x3d5e6519	0.054295633
103	0xbd12c470	-0.03583187
104	0x3db0f558	0.086405456
105	0xbd4bdf37	-0.04977342
106	0xbe00fcb5	-0.125964
107	0xbd6a3329	-0.057177696
108	0xbc0f0c0b	-0.008730899
109	0x3daa6ec8	0.08321911
110	0x3c415721	0.011800558
111	0xbdc1ba75	-0.09459392
112	0x3de8b7c1	0.11363173
113	0x3dfb4a3b	0.12270018
114	0x3cbb8b19	0.022893475
115	0xbd0742d0	-0.0330227
116	0xbddd2220	-0.107975245
117	0x3da76e29	0.08175308
118	0xbd941e32	-0.07232322
119	0x3d9f7787	0.0778647
120	0x39bd7446	0.0003613552
121	0xbdf5635a	-0.119818404
122	0xbdbcfb5e	-0.09227632
123	0xbd9ee3bc	-0.07758281
124	0xbcd08684	-0.025454767
125	0x3d9999ab	0.07500013
126	0xbd2f720f	-0.042833384
127	0x3d967c75	0.07347957
128	0xbd999412	-0.07498945
129	0x3db2119d	0.08694766
130	0x3dc075b0	0.09397447
131	0xbda64af9	-0.08119769
132	0x3e0c6685	0.13710983
133	0xbd4f88ee	-0.050667696
134	0x3dd567e8	0.10420209
135	0xbda3861e	-0.07984565
136	0x3e0002e9	0.1250111
137	0x3c06d83f	0.008230268
138	0xbcc99a0c	-0.024609588
139	0xbe2beec7	-0.16790305
140	0xbdc90876	-0.09816067
141	0x3db8221d	0.089908816
142	0xbda850fd	-0.08218572
143	0xbc18b000	-0.009319305
144	0xbd8f811d	-0.07007048
145	0x3da278a3	0.07933166
146	0x3dae1284	0.08499625
147	0x3cbeab5c	0.02327507
148	0xbc7c89c5	-0.015413706
149	0x3c46ddff	0.012137889
150	0x3d8bac4d	0.06819973
151	0xbdc77795	-0.09739605
152	0x3c8a20c9	0.016861336
153	0x3da46f51	0.080290444
154	0xbde8bd05	-0.113641776
155	0xbc17062a	-0.009217778
156	0xbd91c890	-0.071183324
157	0xbdcb9555	-0.09940592
158	0x3d0db6de	0.034598224
159	0xbddcb1b2	-0.1077608
160	0x3dea822b	0.11450609
161	0x3e084653	0.13308077
162	0xbe14f5ca	-0.14546886
163	0x3a97f035	0.0011591973
164	0x3ca0736f	0.019586293
165	0x3d42e425	0.047580857
166	0xbe2effc8	-0.1708976
167	0x3e19e0d8	0.15027177
168	0x3d8b35e4	0.06797388
169	0xbd753662	-0.059866317
170	0x3dbe1f16	0.09283273
171	0x3dddb80b	0.10826119
172	0x3dac489c	0.08412287
173	0x3d9e3790	0.077254415
174	0x3e0227c5	0.12710483
175	0xbbc4e19a	-0.006008339
176	0xbc0cdbda	-0.008597339
177	0xbd52f989	-0.051507507
178	0xbd1287e2	-0.03577412
179	0x3c0fcdad	0.008777064
180	0xbdb2ea47	-0.08736091
181	0x3c138176	0.009003034
182	0x3cc5f0a0	0.02416259
183	0xbce49b66	-0.027906131
184	0xbd39236c	-0.045199797
185	0x3db320c5	0.08746485
186	0xbdb717c5	-0.089400806
187	0x3adf09e7	0.0017016501
188	0xbc84fbdf	-0.016233383
189	0xbd26fd4c	-0.040768906
190	0xbd6313f8	-0.055438966
191	0xbe4f799a	-0.20261231
192	0x3dfd3e46	0.12365393
193	0xbdff7e11	-0.12475217
194	0xbdf81ec0	-0.1211524
195	0x3d459333	0.048236083
196	0xbd7e3d7e	-0.062070362
197	0xbd316fe9	-0.043319616
198	0xbe299d2c	-0.16563863
199	0xbe087941	-0.13327505
200	0xbda8f84b	-0.08250483
201	0xbe090b8f	-0.13383316
202	0x3cdc34ec	0.026880704
203	0x3da9633e	0.08270882
204	0x3cd5574a	0.0260426
205	0x3ca7bab2	0.020474765
206	0x3dab1f3e	0.08355568
207	0x3d61a457	0.055088367
208	0x3d7e45cb	0.06207828
209	0x3d70f537	0.058827605
210	0xbc99b78a	-0.018764276
211	0xbd15c21f	-0.03656208
212	0x3cb495a0	0.022044003
213	0xbde83ed7	-0.11340111
214	0x3d8b772a	0.06809838
215	0x3da93078	0.08261198
216	0xbe07eeee	-0.13274738
217	0x3e006ccc	0.12541503
218	0x3d7cd626	0.061727665
219	0x3e034a26	0.12821254
220	0x3dcdfd1f	0.10058045
221	0x3e1f4b6d	0.15556116
222	0x3d8311ba	0.063998654
223	0xbceb1cb9	-0.02870022
224	0x3d6599b4	0.056054786
225	0x3de3a42b	0.11115297
226	0x3d11f056	0.035629593
227	0xbcbb2f1b	-0.02284961
228	0x3da02ad0	0.07820666
229	0xbc843bbd	-0.016141767
230	0x3d32488b	0.043526214
231	0x3c3f925c	0.01169261
232	0x3ded7b86	0.11595826
233	0x3d8ccb2d	0.0687469
234	0xbd952496	-0.07282369
235	0xbdbcec8f	-0.092248075
236	0x3c5bfe4e	0.01342733
237	0xbd241b6a	-0.040065207
238	0x3c3c56b5	0.011495282
239	0xbd2de73e	-0.042456858
240	0xbd00ee26	-0.031477116
241	0x3d5e34de	0.054249637
242	0x3e15b251	0.14618804
243	0x3dc4b0e1	0.096040495
244	0x3d36e8b6	0.044655524
245	0x3e171f4c	0.14758033
246	0x3cdade72	0.026717398
247	0x3e0982c9	0.13428797
248	0xbd6bf5e6	-0.057607554
249	0x3d53436f	0.05157798
250	0x3bdedca1	0.0068012034
251	0x3c5051b0	0.012714788
252	0xbd47faae	-0.04882305
253	0xbcdee8ac	-0.027210556
254	0xbdb1b2bc	-0.08676669
255	0x3d4d80fa	0.05017183

classifier.0.weight f4 [32, 64]
0	0xbe46e951	-0.1942494
1	0x3e048207	0.12940226
2	0x3e323feb	0.17407195
3	0x3c34ef33	0.011043358
4	0x3e5efe40	0.21776676
5	0xbe2a8a3e	-0.16654298
6	0xbe05b143	-0.13055901
7	0xbe2479ad	-0.1606204
8	0x3e460f68	0.19341815
9	0x3df41003	0.119171165
10	0x3d89f063	0.06735303
11	0xbdcaa274	-0.09894267
12	0xbe17d292	-0.1482642
13	0x3e51d928	0.20492995
14	0xbdde59d9	-0.10856981
15	0xbd45bc07	-0.04827502
16	0xbe7954d7	-0.2434877
17	0x3dee91f0	0.11648929
18	0x3e1093b8	0.1411885
19	0x3eace129	0.33765534
20	0x3daf1197	0.08548277
21	0x3bf8842b	0.007584115
22	0x3d75ea97	0.060038175
23	0x3eba38ab	0.3637136
24	0xbc53289d	-0.012888101
25	0xbdf590fe	-0.11990546
26	0xbcd5e2e8	-0.026109174
27	0xbd443ef8	-0.047911614
28	0xbd54d230	-0.051958263
29	0x3e1568cc	0.14590758
30	0x3d9d3ef8	0.07678026
31	0xbe0c3a4b	-0.13694112
32	0xbdbf69bf	-0.09346341
33	0x3dd66598	0.10468596
34	0x3cd67280	0.026177645
35	0xbdb50c43	-0.08840229
36	0x3d84feca	0.0649391
37	0xbd579178	-0.052628964
38	0xbe292dd3	-0.16521387
39	0x3e81c925	0.25348774
40	0xbccc3715	-0.024928609
41	0x3e6f5221	0.23371173
42	0x3d5a1122	0.053238995
43	0xbcca0abf	-0.024663327
44	0x3e467744	0.19381434
45	0x3cc7db9b	0.024396708
46	0x3e264544	0.1623736
47	0x3e3180ba	0.17334262
48	0x3d5c7af3	0.05382819
49	0xbe280347	-0.164075
50	0x3dc5b1dc	0.096530646
51	0x3ea31dc8	0.3185866
52	0xbbc1c0e4	-0.005912887
53	0xbea5b6f4	-0.32366145
54	0xbdeb2920	-0.11482453
55	0xbcfab544	-0.030604012
56	0xbd9452ca	-0.07242353
57	0x3ed203f7	0.4101865
58	0xbe19de4e	-0.15026209
59	0x3e009ecb	0.12560575
60	0x3cf096b7	0.029368741
61	0x3cb214ec	0.021738492
62	0xbdb3f9ed	-0.08787904
63	0xbe6710e9	-0.22565044
64	0xbe59bac4	-0.21262652
65	0x3e3a17e9	0.18173184
66	0x3e27094e	0.16312143
67	0x3ddb4c3e	0.107079014
68	0x3e0f1527	0.13972913
69	0xbdc0f681	-0.09422017
70	0x3d725cba	0.059170462
71	0x3b8f0bff	0.0043654437
72	0x3e39d166	0.18146285
73	0xbdcedf1e	-0.1010115
74	0x3d901346	0.07034926
75	0xbd6a1c95	-0.057156164
76	0x3cbf2a3a	0.023335565
77	0x3e720abc	0.23636907
78	0x3da77b8c	0.081778616
79	0x3e12ee09	0.14348616
80	0xbe00d394	-0.1258071
81	0x3d363618	0.04448518
82	0x3e18b900	0.14914322
83	0x3e4f9d39	0.2027482
84	0x3d17ca10	0.037057936
85	0x3bebab3a	0.0071920427
86	0x3ce149f8	0.027501091
87	0x3ea7ee6e	0.32799095
88	0x3d165480	0.03670168
89	0xbe098ba2	-0.13432172
90	0x3d8e58a8	0.069505036
91	0xbe237b70	-0.15965056
92	0xbcfaa68e	-0.030596998
93	0x3d233a02	0.039850242
94	0x3dce202e	0.100647315
95	0xbe505195	-0.20343621
96	0xbd832669	-0.064038105
97	0x3e6c976f	0.23104642
98	0xbe09fbec	-0.13475007
99	0x3d5bb18f	0.05363613
100	0x3dd4c6fc	0.10389516
101	0x3cde8618	0.02716355
102	0xbe5b612d	-0.21423788
103	0x3e802f82	0.25036246
104	0xbe290fa7	-0.16509877
105	0x3de3f02a	0.11129792
106	0x3e4ae5d1	0.1981423
107	0x3e266b7e	0.16251943
108	0x3e468f48	0.19390595
109	0x3c676f61	0.014125676
110	0x3e6c2810	0.23062158
111	0xbca84135	-0.020538906
112	0xbd3db577	-0.046315636
113	0x3c3ea3bf	0.01163572
114	0x3d45e614	0.048315123
115	0x3e0b9ef7	0.13634859
116	0x3e044640	0.12917423
117	0xbe847892	-0.25873238
118	0xbdd4f87a	-0.10398956
119	0xbdbe85c1	-0.09302855
120	0xbc6ee6bb	-0.014581378
121	0x3e3f88f2	0.18704584
122	0xbdc203d6	-0.09473388
123	0x3e3a6dc7	0.18205939
124	0xbe101962	-0.14072183
125	0x3d7900b4	0.060791686
126	0xbe1aa33e	-0.15101334
127	0xbe41fa48	-0.18943131
128	0x3e1f8098	0.15576398
129	0x3db0a1cf	0.086246125
130	0xbeb10039	-0.34570482
131	0x3ebf9280	0.37416458
132	0x3cb5e4c0	0.022203803
133	0x3e842b01	0.2581406
134	0xbb14be7b	-0.0022696543
135	0x3cf9c52b	0.030489525
136	0xbde46425	-0.111519136
137	0x3e0c7c4b	0.13719289
138	0x3da68c21	0.08132196
139	0x3ddd0fee	0.10794054
140	0xbe5f89d2	-0.21829918
141	0xbf12e0b9	-0.5737415
142	0x3eb9958e	0.36246914
143	0xbebd85bd	-0.37016097
144	0x3f6255f4	0.88412404
145	0xbe81a98f	-0.25324675
146	0x3e3d9866	0.18515167
147	0xbf6bb9e2	-0.9208051
148	0xbc1b6428	-0.009484328
149	0xbcdc2ac3	-0.02687586
150	0x3ebe3807	0.3715212
151	0xbf5eac88	-0.8698201
152	0xbe81874d	-0.2529854
153	0x3ec343dd	0.38137713
154	0xbca70478	-0.020387873
155	0xbdf63a00	-0.12022781
156	0x3e885040	0.26623726
157	0xbdf203b4	-0.118171126
158	0xbf3e7b33	-0.7440674
159	0x3d411b60	0.047145247
160	0x3e1ccc2c	0.1531226
161	0xbea6a88a	-0.3255046
162	0xbe20400d	-0.15649433
163	0xbe0c902a	-0.13726869
164	0xbe5eb381	-0.21748163
165	0xbedf9d7a	-0.43674833
166	0xbe426d9b	-0.18987124
167	0x3da87bff	0.082267754
168	0x3ecfe821	0.40606788
169	0xbf25fca7	-0.6483864
170	0x3e618cee	0.22026417
171	0x3ecd5ad1	0.4010835
172	0xbd2fc1ca	-0.04290942
173	0x3e0767e6	0.13223228
174	0xbea9ac3c	-0.33139217
175	0x3e4a5568	0.19759142
176	0x3ea4a18f	0.3215451
177	0x3ea63749	0.32464054
178	0x3f02988f	0.51014036
179	0xbf049d4d	-0.5180252
180	0xbdc379a8	-0.095446885
181	0x3eedf495	0.46475664
182	0x3e45839e	0.19288489
183	0xbde6833b	-0.11255499
184	0x3d2361c4	0.03988816
185	0xbf51cb0b	-0.81950444
186	0x3e944b46	0.2896368
187	0xbf13f62f	-0.5779752
188	0x3dc2a254	0.09503618
189	0xbdc27542	-0.094950214
190	0x3e4cd81b	0.20004313
191	0xbc50a94e	-0.012735678
192	0xbd703bf2	-0.05865092
193	0x3d929eb9	0.0715918
194	0x3e3f1cec	0.18663377
195	0xbe3cf115	-0.1845134
196	0xbb2af83e	-0.0026087905
197	0xbd1783f0	-0.03699106
198	0x3ccb38f0	0.024807423
199	0xbe5cfe6a	-0.21581426
200	0x3da637d6	0.081161186
201	0xbde60c13	-0.11232772
202	0x3cc9aa12	0.024617229
203	0xbe45da77	-0.19321619
204	0x3d03e54e	0.032201104
205	0x3e73f300	0.23823166
206	0x3d9f1c82	0.07769109
207	0x3e38e57e	0.18056294
208	0xbe5d36c2	-0.2160292
209	0xbc51316c	-0.012768131
210	0xbcf98bb9	-0.030462133
211	0x3e4ba0b6	0.19885525
212	0x3e5ab7ae	0.2135913
213	0xbe450f5e	-0.19244143
214	0x3db1bf71	0.08679093
215	0x3e174885	0.14773758
216	0xbe025a9c	-0.12729877
217	0x3d14ec5d	0.036358226
218	0xbd87dc30	-0.06633794
219	0xbd6fff5b	-0.058593135
220	0x3de086e1	0.10963226
221	0x3e0ccd5b	0.13750212
222	0x3e5b2a60	0.21402884
223	0xbe3afa08	-0.18259442
224	0xbdcb0153	-0.09912362
225	0x3e804730	0.25054312
226	0x3d354b77	0.044261422
227	0xbe1bc219	-0.15210761
228	0x3deca6a2	0.1155522
229	0x3d9de773	0.07710161
230	0xbe0ec423	-0.13942008
231	0x3e4129f0	0.18863654
232	0x3d61c745	0.05512168
233	0x3c55dffe	0.013053892
234	0x3e2b9e58	0.16759622
235	0xbd2109d0	-0.039316
236	0x3e2565b5	0.1615208
237	0xbdac5e92	-0.08416475
238	0x3ea30550	0.3183999
239	0x3d08876e	0.03333228
240	0xbe240d60	-0.16020727
241	0xbdd856c3	-0.105634235
242	0x3dba54ef	0.09098231
243	0x3e0d8e73	0.13823871
244	0x3dd0f1be	0.10202359
245	0xbe903b76	-0.28170365
246	0x3d59e856	0.05320009
247	0x3d06b928	0.032891423
248	0xbd7a65a0	-0.061132073
249	0x3e3031ff	0.17206572
250	0xbe25ba3b	-0.16184323
251	0x3e498ac4	0.19681841
252	0xbe1ae177	-0.1512507
253	0x3ca5cb24	0.020238467
254	0xbd571725	-0.052512307
255	0xbe69a513	-0.22816877

classifier.0.bias f4 [32]
0	0x3ddc282c	0.1074985
1	0x3bac9a56	0.0052674217
2	0xbd38d01f	-0.045120355
3	0x3e04292b	0.1290633
4	0x3e033be4	0.12815815
5	0x3de0dca7	0.10979586
6	0xbd4b813f	-0.049683806
7	0x3cebec66	0.028799247
8	0x3e6b2571	0.22963502
9	0x3e73ae1c	0.23796886
10	0x3e14f53c	0.14546674
11	0x3d94189d	0.07231257
12	0x3d03af69	0.032149706
13	0x3dee17b6	0.11625616
14	0x3e28b329	0.16474594
15	0x3e1fd9d0	0.15610433
16	0x3d2da008	0.042388946
17	0x3e0163df	0.12635754
18	0x3e13d81a	0.14437905
19	0x3dd6d332	0.10489501
20	0x3c2d30ef	0.010570749
21	0x3e2094cd	0.15681763
22	0xbd32fe8e	-0.043699794
23	0x3d09cd77	0.033643212
24	0x3da7e48e	0.0819789
25	0x3e0b04f3	0.13576107
26	0x3dda0db3	0.10647144
27	0xbd1e1290	-0.03859192
28	0x3e3dedda	0.18547764
29	0x3de03eb3	0.10949459
30	0x3db13537	0.08652728
31	0x3d3ca79b	0.04605828

classifier.2.weight f4 [2, 32]
0	0x3e12256c	0.14272088
1	0x3ea6c10c	0.32569158
2	0xbf249ea4	-0.64304566
3	0x3e4bf425	0.19917352
4	0x3eba66a3	0.3640643
5	0x3e518c53	0.20463686
6	0xbdad3a82	-0.08458425
7	0xbec200a3	-0.3789111
8	0x3edd60e6	0.4323799
9	0x3eba5262	0.36390978
10	0x3e6b53f9	0.22981252
11	0x3ea0bbd4	0.313933
12	0x3f061265	0.5237182
13	0x3f435d09	0.76313835
14	0x3ea26511	0.31717733
15	0xbec951bb	-0.39320168
16	0xbe5b2728	-0.21401656
17	0x3ed0d706	0.4078905
18	0x3efcfcc6	0.494116
19	0xbe8e04d5	-0.27738062
20	0xbf157f3a	-0.5839726
21	0x3ea751cf	0.32679603
22	0xbd0e4af6	-0.034739457
23	0x3f0fa026	0.5610374
24	0x3ed5e7dd	0.4177846
25	0xbea694db	-0.32535443
26	0x3e9339cd	0.28755036
27	0xbe86b459	-0.2630947
28	0x3ea269d5	0.31721368
29	0x3e102d63	0.14079814
30	0x3eae14d2	0.3400026
31	0x3ef21f85	0.47289672
32	0xbedd3ac3	-0.43208894
33	0xbeae9bff	-0.3410339
34	0x3f0a540c	0.54034495
35	0xbebb5172	-0.36585575
36	0xbe38b118	-0.18036306
37	0xbec1957b	-0.37809357
38	0x3ddb7b17	0.10716837
39	0x3e8b19f8	0.2716825
40	0xbe6976de	-0.2279925
41	0xbe98592c	-0.29755533
42	0xbebd5c9e	-0.36984724
43	0xbea5c8c3	-0.32379732
44	0xbeec2b78	-0.46126914
45	0xbf440373	-0.76567763
46	0xbe8b5a88	-0.27217507
47	0x3e40ac55	0.1881574
48	0x3ec1a099	0.3781784
49	0xbe4a7da9	-0.19774498
50	0xbf2f7f04	-0.68553185
51	0x3e8c88fb	0.27448258
52	0x3eb0a76d	0.34502736
53	0xbec83899	-0.3910568
54	0x3d92a7b6	0.071608946
55	0xbe900bac	-0.28133905
56	0xbe967ff5	-0.29394498
57	0x3e8d60e1	0.27612975
58	0xbeb57a65	-0.35444942
59	0x3eccb32d	0.3998045
60	0xbe9df79c	-0.30852973
61	0xbec1e995	-0.3787352
62	0xbed5f246	-0.41786402
63	0xbeb10ff7	-0.34582493

classifier.2.bias f4 [2]
0	0xbdc8a92c	-0.09797892
1	0x3dfca3d1	0.12335933
