src/DARPA/pretrained/models/w50/resampled/phase_5.pth (torch, 194061 bytes, 8 tensors)

lstm.weight_ih_l0 f4 [256, 112]
0.12383638 0.24025622 0.19293164 -0.046221122 -0.044870514 0.18136853 0.14908499 0.2184196
0.07488186 0.2355728 0.1930882 0.020384604 0.25769323 0.13248186 0.9412931 0.47449625
0.15613286 0.43272752 -0.07090975 0.17938858 0.23980558 -0.07492691 0.17531733 0.04979518
1.1483895 0.20068388 0.018268079 0.9040854 0.0484408 0.4155154 -0.020285942 0.2402539
-0.086312175 -0.04967334 0.20166998 -0.025480593 0.30002043 -0.09572642 0.06956566 0.18385461
-0.12818585 0.049094673 -0.05074394 0.25618625 0.024653295 0.3444783 0.10626989 0.06852454
0.06654852 -0.024300849 -0.08919172 0.007878271 -0.044989813 0.3454528 0.117009066 -0.026576808
0.050753184 0.08028592 1.1994749 0.1946016 0.13648652 0.040674303 -0.052049577 0.09569217
0.062080264 0.11853422 0.09189843 0.09854804 -0.1869543 0.78788656 0.15914269 0.06458577
0.8365476 -0.014716353 -0.05940332 0.058272365 -0.019601058 0.013174752 -0.11720086 0.0922155
-0.024939803 0.069231406 0.044779677 0.3124025 0.3074652 -0.017609408 0.17952473 0.038824104
0.63141495 0.055512846 0.11036205 0.053577196 0.23904613 0.08365511 0.08940881 1.0518904
-0.062369954 -0.081873536 -0.06488424 0.114613496 0.027439868 -0.07166147 -0.006891123 0.055572785
0.012018852 0.085392505 -0.060583517 -0.026226431 0.105652094 0.10660564 0.20797841 -0.023849647
-0.06985958 0.14072494 0.07615057 0.09072401 -0.08280131 -0.11002478 -0.05663303 0.15141141
0.38313076 -0.21219116 0.22333106 -0.19110961 0.20618188 0.031502422 -0.04610822 -0.3490728
0.25537097 -0.1156516 0.044139337 0.08009761 0.078975566 0.16693196 -0.00071971864 0.120398864
0.40871948 -0.19059396 -0.14638516 -0.14877038 0.2814016 0.021093363 -0.005040768 0.2758381
-0.033345662 -0.0359242 -0.087742485 0.06277055 0.035009574 0.18882522 0.53521335 -0.18790177
0.32003346 0.009228406 -0.004681352 -0.28596133 -0.040875502 0.21423513 0.14773874 -0.072289154
-0.061180323 0.12023242 0.010140136 -0.031253483 -0.010417911 -0.14089344 0.10561033 -0.10697964
-0.0351708 -0.19067192 0.31279534 0.017281177 0.063966505 0.15791503 -0.011158261 0.032075852
-0.07646659 0.16316085 0.33184382 -0.048585173 -0.19589435 -0.3042719 0.84442997 0.096432365
0.06424181 -0.03213552 -0.11639361 -0.024649162 0.055750675 0.059971474 0.08710842 0.23936933
0.0724461 0.07388577 0.18337652 0.27762744 0.13319936 0.06515868 0.13091606 -0.1076582
0.38384053 -0.07641628 -0.055534642 0.096868426 0.27243674 0.24619418 0.08421223 0.5657077
0.052029204 -0.03756474 0.11043838 -0.11100247 0.0386599 -0.052796073 -0.06141613 0.10428989
0.06535175 0.015843285 -0.03810072 0.124014184 -0.082438074 0.40499583 -0.118160754 0.10470552
0.09518561 0.29125977 0.30796388 0.07341361 0.09537997 -0.008006251 0.07013416 0.013681966
0.51172554 -0.0974291 0.16450202 -0.064519346 0.15272726 0.00704737 0.2831243 0.22461627
0.3481234 0.3537769 0.16794562 0.17408514 0.12805177 0.19474384 0.094027445 0.036964823
-0.08237452 -0.081008926 0.12499936 0.6638302 0.20943622 0.33016375 0.054957174 0.12573586
00000000: ee9d fd3d ba05 763e df8f 453e 5c52 3dbd
00000010: 25ca 37bd acb8 393e bca9 183e 63a9 5f3e
00000020: a95b 993d ff39 713e eab8 453e 9dfd a63c
00000030: 5ef0 833e 53a9 073e 96f8 703f 2cf1 f23e
00000040: 4be1 1f3e 768e dd3e 2239 91bd a4b1 373e
00000050: 988f 753e 4873 99bd 6386 333e 08f6 4b3d
00000060: 6dfe 923f 1380 4d3e f0a6 953c 2472 673f
00000070: dc69 463d 6fbe d43e b42e a6bc 1e05 763e
00000080: 70c4 b0bd 4676 4bbd 9382 4e3e adbc d0bc
00000090: 479c 993e 370c c4bd 7178 8e3d 6244 3c3e
000000a0: 2743 03be 7f17 493d e1d8 4fbd d82a 833e
000000b0: b5f5 c93c 765f b03e 07a4 d93d 9856 8c3d
000000c0: 974a 883d 9312 c7bc 26aa b6bd dd13 013c
000000d0: 3d47 38bd 30df b03e 73a2 ef3d 9bb7 d9bc
000000e0: 92e2 4f3d f26c a43d 6588 993f a445 473e
000000f0: 1fc3 0b3e 199a 263d f031 55bd 42fa c33d
00000100: e047 7e3d 12c2 f23d 3e35 bc3d 8ed3 c93d
00000110: f370 3fbe efb2 493f 4df6 223e 8b45 843d
00000120: fc27 563f dc1c 71bc e550 73bd 01af 6e3d
00000130: 6692 a0bc eada 573c 0107 f0bd 7bdb bc3d
00000140: 8f4e ccbc 32c9 8d3d e56a 373d 38f3 9f3e
00000150: 146c 9d3e 9b41 90bc 55d5 373e 0606 1f3d
00000160: 69a4 213f 7061 633d 8005 e23d c373 5b3d
00000170: 82c8 743e 5f53 ab3d f71b b73d 58a4 863f
00000180: a377 7fbd 50ad a7bd 07e2 84bd 7bba ea3d
00000190: 93c9 e03c 40c3 92bd eece e1bb 4aa0 633d
000001a0: b8ea 443c 44e2 ae3d 6c26 78bd d0d8 d6bc
000001b0: 2060 d83d 0f54 da3d 4bf8 543e 5660 c3bc
000001c0: 8a12 8fbd 331a 103e d4f4 9b3d 82cd b93d
000001d0: bc93 a9bd ac54 e1bd 09f8 67bd 980b 1b3e
000001e0: b729 c43e a448 59be e6b0 643e 3db2 43be
000001f0: 5821 533e af08 013d f9db 3cbd acb9 b2be
00000200: fcbf 823e bfda ecbd 73cb 343d 370a a43d
00000210: f1bd a13d 36f0 2a3e 80ab 3cba ae93 f63d
00000220: ae43 d13e 102b 43be fee5 15be 4357 18be
00000230: df13 903e fdcb ac3c 072d a5bb a73a 8d3e
00000240: 7695 08bd 4125 13bd 55b2 b3bd d98d 803d
00000250: 3366 0f3d 665b 413e be03 093f 5269 40be
00000260: 6ddb a33e bd32 173c 0766 99bb 8669 92be
00000270: 126d 27bd 7460 5b3e d348 173e 560c 94bd
00000280: 3898 7abd 6a3c f63d d022 263c a703 00bd
00000290: e3af 2abc 5f46 10be 3b4a d83d 2418 dbbd
000002a0: 420f 10bd 803f 43be b626 a03e 4191 8d3c
000002b0: df00 833d 7ab4 213e 24d1 36bc f861 033d
000002c0: 849a 9cbd a313 273e 6fe7 a93e 3f01 47bd
000002d0: 8798 48be 87c9 9bbe 902c 583f 557e c53d
000002e0: 3691 833d 89a0 03bd c65f eebd 0aed c9bc
000002f0: d25a 643d a6a4 753d e665 b23d 3c1d 753e
00000300: 9f5e 943d 6c51 973d 0ec7 3b3e 2f25 8e3e
00000310: 6a65 083e ea71 853d dc0e 063e e77b dcbd
00000320: bf86 c43e 2380 9cbd 4b78 63bd f462 c63d
00000330: d47c 8b3e 541a 7c3e 7677 ac3d 38d2 103f
00000340: 931c 553d 7cdd 19bd 842d e23d 4355 e3bd
00000350: d859 1e3d b240 58bd 7b8f 7bbd f095 d53d
00000360: 23d7 853d c7c9 813c 800f 1cbd 26fb fd3d
00000370: 4bd5 a8bd 9d5b cf3e 44fe f1bd d96f d63d
00000380: acf0 c23d 0020 953e 71ad 9d3e e059 963d
00000390: 9356 c33d a72c 03bc 80a2 8f3d 532a 603c
000003a0: 7200 033f e888 c7bd 3873 283e b822 84bd
000003b0: 8964 1c3e a0ed e63b abf5 903e cf01 663e
000003c0: 3b3d b23e 3f22 b53e f0f9 2b3e 6043 323e
000003d0: 0120 033e ee6a 473e 7691 c03d 6d68 173d
000003e0: f9b3 a8bd 02e8 a5bd aaff ff3d c7f0 293f
000003f0: 7376 563e 390b a93e c61a 613d e7c0 003e

lstm.weight_hh_l0 f4 [256, 64]
0.13558552 -0.018449618 0.048317168 -0.0793432 0.048211865 0.04420749 -0.08814237 -0.28504205
-0.10130441 -0.1070237 -0.013193935 -0.20494844 0.008775572 -0.15152332 -0.010305951 -0.13365686
-0.019748708 0.0753775 -0.00027144086 -0.25222933 -0.045326326 -0.031522095 0.22735667 -0.03679409
-0.018586786 -0.015472164 0.10952719 -0.04652189 0.0035235304 -0.017561115 -0.06769314 -0.03881111
0.20085552 -0.14483337 0.059591487 0.15212098 0.010402996 0.0020222063 -0.00025779285 0.12842514
-0.038056422 -0.2274019 -0.16206707 0.054164816 -0.009272504 0.031497035 0.122227326 0.0030738025
0.17103419 0.03810153 0.09587893 -0.12117472 -0.11018851 -0.09621872 0.06366094 0.066341646
-0.033163615 0.12720108 0.028981315 -0.062582724 0.07006117 -0.01525592 -0.08218724 -0.35941055
-0.09392461 -0.06798712 -0.076396905 0.15630805 -0.07706833 -0.032924253 0.07760071 0.11803936
-0.10750259 -0.0672766 -0.13849126 -0.0646821 0.053871624 -0.049635258 0.08760931 0.045622375
0.050258324 -0.20183311 0.05365739 0.027011313 0.008453602 0.005408199 0.006491921 0.09102226
0.050764304 -0.13213134 -0.046077155 -0.05997661 0.010508781 -0.038960185 -0.092719726 0.10373995
-0.059676774 -0.025709527 -0.043241136 -0.13594364 0.026452953 -0.14950676 -0.07772949 -0.26327562
0.15750133 -0.015677711 0.1807316 0.06626481 0.0037443102 0.0526373 -0.09765895 -0.007505579
-0.08948254 -0.2544722 0.04794676 0.015407493 -0.12191184 0.05993265 -0.04563346 -0.1373796
-0.006399648 -0.002596346 -0.14435883 -0.034586783 -0.07169762 0.049707115 -0.05262938 -0.1893316
-0.12437989 0.067783676 0.013123998 -0.12379947 0.055365108 0.0033735193 -0.09384865 0.034875154
-0.048478946 0.1103315 0.016535055 -0.03847651 -0.026230844 -0.062268354 0.07527874 -0.1321841
-0.07775695 -0.0736021 -0.024641827 0.056849197 0.012144514 -0.038052518 -0.06275966 0.10902406
0.021742448 -0.017897928 -0.10275167 -0.06436383 0.10300926 -0.019306447 0.06264893 -0.03912977
0.088466294 0.0043409993 -0.099717446 -0.06708337 0.23012449 -0.23631041 0.09579055 -0.17587478
0.06618242 -0.0709782 0.16687152 0.08531538 -0.07330388 0.1123001 -0.10306537 0.0066530583
-0.072245084 -0.17334053 0.03153734 -0.10671843 -0.07772485 0.05611339 -0.02563259 -0.1383365
-0.09473704 -0.027525265 -0.06981537 -0.046663 -0.07700923 0.10928103 0.12481891 -0.25215718
-0.057014104 -0.010601993 -0.075000525 -0.021587769 -0.05732126 -0.029356534 0.08427038 0.116803
0.040914185 -0.04017419 0.031401318 0.21140464 -0.15529917 0.29513726 -0.06900369 0.008691142
0.043699183 0.01900011 -0.020866394 0.03389384 0.12727356 -0.13853966 -0.118078955 0.08468624
0.19348274 -0.028146232 -0.118029535 0.10272816 -0.08561356 -0.117617756 0.07381012 0.08701608
-0.06542389 -0.055298477 0.019369626 -0.022857282 -0.07444893 -0.005137867 -0.13435397 -0.12622534
-0.004076013 0.09560886 -0.10877035 0.11632967 0.0778755 0.10235522 -0.034457434 -0.13117164
-0.060635127 -0.14001116 -0.19331281 -0.086282395 0.18339464 0.104321726 0.004692614 -0.09372128
0.10285517 -0.15078905 0.06965987 0.08918961 0.09317818 -0.05548836 -0.07654572 0.05862532
00000000: eed6 0a3e a723 97bc 39e8 453d b07e a2bd
00000010: ce79 453d ea12 353d fd83 b4bd 08f1 91be
00000020: b078 cfbd 3e2f dbbd 602b 58bc 01de 51be
00000030: 6bc7 0f3c ee28 1bbe 4bda 28bc 58dd 08be
00000040: 0bc8 a1bc 855f 9a3d 2d50 8eb9 3424 81be
00000050: 19a8 39bd 501d 01bd 30d0 683e 66b5 16bd
00000060: 5143 98bc f67e 7dbc cb4f e03d bd8d 3ebd
00000070: 08eb 663b 54dc 8fbc b3a2 8abd 66f8 1ebd
00000080: 12ad 4d3e 334f 14be 3416 743d 9ac5 1b3e
00000090: 5471 2a3c fe86 043b 5f28 87b9 e181 033e
000000a0: 0de1 1bbd 0bdc 68be e9f4 25be eddb 5d3d
000000b0: b3eb 17bc 0903 013d 5252 fa3d d971 493b
000000c0: 9623 2f3e 5a10 1c3d 2c5c c43d 742a f8bd
000000d0: 83aa e1bd 520e c5bd ab60 823d 21de 873d
000000e0: 92d6 07bd 0041 023e 396a ed3c 5f2b 80bd
000000f0: 3b7c 8f3d f7f3 79bc c951 a8bd a904 b8be
00000100: 8c5b c0bd d53c 8bbd fb75 9cbd 380f 203e
00000110: 00d6 9dbd 95db 06bd 1fed 9e3d 9fbe f13d
00000120: 512a dcbd 50c8 89bd a7d0 0dbe 0d78 84bd
00000130: 7ea8 5c3d 574e 4bbd 836c b33d 87de 3a3d
00000140: acdb 4d3d 57ad 4ebe dac7 5b3d d446 dd3c
00000150: fa80 0a3c 4337 b13b 2eba d43b e169 ba3d
00000160: 3bee 4f3d 704d 07be 66bb 3cbd 09aa 75bd
00000170: 062d 2c3c b794 1fbd d7e3 bdbd 9c75 d43d
00000180: a26f 74bd c99c d2bc 9e1d 31bd cf34 0bbe
00000190: ddb3 d83c 4d18 19be a430 9fbd 10cc 86be
000001a0: 0748 213e 8b6e 80bc b411 393e d8b5 873d
000001b0: 1a63 753b 369a 573d 6a01 c8bd 5cf1 f5bb
000001c0: 9f42 b7bd 2e4a 82be d263 443d b66f 7c3c
000001d0: eaac f9bd f07b 753d 27ea 3abd 3dad 0cbe
000001e0: 23b4 d1bb 7527 2abb cdd2 13be dfaa 0dbd
000001f0: 34d6 92bd b099 4b3d e891 57bd 25e0 41be
00000200: e2ba febd 2bd2 8a3d 0a06 573c 948a fdbd
00000210: 86c6 623d 4316 5d3b b933 c0bd 40d9 0e3d
00000220: dc91 46bd 7bf5 e13d 8674 873c 8c99 1dbd
00000230: 11e2 d6bc 1a0d 7fbd bd2b 9a3d 455b 07be
00000240: 093f 9fbd b3bc 96bd a8dd c9bc b4da 683d
00000250: c9f9 463c f5dc 1bbd 2388 80bd 0248 df3d
00000260: 381d b23c ad9e 92bc 786f d2bd 2fd1 83bd
00000270: 85f6 d23d 8e28 9ebc 154e 803d 8a46 20bd
00000280: d12d b53d f13e 8e3b a938 ccbd 0263 89bd
00000290: c1a5 6b3e 5bfb 71be d62d c43d 8518 34be
000002a0: a68a 873d 055d 91bd 5ee0 2a3e d4b9 ae3d
000002b0: 5820 96bd 98fd e53d f013 d3bd e601 da3b
000002c0: 3bf5 93bd 2e80 31be 4c2d 013d 318f dabd
000002d0: 352e 9fbd 27d7 653d 70fb d1bc 15a8 0dbe
000002e0: 7e05 c2bd aa7c e1bc 5cfb 8ebd b421 3fbd
000002f0: 04b7 9dbd bcce df3d 0fa1 ff3d bf1a 81be
00000300: 9f87 69bd fbb3 2dbc e099 99bd d5d8 b0bc
00000310: b3c9 6abd 1d7d f0bc f395 ac3d 6936 ef3d
00000320: a295 273d b18d 24bd ab9e 003d 757a 583e
00000330: bf06 1fbe 3b1c 973e ce51 8dbd 4b65 0e3c
00000340: eafd 323d 1ea6 9b3c 00f0 aabc 44d4 0a3d
00000350: 0054 023e 57dd 0dbe 61d3 f1bd fb6f ad3d
00000360: 5720 463e ed92 e6bc 78b9 f1bd 2463 d23d
00000370: 2a56 afbd 94e1 f0bd c329 973d 7d35 b23d
00000380: f6fc 85bd a880 62bd 0dad 9e3c 323f bbbc
00000390: ae78 98bd 8d5b a8bb 1694 09be 3741 01be
000003a0: 1390 85bb 94ce c33d fdc2 debd 403e ee3d
000003b0: 317d 9f3d 9d9f d13d 3d23 0dbd dc51 06be
000003c0: 8a5c 78bd 165f 0fbe cbf3 45be d3b4 b0bd
000003d0: cecb 3b3e a1a6 d53d 80c4 993b f1f0 bfbd
000003e0: bba5 d23d 7268 1abe d5a9 8e3d 0ba9 b63d
000003f0: 34d4 be3d c347 63bd 01c4 9cbd 1b21 703d

lstm.bias_ih_l0 f4 [256]
0.22799432 -0.10841152 -0.083402485 -0.16028304 -0.09999344 -0.13345821 -0.14356595 0.13949238
-0.058564097 0.005530406 -0.074895464 0.07134368 0.054033183 0.088844836 0.11079891 -0.08131377
0.03532606 0.2835838 0.051416233 0.088595584 0.00012129544 -0.17927846 0.06642532 0.055979718
0.09677158 0.020106003 0.016717393 0.037418902 -0.04968318 0.12312967 -0.006173089 0.06639731
-0.07974961 -0.13622607 0.11384183 0.03721581 -0.07569821 0.099377565 0.10932939 0.087124914
-0.009840596 0.0331743 -0.042843334 0.20074625 0.08807437 -0.021636399 0.05503491 0.053093195
0.2668467 0.10980266 0.13546984 -0.18828797 -0.04387575 0.26658535 -0.1054003 -0.03978104
-0.051916312 0.04806164 -0.015932616 0.007895384 -0.019005096 -0.11730526 -0.11976399 0.03325461
0.06550194 -0.1267959 -0.080379635 -0.104550816 -0.10255154 -0.075497545 -0.08572885 0.2421468
-0.16877872 -0.017307712 0.043420788 0.0854807 -0.031345382 0.049218073 0.04637481 0.06182177
-0.06969698 -0.078913935 -0.097153716 0.05855291 -0.15152447 0.0131226545 -0.15427087 -0.1702761
0.11348614 -0.18239059 0.02710806 0.06519987 -0.036162574 0.0009036696 0.092213705 -0.13350955
-0.15920767 -0.02801056 -0.17258196 -0.14541586 -0.1581345 -0.12741362 0.01758979 0.15584806
-0.09583475 0.04233163 0.014799195 0.122495584 -0.07351042 -0.08594481 0.049288105 -0.13042593
-0.034890313 0.12654588 0.07374959 -0.037616313 0.07571166 -0.042515866 -0.030456841 -0.086355805
-0.16163814 -0.09030555 0.014653542 0.029912585 -0.030156245 0.11440924 -0.16725035 -0.13433014
0.15488943 0.06550132 -0.07927804 -0.0851555 0.06449476 -0.025875766 -0.16235745 0.042873852
-0.039091345 -0.10576277 0.03701367 -0.13236493 -0.047212712 -0.12435363 0.09485215 0.05957994
-0.15023784 0.02291392 -0.010868333 -0.06786125 -0.009820563 -0.011200972 0.14439324 0.056369174
-0.13482162 -0.031330973 0.06936529 0.04907449 -0.028608127 -0.024074487 -0.121981 0.11146121
-0.086776935 -0.15695183 0.08045358 0.124136455 -0.07577899 -0.08576961 0.027440872 0.14784981
-0.00789913 -0.0652932 0.01036713 -0.1796902 0.049074665 -0.05414429 -0.08083846 0.043393623
0.14335702 0.10612659 0.09873234 0.06709406 -0.13249457 -0.06229535 -0.13831483 -0.036430817
-0.11863407 0.107063636 0.14691263 0.041604027 -0.14599673 -0.10706437 -0.012645514 -0.05343767
-0.030847227 -0.06160026 -0.061084755 -0.10192464 -0.18950033 -0.13554423 -0.16796492 -0.038479194
-0.029329162 -0.028373187 -0.06747276 -0.06326857 -0.13707568 -0.0780872 -0.13303241 -0.067605376
0.18329169 0.1816377 -0.20156763 0.07159468 -0.046649516 -0.09584671 -0.053083956 -0.0625202
0.14855056 -0.17170537 -0.15249294 -0.22366045 -0.06608947 -0.14407523 -0.09783379 -0.023743678
0.07280693 -0.14924829 -0.13400131 -0.16287306 -0.16184622 -0.04524848 -0.05484309 0.14823563
-0.157796 -0.20693102 -0.0974829 -0.040944662 -0.058465242 -0.19270122 -0.08880175 0.050252642
0.05315606 0.021347666 -0.083960906 -0.10619107 0.013939808 0.1441147 -0.07347528 -0.16750723
-0.21271859 -0.07966983 -0.18559563 -5.8177622e-05 -0.081983335 -0.18499137 -0.16853228 -0.13180722
00000000: 5877 693e dc06 debd ecce aabd 3d21 24be
00000010: 5cc9 ccbd 45a9 08be f402 13be 17d7 0e3e
00000020: e8e0 6fbd 6838 b53b cb62 99bd a31c 923d
00000030: e651 5d3d 48f4 b53d 8aea e23d d587 a6bd
00000040: 0fb2 103d e531 913e d499 523d 9a71 b53d
00000050: fe5f fe38 c694 37be 000a 883d fd4a 653d
00000060: 2e30 c63d 58b5 a43c eaf2 883c 9044 193d
00000070: 9780 4bbd 692b fc3d a047 cabb 50fb 873d
00000080: c353 a3bd d97e 0bbe e825 e93d 9b6f 183d
00000090: aa07 9bbd 7786 cb3d 16e8 df3d 8c6e b23d
000000a0: 733a 21bc c6e1 073d 7e7c 2fbd 6d90 4d3e
000000b0: 5660 b43d d13e b1bc 496c 613d 4078 593d
000000c0: 21a0 883e 38e0 e03d 9bb8 0a3e 90ce 40be
000000d0: 0fb7 33bd e07d 883e 1ddc d7bd 72f1 22bd
000000e0: 33a6 54bd 48dc 443d 1e85 82bc a45b 013c
000000f0: 93b0 9bbc bd3d f0bd d346 f5bd fc35 083d
00000100: e225 863d c9d6 01be 149e a4bd bd1e d6bd
00000110: 8b06 d2bd 759e 9abd 9b92 afbd 55f5 773e
00000120: 54d4 2cbe e7c8 8dbc ffd9 313d 8110 af3d
00000130: 0464 00bd e498 493d 83f3 3d3d d338 7d3d
00000140: 4abd 8ebd a19d a1bd 87f8 c6bd 2dd5 6f3d
00000150: 3b29 1bbe 6700 573c 2ff9 1dbe dc5c 2ebe
00000160: 6c6b e83d 99c4 3abe b911 de3c 8287 853d
00000170: 351f 14bd 3ee4 6c3a 8ada bc3d bab6 08be
00000180: 5607 23be 6776 e5bc 53b9 30be e5e7 14be
00000190: 03ee 21be b778 02be 7718 903c a296 1f3e
000001a0: 0245 c4bd ee63 2d3d 5378 723c f7de fa3d
000001b0: a28c 96bd d503 b0bd 53e2 493d 608e 05be
000001c0: 25e9 0ebd 3e95 013e 060a 973d 9013 1abd
000001d0: b70e 9b3d 1e25 2ebd a080 f9bc 50db b0bd
000001e0: 7884 25be 1ef2 b8bd 6915 703c 3d0b f53c
000001f0: 3b0a f7bc 644f ea3d ad43 2bbe d78d 09be
00000200: 569b 1e3e 8e25 863d 865c a2bd 0266 aebd
00000210: d415 843d 6af9 d3bc 0841 26be 7e9c 2f3d
00000220: 3f1e 20bd 279a d8bd a59b 173d ac8a 07be
00000230: 1e62 41bd 1ead febd d841 c23d 180a 743d
00000240: f3d7 19be f9b5 bb3c 1811 32bc d7fa 8abd
00000250: 6de6 20bc 4884 37bc d2db 133e 5de3 663d
00000260: ae0e 0abe e854 00bd 640f 8e3d 5502 493d
00000270: 975b eabc dc37 c5bc 2dd1 f9bd c645 e43d
00000280: 1bb8 b1bd fbb7 20be d9c4 a43d 413b fe3d
00000290: 0432 9bbd faa7 afbd aecb e03c f165 173e
000002a0: 5a6b 01bc 71b8 85bd e5da 293c b500 38be
000002b0: 8402 493d 67c6 5dbd a28e a5bd 83bd 313d
000002c0: 2fcc 123e e658 d93d 2e34 ca3d 9c68 893d
000002d0: a8ac 07be 6929 7fbd 67a2 0dbe 7b38 15bd
000002e0: 6bf6 f2bd 2e44 db3d 4470 163e fc68 2a3d
000002f0: 2b80 15be 9044 dbbd 212f 4fbc 75e1 5abd
00000300: 53b3 fcbc 8e50 7cbd 0234 7abd debd d0bd
00000310: 600c 42be 1bcc 0abe fffe 2bbe 5c9c 1dbd
00000320: b643 f0bc e36e e8bc 292f 8abd f492 81bd
00000330: 915d 0cbe 2fec 9fbd a639 08be b074 8abd
00000340: d1b0 3b3e 3cff 393e bf67 4ebe 3ba0 923d
00000350: 9013 3fbd 484b c4bd 906e 59bd 970a 80bd
00000360: a31d 183e 88d3 2fbe 1c27 1cbe 3f07 65be
00000370: eb59 87bd 7588 13be 155d c8bd 1a82 c2bc
00000380: cd1b 953d 8bd4 18be a437 09be 32c8 26be
00000390: 04bb 25be 7856 39bd 26a3 60bd 15cb 173e
000003a0: 4695 21be bae5 53be 1da5 c7bd 97b5 27bd
000003b0: 4079 6fbd 7853 45be b1dd b5bd b7d5 4d3d
000003c0: 2bba 593d 4de1 ae3c b2f3 abbd b47a d9bd
000003d0: cb63 643c ce92 133e 357a 96bd 0487 2bbe
000003e0: e7d2 59be f029 a3bd c80c 3ebe bf03 74b8
000003f0: e1e6 a7bd 616e 3dbe ba93 2cbe 79f8 06be

lstm.bias_hh_l0 f4 [256]
0.09339658 -0.09277837 -0.11992571 -0.07689266 0.06170606 -0.007310545 0.05814882 0.169916
-0.025293838 0.036341667 -0.035981856 0.0627671 -0.00069978304 0.022840658 0.2108162 -0.004261138
0.08114365 0.16661903 -0.07222055 0.095455006 -0.18508908 -0.18867707 0.10453288 0.05772415
0.14434764 -0.11699067 0.14830828 0.15912157 -0.08854103 0.020162947 -0.09487248 -0.042467684
-0.037836824 0.03342544 -0.09409805 0.16207387 0.061278578 0.04210752 -0.054184858 0.19550397
0.010180156 -0.060209367 0.074493416 0.20779584 0.03648166 0.015304139 -0.10503791 0.15760185
0.23390676 0.1801753 0.15439628 0.01169032 -0.04238059 0.16330436 0.07502208 -0.020926695
-0.067061596 -0.036830604 -0.051798355 -0.14138612 -0.07631543 -0.048957773 0.013683471 0.050516568
0.099435054 0.010515156 -0.12409558 0.06282693 -0.19608597 -0.11137705 0.046742853 0.21627417
-0.13037477 0.032287836 -0.054770414 -0.06238736 -0.04336075 0.04471522 0.06339943 -0.03307872
0.106992744 -0.037200894 0.030596225 0.03034098 -0.010869393 0.037920758 -0.09176964 -0.026260706
0.033694535 -0.14917372 -0.06524539 -0.08891405 0.008170234 -0.08356114 -0.078897625 -0.12200371
-0.09929888 -0.06532579 -0.041421365 -0.1651059 0.028794317 0.0132253915 -0.065508775 -0.019834938
-0.14377023 0.026743026 -0.0828371 0.119698815 0.042677257 -0.00055807084 -0.029306343 -0.055390034
0.016244605 -0.04478997 -0.059580583 -0.1603998 0.11797478 0.06825841 -0.07036926 -0.11880025
-0.0043851067 -0.21505219 -0.01206822 -0.048461262 -0.16581264 -0.019815024 -0.18484522 -0.09621298
0.07532413 -0.02273437 -0.13416967 0.0002610571 -0.010016269 0.013038002 -0.17129594 -0.094604276
-0.1228177 -0.14669572 0.12012841 -0.024212675 0.015079039 -0.0941954 -0.05067076 0.08100445
-0.029330494 0.0002751387 -0.1706383 -0.18959782 0.0011450226 0.06771942 0.1456388 0.04175787
-0.09266219 -0.039760813 0.0834787 -0.06323003 -0.17172018 -0.0155703565 0.025493804 0.011532214
0.03427502 -0.08887431 0.049532637 0.013813383 -0.06337894 -0.018327374 -0.13267699 0.0048353556
0.109253936 -0.13571073 -0.022579972 -0.10657254 -0.08787657 -0.115138926 -0.16100664 0.049237434
-0.03019161 -0.040409263 0.034217764 -0.08198388 -0.06300528 0.016379915 -0.07323761 -0.07459747
-0.10838076 0.010963066 -0.026128775 -0.008105534 -0.11802319 -0.022801908 -0.123589955 -0.16206862
0.16992797 -0.06532786 -0.057346918 -0.18839186 -0.11207419 -0.024899142 -0.08847392 0.19843027
-0.049321096 -0.10162215 -0.17773591 -0.028049566 -0.025998106 0.16705889 -0.1640076 0.055327885
0.16785397 0.0790954 0.030640433 -0.0006652945 -0.09159028 -0.008517382 0.0070067127 -0.20833313
0.112360485 -0.061651856 -0.20827371 -0.16265313 -0.045920152 0.030046035 -0.043974616 -0.14891982
-0.029166259 0.03713358 -0.14418426 -0.15774113 0.00035801466 0.07757341 -0.08822116 -0.020624155
-0.15299612 -0.20810688 -0.109841526 -0.028189408 0.013121347 -0.0702897 -0.08026255 -0.08701314
0.117278464 -0.15644367 -0.015418695 -0.045065016 0.10817036 0.1892286 -0.052098706 -0.079610735
-0.052215222 -0.13591066 -0.086515486 -0.0071876897 -0.13982181 -0.05573847 -0.025308758 -0.030455455
00000000: b546 bf3d 9602 bebd 9c9b f5bd e679 9dbd
00000010: 7ebf 7c3d 4c8d efbb 752d 6e3d 76fe 2d3e
00000020: 0635 cfbc 00db 143d b661 13bd 0a8c 803d
00000030: a571 37ba 551c bb3c 34e0 573e 04a1 8bbb
00000040: a42e a63d 2e9e 2a3e 5ee8 93bd ea7d c33d
00000050: fe87 3dbe 9034 41be 5615 d63d 2970 6c3d
00000060: decf 133e ce98 efbd 20de 173e c4f0 223e
00000070: 0055 b5bd c42c a53c 814c c2bd 98f2 2dbd
00000080: c9fa 1abd 1de9 083d 7ab6 c0bd b1f6 253e
00000090: 3fff 7a3d ef78 2c3d f1f0 5dbd 3132 483e
000000a0: abca 263c 199e 76bd 0190 983d 6fc8 543e
000000b0: cb6d 153d 36be 7a3c 1e1e d7bd 6162 213e
000000c0: 4185 6f3e e07f 383e 0f1a 1e3e c288 3f3c
000000d0: 4597 2dbd 4239 273e 2da5 993d 766e abbc
000000e0: 9757 89bd b0db 16bd 832a 54bd 86c7 10be
000000f0: 444b 9cbd f287 48bd a330 603c 76ea 4e3d
00000100: 9ba4 cb3d c347 2c3c d325 febd 68ab 803d
00000110: c3ca 48be a719 e4bd 6f75 3f3d fa76 5d3e
00000120: f780 05be 4040 043d f156 60bd e389 7fbd
00000130: 0b9b 31bd 4e27 373d 8fd7 813d 8d7d 07bd
00000140: 031f db3d f75f 18bd efa4 fa3c a68d f83c
00000150: 8a15 32bc cc52 1b3d b9f1 bbbd b120 d7bc
00000160: 4803 0a3d ffc0 18be 609f 85bd 9218 b6bd
00000170: 72dc 053c 1a22 abbd 1495 a1bd 15dd f9bd
00000180: 365d cbbd 87c9 85bd 73a9 29bd 8511 29be
00000190: 0fe2 eb3c 50af 583c 7729 86bd e17c a2bc
000001a0: 8138 13be 3114 db3c 7fa6 a9bd a724 f53d
000001b0: 59ce 2e3d 804b 12ba db13 f0bc a9e0 62bd
000001c0: 6813 853c b075 37bd c50a 74bd d83f 24be
000001d0: c39c f13d 11cb 8b3d c21d 90bd 8c4d f3bd
000001e0: f1b0 8fbb a436 5cbe c9b9 45bc 517f 46bd
000001f0: caca 29be 1e53 a2bc 1148 3dbe 500b c5bd
00000200: 8a43 9a3d 6e3d babc c663 09be 7ede 8839
00000210: 471b 24bc 589d 553c 3468 2fbe e3bf c1bd
00000220: d987 fbbd 6737 16be e205 f63d a959 c6bc
00000230: 130e 773c 85e9 c0bd 258c 4fbd a9e5 a53d
00000240: 8146 f0bc 7e40 9039 cebb 2ebe ee25 42be
00000250: 9514 963a 7bb0 8a3d 5622 153e 4d0a 2b3d
00000260: adc5 bdbd 3cdc 22bd e1f6 aa3d bf7e 81bd
00000270: 6ad7 2fbe cf1a 7fbc 62d8 d03c 9cf1 3c3c
00000280: f763 0c3d bc03 b6bd bce2 4a3d 8751 623c
00000290: d1cc 81bd 4a23 96bc 7adc 07be e771 9e3b
000002a0: 87c0 df3d c1f7 0abe a2f9 b8bc b442 dabd
000002b0: a2f8 b3bd f5cd ebbd edde 24be 31ad 493d
000002c0: 6554 f7bc 2f84 25bd ed27 0c3d 2ae7 a7bd
000002d0: ea08 81bd 2c2f 863c 9afd 95bd 8fc6 98bd
000002e0: bbf6 ddbd 6e9e 333c 030c d6bc 13cd 04bc
000002f0: 24b6 f1bd 11cb babc bb1c fdbd 51f5 25be
00000300: 9901 2e3e 9dca 85bd 9ae4 6abd cce9 40be
00000310: 2787 e5bd 49f9 cbbc d131 b5bd 4e31 4b3e
00000320: eb04 4abd 461f d0bd 6700 36be 34c8 e5bc
00000330: fbf9 d4bc 7c11 2b3e 9cf1 27be 7e9f 623d
00000340: e9e1 2b3e c5fc a13d a501 fb3c 2867 2eba
00000350: af93 bbbd 7d8c 0bbc 9198 e53b 4855 55be
00000360: 411d e63d a886 7cbd b445 55be 8b8e 26be
00000370: c516 3cbd 1a23 f63c ba1e 34bd 707e 18be
00000380: 14ee eebc 6119 183d 0aa5 13be e486 21be
00000390: eab3 bb39 cfde 9e3d 4cad b4bd fdf3 a8bc
000003a0: 04ab 1cbe f819 55be 98f4 e0bd 79ed e6bc
000003b0: ebfa 563c 0cf4 8fbd b160 a4bd f233 b2bd
000003c0: b12f f03d c532 20be b29e 7cbc 1896 38bd
000003d0: 6c88 dd3d 24c5 413e 7465 55bd f40a a3bd
000003e0: a1df 55bd 2a2c 0bbe 082f b1bd b686 ebbb
000003f0: 732d 0fbe 064e 64bd 5054 cfbc b87d f9bc

classifier.0.weight f4 [32, 64]
-0.05940581 -0.14584203 -0.027655452 -0.09767899 0.014296175 0.07377054 0.11657847 0.08575133
-0.088325135 -0.06867669 0.04857893 0.1398076 0.14089975 0.008781066 0.022789266 -0.102951005
0.014033817 -0.05810893 0.0978385 0.1028088 -0.015331529 -0.1273717 0.0702029 -0.017937403
-0.018416079 0.07786765 0.042227138 0.07162049 -0.03618655 -0.06096416 0.121106125 -0.1300498
-0.06701646 -0.022066817 0.015078973 0.10074612 -0.11454745 -0.05315882 0.10247546 0.06979454
-0.010830019 0.13947818 0.010545032 -0.05228821 0.051889837 0.018209169 -0.048265714 -0.05148034
0.005646975 -0.070519365 -0.0013313524 0.023584582 0.13677092 0.018230228 -0.1117653 -0.038154047
-0.009884624 -0.21057318 -0.17896007 -0.022766879 -0.13709511 0.04961872 -0.0609751 -0.110229015
0.03594128 -0.00789288 -0.013891677 0.23212026 -0.101106554 -0.040229566 0.17590606 0.072731
0.042789925 -0.11046191 0.062887624 -0.056502547 0.059103314 0.08648588 -0.109202884 -0.036706187
-0.07679104 0.024384528 0.0034355035 -0.022480927 0.02221547 -0.018743597 0.019302223 0.082599565
-0.11612892 0.10940938 0.06408837 0.16630888 0.107048094 -0.029083665 -0.053092927 -0.13754606
-0.10653851 0.08245782 0.026119027 -0.107565776 -0.0626552 0.15484056 -0.015365409 -0.025214314
-0.070348434 0.043769002 0.08156679 0.040802807 0.06556473 -0.10091521 0.16904226 0.0023990872
-0.13728242 -0.011760569 0.08154693 -0.08221392 -0.0139174 -0.08719548 -0.123600155 0.056228925
0.07980178 -0.11449618 -0.0558379 -0.016402252 0.0313786 0.03469321 0.13563557 0.08375833
0.016646897 0.09391895 -0.090849526 -0.04555499 0.09813238 -0.101758644 0.057053983 0.0012526264
0.013730007 0.020542514 0.042984534 0.080203876 -0.005859493 0.09250078 -0.0033663951 -0.052427493
-0.06493705 0.017307758 0.020401247 0.1596501 0.0135519635 0.05912473 -0.10157028 0.2104993
0.08637226 0.0049271546 0.10158402 -0.14280584 -0.02183817 0.17202914 0.022339739 -0.066010416
-0.08035004 -0.008826323 0.063204944 -0.08992776 0.0048292247 -0.1757 0.018274704 -0.09902546
-0.04578062 -0.03707563 0.08971883 -0.0865759 0.116091855 0.049736075 0.06811466 -0.020006502
-0.08280574 -0.03575376 -0.19466884 -0.13524708 0.029635517 -0.04160562 -0.039067455 -0.07315871
-0.021118889 0.06410581 0.121844664 -0.024345132 0.0060158228 -0.03865705 -0.100671396 0.02076457
-0.00016369158 -0.0106299 0.0075906403 0.13516144 0.08865871 0.07708851 0.028732115 -0.016551767
0.055808246 0.06607452 0.05494154 0.08254017 0.14298734 -0.061602682 -0.07304105 0.022337105
-0.09643577 0.08904681 0.02899557 0.12609433 0.09072612 -0.084718205 -0.03435034 -0.076040156
0.00048665132 0.1798225 -0.03339138 0.063136704 0.08385034 -0.057883043 0.12197073 -0.19680399
0.02374713 -0.06884689 0.14102888 -0.1267486 -0.027164353 -0.0373708 0.029338894 -0.070491076
-0.08235695 0.12324061 0.10355835 -0.06129489 0.004273823 -0.11636742 0.047001533 -0.022221467
0.074120484 -0.0789407 -0.023236966 -0.052115742 -0.020877147 0.016527714 0.03105255 -0.023421446
-0.07532385 -0.1991592 -0.1667242 0.039708905 -0.08600143 0.08693026 0.14893346 0.062185165
00000000: 8253 73bd 9d57 15be b08d e2bc ec0b c8bd
00000010: 813a 6a3c 0215 973d b1c0 ee3d 659e af3d
00000020: cfe3 b4bd 5da6 8cbd b3fa 463d b929 0f3e
00000030: 0648 103e 76de 0f3c 8eb0 ba3c fad7 d2bd
00000040: 18ee 653c a103 6ebd 8d5f c83d 6c8d d23d
00000050: 1831 7bbc ba6d 02be 8ac6 8f3d 76f1 92bc
00000060: 51dd 96bc 1379 9f3d 5df6 2c3d c3ad 923d
00000070: 5938 14bd 8eb5 79bd 7d06 f83d c62b 05be
00000080: ed3f 89bd 78c5 b4bc cc0d 773c fb53 ce3d
00000090: da97 eabd 10bd 59bd a7de d13d 71f0 8e3d
000000a0: 6470 31bc 5ed3 0e3e 12c5 2c3c 292c 56bd
000000b0: 708a 543d 652b 953c 45b2 45bd 0ddd 52bd
000000c0: 420a b93b 756c 90bd c680 aeba 7434 c13c
000000d0: ad0d 0c3e 8f57 953c 35e5 e4bd 6b47 1cbd
000000e0: 1ef3 21bc 7fa0 57be 4f41 37be 9b81 babc
000000f0: a962 0cbe 003d 4b3d 07c1 79bd c0bf e1bd
00000100: 2a37 133d 2351 01bc eb99 63bc efb0 6d3e
00000110: f410 cfbd c2c7 24bd b820 343e fef3 943d
00000120: 7d44 2f3d db39 e2bd 3acb 803d 376f 67bd
00000130: 5116 723d 821f b13d c3a5 dfbd 3a59 16bd
00000140: 9f44 9dbd 10c2 c73c 2f26 613b ec29 b8bc
00000150: 38fd b53c 2c8c 99bc b21f 9e3c f629 a93d
00000160: 00d5 edbd 0612 e03d c340 833d e04c 2a3e
00000170: 083c db3d de40 eebc f877 59bd e0d8 0cbe
00000180: dd30 dabd a5df a83d 92f7 d53c 724b dcbd
00000190: 5f51 80bd 868e 1e3e 32bf 7bbc 408e cebc
000001a0: d712 90bd 2047 333d 7d0c a73d d820 273d
000001b0: cd46 863d a2ac cebd 6a19 2d3e 013a 1d3b
000001c0: c393 0cbe 67af 40bc 1402 a73d c65f a8bd
000001d0: ce05 64bc 8b93 b2bd 1422 fdbd 4d50 663d
000001e0: 1e6f a33d f97c eabd 48b6 64bd 045e 86bc
000001f0: d986 003d 781a 0e3d 0de4 0a3e 7d89 ab3d
00000200: 135f 883c 9458 c03d 510f babd df97 3abd
00000210: a1f9 c83d d666 d0bd 70b1 693d 2b2f a43a
00000220: d3f3 603c c648 a83c 8d10 303d ee41 a43d
00000230: fd00 c0bb 0d71 bd3d bd9e 5cbb 36be 56bd
00000240: b7fd 84bd 00c9 8d3c 8420 a73c 517b 233e
00000250: 0e09 5e3c c62c 723d 1404 d0bd 218d 573e
00000260: f0e3 b03d f873 a13b 480b d03d b23b 12be
00000270: f6e5 b2bc 6828 303e d401 b73c 7830 87bd
00000280: 908e a4bd 489c 10bc 9871 813d 0c2c b8bd
00000290: 793e 9e3b b3ea 33be d5b4 953c dccd cabd
000002a0: 7684 3bbd 9edc 17bd 82be b73d b54e b1bd
000002b0: 91c1 ed3d 0eb8 4b3d b37f 8b3d ade4 a3bc
000002c0: 0e96 a9bd 8972 12bd 4557 47be 367e 0abe
000002d0: 2fc6 f23c a86a 2abd 3205 20bd 3cd4 95bd
000002e0: 8501 adbc e849 833d b289 f93d 716f c7bc
000002f0: 6120 c53b db56 1ebd ce2c cebd 761a aa3c
00000300: a0a4 2bb9 0829 2ebc e8ba f83b c367 0a3e
00000310: b392 b53d 95e0 9d3d 9d5f eb3c 9297 87bc
00000320: 3097 643d 1452 873d 610a 613d d20a a93d
00000330: 466b 123e 1853 7cbd 8c96 95bd 4efc b63c
00000340: 1e80 c5bd 2d5e b63d 1e88 ed3c df1e 013e
00000350: 9ece b93d bd80 adbd f1b2 0cbd f1ba 9bbd
00000360: 3c25 ff39 6423 383e 66c5 08bd d14d 813d
00000370: bab9 ab3d c516 6dbd cacb f93d fc86 49be
00000380: 5789 c23c 99ff 8cbd e069 103e 63ca 01be
00000390: c787 debc 2012 19bd 1f58 f03c a05d 90bd
000003a0: c3aa a8bd 9365 fc3d 6616 d43d 5a10 7bbd
000003b0: 6d0b 8c3b 0b52 eebd ae84 403d cb09 b6bc
000003c0: 7bcc 973d a9ab a1bd 735b bebc 5177 55bd
000003d0: 8d06 abbc 2165 873c eb61 fe3c 55de bfbc
000003e0: 6443 9abd 64f0 4bbe c0b9 2abe cea5 223d
000003f0: 8521 b0bd 7e08 b23d 0382 183e dfb5 7e3d

classifier.0.bias f4 [32]
-0.033088833 0.071815595 0.036470048 0.059990246 -0.08225506 0.07645592 0.14197047 -0.022738194
0.009218714 -0.13032725 -0.0915188 -0.12695716 0.082993686 0.0027324138 0.08595762 -0.038203675
0.138635 0.09225235 -0.15941054 0.0057474133 -0.09397924 0.19767873 0.012326864 0.0637079
-0.044394847 -0.05059955 0.07698566 -0.08695355 -0.04778954 0.055502318 -0.11675307 -0.019260716
00000000: 2888 07bd 0e14 933d 9e61 153d 55b8 753d
00000010: 5775 a8bd ec94 9c3d b560 113e 7345 babc
00000020: 170a 173c 8274 05be 356e bbbd 0f01 02be
00000030: 98f8 a93d 4c12 333b 8c0a b03d 757b 1cbd
00000040: 55f6 0d3e cdee bc3d 843c 23be cc54 bc3b
00000050: 3078 c0bd 4b6c 4a3e 9df6 493c 4a79 823d
00000060: 5fd7 35bd 7941 4fbd a8aa 9d3d b414 b2bd
00000070: f7be 43bd 6656 633d 3c1c efbd a6c8 9dbc

classifier.2.weight f4 [2, 32]
-0.05152502 -0.095785476 0.075890124 -0.0070333565 -0.005759497 -0.063628115 -0.1221356 0.06368614
0.10050632 0.013237065 0.19101085 0.06506317 -0.13806148 -0.07086611 -0.1586018 -0.07619719
0.09915495 -0.043053273 0.19129825 0.18693781 0.03857653 -0.20120905 0.077959105 0.072785035
-0.013661395 0.09669029 -0.12460199 0.46180114 0.08587595 -0.15660046 0.058028564 0.124286085
-0.03594686 -0.071024984 0.006800752 0.025233826 -0.12827066 0.018558448 0.064838864 0.11569074
-0.079163484 0.024437578 -0.16045853 0.014097028 0.17310236 -0.06651367 -0.04258203 -0.07042406
0.15185584 0.03009613 -0.33354777 -0.13832225 0.027462883 0.22794779 -0.1284588 -0.11973065
-0.010372207 0.07354477 -0.17171183 -0.43944597 -0.19350287 0.14360891 0.03613496 -0.18499114
00000000: e60b 53bd 2d2b c4bd 486c 9b3d 1278 e6bb
00000010: 2aba bcbb 754f 82bd 3b22 fabd e16d 823d
00000020: 42d6 cd3d 46e0 583c 5998 433e d73f 853d
00000030: fd5f 0dbe 4022 91bd 8368 22be 460d 9cbd
00000040: c011 cb3d a158 30bd b0e3 433e a06c 3f3e
00000050: 6c02 1e3d bf09 4ebe 06a9 9f3d 5210 953d
00000060: 0bd4 5fbc 8f05 c63d 542f ffbd 3371 ec3e
00000070: bbdf af3d df5b 20be 5caf 6d3d b489 fe3d
00000080: 043d 13bd 8c75 91bd d8d8 de3b 2bb7 ce3c
00000090: 6259 03be e307 983c 3dca 843d 44ef ec3d
000000a0: 7720 a2bd 5131 c83c 3e4f 24be 39f7 663c
000000b0: bf41 313e 5238 88bd 7f6a 2ebd 7d3a 90bd
000000c0: 1980 1b3e 298c f63c c6c6 aabe 59a4 0dbe
000000d0: d7f9 e03c 256b 693e b48a 03be 5835 f5bd
000000e0: 30f0 29bc a49e 963d 3ad5 2fbe 10ff e0be
000000f0: 9e25 46be 370e 133e 4002 143d 516e 3dbe

classifier.2.bias f4 [2]
-0.21245572 0.023265278
00000000: fe8d 59be d396 be3c
