src/DARPA/pretrained/models/w50/resampled/phase_4.pth (torch, 194061 bytes, 8 tensors)

lstm.weight_ih_l0 f4 [256, 112]
0.35686684 0.094204344 0.020566382 -0.10061738 0.29329887 0.19310825 0.09105752 -0.10578472
-0.09457436 0.1317988 -0.16637664 -0.14020976 -0.0047887675 -0.1360009 -0.09975389 0.44929042
-0.13522814 0.056293566 -0.005713778 -0.037388075 -0.14746425 0.26102662 0.009342804 -0.0031222096
0.096752845 -0.24157213 -0.08181522 0.17465308 -0.26971978 -0.011473736 -0.10656495 -0.004457044
0.09968677 -0.071212195 0.28743535 -0.089735955 -0.024574231 -0.0015026021 -0.16769631 -0.12454017
-0.2215439 -0.033681106 -0.08807662 -0.10877011 -0.17200421 -0.2621572 -0.052886482 0.07865643
0.030525694 -0.10368328 0.030983925 0.08605655 -0.089273065 -0.16684152 -0.15856436 0.001109968
0.081632815 0.010538775 -0.036614574 -0.08270705 0.0069924905 0.017079052 -0.06109819 0.039516408
0.116183236 -0.16718628 0.05337143 -0.035635818 0.009164343 0.116796285 0.2919799 0.057240207
0.06866783 0.06767846 -0.09745454 -0.06489549 -0.11690463 0.0127075 0.07237364 -0.07601486
-0.08363527 0.054244295 -0.17203042 -0.06200225 -0.08686008 -0.11684295 0.0820632 -0.18070617
-0.0701778 0.054973826 0.01737618 0.04665432 0.007944343 0.276837 0.08815457 0.26949054
-0.09906529 0.09806206 0.09692039 0.01143062 0.031366978 0.019813914 0.027972676 0.09142237
0.033437353 -0.032041986 0.0950061 0.047998074 0.060386077 -0.027194303 0.22133623 -0.2621655
0.09012355 -0.1428757 0.0012321408 -0.10803035 -0.15138885 -0.1239253 -0.0031196384 -0.047865573
-0.17598961 -0.007789252 -0.010126848 0.19484235 -0.21425037 -0.0042662816 -0.1830479 0.24103533
-0.05019579 -0.066850804 0.0110203335 -0.036035378 -0.1914101 -0.038521323 0.024724247 0.102046885
-0.01601198 -0.11479504 -0.05267499 0.24955966 0.08741179 0.1444706 -0.028570082 -0.19661775
-0.1162469 0.09647515 0.2547578 -0.16717017 -0.020039363 -0.18519028 -0.014702213 0.06976199
-0.037682675 -0.06957036 0.071159594 -0.186547 -0.018936513 -0.080426656 0.0402085 0.104556955
0.043838453 0.12179361 -0.05737625 -0.06358786 -0.14499843 -0.19308512 -0.11928309 0.07773675
0.022333048 -0.05345791 0.117422305 -0.12411702 -0.07779678 0.039454978 0.0014570872 -0.056678593
0.0578335 -0.036456414 0.13273743 0.1813252 -0.057343084 0.45558152 0.1930409 -0.025757456
-0.11356168 0.019028125 -0.0009513141 0.10380424 -0.0032365543 -0.07733321 -0.13211486 -0.06973729
-0.06629507 -0.05886677 -0.04451451 -0.10340859 -0.0157356 -0.08022314 0.026506575 -0.010417093
-0.08452958 0.051526878 -0.07951664 0.05565125 -0.18864687 0.1794513 -0.0009412759 0.24042475
0.027193304 -0.08597589 0.0407133 -0.06371497 -0.06670672 0.030792892 -0.032690678 -0.020136004
-0.064611495 0.051781148 -0.05159187 -0.03433951 -0.019440878 -0.036538303 -0.04412977 -0.1691208
0.14345579 0.013274093 0.06174677 -0.04588954 -0.0016897889 0.0109395245 0.021607324 0.26310164
0.07083213 0.11322589 -0.12287052 0.2292011 0.104951225 -0.1948898 -0.03376724 0.051568087
0.34186658 -0.062897824 0.072484806 0.076437436 0.2691445 0.07387868 0.060944077 0.08251168
-0.39368773 0.07701897 0.19258235 -0.035346646 0.19183888 0.7861567 -0.04907826 -0.15834722
00000000: 40b7 b63e 35ee c03d d47a a83c 7c10 cebd
00000010: 452b 963e 2bbe 453e 5d7c ba3d a9a5 d8bd
00000020: 34b0 c1bd 44f6 063e a35e 2abe 2693 0fbe
00000030: 18eb 9cbb d243 0bbe c44b ccbd 6509 e63e
00000040: 3f79 0abe 1594 663d a53a bbbb 3d24 19bd
00000050: de00 17be 48a5 853e 8f12 193c fc9d 4cbb
00000060: 5b26 c63d af5e 77be bd8e a7bd 42d8 323e
00000070: b618 8abe 56fc 3bbc b93e dabd 650c 92bb
00000080: 9428 cc3d b3d7 91bd ba2a 933e 7cc7 b7bd
00000090: e64f c9bc f6f2 c4ba 95b8 2bbe eb0e ffbd
000000a0: 67dc 62be 33f5 09bd 8461 b4bd ddc2 debd
000000b0: df21 30be 7839 86be 7f9f 58bd 9f16 a13d
000000c0: 0511 fa3c e657 d4bd 00d2 fd3c 6b3e b03d
000000d0: ccd4 b6bd 81d8 2abe b25e 22be 597c 913a
000000e0: 1b2f a73d d3aa 2c3c 2af9 15bd 5062 a9bd
000000f0: 4321 e53b 5ee9 8b3c 1842 7abd f5db 213d
00000100: 7af1 ed3d e132 2bbe 009c 5a3d ddf6 11bd
00000110: 0a26 163c e432 ef3d 647e 953e b574 6a3d
00000120: b8a1 8c3d 019b 8a3d 3f96 c7bd ede7 84bd
00000130: b26b efbd 1e33 503c a238 943d aead 9bbd
00000140: f848 abbd 442f 5e3d be28 30be 12f6 7dbd
00000150: b3e3 b1bd 5b4b efbd c010 a83d 0a0b 39be
00000160: 61b9 8fbd 3c2c 613d 7e58 8e3c 9a18 3f3d
00000170: fd28 023c 94bd 8d3e 628a b43d aafa 893e
00000180: bee2 cabd c3d4 c83d 337e c63d 7f47 3b3c
00000190: a97a 003d ca50 a23c f426 e53c a73b bb3d
000001a0: 9bf5 083d 753e 03bd 8f92 c23d a199 443d
000001b0: 6457 773d 96c6 debc f7a5 623e 8e3a 86be
000001c0: b292 b83d 024e 12be c97f a13a 043f ddbd
000001d0: ae05 1bbe 8ccc fdbd d972 4cbb b10e 44bd
000001e0: 9f36 34be fb3c ffbb 14eb 25bc c184 473e
000001f0: 7364 5bbe 2acc 8bbb e970 3bbe f7d1 763e
00000200: 1a9a 4dbd 13e9 88bd a18e 343c d599 13bd
00000210: 0201 44be 89c8 1dbd 818a ca3c f5fd d03d
00000220: 8e2b 83bc a919 ebbd bbc1 57bd 918c 7f3e
00000230: f404 b33d 1af0 133e ce0b eabc 2a56 49be
00000240: db12 eebd c394 c53d 9d6f 823e a82e 2bbe
00000250: 9729 a4bc 85a2 3dbe 8de1 70bc 60df 8e3d
00000260: 2659 1abd e87a 8ebd 1fbc 913d 2d06 3fbe
00000270: bf20 9bbc bbb6 a4bd abb1 243d f521 d63d
00000280: f38f 333d ee6e f93d 5c03 6bbd 5a3a 82bd
00000290: 787a 14be 1bb8 45be b14a f4bd 7234 9f3d
000002a0: ccf3 b63c aef6 5abd 1b7b f03d 1031 febd
000002b0: eb53 9fbd 8b9b 213d bcfb be3a d027 68bd
000002c0: d2e2 6c3d 5253 15bd 52ec 073e 50ad 393e
000002d0: 95e0 6abd fb41 e93e 84ac 453e 4d01 d3bc
000002e0: 0793 e8bd dfe0 9b3c 9c61 79ba 5197 d43d
000002f0: 5f1c 54bb e060 9ebd 1e49 07be 6dd2 8ebd
00000300: b6c5 87bd 481e 71bd d954 36bd e2c7 d3bd
00000310: f2e7 80bc 084c a4bd 5124 d93c 74ac 2abc
00000320: d81d adbd d90d 533d 9fd9 a2bd 91f2 633d
00000330: a52c 41be 15c2 373e f5bf 76ba e831 763e
00000340: 7ec4 de3c 2114 b0bd fdc2 263d ff7c 82bd
00000350: 889d 88bd 6041 fc3c a9e6 05bd 43f4 a4bc
00000360: 0853 84bd 7818 543d ff51 53bd 96a7 0cbd
00000370: 7a42 9fbc 30a9 15bd 6bc1 34bd 012e 2dbe
00000380: 13e6 123e 957b 593c 2eea 7c3d acf6 3bbd
00000390: e87b ddba b13b 333c d801 b13c 42b5 863e
000003a0: 7010 913d fae2 e73d 8aa3 fbbd b1b3 6a3e
000003b0: abf0 d63d 3191 47be 844f 0abd 0f39 533d
000003c0: 2309 af3e 93d0 80bd ea72 943d 3b8b 9c3d
000003d0: 4fcd 893e b54d 973d 7fa0 793d e2fb a83d
000003e0: 7091 c9be 1fbc 9d3d 4f34 453e a5c7 10bd
000003f0: 6971 443e 9141 493f 4906 49bd c625 22be

lstm.weight_hh_l0 f4 [256, 64]
-0.009279928 -0.08484788 -0.055991728 -0.006695615 -0.055229615 0.008190791 -0.14983201 0.095579654
0.037612315 0.020136535 0.16774882 0.10603045 -0.041528147 -0.016979968 -0.20372684 -0.18592754
0.052211657 0.059535712 0.09190523 -0.10100769 0.07832627 0.060516194 0.030305881 0.033284254
-0.010619703 -0.0043170843 -0.03984881 -0.12011049 -0.20855528 -0.037706923 0.022695294 -0.16946922
0.13156268 -0.08170286 -0.032102812 -0.02988072 0.04876409 0.043816533 0.058387917 0.06656514
0.03686841 0.038219545 0.026860306 0.12568302 0.029179947 0.23781644 0.04612363 -0.04132129
-0.0069327177 0.20296986 0.022497118 0.051937867 0.10626952 -0.08116916 0.0952654 -0.060572587
-0.07106095 -0.047484223 -0.050984126 0.12024988 0.011172918 -0.1682014 0.18907522 -0.08719507
0.05475575 0.13298145 -0.0065810583 0.030709732 -0.033991918 0.1657644 0.017799145 -0.045085035
-0.03348231 -0.11481343 -0.0072078938 0.105721384 -0.028753184 -0.06754953 0.12849076 0.11824445
-0.15667322 -0.3461277 -0.019442584 0.11910704 -0.15824707 0.016710034 0.1151293 0.05365466
0.04774241 0.09686521 -0.006681906 0.16920036 0.027775887 -0.03692714 0.06216252 0.04596975
0.09033315 0.04488308 0.11637281 0.07511561 -0.11047654 0.025257189 0.008002015 -0.10345314
-0.07817832 -0.009355155 0.13035499 0.0045861024 0.009477174 -0.07818388 0.01678586 -0.14075643
-0.054211102 -0.118401796 -0.052550342 -0.02141418 0.01979632 0.010612192 0.08246238 0.008769617
-0.028937638 -0.0063577727 -0.072349355 -0.05441623 0.021612253 0.14712921 -0.17090707 -0.12088527
0.12251169 0.02652749 0.1159525 -0.10915775 -0.041973483 0.064754374 0.102249764 0.118334815
0.0068058535 -0.18148889 0.15027885 -0.033676058 0.12864168 -0.025397722 0.23101208 0.13877949
0.068942145 -0.20411216 0.02250702 -0.10824494 0.030320302 -0.12445502 0.16684222 0.21352166
0.10993227 0.07568009 -0.06922838 -0.031577554 0.06299758 0.056986913 0.042014923 -0.037652433
0.10214239 0.081755295 -0.028075196 0.21047455 0.120180644 -0.0040774387 0.004003196 -0.17008792
0.11952091 0.09789963 0.19992809 -0.06785779 -0.028476797 0.04674794 0.064777836 -0.12500134
0.017678432 -0.0870074 -0.14106059 -0.07686343 0.21858819 0.04965514 -0.0027093557 0.0065710917
-0.13456914 0.06667012 -0.056614626 0.08380021 -0.22373357 0.17713813 -0.07621616 0.21224827
-0.08853857 -0.0747154 -0.042633444 0.08485712 -0.0007792867 0.062007528 0.0008645995 0.21085125
-0.06768326 -0.059340406 0.112713225 0.040040143 -0.05178189 -0.030267691 0.08564799 -0.119458586
-0.046301164 -0.07167461 0.04269923 0.073557876 0.045242324 0.009421017 0.12602186 -0.016427075
-0.023211202 0.04487269 -0.07655102 0.046023697 -0.16367592 0.21049407 -0.058026977 0.08934426
-0.027646257 -0.07082523 -0.002388944 -0.054783408 -0.041841023 -0.08852953 -0.07031454 0.09799761
-0.1244621 0.09326722 0.0018634981 0.023139302 0.01901295 -0.049470197 0.06236747 -0.004056628
0.06621013 -0.030750366 -0.011913923 0.041560467 -0.04341698 -0.10367977 -0.0328615 0.041101024
-0.008344857 -0.11149733 -0.034655616 0.057773896 -0.07148256 -0.08243309 -0.14165252 0.18038851
00000000: d70a 18bc bac4 adbd 9557 65bd e466 dbbb
00000010: 7338 62bd ab32 063c 906d 19be 44bf c33d
00000020: 5f0f 1a3d 60f5 a43c 59c6 2b3e 7e26 d93d
00000030: 6b19 2abd 9319 8bbc c59d 50be ca63 3ebe
00000040: e4db 553d b8db 733d cf38 bc3d 1fdd cebd
00000050: 8669 a03d d4df 773d 0a44 f83c 1255 083d
00000060: 43fe 2dbc 5476 8dbb 8138 23bd 7dfc f5bd
00000070: 848f 55be 9372 1abd 7beb b93c 5789 2dbe
00000080: 5eb8 063e d453 a7bd 3d7e 03bd 69c8 f4bc
00000090: dbbc 473d f778 333d 2b28 6f3d 4e53 883d
000000a0: 5403 173d 198c 1c3d 250a dc3c 0db3 003e
000000b0: c90a ef3c 2786 733e 22ec 3c3d 8340 29bd
000000c0: da2b e3bb 55d7 4f3e e04b b83c cdbc 543d
000000d0: d6a3 d93d 043c a6bd 821a c33d f61a 78bd
000000e0: 6788 91bd d17e 42bd bbd4 50bd 9245 f63d
000000f0: 9d0e 373c fd3c 2cbe ef9c 413e 5493 b2bd
00000100: 9147 603d 4a2c 083e eba5 d7bb fa92 fb3c
00000110: 1c3b 0bbd 25be 293e 83cf 913c 16ab 38bd
00000120: bf24 09bd 4e23 ebbd 3230 ecbb 7484 d83d
00000130: cc8b ebbc 6857 8abd 1593 033e 252a f23d
00000140: f26e 20be a637 b1be 0e46 9fbc 64ee f33d
00000150: 850b 22be 7be3 883c e9c8 eb3d fdc4 5b3d
00000160: 8c8d 433d 4461 c63d e4f3 dabb dc42 2d3e
00000170: 428a e33c ea40 17bd 209e 7e3d c74a 3c3d
00000180: 9600 b93d 52d7 373d de54 ee3d 37d6 993d
00000190: 8641 e2bd 2ae8 ce3c e21a 033c 3ddf d3bd
000001a0: f41b a0bd 5d46 19bc c77b 053e 0447 963b
000001b0: 2646 1b3c df1e a0bd 8082 893c 7422 10be
000001c0: 760c 5ebd a47c f2bd 073f 57bd ca6c afbc
000001d0: e42b a23c c2de 2d3c 09e2 a83d 71ae 0f3c
000001e0: a00e edbc dd54 d0bb e62b 94bd 8ee3 5ebd
000001f0: 2e0c b13c 0aa9 163e 4302 2fbe b292 f7bd
00000200: 69e7 fa3d 2e50 d93c 8178 ed3d 198e dfbd
00000210: 63ec 2bbd f19d 843d 5368 d13d 8659 f23d
00000220: a303 df3b 39d8 39be b3e2 193e e8ef 09bd
00000230: a5ba 033e e20e d0bc 6e8e 6c3e 361c 0e3e
00000240: 8a31 8d3d c702 51be a460 b83c 86af ddbd
00000250: 4862 f83c 46e2 febd b0d8 2a3e 6ca5 5a3e
00000260: 2c24 e13d 2afe 9a3d 9cc7 8dbd 7757 01bd
00000270: e004 813d 1c6b 693d d717 2c3d 7039 1abd
00000280: 0830 d13d 526f a73d f4fd e5bc a486 573e
00000290: 4521 f63d 099c 85bb 3e2d 833b 872b 2ebe
000002a0: 61c7 f43d 9a7f c83d f3b9 4c3e 06f9 8abd
000002b0: 2c48 e9bc c57a 3f3d 3eaa 843d 5a00 00be
000002c0: 5cd2 903c f030 b2bd 3072 10be 936a 9dbd
000002d0: 95d5 5f3e 3063 4b3d 728f 31bb 5052 d73b
000002e0: 7ecc 09be 588a 883d bde4 67bd 729f ab3d
000002f0: 6a1a 65be b363 353e 3817 9cbd 9c57 593e
00000300: b653 b5bd 6304 99bd 68a0 2ebd 92c9 ad3d
00000310: 0c49 4cba 9bfb 7d3d 4aa6 623a 64e9 573e
00000320: 859d 8abd ed0e 73bd 31d6 e63d 2201 243d
00000330: 3f19 54bd f3f3 f7bc 3768 af3d b4a6 f4bd
00000340: 4aa6 3dbd 23ca 92bd 63e5 2e3d 83a5 963d
00000350: 0450 393d 9c5a 1a3c e00b 013e 1392 86bc
00000360: 6b25 bebc 6dcc 373d c8c6 9cbd 5883 3c3d
00000370: a99a 27be c28b 573e b2ad 6dbd 20fa b63d
00000380: 677a e2bc d10c 91bd d48f 1cbb 9164 60bd
00000390: 7e61 2bbd f84e b5bd 1201 90bd f9b2 c83d
000003a0: fce5 febd e202 bf3d 9f40 f43a a28e bd3c
000003b0: 0cc1 9b3c 43a1 4abd 0875 7f3d 76ed 84bb
000003c0: 2d99 873d 31e8 fbbc 9d32 43bc 4f3b 2a3d
000003d0: 01d6 31bd 0f56 d4bd c899 06bd 8c59 283d
000003e0: deb8 08bc b658 e4bd 0cf3 0dbd 52a4 6c3d
000003f0: 7365 92bd aed2 a8bd 5c0d 11be c4b7 383e

lstm.bias_ih_l0 f4 [256]
0.026605446 -0.13095802 0.04633583 0.06483849 0.2700952 0.03480961 0.3939168 0.007870075
-0.17175345 -0.04848668 -0.056505848 -0.10292219 -0.19542056 0.025621772 -0.10761398 -0.11917901
-0.12457908 0.031657055 -0.09471087 -0.07875783 0.22216968 0.08237695 -0.029645728 -0.18854688
-0.03805195 -0.18872347 -0.004896693 0.032679033 -0.017214952 -0.24538936 0.09816741 0.14035201
-0.12481701 0.09185552 -0.020625295 0.04891924 0.20498486 0.016993836 -0.19504935 0.03972633
-0.15466663 -0.058725078 -0.1544784 0.06381506 0.15287763 -0.12492675 0.0127762575 -0.056715786
-0.018826963 0.0023779604 0.1155968 0.03020659 -0.1070967 -0.15724336 -0.07869347 -0.032818552
0.118127376 -0.012612996 0.112847306 0.041486222 -0.010275845 0.27720034 0.060446013 -0.052075353
-0.094106086 -0.08594167 0.03531599 0.06654527 0.17199366 -0.07255226 0.04246713 -0.11800562
-0.01431407 -0.10997612 -0.007207334 0.0022947022 0.10774006 -0.02212217 -0.078041874 -0.057035524
-0.24381806 0.060899425 0.019175755 -0.15899688 0.06597856 0.10332053 0.011714915 -0.110476084
-0.11685599 -0.057855923 0.039320022 -0.038207307 -0.11188602 -0.12565544 -0.011379222 -0.0054633245
-0.106054194 0.23221466 -0.032246232 -0.14775097 -0.0274869 -0.09756243 0.02771399 0.012821482
-0.0893366 0.038819034 -0.06074005 -0.13009349 -0.016862754 0.015118227 -0.12177052 -0.109933235
0.015594684 -0.06968571 0.09120955 -0.034455877 -0.21900696 -0.036943235 -0.12044441 -0.118020624
0.079000436 -0.06495823 -0.05936486 0.11152033 -0.18484066 0.07801517 -0.09713854 -0.041831475
0.05865358 0.017703176 0.016884452 0.015778502 0.24138542 -0.08509077 0.014713814 -0.018247794
-0.045560032 -0.0013507273 -0.17621586 -0.051598784 -0.089798704 0.070154816 -0.028319454 0.14494903
-0.08147323 -0.05478591 -0.09359007 -0.14869516 -0.06585646 -0.12360747 -0.107798174 0.0101927845
-0.14284636 -0.009019022 0.0044874535 -0.045214105 0.078914724 0.12540817 0.086386636 -0.15090536
0.044675216 -0.20863225 0.07946017 0.054473937 0.04324879 0.046566043 -0.073238395 0.16151306
0.18464005 0.008234369 -0.054877676 0.0660005 0.2547611 -0.0907527 0.0018377531 -0.047022123
-0.10921008 -0.03276033 0.28490907 0.028829912 -0.025076048 0.055879783 -0.03014785 0.04121751
-0.016761115 0.00950649 0.0848656 0.073403746 -0.01615236 -0.038364373 0.07552777 0.05242583
-0.109628186 -0.14283417 0.09755019 -0.069990434 0.004687327 -0.0882602 0.06911661 -0.07065674
0.054151125 -0.030047875 0.008872207 -0.234552 0.008075718 0.035942234 -0.28276983 -0.08980761
-0.11058922 0.0023500104 -0.17284581 0.05894687 0.10537548 -0.09305752 -0.06252332 -0.2638945
-0.12501267 -0.06230405 -0.12126954 0.06329042 -0.12881342 -0.2312987 -0.17325346 0.12934422
-0.016003987 0.025314499 0.091684386 -0.124347046 -0.054410942 -0.028505206 -0.055834517 0.19458462
-0.07314462 -0.21293442 -0.0563909 0.016388074 -0.010507876 -0.010811699 -0.19164324 -0.09298347
0.008035163 0.08291973 -0.01981441 0.008967452 -0.059376374 -0.09199375 -0.06991137 -0.08799382
-0.06517418 -0.026781645 0.11238368 0.0062605534 0.017029854 0.094410844 0.018834462 0.036076393
00000000: aaf3 d93c dc19 06be a4ca 3d3d 0bca 843d
00000010: eb49 8a3e 8694 0e3d 76af c93e 7df1 003c
00000020: 23e0 2fbe f899 46bd ad72 67bd dfc8 d2bd
00000030: 541c 48be c0e4 d13c b864 dcbd 2014 f4bd
00000040: 5123 ffbd d4aa 013d c6f7 c1bd c94b a1bd
00000050: 7380 633e 3fb5 a83d 99db f2bc 6f12 41be
00000060: 5ddc 1bbd ba40 41be 7074 a0bb 73da 053d
00000070: 5f06 8dbc 5947 7bbe ff0b c93d 70b8 0f3e
00000080: 0fa0 ffbd bf1e bc3d 61f6 a8bc 8a5f 483d
00000090: 8de7 513e a836 8b3c 04bb 47be 14b8 223d
000000a0: ee60 1ebe b589 70bd 962f 1ebe 78b1 823d
000000b0: f48b 1c3e 99d9 ffbd 8253 513c d04e 68bd
000000c0: 013b 9abc 8ed7 1b3b 04be ec3d d073 f73c
000000d0: 8455 dbbd 6704 21be 0b2a a1bd bf6c 06bd
000000e0: c4ec f13d bda6 4ebc 7d1c e73d 75ed 293d
000000f0: 055c 28bc 34ed 8d3e 3d96 773d f74c 55bd
00000100: b1ba c0bd 3002 b0bd 80a7 103d e348 883d
00000110: 1b1f 303e 4796 94bd 03f2 2d3d eeac f1bd
00000120: 9085 6abc 293b e1bd 802b ecbb b762 163b
00000130: d2a6 dc3d 8e39 b5bc 6bd4 9fbd 159e 69bd
00000140: 71ab 79be ad71 793d 7916 9d3c 14d0 22be
00000150: c41f 873d b799 d33d eaef 3f3c 4941 e2bd
00000160: 3152 efbd 55fa 6cbd 080e 213d 447f 1cbd
00000170: 7f24 e5bd d2ab 00be eb6f 3abc b005 b3bb
00000180: f132 d9bd aec9 6d3e a014 04bd 084c 17be
00000190: 352c e1bc d0ce c7bd 7308 e33c 3111 523c
000001a0: 1bf6 b6bd b500 1f3d 8fca 78bd 3a37 05be
000001b0: c223 8abc 71b2 773c d362 f9bd ad24 e1bd
000001c0: d880 7f3c 62b7 8ebd 13cc ba3d 9b21 0dbd
000001d0: 5c43 60be ca51 17bd 8fab f6bd ccb4 f1bd
000001e0: fbca a13d d208 85bd 9128 73bd c564 e43d
000001f0: df46 3dbe 6bc6 9f3d 92f0 c6bd 7b57 2bbd
00000200: bc3e 703d 4006 913c 4351 8a3c eb41 813c
00000210: bd2d 773e 1244 aebd 3512 713c 667c 95bc
00000220: 289d 3abd e30a b1ba ee71 34be 3f59 53bd
00000230: 62e8 b7bd 54ad 8f3d 33fe e7bc 856d 143e
00000240: 70db a6bd 3167 60bd 27ac bfbd 8b43 18be
00000250: c0df 86bd ea25 fdbd 4ac5 dcbd a3ff 263c
00000260: 5146 12be 85c4 13bc 7d0b 933b 6d32 39bd
00000270: 0b9e a13d 006b 003e 7aeb b03d ef86 1abe
00000280: 5cfd 363d b1a3 55be 03bc a23d 1020 5f3d
00000290: a525 313d 09bc 3e3d 03fe 95bd ae63 253e
000002a0: 4812 3d3e 72e9 063c 6ac7 60bd 452b 873d
000002b0: 0c70 823e 8ddc b9bd c3e0 f03a 459a 40bd
000002c0: 89a9 dfbd b22f 06bd 9adf 913e b52c ec3c
000002d0: 496c cdbc 33e2 643d a0f8 f6bc b1d3 283d
000002e0: 9b4e 89bc 1cc1 1b3c 04ce ad3d b454 963d
000002f0: f451 84bc f623 1dbd 4eae 9a3d 78bc 563d
00000300: be84 e0bd 1f43 12be 65c8 c73d 2557 8fbd
00000310: 2698 993b c4c1 b4bd 028d 8d3d 7bb4 90bd
00000320: 92cd 5d3d f626 f6bc bc5c 113c 662e 70be
00000330: 0450 043c 2a38 133d 35c7 90be 0ded b7bd
00000340: 9a7c e2bd a202 1a3b 7efe 30be 4672 713d
00000350: 1acf d73d f194 bebd 3a0c 80bd 2e1d 87be
00000360: 5203 00be 8832 7fbd 2a5c f8bd 689e 813d
00000370: aae7 03be 91d9 6cbe 5b69 31be d072 043e
00000380: cb1a 83bc 5a60 cf3c 06c5 bb3d aaa9 febd
00000390: 02de 5ebd c083 e9bc bcb2 64bd 3141 473e
000003a0: d9cc 95bd 7b0b 5abe 25fa 66bd 4840 863c
000003b0: 3a29 2cbc 8d23 31bc 203e 44be 1e6e bebd
000003c0: eba5 033c d2d1 a93d d451 a2bc 38ec 123c
000003d0: a434 73bd 3867 bcbd b12d 8fbd 1b36 b4bd
000003e0: 0a7a 85bd 2e65 dbbc 6a29 e63d 5425 cd3b
000003f0: 3182 8b3c 795a c13d bb4a 9a3c d7c4 133d

lstm.bias_hh_l0 f4 [256]
0.052556083 -0.14271927 -0.06929342 0.005583316 0.21659929 -0.017396757 0.3442905 -0.058859743
-0.05078772 0.13023014 -0.005927851 -0.07268556 -0.017820567 -0.024166983 -0.1923741 -0.18920912
0.024945863 0.12067177 -0.06034269 -0.049721725 0.1411608 0.020465676 -0.21743883 -0.04279465
-0.14326155 -0.2310153 -0.2129412 -0.07448616 0.020264618 -0.24317248 0.047004074 -0.010529704
-0.10658809 0.064263225 -0.03707611 -0.047982216 0.11610653 -0.037167866 -0.10138819 0.04492582
-0.13832313 -0.19986562 -0.17905216 0.048009165 0.15375775 -0.12166386 -0.16983244 -0.041791942
-0.03130644 0.07812547 0.1061002 -0.124748185 -0.16001426 -0.09165798 -0.195753 -0.055190895
0.03617374 -0.0379232 0.13502467 -0.11962333 -0.030242302 0.30506757 0.0151956305 -0.017649556
-0.10768156 -0.024439525 -0.1462161 0.101338685 0.09981114 -0.07998461 -0.15066431 -0.19458981
-0.04081546 0.02017942 -0.08052799 -0.053508304 0.098845445 -0.044616878 -0.13705404 -0.1637814
-0.11803702 -0.07485957 -0.00957855 -0.04875418 0.11850472 0.20482557 -0.036414005 -0.11541166
-0.0737271 0.032286983 0.021241058 -0.14104553 0.0085772285 -0.054110892 -0.0047454475 -0.020714344
-0.046825845 0.09578676 0.016512346 -0.0055638915 0.08862314 -0.08311187 -0.014682335 -0.043397598
-0.091324046 -0.13395295 -0.027311713 -0.061633833 0.20084335 0.01890873 -0.12763353 -0.10466901
-0.07321884 -0.02333448 0.24984403 -0.09895357 -0.0084371045 -0.022013199 -0.056296498 -0.03519277
0.056306817 -0.12683862 -0.1597529 -0.036823686 0.0349042 -0.1033308 0.038694784 -0.06269597
-0.13610207 0.042286925 -0.15323989 0.07768726 0.08402596 0.067525625 -0.015985526 0.08298498
0.09203278 0.1536511 -0.03207776 -0.12903637 -0.114501625 0.0690178 -0.06917178 0.040445726
-0.13913591 0.108421504 -0.10030616 0.04697829 0.08606941 0.04944176 -0.088276446 -0.059028238
-0.11815426 0.092882305 -0.007330105 -0.1466854 -0.032116823 -0.04299369 0.018621717 -0.10811866
-0.10859796 -0.12736501 0.034367897 -0.06883416 0.10153929 0.009129632 -0.10516901 0.008291931
0.15854135 -0.028831014 0.13554509 -0.02126349 0.15829417 -0.023604421 -0.015771842 0.05092592
-0.12114169 -0.030570166 0.27523285 0.012597853 0.08039965 -0.07126983 0.023845935 -0.047192205
0.08918244 0.07299788 -0.11262857 0.0666269 -0.020261753 -0.09616656 -0.00722119 0.027914861
-0.1253464 0.042079747 -0.0013759711 -0.0015768077 0.06613836 0.044712555 0.056603488 -0.09910675
-0.18469189 -0.08762257 0.03197922 -0.20622802 -0.1747225 0.05942916 -0.12663938 -0.19153073
0.0480276 -0.007196763 -0.0918923 -0.0015405099 0.02045022 -0.018010614 -0.071373865 -0.22890927
-0.1607774 -0.12604064 -0.03304888 0.13470796 0.055416487 -0.124627225 0.050915483 0.07040105
-0.1503667 0.087876506 -0.00791357 -0.17245752 -0.057867445 0.04048881 -0.10038243 0.2792567
-0.023895811 -0.019636152 -0.19114095 -0.1766038 -0.103229016 -0.11393698 0.013600721 -0.0036333585
-0.050438687 0.12591894 0.17417641 -0.057533536 0.0824414 -0.022019824 -0.17617127 -0.16160125
0.08373959 -0.14527498 -0.03530418 -0.12064649 -0.077288985 0.15661237 0.0020192435 -0.04172611
00000000: 0c45 573d 0025 12be b5e9 8dbd 40f4 b63b
00000010: 34cc 5d3e a583 8ebc d846 b03e ea16 71bd
00000020: c906 50bd 0d5b 053e 6b3e c2bb 2bdc 94bd
00000030: 70fc 91bc d6f9 c5bc b7fd 44be 09c0 41be
00000040: 445b cc3c c322 f73d e629 77bd 02a9 4bbd
00000050: 758c 103e a2a7 a73c 49a8 5ebe 7149 2fbd
00000060: 28b3 12be 468f 6cbe 420d 5abe 338c 98bd
00000070: fc01 a63c 3502 79be 5887 403d c884 2cbc
00000080: db4a dabd 709c 833d 1edd 17bd 0089 44bd
00000090: 43c9 ed3d 553d 18bd 9da4 cfbd 2304 383d
000000a0: 94a4 0dbe 93a9 4cbe 7359 37be 42a5 443d
000000b0: ac72 1d3e e72a f9bd 8ee8 2dbe 072e 2bbd
000000c0: 2e3b 00bd 3f00 a03d 104b d93d fa7b ffbd
000000d0: c7da 23be 2eb7 bbbd 7973 48be d90f 62bd
000000e0: ea2a 143d 5b55 1bbd e843 0a3e 14fd f4bd
000000f0: b4be f7bc d131 9c3e 18f7 783c cd95 90bc
00000100: 2688 dcbd 6635 c8bc acb9 15be a88a cf3d
00000110: c869 cc3d f9ce a3bd bf47 1abe 8d42 47be
00000120: 1d2e 27bd 504f a53c dceb a4bd 862b 5bbd
00000130: 7b6f ca3d 30c0 36bd e557 0cbe 50b6 27be
00000140: 65bd f1bd f94f 99bd 5aef 1cbc 77b2 47bd
00000150: 9ab2 f23d cbbd 513e da26 15bd f35c ecbd
00000160: 3cfe 96bd 5b3f 043d ba01 ae3c 3d6e 10be
00000170: 8187 0c3c 62a3 5dbd b37f 9bbb 21b1 a9bc
00000180: 75cc 3fbd d92b c43d e644 873c 4e51 b6bb
00000190: 0c80 b53d 8e36 aabd 2d8e 70bc aec1 31bd
000001a0: 1a08 bbbd f62a 09be d0bc dfbc c273 7cbd
000001b0: e1a9 4d3e 7be6 9a3c 5db2 02be b55c d6bd
000001c0: c2f3 95bd f427 bfbc 1dd7 7f3e 2ba8 cabd
000001d0: c83b 0abc 0655 b4bc 2897 66bd 4b26 10bd
000001e0: faa1 663d fce1 01be 4496 23be 6fd4 16bd
000001f0: b5f7 0e3d 199f d3bd 6c7e 1e3d bf66 80bd
00000200: 575e 0bbe 0e35 2d3d ebea 1cbe 801a 9f3d
00000210: cd15 ac3d e04a 8a3d 14f4 82bc 07f4 a93d
00000220: af7b bc3d b756 1d3e f863 03bd 1c22 04be
00000230: d47f eabd 3459 8d3d efa9 8dbd 6baa 253d
00000240: a579 0ebe 180c de3d 516d cdbd 4f6c 403d
00000250: 2945 b03d 7183 4a3d 48ca b4bd 98c7 71bd
00000260: dcfa f1bd 1439 be3d 6131 f0bb b334 16be
00000270: ee8c 03bd 271a 30bd 928c 983c 516d ddbd
00000280: 9b68 debd f96b 02be 5ac5 0c3d edf8 8cbd
00000290: d5f3 cf3d 7494 153c da62 d7bd e1da 073c
000002a0: aa58 223e 052f ecbc 55cc 0a3e c530 aebc
000002b0: de17 223e 0f5e c1bc f333 81bc b397 503d
000002c0: 2219 f8bd 496e fabc 52eb 8c3e 3a67 4e3c
000002d0: 92a8 a43d ebf5 91bd 8d58 c33c 9d4c 41bd
000002e0: 48a5 b63d ea7f 953d cfa9 e6bd af73 883d
000002f0: fafb a5bc f9f2 c4bd bb9f ecbb b5ad e43c
00000300: cf5a 00be d05b 2c3d ee59 b4ba e3ac ceba
00000310: 8c73 873d 8324 373d 0fd9 673d 7bf8 cabd
00000320: df1f 3dbe 7673 b3bd a5fc 023d 702d 53be
00000330: 74ea 32be fe6b 733d c1ad 01be a220 44be
00000340: 97b8 443d d3d2 ebbb 0832 bcbd efea c9ba
00000350: 3887 a73c ff8a 93bc 762c 92bd 3167 6abe
00000360: d5a2 24be cc10 01be 435e 07bd e2f0 093e
00000370: 66fc 623d 8f3c ffbd c18c 503d 6d2e 903d
00000380: baf9 19be 99f8 b33d eba7 01bc b498 30be
00000390: 6a06 6dbd 98d7 253d 4e95 cdbd bcfa 8e3e
000003a0: 26c1 c3bc ffdb a0bc 74ba 43be a0d7 34be
000003b0: bc69 d3bd cb57 e9bd 8fd5 5e3c a41d 6ebb
000003c0: cc98 4ebd e5f0 003e 4d5b 323e 49a8 6bbd
000003d0: 09d7 a83d eb62 b4bc 3e66 34be cc7a 25be
000003e0: aa7f ab3d f7c2 14be 1e9b 10bd 8215 f7bd
000003f0: b049 9ebd fe5e 203e 4955 043b ffe8 2abd

classifier.0.weight f4 [32, 64]
0.09367882 -0.048054326 -0.4711156 0.1914527 0.13849305 0.20844254 -0.7544157 0.045490976
0.047022387 0.17401657 0.12168233 0.2932865 -0.058640692 -0.10533489 -0.0740495 0.23234917
0.05861916 0.11191132 0.073292956 -0.08963694 0.21579377 -0.032836046 0.14514218 0.103118785
-0.059754524 0.03882476 0.027836472 -0.52137476 0.08249006 -0.022023946 -0.08289849 -0.5648444
-0.043390714 -0.17178376 -0.10131208 0.01751579 0.3082489 0.07808944 -0.1857811 0.600736
0.3856672 0.120909266 0.19961244 -0.09012619 0.20317608 0.10644865 0.08302717 -0.049203835
0.009515953 0.042147737 0.28176674 -0.10797008 0.16844277 0.12163528 0.105327636 0.49632704
0.41329062 0.18023178 -0.2908348 0.21846694 0.025201255 -0.32160294 0.014129415 -0.18291834
0.023767848 -0.016311666 -0.20809846 0.217488 0.11263306 0.2766623 -0.7056806 -0.094237454
-0.0025754531 0.16837457 0.05160136 0.21946885 0.06709017 0.0845084 0.14638157 0.09199995
-0.059719305 0.12216254 0.14513308 -0.10467935 0.2645109 0.029347263 0.13874517 -0.13296172
0.06922647 0.009333013 0.09134091 -0.39857405 0.059614286 -0.063414946 -0.07785117 -0.48626667
-0.051157467 -0.2180989 -0.016775483 0.02186446 0.055761576 0.05707347 -0.1519834 0.5731276
0.31680092 0.11504531 -0.03585323 -0.077446125 0.24534072 0.0770892 -0.015844075 0.015699761
-0.06920276 0.009437867 0.08312853 -0.17718305 0.024513427 0.121307306 0.16295053 0.20330855
0.10923086 0.28075552 -0.042698488 0.1416367 0.03780014 -0.10252739 -0.018705936 -0.16531631
0.070375256 0.062842816 -0.29573488 0.121202044 0.21269554 0.23017837 -0.47751123 -0.08399799
0.0756228 0.0077167684 0.12365773 0.0405432 0.04937903 -0.022209851 0.03846725 0.030933322
-0.013751204 -0.01319304 0.08719468 0.03232878 0.27613157 0.08258549 0.00034435437 -0.068726726
0.06576627 0.1721176 -0.098965 -0.33978537 -0.078817174 0.121674486 -0.010814354 -0.385293
0.049331892 -0.26759323 -0.10956 -0.10036862 0.24821834 0.15596657 -0.106510825 0.28680947
0.30474022 0.092784 0.057419274 -0.05603364 0.27042207 0.05994627 0.013218514 -0.056389403
-0.03008426 -0.011695114 0.17096454 -0.20830314 0.03772673 0.09211263 0.095764466 0.33959016
0.2754789 0.209701 -0.049244206 0.13939723 -0.008373885 -0.117994 -0.034752607 0.0066166553
-0.10756523 -0.10504197 0.35299376 -0.099619456 -0.02124035 -0.28557268 0.5403045 -0.0032257314
-0.0021518867 -0.06982831 0.10306384 -0.118695304 0.1508055 -0.06604785 -0.15992203 -0.0300806
0.068343624 -0.10718819 0.13829234 0.0658275 0.0011918286 0.064791866 0.077256076 -0.085472405
-0.016632615 0.1193449 0.11577565 0.5186334 0.17022644 0.007837439 0.20768394 0.44869205
-0.102162205 0.14177133 -0.076366164 0.07380497 -0.17410094 -0.124010704 -0.028458318 -0.22336929
-0.25944006 0.10075432 0.14570989 -0.0811599 0.02147144 -0.047509395 0.035038307 0.20341977
-0.049838677 -0.04835278 -0.14194983 0.20681319 0.063490555 -0.029815538 0.067261614 -0.21168764
-0.3319627 -0.4577591 0.24834351 -0.08119511 0.012646085 0.2312695 -0.22418225 0.07821853
00000000: aeda bf3d 9dd4 44bd 1036 f1be 2d0c 443e
00000010: 1fd1 0d3e f671 553e 6321 41bf bf54 3a3d
00000020: 8c9a 403d 6631 323e 9634 f93d a629 963e
00000030: 3931 70bd d2b9 d7bd 44a7 97bd f1ec 6d3e
00000040: a51a 703d c331 e53d 9e1a 963d 9293 b7bd
00000050: 0bf9 5c3e 177f 06bd 27a0 143e f12f d33d
00000060: 29c1 74bd b606 1f3d 5009 e43c d178 05bf
00000070: 8cf0 a83d 906b b4bc afc6 a9bd a599 10bf
00000080: 76ba 31bd 15e8 2fbe b57c cfbd 467d 8f3c
00000090: cdd2 9d3e 5bed 9f3d 673d 3ebe d6c9 193f
000000a0: 2c76 c53e 479f f73d 3467 4c3e 1494 b8bd
000000b0: 640d 503e c001 da3d 260a aa3d f689 49bd
000000c0: cde8 1b3c 1ba3 2c3d bb43 903e 6b1f ddbd
000000d0: 437c 2c3e eb1b f93d 04b6 d73d 941e fe3e
000000e0: d49a d33e ae8e 383e 4de8 94be ccb5 5f3e
000000f0: dd72 ce3c 24a9 a4be 107f 673c f24e 3bbe
00000100: cab4 c23c 0ba0 85bc c317 55be 2db5 5e3e
00000110: 29ac e63d aea6 8d3e 7ca7 34bf 91ff c0bd
00000120: efc8 28bb 626a 2c3e f35b 533d 71bc 603e
00000130: 9266 893d bd12 ad3d 0de5 153e 786a bc3d
00000140: 3b9c 74bd 5b30 fa3d c49d 143e 2162 d6bd
00000150: f96d 873e ac69 f03c 3713 0e3e 1e27 08be
00000160: 9cc6 8d3d 7ee9 183c f110 bb3d e611 ccbe
00000170: 1c2e 743d b2df 81bd 6f70 9fbd f2f7 f8be
00000180: 7e8a 51bd 5155 5fbe bd6c 89bc 191d b33c
00000190: 4066 643d dfc5 693d 89a1 1bbe 7eb8 123f
000001a0: bb33 a23e e09c eb3d d6da 12bd 139c 9ebd
000001b0: 993a 7b3e f1e0 9d3d 6fcb 81bc c99c 803c
000001c0: 2dba 8dbd 49a1 1a3c 4a3f aa3d 796f 35be
000001d0: 62d0 c83c f76f f83d 81dc 263e 1e30 503e
000001e0: 6eb4 df3d 30bf 8f3e 9ce4 2ebd 3609 113e
000001f0: 52d4 1a3d e1f9 d1bd 313d 99bc ae48 29be
00000200: e720 903d bcb3 803d 906a 97be c738 f83d
00000210: dccc 593e e1b3 6b3e 5a7c f4be 2307 acbd
00000220: 20e0 9a3d f2dc fc3b 4440 fd3d a010 263d
00000230: aa41 4a3d 6ff1 b5bc d68f 1d3d e167 fd3c
00000240: bb4c 61bc 9f27 58bc 2093 b23d 2f6b 043d
00000250: 1e61 8d3e 9522 a93d 768a b439 99c0 8cbd
00000260: 77b0 863d 993f 303e 29ae cabd 59f8 adbe
00000270: e66a a1bd 7930 f93d b02e 31bc 2045 c5be
00000280: 3d10 4a3d fb01 89be fe60 e0bd 108e cdbd
00000290: f32c 7e3e b3b5 1f3e 5922 dabd b1d8 923e
000002a0: e906 9c3e 8a05 be3d 7930 6b3d 8883 65bd
000002b0: c374 8a3e 388a 753d 7792 583c 93f8 66bd
000002c0: 4473 f6bc dd9c 3fbc 5411 2f3e 6b4d 55be
000002d0: 5887 1a3d 8ca5 bc3d 2920 c43d c3de ad3e
000002e0: 920b 8d3e dcbb 563e 4bb4 49bd 26be 0e3e
000002f0: 9f32 09bc d7a6 f1bd c058 0ebd 87d0 d83b
00000300: 294b dcbd 3f20 d7bd 99bb b43e 4905 ccbd
00000310: 3e00 aebc 9536 92be 6551 0a3f cb66 53bb
00000320: ab06 0dbb 2502 8fbd 2213 d33d 8616 f3bd
00000330: c26c 1a3e 1844 87bd 9ac2 23be 976b f6bc
00000340: bef7 8b3d 7b85 dbbd 829c 0d3e 91d0 863d
00000350: 2237 9c3a 99b1 843d 6f38 9e3d 280c afbd
00000360: 1f41 88bc 196b f43d c91b ed3d 29c5 043f
00000370: d74f 2e3e 9a68 003c 19ab 543e f7ba e53e
00000380: 6b3a d1bd 812c 113e dd65 9cbd 0f27 973d
00000390: 8447 32be 53f9 fdbd 6b21 e9bc ebba 64be
000003a0: 54d5 84be 4858 ce3d f934 153e 2937 a6bd
000003b0: e0e4 af3c 3699 42bd 5484 0f3d 464d 503e
000003c0: a423 4cbd 910d 46bd 4c5b 11be d6c6 533e
000003d0: 5607 823d b73f f4bc 75c0 893d a5c4 58be
000003e0: 04f7 a9be 675f eabe c34d 7e3e 9f49 a6bd
000003f0: 8631 4f3c e9d1 6c3e 0890 65be 0931 a03d

classifier.0.bias f4 [32]
0.23172213 0.16647768 0.28163192 0.10686071 0.065315396 0.4739727 0.07373764 0.2060719
-0.03981061 0.17227198 0.099813156 -0.12702169 0.25180453 0.014904664 0.032685403 -0.13194267
0.17856741 -0.05426442 0.040623467 0.05607756 -0.032698046 0.16429654 0.17860371 0.013580694
0.051126864 -0.053778026 0.084598266 0.03619582 0.12524119 0.10511175 0.015018259 -0.118935734
00000000: 9148 6d3e 2079 2a3e 0f32 903e cad9 da3d
00000010: 14c4 853d 8dac f23e c303 973d 8304 533e
00000020: 7310 23bd 1168 303e d76a cc3d f911 02be
00000030: 86ec 803e b132 743c 21e1 053d fb1b 07be
00000040: 60da 363e 5e44 5ebd cb64 263d 95b1 653d
00000050: 63ee 05bd 5a3d 283e e4e3 363e 8f81 5e3c
00000060: 676a 513d 5946 5cbd db41 ad3d 1142 143d
00000070: 3a3f 003e d444 d73d 250f 763c 9494 f3bd

classifier.2.weight f4 [2, 32]
0.41051996 0.42597154 0.4111457 -0.1571907 -0.3545613 -0.4236247 -0.1425011 0.21487847
-0.33470023 0.42926243 -0.2865382 -0.05762647 0.22233392 -0.26591262 0.37953308 -0.106489606
0.1477451 -0.17282501 -0.27562913 -0.26172885 -0.16641091 0.5771606 0.6950645 -0.13546094
-0.10327852 -0.24334076 -0.37825057 -0.29773843 0.41170523 0.21300878 -0.38718876 -0.027538255
-0.5881481 -0.19756189 -0.16305135 0.2864354 0.25754204 0.6611252 0.41875902 -0.41196597
0.35316965 -0.29805937 0.13994499 0.040580437 -0.33752924 0.24263117 -0.5005004 0.35370424
-0.44141534 -0.12022304 0.2738573 0.28408274 0.37542498 -0.37068355 -0.5779323 0.35475305
0.29292536 0.32394108 0.247436 0.17218377 -0.47481152 -0.40600616 0.21472459 0.0020755639
00000000: ac2f d23e f118 da3e b081 d23e 99f6 20be
00000010: 0f89 b5be 56e5 d8be cfeb 11be 1a09 5c3e
00000020: d45d abbe 49c8 db3e 23b5 92be bc09 6cbd
00000030: 81ab 633e b325 88be 2952 c23e 3917 dabd
00000040: 7e4a 173e 0af9 30be 431f 8dbe 5301 86be
00000050: 9f67 2abe ccc0 133f bfef 313f 46b6 0abe
00000060: b083 d3bd 522e 79be 0faa c1be 2c71 98be
00000070: 07cb d23e f91e 5a3e 9b3d c6be e897 e1bc
00000080: e090 16bf aa4d 4abe eff6 26be a9a7 923e
00000090: 8ddc 833e 803f 293f 9567 d63e 34ed d2be
000000a0: a7d2 b43e 3d9b 98be bd4d 0f3e ac37 263d
000000b0: a2d0 acbe 4e74 783e cb20 00bf b918 b53e
000000c0: 3101 e2be 7f37 f6bd 0637 8c3e 4b73 913e
000000d0: b437 c03e 3cca bdbe 5ff3 13bf 31a2 b53e
000000e0: 50fa 953e 9bdb a53e dd5f 7d3e f150 303e
000000f0: 7f1a f3be 0ae0 cfbe c3e0 5b3e 2f06 083b

classifier.2.bias f4 [2]
0.20075992 -0.19296275
00000000: 0294 4d3e 0798 45be
