src/DARPA/pretrained/models/w50/resampled/phase_2.pth (torch, 194061 bytes, 8 tensors)

lstm.weight_ih_l0 f4 [256, 112]
-0.09920015 0.086414665 -0.051285587 -0.12091677 -0.17081137 -0.15894416 -0.13054952 -0.0727322
0.1652268 0.013852111 -0.03858776 0.4040117 -0.024310805 -0.33507416 -0.023389013 -0.1763108
0.008057741 0.1050117 -0.197299 0.16484714 0.11873455 0.10982281 -0.030001013 0.06293197
0.05739819 0.004367877 0.04019559 -0.04961862 0.21351625 0.05546573 0.031022178 -0.060694464
0.017619051 0.07025906 0.40253383 -0.20626093 0.27655822 -0.16045497 0.21727304 -0.14770925
0.14299405 0.0068460247 -0.07645368 -0.0013884802 0.076933675 -0.08651234 -0.028911598 0.05936648
0.10686752 -0.00577405 0.014518099 -0.06287664 -0.027587319 0.00013051841 -0.036450792 -0.09726365
0.023381045 -0.06890334 -0.21596546 -0.10602542 0.20029452 0.07196492 -0.055992678 0.014607789
0.11828311 0.0959471 0.06319026 -0.13971859 -0.054249667 -0.24453728 -0.12293735 -0.059100945
0.28182486 -0.047204047 0.07861394 0.04068019 -0.1068947 0.03820457 -0.018870778 -0.02724014
-0.3696452 -0.06625926 -0.0312894 -0.13142104 -0.064572334 -0.09143878 0.14259999 0.02069175
-0.088909544 0.053949043 -0.018240545 -0.046626408 -0.024543868 0.0014353399 -0.030097757 0.08914652
-0.025765892 0.025705844 0.09039622 0.10351306 0.110712335 0.03715056 -0.09269927 0.0013022288
-0.10661178 -0.026905768 -0.025920196 -0.04414763 0.012029475 0.06936742 0.031892933 0.04828233
0.03341402 0.025597036 0.047739215 -0.011988118 0.11596844 0.10580567 0.31103268 0.21677348
0.19954798 0.028620875 0.10771704 0.21672383 0.18177179 0.05227221 0.11118664 0.14920616
0.017132355 0.0003301878 -0.074390285 0.11871386 0.29924753 0.022407115 0.1930295 -0.012361906
0.19345324 0.3766398 -0.032158975 -0.04774601 0.18961582 0.25924408 0.001706987 -0.11272323
0.15703762 0.029037122 0.24129358 0.09832207 -0.020805335 -0.057659194 0.33513263 0.13113101
0.36976677 -0.010373451 -0.042609934 0.17202844 0.08731006 0.083310515 0.14242354 0.04449811
0.12750754 -0.0880978 0.049104173 0.03374668 -0.06374066 0.26188922 0.17482574 0.005193545
0.18233278 -0.017943123 0.053821344 0.15111175 -0.130594 -0.09710827 0.014257528 0.015889311
-0.029822174 0.17939903 0.22721204 -0.053539895 -0.0607051 0.09357413 0.2117036 0.10625831
0.23608814 -0.01597596 0.076284796 -0.06625032 -0.07311375 0.011259844 -0.03760873 0.13900326
0.17928122 0.0018473656 0.19007677 -0.12485058 0.0463922 -0.019376166 -0.027573816 -0.07150653
0.19318826 -0.014880826 0.010185755 -0.004353754 0.32405058 0.01270995 -0.02950107 0.015190649
-0.00021488403 -0.003048409 0.14059608 0.064686105 0.06558013 -0.12160808 -0.0069366638 0.11798735
-0.00025201228 0.016999299 0.15047601 0.011299991 0.15614763 0.2653456 0.039077263 0.08935485
-0.50650346 -0.16843121 -0.017957252 0.120634496 -0.21403262 0.013305415 -0.0658456 -0.095225915
0.15163115 -0.22275592 0.00050189014 0.042306527 0.00076507014 -0.057748172 -0.04587163 0.19189292
-0.20510271 -0.10823599 0.023488322 0.18497115 0.15499036 0.019090468 0.07921145 0.070427775
0.06653647 0.20389652 -0.058608495 0.14802422 0.06947161 0.18326728 -0.048424955 -0.11138119
00000000: 7329 cbbd 2cfa b03d d610 52bd 36a3 f7bd
00000010: 2de9 2ebe 42c2 22be c6ae 05be 9ff4 94bd
00000020: 3731 293e f7f3 623c 330e 1ebd 9fda ce3e
00000030: 7427 c7bc d78e abbe 519a bfbc d18a 34be
00000040: 9e04 043c 6010 d73d c008 4abe b0cd 283e
00000050: 1a2b f33d c8ea e03d afc4 f5bc 7ae2 803d
00000060: 5d1a 6b3d 6820 8f3b 22a4 243d e53c 4bbd
00000070: 01a4 5a3e 0930 633d 3922 fe3c c29a 78bd
00000080: d455 903c fbe3 8f3d ea18 ce3e 1136 53be
00000090: 0a99 8d3e 4f4e 24be d37c 5e3e 1841 17be
000000a0: 086d 123e 9e54 e03b bf93 9cbd aafd b5ba
000000b0: 678f 9d3d 622d b1bd 04d8 ecbc 442a 733d
000000c0: 5cdd da3d 3e34 bdbb 52dd 6d3c 78c5 80bd
000000d0: cdfe e1bc c5db 0839 6d4d 15bd 2a32 c7bd
000000e0: 9b89 bf3c 321d 8dbd 0d26 5dbe db23 d9bd
000000f0: 021a 4d3e 5862 933d 9458 65bd 8255 6f3c
00000100: 6a3e f23d ea7f c43d e569 813d 6412 0fbe
00000110: e634 5ebd fb67 7abe 94c6 fbbd d513 72bd
00000120: 594b 903e 0859 41bd 5800 a13d 45a0 263d
00000130: 9ceb dabd 657c 1c3d e496 9abc b726 dfbc
00000140: 2342 bdbe efb2 87bd 5029 00bd 3d93 06be
00000150: 803e 84bd 4144 bbbd bb05 123e bf81 a93c
00000160: 3516 b6bd acf9 5c3d 326d 95bc 55fb 3ebd
00000170: 3910 c9bc 0422 bc3a 928f f6bc 7392 b63d
00000180: fe12 d3bc 1095 d23c a721 b93d a8fe d33d
00000190: 26bd e23d 302b 183d 1dd9 bdbd 8caf aa3a
000001a0: 4757 dabd 7c69 dcbc 9756 d4bc 25d4 34bd
000001b0: 4617 453c 8210 8e3d 2aa2 023d b1c3 453d
000001c0: 24dd 083d e0b0 d13c 328a 433d d069 44bc
000001d0: dd80 ed3d a5b0 d83d ad3f 9f3e def9 5d3e
000001e0: 4e56 4c3e 5376 ea3c c09a dc3d daec 5d3e
000001f0: 6222 3a3e 631b 563d d2b5 e33d 80c9 183e
00000200: 2759 8c3c 0e1d ad39 ef59 98bd 4120 f33d
00000210: f936 993e 208f b73c 86a9 453e 9789 4abc
00000220: 9b18 463e efd6 c03e 21b9 03bd 5291 43bd
00000230: a62a 423e a4bb 843e fbbc df3a 70db e6bd
00000240: 78ce 203e 42df ed3c aa15 773e 155d c93d
00000250: f36f aabc 0c2c 6cbd 8196 ab3e 3547 063e
00000260: 1252 bd3e 68f5 29bc c187 2ebd 3928 303e
00000270: 9ecf b23d b49e aa3d 7ad7 113e a643 363d
00000280: 5691 023e 9f6c b4bd 7521 493d f539 0a3d
00000290: 778a 82bd 5816 863e 8505 333e 9d2e aa3b
000002a0: 72b5 3a3e 75fd 92bc c573 5c3d 0abd 1a3e
000002b0: 6fba 05be b3e0 c6bd 6898 693c 4d2a 823c
000002c0: a24d f4bc 61b4 373e 46aa 683e a64c 5bbd
000002d0: e9a5 78bd cba3 bf3d d4c8 583e f59d d93d
000002e0: 17c1 713e 04e0 82bc 343b 9c3d 3fae 87bd
000002f0: a9bc 95bd 357b 383c 9d0b 1abd df56 0e3e
00000300: 7f95 373e 4e23 f23a 7ca3 423e a9b1 ffbd
00000310: bf05 3e3d c4ba 9ebc 7ce2 e1bc 0472 92bd
00000320: 25d3 453e b5ce 73bc 27e2 263c f0a9 8ebb
00000330: f5e9 a53e 653d 503c 3aac f1bc 33e2 783c
00000340: 7e52 61b9 d1c7 47bb 6bf8 0f3e 267a 843d
00000350: e04e 863d a80d f9bd f44c e3bb 5aa3 f13d
00000360: 8420 84b9 1d42 8b3c 6216 1a3e 9923 393c
00000370: 2ae5 1f3e 61db 873e 7b0f 203d adff b63d
00000380: 36aa 01bf 3b79 2cbe 161b 93bc 380f f73d
00000390: 5e2b 5bbe f5fe 593c 0fda 86bd ce05 c3bd
000003a0: 3245 1b3e 211a 64be 4791 033a 9c49 2d3d
000003b0: fd8e 483a 5989 6cbd e4e3 3bbd 947f 443e
000003c0: 7206 52be d5aa ddbd 956a c03c 1469 3d3e
000003d0: cbb5 1e3e 9d63 9c3c 9d39 a23d 703c 903d
000003e0: 4644 883d 40ca 503e 760f 70bd a993 173e
000003f0: 2247 8e3d 6baa 3b3e 3f59 46bd d21b e4bd

lstm.weight_hh_l0 f4 [256, 64]
0.049839444 0.15557876 -0.025490558 0.026957713 0.25573394 -0.0068427986 0.12070178 -0.09502444
-0.13967353 0.04947112 -0.02357786 -0.009789281 0.017387532 0.08545599 -0.09617696 0.034302995
-0.03689387 0.15399706 -0.02493857 0.04637207 -0.041126713 -0.095984615 -0.13507813 0.12667409
-0.042835884 0.09849057 -0.18055603 -0.01068079 -0.028084934 0.21130402 -0.059765663 -0.056737237
-0.055460945 0.13266565 0.0045455024 0.09751145 0.13559589 0.022636635 0.087061316 -0.030450404
-0.018459033 -0.016198583 -0.05322025 6.0511058e-05 -0.021731894 -0.04059262 0.10810852 0.12146094
-0.1358927 -0.092831634 -0.038001206 0.02394271 -0.11651029 0.09583152 0.034431472 -0.08339755
-0.054460403 0.1774072 -0.015422218 0.04160638 0.07804009 -0.15941969 0.15795851 -0.11264819
0.13714787 0.152021 -0.123041764 -0.03224263 -0.0647677 0.06708443 0.07036691 0.05384715
0.0038993834 0.05027308 0.106677815 0.08069529 0.061865374 0.068003155 0.123095445 -0.19590168
0.034219287 -0.011094444 -0.06626371 0.13113724 -0.07243396 -0.025821922 -0.069660194 0.025749633
0.0072363303 0.015437864 -0.12384582 0.04847495 0.079928465 0.21115033 -0.034433458 -0.038396098
-0.14937522 -0.015782572 0.08644548 0.027296944 0.07264532 -0.05548069 0.10762323 0.15086488
0.15321533 -0.015125043 0.08513207 -0.05083849 0.0835186 -0.02929886 0.08610617 0.15616891
0.017180655 0.04390631 -0.0064684073 -0.06583499 -0.078895375 0.019323347 0.04325761 0.13416485
-0.030969411 -0.053391557 -0.1317965 0.020059934 0.06533496 -0.06735316 0.047036525 0.047353007
-0.18484057 0.07686428 0.15159757 -0.020137103 -0.21369044 -0.09553948 0.14289254 0.1310274
0.12779313 0.068960376 -0.14286421 0.09955902 0.092341065 0.0149812205 0.11608809 0.029532898
0.030300073 -0.008495551 0.051059444 0.022755949 0.17128634 0.053114872 0.13421287 0.046471387
-0.16452521 -0.02110927 -0.056919508 -0.011297002 -0.23117629 0.029718647 -0.10793581 0.14179963
0.040464807 0.1255217 0.15716815 -0.17992207 0.027838016 -0.081830576 -0.12632002 0.0038116279
0.03563627 0.033368964 -0.048630536 -0.12611343 -0.11866834 -0.15071045 0.06147857 0.13242139
-0.038229518 -0.071486264 0.11382977 -0.046457082 -0.026829366 -0.052204315 0.09240804 -0.0076898965
0.04918609 0.06665948 -0.057870816 0.13755699 -0.01306718 -0.16849929 0.15894105 0.009702182
-0.10100249 0.1507895 0.010569961 -0.021080563 0.06328233 0.15197618 -0.022503959 -0.23520382
0.0530948 0.056836788 0.18608658 0.013629683 -0.041293796 0.08347537 -0.16186202 0.11998354
0.052666675 0.1069019 0.047840334 -0.1445026 -0.15809423 -0.2315935 0.06780162 -0.21960282
0.13565616 0.060315765 0.13302654 -0.1823755 0.20522755 -0.08350188 0.15256481 0.010354566
-0.047048625 -0.11091361 -0.03641396 0.12279732 0.2312828 0.027248697 0.08132211 0.02617729
0.24436703 0.019227466 0.16657084 -0.029998435 -0.0088908 0.13379261 -0.07227326 -0.11475362
-0.20761693 -0.1240953 -0.02011781 -0.083653785 0.03131549 0.02538191 -0.10297318 0.21051703
-0.05938396 0.1852153 0.035068758 -0.1482489 0.1209085 0.13680102 0.074319825 0.04054462
00000000: 7224 4c3d 0a50 1f3e 93d1 d0bc 6cd6 dc3c
00000010: 8fef 823e 8e39 e0bb 7f32 f73d 2c9c c2bd
00000020: 9406 0fbe 3ba2 4a3d 5b26 c1bc 3863 20bc
00000030: 4c70 8e3c 8d03 af3d 6df8 c4bd 4c81 0c3d
00000040: 071e 17bd 68b1 1d3e f94b ccbc a4f0 3d3d
00000050: 7c74 28bd 9593 c4bd ec51 0abe dab6 013e
00000060: ae74 2fbd 6db5 c93d aee3 38be 7bfe 2ebc
00000070: 6012 e6bc 1560 583e d7cc 74bd 4e65 68bd
00000080: 042b 63bd 81d9 073e 70f2 943b 15b4 c73d
00000090: a6d9 0a3e 7770 b93c 344d b23d 2073 f9bc
000000a0: 6637 97bc e4b2 84bc 7afd 59bd 41cd 7d38
000000b0: 1607 b2bc 7244 26bd 0068 dd3d 83c0 f83d
000000c0: 7527 0bbe 831e bebd 27a7 1bbd 8123 c43c
000000d0: f29c eebd 5143 c43d 0408 0d3d 56cc aabd
000000e0: df11 5fbd 3caa 353e 78ad 7cbc 746b 2a3d
000000f0: 7cd3 9f3d ea3e 23be e0bf 213e 18b4 e6bd
00000100: 7e70 0c3e 65ab 1b3e 52fd fbbd d910 04bd
00000110: eea4 84bd 9063 893d 871c 903d d48e 5c3d
00000120: cc8c 7f3b 25eb 4d3d e679 da3d 9243 a53d
00000130: 8c66 7d3d 3d45 8b3d 7719 fc3d 739a 48be
00000140: 8629 0c3d 79c5 35bc 45b5 87bd d748 063e
00000150: 4258 94bd 7f88 d3bc 01aa 8ebd e5f0 d23c
00000160: bd1e ed3b 18ef 7c3c e1a2 fdbd ab8d 463d
00000170: 89b1 a33d cb37 583e 190a 0dbd 3a45 1dbd
00000180: d1f5 18be 744a 81bc 540a b13d d79d df3c
00000190: 12c7 943d b83f 63bd 9169 dc3d 537c 1a3e
000001a0: 7be4 1c3e 07cf 77bc b959 ae3d 053c 50bd
000001b0: cd0b ab3d 2a04 f0bc 6f58 b03d beea 1f3e
000001c0: 72be 8c3c 1ad7 333d eff4 d3bb 7fd4 86bd
000001d0: e693 a1bd ff4b 9e3c e42e 313d 8362 093e
000001e0: 90b3 fdbc 1bb1 5abd a9f5 06be bb54 a43c
000001f0: 56ce 853d 74f0 89bd 5fa9 403d 3af5 413d
00000200: d946 3dbe 056b 9d3d 653c 1b3e 91f6 a4bc
00000210: abd1 5abe 34aa c3bd 6c52 123e 0c2c 063e
00000220: 34dc 023e 193b 8d3d ff4a 12be 99e5 cb3d
00000230: 501d bd3d cb73 753c 98bf ed3d faee f13c
00000240: dc37 f83c ec30 0bbc b523 513d af6a ba3c
00000250: b065 2f3e fb8e 593d 196f 093e c858 3e3d
00000260: 4c79 28be 59ed acbc 6e24 69bd 1017 39bc
00000270: 7ab9 6cbe 8574 f33c 730d ddbd ec33 113e
00000280: 6dbe 253d c388 003e b0f0 203e 7e3d 38be
00000290: 8d0c e43c ca96 a7bd 095a 01be 81cc 793b
000002a0: 56f7 113d e5ad 083d d030 47bd e123 01be
000002b0: 6308 f3bd d753 1abe f4d0 7b3d 7999 073e
000002c0: 8e96 1cbd 6467 92bd 951f e93d c849 3ebd
000002d0: 42c9 dbbc 31d4 55bd 6d40 bd3d 87fb fbbb
000002e0: 5a77 493d c484 883d f309 6dbd bddb 0c3e
000002f0: ba17 56bc 148b 2cbe 71c1 223e e7f5 1e3c
00000300: 65da cebd 9068 1a3e a12d 2d3c 25b1 acbc
00000310: 2b9a 813d a59f 1b3e 395a b8bc 45d9 70be
00000320: ef79 593d b1cd 683d 7b8d 3e3e 094f 5f3c
00000330: af23 29bd 23f5 aa3d 28bf 25be eeb9 f53d
00000340: 03b9 573d 62ef da3d 3af4 433d 7df8 13be
00000350: 74e3 21be d926 6dbe 93db 8a3d 90df 60be
00000360: 73e9 0a3e aa0d 773d 1c38 083e a5c0 3abe
00000370: 2c27 523e 0903 abbd f339 1c3e 33a6 293c
00000380: 0fb6 40bd ad26 e3bd ce26 15bd 297d fb3d
00000390: 66d5 6c3e a938 df3c 358c a63d c271 d63c
000003a0: 5a3b 7a3e eb82 9d3c 8c91 2a3e 47bf f5bc
000003b0: b8aa 11bc ee00 093e 0104 94bd f203 ebbd
000003c0: 8899 54be ad25 febd 1bce a4bc ad52 abbd
000003d0: ac44 003d b9ed cf3c 9ae3 d2bd c791 573e
000003e0: 983c 73bd 14a9 3d3e 42a4 0f3d 8fce 17be
000003f0: e09e f73d 9115 0c3e fe34 983d 1e12 263d

lstm.bias_ih_l0 f4 [256]
-0.0067414693 0.16315955 -0.009652264 0.0072975326 -0.021809388 0.062076997 -0.032470975 -0.0609261
0.103672236 0.07084368 0.10640106 0.12189083 -0.08622104 -0.11875279 0.05021688 0.060033213
0.037875134 0.024749033 0.005189879 0.07058871 0.0005278802 -0.19383195 -0.08223853 0.050108906
0.10135494 0.09878157 0.16717538 -0.11921506 0.02401829 0.06666268 0.15331559 0.035809882
0.059175882 0.04594113 -0.059939604 -0.06058209 -0.10116825 0.054880224 -0.08445131 0.06622197
-0.04285864 0.11599719 -0.14604853 -0.019801015 0.25335383 0.07920145 0.07093364 -0.04905095
-0.20480387 -0.014592122 -0.027099011 0.07018403 0.02407079 0.12069447 0.05027394 -0.102843
-0.1098667 0.08443949 -0.025603697 0.08667783 0.045817792 0.054110512 0.16708028 0.114354126
-0.07289175 0.07710482 -0.08009483 0.11357913 0.06944239 -0.007430799 -0.09280488 -0.08735793
-0.053253163 -0.05033296 -0.09855419 -0.011711288 0.07208601 0.19571985 -0.03789357 0.07662399
-0.10663014 -0.07673848 -0.18491837 0.07678249 0.15152149 -0.009915488 -0.0661166 -0.07062568
-0.055568334 0.06866856 0.14248449 -0.07743095 0.10952224 -0.01986105 -0.002089872 -0.016808387
0.0034773722 0.025051136 0.08545517 0.13513611 0.0021158154 -0.050712768 -0.029824862 -0.018831972
0.057258204 -0.032519694 0.016986439 0.03513595 -0.025382083 0.08283852 0.027784022 0.018339327
-0.14008364 -0.06330183 -0.012901147 0.02772246 -0.18467389 0.061164968 0.09092308 -0.07620136
0.11346964 -0.11469884 0.03818801 -0.001635751 -0.111318834 -0.0019420375 -0.04707683 -0.041569073
-0.08423025 -0.024423 -0.060558513 -0.08793222 -0.0328955 0.020722685 -0.17828196 -0.117723964
-0.03681692 -0.00061298796 0.014422642 -0.04767681 -0.0708732 0.08572601 -0.10137182 -0.06544229
-0.08915966 0.120782524 -0.04063621 -5.0017272e-05 -0.1087055 -0.0109762605 0.009778696 0.04503558
-0.0025725137 0.08262533 0.17001264 -0.05689537 0.1618663 -0.11876823 -0.034407515 -0.1461193
-0.0676809 -0.072502606 -0.033016212 -0.16873492 0.046575382 -0.01945673 -0.039509766 0.046010613
-0.021130133 0.1114473 0.13103275 0.019815082 0.015998483 -0.019627858 -0.05550731 -0.08292616
0.030367529 0.049089827 0.069843695 0.04374616 0.0218004 -0.053453833 -0.097554125 0.14278878
-0.07229638 -0.080194786 -0.08828423 -0.056138445 0.031955976 -0.06654033 -0.13912226 -0.14132145
0.102818064 -0.070782304 -0.13145545 0.19573379 0.0905509 -0.021068463 0.052775893 -0.15688555
0.04581132 0.017040208 -0.040695205 0.044156134 0.0225554 0.10012088 0.12505788 -0.13968621
0.079342075 0.10073424 0.06472888 -0.057557594 -0.03804164 0.08340084 0.108460546 -0.088922925
0.054624356 0.118444316 0.06664998 -0.056491323 0.16874087 0.07514894 -0.11924587 -0.01925367
0.19253983 0.26218638 -0.03912603 -0.09086447 0.026866797 -0.09932812 -0.046109032 -0.039485138
-0.1334221 0.052278284 -0.11138913 0.01626586 0.11016135 -0.021074435 -0.15023026 -0.040816236
-0.12704955 0.038381808 -0.10320468 0.037806813 -0.14284994 -0.013242295 -0.0795385 0.082620025
0.05689891 -0.0701184 0.07578582 0.017431445 0.03595597 -0.014287511 0.103715144 -0.031004928
00000000: 8be7 dcbb 4c13 273e 8824 1ebc 2420 ef3b
00000010: 9aa9 b2bc 7344 7e3d 4900 05bd a58d 79bd
00000020: 1c52 d43d 7e16 913d cde8 d93d e6a1 f93d
00000030: a894 b0bd aa34 f3bd 37b0 4d3d 63e5 753d
00000040: f522 1b3d 7cbe ca3c dc0f aa3b d090 903d
00000050: 7161 0a3a e27b 46be ad6c a8bd ff3e 4d3d
00000060: 2e93 cf3d fe4d ca3d 0630 2b3e 0627 f4bd
00000070: 01c2 c43c 7186 883d c3fe 1c3e 62ad 123d
00000080: 6962 723d c42c 3c3d 3b83 75bd ed24 78bd
00000090: 4d31 cfbd 16ca 603d cff4 acbd 629f 873d
000000a0: 8b8c 2fbd ef8f ed3d bf8d 15be bd35 a2bc
000000b0: 98b7 813e 5f34 a23d a845 913d a6e9 48bd
000000c0: 1bb8 51be cc13 6fbc bffe ddbc a5bc 8f3d
000000d0: 1b30 c53c aa2e f73d 0cec 4d3d 5a9f d2bd
000000e0: cb01 e1bd 9dee ac3d d8be d1bc 2584 b13d
000000f0: 70ab 3b3d fca2 5d3d 1817 2b3e 7f32 ea3d
00000100: 4548 95bd 22e9 9d3d c208 a4bd 2d9c e83d
00000110: d037 8e3d 0f7e f3bb 7c10 bebd b7e8 b2bd
00000120: fd1f 5abd ef29 4ebd c7d6 c9bd b4e0 3fbc
00000130: d4a1 933d c96a 483e 4a36 1bbd 0aed 9c3d
00000140: e760 dabd 1029 9dbd 3e5b 3dbe 2340 9d3d
00000150: 7328 1b3e 9274 22bc 2468 87bd 32a4 90bd
00000160: 9f9b 63bd 1aa2 8c3d 74e7 113e 1e94 9ebd
00000170: 324d e03d a4b3 a2bc 3cf6 08bb beb1 89bc
00000180: a0e4 633b 0a38 cd3c 1f03 af3d 1f61 0a3e
00000190: 7ea9 0a3b 31b8 4fbd 4553 f4bc 8245 9abc
000001a0: 9487 6a3d 5f33 05bd 2527 8b3c b7ea 0f3d
000001b0: 16ee cfbc 3ea7 a93d 519b e33c 5b3c 963c
000001c0: 1672 0fbe 64a4 81bd 555f 53bc 361a e33c
000001d0: 271b 3dbe 1e88 7a3d e135 ba3d 750f 9cbd
000001e0: c562 e83d 3ae7 eabd 086b 1c3d b266 d6ba
000001f0: 21fb e3bd f78b feba a2d3 40bd 5544 2abd
00000200: e980 acbd be12 c8bc 340c 78bd cf15 b4bd
00000210: 6fbd 06bd 9fc2 a93c 8c8f 36be 4319 f1bd
00000220: 57cd 16bd edb0 20ba f24c 6c3c c248 43bd
00000230: f825 91bd 1e91 af3d 079c cfbd 9b06 86bd
00000240: 5799 b6bd d45c f73d 2872 26bd a3c9 51b8
00000250: fda0 debd c6d5 33bc d336 203c 3a77 383d
00000260: 9e97 28bb 7837 a93d cb17 2e3e 1f0b 69bd
00000270: 48c0 253e c23c f3bd e5ee 0cbd 4ca0 15be
00000280: 499c 8abd 3f7c 94bd 023c 07bd d9c8 2cbe
00000290: d4c5 3e3d b863 9fbc fed4 21bd a075 3c3d
000002a0: 1a19 adbc 7b3e e43d 732d 063e 3d53 a23c
000002b0: 400f 833c 9aca a0bc a25b 63bd 31d5 a9bd
000002c0: 53c5 f83c 6a12 493d 360a 8f3d 2c2f 333d
000002d0: c196 b23c 68f2 5abd 75ca c7bd 3937 123e
000002e0: 2010 94bd 2a3d a4bd 5dce b4bd 6df1 65bd
000002f0: 45e4 023d 4c46 88bd 1176 0ebe 92b6 10be
00000300: 4792 d23d 50f6 90bd 429c 06be 706e 483e
00000310: c072 b93d c597 acbc 892b 583d 9ba6 20be
00000320: a7a4 3b3d e897 8b3c 04b0 26bd 10dd 343d
00000330: 1ac6 b83c 2d0c cd3d 2c0f 003e e709 0fbe
00000340: 197e a23d c14d ce3d 9390 843d 83c1 6bbd
00000350: 8dd1 1bbd 0fce aa3d 9020 de3d 391d b6bd
00000360: cabd 5f3d ef92 f23d c97f 883d 7263 67bd
00000370: 68ca 2c3e b0e7 993d 2e37 f4bd dfb9 9dbc
00000380: 2929 453e 4b3d 863e 9e42 20bd 2717 babd
00000390: c217 dc3c 8b6c cbbd d3dc 3cbd 2bbb 21bd
000003a0: ce9f 08be c121 563d fc1f e4bd fb3f 853c
000003b0: 469c e13d 4ba4 acbc f6d5 19be ed2e 27bd
000003c0: 4719 02be 3e36 1d3d fa5c d3bd 51db 1a3d
000003d0: 4147 12be 36f6 58bc 15e5 a2bd b034 a93d
000003e0: d50e 693d 3c9a 8fbd 9935 9b3d 64cc 8e3c
000003f0: 9146 133d 2a16 6abc 9b68 d43d 0cfe fdbc

lstm.bias_hh_l0 f4 [256]
0.017936433 0.008037494 -0.11524833 0.06274316 -0.13360676 -0.048129678 0.007471231 0.07658624
0.020541655 0.045336287 -0.061079625 -0.041976526 -0.11128525 -0.037750114 0.045988012 -0.07574759
-0.09663923 -0.0043301014 -0.12554696 -0.03676129 -0.11355548 0.020376034 0.055031486 -0.08354985
0.0031276254 -0.061112095 -0.0042153248 0.018911315 -0.065843076 0.10816646 -0.018257845 0.104413435
0.004703815 0.12835032 0.057629738 0.089846395 0.041829452 0.0039682714 -0.0477828 0.1115175
-0.007036942 0.060314115 -0.070587605 0.05844762 0.17279865 0.055783734 -0.14485243 0.12546982
-0.20428653 0.068857186 0.015195521 0.058520533 0.029740866 -0.030242084 -0.06095625 -0.1313372
-0.013045069 0.019031612 0.10486378 -0.09928672 -0.15010539 -0.105103694 0.17159685 0.13572992
-0.15831156 -0.04061082 0.011938369 -0.053773515 0.04030856 -0.0862066 0.07598363 -0.1038545
0.051520508 0.052995 0.002624767 -0.06003705 0.12856314 0.17442296 -0.19609419 0.117453486
-0.057895817 -0.035598136 -0.14931457 0.06182805 0.14011192 -0.12907809 -0.0428003 -0.048003886
-0.09659999 -0.022263512 0.21914227 0.10182305 -0.10911955 0.041649498 0.16526383 0.07731316
-0.008478883 0.007682912 -0.10013627 -0.063583724 -0.115438975 0.065065846 0.06935163 0.036039732
0.11776799 0.077314615 0.06107669 -0.0326843 0.06249249 0.05062556 0.008078443 0.065730095
-0.13216016 0.03376427 0.03281437 -0.0039472054 -0.027148586 -0.0019623125 -0.03369312 -0.14396864
0.201543 0.020202013 0.022168329 -0.10810872 -0.13540755 0.026951259 0.08026371 0.07727444
-0.10345762 0.06666613 -0.03709898 0.087888986 0.0060339854 0.052071135 -0.18765204 0.021967338
0.11112176 -0.07064529 0.025414621 -0.073158994 0.038267177 -0.041236516 -0.08797554 -0.06934611
-0.13214019 0.11843926 -0.089548185 0.11371232 -0.012368286 -0.06015076 -0.058415893 -0.09412971
0.08106859 -0.100930214 0.076160744 0.017742572 0.0896146 0.04100469 0.022736978 0.059709884
-0.034891743 0.09770662 -0.0102224555 -0.07602159 -0.121359766 0.11239752 0.061056696 0.099022985
0.08515954 -0.009278452 -0.023633258 0.07113501 -0.07757222 0.11246735 -0.037240155 -0.13570738
-0.021487137 0.079646505 -0.08933234 -0.082763545 0.0027954902 0.12830448 0.08963471 0.036265202
-0.016440209 0.0013974466 -0.006038674 0.00015540644 0.07636123 -0.01878398 -0.042580556 -0.07691647
-0.11173274 -0.10739536 0.08359011 0.13024402 -0.03954303 0.09660564 -0.11511046 -0.01873215
0.021277124 0.01898829 -0.08979295 0.13714792 0.05519837 -0.02717677 -0.025820117 0.025690753
0.058524054 0.16500561 0.06515342 0.0057975436 0.058174405 -0.15478945 0.1089102 -0.094451405
0.025369078 0.0061754826 0.09882887 -0.12409643 -0.0043844613 -0.076064706 0.10871418 -0.013300859
0.119156234 0.19306046 -0.035454564 0.006553492 -0.15208389 -0.03555409 -0.13212115 -0.0069824425
-0.11288001 0.07381199 -0.020166349 0.04618864 0.06671358 0.1934758 0.08488746 -0.020435842
-0.14946209 -0.028957866 -0.025625784 -0.09815327 -0.101659246 0.0286634 0.035771675 -0.12698784
-0.05793334 -0.044600323 -0.07799762 -0.039256524 0.026358161 -0.05711118 0.063537896 -0.036557123
00000000: 6def 923c b1af 033c 5107 ecbd 7c7f 803d
00000010: 36d0 08be a023 45bd 3ad1 f43b 3fd9 9c3d
00000020: f946 a83c 8bb2 393d a12e 7abd 94ef 2bbd
00000030: 85e9 e3bd dd9f 1abd ed5d 3c3d 8d21 9bbd
00000040: caea c5bd 86e3 8dbb 628f 00be 0293 16bd
00000050: c78f e8bd a4eb a63c b268 613d 2f1c abbd
00000060: d9f8 4c3b ad50 7abd b520 8abb e7eb 9a3c
00000070: bcd8 86bd 6186 dd3d 7a91 95bc b6d6 d53d
00000080: 7622 9a3b 446e 033e 290d 6c3d 6301 b83d
00000090: 5c55 2b3d 4608 823b e6b7 43bd 4963 e43d
000000a0: 2696 e6bb ef0b 773d 3c90 90bd c666 6f3d
000000b0: 21f2 303e 7c7d 643d 3254 14be 297b 003e
000000c0: 7d30 51be ff04 8d3d a2f6 783c 3ab3 6f3d
000000d0: 1ea3 f33c 3fbe f7bc 43ad 79bd 427d 06be
000000e0: fcba 55bc 2fe8 9b3c d2c2 d63d d656 cbbd
000000f0: 3ab5 19be 9b40 d7bd 16b7 2f3e c9fc 0a3e
00000100: 6d1c 22be 8857 26bd 2699 433c 9e41 5cbd
00000110: 971a 253d 168d b0bd 4e9d 9b3d abb1 d4bd
00000120: 2b07 533d 4911 593d 4804 2c3b 69e9 75bd
00000130: 0ea6 033e ef9b 323e eacc 48be 748b f03d
00000140: 2a24 6dbd 5acf 11bd ebe5 18be 693f 7d3d
00000150: 8079 0f3e 0c2d 04be 5e4f 2fbd b99f 44bd
00000160: 37d6 c5bd f861 b6bc d566 603e 9a88 d03d
00000170: 127a dfbd aa98 2a3d ec3a 293e 5d56 9e3d
00000180: 03eb 0abc f0c0 fb3b 3f14 cdbd 2f38 82bd
00000190: 456b ecbd 3e41 853d 3a08 8e3d 669e 133d
000001a0: 5830 f13d 2057 9e3d 8d2b 7a3d f9df 05bd
000001b0: 20f8 7f3d bf5c 4f3d 725b 043c 809d 863d
000001c0: fe54 07be 674c 0a3d 5c68 063d 8f57 81bb
000001d0: b666 debc 249a 00bb cc01 0abd 846c 13be
000001e0: 4a61 4e3e b17e a53c 5b9a b53c 1b68 ddbd
000001f0: 47a8 0abe e3c8 dc3c 4d61 a43d 1042 9e3d
00000200: 97e1 d3bd 4188 883d 1af5 17bd 24ff b33d
00000210: bdb8 c53b 8b48 553d db27 40be d9f4 b33c
00000220: ce93 e33d 7aae 90bd 5332 d03c 62d4 95bd
00000230: 0bbe 1c3d 9fe7 28bd 852c b4bd 5505 8ebd
00000240: c24f 07be 4890 f23d 0a65 b7bd 01e2 e83d
00000250: 5aa4 4abc a560 76bd 8145 6fbd 14c7 c0bd
00000260: 4a07 a63d 80b4 cebd 2afa 9b3d df58 913c
00000270: dc87 b73d 89f4 273d e642 ba3c 5a92 743d
00000280: a5ea 0ebd 691a c83d 167c 27bc 35b1 9bbd
00000290: 788b f8bd ac30 e63d 9616 7a3d 90cc ca3d
000002a0: 2068 ae3d a604 18bc 899a c1bc 3baf 913d
000002b0: 2fde 9ebd 4855 e63d 2289 18bd e0f6 0abe
000002c0: cb05 b0bc b51d a33d e0f3 b6bd ef7f a9bd
000002d0: 8b34 373b 4062 033e 6792 b73d d28a 143d
000002e0: 9ead 86bc 872a b73a 12e0 c5bb 99f4 2239
000002f0: 4763 9c3d dce0 99bc f368 2ebd 6286 9dbd
00000300: 23d4 e4bd 19f2 dbbd 4b31 ab3d b05e 053e
00000310: dff7 21bd 2ed9 c53d 08bf ebbd 2a74 99bc
00000320: 5d4d ae3c 558d 9b3c 5ee5 b7bd 8170 0c3e
00000330: b017 623d d1a1 debc b684 d3bc 6a75 d23c
00000340: ebb6 6f3d 3bf7 283e 286f 853d 52f9 bd3b
00000350: 4948 6e3d 2081 1ebe 500c df3d bd6f c1bd
00000360: d0d2 cf3c b45b ca3b ca66 ca3d 4526 febd
00000370: 87ab 8fbb d0c7 9bbd 8aa5 de3d d9eb 59bc
00000380: 2f08 f43d a4b1 453e ce38 11bd adbe d63b
00000390: e1bb 1bbe 2aa1 11bd c44a 07be f9cc e4bb
000003a0: a22d e7bd be2a 973d e633 a5bc 4d30 3d3d
000003b0: 21a1 883d 851e 463e 7ad9 ad3d 1169 a7bc
000003c0: 970c 19be 0c39 edbc 2aed d1bc 9504 c9bd
000003d0: b932 d0bd 82cf ea3c 5285 123d 1a09 02be
000003e0: 834b 6dbd d4ae 36bd 37bd 9fbd 73cb 20bd
000003f0: 12ed d73c 6aed 69bd 2820 823d ecbc 15bd

classifier.0.weight f4 [32, 64]
0.13103387 0.09489331 -0.10132298 -0.100244775 0.05325636 0.26671997 -0.07210897 -0.009482722
-0.23394586 -0.06253786 0.17327623 -0.19931501 -0.13094547 -0.03546794 -0.33214134 -0.0632974
0.041810848 0.43367097 -0.07770215 0.31537223 -0.21162969 0.15642495 -0.0070357816 -0.028674005
0.2634594 -0.02348203 0.049586568 -0.17926708 0.18100974 -0.12032685 0.1884998 -0.2416183
-0.4306709 -0.09096249 -0.087501064 0.038439166 0.1825411 0.3259478 0.1682695 0.2292389
0.03900862 0.1133461 0.07786321 0.21323292 0.59680665 0.03441864 0.07873808 -0.13292965
-0.027205953 0.19004808 -0.024561463 0.078595415 0.05661063 0.119378395 -0.04308774 0.16357045
0.19891392 0.086878434 0.02043359 -0.09183993 -0.14006014 -0.08384696 -0.38472754 -0.22354418
0.07356307 0.064978085 -0.28374165 0.07759261 -0.20093639 0.3670321 -0.23538575 -0.05417639
-0.087952316 -0.2604718 0.072975606 -0.6364745 -0.23971657 -0.073907875 -0.5582265 -0.123953834
0.08437005 0.45766944 -0.015865337 0.1565018 -0.16462855 -0.004386745 -0.20303439 -0.018123588
0.045412317 -0.03837281 0.14824425 -0.03416859 0.43085772 0.023329312 0.21187218 -0.18310848
-0.5277203 0.0233763 -0.04006266 0.025850553 0.088980794 0.42963803 0.15437937 0.061068848
0.2423515 0.011380594 -0.03064897 0.14997311 0.5144635 0.20396893 0.14886001 -0.041833155
0.107008405 0.10677095 -0.101254225 0.16692956 -0.041008245 -0.11252863 -0.020354992 0.1999438
0.072820455 -0.13094477 0.25664356 0.0017331135 -0.104991704 0.1764551 -0.2279716 -0.16184106
-0.0664662 0.21688655 -0.13327709 0.008845937 -0.10349224 0.2802818 -0.19845034 -0.1282105
-0.03617944 -0.024379116 0.18017769 -0.22813432 -0.054384146 -0.055134322 -0.37518024 -0.16910437
-0.021229422 0.31310517 -0.102206774 0.23026076 -0.11865752 0.14348392 0.07349958 0.02305799
0.21067818 -0.07555892 0.11215457 -0.044391762 0.2935997 -0.034079097 0.20721987 -0.2146666
-0.20734635 -0.091418214 -0.04468124 -0.06506165 0.18489516 0.20047861 0.14830668 0.15177786
-0.03741854 -0.12215929 -0.07044706 0.24202248 0.39327145 0.10971019 0.10735698 -0.029331336
0.065908425 0.28024018 -0.15881266 0.00034472076 0.022494791 -0.13476793 -0.00766365 0.1800996
0.144074 -0.16128674 -0.051619094 -0.08468484 -0.10564568 0.025836896 -0.36174145 0.0598082
-0.2447291 0.20928057 0.059915826 0.28802446 0.18124191 0.10666335 -0.099777326 -0.20979387
0.11496447 -0.12331421 0.10840218 0.3999278 0.19744022 -0.1542451 0.32669294 0.26554382
-0.2740796 -0.3949618 0.013698704 -0.40864226 0.05765995 -0.22124213 -0.28811398 -0.28666216
-0.04373295 0.19114345 0.15338203 -0.04577782 -0.17610641 -0.17851575 -0.067911915 -0.19551599
0.40364388 0.34302774 -0.2248735 -0.24968877 -0.14577864 -0.24839222 -0.03742287 0.052332234
-0.25491145 0.14529084 0.18301238 0.007717695 -0.518845 0.23126581 -0.24839315 -0.21391457
-0.050990365 -0.18027519 0.03502021 -0.2591884 0.11434522 0.26949358 -0.19772501 -0.06251759
-0.046163905 -0.15953867 0.31426576 -0.03350005 0.32224897 0.2943252 0.50429386 -0.029257055
00000000: be2d 063e 6c57 c23d 6c82 cfbd 224d cdbd
00000010: 5723 5a3d 858f 883e dead 93bd 6b5d 1bbc
00000020: 818f 6fbe d913 80bd 536f 313e 3c19 4cbe
00000030: 9216 06be d546 11bd 6e0e aabe 11a2 81bd
00000040: da41 2b3d 1f0a de3e 4e22 9fbd 7878 a13e
00000050: 74b5 58be dd2d 203e 6a8c e6bb bfe5 eabc
00000060: 27e4 863e 635d c0bc 491b 4b3d ca91 37be
00000070: 9e5a 393e ec6d f6bd 1706 413e ca6a 77be
00000080: e580 dcbe 8b4a babd c233 b3bd 6372 1d3d
00000090: 0eec 3a3e a1e2 a63e d74e 2c3e 9abd 6a3e
000000a0: 81c7 1f3d 0022 e83d bf76 9f3d bb59 5a3e
000000b0: 52c8 183f 8ffa 0c3d 6e41 a13d b61e 08be
000000c0: 05df debc f79b 423e 1f35 c9bc a2f6 a03d
000000d0: 8ce0 673d a97c f43d c57c 30bd 037f 273e
000000e0: 17b0 4b3e 52ed b13d 5864 a73c 9316 bcbd
000000f0: ed6b 0fbe f4b7 abbd 02fb c4be c4e8 64be
00000100: 3ca8 963d 3b13 853d 9646 91be e0e8 9e3d
00000110: 45c2 4dbe a2eb bb3e f608 71be 10e8 5dbd
00000120: 5820 b4bd 8f5c 85be 3c74 953d feef 22bf
00000130: 4378 75be 035d 97bd efe7 0ebf 82db fdbd
00000140: 34ca ac3d a653 ea3e 06f8 81bc 0242 203e
00000150: 6394 28be afbe 8fbb 3fe8 4fbe eb77 94bc
00000160: 4402 3a3d cf2c 1dbd 57cd 173e 5df4 0bbd
00000170: 6299 dc3e 1d1d bf3c 05f5 583e ca80 3bbe
00000180: ad18 07bf a87f bf3c be18 24bd 8ac4 d33c
00000190: 903b b63d 84f9 db3e a015 1e3e 5423 7a3d
000001a0: fe2a 783e ac75 3a3c 8c13 fbbc 8d92 193e
000001b0: e1b3 033f 3bdd 503e c26e 183e 3e59 2bbd
000001c0: 3927 db3d baaa da3d 605e cfbd 95ef 2a3e
000001d0: 43f8 27bd 6975 e6bd 83bf a6bc 11be 4c3e
000001e0: e422 953d 6316 06be c966 833e a429 e33a
000001f0: e405 d7bd a5b0 343e 6371 69be aab9 25be
00000200: 6e1f 88bd 8217 5e3e ca79 08be 8dee 103c
00000210: bdf3 d3bd 1981 8f3e 9136 4bbe 9d49 03be
00000220: e430 14bd b6b6 c7bc 8080 383e 0b9c 69be
00000230: e9c1 5ebd 87d4 61bd a017 c0be b229 2dbe
00000240: 53e9 adbc 524f a03e c951 d1bd 7ac9 6b3e
00000250: b702 f3bd 73ed 123e f386 963d 1ce4 bc3c
00000260: 05bc 573e a3be 9abd 4cb1 e53d 23d4 35bd
00000270: b352 963e 8696 0bbd 7231 543e 90d1 5bbe
00000280: 9a52 54be 7939 bbbd ad03 37bd 0b3f 85bd
00000290: 2855 3d3e 444a 4d3e b5dd 173e a86b 1b3e
000002a0: 2f44 19bd a62e fabd 8c46 90bd bed4 773e
000002b0: e05a c93e bcaf e03d fadd db3d 4548 f0bc
000002c0: fffa 863d a47b 8f3e c99f 22be a3bb b439
000002d0: ff46 b83c 9b00 0abe 5b1f fbbb 086c 383e
000002e0: 2288 133e 5a28 25be 8b6e 53bd 3f6f adbd
000002f0: c35c d8bd e6a7 d33c 2d36 b9be 71f9 743d
00000300: 449a 7abe a54d 563e 4c6a 753d f177 933e
00000310: 7b97 393e 5072 da3d 0e58 ccbd 34d4 56be
00000320: 7e72 eb3d 298c fcbd f601 de3d 56c3 cc3e
00000330: c52d 4a3e 6df2 1dbe 4c44 a73e 5cf5 873e
00000340: 2954 8cbe 6f38 cabe 8770 603c 8f39 d1be
00000350: d72c 6c3d 4c8d 62be ad83 93be 62c5 92be
00000360: 5221 33bd 1cbb 433e 2e10 1d3e 8681 3bbd
00000370: 3d55 34be d5cc 36be 6715 8bbd 5835 48be
00000380: 69aa ce3e 55a1 af3e 3d45 66be 6aae 7fbe
00000390: ff46 15be 885a 7ebe b948 19bd 535a 563d
000003a0: c183 82be 1fc7 143e 9967 3b3e b8e4 fc3b
000003b0: 07d3 04bf f2d0 6c3e c65a 7ebe 6c0c 5bbe
000003c0: 46db 50bd 0f9a 38be 5a71 0f3d 58b4 84be
000003d0: d42d ea3d 10fb 893e 6d78 4abe 3909 80bd
000003e0: 5d16 3dbd 1b5e 23be 71e7 a03e 5937 09bd
000003f0: d1fd a43e cbb1 963e 6719 013f 7eac efbc

classifier.0.bias f4 [32]
0.26791117 0.096492216 0.17591742 -0.07577507 0.024830181 0.04029853 0.05340763 0.17781208
-0.07792524 0.068960786 0.09363086 -0.14294042 0.20961471 0.23751222 0.272435 0.24150546
0.01429043 0.23069888 0.17401747 -0.07227509 0.1732273 0.23494317 0.286979 0.057670385
-0.009511536 0.26519504 0.25480226 0.14091602 0.24753626 0.11126583 0.1324132 0.1962243
00000000: a72b 893e b69d c53d b223 343e f62f 9bbd
00000010: aa68 cb3c 1210 253d f6c1 5a3d 5f14 363e
00000020: 4597 9fbd 503b 8d3d 89c1 bf3d f95e 12be
00000030: 3da5 563e 6736 733e 9a7c 8b3e 354d 773e
00000040: 6822 6a3c 543c 6c3e a331 323e f604 94bd
00000050: 7f62 313e f194 703e e9ee 923e c837 6c3d
00000060: 46d6 1bbc a5c7 873e 7175 823e 4a4c 103e
00000070: 257a 7d3e 57df e33d 5397 073e 06ef 483e

classifier.2.weight f4 [2, 32]
0.33751965 0.53345215 0.41397652 -0.4148531 -0.20697932 -0.39542305 -0.36786976 0.47669205
-0.54876685 0.1266863 -0.27096164 -0.052782044 0.44255015 0.2974312 0.23144491 0.4533176
-0.42633405 0.38394237 0.41715813 -0.36225876 0.33776873 0.5516858 0.21731442 -0.3110914
-0.4150958 0.45797628 0.2970893 0.36955285 0.3629094 0.4434945 0.29188812 0.27879912
-0.57514393 -0.6589335 -0.4044388 0.33798844 0.40387875 0.19274954 0.19095814 -0.48033333
0.2159719 -0.102505736 0.29060346 0.108408846 -0.32983884 -0.34428895 -0.55680096 -0.46222967
0.30356684 -0.33065954 -0.29193538 0.45740786 -0.18791384 -0.41607907 -0.48413673 0.30903038
0.28506675 -0.2770904 -0.4582466 -0.46696866 -0.51390624 -0.52992123 -0.36358234 -0.41911104
00000000: 60cf ac3e 5290 083f bbf4 d33e a067 d4be
00000010: 63f2 53be e474 cabe 6d59 bcbe fb10 f43e
00000020: fc7b 0cbf 0eba 013e 7cbb 8abe fc31 58bd
00000030: ef95 e23e e748 983e e5ff 6c3e 3f19 e83e
00000040: 7548 dabe 1894 c43e c095 d53e fb79 b9be
00000050: 06f0 ac3e 483b 0d3f ac87 5e3e 5f47 9fbe
00000060: 7087 d4be de7b ea3e 171c 983e 0836 bd3e
00000070: 43cf b93e b611 e33e 5c72 953e c2be 8e3e
00000080: a23c 13bf deaf 28bf 9a12 cfbe d20c ad3e
00000090: 32c9 ce3e 2360 453e 888a 433e 40ee f5be
000000a0: bd27 5d3e 87ee d1bd fac9 943e 7505 de3d
000000b0: a3e0 a8be a446 b0be 828a 0ebf 5ea9 ecbe
000000c0: 1d6d 9b3e 354c a9be 8e78 95be 5d31 ea3e
000000d0: 7c6c 40be 5108 d5be c5e0 f7be 3b39 9e3e
000000e0: 45f4 913e cbde 8dbe 4c9f eabe 8416 efbe
000000f0: 5c8f 03bf eba8 07bf 7727 babe b995 d6be

classifier.2.bias f4 [2]
0.12834173 -0.16992953
00000000: 046c 033e 0202 2ebe
