src/DARPA/pretrained/models/w100/resampled/phase_5.pth (torch, 194061 bytes, 8 tensors)

lstm.weight_ih_l0 f4 [256, 112]
00000000: bc46 b6be 979b b5bc 15b8 1fbe 3cd6 ab3d
00000010: 0b66 b73c c37d 43be 3c7c ab3b b3b7 e6bd
00000020: 62c6 5e3e 3ece 883d 78d6 d63d 9831 493e
00000030: 7179 cebd 7c79 febd 05c6 623e 46d9 503e
00000040: 352d 0f3f 3a1b f1bd 11d0 c93e b762 043e
00000050: 9058 1a3e ad10 44be 822e b13c 2660 6b3d
00000060: 59d4 083d 2523 8f3e 85da b6bd 8d72 53bd
00000070: 972a d03e 0631 96ba 0b38 9b3d 2c7d 21be
00000080: e589 30bd ff6d 953c 0125 6e3e 9a59 923d
00000090: 7973 d4bc f51b dabd c9ab 053e d989 a83e
000000a0: eb02 973e 671a 7bbd 12dc 4b3d 3f00 efbd
000000b0: dd7f 193d 0cde 8bbd 2902 87bc 13e3 a9bd
000000c0: da70 733d ff22 8dbd 5021 5bbc da88 09bd
000000d0: 0d98 db3c 9a6e 203e 9bc6 2d3c 14d4 923d
000000e0: e1a0 7fbc 372c 96bd a68e a23d fa07 553e
000000f0: 580a d73e 90d8 973e a541 753c 2d45 f33d
00000100: 082b cabd bf3b 31be a0d2 803e ca4f b03d
00000110: 2501 87bc 52b6 313e 26c3 923e e4eb 01bd
00000120: bf2c 223e e5c8 f93b 7af0 dbbd 24c7 adbd
00000130: 4902 aa3d 6e3d a23d 145a 813d 74af 2cbe
00000140: d6de 073e 294e f63d f565 603d ff76 813c
00000150: 9f54 babd 6221 3eba d05f ea3c a5ec 0cbe
00000160: 216c a0bd 9171 8fbd f45f 08bd 7851 a1bd
00000170: b087 98bd af76 6a3e eb35 36bc a5ed 3f3e
00000180: ca5d 4abd 97d5 c03c bb1b 093e b41b 5dbd
00000190: 5a26 b7bd b5b5 b3bd 3725 cabc 692a 873c
000001a0: 618e aa3d 6a87 833c 8bc8 e3bd ae45 b93b
000001b0: 49f9 ae3d 98f2 7c3e e6ac 863d 46cf ff3d
000001c0: df17 d039 c1dd 263e 9f25 903d 34bb 383d
000001d0: 43da 5e3d 8615 123d 849d a43d 8fb1 f2bd
000001e0: 55fe f1bd 4c2d 2d3e 0426 7a3c d254 833e
000001f0: b46c 993d aae1 2a3e baa2 863f bf01 253f
00000200: 2ac1 de3e 6c9f f6bc 413b c43d 31b1 9fbb
00000210: 1eb4 d2bd ee3b fe3d f348 75be 1187 6c3d
00000220: eb61 bf3f 1aee 8a3e 4e37 5bbd 7701 563f
00000230: 4a57 17be 6fa1 d3be d749 95bb 1ecf ea3d
00000240: 655a 4c3c 782c 2b3d ffd8 023e e228 a03d
00000250: 5adf a03e 20e5 35bd 1c9b bcbc e186 1a3e
00000260: 7640 933c 7d67 5dbd 937d 133d 93fb 933d
00000270: 385b dabb fcf9 b93d e819 d43d 7c92 e93d
00000280: 3315 973d bf67 903d 44ea a03d c675 debc
00000290: e4e3 41be 10f2 c73d 5bb9 a03d 365e be3d
000002a0: eff9 25bc b361 e43d a930 22be 6ee6 fdbb
000002b0: 929c fb3e d623 4a3e 4bda 6d3d 458a 8abd
000002c0: 56d9 c4bd 767c f2bc 9a31 783c 1d90 693f
000002d0: 0b28 50be 266f 323f cb12 efbc 3e61 4b3c
000002e0: f7b5 dc3d 8612 72bd 2148 003e 0032 503d
000002f0: c78a 80bb d337 19bd e587 173e 9db3 503e
00000300: 0342 9cbd f3fb e7bd 6871 023e 7d4e 80bd
00000310: 5ab8 a13d 2e97 c3bb 423b 79bc 7eb7 2e3d
00000320: f2b9 3a3f ca38 cabd cb6a b23d 735a d63c
00000330: 85b2 423e c2b5 863f 3d46 e93d ebf1 103f
00000340: 9b10 713c 26e5 c83d dabf 053d 561f df3d
00000350: 5656 473d 473b fe3d aafe 0a3e d754 743d
00000360: 111c ec3c ac0b 6e3d c4ff 863d a8d2 08bc
00000370: dd74 033e 43cb a1bb cf5e 473e a49b 2e3e
00000380: 5ee2 e43c 564f 363d 8fa7 4c3e 4480 ec3d
00000390: 077d 8d3c da2e 84bd 7cf5 143e 1513 1c3e
000003a0: 61ea 593e 27c9 82be f21a 3f3e efbb 2ebe
000003b0: ceb7 d5bc cd9b 8a3e 028c 163e d73f 513e
000003c0: f2f8 973d bc3f 563e 9e49 07bd d9eb e0bc
000003d0: ddfa 59bc e9ee 153b 7333 2d3d eba9 ab3d
000003e0: d197 833e d8f5 4e3c 6470 2dbe 8d21 d13b
000003f0: d951 623e 35ad 80bd 4e8f 7f3d 5be8 073f
-0.3560084 -0.022168918 -0.15597565 0.08390471 0.022387525 -0.19090943 0.0052333158 -0.112655066
0.21755365 0.066799626 0.104901254 0.19647825 -0.10081757 -0.12425515 0.22145851 0.20395383
0.55928355 -0.11772771 0.39416555 0.12928282 0.15072846 -0.19146986 0.021628622 0.05746474
0.033405636 0.279565 -0.08928398 -0.051622916 0.40657493 -0.0011458702 0.07579049 -0.15770406
-0.043100256 0.018240927 0.23256303 0.071459964 -0.025933968 -0.10649864 0.13053812 0.3291767
0.29494414 -0.061304476 0.049770422 -0.11669969 0.037475456 -0.068294615 -0.016480522 -0.08295264
0.059433796 -0.068914406 -0.013374642 -0.033577777 0.026805902 0.15667191 0.010606433 0.07169357
-0.015602321 -0.07332652 0.07937364 0.20803824 0.4200008 0.29657412 0.014969264 0.118784286
-0.09871489 -0.17307948 0.25160694 0.086089686 -0.016480038 0.17354706 0.2866451 -0.031719103
0.15837382 0.0076228254 -0.10739227 -0.08485249 0.08301217 0.07921873 0.06316009 -0.16863805
0.13268599 0.120266266 0.054784734 0.015803812 -0.090981714 -0.0007252899 0.02861014 -0.13762148
-0.07833124 -0.07004083 -0.033294633 -0.07876867 -0.07447755 0.22896837 -0.0111212535 0.18742998
-0.04940585 0.023539348 0.13389485 -0.053981498 -0.08942862 -0.08774892 -0.024675949 0.016499715
0.08327938 0.016055781 -0.11122235 0.0056540584 0.08543641 0.24701917 0.065759465 0.12490706
0.00039690637 0.1629553 0.07038426 0.045100406 0.05440737 0.035665058 0.08037856 -0.11850273
-0.11816088 0.1691181 0.015267853 0.2565065 0.074914366 0.16687647 1.051841 0.6445579
0.43506747 -0.030105315 0.09581614 -0.004873418 -0.10288261 0.124137744 -0.23953609 0.057745997
1.4951757 0.27134782 -0.05351954 0.83595985 -0.14779392 -0.41334102 -0.0045559215 0.11465286
0.012472724 0.041790456 0.1277809 0.07820298 0.31420404 -0.044407964 -0.02302318 0.15090515
0.017975073 -0.054053772 0.03600843 0.07225718 -0.006663706 0.09080884 0.10356504 0.11404893
0.0737709 0.07051038 0.078571826 -0.027155768 -0.1893459 0.09762967 0.07847854 0.09295313
-0.01013039 0.11151447 -0.15838875 -0.0077484166 0.4914289 0.19740233 0.05806951 -0.06764654
-0.09611766 -0.029600363 0.015148545 0.91235524 -0.20327775 0.6970085 -0.029183766 0.012413321
0.107768945 -0.059099697 0.12527515 0.050828934 -0.0039227935 -0.037406754 0.14797933 0.20381017
-0.07629778 -0.113273524 0.12738574 -0.062649705 0.078964904 -0.0059689498 -0.015211882 0.04265546
0.7293998 -0.09874113 0.087117754 0.026166176 0.19013412 1.0524218 0.1139035 0.5661914
0.014713432 0.098093316 0.032653667 0.10894649 0.04866632 0.1241365 0.13573709 0.059651222
0.028821977 0.0581166 0.06591752 -0.008351006 0.12837549 -0.0049375608 0.1946976 0.1705156
0.027939972 0.044509254 0.19985794 0.11547902 0.017271532 -0.06454249 0.1454677 0.15241654
0.21280815 -0.25544092 0.18662623 -0.17063878 -0.026088621 0.27071992 0.14701846 0.20434509
0.074205294 0.2092275 -0.03302919 -0.02745621 -0.013304439 0.0022877997 0.042285394 0.08382019
0.25701764 0.012631856 -0.16937405 0.0063821734 0.22101535 -0.062830366 0.062392525 0.5308892

lstm.weight_hh_l0 f4 [256, 64]
00000000: 5568 16bc 8aea 60be 1602 053e 9dd6 fe3c
00000010: bb82 29be ee3c 413e 73c2 a33d 2c4d 333e
00000020: 8ebd 98bc 0ee6 febd 6042 0bbe a9fd 10bd
00000030: a89e 00be dfb9 bb3d 63ae 8abe cde9 163e
00000040: 2e87 373e aeeb 22be dd34 3abe c9f2 18be
00000050: ba77 8bbe 5e60 e8bd a366 59be 6289 b2be
00000060: 3340 05bd 6093 a43c abc9 753e 2e84 313e
00000070: 63b5 49be 2910 c6bd 6f05 0bbd 5515 0bbe
00000080: 2a6c d03c 89d5 72be 0660 973e 41ad a03d
00000090: 9f7f 0cbe c6da 683e 8400 7f3c 1eb9 bdbd
000000a0: b99a fa3d 88fe 3ebd 8b0d 9cbe 072d 4a3e
000000b0: e955 0c3d 0b91 8cbd eb00 d5bc f4e8 813d
000000c0: 9425 5b3d 5ee8 263d 36ec 943d 1eed f83c
000000d0: 089f 523e 4f5e 34bd face 2bbd 937b 04be
000000e0: 32b6 303e 76f4 6e3e bb9e 8d3c 3108 74bd
000000f0: 4e51 383d eb3b 15be b5ce 6c3c bfb6 acbe
00000100: cdca 02be 0c4e ef3d 97f0 aebe b20b 243e
00000110: 0c40 bebe 623c 043e fb5b 2bbe 6ca9 09be
00000120: 8171 1fbe dfdc 27bd d743 0ebe 3d4f 693e
00000130: ab7f cabd c1d7 0c3d 0078 0fbe 5bb2 b9bd
00000140: 45a5 9c3d 3c07 d43d 9266 99be 1fd4 4cbe
00000150: 4fc9 b73d ff0f 15be ac43 ae3c 745b f3bd
00000160: 2036 1e3e 72ad 703e 6673 3c3c 1258 78bc
00000170: 7922 d33c e08d a5bd 20c3 cfbc a6fc 473c
00000180: e4f0 0fbd 6021 90bd 3b85 b73c 71b7 2c3e
00000190: 8986 b5bc cadb 703e 74bb 4dbe 0d85 20be
000001a0: 7a99 9abd 978d 15be 982a 853d dfda 303e
000001b0: 66ba 27be 5389 6cbe 21c4 18bd 1ac6 b3bd
000001c0: 125e f53d 2594 bfbe 448c 6cbd 62fe 483e
000001d0: 48d3 4f3f 71d8 b73e c152 a73e 94d1 973d
000001e0: de43 10bd 1e6e 0cbe 7170 e53e 26dc 0f3e
000001f0: c2df 143f 3d70 6bbc 750c a93d c59f aa3c
00000200: 9c84 a23c 0e9d 853e 9190 2b3d 9650 36ba
00000210: f7b6 b1bb 23d1 dfbd 2eeb 953d c3af a1bd
00000220: a443 973d a753 d1bd 7fc6 30be fbd3 6f3e
00000230: fe7c d8bd 6d75 88be 5f8d 4dbc 5ed9 e2bd
00000240: 2d2d cfbd f0b7 913d cd35 2c3b 05e6 da3d
00000250: ffb3 b9be b894 ab3e 568d 7f3d eac9 93bd
00000260: 51f8 863d 59c4 e53d af94 5bbe 36af 873d
00000270: 4163 c93d 0a18 523e a618 15be f1a9 a43d
00000280: f76c b43c 6df7 ccbd 078c 0fbe 3da4 0bbd
00000290: af0a 1fbd 322d 02be a9d3 bb3d f530 2bbe
000002a0: eef3 1b3e 53dd fdbd ee42 483e bafd 253e
000002b0: 6cb5 ef3d db0d 97bd 3adc 82bd ea4a 1e3d
000002c0: cb59 25be 5fe5 65bd e75f c23d 741d 79be
000002d0: 3ac7 4cbd ac05 e0bd ee8f 47bc 7ffc 01be
000002e0: 1912 563e cb5c 81bd 1020 afbe 8fcf 313e
000002f0: 7019 033d 5815 1a3e cccd 973e a03e 34bd
00000300: bf92 60bd bc69 c23d 66b0 1b3d 9d8e 493e
00000310: 729b f3bd 7b12 c33d 47e9 1dbe 333d 4a3d
00000320: a370 e5bc ac65 edbd 8f72 c1bd c221 363e
00000330: 1498 cbbc 2318 983d 35c2 043e 0879 f0bd
00000340: 5012 1dbe 9c89 553d 8e74 d9bc fa1d a9bd
00000350: d122 293d 3e77 88bd 64b4 b2bd 8596 aabd
00000360: 4f2e 163d e653 333d be6b 45bd feba f7bd
00000370: 1b9f d73d 6432 aabc c8d3 4dbd de46 19bd
00000380: a2fa b23c b787 85bd e4dc 56bc 61e2 f73d
00000390: 01c4 bb3d bebc 5f3d 1252 123d 3d5a 88bd
000003a0: eea0 393d dfd3 4cbd 6a3f ee3d 855f 0c3e
000003b0: 559e cdbd f732 393d ac0e f3bd 2c1b a6bc
000003c0: 90b6 d1bb 6b79 30bd 4032 c2bd deca af3d
000003d0: 9fef 96bd a264 1abc d245 033e d45e 053e
000003e0: 81c8 0b3d 6162 09be 1c4a 583d 7b22 893d
000003f0: 2a84 5ebd 6f3d 2b3e 6e41 65bd ae27 0e3c
-0.009180148 -0.2196447 0.12989077 0.031108195 -0.16553776 0.18870899 0.079960726 0.17509907
-0.018645074 -0.12446223 -0.13599539 -0.03539816 -0.12560523 0.091663115 -0.27086172 0.14737625
0.1792266 -0.15910217 -0.18184228 -0.14936365 -0.27239782 -0.113465056 -0.21230559 -0.3487044
-0.03253193 0.020089805 0.24002711 0.17335579 -0.196981 -0.09671051 -0.03394073 -0.13582356
0.025442202 -0.2371427 0.29565448 0.078455456 -0.13720559 0.22739705 0.015564088 -0.09263824
0.12236542 -0.04662946 -0.30479082 0.19743739 0.034261618 -0.06863602 -0.026001414 0.063432604
0.053502634 0.040748946 0.07271616 0.030386504 0.20568478 -0.044035252 -0.041945435 -0.12937765
0.17257002 0.23335442 0.017287603 -0.059578124 0.044999413 -0.14573638 0.01445358 -0.33733174
-0.12772675 0.11684808 -0.3416793 0.16020086 -0.3715824 0.12913659 -0.16734307 -0.13443536
-0.15570642 -0.040982123 -0.13893066 0.22784133 -0.09887632 0.034385446 -0.1401062 -0.09067222
0.0764871 0.10352942 -0.29961067 -0.20002793 0.089739434 -0.14556883 0.021272503 -0.11882678
0.15450335 0.23503664 0.0115021225 -0.015157716 0.025773274 -0.08083701 -0.025361598 0.012206232
-0.03514184 -0.07037616 0.022402396 0.16866852 -0.022158878 0.23521343 -0.20091039 -0.15675755
-0.075488046 -0.14604793 0.06502265 0.17270993 -0.16379699 -0.2309926 -0.037296418 -0.08778019
0.11980833 -0.37417713 -0.057750955 0.1962829 0.81181765 0.3590732 0.32680324 0.07413021
-0.035220973 -0.13713881 0.44812348 0.14048824 0.5815393 -0.014370021 0.08254329 0.020828137
0.019838624 0.26096386 0.041885916 -0.0006954757 -0.0054234224 -0.109285615 0.073202476 -0.07894852
0.07385948 -0.102210335 -0.1726322 0.23420708 -0.10570715 -0.2665209 -0.0125459125 -0.11076616
-0.101160385 0.071151614 0.0026277185 0.10688404 -0.3627014 0.335119 0.062390648 -0.072162464
0.06590331 0.11219091 -0.21443437 0.06625216 0.09833384 0.20516983 -0.14560184 0.08040226
0.022024615 -0.1000813 -0.1401826 -0.034092177 -0.038828548 -0.12712553 0.0917123 -0.16717894
0.1522977 -0.1239573 0.19556782 0.1621007 0.11704525 -0.073756896 -0.06389661 0.038645662
-0.16147535 -0.05612695 0.09490948 -0.24327642 -0.049994685 -0.10938582 -0.012180312 -0.12693976
0.20905341 -0.06316527 -0.3420415 0.17364334 0.03200668 0.15047204 0.29649198 -0.044005036
-0.054827448 0.094928235 0.038010024 0.19683309 -0.11894883 0.09525009 -0.1542102 0.04937477
-0.028007811 -0.11591658 -0.094456784 0.17786315 -0.02485279 0.07426479 0.12964709 -0.11741835
-0.15339017 0.052133188 -0.026544835 -0.08257671 0.04129297 -0.06663369 -0.08725813 -0.083294906
0.036665257 0.043781184 -0.048198454 -0.12096213 0.10528394 -0.020775981 -0.0502508 -0.0374211
0.021848027 -0.06520026 -0.013114188 0.12103725 0.09168244 0.054623358 0.0357228 -0.066578366
0.04531949 -0.050006744 0.11633189 0.13708313 -0.10039965 0.04521462 -0.11868033 -0.020276628
-0.006399937 -0.043084543 -0.09482241 0.08583616 -0.07369923 -0.009423407 0.12819603 0.13024455
0.034126762 -0.13416435 0.05280505 0.0669603 -0.05432526 0.16722654 -0.0559706 0.008676453

lstm.bias_ih_l0 f4 [256]
00000000: b03c 4cbd 782e 8b3d 48ca c8bd 2559 bf3d
00000010: 5ef0 283d 0144 eb3d 2312 453e 9cbe 493d
00000020: 6e02 263d b076 36be 556c 1a3e 691a 193e
00000030: 25df 26be 9266 2a3e 4be2 1a3d ca06 4cbd
00000040: 3d63 83bd 3618 583e 0945 24be b732 053e
00000050: 55c2 5bbe 7c14 8c3e 1f66 2e3d 8f66 0d3e
00000060: 4bbc 153d ef4f 263e cf77 a33d 3b69 1cbd
00000070: 73df c53d e977 f4bd c231 553c 50c1 323e
00000080: 6735 1d3e dccd 873e 71f1 403e 9587 393e
00000090: dea6 f23d 2564 37bd d68e 203e fdeb b03d
000000a0: 63be 8b3d 0b5f 823e f765 643e b942 113e
000000b0: b17d 263e 9aee bb3d b99b b43d 9486 3abe
000000c0: 0a75 a43e 967e 5c3d 0c9b 1a3c c560 32bd
000000d0: c4bd 273e f6d9 a23c af2a b7bd 0705 4fbd
000000e0: 8eb5 823d 1a07 7cbd 6909 f63d d622 4cbe
000000f0: fab6 f23d 1f5f 06be 543d 2a3e 2042 2f3e
00000100: f658 4dbe abb6 183d 40dc f03b f7ba 3b3e
00000110: 4622 f0bd 4652 62bd ec52 973d 061f b23d
00000120: ad85 39bd ea99 e9bd 2bb9 4b3e 4930 4c3e
00000130: 2dfc 71bd 87a9 293e 4bf7 b4bc 5ab9 873c
00000140: 02b9 533d 20a6 523c 0f93 3fbb 8bd7 e33c
00000150: 6a6c bc3d 91f0 263d f702 013e 16a2 383e
00000160: afb1 3cbc f74f 443c 71b9 083e a15b a3bd
00000170: 4d54 be3d 8309 353d 915c 89bc f5b9 23be
00000180: 9eee a63c ad6c 7e3c 53c5 d4bc fcdf 713e
00000190: 65ee 4d3e e755 febd 9741 38be 6323 b53d
000001a0: c9c3 0e3e 8b3c f63d 80d2 b43d 28b3 143e
000001b0: 5178 923d 7759 283d a0ca bf3d bf0f 773d
000001c0: f4ff 24bd 0306 0e3e cb9e 1d3e ea28 8cbd
000001d0: a402 5c3d ee01 343e 47b5 7a3d 3c5f 01be
000001e0: 4e8b 873d 8163 0a3e a075 263e 6f1c 0bbe
000001f0: ecab 263d aee1 eabd 3354 3cbe f99a 89bd
00000200: 2f5c a93d cc66 d33d 8596 3fbe cb2d 373e
00000210: 8c32 d53d aa07 863c 72b8 193c 7b94 c1bd
00000220: 5689 563d 97c5 17be 40c2 7d3d a997 0a3d
00000230: 65e8 923d 1acd 52be 9eb6 303d 4b94 923d
00000240: f07f 64bd eac6 5e3d ad96 08be 7dad 8bbd
00000250: 8af7 b8bd c17b 2b3d bd49 b3bb 8558 843d
00000260: 89c9 6e3d 0486 97bc 0431 84be 3efb 9b3c
00000270: ce07 2c3e bd16 2fbd d3c9 62bc ebc4 2a3e
00000280: 901a 2dbd f709 023e 30be f5bb 572d 133d
00000290: f028 6d3d ff33 a33d 9ead 00bc b186 22be
000002a0: 6422 12bd 9b52 ecbb 21ab 4a3d 7cf2 973d
000002b0: 2dd7 7f3c f810 ccbc aada b1bd 9c4e 33be
000002c0: fed2 14be 13c4 cbbd 657a f5bd 39d7 21bd
000002d0: 8c96 203e 50a1 5f3d 32bd 453d 41be ee3d
000002e0: d9c0 c5bd b0d0 afbd ec3c eebc 698c afbd
000002f0: d3b6 9cbc 558a 29bc 72e7 2d3e ff88 e93d
00000300: 3af6 b4bd 20f8 2f3e da40 ddbe 496f 86be
00000310: f630 d2bd d159 24bd 1006 7fbd 879a 00be
00000320: 2346 ba3d 48ee 1fbe c07e ffbd e11e a1be
00000330: bcdd 3dbd 3c92 c9bd 7db7 0abe 3ed3 a3bd
00000340: 86d4 0d3d cac1 353c 2b0a 70be a56b a2bd
00000350: 0f02 0b3e a071 c83d 73e6 26be 5ca2 063e
00000360: 7ade abbc 2511 bebe 5496 893d 18dd d03d
00000370: d7c8 1dbe 64f4 fcbd c078 48be 547e 1f3e
00000380: 0b69 0d3e 430c 08be 5b62 9eba 75a9 4cbe
00000390: 3ab1 65be 417f 1aba e874 033e c2ca 26be
000003a0: 26c6 77be f23f 863e a881 a8be 0bcb 92bd
000003b0: 3366 54be bc5c d4bc 1a29 edbd ca3f aa3d
000003c0: faff 1d3e d924 7dbe ff77 e0bd 9768 b73d
000003d0: ac23 fdbc ca22 87be de8c 6d3e 88ca e9b9
000003e0: d214 11bd 2219 253e f173 0b3e efd5 0dbe
000003f0: e24b 0e3e dcbe e23c 2266 00bc a8ff 3f3e
-0.049862564 0.067959726 -0.09804207 0.09343175 0.041244857 0.1148758 0.192452 0.049254045
0.04052966 -0.17818713 0.15080388 0.14951481 -0.1629606 0.1664069 0.037813466 -0.049811162
-0.064154126 0.21102986 -0.1604196 0.13007627 -0.2146085 0.27359378 0.04257786 0.13808654
0.036556523 0.1624143 0.07981836 -0.038186293 0.0966176 -0.119369335 0.0130123515 0.17456555
0.15352403 0.26524246 0.18842103 0.18118127 0.11848234 -0.04477324 0.15679488 0.08638761
0.06823423 0.25463137 0.22304522 0.14185609 0.16258885 0.09176369 0.08818764 -0.182154
0.32120544 0.05383166 0.00943638 -0.043549318 0.16380984 0.019879322 -0.08943688 -0.050541904
0.06382285 -0.06153021 0.120135136 -0.19935164 0.11851306 -0.13122223 0.16624957 0.17115068
-0.20053467 0.03728358 0.0073504746 0.1833304 -0.11725287 -0.055254243 0.07388863 0.086973235
-0.0452935 -0.1140631 0.19894855 0.19940294 -0.059078384 0.16568576 -0.022090575 0.016567875
0.05169011 0.01285699 -0.002923194 0.02781274 0.09200366 0.040756766 0.12598787 0.18030581
-0.011516972 0.011981956 0.1335199 -0.07976461 0.09293423 0.044198524 -0.016767772 -0.15988906
0.020377453 0.01552884 -0.025972998 0.236206 0.20110472 -0.12418728 -0.1799377 0.0884464
0.13941874 0.120232664 0.08829212 0.14521468 0.07151855 0.041100945 0.093648195 0.06031775
-0.04028316 0.13869481 0.15392606 -0.06843741 0.053713456 0.17578861 0.061208036 -0.12633985
0.06618367 0.1351452 0.16255808 -0.13585065 0.0406913 -0.11468826 -0.18391494 -0.06719012
0.08269536 0.10322341 -0.18709762 0.17888562 0.10410032 0.016361076 0.009382354 -0.094521485
0.052377068 -0.14821468 0.06195283 0.03383604 0.07173232 -0.20586053 0.043142907 0.07157191
-0.055786073 0.054388918 -0.13338728 -0.068202 -0.09031589 0.041866068 -0.005471437 0.06462196
0.058297668 -0.01849652 -0.25818646 0.0190407 0.16799852 -0.042746294 -0.013842064 0.1667668
-0.04226166 0.12699114 -0.0074994788 0.03593191 0.05790037 0.07968902 -0.007853894 -0.15871693
-0.03567733 -0.007211996 0.049479607 0.07419297 0.015615267 -0.024910435 -0.08684285 -0.17510456
-0.14533612 -0.099495076 -0.119862355 -0.039511893 0.15682429 0.0545972 0.048276134 0.11657382
-0.096559234 -0.08584726 -0.029081784 -0.08571703 -0.019130146 -0.010347922 0.1698282 0.11403083
-0.088360265 0.17184496 -0.4321354 -0.2625678 -0.10263245 -0.040124718 -0.06226164 -0.12558948
0.09095409 -0.15618241 -0.124753475 -0.3146887 -0.04635404 -0.09842345 -0.13546558 -0.079992756
0.034626506 0.011093566 -0.23441379 -0.07930688 0.13575004 0.09787297 -0.16298847 0.13147873
-0.020980109 -0.37122455 0.06718126 0.1019842 -0.15408646 -0.12351301 -0.19577312 0.15575534
0.13809602 -0.13285927 -0.0012083756 -0.19986518 -0.22430888 -0.0005893596 0.12837565 -0.16288283
-0.24196681 0.2622066 -0.3291142 -0.071676336 -0.20742111 -0.025923125 -0.11580105 0.08312948
0.15429679 -0.24721088 -0.109603874 0.08955496 -0.030900799 -0.2639373 0.23198268 -0.0004459212
-0.035420246 0.16122869 0.13618447 -0.1385114 0.13896134 0.0276789 -0.00783685 0.18749869

lstm.bias_hh_l0 f4 [256]
00000000: fade 013e 269c e03d e55c f33c 2392 853d
00000010: 1944 3a3e c806 0f3e 3889 823e 66e8 453e
00000020: 2cd1 20bd 2b73 14be 1469 6f3d c2ac 96bb
00000030: 32f3 f2bd 5fd2 a73d 717f 08be 06e6 1cbd
00000040: 7614 8bbb 36e2 313e 54ae efbc 7512 e23d
00000050: d9c0 e2bc 7216 d43e f4f8 25bd 1afe 19bd
00000060: 1870 3abc 4259 163e a7f5 91bc c2dd 27bd
00000070: 49e9 593e 3831 0bbd c94f 86bd a197 7f3e
00000080: 0a92 513e dc52 c03d 85a6 613d 0b33 6f3d
00000090: 9399 243e 5c2b 873d 2d60 ef3d 02f4 5c3d
000000a0: b6e5 663e 7b00 053e 1509 493e e102 823d
000000b0: cd9f dc3c 54eb 2dbd 1d93 903d 5e7e 13be
000000c0: 9f70 773e 19ec 0cbd 7730 3abd eb7c 2b3d
000000d0: cee2 b63d 2ad0 703d 6279 c9bd 0488 40be
000000e0: e70a a3bc e5d7 d1bd 8c20 503e bbc6 babd
000000f0: 1425 393e 12fb cebd 71ca a93c 7432 453e
00000100: aa13 a3bd d3f2 6f3c a813 1cbe 254b 7c3d
00000110: 81ad d9bd 94dc c13c e4df 993d 7232 943d
00000120: 175d 4dbb 92dd fabd dd2c 5a3e bf60 b23d
00000130: 6a0b 4fbe c75e 323e e364 003e fdb8 aabd
00000140: 59e3 303e 0bc1 a53d 65a0 0abd 55fb a8bd
00000150: 7ed1 d53d 7f97 dd3d f9ca 0bbd 9bbe 183d
00000160: e357 d83d a35a 6fbd 33f9 cd3d 77ce d9bb
00000170: e84a 34bd 5f97 89bc b585 c6bd 0dbe 1dbe
00000180: c8d8 1cbe ed26 06be af51 b9bd 3c70 b23d
00000190: bb8a 8a3e 486a 3abd b53c ebbd 9bf2 4d3d
000001a0: 8b43 193e bdb1 c53c 6791 adbd e597 c33d
000001b0: 91c2 cb3d 585f 003e 73af 8dbc 73e2 45bd
000001c0: 6858 243e db34 0a3e b572 213e 8b9f 1ebe
000001d0: 5249 063e 74a7 923e ac13 103e 5171 e23d
000001e0: 7733 3d3d 5886 7d3d 5f33 563d 1418 cebd
000001f0: 4f69 1b3e f696 053e 510c 5cbe ce51 643d
00000200: c5be 893d 75b7 323a 1bc8 383d 195e da3d
00000210: 8151 723d 355c d43d d347 8e3d 6d1a 76be
00000220: 3099 843c 9c4f 1cbd 5a3a ca3b 473d c23d
00000230: c136 bc3d 4702 02bd 5aa9 c63d b190 5bbd
00000240: 988b 21be 768c 763e fb03 13be 732a 81bd
00000250: 533a 933d 55a4 283e 3321 1fbd 557a d5bd
00000260: 6a39 813d 0228 a1bc d784 8abe 173c 023d
00000270: b855 753e 6f27 a33d 46c2 adbb 91a9 f13c
00000280: 5b15 b33c d213 50bd be07 7a3d 35c6 c63d
00000290: ddc8 1b3e d798 ff3d e98d 5d3c ac0b 91bd
000002a0: bba5 ff3d caf3 81bd e41f 183e c458 893d
000002b0: 77f2 2cbd 14b1 d53d 10f0 663d 270b 97bd
000002c0: 2c05 1fbe 35f0 15be 1bfe 82bd 0a4f 07be
000002d0: e6e8 973d f3d0 003e d22a 933d fbd2 9d3d
000002e0: 9897 3cbe f899 33be 1988 b03d 2e2e da3b
000002f0: ca8c af3c 6167 523c 376a d93d 5f3c 2bbd
00000300: 62a1 e1bd 983d 373e 0682 aabe 6b53 83be
00000310: 4f14 333c 9678 87bd 353f 2fbd 9dd2 36be
00000320: 5b5f abbd d6e4 4bbd 5943 31be f9eb a4be
00000330: 4f4e 71bd 18c0 12be 231b a83d 56cb f2bd
00000340: 2cfd 62bd beb7 8bbd 2bcd 1abe 0d8d d43b
00000350: 3754 463c 3edd 0b3c 41f9 aa3c 003b 173e
00000360: efd7 1bbe bdba 01be cc2b 4abd 5239 c3bd
00000370: 1b73 22be b5ef d5bc 9af5 62be f8ef 843c
00000380: bf50 bd3d 90cb 83be 7369 23bd 13df 64be
00000390: 0aa6 51bd 4fb2 173c 2077 cdbd d6ba a4be
000003a0: 8f47 a8be a293 023e 7ad9 e0be 6ce5 0fbd
000003b0: 9502 76be d0f7 833c e589 56be 163d 9cbd
000003c0: 8e54 0b3e b9b5 acbe 6fc3 c6bd 7482 f03d
000003d0: 6be1 83bd bda9 7cbe 4473 553e ec9c 493b
000003e0: ee40 21bd a901 12bd 3b58 923e 0c20 31be
000003f0: 6ff6 cf3d 071c 803d 6663 3cbe 2c4b 063e
0.12682715 0.10967283 0.029707382 0.06522014 0.1819004 0.1396743 0.25495315 0.19326934
-0.03926198 -0.14497058 0.05844982 -0.004598231 -0.11862792 0.08194422 -0.13329865 -0.038305305
-0.0042443825 0.17371449 -0.02925793 0.11038677 -0.027679848 0.41423374 -0.040520623 -0.037595846
-0.011379264 0.14682487 -0.017817331 -0.04098297 0.21280397 -0.033982486 -0.065581866 0.24960186
0.20465866 0.09390804 0.055090446 0.058398288 0.16074209 0.06600067 0.11688266 0.05394364
0.22548565 0.12988465 0.19632371 0.06348205 0.026931668 -0.042460755 0.0705931 -0.14403674
0.24164055 -0.034404848 -0.045456376 0.041867178 0.08929978 0.05879227 -0.09837605 -0.18801886
-0.01990266 -0.10246257 0.20324916 -0.09119936 0.1808055 -0.101064816 0.020726414 0.19257528
-0.07962735 0.014645296 -0.15241873 0.0615951 -0.10628796 0.02366475 0.07513407 0.07236184
-0.0031336003 -0.122492924 0.21306176 0.08709859 -0.20219198 0.17418967 0.12538485 -0.08336065
0.17274226 0.08093461 -0.03384437 -0.08251063 0.10440348 0.10819911 -0.034129117 0.03729115
0.10563638 -0.058436047 0.100572966 -0.006646927 -0.04401675 -0.016795812 -0.09693471 -0.1540453
-0.1531707 -0.13100787 -0.09048783 0.08712813 0.27058968 -0.045511514 -0.11486188 0.050280195
0.14967172 0.024132604 -0.08474999 0.09550456 0.0994922 0.12536371 -0.017295575 -0.048311662
0.1604935 0.13496725 0.15766414 -0.15490548 0.13113907 0.28643382 0.14070004 0.1105677
0.04619166 0.0618957 0.052295085 -0.10063186 0.15176891 0.13045868 -0.21489073 0.055742078
0.067258395 0.00068174984 0.04511271 0.10662479 0.05915976 0.103691496 0.06947293 -0.24033518
0.016186327 -0.03816186 0.006171507 0.09484344 0.09190131 -0.031740453 0.0970027 -0.053604785
-0.15775907 0.24077019 -0.14356987 -0.06306925 0.07188859 0.16468938 -0.03885002 -0.104237236
0.06309779 -0.019672398 -0.27054474 0.031795587 0.2395848 0.07966506 -0.0053027 0.0294998
0.021860769 -0.050800152 0.06104254 0.09705774 0.15213342 0.12480324 0.013522604 -0.07082304
0.124827825 -0.06345327 0.14855915 0.06706384 -0.04222342 0.104341656 0.056381285 -0.07375174
-0.15529317 -0.14642413 -0.06396123 -0.13213745 0.07417469 0.12579708 0.07185902 0.07706257
-0.18417203 -0.17539203 0.086197086 0.006658337 0.021429438 0.01284203 0.10615962 -0.04180562
-0.110171095 0.1789459 -0.33302325 -0.2564958 0.010930135 -0.06614797 -0.04278489 -0.1785378
-0.08367797 -0.04977878 -0.17310847 -0.32211283 -0.05891257 -0.1433109 0.08208301 -0.118551895
-0.055417225 -0.068221554 -0.15117328 0.006486541 0.012105039 0.008536635 0.020870807 0.147686
-0.15219091 -0.12668891 -0.049358174 -0.09532417 -0.15864222 -0.026115278 -0.22164002 0.016227707
0.09243917 -0.25741243 -0.039895486 -0.22350721 -0.051183738 0.009258821 -0.10032487 -0.32173795
-0.32867095 0.1275163 -0.4391592 -0.035130903 -0.24024422 0.016109377 -0.2095104 -0.07628839
0.13606474 -0.33732393 -0.09705245 0.11743632 -0.064394794 -0.24674125 0.20844752 0.0030763699
-0.039368562 -0.035646114 0.2858294 -0.17297381 0.10154425 0.06255346 -0.18397292 0.13114613

classifier.0.weight f4 [32, 64]
00000000: 0e82 80bd b3fd 9f3e f266 afbd f5ed 5fbe
00000010: 4dd5 13be 686e debd 9c16 b23d 0bfe fb3d
00000020: f37c 0dbe 836f f3bd 5f42 dbbd 3daf 133e
00000030: ca4a 5abe 9876 16be 0d90 7dbe a9b2 79bd
00000040: d960 e8be b2b9 6e3e d768 483e cb2f a1bd
00000050: 3510 fbbe 42ac 103e 4206 463e 9387 ae3d
00000060: e898 02be d702 0cbd f2bb 24bd e804 34be
00000070: 8d6c 9b3d cbd0 5ebe 7931 0b3e de17 473d
00000080: f80f 61be d023 103e 46c3 a3bd b5fe 10be
00000090: 2944 ba3c 8a2c e13b dfeb 47be e9e1 7d3e
000000a0: 7322 4fbc 5b90 f9be cb21 fa3c 5dcc 89bc
000000b0: db04 273d 8487 443d d7b5 d33c 4be1 b13c
000000c0: 1e9d 26be 18f9 373e 0ea3 03be ff08 89bd
000000d0: 3fab d3be a6c8 87bd 5ca0 a5bb 865c a63e
000000e0: 9da3 5b3d e174 12bd 71bd debc 9d51 ee3e
000000f0: 3d49 c6be 93af 9c3e e484 623d 6275 78be
00000100: a2e9 1bbe 1084 8bbe df3b 75bc 1253 f43c
00000110: 0839 20be 05e9 803e e657 473d a7fb 003e
00000120: 8a7d 7cbd 2012 933d 418d 6abc 9db7 c8bc
00000130: 8b2b 50bd 720a cd3d 7d78 c0bc f636 b23d
00000140: ff1e 9dbd f6de 18bd fdc4 f4bd 8a19 2bbe
00000150: ab59 5bbd 89eb 26be 8f24 05be 24d1 16be
00000160: 9f85 d6bd 6db6 0d3d 5a55 a1bc b0b9 3abe
00000170: e6b0 e73d 3898 f7bd 8eb5 523e fe41 a1bd
00000180: 6236 693e 9388 983b 8c7c 25bd 15eb 983c
00000190: b810 a03c 35f2 0b3e 6eba ba3d fbfb 363d
000001a0: 2f29 16bd 59e1 ac3e 516a 173e d258 083e
000001b0: bd23 8bbe f44b fcbc 75d5 54bd 8814 4e3c
000001c0: 0040 1c3e 095f 213e d86e 06be 6e62 573e
000001d0: af24 ce3e 45c7 353e 5ad1 4d3e ae88 f0ba
000001e0: d110 7cbe e2c6 c0bb 8b9a a93e 5f4d 5abe
000001f0: 6835 8d3e 3bf6 25bd 0200 2fbe 6575 2cbe
00000200: 1e5a 14be 83c6 0bbe 0b7e 32bc 13dc f23d
00000210: 09d9 6cbd e3a5 8f3e c7ed 98bd 2bb5 2fbd
00000220: 7fad 60bd 2c06 183e aab4 0ebd 59ef afbc
00000230: 77ce 70bd fdbf 51bd c0d3 2a3b 53f7 183e
00000240: 5cee 8abc b40b c8bd be9b 9fbd d668 88be
00000250: 0c82 b5bd e0f2 85be bb65 39be 233a 52be
00000260: 7f00 d8bd cfa5 3c3e 2266 ae3c 9c8a 2cbe
00000270: bc36 443d ac2c 83be 7d9e f43d 98a4 43be
00000280: f9de 7a3e ac5d c0bd 6ff7 ae3c 812f 6f3d
00000290: 942b 9a3d 44e4 883e c4f4 383e 0e3d 4c3d
000002a0: b78e 0fbe 5b2e 7b3e c37e f0bc bf43 603e
000002b0: 94ba 8abe af2c 4c3d 539d 9b3d fa31 07be
000002c0: e94a 7a3e 50da 4d3e 53c6 36be fbf0 303e
000002d0: 09da 833e 85cf 273e 3455 993e db0b a6bd
000002e0: d094 4cbe 678c 15bd af76 943e 3715 9ebe
000002f0: 6ed1 fc3d 0abd bdbd c785 31be f34d 35be
00000300: 079e e0bd efeb 81be cc47 e5bd 6182 fbbd
00000310: 1e3c 27be 47d5 3a3e ac1f c7bd f80f abbd
00000320: a42e 17bd f89f 7cbd 6300 d1bd 90c6 193d
00000330: 0b67 d33c b689 8c3d 7cc1 f6bd cb39 803e
00000340: 279d 8ebd 98da 3fbd 7d91 8abe 8753 86be
00000350: 12a2 38bd cec0 90bd d161 69be bcaf 01be
00000360: d72c a8bd 041d 193e a38b a6bc 1e26 debc
00000370: f1d7 35bd fbae 9abd 48bf ec3d 0868 12be
00000380: 3d8e 303e bcce 333d 5b96 a63d af32 c23d
00000390: 9924 313d e3c1 973e 24e6 6d3e 538d bebc
000003a0: ad16 7dbd 1ccc be3e db07 c2bb d5af 403e
000003b0: db52 9abd 86e4 28be 9614 9bbc 6fca 2dbe
000003c0: 42dd a93e 86ad 663e 4b1d 7cbe eb3f 633e
000003d0: 37ec 823e f44d c33d 0c7e 9a3e df25 883c
000003e0: dfe4 a3be bbcc a7bd 7e2b 523e a65e b9be
000003f0: c957 a33e d4ad 09bd cf62 043c 93e3 8abe
-0.06274806 0.31248245 -0.08564557 -0.21868117 -0.14436837 -0.10860902 0.08695719 0.12304314
-0.13817196 -0.118865035 -0.10706019 0.14422317 -0.21317592 -0.14693677 -0.24761982 -0.0609614
-0.4538639 0.23313025 0.19571243 -0.07870444 -0.49035802 0.14128211 0.19338325 0.085219525
-0.12753642 -0.034182396 -0.0402183 -0.17579997 0.07589064 -0.21759336 0.13593091 0.048606746
-0.21978748 0.14076161 -0.0799623 -0.14159663 0.02273758 0.0068717645 -0.19523571 0.24793209
-0.012642491 -0.48742947 0.030533692 -0.01682108 0.040776115 0.0479808 0.025843544 0.021713873
-0.16270873 0.17966115 -0.12855169 -0.06691169 -0.41341588 -0.066300675 -0.0050545167 0.32492465
0.05362283 -0.035755996 -0.027189942 0.4654664 -0.3872775 0.30602702 0.055302516 -0.24263528
-0.15225843 -0.27249193 -0.014967888 0.029824767 -0.15646756 0.2517778 0.04866781 0.12595998
-0.06164316 0.071811914 -0.014315904 -0.024501616 -0.050822776 0.10011758 -0.023494953 0.08701889
-0.07671928 -0.037322007 -0.11951635 -0.16708961 -0.05355231 -0.16300787 -0.13002227 -0.14728218
-0.10474705 0.034597803 -0.01969402 -0.18234897 0.113130376 -0.1208958 0.2057707 -0.07873915
0.22774652 0.004654953 -0.04040198 0.018666783 0.019539222 0.13666613 0.0911759 0.0446739
-0.03666037 0.33765677 0.1478665 0.13315132 -0.27175704 -0.030797936 -0.05196138 0.012578137
0.15258789 0.1575891 -0.13128221 0.21033642 0.40262362 0.17751797 0.20099393 -0.0018351281
-0.2461579 -0.0058830837 0.3312572 -0.21318577 0.27579808 -0.040518027 -0.17089847 -0.16841657
-0.14487502 -0.13649945 -0.010894309 0.11858382 -0.05782417 0.2805625 -0.074672274 -0.042897385
-0.05485296 0.14846104 -0.034840263 -0.021476435 -0.05879065 -0.051208485 0.0026066154 0.14938097
-0.016959362 -0.09767857 -0.07793377 -0.26642483 -0.08862695 -0.2616186 -0.18105213 -0.2052999
-0.105469696 0.18422626 0.021288935 -0.1684975 0.04790376 -0.2562002 0.11944292 -0.19105756
0.2449912 -0.093928665 0.02135822 0.058394913 0.07527843 0.26736653 0.1806212 0.049862914
-0.14019285 0.24529402 -0.02935732 0.21900843 -0.27095473 0.0498473 0.075983666 -0.13202658
0.24442638 0.20102811 -0.17849092 0.17279427 0.25752285 0.16387756 0.29947817 -0.0810773
-0.19978642 -0.03651085 0.28996798 -0.3087556 0.12344633 -0.09264572 -0.17336188 -0.17705517
-0.10967641 -0.25375316 -0.11195335 -0.12280727 -0.16331527 0.18245421 -0.09722838 -0.08352655
-0.036909714 -0.061675996 -0.10205152 0.03754288 0.02580597 0.06862204 -0.12048623 0.25044093
-0.06963568 -0.046839327 -0.27064124 -0.262356 -0.045076437 -0.070680246 -0.2279122 -0.12664694
-0.082116775 0.14952475 -0.020330256 -0.027117785 -0.04439539 -0.07552906 0.115599215 -0.14297497
0.1724176 0.04389833 0.08134147 0.094823234 0.043247793 0.2964011 0.23232323 -0.023260748
-0.061789203 0.37265098 -0.0059213466 0.18817075 -0.07535335 -0.16493425 -0.018930715 -0.16971754
0.3317662 0.22527131 -0.2462055 0.22192352 0.25570843 0.09536353 0.3017429 0.01661962
-0.32010552 -0.08193346 0.20524403 -0.36205024 0.31902912 -0.03361304 0.008080198 -0.2712675

classifier.0.bias f4 [32]
00000000: 1512 fd3c da83 a5bb e54b 80bd 26a5 28bd
00000010: 20ca 26bd c26f a83e 9773 28be 530c afbd
00000020: f34b 513d d202 973e 9c94 d0bd 2213 0abe
00000030: 1374 a5bd 9664 783d 7fd2 5d3c 460b f3bc
00000040: 1230 f9bd 1856 aa3c be7c 3bbe 736a 9b3c
00000050: bf98 a4bc cac6 8abe a6a6 9fbe f212 bfbd
00000060: 4d81 ab3d fceb 7bbe 1d8f 573d 2353 d73d
00000070: 5159 e4bc d9da 00be f767 e23c 8190 15bb
0.030892411 -0.0050511183 -0.06264476 -0.041173123 -0.040720105 0.32897764 -0.16450344 -0.085472725
0.05109782 0.2949434 -0.10184595 -0.13483861 -0.0807878 0.0606428 0.013538956 -0.029668462
-0.12167372 0.020793006 -0.18309304 0.018971657 -0.020092366 -0.2710479 -0.3118183 -0.093297854
0.083742715 -0.2460174 0.052626718 0.10513904 -0.02787462 -0.12583484 0.027637465 -0.0022821727

classifier.2.weight f4 [2, 32]
00000000: 118d e23d 550c a4be 08e4 52be 45ea 6abe
00000010: c3df 9dbe b52a c63e bf17 70bd 378a f7be
00000020: f873 9ebe 08d4 8d3e 0521 7ebe 328d 65bd
00000030: 2450 9dbe 7c63 91be cc31 0cbe 7e1a 243e
00000040: d068 05be 1668 a83e 4840 dbbe 412c bbbe
00000050: 7e09 633d a999 28bd 6553 ffbd 198e 353d
00000060: 77d5 73be 8a18 913d 7d9d 153e 1322 c43d
00000070: 583a 82be 3560 d7be 4c9d 86be 3329 bfbe
00000080: de5b b13d 3009 b83e c2a6 b43e 92b0 bd3e
00000090: a77c 8c3e 3714 dcbe a46d 4cbd 2f73 a23e
000000a0: e471 803e 78ad cbbe 214b bd3e 5953 80ba
000000b0: 461f 9b3e 7035 663e 3db4 84bd 15e2 93be
000000c0: c47f 5f3d 66f5 4dbe 58f6 ad3e a089 5d3e
000000d0: ac13 b1bd 9b18 09bd eb78 f8bd 5797 4d3d
000000e0: cd3f 9c3e 3fc0 d53d 993a 9bbd 82ad 76be
000000f0: a7d0 883e 1f26 8f3e 43c4 3b3e a123 873d
0.110620625 -0.3204066 -0.205948 -0.22940929 -0.3083478 0.38704458 -0.058616396 -0.48347637
-0.30947852 0.2770083 -0.24817283 -0.056042857 -0.30725205 -0.28396213 -0.13690871 0.16025731
-0.13028264 0.3289191 -0.4282248 -0.365572 0.055428974 -0.041162167 -0.12467078 0.044324968
-0.23811899 0.070847586 0.14610858 0.09576812 -0.25435138 -0.42065588 -0.26291883 -0.3733612
0.086601004 0.3594451 0.35283476 0.37048775 0.27438852 -0.42984173 -0.04990925 0.31728503
0.25086892 -0.39780784 0.3697138 -0.0009790465 0.30297297 0.22481322 -0.0647969 -0.28883424
0.054565206 -0.20113143 0.33977008 0.21634531 -0.0864633 -0.03347073 -0.12132438 0.050193157
0.30517426 0.10437059 -0.07579536 -0.24089625 0.2672169 0.27958772 0.18336587 0.065985925

classifier.2.bias f4 [2]
00000000: 90eb 92be 359d 023d
-0.28695345 0.031888206
