src/DARPA/pretrained/models/w100/resampled/phase_2.pth (torch, 194061 bytes, 8 tensors)

lstm.weight_ih_l0 f4 [256, 112]
0	0x3e8eda98	0.2790115
1	0x3e0a74af	0.13521074
2	0x3d92e77f	0.071730606
3	0x3d904554	0.07044473
4	0x3e26dfc7	0.16296302
5	0x3e608b47	0.2192813
6	0xbb7aab90	-0.0038249232
7	0x3d27bdbe	0.040952437
8	0xbcfe5f23	-0.031051224
9	0x3ca613d4	0.020273127
10	0xbce3d867	-0.02781315
11	0x3e3a6e79	0.18206204
12	0x3d228796	0.039680086
13	0xbe24e46e	-0.16102764
14	0xbdbf6324	-0.093450814
15	0x3d3bb268	0.04582444
16	0x3d8ade67	0.06780701
17	0x3e1ed050	0.15509152
18	0xbe21f96e	-0.15817806
19	0xbdd3f606	-0.103496596
20	0xbe408e26	-0.18804225
21	0x3d01081d	0.031501878
22	0xbdf52a95	-0.119710125
23	0xbdf797c0	-0.12089491
24	0xbd976aef	-0.07393443
25	0xbe2bd269	-0.16779484
26	0xbdbe26cd	-0.092847444
27	0xbcd4af99	-0.025962638
28	0x3e3f243e	0.18666169
29	0xbca2b080	-0.019859552
30	0xbd898eeb	-0.067167126
31	0x3dcf6fd7	0.10128754
32	0xbc8594fb	-0.016306391
33	0xbe0f398f	-0.139868
34	0x3e0dd132	0.13849333
35	0xbda159f5	-0.07878486
36	0x3c096a95	0.008387228
37	0x3c113f2f	0.008865162
38	0xbc03c4dd	-0.008042541
39	0x3d99543a	0.07486768
40	0x3e6f42dc	0.23365349
41	0xbb18444d	-0.002323407
42	0x3d157bad	0.0364949
43	0x3d245224	0.040117398
44	0xbda71f94	-0.0816032
45	0xbd8d83ba	-0.069098905
46	0xbd5b6be1	-0.05356968
47	0x3ddd6ee2	0.10812165
48	0x3dac86ba	0.084241346
49	0x3df62bbc	0.120200604
50	0x3b246239	0.002508296
51	0xbd8b5e2a	-0.0680507
52	0xbd0e443f	-0.034733053
53	0xbdd647a4	-0.10462883
54	0x3c62476a	0.013810972
55	0xbe0e2bec	-0.13883942
56	0x3dad8de2	0.084743276
57	0xbe077c0e	-0.13230917
58	0x3cf89cbf	0.03034818
59	0xbd16d72c	-0.036826298
60	0x3e306a9d	0.1722817
61	0xbd01ccf8	-0.031689614
62	0xbdad9f97	-0.08477705
63	0x3ca50f4c	0.020148896
64	0x3ca81138	0.020516023
65	0xbdcfffb4	-0.101561934
66	0x3db8bbf6	0.09020226
67	0x3d7b44ac	0.061344787
68	0x3d9cc02d	0.07653842
69	0xbd712e41	-0.058882
70	0x3d3607a8	0.044440895
71	0xbdb7df79	-0.08978171
72	0x39fc9da1	0.00048182628
73	0xbd333a96	-0.043757044
74	0xbd79696f	-0.060891565
75	0xbdf78d24	-0.12087467
76	0xbd0a7249	-0.033800397
77	0xbdbff604	-0.09373096
78	0xbdb8e974	-0.09028903
79	0xbd93da2a	-0.07219346
80	0x3e1a77c6	0.15084752
81	0x3d85bdb2	0.06530322
82	0xbe097c8a	-0.13426414
83	0x3c94af5d	0.018150026
84	0x3c9f0867	0.019413186
85	0xbd7eda31	-0.062219802
86	0x3c62dd61	0.013846726
87	0xbde88f31	-0.113554366
88	0xbdd98af2	-0.10622205
89	0xbd96c3a4	-0.07361534
90	0xbcc2df29	-0.023788052
91	0xbdb77bcd	-0.0895916
92	0x3d5e4c13	0.05427177
93	0xbd0dafbf	-0.034591433
94	0x3d9a5dad	0.075373985
95	0xbcc17869	-0.023616986
96	0xbddcd16b	-0.10782131
97	0x3d9a4b0f	0.075338475
98	0x3b140440	0.002258554
99	0xbc5cef2b	-0.013484756
100	0x3cca240d	0.024675393
101	0xbd940b49	-0.07228715
102	0xbc0e32cb	-0.008679102
103	0xbd957675	-0.072979845
104	0xbe88a0fe	-0.26685327
105	0xbcf57a7e	-0.029965635
106	0x3db8693a	0.090044454
107	0x3b9e2ad0	0.004826881
108	0xbd9f48f7	-0.07777589
109	0xbc5e2b86	-0.0135601815
110	0x3ba09d1f	0.004901543
111	0xbd91efb9	-0.071258016
112	0xbe6176e0	-0.22018003
113	0x3d68b7e0	0.056815982
114	0xbd32bd20	-0.043637395
115	0x3dad3f7c	0.08459374
116	0xbd581bb0	-0.05276078
117	0x3d13548d	0.035969306
118	0x3c32d157	0.010914168
119	0x3d93ced0	0.07217181
120	0x3e6c830c	0.23096865
121	0x3c743fda	0.0149078015
122	0xbe025f78	-0.12731731
123	0x3e1cb09c	0.15301746
124	0x3ccb02c9	0.024781602
125	0xbd1a3864	-0.037651435
126	0x3db8b1d9	0.09018297
127	0x3e2c4992	0.1682494
128	0x3e6811f5	0.226631
129	0xbdab7f49	-0.08373887
130	0x3d8a23d5	0.06745116
131	0x3e018f91	0.12652422
132	0x3c952b3b	0.01820909
133	0xbd0d04dd	-0.034428466
134	0xbdc9b35d	-0.09848664
135	0x3c975d32	0.018477056
136	0x3d3700c5	0.04467847
137	0x3dcbca66	0.09950714
138	0xbd7fc055	-0.06243928
139	0x3e4828cf	0.19546817
140	0x3d7ebda4	0.062192574
141	0x3d7f6476	0.062351666
142	0x3db51e0e	0.08843623
143	0x3d16f66a	0.036856093
144	0x3d84f062	0.06491162
145	0x3d8f850d	0.07007799
146	0xbd192fe0	-0.037399173
147	0x3d90b75a	0.070662215
148	0xbd5991ac	-0.05311744
149	0xbd37e4aa	-0.044895805
150	0x3a07e920	0.00051845796
151	0x3e6a8521	0.22902347
152	0x3e518b79	0.20463361
153	0xbd9f8162	-0.0778835
154	0x3e165447	0.14680587
155	0x3d9bacd3	0.07601323
156	0xbc913fbb	-0.017730584
157	0x3dd39f71	0.103331454
158	0x3de0ed88	0.109828055
159	0xbde4fbec	-0.11180863
160	0xbda394f4	-0.07987395
161	0x3dd3bf12	0.10339178
162	0xbaa80244	-0.0012818058
163	0xbd673db0	-0.056455314
164	0x3e199a70	0.1500032
165	0x3b5ba319	0.0033513962
166	0x3dd97914	0.10618797
167	0x3dde652a	0.10859139
168	0xbca69a0a	-0.020337123
169	0xbd94b6fc	-0.07261464
170	0x3e67db2f	0.22642206
171	0x3e38698f	0.18009017
172	0x3e96b3d5	0.29434076
173	0x3c69e502	0.014275791
174	0xbd52a08d	-0.051422644
175	0xbc523f1e	-0.012832431
176	0x3c189f7b	0.009315367
177	0x3e661feb	0.22473113
178	0x3d465343	0.04841925
179	0x3e06a115	0.13147385
180	0x3e213d35	0.15746005
181	0x3d1ffc48	0.039058954
182	0x3eb608a6	0.35553473
183	0x3cc17463	0.023615068
184	0xbd0edcb2	-0.03487844
185	0x3d851b8a	0.06499393
186	0xbd8b39d9	-0.06798143
187	0xbd8b8312	-0.06812109
188	0x3dfc84d2	0.12330021
189	0xbdd98d96	-0.106227085
190	0xbe04cccd	-0.1296875
191	0x3db07e7c	0.08617875
192	0xbc47417d	-0.01216161
193	0xbdd421e9	-0.1035803
194	0x3dcaef5d	0.09908936
195	0xbd154e5f	-0.036451694
196	0xbaffa2b6	-0.0019503448
197	0x3d36662a	0.044531025
198	0x3d7d5432	0.061847873
199	0xbcaa8b3d	-0.020818347
200	0xbccea817	-0.025226636
201	0x3d58bd78	0.052915066
202	0x3e1e859f	0.1548066
203	0x3dfe0baa	0.124045685
204	0x3e3a9739	0.1822175
205	0x3cb96ba9	0.022634344
206	0x3dea157a	0.114298776
207	0x3dec84a9	0.115487404
208	0xbd8279f0	-0.06370914
209	0x3d4081a3	0.04699863
210	0xbc56f27b	-0.013119335
211	0x3e0ed461	0.13948204
212	0xbd82cab7	-0.06386321
213	0x3c915c50	0.017744213
214	0x3e12354e	0.14278147
215	0x3e2dfe2d	0.16991492
216	0xbe17c6b0	-0.14821887
217	0xbd12c508	-0.035832435
218	0xbd660803	-0.056159984
219	0xbd867a42	-0.065662876
220	0xbd34d040	-0.044143915
221	0x3dda52df	0.10660338
222	0xbc8b0640	-0.016970754
223	0xbd4e65dd	-0.050390113
224	0x3e18885b	0.14895765
225	0xbde80a66	-0.11330108
226	0xbcc1fda0	-0.023680508
227	0xbde126de	-0.109937415
228	0x3ccbe6b6	0.024890285
229	0x3d86b571	0.06577576
230	0x3e0dbd8e	0.1384184
231	0x3d9608a0	0.07325864
232	0x3e25e0e3	0.16199069
233	0xbdd060a4	-0.10174683
234	0x3b72f93e	0.003707483
235	0x3e3ec539	0.18629922
236	0x3d55d805	0.052207965
237	0x3d4e9e44	0.050443903
238	0xbd9daece	-0.07699357
239	0xbe349135	-0.17633517
240	0xbdd5d8ba	-0.10441728
241	0xbc315c45	-0.010825221
242	0xbda947a2	-0.08265616
243	0x3d9ddf80	0.07708645
244	0xbd3e125f	-0.04640424
245	0x3c91383c	0.01772701
246	0x3d8a2409	0.067451544
247	0x3db887c0	0.09010267
248	0xbc3ba893	-0.011453765
249	0x3e30367d	0.17208286
250	0xbd96b780	-0.073592186
251	0x3d8942b2	0.06702174
252	0x3d279130	0.040909946
253	0xbe15237c	-0.14564317
254	0x3d98b32f	0.074560516
255	0xbd1f02ce	-0.038821034

lstm.weight_hh_l0 f4 [256, 64]
0	0x3d4e52be	0.050371878
1	0x3d9c845f	0.07642435
2	0xbd40ff6c	-0.04711859
3	0x3d20dcdc	0.039273128
4	0x3d5bd6a4	0.053671494
5	0xbda1e162	-0.079043165
6	0x3d6367ac	0.05551879
7	0x3c8a9b89	0.016919868
8	0xbe143364	-0.14472729
9	0xbd509c1c	-0.050930128
10	0x3dba2473	0.090889834
11	0x3c8669c4	0.016407855
12	0xbc85d85e	-0.016338523
13	0x3cc55a18	0.024090812
14	0x3b34ce27	0.0027588697
15	0x3db4fd4e	0.088373765
16	0x3dfcb353	0.12338891
17	0x3d17397f	0.036920067
18	0xbdddb6ae	-0.10825859
19	0xbe05dcd5	-0.13072522
20	0xbde18643	-0.110119365
21	0x3da39c9e	0.07988857
22	0xbd35629a	-0.044283487
23	0x3c8efdb2	0.017454956
24	0xbd4e433f	-0.0503571
25	0xbd8b41d0	-0.06799662
26	0x3d9566a8	0.07294971
27	0xbced2ffc	-0.028953545
28	0xbd68230b	-0.056674045
29	0x3e068f07	0.13140498
30	0xbe3149ba	-0.1731328
31	0xbe14c64d	-0.1452877
32	0x3d394343	0.04523016
33	0x3e1cf843	0.1532908
34	0xbd7910a6	-0.060806893
35	0x3d2bdf2b	0.041960876
36	0xbd3a21d8	-0.045442432
37	0x3da96ca8	0.08272678
38	0x3bbab7ae	0.005698166
39	0xbb8ce185	-0.004299345
40	0xbcae0b69	-0.021245675
41	0xbd71d727	-0.059043076
42	0xbe1073b3	-0.14106636
43	0x3d230335	0.03979798
44	0xbe07c431	-0.13258435
45	0x3b386f14	0.002814238
46	0xbe1482d4	-0.14503032
47	0xbca2c830	-0.019870847
48	0xbdb858d0	-0.09001315
49	0x3d3afc44	0.045650735
50	0xbd841c99	-0.06450767
51	0xbd51685f	-0.051124927
52	0xba3c31b4	-0.0007179037
53	0x3d97c6c2	0.07410957
54	0xbd5d00d8	-0.053955883
55	0x3c497728	0.0122964755
56	0x3d8118bb	0.06303545
57	0x3de3ede6	0.1112936
58	0x3cdf0165	0.027222345
59	0xbce9dcd7	-0.028547687
60	0x3dc486f8	0.09596056
61	0xbde644ca	-0.11243589
62	0xbd93ddd6	-0.07220046
63	0xbb9b18d4	-0.0047331844
64	0x3d2ab0b8	0.04167244
65	0xbc450c47	-0.012026853
66	0x3d713040	0.058883905
67	0x3dc302ed	0.095220424
68	0xbd17285b	-0.03690372
69	0xbdc293bb	-0.095008336
70	0xbdc5c2cb	-0.096562944
71	0x3d44bac6	0.048029684
72	0xbdb1371f	-0.08653092
73	0x3dbc5607	0.09196096
74	0xbcd952b5	-0.026528696
75	0xbd426039	-0.047455046
76	0x3d12c8ff	0.035836216
77	0x3e06fdbd	0.13182731
78	0xbbdc7129	-0.006727357
79	0x3de15326	0.110021874
80	0x3da6c2e0	0.08142638
81	0xbe03a858	-0.12857187
82	0x3c6e0aca	0.0145289395
83	0xbd2aae19	-0.04166994
84	0x3da63b78	0.081168115
85	0x3d98562f	0.07438313
86	0xbddf64aa	-0.10907872
87	0x3ce41055	0.027839819
88	0xbdfaef35	-0.12252656
89	0xbcec7d8b	-0.028868457
90	0x3d6ab415	0.057300646
91	0x3e05ce6a	0.13067022
92	0x3ca67c42	0.020322923
93	0xbcfb601d	-0.030685479
94	0x3d8a1ed1	0.06744159
95	0x3d459ffd	0.04824828
96	0x3dc5d1ab	0.096591316
97	0x3e2244b7	0.15846525
98	0x3d06dda1	0.032926206
99	0xbdece2e2	-0.11566712
100	0x3c11fac3	0.008909884
101	0xbdff3a76	-0.124623224
102	0xb6f80483	-7.391501e-06
103	0xbb86b00b	-0.0041103414
104	0xbd8e28b0	-0.06941354
105	0xbdaa4748	-0.08314377
106	0xbde71ca2	-0.11284758
107	0x3c8d44b2	0.01724467
108	0x3c9571aa	0.018242676
109	0x3d849374	0.06473437
110	0xbd32ed4e	-0.043683343
111	0xbd4f7372	-0.050647207
112	0x3d6c6bab	0.057719868
113	0x3dd98280	0.10620594
114	0xbaab9718	-0.0013091294
115	0xbc0a5cb1	-0.008444951
116	0xbde55735	-0.11198274
117	0x3d950351	0.07276023
118	0x3d754b96	0.059886537
119	0x3e05e827	0.1307684
120	0x3d2e79e2	0.042596705
121	0xbdac6c62	-0.0841911
122	0xbc402b2e	-0.011729045
123	0x3e0cd4cc	0.1375305
124	0x3d69d3d7	0.05708679
125	0x3d344a43	0.044016134
126	0x3de454cd	0.11148987
127	0xbd303930	-0.04302329
128	0x391df069	0.00015062247
129	0x3cd70ffd	0.026252741
130	0x3db5baa8	0.088734925
131	0x3e2ad3e6	0.16682395
132	0xbd5531a2	-0.052049287
133	0xbde7c0ce	-0.113160715
134	0x3d3f98bd	0.046776522
135	0x3c3a1021	0.0113563845
136	0xbde507d6	-0.11183135
137	0x3c416b3d	0.011805353
138	0xbc7a4d2d	-0.015277189
139	0x3d2bbd9d	0.041928876
140	0xbd6f4abe	-0.05842089
141	0xbdff0a67	-0.12453156
142	0xbd8f878d	-0.07008276
143	0x3d576bec	0.052593157
144	0x3dcb340f	0.09922039
145	0x3b6617a3	0.0035109303
146	0x3d8ee3d0	0.069770455
147	0xbac160d5	-0.001475359
148	0xbdc234e4	-0.09482744
149	0x3df361fa	0.11883922
150	0x3dc454dc	0.09586498
151	0xbc5af0a9	-0.013363042
152	0xbdb5b990	-0.08873284
153	0x3cb4d245	0.02207292
154	0x3d972feb	0.073821865
155	0x3de16281	0.11005116
156	0x3d8aff40	0.06786966
157	0x3c84ff0e	0.0162349
158	0xbd9b5b76	-0.07585804
159	0x3ca98fd9	0.020698475
160	0x3e3fcd55	0.18730672
161	0xbdd5ee4a	-0.10445841
162	0x3d9ba9fb	0.076007806
163	0x3d631a28	0.055444866
164	0x3d64ff46	0.05590751
165	0x3de64238	0.11243099
166	0x3d543f9a	0.051818468
167	0x3d8e9cbf	0.06963491
168	0x3b022fb1	0.0019864852
169	0xbd24ca95	-0.04023226
170	0x3e1afe21	0.15136005
171	0x3d0e5f86	0.034759067
172	0x3d749890	0.059715807
173	0x3d481d59	0.048856113
174	0xbca90647	-0.020632876
175	0xbcdc33f2	-0.026880238
176	0xbd6a5d77	-0.05721804
177	0x3e05a392	0.13050678
178	0xbdb25a37	-0.08708613
179	0x3d662026	0.056183003
180	0xbd89d61c	-0.06730291
181	0x3ce3aaa0	0.027791321
182	0x3e295b55	0.16538747
183	0xbe00cf4d	-0.12579079
184	0x3dca34bd	0.0987334
185	0xbd114887	-0.035469558
186	0xbce538fa	-0.02798127
187	0xbcb9d0bb	-0.022682538
188	0x3de5a7fb	0.1121368
189	0xbc16d81f	-0.009206801
190	0xbd278137	-0.040894713
191	0xbcdb0a19	-0.026738213
192	0xbd9019db	-0.070361815
193	0xbe0c9ab2	-0.13730887
194	0x3c13cc1b	0.0090208305
195	0x3dfcdfb3	0.12347355
196	0x3c3085ed	0.010774118
197	0xbe30e67b	-0.17275421
198	0x3db30b30	0.08742368
199	0xbd8aec40	-0.06783342
200	0xbd711c58	-0.05886492
201	0xbe02a4a5	-0.1275812
202	0x3d19b7cf	0.03752881
203	0x3d209dbd	0.03921293
204	0x3c9944ea	0.018709619
205	0x3da897c8	0.08232075
206	0xbbe30629	-0.0069282246
207	0x3dd2d7d5	0.10295073
208	0xbde88bb8	-0.11354774
209	0xbc5fc332	-0.013657378
210	0x3e2c0311	0.16798045
211	0xbbc6897e	-0.006058871
212	0x3d9eb27a	0.077488855
213	0x3de26b51	0.11055625
214	0xbd901fd1	-0.070373185
215	0xbe1b2110	-0.15149331
216	0xbb6b9c7f	-0.0035951433
217	0x3d47dd2f	0.04879492
218	0x3d9c1e51	0.0762297
219	0xbae059e7	-0.0017116637
220	0x3ccb8672	0.024844382
221	0xbd1624a0	-0.036656022
222	0x3db1870c	0.08668336
223	0xbd55149c	-0.052021608
224	0xbd17d7a8	-0.0370709
225	0x3e4d0126	0.2001997
226	0xbde247d5	-0.11048857
227	0x3ae58b52	0.0017512834
228	0x3d9792ff	0.07401084
229	0x3e3bfeae	0.18358871
230	0x3d2bdfa5	0.04196133
231	0xbd3373c6	-0.043811582
232	0xbdcb01e6	-0.099124715
233	0xbe14a35e	-0.14515445
234	0x3d912e04	0.07088855
235	0x3d116dad	0.035504986
236	0x3d758c0a	0.059948005
237	0x3d0d90b5	0.03456183
238	0x3ce9d78f	0.02854517
239	0xbdbf151f	-0.093302004
240	0x3d4d179c	0.050071344
241	0xbd80f87b	-0.06297394
242	0x3d5e3feb	0.054260176
243	0x3cfb7aac	0.030698143
244	0x3c675dff	0.0141215315
245	0xbe05fe6f	-0.1308534
246	0x3d80f0a1	0.06295896
247	0x3da0b056	0.078461334
248	0x3dc6d206	0.097080275
249	0x3d6208ac	0.05518405
250	0xbc652a5a	-0.013987148
251	0xbc37a8a9	-0.011209645
252	0xbd3c49b9	-0.045968745
253	0x3e256346	0.16151151
254	0x3d411c69	0.047146235
255	0xbca279d1	-0.019833477

lstm.bias_ih_l0 f4 [256]
0	0xbc85bed0	-0.016326338
1	0xbd91661d	-0.07099555
2	0x3de00b8b	0.10939702
3	0x3da3ad2a	0.07992013
4	0xbc99f777	-0.018794758
5	0x3d818a87	0.0632525
6	0xbd2352cf	-0.039873894
7	0x3dcb57f4	0.09928885
8	0xbd107ad1	-0.035273377
9	0xbca2f3ce	-0.019891646
10	0x3d102365	0.035190005
11	0x3c7fa707	0.015603787
12	0xbd6ef259	-0.05833659
13	0xbd0480e5	-0.032349486
14	0x3e1a5674	0.15072042
15	0x3dae82ed	0.08521066
16	0xbc9988a1	-0.018741908
17	0x3d1aabcf	0.037761506
18	0x3dec3580	0.11533642
19	0xbcf7257f	-0.030169247
20	0x3b40fee8	0.002944881
21	0x3e42cc8f	0.19023345
22	0x3df6dcb5	0.12053815
23	0xbaa32360	-0.0012446456
24	0x3dc6fded	0.09716401
25	0x3e05a8d7	0.13052689
26	0x3d6e4724	0.058173314
27	0xbc2d0a30	-0.010561511
28	0x3e7173a3	0.23579268
29	0x3d5ed3e8	0.05440131
30	0x3e2ed835	0.17074664
31	0x3e31d2a0	0.17365503
32	0xbda115aa	-0.0786546
33	0xbda243b6	-0.07923071
34	0x3d2ee23d	0.042696226
35	0x3db7de3e	0.08977936
36	0x3dad5da8	0.08465129
37	0x3d646d9d	0.055768598
38	0x3deeda2b	0.11662706
39	0x3c1e856e	0.009675367
40	0x3ca53e40	0.020171285
41	0xbd81e321	-0.063421495
42	0xbd4f5a14	-0.050623015
43	0x3dda0d5f	0.106470816
44	0x3e08980e	0.13339254
45	0x3dd39648	0.10331398
46	0x3d0037ef	0.031303342
47	0x3c217c12	0.009856241
48	0x3c60058b	0.013673197
49	0xbbc474f9	-0.0059953895
50	0x3e1e37bf	0.15450953
51	0x3c9b982c	0.01899346
52	0x3cffb25e	0.031212982
53	0xbd91e076	-0.07122891
54	0xbdaf52f2	-0.085607424
55	0xbd8a7ecd	-0.067624666
56	0x3cd8505d	0.026405508
57	0x3d971d2e	0.073786125
58	0xbbcedf67	-0.0063132527
59	0x3d86e135	0.065859236
60	0x3c5c967b	0.013463612
61	0x3dc2c35a	0.095099166
62	0xbc8577b2	-0.016292427
63	0x3d7c2fd1	0.06156904
64	0x3de51140	0.11184931
65	0xbc83fb9b	-0.016111186
66	0x3e252620	0.16127825
67	0xbca5f4da	-0.020258356
68	0xbe297a6b	-0.16550605
69	0xbba6cdc2	-0.005090446
70	0x3d8032cf	0.06259691
71	0x3e017327	0.12641583
72	0x3d7e7ea1	0.06213248
73	0x3dadf730	0.08494413
74	0x3e0042aa	0.1252543
75	0xbd5e084c	-0.05420713
76	0xbda7e164	-0.08197287
77	0x3de083af	0.10962617
78	0x3b805f37	0.0039176005
79	0x3e19116c	0.14948052
80	0x3e194be7	0.1497036
81	0x3e29af9d	0.16570897
82	0xbc199624	-0.009374175
83	0x3dc2c484	0.09510139
84	0xbc50ff5e	-0.012756197
85	0x3d44e739	0.048072074
86	0xbd1f6413	-0.038913798
87	0x3e0e9a43	0.13926034
88	0x3e14fceb	0.14549606
89	0x3d22b2d4	0.039721325
90	0xbcfd73ad	-0.030938948
91	0xbda36ddb	-0.07979938
92	0x3ceb0efb	0.028693667
93	0xbcf73c6a	-0.030180175
94	0xbb637036	-0.0034704334
95	0x3bef996e	0.0073119914
96	0x3d4f1dfd	0.05056571
97	0x3d819961	0.06328083
98	0xbd5b8ac2	-0.053599127
99	0x3c4a5643	0.012349668
100	0xbda72396	-0.08161084
101	0x3cec46af	0.028842298
102	0xbd4e8956	-0.050423943
103	0x3d752051	0.059845272
104	0x3dfb564e	0.12272321
105	0x3d83ef8e	0.06442176
106	0xbd668b93	-0.056285452
107	0xbd386daa	-0.04502646
108	0xbd8258d3	-0.06364598
109	0x3d9ca73d	0.07649086
110	0xbd152a2b	-0.036417168
111	0xbda74109	-0.08166701
112	0x3dcc30e5	0.099702634
113	0x3d2669d3	0.040628266
114	0xbdb3932b	-0.087683044
115	0xbd774221	-0.0603658
116	0x3cdc909b	0.026924422
117	0xbd371e58	-0.044706672
118	0x3e0cffeb	0.137695
119	0x3df37632	0.11887778
120	0x3d9c967a	0.076458886
121	0x3cf006e4	0.02930016
122	0x3d217151	0.039414708
123	0x3ca682cc	0.02032604
124	0x3d91e7fb	0.07124325
125	0xbc85d12c	-0.016335092
126	0x3d410f37	0.04713365
127	0x3d15f114	0.036606863
128	0x3be7dfe1	0.007076249
129	0x3e0420b6	0.12903103
130	0x3d89c85d	0.067276694
131	0x39adabfa	0.00033125264
132	0xbd894412	-0.067024365
133	0xbd1a75ef	-0.037710126
134	0x3d474ae2	0.0486554
135	0x3d8030c7	0.062593035
136	0xbe052198	-0.13001096
137	0x3d674b22	0.056468137
138	0x3db31b0a	0.08745392
139	0xbd1be222	-0.038057454
140	0xbd52439b	-0.051334005
141	0xbe095538	-0.13411415
142	0x3d6d41a1	0.057923917
143	0x3d821fa0	0.06353688
144	0xbd2cf0fa	-0.042222
145	0x3c36bbb4	0.01115315
146	0xbcad2a73	-0.021138405
147	0xbd554c01	-0.052074436
148	0xbdb846e7	-0.089978985
149	0xbb9c7622	-0.0047748247
150	0xbd21dee2	-0.0395192
151	0xbddf9e1a	-0.10918827
152	0x3d13b927	0.036065247
153	0x3d11f4da	0.0356339
154	0xbdc81d89	-0.097712584
155	0xbd98a7de	-0.07453893
156	0xbdddb2c2	-0.10825111
157	0x3d1fd311	0.039019648
158	0x3d5596f1	0.052145902
159	0x3c9817b9	0.018566
160	0xbdcd855e	-0.100352034
161	0x3dd38f9a	0.10330124
162	0xbddabdd5	-0.10680739
163	0xbd7d8d28	-0.061902195
164	0xbda24fec	-0.079254
165	0x3de0c24b	0.109745584
166	0x3dab7335	0.08371583
167	0xbc5c3327	-0.01343993
168	0xbdf08fcc	-0.11746177
169	0xbd710172	-0.05883927
170	0x3cbbacb5	0.022909502
171	0xbbb1c515	-0.0054251053
172	0x3d1d3b4f	0.03838664
173	0x3daafe39	0.083492704
174	0x3d65f1da	0.05613885
175	0x3d033408	0.032032043
176	0x3d48f8c9	0.049065385
177	0xbcd5961a	-0.02607255
178	0xbe015231	-0.1262901
179	0xbe1298f8	-0.14316165
180	0xbd04408d	-0.032288123
181	0xbd8674a1	-0.06565214
182	0xbd5a8ff2	-0.053359933
183	0xbe07e81e	-0.1327214
184	0x3d692420	0.056919217
185	0xbd8d6adb	-0.06905147
186	0xbda21db7	-0.07915824
187	0x3d436363	0.047702204
188	0xbd4f7e5f	-0.050657626
189	0x3e0a8472	0.13527086
190	0x3db7f052	0.08981384
191	0x3c3ec3a8	0.011643328
192	0xbd0fd8dd	-0.035118926
193	0xbd9be3fa	-0.076118425
194	0xbd121671	-0.035665933
195	0xbcbb59e7	-0.022870017
196	0x3c4c9e65	0.012488936
197	0x3d96c200	0.07361221
198	0x3de09eb9	0.10967774
199	0x3d948ae5	0.072530545
200	0x3cac4695	0.02102975
201	0xbd5f5f45	-0.054534215
202	0xbd2ebfa2	-0.042663224
203	0x3df3c42e	0.11902653
204	0xbdbabc62	-0.091179624
205	0xbc5ed7f3	-0.013601291
206	0xbda6ecfc	-0.0815067
207	0xbab14209	-0.0013523708
208	0x3d9ce8a6	0.07661562
209	0xbbce0462	-0.0062871436
210	0xbd361d19	-0.044461343
211	0xbd92a849	-0.07161004
212	0x3e003ef1	0.1252401
213	0x3be69f0d	0.0070380033
214	0x3cb4a68b	0.02205207
215	0x3dd5e11a	0.10443325
216	0x3e1803ee	0.14845249
217	0xbc01fda6	-0.00793401
218	0x3e15f80e	0.14645407
219	0xbd8ba3e7	-0.06818371
220	0x3e16b116	0.1471599
221	0xbd6d0a44	-0.05787112
222	0x3d0fee04	0.0351391
223	0x3c8d6b4c	0.017263077
224	0xbab64a39	-0.0013907618
225	0x3e0bd27f	0.13654517
226	0x3e29cf5d	0.16583009
227	0xbdc30ef5	-0.09524337
228	0x3dcc6dd1	0.09981883
229	0x3bf9ef8b	0.0076274327
230	0x3dea48c8	0.11439663
231	0xbd930b4a	-0.071798876
232	0xbd9a2f2d	-0.07528529
233	0x3e15227e	0.14563939
234	0x3e008e49	0.12554277
235	0xbc4f23ec	-0.012642842
236	0x3dc0341f	0.09384941
237	0x3e09905e	0.13433978
238	0xbdc971c6	-0.09836154
239	0x3e30ce9f	0.1726632
240	0x3d9c281b	0.07624837
241	0x3d1d0646	0.03833606
242	0xbdcde908	-0.10054213
243	0x3cee18bd	0.02906453
244	0x3dbc2702	0.09187128
245	0x3de1205d	0.10992501
246	0xbd89af7c	-0.06722924
247	0xbdc23657	-0.09483021
248	0x3e43901a	0.19097939
249	0xbc1fb32f	-0.009747311
250	0x3cca349d	0.024683291
251	0xbc89e1eb	-0.016831359
252	0xbdec2423	-0.1153033
253	0xbab8ce29	-0.0014099526
254	0xbd153fdf	-0.036437865
255	0x3dd9f5f7	0.10642617

lstm.bias_hh_l0 f4 [256]
0	0x3d90287a	0.0703897
1	0xbe02fc38	-0.12791526
2	0xbda5a92d	-0.08088908
3	0xbd7cd91c	-0.06173049
4	0xbda8b20b	-0.08237084
5	0x3d49bb8a	0.049251117
6	0xbd1c23d1	-0.038120095
7	0x3dad27f6	0.084548876
8	0xbdc6a987	-0.097003035
9	0xbd0544ef	-0.032536443
10	0x3b81eb37	0.0039648074
11	0x3defca9a	0.11708565
12	0x3a52afa2	0.00080370356
13	0xbd63c8a5	-0.05561127
14	0x3dcf53fe	0.10123442
15	0x3d8900b5	0.06689588
16	0x3dbb3bb2	0.09142245
17	0x3da05a66	0.07829742
18	0x3d7ea88c	0.062172458
19	0xbd7983da	-0.06091676
20	0x3ce248f4	0.027622677
21	0x3d0fd25a	0.035112716
22	0x3c74d1b5	0.014942576
23	0x3d5e018d	0.054200698
24	0xbc6fc146	-0.014633482
25	0x3ca679e7	0.0203218
26	0x3dc8f071	0.098114856
27	0x3e01ff54	0.12695056
28	0x3e1c534e	0.15266153
29	0x3cecb3ce	0.028894331
30	0x3b55ef7c	0.0032643965
31	0x3c205b49	0.009787389
32	0xbdd46a10	-0.10371792
33	0x3ae83c2c	0.0017718128
34	0x3d1d8fe6	0.03846731
35	0xbd3c6b50	-0.04600078
36	0xbd4c3bc3	-0.04986168
37	0x3cdaa452	0.026689682
38	0xbc672f28	-0.014110364
39	0xbdc809b7	-0.09767478
40	0xbdc05483	-0.09391119
41	0x3e1a67c6	0.15078649
42	0x3db17419	0.08664722
43	0xbcdeb930	-0.027187914
44	0x3d100a70	0.035166204
45	0xbd67c02a	-0.056579746
46	0xbe0f707c	-0.14007753
47	0x3e178891	0.1479819
48	0xbd9c08c7	-0.07618862
49	0x3d117157	0.03550848
50	0xbc8bca42	-0.017064217
51	0x3db3661b	0.087597094
52	0xbcbe8958	-0.02325885
53	0x3c372c6c	0.011180025
54	0x3d02eaae	0.03196209
55	0x3da994fb	0.08280369
56	0x3e2d77ca	0.16940227
57	0x3cbb6278	0.022874102
58	0x3cf8a9af	0.030354349
59	0x3de3a4fc	0.11115453
60	0x3d49df22	0.04928506
61	0x3d21731e	0.039416425
62	0x3d725b62	0.05916918
63	0x3e0f2c56	0.13981757
64	0x3d002b56	0.03129133
65	0xbd21e8a4	-0.039528504
66	0xbd5f44e7	-0.05450907
67	0x3e1df704	0.1542626
68	0xbe28f2d4	-0.16498882
69	0x3da07a97	0.07835882
70	0x3dd6d159	0.10489149
71	0x3deb0373	0.11475267
72	0x3d8adc2a	0.06780274
73	0xbd87276d	-0.06599317
74	0x3c65c8ae	0.014024897
75	0xbda95ed2	-0.08270039
76	0x3c734599	0.014848136
77	0x3d351fa6	0.044219635
78	0x3e099c3a	0.13438502
79	0xbd1570ee	-0.03648465
80	0xbd3d50c4	-0.046219602
81	0x3bd4d071	0.0064945747
82	0xbb9f2bed	-0.0048575313
83	0x3dee8be4	0.11647776
84	0xbdc9109b	-0.0981762
85	0xbd8ea190	-0.06964409
86	0x3d599411	0.053119723
87	0xbce625b6	-0.028094154
88	0x3dee4e8b	0.11636075
89	0xbd1ff754	-0.03905423
90	0x3e0d287a	0.13784972
91	0xbdc536c7	-0.096295886
92	0x3e08ab89	0.13346685
93	0x3d95ce8d	0.07314787
94	0x3dc81b8a	0.09770878
95	0xbd27fe95	-0.041014273
96	0x3ddb3898	0.10704154
97	0x3d2bf746	0.041983865
98	0xbe58e1f4	-0.21179944
99	0x3d59d26b	0.053179186
100	0xbd06a9af	-0.032876667
101	0x3d8f535a	0.0699832
102	0xbc72cc9f	-0.014819293
103	0x3d37e02b	0.044891518
104	0x3de3f838	0.11131328
105	0xbd6038c0	-0.05474162
106	0xbd070b59	-0.032969806
107	0xbcb78ae3	-0.022405094
108	0xbdd6613e	-0.10467766
109	0xbc6c9ad7	-0.014441214
110	0x3d24d469	0.040241633
111	0x3dc7dbc5	0.097587146
112	0xbdf39603	-0.11893847
113	0x3dd12e41	0.102139
114	0x3da32aad	0.07967124
115	0x3d0a432f	0.033755478
116	0x3c753d1b	0.014968182
117	0xbd7e4221	-0.062074784
118	0xbd442e31	-0.047895614
119	0xbda384a0	-0.079842806
120	0xbd285310	-0.04109484
121	0x3e148f9c	0.14507908
122	0x3e0dea7d	0.13858981
123	0x3d9a0122	0.07519747
124	0x3e06ea03	0.13175206
125	0x3dbf7c7b	0.09349915
126	0x3dbad3d4	0.09122434
127	0xbcffb380	-0.031213522
128	0x3dc27596	0.09495084
129	0x3dc64868	0.09681779
130	0x3d42d9fe	0.047571175
131	0x3d4377e6	0.047721766
132	0xbd7213ad	-0.059100796
133	0x3d731ec6	0.05935552
134	0x3dc14558	0.094370544
135	0x3cfd52ea	0.030923326
136	0x3ce1639b	0.027513316
137	0xbbda353b	-0.0066591776
138	0xbd18372e	-0.037162
139	0xbdd8ba78	-0.10582441
140	0x3d167d65	0.03674068
141	0x3a4dfd4f	0.00078578753
142	0x3d2ba3bd	0.0419042
143	0xbd2fdd8f	-0.042935904
144	0xbd87ce06	-0.06631093
145	0x3d2407c8	0.040046483
146	0x3dd98083	0.10620215
147	0x3d88be95	0.06676976
148	0xbddfa783	-0.10920622
149	0x3db0c5b0	0.08631456
150	0xbc838eeb	-0.01605936
151	0x3d8876d8	0.06663293
152	0x3d999710	0.07499516
153	0x3d892e4c	0.066982836
154	0xbddb4e47	-0.107082896
155	0x3d856ea6	0.06515245
156	0x3d228faf	0.03968781
157	0xbcfe0e39	-0.031012641
158	0x3d814e52	0.063137665
159	0xbbe2a1c6	-0.0069162576
160	0x3c0ffbc8	0.008788057
161	0xbcc1d6e4	-0.023662038
162	0xbdbf4e5d	-0.093411185
163	0xbd86c537	-0.065805845
164	0xbdfa564a	-0.122234896
165	0x3ddbf5af	0.1074022
166	0x3d0e8e9c	0.03480397
167	0x3dcd762a	0.10032304
168	0xbcad0e1e	-0.021124896
169	0xbddd35ba	-0.10801263
170	0xbd397d01	-0.04528523
171	0xbe140fc8	-0.14459145
172	0x3df9ea22	0.122028604
173	0xbdccedd9	-0.10006303
174	0xbd1a77e0	-0.037711978
175	0x3dda75ac	0.106669754
176	0xbcbdf0db	-0.023186138
177	0x3e08e894	0.13369972
178	0xbd8d9bc5	-0.06914476
179	0x3d805932	0.06267013
180	0x3a0361aa	0.00050118065
181	0x3dd621e1	0.10455681
182	0xbcfa6629	-0.030566292
183	0xbd23df74	-0.040008023
184	0xbde35c3f	-0.11101579
185	0x3d809e64	0.062802106
186	0x3caf5ff6	0.021408062
187	0x3dce430f	0.10071384
188	0x3d63de8d	0.055632163
189	0x3c6e47e1	0.014543504
190	0xbd84d0ba	-0.06485124
191	0x3d80f2d4	0.06296316
192	0xbe03c759	-0.12869014
193	0x3d6547f5	0.055976827
194	0xbc8e8761	-0.017398538
195	0xbd9aef3a	-0.0756516
196	0xbd213deb	-0.03936569
197	0x3dd5565a	0.10416861
198	0xbd4abe93	-0.049498152
199	0xbd5d1935	-0.053979117
200	0x3b04b45a	0.00202491
201	0x3e024679	0.12722196
202	0x3e13fe71	0.1445253
203	0x3c4cd87b	0.012502785
204	0xbd10af6b	-0.03532354
205	0x3d8b3e86	0.06799035
206	0x3a41d177	0.00073935784
207	0x3d610a70	0.054941595
208	0x3df7d98d	0.121020414
209	0x3d29dbd4	0.04146941
210	0x3d55528b	0.052080672
211	0xbbec1a58	-0.007205289
212	0xbdb6e843	-0.08931019
213	0xbcf24795	-0.029575149
214	0x3e72ca52	0.23709992
215	0x3d1f831a	0.038943388
216	0x3c9665fb	0.018359175
217	0x3de0bf11	0.10973943
218	0xbcaf9192	-0.021431718
219	0x3d8f4caf	0.06997048
220	0x3dfb22de	0.1226251
221	0xbd650f8e	-0.055923037
222	0xbc64b136	-0.013958266
223	0x3de1ce05	0.11025623
224	0x3d00023f	0.031252142
225	0x3c17849d	0.009247926
226	0x3c74fb28	0.014952458
227	0x3d8fa1aa	0.07013257
228	0x3da1cb37	0.07900088
229	0x3d934011	0.07189954
230	0x3deb274c	0.11482105
231	0xbc0a57fd	-0.00844383
232	0x3cab760d	0.020930314
233	0xbdbd8c03	-0.09255221
234	0x3e010428	0.12599242
235	0xbc94dc29	-0.018171387
236	0x3d8449f9	0.06459422
237	0x3cb4cd07	0.02207042
238	0xbd878a8c	-0.066182226
239	0x3dd728fb	0.10505863
240	0xbdc6686d	-0.096878864
241	0xbde72c62	-0.11287762
242	0x3e02798f	0.12741683
243	0x3d0f6e6e	0.035017423
244	0x3c976fcf	0.018485932
245	0x3d271bf1	0.04079813
246	0xbd822a88	-0.063557684
247	0x3b29a42b	0.0025885205
248	0x3c45103e	0.012027798
249	0x3d5d4a19	0.054025743
250	0xbd7b34cd	-0.06132965
251	0x3c8061ea	0.015671689
252	0xbdc2111b	-0.09475919
253	0x3ca4dbd2	0.02012435
254	0x3d60663f	0.05478501
255	0x3e0b9e5c	0.13634628

classifier.0.weight f4 [32, 64]
0	0x3daf2e6a	0.08553775
1	0x3db9f92c	0.09080729
2	0x3dc5ef73	0.09664812
3	0xbdc0203f	-0.093811505
4	0xbe3dfef6	-0.18554291
5	0x3db19811	0.086715825
6	0x3c466b81	0.012110592
7	0xbdf98570	-0.12183654
8	0xbe0f781f	-0.14010666
9	0x3d284d34	0.04108925
10	0x3de2d6c7	0.11076122
11	0x3cc0d74e	0.023540165
12	0xbdae33d9	-0.08505983
13	0xbc61bf35	-0.013778497
14	0xbe33e4e0	-0.17567778
15	0xbaf0f147	-0.0018382453
16	0x3ddbe234	0.10736504
17	0xbdee361f	-0.116314165
18	0xbe64bfe6	-0.22338828
19	0xbe4877a4	-0.1957689
20	0x3d369b10	0.044581473
21	0xbe9f7928	-0.31147122
22	0xbe8da6fa	-0.27666456
23	0xbe00a621	-0.12563373
24	0x3ccab7a5	0.024745772
25	0xbe9af509	-0.30265072
26	0x3d15bfaf	0.036559757
27	0x3e7e0733	0.24807434
28	0x3e570441	0.20997716
29	0xbdd1c771	-0.102431186
30	0xbcd60772	-0.026126597
31	0xbe1783f1	-0.14796425
32	0xbc202a3e	-0.009775696
33	0x3e544470	0.20729232
34	0x3e8498a9	0.2589772
35	0x3e291cf2	0.16514948
36	0xbdb9ad71	-0.090662844
37	0x3e558514	0.20851547
38	0x3d064e12	0.032789297
39	0xbd921f97	-0.071349315
40	0xbdcd2d0f	-0.1001836
41	0x3d9b240c	0.07575235
42	0xbd08a832	-0.03336353
43	0x3e9b285a	0.30304223
44	0xbdc82a1d	-0.097736575
45	0x3d8dd5e4	0.06925562
46	0xbe8afc32	-0.27145535
47	0xbe9e9f93	-0.3098112
48	0xbe9c801f	-0.305665
49	0x3c994b9c	0.018712811
50	0x3ecc2393	0.3987089
51	0xbd45b690	-0.04826981
52	0xbe1c21ce	-0.1524727
53	0xbd80bc98	-0.062859714
54	0xbe1f54ba	-0.15559664
55	0xbe0efbf7	-0.13963304
56	0xbded1dbc	-0.11577937
57	0x3e954b28	0.29158902
58	0xbe01b431	-0.12666394
59	0x3e40b41d	0.18818708
60	0x3ddf1309	0.108923025
61	0x3d83b0b0	0.06430185
62	0x3e55c90f	0.20877479
63	0xbde67d7c	-0.11254403
64	0x3e319de2	0.17345384
65	0x3d9b5bac	0.075858444
66	0x3e54b30c	0.20771426
67	0xbd90bfc3	-0.07067826
68	0x3dd1d929	0.10246498
69	0xbe0230bb	-0.12713902
70	0xbdc96ce6	-0.09835224
71	0x3e811e67	0.25218508
72	0x3d9e628e	0.077336416
73	0xbd746074	-0.059662297
74	0xbdcad1c8	-0.09903294
75	0xbdc6d1b5	-0.09707967
76	0xbd13da9b	-0.03609715
77	0xbde446de	-0.11146329
78	0x3e15d4ca	0.14631954
79	0xbd28b891	-0.04119164
80	0xbd6c0ee2	-0.05763138
81	0xbd0be2f2	-0.03415198
82	0x3bc3e993	0.005978772
83	0xbd06a8e9	-0.03287593
84	0x3d489af7	0.04897591
85	0x3e659d44	0.22423273
86	0x3e9c1b01	0.30489352
87	0x3e26dcbc	0.16295141
88	0xbde1c63a	-0.11024137
89	0x3ece312c	0.4027189
90	0xbe0f8013	-0.140137
91	0xbd1424b1	-0.036167804
92	0xbe408802	-0.18801883
93	0xbd2b3628	-0.041799694
94	0x3d90dda6	0.07073526
95	0x3dbe3b98	0.0928871
96	0xbcc6e84d	-0.024280692
97	0xbe44a0c1	-0.19201948
98	0xbe923446	-0.28555506
99	0xbdaeca20	-0.08534646
100	0xbd6c8abc	-0.057749495
101	0x3d4a0662	0.049322493
102	0x3e9a2e27	0.30113336
103	0x3e93238a	0.28738052
104	0xbd9a2d0b	-0.075281225
105	0xbe476ae4	-0.1947437
106	0x3b96e9ca	0.0046055065
107	0xbed8fe5f	-0.4238157
108	0x3df845df	0.12122702
109	0xbe4bd11b	-0.19903986
110	0x3e2dfd23	0.16991095
111	0x3ec15abd	0.3776454
112	0x3e5d69a2	0.21622327
113	0x3e588256	0.21143469
114	0xbed53b8c	-0.41646993
115	0xbe220ea9	-0.15825905
116	0xbdcdb758	-0.10044736
117	0xbd409d9c	-0.047025308
118	0x3e04316c	0.12909478
119	0xbd0053fe	-0.0313301
120	0x3e8f52d0	0.27992868
121	0xbced020a	-0.028931636
122	0xbd149d49	-0.03628281
123	0xbd77b511	-0.060475413
124	0x3e12327a	0.14277068
125	0xbdaf5c1b	-0.085624896
126	0xbec46e9c	-0.38365638
127	0x3e1925f6	0.14955887
128	0xbcde3dea	-0.027129132
129	0x3e456972	0.19278505
130	0x3e299c01	0.16563417
131	0x3da91ed1	0.08257831
132	0x3dacd927	0.08439856
133	0xbe0631b7	-0.13104902
134	0xbdf91dc6	-0.12163882
135	0x3e900e85	0.28136078
136	0xbcbe2c1b	-0.02321439
137	0xbe469bc7	-0.19395362
138	0xbd15a4ea	-0.036534227
139	0xbd9cbfc3	-0.07653763
140	0xbd6907fb	-0.056892376
141	0xbe2aeb54	-0.16691333
142	0x3e739bae	0.23789856
143	0xbd26c02c	-0.040710613
144	0x3d75219e	0.059846513
145	0x3e34f9c8	0.17673409
146	0x3d537be9	0.05163184
147	0xbc4d33ff	-0.012524604
148	0xbd85e0ac	-0.065369934
149	0x3e83c9db	0.2573994
150	0x3e93112e	0.28724045
151	0x3d84cf30	0.064848304
152	0xbcdb6057	-0.026779337
153	0x3ea05624	0.3131572
154	0xbd96c093	-0.07360949
155	0xbdec6a54	-0.11543718
156	0xbe147944	-0.14499384
157	0x3d6c01bd	0.057618845
158	0x3e138946	0.14407834
159	0x3e187559	0.14888515
160	0x3e0cef63	0.13763194
161	0xbdb31e16	-0.08745973
162	0xbe62c7b2	-0.2214649
163	0xbdc13ea3	-0.09435775
164	0xbe1017ae	-0.14071533
165	0x3d7d24c3	0.061802637
166	0x3e2f2bd3	0.17106561
167	0x3e82b3bc	0.2552775
168	0xbe1bf136	-0.15228733
169	0xbd6e5a10	-0.05819136
170	0x3e1509b8	0.14554489
171	0xbea67f97	-0.32519218
172	0x3e4573a3	0.19282393
173	0xbdcff3b6	-0.10153906
174	0x3db48c2f	0.088158004
175	0x3e78a64a	0.24282184
176	0x3d8d4b23	0.06899097
177	0x3d91f976	0.07127659
178	0xbe99a1c2	-0.30006224
179	0xbe4ab431	-0.197953
180	0x3c8e0db9	0.017340528
181	0xbd9b4b89	-0.075827666
182	0x3b1d3391	0.0023987035
183	0xbe0bd5e7	-0.13655816
184	0x3e6d09fc	0.2314834
185	0xbd0b6c2e	-0.034038715
186	0xbc10d8fe	-0.0088407975
187	0x3ccbd383	0.02488113
188	0xbcdc9d0a	-0.02693035
189	0xbdfdd2cf	-0.12393724
190	0xbeafc0dc	-0.34326828
191	0x3e3edea5	0.1863962
192	0x3d566bdb	0.052348953
193	0x3e37110a	0.17877594
194	0x3e5f502f	0.21807931
195	0x3d0ae18e	0.033906512
196	0x3e05da56	0.1307157
197	0x3d194d06	0.03742697
198	0xbe6117f9	-0.21981801
199	0x3e422024	0.18957573
200	0x3ca68962	0.020329181
201	0xbe834ae7	-0.25643083
202	0xbd54a3c8	-0.051914006
203	0xbd9942c1	-0.074834354
204	0xbc9c102d	-0.019050682
205	0xbe86a50d	-0.262978
206	0x3e0ddd6a	0.13853994
207	0xbd8acae4	-0.067769796
208	0xbd327041	-0.043564085
209	0x3e07b764	0.13253552
210	0x3caf6e38	0.021414861
211	0x3e1b37e1	0.15158035
212	0xbd6c493d	-0.057687033
213	0x3eaf3d43	0.34226426
214	0x3eac07a8	0.3359959
215	0x3e68f423	0.22749381
216	0x3d92cde9	0.071681805
217	0x3ebcec1d	0.3689889
218	0xbdbfcadb	-0.093648635
219	0xbe3ca243	-0.18421273
220	0xbe8c7cda	-0.27439004
221	0x3d3b4687	0.045721557
222	0x3d1a5f7d	0.03768872
223	0x3e8a0712	0.2695852
224	0x3d91f6a2	0.071271196
225	0xbe3cd476	-0.18440422
226	0xbdddea06	-0.10835652
227	0x3b6f7147	0.0036536024
228	0xbe2cda5b	-0.16880171
229	0xbdc1e653	-0.09467759
230	0x3e63fa1c	0.22263378
231	0x3d9b9eeb	0.075986706
232	0xbd9dec06	-0.077110335
233	0xbe2adf43	-0.1668673
234	0x3ccf36fd	0.025294775
235	0xbf0a9fd2	-0.54150116
236	0x3dbddfa0	0.09271169
237	0xbd3e5a00	-0.04647255
238	0x3e669300	0.22517014
239	0x3e3dda46	0.18540296
240	0x3e7e5cfb	0.24840157
241	0x3c8ffc5d	0.01757639
242	0xbf087d98	-0.5331664
243	0xbe6a89c2	-0.22904113
244	0x3d623437	0.055225577
245	0x3d1f4fb2	0.038894363
246	0xbd4acaae	-0.049509697
247	0xbe0358f9	-0.12826909
248	0x3e50e9c0	0.20401669
249	0xbe29522f	-0.16535257
250	0xbd68523c	-0.05671905
251	0xbd10901f	-0.035293695
252	0xbdca3312	-0.09873022
253	0xbe065c4b	-0.13121144
254	0xbe561414	-0.20906097
255	0x3e497a30	0.19675517

classifier.0.bias f4 [32]
0	0x3d547270	0.05186695
1	0x3e339290	0.17536378
2	0x3dd1882a	0.10231049
3	0x3e2deb6e	0.1698434
4	0x3e7263d0	0.23670888
5	0xbbfa398e	-0.0076362556
6	0x3d42fe5f	0.04760587
7	0xbb3333e8	-0.002734417
8	0xbdd1d335	-0.10245363
9	0x3d9cca80	0.07655811
10	0x3e5a8150	0.21338391
11	0x3e2ec5e8	0.17067683
12	0x3e5d97c0	0.2163992
13	0xbc9ce56e	-0.01915237
14	0x3e0a5114	0.13507491
15	0xbd41ae2a	-0.047285236
16	0x3deb45a9	0.11487896
17	0xbbe5cb29	-0.007012744
18	0x3d8e39b9	0.069446035
19	0x3dace0d2	0.084413186
20	0x3e35ad23	0.17741828
21	0xbdfc62a1	-0.123234995
22	0x3df0e74a	0.11762865
23	0xbdb5062d	-0.088390686
24	0x3d0a4d61	0.0337652
25	0x3c9f6c40	0.019460797
26	0x3cfbf21c	0.030755095
27	0x3d59bd38	0.05315897
28	0x3d0ba752	0.034095116
29	0x3dbed909	0.0931874
30	0x3d8e1ab0	0.06938684
31	0xbdc029d8	-0.09382981

classifier.2.weight f4 [2, 32]
0	0xbe4e9229	-0.20172943
1	0x3ecb1323	0.39663038
2	0x3ea869b3	0.32893142
3	0x3e8e2017	0.27758858
4	0x3e7c18c1	0.24618818
5	0xbe45acab	-0.19304149
6	0xbe5b8cb8	-0.21440399
7	0xbeb12568	-0.3459885
8	0x3c37b2f7	0.011212102
9	0xbe159436	-0.14607319
10	0x3eb0baa2	0.3451739
11	0x3ea8a50c	0.3293842
12	0x3e4cafbe	0.19988915
13	0x3f01d7bf	0.5071983
14	0x3ec95f51	0.39330533
15	0xbe91c3aa	-0.28469592
16	0x3f0597b1	0.5218459
17	0xbeb30453	-0.34964237
18	0xbe89123c	-0.26771724
19	0xbe812429	-0.252229
20	0x3e1eabc5	0.15495212
21	0xbbded02f	-0.0067997198
22	0x3f01658e	0.50545585
23	0xbeb45b84	-0.3522607
24	0xbe394502	-0.1809273
25	0xbe99c6b2	-0.30034405
26	0xbe8d38bb	-0.27582344
27	0x3ec2c1c2	0.3803845
28	0x3e1bb522	0.15205815
29	0x3e74f6f1	0.23922326
30	0xbe3f834c	-0.1870243
31	0xbeab09bd	-0.33405867
32	0x3e802f08	0.25035882
33	0xbe8015f3	-0.25016746
34	0xbebbaf57	-0.3665721
35	0xbe88dfaa	-0.26733142
36	0xbec5140d	-0.3849186
37	0x3e81033d	0.25197783
38	0x3eb77707	0.35832998
39	0x3e651355	0.22370656
40	0x3d810f21	0.06301714
41	0x3ec60a76	0.38679856
42	0xbeb3b3e2	-0.35098177
43	0xbe7bf93e	-0.24606797
44	0xbeb8ff0e	-0.3613209
45	0xbe9c1b64	-0.30489647
46	0xbe889a2e	-0.2668013
47	0x3e34a464	0.17640835
48	0xbeda824a	-0.42677528
49	0x3e7a3631	0.24434735
50	0x3e35a2c4	0.17737871
51	0x3e5393a6	0.20661792
52	0xbec30ad2	-0.38094193
53	0xbdd058a7	-0.10173159
54	0xbefa50d7	-0.488898
55	0x3ea0cd2f	0.31406543
56	0x3ed86af4	0.422691
57	0x3e132562	0.14369729
58	0x3e1045cc	0.14089125
59	0xbebafc96	-0.36520833
60	0xbee1841b	-0.440461
61	0xbe57e815	-0.21084626
62	0x3e7e5656	0.24837622
63	0x3ec7a11b	0.389901

classifier.2.bias f4 [2]
0	0x3dcf6e2a	0.10128434
1	0xbe1da6e9	-0.15395702
