src/DARPA/pretrained/models/w100/resampled/phase_3.pth (torch, 194061 bytes, 8 tensors)

lstm.weight_ih_l0 f4 [256, 112]
0.3606287 0.1762541 0.011756031 -0.05257055 0.10495105 0.045629572 0.029059745 -0.017664894
0.113418445 0.0007870483 -0.1622112 0.022739867 0.09903571 -0.03404807 0.32530448 -0.017144663
0.24358022 -0.1312146 -0.060554508 0.07560965 0.05906226 -0.33914727 -0.05417894 -0.03864498
0.28438124 0.19880633 0.23615013 0.29921028 0.111344784 0.0407593 0.07187511 -0.07780071
0.04539307 0.1342165 -0.100737646 0.122802906 -0.057191197 -0.046748128 0.12861802 -0.041794606
0.07119273 0.15582232 0.025101049 0.04114427 -0.037931457 -0.09342381 -0.043057792 -0.117440656
-0.108528994 -0.06403096 0.061046988 0.01305455 0.050157193 0.11075846 -0.03325785 0.007927945
0.015504248 0.035132162 -0.07900421 0.12801975 0.5055927 0.022036834 0.0064416137 0.024412476
-0.047819123 0.11934667 0.11457398 0.16217005 0.047113676 0.22566655 0.22534344 0.14996688
0.00740114 -0.08845615 -0.121865414 0.0315561 -0.019738758 0.11126408 0.040722005 0.10794722
0.37848404 -0.097752824 0.016936254 -0.21759488 -0.008992795 0.1397133 -0.02559517 -0.11001292
0.0080102915 -0.069124475 0.066932306 0.13068137 -0.1553787 -0.3144283 0.08039257 -0.028252602
-0.06256819 -0.043611776 0.10930321 -0.043402277 0.10512741 -0.059671726 0.12239796 0.11315855
0.41804227 -0.030301617 -0.0027290399 0.05800563 0.042373642 0.16313125 -0.014318203 -0.11397038
0.22452998 -0.08759708 -0.05677094 0.08457717 0.07942296 -0.044636745 0.20175675 0.038348496
0.18811682 -0.039689153 -0.17111465 -0.11351438 -0.076517984 -0.028493462 -0.0054434864 0.28316802
0.3824459 -0.19876619 -0.025073627 0.09621923 -0.0743113 -0.014462811 0.046530757 0.10861192
0.01381532 -0.012842825 0.04201736 0.30587563 -0.13603821 0.07845447 -0.1457511 -0.21418265
0.16898817 0.0755431 0.06848924 -0.08404023 -0.21249375 -0.040898684 -0.014404468 0.0996836
-0.104865976 -0.08758114 -0.0051715276 -0.12293986 -0.071910605 -0.157708 0.062809534 0.0049356967
0.048208717 0.02624505 -0.09086239 -0.054538894 -0.09395345 -0.23710003 -0.044085395 -0.06781975
0.11377164 0.009205901 -0.019016836 0.03688305 0.4273208 0.056956246 -0.058440417 -0.02529108
0.029445097 -0.005208478 -0.09538821 -0.027324932 -0.018630398 0.15395766 -0.073255256 -0.062352333
-0.240178 -0.05353884 0.10389157 0.007607132 -0.066617526 -0.042519636 0.022780484 0.040696584
0.5061927 0.11733313 -0.056945316 -0.15683362 0.03384142 0.046960555 -0.08722958 -0.092728205
-0.0019554715 0.08396139 -0.10241826 0.099907316 -0.25822842 0.1841489 -0.07897875 0.17771098
0.073427774 -0.11266894 -0.10404481 0.09845174 -0.032615837 0.12606047 -0.13724722 -0.14723757
0.045327634 0.045654483 0.0056677484 -0.07694206 -0.054773536 0.16210665 -0.19869295 -0.2095153
-0.21992724 0.24317391 -0.016013835 0.011664912 -0.08283431 0.25182953 0.0039183293 -0.076238364
0.091629945 0.09739519 0.1093803 0.20307097 0.09396455 -0.12231261 -0.19124821 0.31870633
-0.049934756 0.14414619 -0.14075826 -0.07581684 -0.021066938 0.40139416 -0.029203674 -0.040074274
-0.13276915 0.14210807 0.18527916 0.21942502 0.07150583 0.26749977 -0.12775658 0.012460032
00000000: 53a4 b83e f47b 343e 5e9c 403c 3854 57bd
00000010: 93f0 d63d 13e6 3a3d b40e ee3c f8b5 90bc
00000020: ee47 e83d eb51 4e3a b11a 26be f548 ba3c
00000030: 3cd3 ca3d fd75 0bbd 4f8e a63e f772 8cbc
00000040: 186d 793e 1f5d 06be 0108 78bd 3bd9 9a3d
00000050: 45eb 713d b6a4 adbe bcea 5dbd 334a 1ebd
00000060: 6b9a 913e e393 4b3e 57d1 713e 1732 993e
00000070: bc08 e43d 39f3 263d 4233 933d fb55 9fbd
00000080: 15ee 393d 0d70 093e 8a4f cebd 1780 fb3d
00000090: 5141 6abd f77a 3fbd 71b4 033e d230 2bbd
000000a0: 7ecd 913d e38f 1f3e b7a0 cd3c e586 283d
000000b0: 045e 1bbd fc54 bfbd 5e5d 30bd ba84 f0bd
000000c0: 7344 debd aa22 83bd 680c 7a3d c0e2 553c
000000d0: a171 4d3d 55d5 e23d 6239 08bd 36e4 013c
000000e0: 8805 7e3c bee6 0f3d f6cc a1bd 9c17 033e
000000f0: 866e 013f 9786 b43c 2c14 d33b acfc c73c
00000100: fcdd 43bd 076c f43d c3a5 ea3d e80f 263e
00000110: 45fa 403d 2215 673e 6ec0 663e eb90 193e
00000120: 4385 f23b 7f28 b5bd 9394 f9bd f840 013d
00000130: 2db3 a1bc 6cde e33d 1ecc 263d 6f13 dd3d
00000140: a9c8 c13e a232 c8bd e6bd 8a3c 31d1 5ebe
00000150: 8456 13bc 0111 0f3e f6ac d1bc 744e e1bd
00000160: 993d 033c 2291 8dbd ce13 893d 56d1 053e
00000170: 981b 1fbe bffc a0be dca4 a43d 0072 e7bc
00000180: c023 80bd 43a2 32bd 5dda df3d 96c6 31bd
00000190: 0a4d d73d 576a 74bd c8ab fa3d abbf e73d
000001a0: a309 d63e 193b f8bc b1d9 32bb 5097 6d3d
000001b0: fc8f 2d3d e10b 273e e596 6abc 4d69 e9bd
000001c0: 30eb 653e 1966 b3bd a588 68bd cc36 ad3d
000001d0: 81a8 a23d 05d5 36bd 5299 4e3e 5013 1d3d
000001e0: b2a1 403e 1891 22bd ae38 2fbe 3a7a e8bd
000001f0: 76b5 9cbd 1f6b e9bc 465f b2bb 66fb 903e
00000200: f3cf c33e 5d89 4bbe 3567 cdbc 960e c53d
00000210: 8630 98bd 6df5 6cbc 0997 3e3d ed6f de3d
00000220: a759 623c b66a 52bc 651a 2c3d bb9b 9c3e
00000230: 9a4d 0bbe bdac a03d c73f 15be b252 5bbe
00000240: 3c0b 2d3e 57b6 9a3d 1644 8c3d 491d acbd
00000250: f697 59be 6185 27bd b800 6cbc ea26 cc3d
00000260: f9c3 d6bd be5d b3bd eb75 a9bb e5c7 fbbd
00000270: de45 93bd 357e 21be 49a2 803d a0bb a13b
00000280: 8176 453d dcff d63c 1016 babd 2d64 5fbd
00000290: ab6a c0bd 5aca 72be e392 34bd 15e5 8abd
000002a0: 1b01 e93d 59d4 163c 32c9 9bbc ae12 173d
000002b0: cbc9 da3e f44a 693d 385f 6fbd 3d2f cfbc
000002c0: d836 f13c e1ab aabb e55a c3bd 89d8 dfbc
000002d0: c79e 98bc 14a7 1d3e da06 96bd 2965 7fbd
000002e0: 39f1 75be 8b4b 5bbd 1ac5 d43d 4045 f93b
000002f0: c56e 88bd 1229 2ebd 239e ba3c 76b1 263d
00000300: d895 013f 5a4c f03d 7e3f 69bd fe98 20be
00000310: 4d9d 0a3d b659 403d 6ca5 b2bd 49e8 bdbd
00000320: 5e27 00bb f3f3 ab3d aac0 d1bd 359c cc3d
00000330: 8436 84be 8791 3c3e 9cbf a1bd def9 353e
00000340: 4d61 963d f9be e6bd 7215 d5bd 11a1 c93d
00000350: 2f98 05bd ff15 013e 898a 0cbe 72c5 16be
00000360: 78a9 393d 3200 3b3d 85b8 b93b cc93 9dbd
00000370: 375a 60bd 49ff 253e 2a76 4bbe 2e8b 56be
00000380: 9b34 61be 9502 793e 722f 83bc 301e 3f3c
00000390: 09a5 a9bd cdef 803e 5465 803b dc22 9cbd
000003a0: 7ba8 bb3d 2177 c73d c702 e03d d6f1 4f3e
000003b0: 7c70 c03d 097f fabd 92d6 43be 7a2d a33e
000003c0: 6388 4cbd 0f9b 133e ef22 10be dc45 9bbd
000003d0: 9294 acbc 8983 cd3e 8b3c efbc ec24 24bd
000003e0: a3f4 07be c784 113e d2b9 3d3e f4b0 603e
000003f0: a671 923d bbf5 883e 9fd2 02be 2925 4c3c

lstm.weight_hh_l0 f4 [256, 64]
0.18814474 0.0476105 0.09631243 -0.0110891005 -0.08153701 0.007933501 -0.009725491 0.020595262
-0.020141218 0.18699487 -0.003412046 0.013446434 0.101926245 -0.0047593242 -0.06216662 0.08714601
-0.058858786 -0.058487877 0.18600918 -0.047496133 -0.07450217 0.12875307 0.18165383 -0.06615169
-0.13867934 0.131546 0.07133716 0.15039992 -0.03004695 -0.0334435 0.060374625 0.11240111
0.06564852 -0.021440148 -0.08788131 -0.021036906 0.09650139 0.107292816 0.2117894 -0.053008374
0.11328042 0.16229513 0.016223788 -0.03342688 -0.17229149 0.13994412 -0.117740594 0.23773259
0.0045209434 0.10390761 0.030422062 0.019132037 -0.05738547 0.023320494 0.10690817 0.037426487
0.012079763 0.011086967 -0.08427897 -0.033364348 0.050661523 0.095932096 0.063448794 0.18020451
0.07431383 -0.08290291 -0.019932153 -0.077482305 -0.21025091 0.09788247 -0.0077343322 0.058256634
-0.109711744 0.15365559 -0.038403653 0.072484136 0.10494558 -0.02723644 -0.019348618 -0.08196077
0.07287511 -0.061915252 0.15911748 -0.07336482 0.028180892 0.020634372 0.019291217 0.063157864
-0.012186941 -0.026819896 -0.06366155 0.11524676 0.16769111 -0.12701388 -0.14031015 0.115426145
-0.13467708 0.010846344 -0.08242218 -0.12006463 0.12186843 0.056615103 0.2111304 -0.05215349
-0.053853158 0.16592398 0.008377135 0.20227794 -0.09821736 -0.015290809 -0.17945315 -0.06094438
0.08612376 0.14446574 0.034479756 -0.1387917 0.054576054 0.04523862 0.0680524 0.14872816
0.060533825 -0.07841985 -0.16029026 -0.048939344 0.101401374 0.10708994 0.06782177 0.16298965
-0.04323048 0.040611085 -0.06779285 0.11482431 0.15398233 -0.11838421 0.09833642 0.18185042
0.08751888 0.058026455 0.041712724 0.0600323 -0.06583354 -0.082484186 0.015615773 0.1763359
-0.035353605 0.101102546 0.060854245 0.025154347 0.061457418 0.008403007 0.029460208 0.04855686
-0.09474259 -0.14391604 0.08038913 -0.1087099 -0.024385737 0.06447757 0.051974732 -0.015620969
-0.16333899 0.10579338 0.006356648 0.19763322 -0.06132889 -0.11913563 0.08458977 0.001008159
-0.1526833 0.22076009 -0.0446055 -0.008430781 0.12290193 -0.14724565 0.12098845 -0.113599114
0.08339109 0.07722699 -0.13434996 0.28947523 0.12555815 -0.02459015 -0.0013612274 0.073164456
-0.22855921 0.099632375 -0.031900574 0.16656092 0.08115325 0.033675957 -0.19328701 -0.17378801
0.095741436 0.11590987 0.07333431 0.1600124 0.134938 0.12742254 -0.08294003 -0.026592435
-0.13114063 0.0012273327 0.036490858 -0.041334577 -0.027825963 -0.16987972 0.10318632 0.014276644
-0.21173984 0.07497356 -0.044428263 0.042292073 -0.05299162 -0.052500788 -0.008186359 -0.22317898
0.057134554 -0.14873093 -0.045326393 -0.09524022 0.12431893 0.17945124 -0.085535884 0.05911499
-0.06430906 -0.10431587 0.01215018 0.152022 -0.04095087 0.0173988 -0.056426786 0.03663149
0.06695208 0.18909636 0.078207344 0.051640883 0.15831634 -0.20576629 -0.08800942 0.011886865
-0.07991143 -0.12369111 0.06485435 0.07408115 -0.090211 -0.044854 0.03871926 0.05204221
-0.0125065865 0.08005597 0.043574255 0.009391348 -0.06550353 -0.095335804 0.16035752 0.09852987
00000000: 04a9 403e 3a03 433d 743f c53d 0faf 35bc
00000010: e0fc a6bd 84fb 013c aa57 1fbc 65b7 a83c
00000020: 32ff a4bc 957b 3f3e a29c 5fbb 6f4e 5c3c
00000030: b5be d03d 1bf4 9bbb 6da2 7ebd 9b79 b23d
00000040: e915 71bd fc90 6fbd 3179 3e3e 4e8b 42bd
00000050: 9894 98bd d8d7 033e 7603 3a3e 8a7a 87bd
00000060: f501 0ebe ffb3 063e 3819 923d 7002 1a3e
00000070: 0525 f6bc 0dfc 08bd 624b 773d 8e32 e63d
00000080: bb72 863d 40a3 afbc 1efb b3bd 9755 acbc
00000090: 85a2 c53d 56bc db3d 52df 583e 4f1f 59bd
000000a0: 91ff e73d b230 263e c0e7 843c a0ea 08bd
000000b0: 2e6d 30be 834d 0f3e fb21 f1bd 2c70 733e
000000c0: 6c24 943b 83cd d43d b037 f93c caba 9c3c
000000d0: 070d 6bbd 9f0a bf3c acf2 da3d 844c 193d
000000e0: 33ea 453c 1ca6 353c 749a acbd 0ea9 08bd
000000f0: 7582 4f3d 0c78 c43d 71f1 813d 8887 383e
00000100: d931 983d 00c9 a9bd c148 a3bc 0baf 9ebd
00000110: 044c 57be 9b76 c83d 4870 fdbb 829e 6e3d
00000120: 8db0 e0bd e457 1d3e 264d 1dbd 9072 943d
00000130: b5ed d63d f41e dfbc fe80 9ebc 0cdb a7bd
00000140: 8c3f 953d d99a 7dbd b1ef 223e 4b40 96bd
00000150: 9ddb e63c 6a09 a93c 9d08 9e3c e958 813d
00000160: bcab 47bc 66b5 dbbc fd60 82bd 7e06 ec3d
00000170: 38b7 2b3e ed0f 02be 77ad 0fbe 8b64 ec3d
00000180: cae8 09be ddb4 313c f6cc a8bd 72e4 f5bd
00000190: 2896 f93d 3de5 673d 9132 583e e69e 55bd
000001a0: 2195 5cbd fae7 293e 4040 093c f321 4f3e
000001b0: 2f26 c9bd 4d86 7abc 91c2 37be d0a0 79bd
000001c0: a761 b03d d4ee 133e a53a 0d3d 691f 0ebe
000001d0: 248b 5f3d 224c 393d 0f5f 8b3d 324c 183e
000001e0: 51f2 773d 969a a0bd 2123 24be 9f74 48bd
000001f0: 86ab cf3d f851 db3d 24e6 8a3d c2e6 263e
00000200: 7212 31bd cf57 263d fad6 8abd 0229 eb3d
00000210: 8bad 1d3e 6c73 f2bd 9b64 c93d ff36 3a3e
00000220: 193d b33d 26ad 6d3d f6da 2a3d 6ee4 753d
00000230: bcd3 86bd 78ed a8bd 4dd9 7f3c 6691 343e
00000240: f1ce 10bd da0e cf3d 4d42 793d 7d10 ce3c
00000250: c6ba 7b3d c4ac 093c 8956 f13c 8fe3 463d
00000260: 6708 c2bd ba5e 13be 0ea3 a43d 4ca3 debd
00000270: 99c4 c7bc d10c 843d 75e3 543d 18ef 7fbc
00000280: 5642 27be 33aa d83d 6e4b d03b 5d60 4a3e
00000290: 0134 7bbd 62fd f3bd 673d ad3d 3424 843a
000002a0: 0359 1cbe ef0e 623e 42b4 36bd 4221 0abc
000002b0: 02b4 fb3d 90c7 16be cbc8 f73d a7a6 e8bd
000002c0: f3c8 aa3d 2f29 9e3d 0993 09be 1936 943e
000002d0: 5192 003e 4871 c9bc 366b b2ba 3fd7 953d
000002e0: 6d0b 6abe 0f0c cc3d 2daa 02bd f28e 2a3e
000002f0: ad33 a63d cdef 093d 08ed 45be 7cf5 31be
00000300: 1614 c43d 2762 ed3d 4c30 963d 4ada 233e
00000310: 302d 0a3e 0e7b 023e 76dc a9bd 61d8 d9bc
00000320: bb49 06be 74de a03a 7077 153d 724e 29bd
00000330: 46f3 e3bc f3f4 2dbe 5953 d33d 96e8 693c
00000340: 54d2 58be bd8b 993d 69fa 35bd 743a 2d3d
00000350: be0d 59bd 110b 57bd 1420 06bc 0889 64be
00000360: ec05 6a3d ec4c 18be 2ba8 39bd 4e0d c3bd
00000370: ec9a fe3d 11c2 373e 702d afbd 8f22 723d
00000380: 78b4 83bd 8fa3 d5bd 8c11 473c a8ab 1b3e
00000390: 19bc 27bd ee87 8e3c c61f 67bd e70a 163d
000003a0: 2c1e 893d 7aa2 413e 2c2b a03d 6485 533d
000003b0: ae1d 223e 66b4 52be 483e b4bd 20c1 423c
000003c0: 9ba8 a3bd c451 fdbd 5cd2 843d dcb7 973d
000003d0: 8bc0 b8bd d4b8 37bd 1698 1e3d 362a 553d
000003e0: 6de8 4cbc 62f4 a33d eb7a 323d 2bde 193c
000003f0: b726 86bd 6b3f c3bd c334 243e 07ca c93d

lstm.bias_ih_l0 f4 [256]
0.062119126 -0.21675791 0.19365098 -0.007221861 -0.037370965 -0.069108605 -0.06335793 -0.03761743
0.033483114 -0.029935831 0.037430756 -0.16589072 0.010949452 0.0934106 -0.054591205 -0.06691427
0.2817771 0.080525085 0.032143567 0.09728221 0.16028298 -0.12061542 -0.00809268 0.20532249
-0.11921859 0.070396505 -0.04283578 0.13836227 -0.018070817 0.08899076 0.09424513 -0.0022626666
0.033544924 -0.0532957 0.1599196 0.027053028 -0.04754299 -0.042840302 -0.0935895 0.19661462
0.055673316 -0.036089152 0.009777311 0.107304044 0.03903926 0.0989022 0.056645468 0.19103627
-0.05168144 -0.00045317324 0.07162123 -0.014118846 0.03513363 0.05463854 -0.090164416 0.17479345
0.061966624 -0.0038079391 -0.013856049 -0.003096342 0.15442592 -0.07172105 0.18508267 0.0011935629
-0.07540513 -0.061724767 -0.03389173 0.05430518 0.10798435 -0.028269367 0.094571754 -0.122995526
-0.056409307 -0.025122682 -0.010147499 -0.1267324 0.09501771 -0.124768436 0.06033467 0.052218765
0.07805818 0.16867267 -0.00713189 -0.13907278 -0.042159185 0.0048884577 -0.13715623 0.031682055
0.05069029 -0.09399258 -0.050415047 -0.113719895 -0.081822865 0.041701287 -0.07391907 -0.09683175
-0.08402847 -0.04937058 0.10985313 0.14671357 0.037009064 0.026378768 0.023491204 0.100652054
0.17737581 -0.018944765 -0.070117824 0.06264166 0.14143558 -0.08300349 -0.13667594 0.031842824
0.14727496 -0.029835831 -0.021210825 0.07766078 -0.060616843 -0.034837227 -0.023082387 -0.03094368
-0.02428286 0.01898183 -0.11914407 -0.08746036 -0.03103218 0.07823902 -0.05038582 0.18897673
0.11744978 0.0012165125 0.015562783 0.05732517 0.106201835 -0.022740768 0.08013197 -0.019602137
-0.09853647 0.055147678 -0.023807047 0.05432325 -0.009862591 0.028834295 0.058059745 -0.09752583
-0.061446782 0.033804696 -0.035161622 0.056995675 -0.06137429 -0.066569015 0.03289502 0.04265734
-0.06664415 -0.020715829 0.08790361 -0.11288051 0.04790782 0.045271393 -0.024418587 -0.10887247
-0.02267233 -0.0118059125 0.114997104 0.07032658 -0.09493656 -0.043635253 -0.117559746 0.045162424
0.08934819 0.020032562 0.05568831 -0.07801627 0.1509961 0.023672357 0.049951173 0.016380478
0.010287948 -0.09125412 0.0227799 -0.12096837 -0.055006366 -0.013754615 0.013322214 -0.06287509
-0.09855849 -0.101620935 -0.014017759 -0.09067875 -0.04295323 0.102853924 0.017093865 -0.022399787
-0.12225368 -0.14788827 -0.00930868 -0.0039326777 0.091496795 0.0798803 0.11290718 -0.13589141
-0.06636651 -0.055587996 0.018823538 0.011795436 0.13425899 0.014263324 -0.004777991 0.05071044
0.28059843 0.0769892 -0.082074896 0.027850848 0.07374535 0.048023693 0.014245171 0.039597955
0.06467465 0.10038249 -0.0041391463 -0.12821183 0.0008246306 -0.01952224 0.12410663 -0.06644215
-0.09899945 -0.06889992 0.15779889 0.22606806 -0.06549687 0.11009632 0.028404143 0.05434127
0.07638645 0.109662995 0.022061754 0.004584315 0.024460055 0.0084301755 -0.007444916 -0.0064972476
-0.04302912 0.22151294 0.17806242 -0.015017645 0.053191353 0.09868794 0.062568195 -0.0017052193
0.08125958 -0.054845884 0.05300846 0.13240342 -0.028038926 0.07735149 0.22330815 -0.0995027
00000000: a070 7e3d c9f5 5dbe 714c 463e 5ca5 ecbb
00000010: 4c12 19bd d088 8dbd cdc1 81bd bc14 1abd
00000020: 9725 093d fd3b f5bc fe50 193d 42df 29be
00000030: 5565 333c 0f4e bf3d 079b 5fbd 590a 89bd
00000040: 1745 903e 56ea a43d f9a8 033d e53b c73d
00000050: 3921 243e 3805 f7bd 2997 04bc 0f40 523e
00000060: e028 f4bd 0b2c 903d 9274 2fbd d7ae 0d3e
00000070: 4009 94bc ca40 b63d 9703 c13d 3f49 14bb
00000080: 6766 093d 984c 5abd f7c1 233e 509e dd3c
00000090: 70bc 42bd 5079 2fbd daab bfbd 5855 493e
000000a0: b409 643d 38d2 13bd 0431 203c 39c2 db3d
000000b0: a2e7 1f3d 3d8d ca3d 1405 683d 039f 433e
000000c0: ebaf 53bd e297 edb9 27ae 923d bb52 67bc
000000d0: 48e8 0f3d a9cc 5f3d 1fa8 b8bd 0efd 323e
000000e0: b7d0 7d3d 9e8e 79bb 7b04 63bc 00ec 4abb
000000f0: d421 1e3e 7ce2 92bd 5086 3d3e 5371 9c3a
00000100: 016e 9abd 1cd3 7cbd 0ed2 0abd 1c6f 5e3d
00000110: e626 dd3d 2995 e7bc d6ae c13d 14e5 fbbd
00000120: 720d 67bd 15ce cdbc b241 26bc 23c6 01be
00000130: a598 c23d 9886 ffbd 7d21 773d 58e3 553d
00000140: f8dc 9f3d 87b8 2c3e a1b2 e9bb 1869 0ebe
00000150: 1caf 2cbd 5b2f a03b af72 0cbe 0bc5 013d
00000160: 9fa0 4f3d 2f7f c0bd 0280 4ebd fae5 e8bd
00000170: bf92 a7bd f8ce 2a3d e262 97bd b94f c6bd
00000180: 1e17 acbd ce38 4abd aefa e03d 153c 163e
00000190: d196 173d 4918 d83c a070 c03c aa22 ce3d
000001a0: 01a2 353e 0d32 9bbc ef99 8fbd 454a 803d
000001b0: 7dd4 103e bcfd a9bd c7f4 0bbe 9f6d 023d
000001c0: 3fcf 163e 466a f4bc 53c2 adbc 9d0c 9f3d
000001d0: 5e49 78bd 7bb1 0ebd 4617 bdbc 9a7d fdbc
000001e0: d9ec c6bc c87f 9b3c ce01 f4bd 6b1e b3bd
000001f0: 3337 febc c83b a03d 5d61 4ebd 1e83 413e
00000200: 8389 f03d 6373 9f3a 0bfb 7e3c cccd 6a3d
00000210: 5980 d93d d94a babc 3b1c a43d a994 a0bc
00000220: 7dcd c9bd 88e2 613d ff06 c3bc 0e82 5e3d
00000230: b496 21bc e635 ec3c 0ed0 6d3d 9fbb c7bd
00000240: 9faf 7bbd cb76 0a3d a205 10bd 4c74 693d
00000250: 9c63 7bbd 5655 88bd eebc 063d 77b9 2e3d
00000260: ba7c 88bd 3eb4 a9bc cf06 b43d e62d e7bd
00000270: fe3a 443d 7f6e 393d 7d09 c8bc 88f8 debd
00000280: 52bb b9bc 966d 41bc 9a83 eb3d 6207 903d
00000290: 196e c2bd e1ba 32bd 2ac3 f0bd 3cfc 383d
000002a0: 2ffc b63d 541b a43c 6d19 643d ffc6 9fbd
000002b0: b99e 1a3e 88ec c13c 9a99 4c3d 5a30 863c
000002c0: c88e 283c 71e3 babd ea9c ba3c 44be f7bd
000002d0: 5b4e 61bd 095b 61bc 6a45 5a3c a8c4 80bd
000002e0: 09d9 c9bd a31e d0bd beaa 65bc c8b5 b9bd
000002f0: baef 2fbd 14a5 d23d 6f08 8c3c c27f b7bc
00000300: 2360 fabd 0670 17be 6f83 18bc b1dd 80bb
00000310: ac62 bb3d 4898 a33d e13b e73d 1e27 0bbe
00000320: 2aeb 87bd 3db0 63bd d233 9a3c a541 413c
00000330: 307b 093e b8b0 693c b290 9cbb c0b5 4f3d
00000340: 99aa 8f3e 84ac 9d3d e216 a8bd 7627 e43c
00000350: cd07 973d 7eb4 443d 9464 693c 7731 223d
00000360: 2574 843d 5695 cd3d ada1 87bb f649 03be
00000370: 062c 583a 1bed 9fbc 9e2b fe3d d212 88bd
00000380: 39c0 cabd 671b 8dbd 0896 213e 637e 673e
00000390: 3923 86bd 2e7a e13d ceaf e83c f494 5e3d
000003a0: 8070 9c3d fe96 e03d daba b43c 0538 963b
000003b0: 7460 c83c b81e 0a3c 7bf4 f3bb dde6 d4bb
000003c0: 4d3f 30bd 4ad4 623e ff55 363e 920c 76bc
000003d0: 2ddf 593d e71c ca3d c123 803d aa81 dfba
000003e0: 6c6b a63d 14a6 60bd 661f 593d c394 073e
000003f0: e4b1 e5bc 756a 9e3d e4aa 643e 12c8 cbbd

lstm.bias_hh_l0 f4 [256]
-0.11176646 -0.11757901 0.1145584 0.12617552 0.07618474 0.08247037 -0.062178656 0.029066553
-0.017233413 0.014151473 0.17192094 -0.09635969 -0.026334332 -0.10319068 -0.07806873 -0.1101913
0.19779906 -0.11782986 0.072758965 0.09781838 -0.013309167 -0.13157307 -0.07797906 0.19926906
0.07052849 -0.055495106 -0.023852093 0.11779222 -0.12002404 -0.057967167 0.027390491 0.03552463
-0.022220314 -0.005447515 0.09633562 0.074853614 -0.093900904 -0.07816451 0.070148036 -0.020870198
0.08262978 0.028532315 -0.046839204 0.15286152 0.07789964 -0.06731633 -0.00046767187 0.1783487
0.12227048 0.053955987 0.023512183 -0.03168528 0.07161453 0.0742007 -0.087374665 -0.039825097
0.020974709 0.13857584 -0.057526235 0.04003766 0.086092554 0.020292677 0.07926488 0.08616763
-0.07990935 -0.0007166062 0.068614036 0.22298895 -0.036446333 0.04941222 0.11923577 -0.1299964
-0.037274368 -0.115531944 -0.076193035 0.03223506 0.050438363 -0.14227912 0.08936739 0.03089919
-0.06178611 0.12778385 0.034617186 -0.004154449 -0.017520647 0.043763984 -0.1339962 -0.14132033
0.11740944 0.066228636 -0.088597834 -0.017653702 0.06681372 0.09011179 0.050751176 0.028525818
-0.015996976 0.011125641 0.07539684 0.050139382 0.055303242 -0.04386592 0.0071569653 -0.046958696
0.16403551 0.012216417 -0.15271895 0.036839746 -0.00915328 0.074296154 -0.067983754 -0.08042827
0.14231853 -0.03665975 0.10141374 -0.024416506 -0.07773383 -0.017880656 -0.044656273 0.15700398
-0.01252833 -0.12106754 -0.032776028 -0.087228216 0.14497475 0.0326728 0.009172484 0.030475395
0.035012566 0.011844156 0.05883499 -0.009672083 0.09164089 -0.018310117 0.19686194 -0.07968058
0.10403368 -0.007805421 0.021814859 -0.09876624 -0.005019457 0.06693557 -0.078596525 -0.028748764
-0.062543735 0.053949982 0.082043275 0.006111334 -0.03493138 -0.034883194 0.0014875581 -0.13020203
0.072342314 0.110705 -0.07927682 0.042513475 -0.054402456 -0.1057844 0.019231057 -0.03546544
0.08335644 0.08979593 -0.105349936 0.08553837 0.043559603 0.10831425 -0.048654918 0.20544189
0.09913195 -0.09486927 0.09028937 0.023936102 0.098735996 -0.023001656 0.112575755 0.008295411
-0.002614302 -0.044520438 -0.09354905 -0.043026812 -0.07961855 0.04087478 -0.0027605041 -0.033269078
-0.046072435 0.07590691 -0.0626682 -0.046755776 0.016071808 -0.029685663 -0.05778105 -0.048716057
0.042803187 -0.23552138 -0.0031008085 0.051544264 -0.090970114 -0.031542666 -0.07588252 -0.1304668
-0.118631184 -0.101460084 0.11312798 0.026923008 0.091563754 -0.06054425 0.05889715 0.06624432
0.21432377 0.07976197 0.034253858 -0.04345476 0.008449325 -0.13512543 0.10497801 0.14968805
-0.04244743 0.18611978 0.009074572 0.065896496 0.05996508 0.18403292 0.06396585 -0.10791875
0.030535048 0.051443025 0.12820776 0.120239414 0.06584981 0.0047267564 -0.033187114 -0.03857562
0.18322109 0.0149877425 -0.122070074 -0.12103393 0.000509598 -0.047536947 -0.02272952 -0.03961854
-0.019808255 0.13947624 0.19252287 0.118264936 0.10865507 0.10180337 0.05353079 0.18885712
-0.053224504 0.049775165 0.06123958 0.028058533 0.04688033 -0.025847843 0.059998367 0.026702449
00000000: d0e5 e4bd 44cd f0bd 989d ea3d 2834 013e
00000010: bf06 9c3d 3ae6 a83d 0caf 7ebd fb1c ee3c
00000020: 162d 8dbc 94db 673c 0b0c 303e 3b58 c5bd
00000030: 19bb d7bc a355 d3bd 80e2 9fbd faab e1bd
00000040: d68b 4a3e c850 f1bd a702 953d 0155 c83d
00000050: b10e 5abc 17bb 06be 7cb3 9fbd 300d 4c3e
00000060: 3e71 903d d64e 63bd 7765 c3bc 0c3d f13d
00000070: 2acf f5bd fb6e 6dbd 0662 e03c 4682 113d
00000080: 6007 b6bc 1181 b2bb 9c4b c53d da4c 993d
00000090: 1e4f c0bd b714 a0bd c6a9 8f3d faf7 aabc
000000a0: cd39 a93d 9abc e93c 77da 3fbd bb87 1c3e
000000b0: d989 9f3d 25dd 89bd db31 f5b9 0ba1 363e
000000c0: f268 fa3d f400 5d3d 9f9c c03c 6dc8 01bd
000000d0: a4aa 923d 89f6 973d 7df1 b2bd a41f 23bd
000000e0: 27d3 ab3c d3e6 0d3e a1a0 6bbd 88fe 233d
000000f0: 4b51 b03d d43c a63c a055 a23d a878 b03d
00000100: 83a7 a3bd a1da 3bba 8485 8c3d 3757 643e
00000110: c048 15bd 7864 4a3d e231 f43d c71d 05be
00000120: 02ad 18bd 039c ecbd 180b 9cbd e908 043d
00000130: 7598 4e3d 9eb1 11be 4006 b73d 4c20 fd3c
00000140: 6f13 7dbd c5d9 023e c0ca 0d3d 0b22 88bb
00000150: 7687 8fbc dd41 333d 4d36 09be 47b6 10be
00000160: 5c74 f03d e1a2 873d c872 b5bd 7f9e 90bc
00000170: a2d5 883d 888c b83d 77e0 4f3d faae e93c
00000180: 170c 83bc 5248 363c a969 9a3d f45e 4d3d
00000190: a785 623d c0ac 33bd fa84 ea3b c357 40bd
000001a0: edf8 273e 5e27 483c 5b62 1cbe 46e5 163d
000001b0: a4f7 15bc 9528 983d 113b 8bbd 94b7 a4bd
000001c0: f3bb 113e 8928 16bd 02b2 cf3d 2005 c8bc
000001d0: ea32 9fbd 747a 92bc 7fe9 36bd a7c5 203e
000001e0: a043 4dbc 42f2 f7bd 2840 06bd b5a4 b2bd
000001f0: 4374 143e ead3 053d 3048 163c 89a7 f93c
00000200: 5669 0f3d fe0d 423c f5fc 703d a877 1ebc
00000210: 38ae bb3d 19ff 95bc 2d96 493e 922f a3bd
00000220: 9c0f d53d 9ec4 ffbb 13b5 b23c f445 cabd
00000230: 427a a4bb 8415 893d 37f7 a0bd 8782 ebbc
00000240: ee16 80bd a8fa 5c3d 4e06 a83d 9641 c83b
00000250: 3514 0fbd aee1 0ebd 2bfa c23a ae53 05be
00000260: 3528 943d 4eb9 e23d e35b a2bd 9c22 2e3d
00000270: 1cd5 5ebd 7ea5 d8bd 738a 9d3c 3644 11bd
00000280: c8b6 aa3d eee6 b73d b5c1 d7bd be2e af3d
00000290: 8e6b 323d ddd3 dd3d 614a 47bd 5c5f 523e
000002a0: b105 cb3d d24a c2bd a2e9 b83d a515 c43c
000002b0: 1936 ca3d f86d bcbc 1e8e e63d 7ae9 073c
000002c0: b654 2bbb 105b 36bd a596 bfbd e23c 30bd
000002d0: 0d0f a3bd 506c 273d 93e9 34bb 2845 08bd
000002e0: 73b6 3cbd 1575 9b3d 2f58 80bd fc82 3fbd
000002f0: 06a9 833c 592f f3bc d3ab 6cbd 7d8a 47bd
00000300: 6552 2f3d 842c 71be ef36 4bbb 1420 533d
00000310: 8a4e babd e232 01bd 4b68 9bbd 1799 05be
00000320: e8f4 f2bd 4eca cfbd a4af e73d a48d dc3c
00000330: c785 bb3d 3ffd 77bd 233e 713d 1aab 873d
00000340: b177 5b3e 3e5a a33d c64d 0c3d 9efd 31bd
00000350: 0a6f 0a3c 525e 0abe b6fe d63d d347 193e
00000360: 5bdd 2dbd 2f96 3e3e 83ad 143c bef4 863d
00000370: f29d 753d 2073 3c3e 8700 833d 8104 ddbd
00000380: a324 fa3c ecb5 523d e548 033e 1540 f63d
00000390: 44dc 863d e8e2 9a3b 36ef 07bd 7801 1ebd
000003a0: 4f9e 3b3e 268f 753c e0ff f9bd a3e0 f7bd
000003b0: 8b96 053a 1ab6 42bd 4233 babc 0d47 22bd
000003c0: ec44 a2bc dcd2 0e3e b724 453e e334 f23d
000003d0: 8d86 de3d 497e d03d 1a43 5b3d c363 413e
000003e0: f001 5abd 0be1 4b3d 5bd6 7a3d 02db e53c
000003f0: 9705 403d dbbe d3bc d9c0 753d 18bf da3c

classifier.0.weight f4 [32, 64]
-0.09253862 0.082932934 -0.019946862 0.15297988 0.17953412 -0.10215562 -0.05840449 -0.17042091
0.155397 0.118766166 0.001573328 -0.0358829 -0.058831837 0.06944721 -0.12699464 -0.0872403
-0.585914 0.0753083 0.09659836 0.2965377 -0.19627519 -0.02503089 -0.014800673 0.29381913
-0.049107715 -0.1989771 0.08361281 0.042691194 -0.045750607 0.20456265 0.17278679 -0.06807183
-0.22571827 0.053326633 0.11218449 0.02870021 0.062896624 -0.052380472 -0.09488815 0.17500286
0.09907629 0.24659453 -0.021967651 -0.093026854 0.14390898 -0.12799378 0.069137715 0.20259885
0.061784394 -0.5403068 0.028034206 0.34646818 -0.08973084 -0.21883687 -0.19899508 -0.0050277985
-0.082286604 0.35012898 -0.20647973 0.062346254 0.12110538 0.051747944 -0.12274356 -0.1517531
-0.13245484 0.13946822 -0.007998046 0.20586075 0.12379947 -0.08943945 0.12538628 0.057083037
0.15413243 -0.103011616 0.035129864 -0.016043333 0.097479604 0.13539654 0.033528958 0.089891315
-0.32978827 0.060668964 0.06813209 0.09707648 -0.12327113 -0.020634122 -0.0890556 0.23967467
0.01487112 -0.0922727 0.13714331 -0.10002627 -0.043283448 0.06413361 0.16045964 -0.1394822
-0.12832673 0.19879398 -0.00784902 0.16576187 0.083554715 0.058372706 -0.1692925 0.1916952
-0.05651827 0.11270039 0.1480042 0.12843704 0.17126022 -0.118421875 0.18421319 -0.029316312
-0.04328045 -0.20350301 -0.044974957 0.14747022 0.097757824 -0.1913265 -0.18703648 -0.07967682
-0.04816342 0.12915796 -0.10092115 0.12971942 -0.06388931 0.08737822 -0.17087473 -0.1527171
0.031069191 0.01313449 0.11835571 -0.0033862214 -0.14627208 0.05850025 -0.11139147 -0.013103618
-0.061864235 -0.008471768 -0.090948395 0.13784036 0.017219083 -0.042102963 0.08517941 -0.11551743
-0.07180519 -0.09635886 0.011389652 0.064149044 0.08180223 -0.055579916 0.08237015 0.102350555
-0.086844645 -0.09339661 0.08755381 -0.095182985 0.08187499 -0.033530127 -0.006109055 0.093050554
-0.045576897 0.022208236 0.068334594 -0.06914662 0.15576105 -0.028928539 -0.11998894 0.0787566
0.07084244 -0.06843656 0.07467096 0.13623333 -0.18307261 0.012657131 0.07973918 0.07813497
0.09227501 -0.012595563 0.12288711 -0.07588167 0.060651977 0.0135369925 -0.059775706 0.06821925
-0.05172003 0.04047267 0.016427001 -0.008654051 -0.0047170296 0.0795338 -0.0604328 0.016591214
0.018847663 0.03546305 0.06243543 -0.023855079 -0.029329643 -0.013714728 0.10003886 -0.18309413
0.060180224 -0.11185149 -0.025813935 -0.14572094 0.13621682 0.1066371 0.052236132 0.1464717
-0.5866149 -0.025762027 -0.08409707 0.17439619 -0.05138853 -0.22844712 -0.01609204 0.12520315
-0.15128656 -0.006401367 0.037773635 0.012378146 0.12178511 0.21405591 0.32747146 -0.122352876
-0.2172435 0.20663652 0.1450472 -0.03775804 0.12601767 0.08096287 -0.08640432 0.13214962
0.19369423 0.065722845 0.09190488 -0.117299624 0.13169877 -0.20912948 0.24699602 0.048294164
-0.13125075 -0.43211544 0.036996465 0.14115451 0.04693775 -0.16761443 -0.03664847 0.04632403
-0.06252851 0.17296585 -0.21249448 0.1477271 -0.057544846 0.04189934 -0.068583794 -0.17300227
00000000: e384 bdbd bed8 a93d 9a67 a3bc c2a6 1c3e
00000010: cbd7 373e f736 d1bd 8c39 6fbd d282 2ebe
00000020: 6420 1f3e ad3b f33d 2138 ce3a f3f9 12bd
00000030: a7f9 70bd 573a 8e3d e20a 02be 0bab b2bd
00000040: 76fe 15bf 3d3b 9a3d 5cd5 c53d cad3 973e
00000050: 5dfc 48be 950d cdbc 867e 72bc 766f 963e
00000060: 2c25 49bd a7c0 4bbe 313d ab3d f6dc 2e3d
00000070: fd64 3bbd df78 513e 05ef 303e 3e69 8bbd
00000080: b122 67be 076d 5a3d fbc0 e53d b41c eb3c
00000090: f2cf 803d e88c 56bd b854 c2bd f333 333e
000000a0: 83e8 ca3d 4783 7c3e 81f5 b3bc dd84 bebd
000000b0: e05c 133e cd10 03be 1398 8d3d 1376 4f3e
000000c0: a211 7d3d 8c51 0abf fea7 e53c 4764 b13e
000000d0: cdc4 b7bd c616 60be 5ec5 4bbe 3bc0 a4bb
000000e0: e185 a8bd 1b44 b33e 6c6f 53be c95e 7f3d
000000f0: 1906 f83d a7f5 533d fa60 fbbd 2a65 1bbe
00000100: 3ea2 07be c2d0 0e3e 3d0a 03bc 29cd 523e
00000110: 948a fd3d 082c b7bd 4365 003e e7cf 693d
00000120: e4d4 1d3e c1f7 d2bd 55e4 0f3d 4f6d 83bc
00000130: 63a3 c73d 64a5 0a3e a955 093d f018 b83d
00000140: 02da a8be 0580 783d d688 8b3d 09d0 c63d
00000150: 9375 fcbd e408 a9bc c862 b6bd 476d 753e
00000160: 00a6 733c 78f9 bcbd 4c6f 0c3e 93da ccbd
00000170: fc49 31bd 7b58 833d 884f 243e 6cd4 0ebe
00000180: 1568 03be a690 4b3e 2d99 00bc 7bbd 293e
00000190: bc1e ab3d 3818 6f3d 035b 2dbe bf4b 443e
000001a0: b47f 67bd 76cf e63d 6a8e 173e 0085 033e
000001b0: d75e 2f3e 2b87 f2bd 62a2 3c3e c328 f0bc
000001c0: d746 31bd 1863 50be a937 38bd 6f02 173e
000001d0: 4135 c83d 18eb 43be 7e86 3fbe 9a2d a3bd
000001e0: 0247 45bd fc41 043e bfaf cebd 2bd5 043e
000001f0: 66d8 82bd 5af3 b23d c9f9 2ebe df61 1cbe
00000200: d184 fe3c 0b32 573c 7a64 f23d 5eeb 5dbb
00000210: 59c8 15be f59d 6f3d 3621 e4bd 8fb0 56bc
00000220: 5a65 7dbd 2ccd 0abc 2743 babd 0626 0d3e
00000230: 090f 8d3c 2874 2cbd 8b72 ae3d 6794 ecbd
00000240: 990e 93bd cb57 c5bd aa9b 3a3c 9360 833d
00000250: ed87 a73d c4a7 63bd aeb1 a83d 2b9d d13d
00000260: 9bdb b1bd b946 bfbd 694f b33d 4cef c2bd
00000270: 13ae a73d e356 09bd 782e c8bb 4a91 be3d
00000280: d7ae 3abd 0cee b53c 02f3 8b3d be9c 8dbd
00000290: d37f 1f3e 8bfb ecbc c3bc f5bd 244b a13d
000002a0: d715 913d 7828 8cbd 17ed 983d c080 0b3e
000002b0: 6377 3bbe db5f 4f3c 4c4e a33d 3a05 a03d
000002c0: aefa bc3d 9f5d 4ebc 3dac fb3d d967 9bbd
000002d0: 356e 783d 43ca 5d3c 5fd7 74bd 89b6 8b3d
000002e0: 62d8 53bd acc6 253d eb91 863c b9c9 0dbc
000002f0: 5091 9abb 9ee2 a23d 6288 77bd 4cea 873c
00000300: 6a66 9a3c b441 113d 4bbc 7f3d ba6b c3bc
00000310: b844 f0bc bdb3 60bc 2de1 cc3d 077d 3bbe
00000320: 8a7f 763d 6512 e5bd bf77 d3bc df37 15be
00000330: 6c7c 0b3e 8d64 da3d 8ef5 553d adfc 153e
00000340: 652c 16bf e30a d3bc 163b acbd ea94 323e
00000350: c77c 52bd 0bee 69be 74d3 83bc 4135 003e
00000360: ddea 1abe 8fc2 d1bb 87b8 1a3d b5cd 4a3c
00000370: 796a f93d 7931 5b3e 57aa a73e 2594 fabd
00000380: 1475 5ebe 8698 533e 4187 143e 2da8 1abd
00000390: c70a 013e dccf a53d c0f4 b0bd 3b52 073e
000003a0: c857 463e b399 863d a038 bc3d c93a f0bd
000003b0: 0bdc 063e 0a26 56be 86ec 7c3e 1ad0 453d
000003c0: 9966 06be 3c3e ddbe 9b89 173d cf8a 103e
000003d0: cc41 403d 1ea3 2bbe b51c 16bd 44be 3d3d
000003e0: f30e 80bd f61d 313e 2798 59be c645 173e
000003f0: 25b4 6bbd a49e 2b3d a975 8cbd 8227 31be

classifier.0.bias f4 [32]
0.072305515 0.010708224 -0.18274015 0.10706098 0.0969736 0.11687672 -0.055904794 0.11855556
0.19874525 0.21588135 0.14133345 0.030214462 0.1631301 0.11346937 0.14957441 0.25773644
0.1209282 0.106698565 0.055600066 0.18728471 -0.09636263 0.16211404 0.2659606 0.008759818
0.13647175 0.21261021 0.10949003 0.04843394 0.19746026 0.058456566 0.08471249 0.034747243
00000000: ea14 943d 8c71 2f3c 3c20 3bbe c942 db3d
00000010: 189a c63d 105d ef3d 6dfc 64bd 42cd f23d
00000020: e083 4b3e 0010 5d3e b7b9 103e 5284 f73c
00000030: 940b 273e a162 e83d 092a 193e 08f6 833e
00000040: 34a9 f73d c784 da3d e5bc 633d 90c7 3f3e
00000050: c559 c5bd 3901 263e fd2b 883e 5785 0f3c
00000060: 40bf 0b3e 7eb6 593e 4f3c e03d ab62 463d
00000070: 0633 4a3e 2770 6f3d be7d ad3d 2053 0e3d

classifier.2.weight f4 [2, 32]
0.08975641 0.24241303 -0.06505078 0.15715589 0.3030121 0.22726576 -0.082817525 -0.4781525
0.33738837 0.32675743 0.12252931 0.25006598 0.54533356 0.2436324 0.28333202 -0.49650815
-0.31163627 0.35607627 0.16040249 -0.40090162 -0.10874882 0.2731628 1.0886358 0.48606166
0.8244556 -0.43624663 0.25969929 -0.3563445 0.3029992 0.042945635 0.19533277 0.35183537
-0.37458432 -0.25666282 0.0017571887 -0.32002524 -0.115271606 -0.39625555 0.10540514 0.34861013
-0.12778105 -0.25489917 -0.25918522 -0.25679728 -0.5410447 -0.24452642 -0.23554839 0.2701007
0.4535272 -0.14136866 -0.34629893 0.374122 -0.092187956 -0.33538288 -1.0871993 -0.20056525
-0.6947914 0.36017027 -0.3226052 0.46899042 -0.29050434 -0.27606496 -0.26742706 -0.21990873
00000000: 35d2 b73d 1f3b 783e 5839 85bd 79ed 203e
00000010: 6724 9b3e 5bb8 683e 3c9c a9bd 68d0 f4be
00000020: 2bbe ac3e c04c a73e a6f0 fa3d a608 803e
00000030: fb9a 0b3f c67a 793e e510 913e 5136 febe
00000040: ca8e 9fbe a14f b63e 8d40 243e fa42 cdbe
00000050: b4b7 debd ffdb 8b3e 6b58 8b3f 13dd f83e
00000060: 860f 533f b85b dfbe 4ef7 843e c972 b6be
00000070: b622 9b3e c3e7 2f3d 5005 483e c423 b43e
00000080: 84c9 bfbe 4f69 83be 7851 e63a 59da a3be
00000090: 8513 ecbd 02e2 cabe a6de d73d 077d b23e
000000a0: 09d9 02be 2582 82be edb3 84be ef7a 83be
000000b0: e881 0abf 2265 7abe 9933 71be a44a 8a3e
000000c0: b834 e83e f2c2 10be 184e b1be eb8c bf3e
000000d0: 0acd bcbd 4eb7 abbe 5929 8bbf fa60 4dbe
000000e0: d9dd 31bf 3d68 b83e 822c a5be 831f f03e
000000f0: fcbc 94be 6358 8dbe 33ec 88be c12f 61be

classifier.2.bias f4 [2]
-0.101576015 0.11598254
00000000: 1607 d0bd 4188 ed3d
