src/DARPA/baselines/multi_class_lstm/original/class_weights/run_20260126_1120/model.pth (torch, 194545 bytes, 8 tensors)

lstm.weight_ih_l0 f4 [256, 112]
-0.06873347 0.04893744 -0.10065336 0.07562983 0.09059507 -0.091715164 -0.02468329 -0.14888193
0.09944737 0.0670891 -0.03270988 -0.02828585 0.16872838 0.03996224 -0.002157338 -0.00028692084
0.32206228 -0.03396744 -0.012426876 0.282356 0.056432515 0.08203875 0.2268459 0.056544855
-0.118930094 0.1893415 0.31490055 0.0041921264 0.052982014 -0.01690962 0.10538009 -0.08659775
0.061415847 0.10326406 -0.13165317 -0.052751772 0.03149857 0.08101694 0.00093131786 -0.0015073261
0.04079024 0.26691172 0.03297146 0.034274742 0.3946861 -0.046904784 -0.039490923 -0.023611147
-0.030050624 -0.048393283 -0.015071477 0.22138412 0.010117899 0.06603266 0.11970246 0.12898245
0.07362588 -0.04019416 0.016118538 0.36042747 0.28715667 0.3262066 -0.15228619 -0.050549068
-0.0053096116 0.13138625 0.14069147 -0.053960957 -0.11531977 -0.040607404 -0.106354736 0.1396519
-0.07194431 -0.03816412 -0.03577093 0.057628233 -0.03452308 -0.13466889 -0.20493409 -0.05634949
-0.30325198 -0.04732205 -0.09468984 -0.14012994 0.15320888 0.0521153 0.28437543 0.09241474
0.008851893 -0.032435853 0.12574913 -0.1612772 0.048789594 0.021258052 -0.0914235 0.062123317
0.10887583 0.14471212 0.03386077 -0.12220173 0.02116447 0.05823156 0.1625914 0.017576516
0.22512317 -0.026824772 0.05683612 0.24765977 -0.0442504 0.20334272 -0.14191347 -0.054617517
-0.07273276 0.04358259 0.055836752 0.07954273 0.029674068 0.05414277 -0.036018826 -0.08980111
0.019013094 0.15991102 0.025994426 0.14038825 -0.023309564 0.1316067 0.1504467 -0.037559118
0.030671403 -0.07651499 0.14286917 0.026272044 0.1377926 0.07750637 -0.09798452 -0.0026350897
0.019891 0.020477062 0.05942406 -0.036255833 0.11882964 0.022904446 0.01301113 0.0103914505
0.072235204 0.11376539 0.0031909365 -0.016350508 -0.01928178 0.12574035 -0.08948318 -0.059508573
0.17080647 0.09085722 0.10075856 0.0773765 0.13479589 -0.06422906 -0.043460343 0.023026196
0.019774958 0.08923366 0.087301835 -0.032362726 0.14440496 0.0918602 0.17249879 0.0010859794
-0.0021420417 -0.04741489 0.11943544 0.19384483 -0.0057037994 0.104807846 0.003792416 0.044639133
0.06492676 -0.029504754 0.098757155 -0.05189354 -0.0709664 0.073814705 0.120244145 -0.0916608
0.09106034 0.069184944 -0.031676784 0.08098143 0.07338645 -0.0691497 -0.021200372 0.05040531
0.018383538 -0.02104789 0.019353407 0.053073358 -0.06912177 0.049711745 -0.08873002 0.103769824
0.06572858 0.089369155 0.08045291 -0.05873956 0.1519975 0.112834014 0.05346289 -0.0019474741
0.015945671 0.0767951 -0.00773573 -0.06298461 -0.03263574 0.14966819 0.1425386 0.08361672
0.21758129 0.14476785 -0.006915023 0.0033495377 0.1484766 0.0035041752 0.03117423 0.092733994
-0.06582633 0.0705791 -0.024731612 0.095139384 -0.046393428 -0.05364187 0.086556055 -0.043709587
0.012044961 0.020796286 0.085017554 0.12316453 -0.008290495 -0.037774082 0.056334093 -0.095107704
-0.19493948 -0.04391994 -0.033691783 -0.27278236 -0.08361989 0.01538715 -0.17465942 -0.14425234
0.122755386 0.048246138 -0.073332414 0.17595372 0.007904412 -0.10042689 -0.14401501 0.11238572
00000000: 22c4 8cbd a072 483d 5923 cebd d0e3 9a3d
00000010: e889 b93d 29d5 bbbd 9c34 cabc 8174 18be
00000020: 10ab cb3d 0366 893d ccfa 05bd bab7 e7bc
00000030: 22c7 2c3e 72af 233d 2062 0dbb dd6d 96b9
00000040: 59e5 a43e 7121 0bbd 199a 4bbc f790 903e
00000050: c825 673d ef03 a83d 4b4a 683e 949b 673d
00000060: 9f91 f3bd bde2 413e a53a a13e 1b5e 893b
00000070: ab03 593d 0b86 8abc 84d1 d73d 295a b1bd
00000080: 2f8f 7b3d 1c7c d33d 17d0 06be 3e12 58bd
00000090: a504 013d 36ec a53d af23 743a 7991 c5ba
000000a0: ab13 273d a7a8 883e 150d 073d ac63 0c3d
000000b0: 4c14 ca3e 3b1f 40bd 3cc1 21bd 2a6c c1bc
000000c0: ba2c f6bc 0938 46bd 5bee 76bc 85b2 623e
000000d0: 8bc5 253c 223c 873d 9026 f53d fa13 043e
000000e0: 2ac9 963d a2a2 24bd 060b 843c f389 b83e
000000f0: 3306 933e 8d04 a73e e9f0 1bbe 8a0c 4fbd
00000100: 40fc adbb 1e8a 063e 6d11 103e 2a06 5dbd
00000110: c62c ecbd f353 26bd 83d0 d9bd e800 0f3e
00000120: 8a57 93bd fb51 1cbd 8a84 12bd 950b 6c3d
00000130: 1368 0dbd a4e6 09be 3eda 51be b9ce 66bd
00000140: d843 9bbe c4d4 41bd bfec c1bd 397e 0fbe
00000150: cae2 1c3e da76 553d a899 913e f043 bd3d
00000160: 8807 113c 75db 04bd 61c4 003e da25 25be
00000170: 99d7 473d 5e25 ae3c 3e3c bbbd 0575 7e3d
00000180: 4bfa de3d 6a2f 143e 97b1 0a3d e744 fabd
00000190: 1c61 ad3c 3784 6e3d 5c7e 263e a0fc 8f3c
000001a0: b086 663e a0bf dbbc fecc 683d 869a 7d3e
000001b0: e83f 35bd 1339 503e c451 11be 9eb6 5fbd
000001c0: eaf4 94bd a883 323d 14b5 643d 4ce7 a23d
000001d0: 0817 f33c cfc4 5d3d 7a88 13bd a5e9 b7bd
000001e0: 59c1 9b3c b7bf 233e 43f2 d43c f0c1 0f3e
000001f0: b3f3 bebc e8c3 063e b30e 1a3e 97d7 19bd
00000200: 9842 fb3c e4b3 9cbd 4c4c 123e 7838 d73c
00000210: 8119 0d3e a9bb 9e3d 1cac c8bd 78b1 2cbb
00000220: 73f2 a23c 83bf a73c a566 733d ff80 14bd
00000230: f45c f33d 1ba2 bb3c a22c 553c e740 2a3c
00000240: 0df0 933d d4fd e83d 081f 513b 80f1 85bc
00000250: d3f4 9dbc 14c2 003e f542 b7bd 43bf 73bd
00000260: e4e7 2e3e 5a13 ba3d 815a ce3d 9277 9e3d
00000270: ef07 0a3e 878a 83bd 7903 32bd 6fa1 bc3c
00000280: 18ff a13c 23c0 b63d 4ecb b23d c78e 04bd
00000290: e5de 133e 3321 bc3d 86a3 303e 6c57 8e3a
000002a0: 7f61 0cbb 1e36 42bd 919a f43d 427f 463e
000002b0: f0e6 babb 7fa5 d63d 2f8a 783b 86d7 363d
000002c0: 52f8 843d f4b3 f1bc 3141 ca3d 528e 54bd
000002d0: d556 91bd 2a2c 973d 9042 f63d a8b8 bbbd
000002e0: d87d ba3d d6b0 8d3d 84bf 01bd 98d9 a53d
000002f0: a34b 963d 5c9e 8dbd 67ac adbc cc75 4e3d
00000300: 1399 963c a06c acbc 098b 9e3c 7363 593d
00000310: b78f 8dbd 8b9e 4b3d 16b8 b5bd 4685 d43d
00000320: b59c 863d 2d07 b73d 7fc4 a43d e598 70bd
00000330: 3ca5 1b3e 8515 e73d e7fb 5a3d 6342 ffba
00000340: 7fa0 823c c046 9d3d 027c fdbb 13fe 80bd
00000350: 0ead 05bd 9e42 193e a4f5 113e 3e3f ab3d
00000360: a1cd 5e3e 063e 143e 6b97 e2bb eb83 5b3b
00000370: 400a 183e 4ea6 653b 1961 ff3c 52eb bd3d
00000380: f4cf 86bd c68b 903d f399 cabc 70d8 c23d
00000390: 0907 3ebd 94b7 5bbd 4d44 b13d d308 33bd
000003a0: 3a58 453c f95c aa3c af1d ae3d af3d fc3d
000003b0: dbd4 07bc ffb8 1abd 94be 663d d4c7 c2bd
000003c0: 379e 47be 65e5 33bd 6500 0abd 21aa 8bbe
000003d0: e840 abbd 631a 7c3c ebd9 32be e3b6 13be
000003e0: 2d67 fb3d be9d 453d 4e2f 96bd 362d 343e
000003f0: 8281 013c 9dac cdbd ac78 13be 7c2a e63d

lstm.weight_hh_l0 f4 [256, 64]
-0.15888458 -0.13393085 -0.09252018 0.080474176 -0.020664884 -0.031841964 -0.053340413 -0.03014672
0.069720455 -0.041445855 0.053376224 -0.04891516 -0.0825146 0.051259574 -0.1666258 0.055043258
0.07722939 0.04724485 0.13501325 -0.06756322 0.05444522 -0.08486475 0.019327678 -0.042568658
0.14515442 0.13450404 -0.04709806 0.027661912 0.11822163 0.0077125705 -0.0475771 -0.10229673
0.060276456 0.060450062 -0.05504712 0.08595467 -0.059452023 0.11784092 -0.06188372 0.020785183
0.06909228 -0.03297135 0.07191838 -0.06295648 0.02329378 -0.06838121 -0.15706994 0.097836286
-0.12552059 0.07428047 -0.027908904 0.026710117 -0.029763913 0.04364141 0.011303473 -0.058286194
0.030411208 0.086213194 -0.060229048 -0.12822507 -0.08838928 -0.14366159 -0.03633164 -0.026528893
0.039615758 -0.10651003 0.09758867 0.0049065296 -0.14992316 -0.08785423 -0.037040535 0.03335445
-0.06858656 0.06254974 0.06998713 -0.037784196 -0.10301082 0.110611126 0.07208976 0.11222075
-0.10929399 0.106263295 0.0015850627 -0.03207674 0.11436805 -0.087826796 0.065471485 -0.11135537
-0.09505489 0.030911408 -0.1660004 0.0071275155 -0.020979935 -0.080586106 -0.11564821 -0.104413636
-0.06826659 -0.051747777 -0.06690916 0.04903572 0.07666022 0.14554335 0.08160464 0.027883278
-0.055879623 -0.07802197 0.09223106 0.03741257 0.001245903 0.098308206 -0.051425215 0.08897011
-0.07244157 0.07148923 -0.14934835 -0.18366176 -0.021985337 0.14344753 0.10080838 0.11063174
0.059179485 -0.021992527 0.18322659 -0.00854228 -0.09544074 -0.06804507 0.064372554 0.09775561
-0.082568616 -0.0326764 -0.11952802 -0.025849879 -0.015929582 0.018583247 0.040896438 0.034458023
0.14205259 -0.048721682 -0.100114316 0.04780799 -0.006345419 0.07529349 0.097380094 0.13788064
0.021226695 0.17596668 0.19322757 -0.13367955 0.14896679 -0.06385155 0.033880543 -0.1765112
0.04930229 0.06463526 0.038112663 0.030149937 0.19284813 0.021883113 -0.08160332 0.1095465
0.1006562 -0.14151992 -0.07751458 0.104322106 -0.028770275 0.034261435 0.101541676 -0.0053498186
0.11204248 -0.048930783 -0.04807568 0.13327624 -0.06819154 0.07768828 -0.03329608 -0.11972572
-0.13461168 -0.017064638 -0.18029289 -0.058579247 -0.14005506 -0.05469897 -0.12388905 0.025385374
-0.010790793 0.088139445 -0.01374952 0.016731849 -0.03597507 -0.055055585 -0.10432442 0.11679465
-0.15800226 -0.08120238 -0.02885715 -0.046752647 -0.14190733 0.007000731 -0.054056305 -0.04516416
0.20140725 0.004497124 0.010030672 -0.018140374 -0.21927288 0.18424545 0.13464569 -0.017882334
-0.05386656 0.22024328 0.029948771 -0.14075364 0.076422594 -0.058526013 -0.09485156 0.016516207
0.2313729 -0.013923093 -0.16446985 0.057028286 0.17093593 -0.0014252075 -0.1660965 0.03430954
0.0074656904 -0.2072678 -0.09555022 0.045751356 0.14110884 0.001962642 0.039307367 0.19872235
0.06005093 0.13762374 0.17181899 0.02613274 0.07580775 0.0910191 -0.16176441 -0.04136139
-0.13016145 0.037591193 -0.05872264 -0.18636179 -0.1538733 -0.023222156 -0.11732371 -0.102164045
0.12180151 0.059885606 -0.041116174 0.04131142 -0.03949242 0.0042591467 -0.07678189 0.11741552
00000000: a4b2 22be 2b25 09be 387b bdbd a5cf a43d
00000010: 6749 a9bc b86c 02bd 7a7b 5abd 41f6 f6bc
00000020: 99c9 8e3d 21c3 29bd 07a1 5a3d 435b 48bd
00000030: 6afd a8bd 8ff5 513d f49f 2abe 0a75 613d
00000040: 712a 9e3d d183 413d ea40 0a3e 965e 8abd
00000050: f301 5f3d 92cd adbd 1455 9e3c 795c 2ebd
00000060: 5ca3 143e 6dbb 093e e5e9 40bd 3c9b e23c
00000070: 2f1e f23d bbb9 fc3b 35e0 42bd f380 d1bd
00000080: 72e4 763d 7c9a 773d 1779 61bd 0109 b03d
00000090: f783 73bd 9556 f13d c979 7dbd b045 aa3c
000000a0: 4180 8d3d f70c 07bd f249 933d 54ef 80bd
000000b0: 99d2 be3c 730b 8cbd f1d6 20be 645e c83d
000000c0: 7888 00be 5c20 983d 37a1 e4bc 2dcf da3c
000000d0: 73d3 f3bc 56c1 323d 3432 393c 81bd 6ebd
000000e0: ed20 f93c 8b90 b03d bcb2 76bd 6f4d 03be
000000f0: 7005 b5bd 061c 13be 7cd0 14bd 1f53 d9bc
00000100: 2244 223d ee21 dabd 92dc c73d f4c6 a03b
00000110: 7585 19be ebec b3bd d1b7 17bd ad9e 083d
00000120: 1c77 8cbd 141a 803d 6a55 8f3d 9ac3 1abd
00000130: 56f7 d2bd 1688 e23d cca3 933d fed3 e53d
00000140: 87d5 dfbd 92a0 d93d e1c1 cf3a e662 03bd
00000150: cc39 ea3d 89de b3bd ea15 863d 490e e4bd
00000160: 23ac c2bd ec39 fd3c 02fc 29be ef8d e93b
00000170: 1dde abbc 540a a5bd f8d8 ecbd d1d6 d5bd
00000180: 5bcf 8bbd 7af5 53bd ab07 89bd aed9 483d
00000190: 0900 9d3d 5109 153e 5520 a73d 796b e43c
000001a0: 08e2 64bd fcc9 9fbd a3e3 bc3d ec3d 193d
000001b0: 914d a33a d055 c93d 3fa3 52bd f635 b63d
000001c0: 3f5c 94bd f268 923d c6ee 18be d411 3cbe
000001d0: 981a b4bc e9e3 123e a074 ce3d e592 e23d
000001e0: 3066 723d ac29 b4bc c09f 3b3e ebf4 0bbc
000001f0: 6f76 c3bd 375b 8bbd c2d5 833d 1834 c83d
00000200: bc19 a9bd b0d7 05bd 1bcb f4bd 20c3 d3bc
00000210: c17e 82bc e53b 983c 0683 273d db23 0d3d
00000220: 3c76 113e 6390 47bd bc08 cdbd 50d2 433d
00000230: 3ced cfbb 7933 9a3d 376f c73d 9530 0d3e
00000240: 9be3 ad3c 9c30 343e 73dd 453e 4be3 08be
00000250: c08a 183e 9ac4 82bd 53c6 0a3d 5abf 34be
00000260: 33f1 493d 7e5f 843d 061c 1c3d 00fd f63c
00000270: fb79 453e 3744 b33c a41f a7bd ea59 e03d
00000280: d624 ce3d 99ea 10be f7bf 9ebd d4a6 d53d
00000290: a4af ebbc b855 0c3d 15f5 cf3d 884d afbb
000002a0: 8776 e53d a56b 48bd 01eb 44bd 9179 083e
000002b0: 02a8 8bbd 081b 9f3d 7861 08bd c232 f5bd
000002c0: a5d7 09be 24cb 8bbc b39e 38be cbf0 6fbd
000002d0: 986a 0fbe 070c 60bd 8bb9 fdbd fdf4 cf3c
000002e0: decb 30bc 7482 b43d ab45 61bc 3b11 893c
000002f0: 985a 13bd f781 61bd 0ba8 d5bd 0932 ef3d
00000300: 58cb 21be 6f4d a6bd d465 ecbc b47f 3fbd
00000310: 2850 11be 6366 e53b 256a 5dbd 0efe 38bd
00000320: b43d 4e3e 9c5c 933b b057 243c 1f9b 94bc
00000330: 1289 60be d7aa 3c3e 8fe0 093e f97d 92bc
00000340: 2fa3 5cbd 7487 613e 2057 f53c b921 10be
00000350: 7383 9c3d f9b8 6fbd 8941 c2bd ff4c 873c
00000360: 04ed 6c3e af1d 64bc c96a 28be 7e96 693d
00000370: d409 2f3e 07ce baba 3315 2abe 2988 0c3d
00000380: c0a2 f43b 033e 54be d5af c3bd c665 3b3d
00000390: d67e 103e ab9f 003b c300 213d df7d 4b3e
000003a0: f7f7 753d 3ded 0c3e 51f1 2f3e 5414 d63c
000003b0: 1841 9b3d 3968 ba3d 92a5 25be 906a 29bd
000003c0: 0b49 05be 39f9 193d 2787 70bd a0d5 3ebe
000003d0: f690 1dbe 643c bebc 6a47 f0bd 623b d1bd
000003e0: 1273 f93d 9c4a 753d 6f69 28bd 2a36 293d
000003f0: cec2 21bd 5090 8b3b d33f 9dbd 8c77 f03d

lstm.bias_ih_l0 f4 [256]
-0.026805306 0.10873955 0.012397567 0.16643924 0.14968498 -0.0015394328 0.18316992 0.04644396
0.005814527 -0.07452875 0.16397938 0.16904691 -0.029694807 0.15832333 -0.004627775 0.12525928
0.032735866 0.16708076 0.04496888 0.12683755 -0.04771648 0.040752213 0.03091115 0.0032387853
0.12595306 -0.056625053 -0.0078106853 0.15863816 0.11645739 0.10044688 0.1404696 0.09046734
0.04508845 0.044927318 0.16273071 0.024727467 0.040204875 0.08342178 0.10682238 0.12646888
0.009110778 -0.023502437 0.06636079 0.04392017 0.1679734 0.08921248 0.097271144 -0.041336913
0.00048558298 0.056208666 0.009164681 0.13352355 -0.06292157 0.04752292 -0.04962301 0.10799226
0.14756711 0.15798932 0.28720176 0.17394814 0.09929956 -0.013590005 -0.01823631 0.11007988
0.041998748 0.15186615 0.14647909 0.13406429 0.10102171 -0.04709455 0.16291465 0.028844697
0.07950628 0.045620963 -0.002096387 0.12986325 0.11602207 0.07774339 -0.02764377 -0.08483917
0.060026083 0.10909916 -0.028760841 0.019184802 0.04562523 -0.075997025 0.10451032 0.029821139
0.09571136 -0.045137502 0.004360075 -0.043510463 0.0116285235 -0.031755265 0.15170774 0.11617796
0.024518173 -0.026030533 0.102619104 -0.049407296 0.016735373 0.026804838 0.12982385 0.07879924
-0.03566018 -0.08685365 0.08140445 -0.07869268 -0.040588357 -0.08691932 0.12777734 0.0660007
-0.032564633 -0.013209976 0.047368027 0.1561746 0.022442412 -0.06318933 0.08757019 0.03814598
-0.097589865 -0.043100078 0.037556734 -0.015260241 0.044567022 0.1636925 -0.032849666 0.02957389
-0.041532006 -0.1755256 -0.076344065 0.06188735 -0.102525584 0.023755588 -0.08802268 -0.06973719
0.08045159 -0.006004704 -0.09138767 0.07559701 -0.07889872 0.123106666 -0.06259929 0.10067443
-0.045048248 0.12321206 -0.018751988 -0.08246066 -0.0040760157 -0.0068959934 0.02978935 -0.105513014
-0.050712537 0.12804542 0.0736407 -0.042445756 0.0038509567 0.011258998 -0.048714012 0.026278654
-0.0499271 -0.0077288044 -0.1335961 0.024407998 0.12693635 0.022346249 0.034002576 -0.026589217
0.10343859 -0.08826747 0.059189994 0.09271068 -0.082132965 0.010671875 -0.1225747 0.05044159
0.026421206 0.11422271 -0.09924975 0.05313091 -0.12248191 -0.10702161 0.10052349 -0.0093710385
-0.056027994 0.002738275 -0.0030056862 -0.043342188 -0.027567 0.0783536 0.03133927 -0.030399386
0.100734495 0.03673296 -0.025728261 0.028913435 0.0013458098 0.07244832 0.14228107 0.046107713
0.13754572 -0.03628218 0.20615909 0.045577206 0.16857763 0.027494162 0.03078129 0.16007394
0.17412707 0.058745466 -0.04745066 0.112407856 0.06305103 0.07754912 0.061143275 0.042891257
0.08477399 -0.038838763 0.044998664 0.0032536683 0.067360476 0.20921923 0.020745045 0.1631172
0.1152322 -0.0201117 0.14089957 -0.022361282 0.07645124 -0.016205173 0.20333107 -0.026608566
0.07808622 0.14890118 0.0036573429 -0.026148366 0.033048924 0.08267046 0.03390843 0.122521356
0.14082846 0.08266934 -0.037458323 -0.061303087 -0.006376581 0.06744885 0.018624097 0.13132665
0.14108974 0.14754072 0.2769074 0.25324583 0.10509014 -0.0126709845 0.019620996 -0.010463702
00000000: cd96 dbbc d7b2 de3d 2a1f 4b3c 0c6f 2a3e
00000010: 0547 193e cbc6 c9ba e590 3b3e 063c 3e3d
00000020: ca87 be3b 87a2 98bd 36ea 273e a21a 2d3e
00000030: 8642 f3bc 831f 223e 97a4 97bb f843 003e
00000040: 0b16 063d 3817 2b3e 4a31 383d b4e1 013e
00000050: 5b72 43bd cbeb 263d 6139 fd3c cd41 543b
00000060: d7f9 003e acef 67bd c7f0 ffbb 0b72 223e
00000070: 3681 ee3d 18b7 cd3d 43d7 0f3e f146 b93d
00000080: abae 383d b505 383d e1a2 263e 4291 ca3c
00000090: dead 243d 0ad9 aa3d b1c5 da3d 0f81 013e
000000a0: 5f45 153c 2f88 c0bc 2ae8 873d a3e5 333d
000000b0: 3801 2c3e 08b5 b63d 1836 c73d e550 29bd
000000c0: d895 fe39 0f3b 663d 7527 163c 66ba 083e
000000d0: 06dd 80bd 65a7 423d 7f41 4bbd 0c2b dd3d
000000e0: d51b 173e f4c7 213e 1c0c 933e 761f 323e
000000f0: 915d cb3d 9da8 5ebc 5064 95bc 8f71 e13d
00000100: e106 2c3d cd82 1b3e 9dfe 153e 2648 093e
00000110: 78e4 ce3d 37e6 40bd 19d3 263e b74b ec3c
00000120: 30d4 a23d 0cdd 3a3d 8a63 09bb dffa 043e
00000130: fb9c ed3d ed37 9f3d 3075 e2bc 29c0 adbd
00000140: e9dd 753d 616f df3d db9b ebbc 7229 9d3c
00000150: 85e1 3a3d 54a4 9bbd 8209 d63d 764b f43c
00000160: 5104 c43d 1ae2 38bd f6de 8e3b 0738 32bd
00000170: 9085 3e3c cf11 02bd 4659 1b3e b6ee ed3d
00000180: 56da c83c fc3d d5bc f729 d23d 4e5f 4abd
00000190: 9f18 893c d295 db3c 8bf0 043e 7f61 a13d
000001a0: 6910 12bd 54e0 b1bd 60b7 a63d a129 a1bd
000001b0: fa3f 26bd c202 b2bd 10d8 023e 602b 873d
000001c0: 7e62 05bd a86e 58bc fa04 423d 3cec 1f3e
000001d0: 26d9 b73c 6869 81bd 0058 b33d f63e 1c3d
000001e0: 32dd c7bd b589 30bd 17d5 193d 1706 7abc
000001f0: e98b 363d 029f 273e 5f8d 06bd f144 f23c
00000200: 771d 2abd fcbc 33be 475a 9cbd 977d 7d3d
00000210: eff8 d1bd 149b c23c 3c45 b4bd 5fd2 8ebd
00000220: cec3 a43d 1cc3 c4bb 7529 bbbd 9bd2 9a3d
00000230: a795 a1bd 591f fc3d 0e34 80bd 652e ce3d
00000240: 8384 38bd 9b56 fc3d c59d 99bc 22e1 a8bd
00000250: 1990 85bb c9f7 e1bb cc08 f43c 3517 d8bd
00000260: f3b7 4fbd 571e 033e efd0 963d 9adb 2dbd
00000270: 5560 7c3b a977 383c 5888 47bd 5546 d73c
00000280: 5c80 4cbd e941 fdbb 6bcd 08be 48f3 c73c
00000290: 9afb 013e 7b0f b73c 4946 0b3d a1d1 d9bc
000002a0: 9dd7 d33d 93c5 b4bd 3571 723d 19df bd3d
000002b0: 5435 a8bd 17d9 2e3c 7208 fbbd d79b 4e3d
000002c0: 4971 d83c 99ed e93d 7443 cbbd cc9f 593d
000002d0: ccd7 fabd 252e dbbd 42df cd3d fc88 19bc
000002e0: 9c7d 65bd a274 333b 0cfb 44bb 9487 31bd
000002f0: 30d4 e1bc da77 a03d 9b5d 003d 2208 f9bc
00000300: e34d ce3d 4d75 163d 13c4 d2bc dedb ec3c
00000310: e265 b03a c95f 943d 21b2 113e 71db 3c3d
00000320: c9d8 0c3e a09c 14bd 5e1b 533e 2aaf 3a3d
00000330: 9d9f 2c3e 703b e13c 0b29 fc3c 6cea 233e
00000340: 5e4e 323e 169f 703d a05b 42bd 1736 e63d
00000350: e620 813d 13d2 9e3d 5f71 7a3d beae 2f3d
00000360: fc9d ad3d 6515 1fbd 8550 383d 7f3b 553b
00000370: 4af4 893d 913d 563e 83f1 a93c 3208 273e
00000380: dcfe eb3d 4bc1 a4bc fa47 103e 022f b7bc
00000390: 7892 9c3d b6c0 84bc 0536 503e 35fa d9bc
000003a0: abeb 9f3d 8d79 183e 08b0 6f3b 1935 d6bc
000003b0: 4f5e 073d 214f a93d 91e3 0a3d 7aec fa3d
000003c0: 5635 103e 8b4e a93d e66d 19bd f218 7bbd
000003d0: a3f2 d0bb 9f22 8a3d 9091 983c 7e7a 063e
000003e0: d479 103e ea14 173e cfc6 8d3e 70a9 813e
000003f0: 8039 d73d f699 4fbc 36bc a03c f26f 2bbc

lstm.bias_hh_l0 f4 [256]
0.067368776 0.15344186 0.13870722 0.039211307 -0.017278103 -0.021352418 0.097092666 -0.0075139967
-0.090344764 0.12024102 -0.01929544 0.035646237 0.14053395 -0.0024283926 -0.00027138833 -0.008125919
0.017294278 -0.030973684 0.15514688 0.04734741 -0.0843138 0.12462662 0.012319143 0.0036666996
-0.023524726 0.012880711 -0.04304961 0.15661035 0.036826547 0.060320813 -0.036896612 0.14646152
0.12704127 0.03277367 0.10308557 0.13589619 -0.059743293 0.03550575 0.019027734 -0.087806195
0.054357924 0.206378 0.1152729 0.05239405 0.16130579 0.11103138 0.054403514 0.12344026
-0.03349668 0.13985236 -0.0033464597 0.04846108 -0.0058610016 0.17317551 -0.03285388 0.22839515
0.10699764 0.014169326 0.21325016 0.115447365 0.11150905 0.12974606 0.054472532 0.08679954
0.12531707 0.18320206 0.06123919 -0.0013590618 0.03203342 0.04835165 0.053259935 -0.021207027
-0.0038158337 -0.026188187 0.03210753 0.068053775 -0.013707696 0.12837185 0.041569922 0.047785476
0.101991534 0.0470383 -0.07762174 0.050887834 0.11980577 0.0075285616 0.0028504392 0.09671474
0.13894422 0.013968818 -0.058608502 -0.013261496 -0.024619449 -0.05295347 0.061164554 0.13639309
0.100394584 0.098544404 -0.10015123 0.10857795 -0.0186057 0.011199703 0.15942009 -0.089497305
0.013097387 -0.059762135 0.022764357 0.12561403 0.10844084 0.106178865 0.098016836 0.06596555
-0.022296693 0.00023317973 0.16773975 -0.06111412 0.1383101 0.046679482 0.048459947 0.009878318
-0.109835595 0.15702748 0.0635507 -0.059426535 0.019719522 0.104796566 0.013234453 0.10772057
0.031044025 -0.017398193 -0.055362616 -0.04012311 -0.08530285 0.004630423 -0.11950614 0.12229907
0.07892397 0.055707995 0.11504621 -0.06876708 0.065444656 0.117279224 0.020101696 0.14922357
0.0707868 0.030196497 0.058882877 -0.09898615 -5.2072093e-05 -0.11207917 0.010588507 -0.10790505
0.04612181 0.044548653 -0.12731093 0.0009959269 0.13680138 -0.09994549 -0.09041429 -0.055595342
0.030120252 -0.06500512 -0.14035906 0.11194583 0.038145844 0.086408846 0.055777173 -0.09499678
-0.0269175 0.112824984 0.09674087 0.062237833 0.02763257 0.004525539 -0.10829024 0.03301317
-0.061350897 -0.100750975 0.06813009 0.06879769 0.08130087 -0.021122523 -0.036900695 -0.032369662
0.080623955 -0.084237784 0.11566981 -0.064332806 0.023190435 -0.055904124 -0.10354629 0.026704285
0.04380393 0.036257733 0.07149344 0.17796995 0.16217706 -0.054614943 0.0888515 0.13143632
0.0025330447 0.05257558 0.20604888 0.124235526 0.12607495 0.07500217 0.031930126 0.07153544
0.0015579694 0.09949768 0.111783944 0.013508356 0.16254587 0.027383786 -0.0015784219 0.1800899
-0.010778523 0.12642378 -0.0059630275 0.21813856 0.15994798 0.21972351 0.14539921 0.16367298
0.0185105 0.1167098 0.07912554 -0.052548703 -0.015400639 0.086932495 0.03612062 0.061201606
0.10815836 0.06156546 0.01616808 -0.04822787 0.22352828 -0.018912138 0.117587514 0.14935505
-0.08108962 0.21068352 0.18765187 0.1760009 0.17449546 0.10631584 0.08665825 0.12958133
0.15979734 0.18919326 0.29446867 0.1771144 -0.056282114 0.059311744 -0.05969133 0.012391785
00000000: a4f8 893d dd1f 1d3e 4409 0e3e 099c 203d
00000010: cf8a 8dbc 44eb aebc 85d8 c63d f937 f6bb
00000020: ad06 b9bd ed40 f63d 7811 9ebc ca01 123d
00000030: 22e8 0f3e ab25 1fbb 2049 8eb9 9322 05bc
00000040: bbac 8d3c 86bc fdbc d3de 1e3e 5cef 413d
00000050: b7ac acbd 3e3c ff3d 3bd6 493c 034d 703b
00000060: edb6 c0bc 9e09 533c ca54 30bd 775e 203e
00000070: 6fd7 163d f512 773d e720 17bd 02fa 153e
00000080: 1b17 023e af3d 063d 871e d33d 5f28 0b3e
00000090: 62b5 74bd 7a6e 113d 0de0 9b3c bcd3 b3bd
000000a0: 6aa6 5e3d c154 533e 3314 ec3d 259b 563d
000000b0: 582d 253e 6c64 e33d 38d6 5e3d 3fce fc3d
000000c0: d133 09bd 7535 0f3e 4750 5bbb 207f 463d
000000d0: a50d c0bb ec54 313e ca91 06bd 6be0 693e
000000e0: 9421 db3d 7626 683c 405e 5a3e ab6f ec3d
000000f0: db5e e43d 27dc 043e 971e 5f3d f5c3 b13d
00000100: 1e53 003e 5299 3b3e f2d5 7a3d 8c22 b2ba
00000110: 7a35 033d 610c 463d 1727 5a3d 5cba adbc
00000120: 1113 7abb 9c88 d6bc 2f83 033d c75f 8b3d
00000130: 3f96 60bc e973 033e 3945 2a3d b4ba 433d
00000140: f0e0 d03d 3cab 403d 26f8 9ebd c36f 503d
00000150: ba5c f53d 27b2 f63b 6fce 3a3b 6112 c63d
00000160: 6547 0e3e 78dd 643c 780f 70bd bf46 59bc
00000170: baae c9bc bde5 58bd af87 7a3d a1aa 0b3e
00000180: ad9b cd3d a6d1 c93d 171c cdbd 1e5e de3d
00000190: fb6a 98bc f67e 373c 053f 233e 5d4a b7bd
000001a0: 6c96 563c 24c9 74bd 517c ba3c f7a0 003e
000001b0: 3b16 de3d 4e74 d93d 0dbd c83d f218 873d
000001c0: 8ea7 b6bc b581 7439 f8c3 2b3e cd52 7abd
000001d0: 2aa1 0d3e fc32 3f3d f07d 463d abd8 213c
000001e0: 7cf1 e0bd d0cb 203e df26 823d 3d69 73bd
000001f0: d68a a13c 959f d63d 52d5 583c 9a9c dc3d
00000200: 0a50 fe3c a886 8ebc e9c3 62bd 2158 24bd
00000210: 43b3 aebd ceba 973b a3bf f4bd ef77 fa3d
00000220: e4a2 a13d 112e 643d 599d eb3d c1d5 8cbd
00000230: d907 863d 1730 f03d 50ac a43c 10ce 183e
00000240: abf8 903d a55e f73c 2c2f 713d 40b9 cabd
00000250: fc67 5ab8 c489 e5bd 6b7b 2d3c 53fd dcbd
00000260: 39ea 3c3d a678 363d cc5d 02be c389 823a
00000270: a915 0c3e 39b0 ccbd 212b b9bd f1b7 63bd
00000280: bfbe f63c 6821 85bd 49ba 0fbe db43 e53d
00000290: d13e 1c3d 1ff7 b03d 9b76 643d ac8d c2bd
000002a0: 1782 dcbc c910 e73d 1420 c63d 19ed 7e3d
000002b0: b35d e23c f94a 943b 46c7 ddbd d138 073d
000002c0: 144b 7bbd 8756 cebd ca87 8b3d cee5 8c3d
000002d0: 1281 a63d 2409 adbc 2f25 17bd 0d96 04bd
000002e0: 2c1e a53d dc84 acbd 4be4 ec3d ebc0 83bd
000002f0: def9 bd3c b9fb 64bd 1410 d4bd f2c2 da3c
00000300: c06b 333d fd82 143d 276b 923d c13d 363e
00000310: be11 263e ebb3 5fbd c6f7 b53d 3e97 063e
00000320: 7001 263b 7e59 573d 7afe 523e 326f fe3d
00000330: cb19 013e bd9a 993d 2ac9 023d 2c81 923d
00000340: c734 cc3a 71c5 cb3d fbee e43d 2752 5d3c
00000350: 6d72 263e f653 e03c 0de3 ceba 7d69 383e
00000360: 6798 30bc 3c75 013e 8065 c3bb b75f 5f3e
00000370: 67c9 233e 33ff 603e 88e3 143e e499 273e
00000380: 55a3 973c 8c05 ef3d 920c a23d 4f3d 57bd
00000390: f652 7cbc aa09 b23d 37f3 133d 89ae 7a3d
000003a0: 2182 dd3d 102c 7c3d ec72 843c 968a 45bd
000003b0: 99e4 643e a1ed 9abc b9d1 f03d 88f0 183e
000003c0: 5112 a6bd 6cbd 573e d027 403e 9439 343e
000003d0: f0ae 323e 1ebc d93d e179 b13d f8b0 043e
000003e0: eaa1 233e e1bb 413e 99c4 963e 7a5d 353e
000003f0: 1388 66bd dff0 723d e57e 74bd ea06 4b3c

classifier.0.weight f4 [32, 64]
-0.16246761 -0.0050527304 0.02270161 0.0030224381 0.14271076 0.051918965 -0.06980371 -0.017709857
0.0040308284 0.061218027 -0.0036089672 -0.03818426 -0.1504104 0.018891135 -0.10289652 0.09753862
0.07420476 0.11265079 -0.10201498 -0.08291532 0.18358892 -0.06366832 -0.009164138 -0.15701212
0.25426593 0.17995588 0.059606217 0.3377848 0.13321714 0.34692177 -0.026181223 -0.012705825
-0.14387809 -0.18492459 -0.2682137 0.15395904 0.17158538 0.13623919 -0.012062814 0.12020513
0.29754388 0.12506582 0.23203309 0.08064512 -0.2373616 -0.092509195 -0.023628939 -0.0048288326
-0.16035946 -0.07831164 -0.1337223 -0.049058057 -0.13224895 -0.281947 0.020533495 -0.0016526479
0.14850228 -0.21627778 -0.16218206 -0.18325113 -0.0595501 0.0033014296 -0.08274669 -0.006734012
-0.19242309 0.019710056 -0.11787582 -0.092094354 0.14500646 0.03807052 0.00710403 -0.22132894
0.108119495 0.10244853 0.05410683 0.14808804 -0.17332359 -0.019399894 0.1273083 0.033132683
-0.03619847 0.09624286 0.12154554 -0.1558737 -0.0017156452 0.07051737 0.048513245 0.075675175
0.09423693 -0.024690457 -0.07845526 0.18645224 0.1597318 0.013938513 0.14541699 0.04695321
-0.16756587 -0.1611947 -0.06528178 0.04013431 0.1445123 0.031459186 -0.018094152 0.06757169
0.09921451 0.002500751 0.02754927 -0.05559679 -0.00012965126 -0.15171407 0.016644038 -0.0071013127
0.009001892 -0.2047173 0.059810996 -0.15236415 0.02867371 -0.17191067 -0.025435388 -0.06876129
0.06541923 0.04252211 -0.18900049 -0.07258291 -0.082649924 -0.17847815 -0.1472997 -0.11521198
-0.06985309 -0.16547367 0.18167175 0.0062966137 0.06729859 -0.16365425 0.07033666 -0.08058653
0.02855073 0.09240261 -0.020193495 0.08642753 -0.12055297 0.012175401 0.040157028 0.013602379
0.06498513 0.13592398 0.046125747 0.04710463 0.072523415 -0.051091265 0.08353996 0.11187203
0.30089694 0.15823865 -0.20638904 0.18265499 0.16251072 0.29255015 0.0008745916 -0.026465349
-0.17115055 -0.15729965 -0.15308036 0.08058384 0.17165293 0.18045841 -0.04831842 0.1884339
0.292674 0.25188008 0.2619463 0.11424238 -0.18254033 0.0037992827 -0.057338018 0.022511644
-0.12860796 0.014227196 0.026419755 0.027710842 -0.27921975 -0.22220398 -0.121431105 0.0014944817
0.13576695 -0.060654573 -0.15145637 -0.25380984 -0.08652376 -0.24927837 0.12859285 -0.08254019
-0.22429007 -0.04676469 0.021234361 0.098236725 -0.055338822 -0.19851014 -0.11403733 -0.11591255
0.13302208 -0.012840605 0.014675465 0.003108213 -0.16897556 0.06890944 -0.119113125 0.18508337
0.17328595 0.013280021 -0.011123581 -0.030302346 -0.01816617 -0.0031191134 -0.17565122 0.13963924
-0.14306681 0.009642831 -0.12465234 -0.024495605 -0.017378371 0.10493324 -0.19769605 0.12374722
-0.07493849 0.05931629 0.04413254 -0.013342724 -0.019626394 0.018201368 0.066353105 0.084697716
0.15743744 0.18947192 0.09025097 -0.06009883 0.2504767 -0.005100397 -0.18708657 0.21495882
-0.12040991 -0.13937256 -0.02997301 -0.10631652 -0.034022886 0.021084012 0.1192133 -0.39421615
0.014614477 0.09805905 -0.023471853 -0.11484999 -0.08357161 0.085208096 -0.06339753 0.017949622
00000000: e95d 26be 6091 a5bb baf8 b93c 1914 463b
00000010: c522 123e fba8 543d 3ff5 8ebd 4314 91bc
00000020: 0a15 843b c1bf 7a3d 6c84 6cbb 1967 1cbd
00000030: 2f05 1abe 95c1 9a3c 69bb d2bd 54c2 c73d
00000040: aaf8 973d 75b5 e63d 3bed d0bd 82cf a9bd
00000050: bcfe 3b3e 8964 82bd 2e25 16bc c9c7 20be
00000060: 252f 823e 5b46 383e a625 743d 21f2 ac3e
00000070: 136a 083e bb9f b13e 017a d6bc 182c 50bc
00000080: c754 13be df5c 3dbe 4e53 89be 70a7 1d3e
00000090: 14b4 2f3e 4982 0b3e 1ca3 45bc 1b2e f63d
000000a0: ac57 983e 4111 003e 159a 6d3e 4529 a53d
000000b0: eb0e 73be 7675 bdbd 7a91 c1bc 2f3b 9ebb
000000c0: 4535 24be da61 a0bd 80ee 08be 1af1 48bd
000000d0: 456c 07be 5b5b 90be dc35 a83c a99d d8ba
000000e0: fb10 183e ec77 5dbe 0e13 26be 2fa6 3bbe
000000f0: ceea 73bd cc5c 583b 1977 a9bd fda8 dcbb
00000100: 8f0a 45be fc76 a13c e168 f1bd f79b bcbd
00000110: 937c 143e d5ef 1b3d ecc8 e83b 0ea4 62be
00000120: c16d dd3d 89d0 d13d 209f 5d3d 64a4 173e
00000130: bd7b 31be 87ec 9ebc 1b5d 023e 23b6 073d
00000140: d944 14bd fa1a c53d deec f83d 5b9d 1fbe
00000150: 80df e0ba 696b 903d d3b5 463d 96fb 9a3d
00000160: 4bff c03d a443 cabc 27ad a0bd 56ed 3e3e
00000170: bc90 233e 5c5e 643c 31e8 143e 0252 403d
00000180: 6396 2bbe 3910 25be 74b2 85bd e063 243d
00000190: 08fb 133e 59db 003d 303a 94bc 0763 8a3d
000001a0: fa30 cb3d a4e3 233b 02af e13c 76b9 63bd
000001b0: fff2 07b9 ef5a 1bbe 1459 883c 21b2 e8bb
000001c0: ac7c 133c 69a1 51be 60fc 743d 5905 1cbe
000001d0: 21e5 ea3c 5a09 30be e05d d0bc b8d2 8cbd
000001e0: 84fa 853d aa2b 2e3d 5889 41be 59a6 94bd
000001f0: 5d44 a9bd fac2 36be bcd5 16be 42f4 ebbd
00000200: 230f 8fbd ee71 29be 2908 3a3e d353 ce3b
00000210: d8d3 893d fb94 27be ab0c 903d 8d0a a5bd
00000220: 38e3 e93c 943d bd3d d46c a5bc eb00 b13d
00000230: 7ae4 f6bd 557b 473c b27b 243d 83dc 5e3c
00000240: ed16 853d a82f 0b3e 5aee 3c3d c9f0 403d
00000250: 2887 943d 1345 51bd 0017 ab3d 2a1d e53d
00000260: 2a0f 9a3e 5009 223e a657 53be e909 3b3e
00000270: 3669 263e 22c9 953e d944 653a dccd d8bc
00000280: 1742 2fbe 2913 21be 19c1 1cbe 2409 a53d
00000290: c9c5 2f3e 17ca 383e 89e9 45bd d1f4 403e
000002a0: 5ed9 953e 6df6 803e d31d 863e e9f7 e93d
000002b0: daeb 3abe 63fd 783b 45db 6abd 576a b83c
000002c0: ceb1 03be 2f19 693c 3e6e d83c d901 e33c
000002d0: e4f5 8ebe 7189 63be dfb0 f8bd 7ce2 c33a
000002e0: 7e06 0b3e ee70 78bd 6117 1bbe 5df3 81be
000002f0: 5e33 b1bd d442 7fbe d8ad 033e d50a a9bd
00000300: 4cac 65be 558c 3fbd aff3 ad3c 5630 c93d
00000310: f6aa 62bd 3e46 4bbe 678c e9bd 8f63 edbd
00000320: f136 083e 6761 52bc 5d71 703c 29b3 4b3b
00000330: ee07 2dbe 6420 8d3d 95f1 f3bd 7f86 3d3e
00000340: df71 313e 7294 593c ae3f 36bc a03c f8bc
00000350: 38d1 94bc 0a6a 4cbb eadd 33be 97fd 0e3e
00000360: 1b80 12be f7fc 1d3c ba49 ffbd 02ab c8bc
00000370: 165d 8ebc 3de7 d63d d570 4abe 2f6f fd3d
00000380: 5a79 99bd a3f5 723d 52c4 343d 719b 5abc
00000390: 88c7 a0bc 091b 953c 23e4 873d ff75 ad3d
000003a0: 4837 213e ed04 423e 80d5 b83d 312a 76bd
000003b0: 7b3e 803e 3b21 a7bb 9f93 3fbe 2a1e 5c3e
000003c0: 7999 f6bd aeb7 0ebe f589 f5bc 7abc d9bd
000003d0: 955b 0bbd 61b8 ac3c 1a26 f43d b3d6 c9be
000003e0: 8f71 6f3c 2fd3 c83d 0b48 c0bc 7936 ebbd
000003f0: 9827 abbd 9581 ae3d 90d6 81bd 160b 933c

classifier.0.bias f4 [32]
-0.018577706 0.07667943 0.07858643 -0.016675664 0.04369419 -0.04818853 0.15562645 0.20275895
0.1444564 0.0071493704 0.084677935 0.16311148 -0.03450542 0.05077015 0.09416675 -0.06911306
-0.053820767 0.09476926 0.038797528 -0.05740761 0.07439806 0.061091423 0.06926006 0.13361432
0.06271551 0.050365042 0.07661947 0.009196687 0.10098423 -0.11207888 0.13058075 0.07671574
00000000: 4630 98bc 1b0a 9d3d ecf1 a03d 679b 88bc
00000010: aef8 323d 5661 45bd 8a5c 1f3e 0ba0 4f3e
00000020: 61ec 133e 4445 ea3b a06b ad3d b206 273e
00000030: 8e55 0dbd 5cf4 4f3d 7fda c03d 268b 8dbd
00000040: 2a73 5cbd 6316 c23d 28ea 1e3d 3e24 6bbd
00000050: 035e 983d 003b 7a3d 38d8 8d3d 31d2 083e
00000060: fd70 803d 934b 4e3d abea 9c3d b3ad 163c
00000070: d2d0 ce3d 9d89 e5bd f6b6 053e 241d 9d3d

classifier.2.weight f4 [6, 32]
0.19927849 -0.045670986 0.08145123 0.20257942 0.023131397 0.0039759423 -0.13490343 -0.35513392
-0.05589503 -0.30234134 0.22223154 -0.30946806 0.23333393 0.15916826 0.23080155 -0.1536304
0.1858135 0.12724465 0.008332814 -0.053268336 -0.36375782 0.1179105 0.2410096 0.002280319
-0.3530509 0.20842436 -0.024407685 -0.092228815 -0.2923839 -0.060200207 0.0035385701 -0.075246125
-0.22562677 -0.33563933 -0.35888186 -0.082719326 -0.3594265 -0.43625528 0.15609564 0.029500583
-0.14482488 0.1409455 -0.13109465 0.049021233 -0.19225691 -0.06514461 -0.24847843 -0.100593865
-0.3106962 -0.18110417 -0.3349097 -0.074032485 0.08011428 -0.23997743 -0.14594759 -0.089199655
0.15300918 -0.40324935 0.21720779 -0.17595613 -0.082183756 -0.09609187 0.042549364 -0.013168377
-0.25866026 -0.18367657 -0.04755286 0.14618225 -0.22159241 -0.27311853 -0.30070075 -0.03413542
0.040766746 -0.22704484 -0.040551536 -0.07631947 -0.16473223 0.013241654 0.057576638 -0.11247099
-0.24956533 -0.18218252 -0.19590124 -0.13312928 -0.10813981 0.13432875 0.04294774 -0.1654027
0.13407695 -0.16536564 0.010827666 -0.07297503 0.18975493 0.019222038 0.10681626 0.16046162
-0.27656293 -0.38561144 -0.1915229 0.10984791 0.18003628 -0.17469877 -0.40149385 0.033914756
-0.001214747 -0.05295901 -0.22485927 0.17718635 0.024584098 0.045062542 -0.15630938 -0.17344561
-0.011055399 0.07495 -0.006619841 -0.10601643 0.14401062 -0.15979894 -0.057354335 -0.19960797
0.17139335 -0.19244224 -0.35767987 0.0061814683 -0.08039303 0.102483645 0.09210249 -0.005372404
0.16349293 -0.2964766 0.14415663 -0.07047099 -0.021454716 -0.23392734 -0.34614855 0.0035217137
0.13829175 0.028801277 -0.22997485 0.05127201 -0.07807293 -0.12813087 -0.18354866 0.058266368
-0.25031385 0.20979044 -0.12999733 -0.034734588 0.050610412 0.0880665 -0.21111003 -0.3250192
-0.28499684 -0.2072448 -0.25056285 -0.017328486 0.0048226267 0.107942574 -0.24900831 -0.17197669
0.11373389 0.20906867 0.038407426 -0.5520871 -0.25842795 0.03987308 0.19687551 -0.17352043
-0.5306481 -0.14641312 0.18524049 -0.30146736 0.1662653 -0.12966941 -0.1504659 0.1342989
0.115416594 -0.37811086 -0.16210222 -0.29147112 -0.24625507 0.07024921 0.11144286 0.18671837
-0.31232336 -0.042541303 0.15835929 0.1623582 -0.5061868 0.022015663 -0.5308566 -0.6447787
00000000: a90f 4c3e 8011 3bbd e7cf a63d fb70 4f3e
00000010: 0e7e bd3c 9f48 823b 2024 0abe 1dd4 b5be
00000020: 30f2 64bd 7ccc 9abe aa90 633e 9972 9ebe
00000030: 17ef 6e3e 01fd 223e 3e57 6c3e 4a51 1dbe
00000040: e545 3e3e 6c4c 023e 5b86 083c e62f 5abd
00000050: 773e babe 0f7b f13d 38cb 763e 6871 153b
00000060: 16c3 b4be 326d 553e a0f2 c7bc 76e2 bcbd
00000070: 58b3 95be 7e94 76bd 5be7 673b a41a 9abd
00000080: b40a 67be ebd8 abbe 5dbf b7be c068 a9bd
00000090: c006 b8be da5c dfbe 89d7 1f3e 35ab f13c
000000a0: f94c 14be 0454 103e ad3d 06be 7dca 483d
000000b0: ffde 44be 8a6a 85bd 2171 7ebe 2804 cebd
000000c0: 9313 9fbe 5f73 39be 4979 abbe 589e 97bd
000000d0: f512 a43d a5bc 75be 4973 15be 4fae b6bd
000000e0: 70ae 1c3e b376 cebe b86b 5e3e d82d 34be
000000f0: f54f a8bd d0cb c4bd 3e48 2e3d 2dc0 57bc
00000100: 1e6f 84be b615 3cbe cac6 42bd cdb0 153e
00000110: 1fe9 62be 31d6 8bbe 73f5 99be 95d1 0bbd
00000120: 08fb 263d 717e 68be 5e19 26bd 624d 9cbd
00000130: 91af 28be 86f3 583c 7bd5 6b3d 3157 e6bd
00000140: 0e8e 7fbe 0e8e 3abe 569a 48be 0b53 08be
00000150: 6878 ddbd 7a8d 093e f8e9 2f3d 535f 29be
00000160: 784b 093e 9c55 29be 8666 313c ef73 95bd
00000170: 1e4f 423e 8977 9d3c 7cc2 da3d 0d50 243e
00000180: a899 8dbe dd6e c5be 941e 44be f1f7 e03d
00000190: 6e5b 383e 3ce4 32be 9a90 cdbe 33ea 0a3d
000001a0: 2538 9fba 8ceb 58bd 8241 66be 5770 353e
000001b0: 9764 c93c 8093 383d 910f 20be ba9b 31be
000001c0: b421 35bc 637f 993d 40eb d8bb 241f d9bd
000001d0: 8577 133e 55a2 23be 61ec 6abd 0866 4cbe
000001e0: bd81 2f3e 940f 45be d121 b7be ea8d ca3b
000001f0: 1aa5 a4bd f2e2 d13d 3ba0 bc3d fe0a b0bb
00000200: b16a 273e c8cb 97be cc9d 133e 1853 90bd
00000210: cdc1 afbc a68a 6fbe 623a b1be 8dcc 663b
00000220: 5a9c 0d3e a8f0 eb3c 877e 6bbe 9902 523d
00000230: b3e4 9fbd bd34 03be 2ef4 3bbe b7a8 6e3d
00000240: 2329 80be 4ed3 563e 051e 05be db45 0ebd
00000250: dd4c 4f3d 365c b43d 3a2d 58be eb68 a6be
00000260: 1beb 91be fb37 54be c649 80be 78f4 8dbc
00000270: 2007 9e3b ff10 dd3d 09fc 7ebe a81a 30be
00000280: 50ed e83d 1916 563e 1b51 1d3d 9555 0dbf
00000290: ab50 84be f451 233d bc99 493e 57af 31be
000002a0: 8ed8 07bf 52ed 15be afaf 3d3e ee59 9abe
000002b0: 7341 2a3e 0fc8 04be bc13 1abe a785 093e
000002c0: 895f ec3d bf97 c1be 20fe 25be b43b 95be
000002d0: 4a2a 7cbe d1de 8f3d 273c e43d 1a33 3f3e
000002e0: d9e8 9fbe ca3f 2ebd f028 223e 3a41 263e
000002f0: 7595 01bf 315a b43c 38e6 07bf 3810 25bf

classifier.2.bias f4 [6]
0.06041237 -0.11398321 -0.03357639 -0.1343486 -0.008259481 -0.14055355
00000000: f672 773d 0770 e9bd 6687 09bd ae92 09be
00000010: c652 07bc 45ed 0fbe
