src/DARPA/pretrained/models/phase_2.pth (torch, 194061 bytes, 8 tensors)

lstm.weight_ih_l0 f4 [256, 112]
0	0x3d6ed9ed	0.0583133
1	0xbd30fa6d	-0.043207575
2	0xbe2d51a5	-0.16925676
3	0x3daf76b6	0.08567564
4	0x3cdc048a	0.026857633
5	0x3deece34	0.11660424
6	0xbe2cce80	-0.16875648
7	0xbc95f733	-0.01830635
8	0x3e226a12	0.15860775
9	0xbe3a437e	-0.18189809
10	0xbd5c7c8d	-0.05382972
11	0x3d746381	0.059665207
12	0x3cd382d1	0.025819214
13	0x3da3b57c	0.079936
14	0xbe04e7fb	-0.12979119
15	0x3d3d1ab0	0.04616803
16	0x3e9e5e50	0.3093133
17	0xbe5a79cf	-0.21335529
18	0x3e9cd3fb	0.30630478
19	0x3e5e5031	0.21710278
20	0xbdc5cc37	-0.096580915
21	0x3e59b2d1	0.2125962
22	0x3e503087	0.20331012
23	0x3e201d42	0.15636161
24	0x3d2323df	0.03982913
25	0x3de75866	0.112961575
26	0x3e40097d	0.1875362
27	0x3e7fed5e	0.24992892
28	0x3eac1658	0.33610797
29	0x3e84d26e	0.25941795
30	0x3e26c0b1	0.16284443
31	0xbe3ebd74	-0.18626958
32	0x3dc970d8	0.09835976
33	0x3d93b3a3	0.07211997
34	0x3e29bca0	0.16575861
35	0xbe86b247	-0.2630789
36	0xbed52876	-0.41632432
37	0x3e42b4ad	0.19014235
38	0x3d94ca88	0.07265192
39	0x3de3db58	0.11125821
40	0x3ec2b17e	0.3802604
41	0x3d6a0954	0.057137802
42	0x3dbcb6fd	0.0921459
43	0x3d9830cc	0.07431182
44	0xbd5e0546	-0.054204248
45	0xbdd38ed6	-0.10329978
46	0x3edb2707	0.42803213
47	0xbd7f0f2a	-0.06227032
48	0xbde8ea68	-0.113728344
49	0xbdd0b192	-0.10190119
50	0x3dd06688	0.10175806
51	0x3d6c7610	0.05772978
52	0x3dafc22f	0.085819595
53	0xbe19c2e3	-0.1501575
54	0x3da015a4	0.078166276
55	0x3dae8747	0.08521896
56	0x3da96246	0.08270697
57	0x3d172c61	0.036907557
58	0xbd8a4bb6	-0.06752722
59	0x3e690664	0.22756344
60	0x3e8a1082	0.2696572
61	0x3d0914c2	0.03346706
62	0xbc99dac5	-0.018781075
63	0xbe03110f	-0.12799476
64	0x3d9a05bb	0.07520624
65	0x3e884e72	0.2662235
66	0x3e30383f	0.17208956
67	0x3e3aa9bf	0.18228815
68	0x3d12cdb7	0.035840716
69	0x3e7cd4aa	0.246905
70	0xbc7b027f	-0.015320419
71	0x3d57f3df	0.052722808
72	0xbe9d81aa	-0.30762988
73	0x3e196762	0.14980844
74	0x3d6b123f	0.057390448
75	0x3ca647f5	0.020297984
76	0xbca50dfb	-0.020148268
77	0xbe0f64b0	-0.14003253
78	0x3b4b365c	0.0031007743
79	0x3d7d2961	0.06180704
80	0x3dab6a33	0.08369865
81	0x3ddf4473	0.109017275
82	0x3eb0db23	0.34542188
83	0x3dbca92a	0.09211953
84	0x3dbe06cb	0.092786394
85	0x3e65fac4	0.2245894
86	0x3b81cf0c	0.0039614495
87	0x3d9e1731	0.07719267
88	0x3d61dc6a	0.055141844
89	0xbd8b2b8d	-0.06795416
90	0x3d87e2e1	0.066350706
91	0x3e2d0e02	0.16899875
92	0xbe02b000	-0.12762451
93	0x3ddf4f77	0.109038286
94	0x3e492006	0.19641122
95	0xbd695106	-0.056962036
96	0xbb3acd59	-0.0028503744
97	0x3d76e539	0.060277198
98	0x3da09210	0.07840359
99	0xbc1c3224	-0.009533439
100	0xbc9ffe32	-0.01953039
101	0xbd8717fe	-0.06596373
102	0x3d8a23f8	0.06745142
103	0xbc86dcaf	-0.016462652
104	0xbd2cfc36	-0.042232715
105	0x3ddf39e2	0.10899712
106	0x3dfc3641	0.123150356
107	0x3e0841ad	0.13306303
108	0xbc247766	-0.010038232
109	0xbd9420f2	-0.07232846
110	0xbd66ac37	-0.05631658
111	0x3dd1d07c	0.10244843
112	0xbe6b179d	-0.22958227
113	0xbdb66c00	-0.08907318
114	0xbe73b1b8	-0.23798263
115	0x3d70f024	0.058822766
116	0x3e5583ee	0.20851108
117	0x3e310e27	0.17290555
118	0x3e4c1e03	0.19933324
119	0xbd234e51	-0.03986961
120	0xbf0f2763	-0.55919474
121	0xbe61ba4e	-0.22043726
122	0xbd61794b	-0.055047315
123	0xbc2cf020	-0.010555297
124	0x3f0664a1	0.524973
125	0x3dee9a77	0.116505556
126	0x3f475884	0.7786944
127	0x3db1bd78	0.086787164
128	0x3f9a37c7	1.2048272
129	0xbe10fcf5	-0.14158995
130	0x3fb1c54f	1.3888339
131	0x3e544353	0.20728807
132	0x3f4332ef	0.76249593
133	0xbd8401cf	-0.064456575
134	0x3ebeebd0	0.37289286
135	0x3e529262	0.20563653
136	0x3f08b3ac	0.5339916
137	0xbf07ea44	-0.53091836
138	0x3fa171ce	1.2612855
139	0x3e1a39b4	0.15061074
140	0x3f359a75	0.7093881
141	0x3f5c6e29	0.8610559
142	0x3e42d011	0.19024684
143	0xbd645e60	-0.055754066
144	0x3e351f86	0.17687806
145	0x3d722d5d	0.059125293
146	0xbd38d84c	-0.04512815
147	0xbd8144d3	-0.06311955
148	0xbde1a692	-0.11018099
149	0xbdb39e03	-0.08770373
150	0xbefb6b3c	-0.4910525
151	0xbe04ef83	-0.12981991
152	0x3f283a79	0.6571422
153	0x3e0e3669	0.13887943
154	0x3dd1db82	0.10246946
155	0x3f2e5d63	0.68111247
156	0x3f13d195	0.5774167
157	0xbc3eed05	-0.01165319
158	0xbc382167	-0.0112384325
159	0xbd8d841b	-0.06909963
160	0x3d91447e	0.07093142
161	0xbc3b4dbe	-0.011432109
162	0x3c99b9f0	0.01876542
163	0x3ddcbe11	0.1077844
164	0x3ec94278	0.39308524
165	0x3f391911	0.72303873
166	0x3f1355b4	0.5755265
167	0x3e891ed2	0.26781327
168	0x3e4da31b	0.20081751
169	0xbd9f9b04	-0.07793239
170	0x3eb4baa5	0.35298648
171	0x3f24142b	0.64093274
172	0x3f776761	0.9664212
173	0x3f12fef8	0.574203
174	0x3ec2b8dd	0.38031664
175	0xbc3d49bd	-0.011553225
176	0xbd3031a6	-0.0430161
177	0x3f26ae89	0.6511007
178	0x3f37c127	0.717791
179	0x3e0a43a2	0.13502362
180	0x3e38c451	0.18043639
181	0x3daf799a	0.085681155
182	0x3ee5034e	0.44729084
183	0x3c92c8a6	0.017917942
184	0xbe8db9b0	-0.2768073
185	0x3d2f006c	0.04272501
186	0xbd81925c	-0.06326744
187	0xbdb04aaf	-0.08607995
188	0xbd89d237	-0.067295484
189	0x3cb5e095	0.022201816
190	0xbe8a1997	-0.26972649
191	0x3e901352	0.2813974
192	0x3f0b3476	0.54376924
193	0xbcf4b5a1	-0.029871764
194	0x3e756865	0.23965605
195	0x3d81a3d9	0.063300796
196	0x3ef9f286	0.48817843
197	0x3e5c7b6f	0.21531461
198	0x3d90657b	0.07050606
199	0x3e66a7f4	0.22525007
200	0xbdf1093b	-0.11769339
201	0x3e63197a	0.22177687
202	0x3e119fb8	0.14221084
203	0x3e3da1a8	0.18518698
204	0xbea499dc	-0.32148635
205	0xbd490c7b	-0.049084168
206	0xbdc409f7	-0.09572213
207	0x3ee143e5	0.43997112
208	0x3d6817e3	0.056663405
209	0x3d934e56	0.07192676
210	0xbbae83d0	-0.005325772
211	0x3de34eb8	0.11098999
212	0xbd809ed1	-0.06280292
213	0xbd95d5c7	-0.073161654
214	0xbde68208	-0.1125527
215	0x3d44bd19	0.0480319
216	0x3f9f1666	1.242871
217	0xbda06156	-0.07831065
218	0x3e252019	0.16125526
219	0x3e8e2f12	0.27770287
220	0xbe06c47a	-0.13160887
221	0xbf044c02	-0.5167848
222	0xbd971cbc	-0.073785275
223	0x3e1d0c30	0.1533668
224	0x3d7a067a	0.061041333
225	0xbe2c283e	-0.16812226
226	0x3b1b6b61	0.0023715126
227	0xbd64b94c	-0.055840775
228	0xbc8ea66c	-0.01741334
229	0xbdb3cb04	-0.087789565
230	0x3d527c63	0.051388156
231	0x3d532b68	0.051555067
232	0x3c7e3258	0.015514933
233	0x3ce8c6b1	0.028415056
234	0xbe147fd1	-0.14501883
235	0x3d38885d	0.04505192
236	0x3e7757db	0.24154608
237	0x3d91b363	0.071142934
238	0x3edf97f3	0.43670616
239	0x3ec337b2	0.3812843
240	0x3ed26f1d	0.41100398
241	0xbe21d55f	-0.15804051
242	0x3efacb55	0.48983255
243	0x3dc5a210	0.096500516
244	0x3eca18c0	0.39472008
245	0xbe1042b4	-0.14087945
246	0x3e92ea29	0.28694275
247	0x3d255d0c	0.04037194
248	0x3ead8bc0	0.33895683
249	0x3e0b8280	0.13624
250	0x3ec707ab	0.38873038
251	0x3c8922f0	0.016740292
252	0x3e26c26b	0.16285102
253	0x3ee27f8f	0.44237944
254	0x3e09f13c	0.1347093
255	0x3c7499b7	0.014929227

lstm.weight_hh_l0 f4 [256, 64]
0	0xbdb9efa9	-0.09078915
1	0x3e1c8857	0.15286385
2	0xbe4249eb	-0.1897351
3	0xbd127f5b	-0.035765987
4	0x3e1b7961	0.15183021
5	0x3e117f25	0.14208658
6	0xbda25e65	-0.079281606
7	0xbd3784e3	-0.044804465
8	0x3e8b4445	0.27200523
9	0x3aaae29c	0.0013037506
10	0xbd67905a	-0.05653415
11	0x3e8501f6	0.2597806
12	0x3e52dd58	0.20592248
13	0xbd8b2da4	-0.06795815
14	0x3e73212c	0.23743123
15	0x3e365216	0.17804751
16	0xbd9f0902	-0.0776539
17	0xbe78ea8c	-0.24308223
18	0xbe5e8d7d	-0.21733661
19	0x3e518b59	0.20463313
20	0xbded939b	-0.11600419
21	0xbea26df8	-0.31724524
22	0xbe8c9de2	-0.27464205
23	0xbe94ec44	-0.29086506
24	0x3d5fdeeb	0.05465595
25	0xbe2ae3f0	-0.16688514
26	0x3e0c4851	0.13699462
27	0xbd0fe856	-0.035133682
28	0x3ce0b782	0.027431253
29	0x3d22dabf	0.039759394
30	0x3ce200e3	0.027588313
31	0x3f02c144	0.5107615
32	0x3e4ba4b4	0.19887048
33	0xbe402721	-0.18764926
34	0xbe96f31c	-0.29482353
35	0xbe979aaa	-0.29610187
36	0x3e4b85d6	0.19875273
37	0xbe425f6f	-0.18981718
38	0xbe8ddb13	-0.27706203
39	0xbeb664b1	-0.35623696
40	0x3e665d0a	0.22496429
41	0x3bea4dd2	0.00715039
42	0x3e43db72	0.1912668
43	0x3e0b3a63	0.13596492
44	0x3e87240e	0.26394695
45	0xbe00c990	-0.1257689
46	0x3aca98b7	0.001545689
47	0xbe3b78b9	-0.18307771
48	0x3dec74ec	0.115457386
49	0xbf0b558d	-0.54427415
50	0x3b2c915b	0.0026331756
51	0x3edba82e	0.42901748
52	0x3e64b076	0.2233294
53	0x3f295800	0.661499
54	0xbe8148c3	-0.25250825
55	0xbdbe99bf	-0.093066685
56	0x3dde2109	0.10846145
57	0x3d5a5f31	0.053313438
58	0xbcb9e65e	-0.022692855
59	0xbe6e5791	-0.23275591
60	0x3e2c16c1	0.16805555
61	0xbe4a8342	-0.19776633
62	0x3e640a65	0.2226959
63	0xbe943c8c	-0.28952444
64	0x3cb0f7bd	0.021602506
65	0x3de0dca4	0.10979584
66	0xbde3c52d	-0.11121593
67	0x3ae6df5f	0.0017614177
68	0x3dbcf74b	0.09226855
69	0x3b208fbc	0.0024499735
70	0x3c1d96c6	0.009618467
71	0xbe58feec	-0.21190995
72	0x3e6a39d6	0.22873625
73	0x3c0130f7	0.007885209
74	0xbe584c17	-0.21122776
75	0xbcf7c329	-0.030244427
76	0x3d0b81d5	0.034059364
77	0xbdcd3501	-0.10019875
78	0x3e5eabed	0.21745272
79	0x3e445233	0.19171982
80	0xbce44840	-0.027866483
81	0xbe8344cc	-0.25638425
82	0xbc10ce29	-0.008838215
83	0x3e3cf970	0.18454528
84	0x3c7c0773	0.015382635
85	0xbe54cf96	-0.20782313
86	0x3cc2d3f3	0.023782706
87	0x3a8435fc	0.0010086889
88	0x3da4a496	0.08039205
89	0xbd8915b7	-0.06693595
90	0x3e7306a2	0.23732999
91	0xbde41c79	-0.11138243
92	0x3e399136	0.181218
93	0xbe2dfc11	-0.16990687
94	0x3db1dab8	0.086842954
95	0x3e8bf4cf	0.27335212
96	0x3d910f70	0.070830226
97	0xbe0d3aac	-0.13791913
98	0xbe2bcfcc	-0.16778487
99	0xbe7adaf7	-0.24497591
100	0x3da66909	0.081255026
101	0x3d9b1acf	0.07573473
102	0xbcd4b8fb	-0.025967112
103	0xbe0132a6	-0.12616977
104	0xbcc1df48	-0.02366604
105	0xbb083737	-0.0020784864
106	0x3e0dac38	0.13835227
107	0xbda96963	-0.08272054
108	0x3e21994f	0.15781139
109	0x3c08492e	0.008318229
110	0xbd3e47c7	-0.04645517
111	0xbccad1e0	-0.02475828
112	0x3de15c89	0.11003978
113	0xbe97ce5f	-0.29649636
114	0xbd4acd16	-0.04951199
115	0x3e373d63	0.17894511
116	0x3e49e5e8	0.19716609
117	0x3efc7e67	0.49315187
118	0xbe05ba68	-0.1305939
119	0xbe204751	-0.15652205
120	0xbe6909d7	-0.2275766
121	0xbe13158c	-0.14363688
122	0x3df6d5a6	0.12052469
123	0x3d25118f	0.04029995
124	0xbe51c3de	-0.20484874
125	0xbe91a96e	-0.28449577
126	0x3e52ece6	0.20598182
127	0xbe2169cd	-0.15763016
128	0x3b0e5387	0.0021717267
129	0xbb8de166	-0.004329848
130	0x3d676568	0.056493193
131	0xbd102a43	-0.035196554
132	0xbd55a52b	-0.05215947
133	0xbe76aa63	-0.24088435
134	0xbd6b4561	-0.05743921
135	0xbd1bfc72	-0.038082547
136	0x3dcf9fcb	0.101379
137	0xbdf33b5e	-0.11876558
138	0x3de35092	0.11099352
139	0x3e33d2e4	0.17560917
140	0x3e36f087	0.17865191
141	0xbdd355b3	-0.1031908
142	0xbd28b108	-0.041184455
143	0x3d6432c7	0.055712488
144	0x3bd1521a	0.006387961
145	0xbdeebc89	-0.11657054
146	0xbe2f80ef	-0.17139028
147	0x3ce5542b	0.027994236
148	0x3d7e1ad7	0.062037315
149	0xbc4ae0ce	-0.012382699
150	0xbb9e889d	-0.004838063
151	0xbdf67af4	-0.1203517
152	0x3dc4da74	0.09611979
153	0xbdd1fe52	-0.10253586
154	0xbe886cb8	-0.26645446
155	0x3dbf012e	0.09326397
156	0x3d12d3b6	0.035846435
157	0xbe3d3c9f	-0.18480156
158	0x3d855d4f	0.06511938
159	0xbcef8490	-0.029238015
160	0x3d70dcaa	0.05880419
161	0x3dd88174	0.10571566
162	0xbdebed34	-0.11519852
163	0xbdb90c36	-0.09035532
164	0x3d790d1a	0.06080351
165	0x3dee8a15	0.11647431
166	0xbd9cafa7	-0.076506905
167	0xbe6663eb	-0.22499053
168	0x3cedf30d	0.02904656
169	0x3e25d94f	0.16196178
170	0x3d6223f5	0.055210073
171	0xbd87abdb	-0.06624576
172	0x3e4bd0b1	0.19903828
173	0xbdd66b0f	-0.104696386
174	0xbd3bdb98	-0.045863718
175	0x3de91af4	0.11382094
176	0xbca07129	-0.019585209
177	0xbe0a54ac	-0.13508862
178	0xbe10b131	-0.14130093
179	0x3daf49d6	0.08559005
180	0xbd305fe2	-0.04306019
181	0x3daa2ec6	0.083097026
182	0x3e04cb84	0.1296826
183	0x3d184ae1	0.037180785
184	0xbbc455e9	-0.0059916866
185	0x3ca570f8	0.02019547
186	0x3cf78719	0.030215787
187	0xbe5d128e	-0.2158911
188	0x3b4c2365	0.0031149026
189	0x3d550903	0.052010547
190	0xbce459ad	-0.027874792
191	0x3e705bf4	0.23472577
192	0xbd965887	-0.07341104
193	0x3caab147	0.020836486
194	0x3d168656	0.036749206
195	0x3e40b3d5	0.188186
196	0xbd1a6393	-0.037692618
197	0x3d8390f5	0.06424133
198	0xbc096ed7	-0.008388243
199	0xbe972713	-0.29522
200	0x3ddb22e7	0.107000165
201	0x3e227211	0.15863825
202	0xbcbd0d3f	-0.023077605
203	0x3ceb5a39	0.028729545
204	0xb94c132c	-0.00019462098
205	0x3da1eb61	0.07906223
206	0xbd837876	-0.064194605
207	0x3e80b12a	0.25135165
208	0xbd596274	-0.053072408
209	0xbe02d44d	-0.12776299
210	0x3d4e84e5	0.050419707
211	0xbc09b817	-0.008405707
212	0xbe4c56b9	-0.19954957
213	0x3e14a32f	0.14515375
214	0xbd7046ef	-0.058661398
215	0xbceeac9a	-0.029135037
216	0x3d815ed7	0.063169174
217	0x3db4fd2a	0.0883735
218	0x3e89ade6	0.26890486
219	0x3d26a782	0.04068709
220	0xbe0b95ae	-0.13631317
221	0x3e33010f	0.17480873
222	0x3e18a3a7	0.14906178
223	0x3ecedc33	0.40402374
224	0xbe5ba966	-0.21451339
225	0xbe692b98	-0.22770536
226	0x3e0af420	0.13569689
227	0x3df36d46	0.11886077
228	0xbd69fc99	-0.05712566
229	0xbeb24a16	-0.34822148
230	0xbc538262	-0.012909504
231	0xbe383768	-0.17989886
232	0x3e02dd9f	0.12779854
233	0xbc1dded5	-0.009635647
234	0xbd95287d	-0.07283113
235	0xbdc720fd	-0.09723089
236	0xbdcdc0d7	-0.10046547
237	0x3dca6623	0.09882762
238	0x3e1835a9	0.1486422
239	0x3d71462b	0.058904808
240	0x3d4a6d43	0.049420606
241	0xbee77732	-0.45208126
242	0xbd349a11	-0.04409224
243	0xbdaa2413	-0.08307662
244	0xbdba5bbf	-0.090995304
245	0x3ebbec74	0.36703837
246	0xbdfe764f	-0.12424909
247	0xbe81acb4	-0.25327075
248	0x3dd0320c	0.10165796
249	0xbcd4b170	-0.025963515
250	0xbd5d2384	-0.05398895
251	0x3d937763	0.072005056
252	0x3e19b73b	0.15011303
253	0xbcaaad15	-0.020834485
254	0xbd832347	-0.06403213
255	0xbe8a87e2	-0.27056795

lstm.bias_ih_l0 f4 [256]
0	0x3d1e121c	0.03859149
1	0xbcfdd880	-0.030987024
2	0xbe1c1493	-0.15242223
3	0x3e560380	0.20899773
4	0x3db6a42b	0.08918031
5	0x3d94708f	0.07248031
6	0x3dec44dd	0.11536572
7	0x3d4fc601	0.05072594
8	0x3c2cad03	0.010539296
9	0x3e183047	0.14862166
10	0xbdd4654e	-0.10370885
11	0x3db4a7b4	0.08821049
12	0xbddf6b35	-0.1090912
13	0x3eabeaa9	0.3357747
14	0x3d55bbdf	0.05218112
15	0xbda18886	-0.07887368
16	0xbd482123	-0.048859727
17	0xbe47cf25	-0.19512613
18	0xbac13aff	-0.0014742314
19	0xbd5539f1	-0.05205721
20	0xbc78ae5c	-0.015178289
21	0xbcaee77f	-0.02135062
22	0xbe2c9296	-0.16852793
23	0xbe29ba3b	-0.16574948
24	0xbe11c392	-0.1423476
25	0x3e47a37e	0.19495961
26	0x3d9de4d0	0.07709658
27	0xbdcf1f56	-0.10113399
28	0xbdfb58a6	-0.12272768
29	0x3d9d372e	0.0767654
30	0xbd8da201	-0.069156654
31	0xbda67e15	-0.08129517
32	0xbdb2c72c	-0.08729395
33	0x3d237f62	0.039916404
34	0x3e41fc10	0.1894381
35	0x3df54017	0.11975115
36	0xbdabd93a	-0.08391042
37	0x3dfa5096	0.12222402
38	0xbde438ff	-0.11143684
39	0x3d7d6534	0.061864093
40	0xbe5bc692	-0.21462467
41	0xbdf1e931	-0.11812056
42	0x3c10fc43	0.008849206
43	0xbd70815c	-0.058717117
44	0x3e41e527	0.18935071
45	0xbd3d1589	-0.046163116
46	0x3d1884a5	0.037235875
47	0xbdf03d51	-0.11730445
48	0xbe1b6d71	-0.15178467
49	0x3e5b50a5	0.21417482
50	0xbe2cc9e8	-0.16873896
51	0x3d2e5770	0.042563856
52	0x3e161130	0.14654994
53	0x3e2b5749	0.16732515
54	0xbd779dd3	-0.060453247
55	0xbcf6f997	-0.03014831
56	0xbd877402	-0.066139236
57	0xbe730751	-0.2373326
58	0xbd1238aa	-0.03569857
59	0x3bfc9656	0.007708351
60	0xbd9caa6b	-0.07649692
61	0xbe430410	-0.19044518
62	0x3d692671	0.056921426
63	0xbbbe2c53	-0.0058036237
64	0x3dac23a9	0.08405239
65	0xbdbfac72	-0.09359063
66	0xbd79812a	-0.060914196
67	0x3cab831e	0.020936545
68	0xbbe81b64	-0.0070833433
69	0x3cdfc1c6	0.027314078
70	0x3d89c9bc	0.06727931
71	0xbddf053d	-0.10889671
72	0xbe181957	-0.14853416
73	0x3c182f53	0.009288627
74	0xbcab9466	-0.020944785
75	0x3e1d27bb	0.15347187
76	0xbe2ae330	-0.16688228
77	0x3e05c3df	0.13063
78	0xbe11314c	-0.14178962
79	0x3d7a7642	0.061147936
80	0x3d5ef178	0.0544295
81	0xbdec59fb	-0.115406
82	0xbdb327d0	-0.08747828
83	0xbd4a08c5	-0.04932477
84	0x3d2486d1	0.040167633
85	0x3d3df08e	0.04637199
86	0xbe0bf4bf	-0.13667582
87	0xbe501b6a	-0.20322958
88	0x3db4f445	0.08835653
89	0x3cd9e174	0.026596762
90	0x3ddbc2bf	0.10730504
91	0xbd4d3a29	-0.050104294
92	0xbd9321f1	-0.07184208
93	0x3d34a2de	0.044100635
94	0xbdb8739a	-0.09006424
95	0xbe49e248	-0.19715226
96	0x3daaac65	0.08333663
97	0xbddcb9dd	-0.10777638
98	0xbdd3e293	-0.1034595
99	0xbe3cf1e2	-0.18451646
100	0xbe0d4d0a	-0.1379892
101	0x3c7687c2	0.015047016
102	0x3d6e53c3	0.05818535
103	0xbe5386fa	-0.20656958
104	0x3d74caa1	0.059763554
105	0x3c465041	0.012104095
106	0xbe32a233	-0.17444687
107	0xbd71b4db	-0.059010368
108	0xbe11c9e4	-0.14237171
109	0xbdb46526	-0.08808355
110	0xbce9118e	-0.028450754
111	0x3b97f3c7	0.004637215
112	0xbe36dcf9	-0.17857732
113	0xbe989afa	-0.29805738
114	0xbdd427d5	-0.1035916
115	0x3ab1aefa	0.0013556175
116	0x3dc0686c	0.09394917
117	0x3cc4946f	0.02399656
118	0x3d52207a	0.051300503
119	0xbdbda66d	-0.09260259
120	0xbd461379	-0.048358414
121	0xbd302990	-0.043008387
122	0xbd2aabf8	-0.04166791
123	0xbd628029	-0.055298004
124	0xbe700b3e	-0.23441789
125	0xbe52138b	-0.20515268
126	0x3df93558	0.12168378
127	0xbc28517b	-0.010273333
128	0x3dd9cf1e	0.106352076
129	0x3dec6f64	0.115446836
130	0xbd1cd0e9	-0.03828517
131	0x3d85d7c2	0.06535293
132	0xbdc2da6f	-0.09514319
133	0x3d61f49b	0.055164915
134	0xbd32e683	-0.043676864
135	0xbcf1ee35	-0.029532531
136	0xbe076bf8	-0.1322478
137	0xbccbea64	-0.02489204
138	0xbbbfa4c6	-0.0058485
139	0xbdd38487	-0.10328012
140	0xba127a37	-0.00055876694
141	0xbd7dccc7	-0.06196287
142	0xbda0473a	-0.078260854
143	0xbdfcf83a	-0.12352033
144	0xbcc653d3	-0.024209892
145	0x3daf36ad	0.085553505
146	0x3e125d3c	0.14293379
147	0x3d1ed329	0.038775597
148	0xbd00c71e	-0.031439893
149	0xbd95483e	-0.0728917
150	0xbd6024b6	-0.05472251
151	0xbdf1fed9	-0.118161865
152	0x3dc428c2	0.095780864
153	0x3deeaf84	0.11654571
154	0xb9d847cf	-0.00041252232
155	0xbda06288	-0.07831293
156	0x3dd0443d	0.101692654
157	0x3d957d22	0.07299258
158	0x3bcfea0a	0.0063450383
159	0x3d35956b	0.04433195
160	0x3b544d2b	0.0032394629
161	0xbdba891c	-0.09108183
162	0xbc7a56ed	-0.015279514
163	0x3be294ab	0.0069146953
164	0x3d851bdb	0.06499454
165	0x3d791ffb	0.060821515
166	0xbd900dce	-0.07033883
167	0xbd81e505	-0.0634251
168	0x3d7bc93a	0.0614712
169	0xbdb32adb	-0.087484084
170	0x3e07fee9	0.13280834
171	0xbb8bb118	-0.0042630546
172	0x3d9e7637	0.077373914
173	0xbe2d5de4	-0.16930348
174	0xbdefa18b	-0.11700734
175	0x3d53a5da	0.05167184
176	0x3e04d4b5	0.12971766
177	0xbdca5ff1	-0.098815806
178	0x3d1e200c	0.03860478
179	0x3ddf818b	0.1091338
180	0xbba84916	-0.0051356656
181	0x3d6b2aa1	0.0574137
182	0xbdeb6633	-0.11494102
183	0x3bd324f1	0.0064436127
184	0xbd7de8c5	-0.061989564
185	0xbde009e6	-0.10939388
186	0xba5e0ad7	-0.0008470243
187	0x3da9c8e3	0.08290269
188	0xbd3a6760	-0.045508742
189	0x3e07c4b7	0.13258635
190	0x3dc0f3c7	0.09421497
191	0x3c9cc5c4	0.01913727
192	0xbddd9f3d	-0.10821388
193	0xbd87c44e	-0.06629239
194	0xbe00ee9a	-0.1259102
195	0x3deab4f4	0.11460295
196	0xbd8ccd8e	-0.06875144
197	0x3de5b75e	0.11216615
198	0xbe3045b8	-0.17214096
199	0xbd4fa872	-0.05069775
200	0xbd36dca6	-0.04464402
201	0xbdb7bfbb	-0.089721166
202	0x3c1a834b	0.009430717
203	0xbe43e9ad	-0.19132109
204	0xbb818555	-0.003952662
205	0x3e2e3af9	0.17014684
206	0xbca06cce	-0.019583132
207	0x3ca6b3e7	0.020349456
208	0x3be49c5e	0.0069766482
209	0x3d5600ea	0.052246965
210	0xbe0cedca	-0.13762584
211	0x3d5c37cc	0.05376415
212	0x3d6ad51b	0.05733214
213	0xbdae3547	-0.085062556
214	0xbe342fcd	-0.1759636
215	0xbd59538b	-0.05305819
216	0x3cc17138	0.023613557
217	0xbe0c0191	-0.13672473
218	0x3d814d11	0.063135274
219	0xbdc3645f	-0.09540629
220	0xbd97584a	-0.07389887
221	0xbe0a254b	-0.13490789
222	0xbda44a84	-0.08022025
223	0xbc88f150	-0.01671663
224	0x3d405a4b	0.04696111
225	0xbc999005	-0.018745432
226	0x3d76950e	0.060200743
227	0x3e410243	0.18848519
228	0xbdaa1429	-0.083046265
229	0x3e1f8624	0.15578514
230	0x3c557910	0.013029352
231	0xbdddccef	-0.108301036
232	0xbe839be8	-0.25704885
233	0xbdef30b1	-0.11679209
234	0xbe570ebb	-0.21001713
235	0x3c85caa7	0.016331984
236	0x3c8316fe	0.016002174
237	0xbdd6b7d2	-0.1048428
238	0xbdbc453b	-0.09192892
239	0xbdd8c461	-0.10584331
240	0xbc8889aa	-0.016667206
241	0x3e671f92	0.22570637
242	0xbe08668b	-0.13320367
243	0xbd516c04	-0.051128402
244	0x3d955b96	0.07292859
245	0x3e11eb82	0.14249995
246	0x3e3fa3a0	0.18714762
247	0xbc3d65ec	-0.011559945
248	0x3beef24e	0.0072920686
249	0xbe59593e	-0.2122545
250	0xbd84facd	-0.06493149
251	0x3c658d73	0.014010775
252	0xbdc614e3	-0.096719526
253	0xbcea98de	-0.028637346
254	0x3be707bc	0.0070504826
255	0x3e0ba633	0.13637619

lstm.bias_hh_l0 f4 [256]
0	0xbe432a3d	-0.19059081
1	0xbd3c1052	-0.045914
2	0x3b41c656	0.002956768
3	0x3e8b0704	0.2715379
4	0x3e077fe4	0.1323238
5	0xbd9f6cda	-0.07784434
6	0x3d5e6255	0.054292995
7	0xbd1b0bf0	-0.03785318
8	0x3d826097	0.06366079
9	0x3e465353	0.19367723
10	0xbdf3f140	-0.11911249
11	0xbd2695ba	-0.040670134
12	0xbd18d8d4	-0.03731616
13	0x3e855139	0.2603853
14	0xbe100816	-0.14065585
15	0xbd875910	-0.06608784
16	0x3dc21afc	0.09477803
17	0x3b8ee2e6	0.0043605445
18	0x3d21ba09	0.039484058
19	0xbdbc60f7	-0.09198182
20	0x3db864f7	0.090036325
21	0xbd649bf4	-0.05581279
22	0xbe6b2d50	-0.22966504
23	0xbe7d58c1	-0.24740888
24	0xbc4cb629	-0.012494602
25	0x3d900db0	0.07033861
26	0x3e24657b	0.16054337
27	0xbe1a9ffd	-0.15100093
28	0xbe363a7f	-0.17795752
29	0xbda21860	-0.079148054
30	0xbe365bf6	-0.17808518
31	0xbdf7bc84	-0.120965034
32	0x3dd648f2	0.10463132
33	0x3a8ebcee	0.0010890046
34	0x3db86149	0.09002931
35	0x3db6af03	0.089200996
36	0xbdb27782	-0.087142006
37	0x3d7c790b	0.061638873
38	0xbe1b34a3	-0.15156798
39	0x3ce697d9	0.028148578
40	0xbe6b3905	-0.2297097
41	0xbbf5e473	-0.00750404
42	0xbdb6e804	-0.08930972
43	0xbc340b77	-0.010989062
44	0x3e3420a5	0.17590578
45	0xbd3fa0e6	-0.046784304
46	0x3d925fbd	0.07147167
47	0xbd56e918	-0.05246839
48	0xbe708049	-0.23486437
49	0x3e07d930	0.13266444
50	0xbc8c9d82	-0.01716495
51	0x3e053c39	0.13011254
52	0x3e8fc0c5	0.2807676
53	0x3dacc5da	0.08436175
54	0xbe034900	-0.12820816
55	0x3dd3a84e	0.10334836
56	0x3dbb438c	0.09143743
57	0xbe1df09b	-0.15423815
58	0xbe502c3d	-0.20329376
59	0x3d2b38e3	0.0418023
60	0x3c9f7e41	0.019469382
61	0xbe133837	-0.14376913
62	0xbd992ef4	-0.07479659
63	0xbdf35427	-0.11881285
64	0x3e15a895	0.1461509
65	0x3da09b4c	0.078421205
66	0xbe447e89	-0.19188894
67	0xbca8bc2c	-0.02059754
68	0x3d205ce3	0.039151084
69	0xbe051df6	-0.1299971
70	0x3d7af76d	0.06127112
71	0xbcd16b64	-0.025563903
72	0xbdf38948	-0.11891419
73	0x3e39701c	0.18109173
74	0xbbf61af4	-0.0075105373
75	0x3dcf28f6	0.101152346
76	0xbdb25d49	-0.08709199
77	0x3c0be672	0.008538829
78	0xbe0988ba	-0.13431063
79	0x3d5b0fd8	0.053481907
80	0x3d404d1d	0.04694854
81	0xbc826366	-0.015916537
82	0xbda5a9e4	-0.08089045
83	0xbe2abc46	-0.16673383
84	0xbd02c1a2	-0.031922944
85	0xbd1c9a18	-0.038232893
86	0xbdfd054a	-0.123545244
87	0xbbfe91e4	-0.0077688564
88	0x3d64f869	0.055900965
89	0x3cdb3474	0.02675841
90	0x3c431377	0.011906496
91	0xbd68850f	-0.05676752
92	0xbdf22bac	-0.11824736
93	0xbd47c2d0	-0.048769772
94	0xbd40794b	-0.046990674
95	0xbd5f8caa	-0.054577507
96	0x3d705e99	0.058683965
97	0xbde71f8f	-0.11285316
98	0xbe14767f	-0.14498328
99	0x3d65da7b	0.056116562
100	0xbccec956	-0.025242489
101	0x3c568972	0.013094293
102	0x3df9416b	0.121706806
103	0xbe3f75d2	-0.18697289
104	0xbd1a5027	-0.037674095
105	0xbe282843	-0.16421609
106	0xbdea3adc	-0.11437008
107	0x3cc3ce95	0.023902217
108	0xbc18dab9	-0.009329491
109	0xbe127527	-0.14302503
110	0xbe0db199	-0.1383728
111	0x3d544e5f	0.051832553
112	0xbcdbc989	-0.026829498
113	0xbdd0c2c5	-0.10193399
114	0xbc929b23	-0.01789624
115	0x3da1cbfb	0.07900234
116	0x3d8d1bda	0.06890078
117	0xbdb5b654	-0.08872667
118	0x3e0ecc41	0.13945104
119	0x3d1aba4a	0.037775315
120	0xbdad788d	-0.08470259
121	0xbd8a5aa9	-0.06755573
122	0xbd1afa04	-0.03783609
123	0x3ce19b64	0.027539916
124	0xbe862470	-0.26199675
125	0xbe684c31	-0.22685315
126	0xbd60c117	-0.054871645
127	0x3d5bfee7	0.05370989
128	0xbd1017af	-0.035178836
129	0x3dfd9374	0.1238164
130	0xbcd32bce	-0.025777724
131	0x3d23fdef	0.04003709
132	0x3d306484	0.04306461
133	0xbd7b0731	-0.061286155
134	0x3ce870d2	0.02837411
135	0x3dbc7e10	0.09203732
136	0xbd84e740	-0.0648942
137	0x3deb06a7	0.11475878
138	0xbd328758	-0.043586105
139	0xbd4990e9	-0.049210463
140	0xbdbb07b6	-0.0913233
141	0x3ddec531	0.10877455
142	0x3db226e4	0.08698824
143	0xbc2ae94b	-0.010431598
144	0x3d703362	0.058642752
145	0x3dd1ed54	0.10250345
146	0x3d76c075	0.060242135
147	0xbcbdb215	-0.023156205
148	0x3d92e7a9	0.07173092
149	0x3df99aa6	0.121877
150	0x3ce4771f	0.027888833
151	0x3dcde733	0.100538634
152	0xbda6a550	-0.081369996
153	0x3d919b58	0.071097076
154	0x3c53e6c7	0.01293344
155	0x3c9c201f	0.019058285
156	0xbd6dee19	-0.058088396
157	0x3a6958d0	0.0008901479
158	0xbdabc019	-0.08386249
159	0x3d98cf59	0.074614234
160	0x3d8b3ff0	0.067993045
161	0xbe3dfd66	-0.18553695
162	0xbd39ecf5	-0.045391995
163	0x3d28c9cb	0.04120807
164	0xbe0c4d26	-0.13701305
165	0x3d8ddd4b	0.06926974
166	0x3dec283e	0.11531113
167	0x3d72d819	0.059288118
168	0xbcb82a86	-0.022481214
169	0x3cc334d2	0.023828898
170	0xbd8692aa	-0.06570943
171	0xbd9cfcd2	-0.07665409
172	0xbcbe1a8d	-0.02320602
173	0x3d742313	0.059603762
174	0x3d7f81e0	0.062379718
175	0x3d88535d	0.06656525
176	0xbc4bb9d5	-0.0124344425
177	0x3d9cb849	0.07652337
178	0x3dfd318b	0.12362965
179	0xbd3937c0	-0.045219183
180	0x3c6c8d49	0.014437982
181	0xbc130894	-0.008974213
182	0xbe15ea2d	-0.14640112
183	0xbcb72754	-0.02235762
184	0xbcd7ff75	-0.026366929
185	0xbde6547e	-0.11246584
186	0xbd709328	-0.05873409
187	0xbcd13606	-0.025538456
188	0xbd8a81eb	-0.06763061
189	0x3d7403cd	0.059573937
190	0xbe10cf7d	-0.1414165
191	0x3d915892	0.070969716
192	0xbdee2741	-0.11628581
193	0xbd8eda44	-0.069752246
194	0xbe586136	-0.21130833
195	0x3a4d021a	0.00078204426
196	0xbcc8f707	-0.024531854
197	0xbbd11202	-0.0063803205
198	0xbd542163	-0.051789653
199	0xbceea8ac	-0.029133163
200	0x3e0061e3	0.12537341
201	0xbabaae1a	-0.001424256
202	0x3e04d636	0.1297234
203	0xbd821e37	-0.06353419
204	0xbe22ff4c	-0.159177
205	0x3c076bf0	0.00826548
206	0xbcff5d52	-0.031172428
207	0x3d9865b5	0.07441274
208	0x3d04ebdb	0.03245149
209	0x3cfa6848	0.030567303
210	0xbd4e3792	-0.050345965
211	0xbda0fc6e	-0.07860647
212	0x3df66cab	0.120324455
213	0xbe3c9251	-0.1841519
214	0xbe059c29	-0.13047852
215	0xbe11a9f0	-0.14224982
216	0xbdf8f5d8	-0.12156266
217	0xbb0a27be	-0.0021080817
218	0x3e6e40fd	0.23266979
219	0xbd66d3c2	-0.05635429
220	0xbcf335df	-0.029688774
221	0xbd8cd94e	-0.06877385
222	0xbd6777f3	-0.056510877
223	0xbd935ed5	-0.07195822
224	0xbdf3d91c	-0.11906645
225	0xbc96fbb7	-0.018430574
226	0xbc815581	-0.015787842
227	0xbc7ae64f	-0.015313699
228	0x3b8ea1b1	0.004352771
229	0x3e0be615	0.13661988
230	0x3d33c0b8	0.043884963
231	0x3c900e19	0.017584847
232	0xbe7acca8	-0.24492133
233	0xbe11e1e5	-0.14246328
234	0xbe72ca89	-0.23710074
235	0xbe0fab8f	-0.14030288
236	0xbd1ca5f2	-0.038244195
237	0xbe3560e7	-0.17712747
238	0x3db8030e	0.08984958
239	0x3d2c6a71	0.042093698
240	0xbe4e869c	-0.20168537
241	0x3e4562e0	0.19275999
242	0xbd6c5022	-0.057693608
243	0x3e05e3fe	0.13075253
244	0xbd6bfa92	-0.05761201
245	0x3e449621	0.19197895
246	0x3d552b2e	0.052043132
247	0x3d87c9d7	0.06630295
248	0x3d8fcf01	0.07021905
249	0xbdaf4c3b	-0.08559462
250	0x3d106e88	0.03526166
251	0x3c9a1b7d	0.018811936
252	0x3b63abef	0.0034739932
253	0xbe40c966	-0.18826827
254	0xbe184880	-0.14871407
255	0xbbf49e8b	-0.007465189

classifier.0.weight f4 [32, 64]
0	0x3e094e05	0.13408668
1	0xbe32ccb8	-0.17460907
2	0x3e6a757b	0.22896378
3	0x3e08b35d	0.13349672
4	0xbe65f191	-0.22455432
5	0xbd3c0cf7	-0.0459108
6	0x3e0d86db	0.13820975
7	0xbe1d2111	-0.15344645
8	0xbe5920ce	-0.2120392
9	0x3e27811b	0.16357844
10	0xbdd1b27e	-0.10239123
11	0xbd91af5d	-0.07113526
12	0xbcfbcd12	-0.030737434
13	0x3e638aed	0.22220965
14	0xbe48e7f9	-0.1961974
15	0x3c58b304	0.013226274
16	0xbe0d798f	-0.13815902
17	0x3d784ac7	0.06061819
18	0xbc90321a	-0.017602015
19	0xbdc4d2ab	-0.09610494
20	0x3ce10fcb	0.027473351
21	0x3e31efd6	0.17376646
22	0xbd284d26	-0.0410892
23	0x3dac5e6c	0.08416447
24	0xbe6f7c61	-0.2338729
25	0x3e9c96ec	0.30583894
26	0xbd62f30b	-0.055407565
27	0xbe3d426a	-0.18482366
28	0xbd911081	-0.07083226
29	0x3e86a0ff	0.26294705
30	0x3d98ecde	0.07467054
31	0xbdfa2577	-0.12214177
32	0xbe195fca	-0.14977947
33	0x3e7d266a	0.24721685
34	0x3e9fb9e0	0.311965
35	0x3e236ab7	0.15958677
36	0xbe89aec7	-0.26891157
37	0x3d992b87	0.07479005
38	0x3d6ace22	0.05732549
39	0x3e2c5888	0.16830647
40	0xbdd8a5e7	-0.10578518
41	0xbd39b8b5	-0.045342166
42	0xbe4fb33b	-0.20283215
43	0xbe46016e	-0.19336483
44	0xbe856d9f	-0.26060197
45	0x3dedf6cd	0.11619339
46	0x3d29dc34	0.041469768
47	0x3ce31981	0.027722122
48	0xbd34c60d	-0.04413419
49	0x3ea3f60b	0.32023653
50	0xbdd277d4	-0.10276762
51	0xbe08bf91	-0.13354327
52	0xbe2df1a6	-0.16986713
53	0xbe3c7a01	-0.18405916
54	0x3e27c293	0.16382818
55	0x3d0e205b	0.034698825
56	0xbc68c206	-0.014206415
57	0xbd891439	-0.0669331
58	0x3d674e37	0.056471076
59	0x3e7df4b2	0.24800375
60	0x3daa280e	0.08308421
61	0x3e66b3ec	0.22529572
62	0xbd2a8d49	-0.041638646
63	0x3e44a29c	0.19202656
64	0x3e2ce988	0.1688596
65	0x3eabc777	0.33550617
66	0xbdfbc322	-0.12293078
67	0x3dd389f4	0.10329047
68	0xbdb30a96	-0.087422535
69	0xbb6ce146	-0.0036145016
70	0x3e24f91e	0.16110656
71	0xbc1f207a	-0.009712333
72	0xbd88d1e1	-0.06680656
73	0x3e1d2c9f	0.15349053
74	0xbe457800	-0.19284058
75	0x3c8f4058	0.017486736
76	0x3d389f0d	0.045073558
77	0x3ddd4e06	0.108058974
78	0xbe04d63e	-0.12972352
79	0xbc65f907	-0.0140364235
80	0x3e8f6283	0.28004846
81	0xbc2a062e	-0.01037745
82	0xbddb1094	-0.106965214
83	0x3e76db59	0.24107112
84	0xbe9433fd	-0.28945914
85	0xbe21fd61	-0.15819313
86	0xbe7132d0	-0.2355454
87	0xbce42d15	-0.027853528
88	0xbd0dc380	-0.03461027
89	0xbe80a1a8	-0.25123334
90	0x3eb9fd45	0.36326042
91	0x3e4c3126	0.19940624
92	0x3eb2096c	0.34772813
93	0xbe36898b	-0.17825906
94	0xbccbdb4a	-0.024884839
95	0x3e506b21	0.20353366
96	0x3dd1169e	0.10209392
97	0xbe8cb616	-0.2748267
98	0xbec8a5ca	-0.39188987
99	0xbea00beb	-0.31259093
100	0x3e347ed2	0.17626503
101	0xbe7739af	-0.24143098
102	0x3e7aa1dc	0.24475807
103	0xbe371596	-0.17879328
104	0x3e12e4f1	0.14345147
105	0xbdab896a	-0.08375819
106	0x3e0197d7	0.12655579
107	0x3e242af9	0.16032018
108	0x3e16bd5a	0.1472067
109	0xbd8ac60f	-0.06776058
110	0xbd0eb5a8	-0.03484121
111	0xbdd8ad6d	-0.10579953
112	0x3e829292	0.2550245
113	0xbe756c07	-0.2396699
114	0x3e661afe	0.22471234
115	0xbcb86ed9	-0.022513794
116	0xbde47645	-0.111553706
117	0x3ed0e9ea	0.40803462
118	0xbeaf175b	-0.34197506
119	0xbeaa6fd5	-0.33288446
120	0x3e2e9a19	0.17050971
121	0xbc918490	-0.017763406
122	0xbd64ada9	-0.055829678
123	0x3e2f014f	0.17090343
124	0x3ea19e6c	0.3156618
125	0xbe7e8e85	-0.24859054
126	0xbeb1abc1	-0.3470135
127	0xbe0e16a2	-0.13875821
128	0x3e3ead4f	0.186208
129	0xbe12e6f6	-0.14345917
130	0xbddb7d13	-0.107172154
131	0x3c7542c1	0.014969529
132	0x3ce3a4c5	0.02778853
133	0xbe0b971d	-0.13631864
134	0x3dcc960c	0.09989557
135	0xbed23db9	-0.41062716
136	0x3e382418	0.17982519
137	0x3d1289a8	0.03577581
138	0xbae41845	-0.0017402252
139	0xbd46c7f2	-0.048530526
140	0xbe08b025	-0.13348444
141	0x3daadb8d	0.08342657
142	0x3c3649c3	0.011125985
143	0x3e0d36b4	0.13790399
144	0x3be63b76	0.0070261313
145	0x3ebda9b8	0.37043548
146	0x3e91bf35	0.28466192
147	0xbe96af27	-0.29430506
148	0x3d5bddba	0.05367825
149	0xbe1990d1	-0.1499665
150	0xbccd5b7d	-0.02506804
151	0x3e23a49d	0.15980764
152	0xbe7dff15	-0.24804337
153	0x3f1c5baa	0.6107737
154	0xbd527354	-0.051379517
155	0x3d69dcb1	0.057095233
156	0x3e077b6f	0.1323068
157	0x3d93e33f	0.07221078
158	0x3c07ba6b	0.008284192
159	0x3c07d8d4	0.008291442
160	0xbdf765af	-0.120799415
161	0xbc67bbad	-0.0141438665
162	0x3e88200f	0.2658696
163	0x3deb261b	0.114818774
164	0xbe4b1999	-0.19833983
165	0x3e9384c2	0.28812224
166	0xbdd8c8ba	-0.105851606
167	0x3e161145	0.14655025
168	0x3ddeefef	0.108856075
169	0xbe6032e9	-0.2189442
170	0xbcb904b2	-0.022585247
171	0xbd71e7be	-0.059058897
172	0xbe21a845	-0.15786846
173	0x3db33ce9	0.08751852
174	0x3cb526c0	0.022113204
175	0x3d5b52d2	0.05354578
176	0xbe51596a	-0.20444265
177	0x3eaad0e3	0.33362493
178	0x3dc93411	0.09824384
179	0xbe103df4	-0.14086133
180	0xbe7544dd	-0.2395205
181	0xbe8541bc	-0.26026714
182	0xbd042a34	-0.03226681
183	0x3d6f73c4	0.058460012
184	0xbe746273	-0.2386568
185	0xbea3edb9	-0.32017305
186	0x3df8ba7a	0.121449426
187	0x3db869f5	0.09004585
188	0xbe0f297a	-0.13980666
189	0x3e1674ed	0.14693041
190	0xbd2d81b0	-0.042360008
191	0xbddba290	-0.10724366
192	0x3e6e0843	0.23245339
193	0xbe4155ee	-0.18880436
194	0x3d6d76e5	0.057974715
195	0x3e2834d2	0.164264
196	0xbe0f683d	-0.14004607
197	0x3d2d7557	0.042348232
198	0x3e752105	0.23938377
199	0xbe3379d7	-0.17526947
200	0xbe6ead46	-0.23308286
201	0x3e73e6ed	0.2381856
202	0x3d1c5e67	0.038175967
203	0xbe80afc3	-0.25134096
204	0xbe00833c	-0.12550062
205	0x3d944a47	0.0724073
206	0xbdae3063	-0.08505323
207	0xbe0ca873	-0.13736133
208	0x3d93b915	0.07213036
209	0x3e13ec78	0.14445674
210	0x3cef538e	0.029214647
211	0xbd9c5c45	-0.076347865
212	0xbe0845a6	-0.13307819
213	0x3e03e2f8	0.1287955
214	0x3d072226	0.03299155
215	0x3d915f08	0.07098204
216	0xbd9a6964	-0.07539633
217	0x3e7aceb6	0.24492916
218	0xbe6da89f	-0.23208855
219	0xbe1453b8	-0.14485061
220	0xbe55ef01	-0.20891954
221	0x3ea6cd7e	0.32578653
222	0x3e488e56	0.19585547
223	0xbe06e6b9	-0.13173951
224	0xbe5e9a0f	-0.21738456
225	0x3d95eb0b	0.073202215
226	0x3eb87f69	0.36034706
227	0x3e17e70c	0.14834231
228	0xbd9c4687	-0.076306395
229	0x3d68928c	0.056780383
230	0x3d73b734	0.059500888
231	0x3e1d7578	0.15376842
232	0xbc238704	-0.009980921
233	0x3d1d2ef0	0.03837484
234	0xbe1ca321	-0.15296604
235	0xbe360718	-0.17776144
236	0xbe761950	-0.24033093
237	0x3dd7c027	0.10534697
238	0x3d9d269c	0.0767338
239	0x3d3ff0ea	0.046860613
240	0xbe4cde72	-0.20006731
241	0x3e7153b8	0.23567092
242	0x3d59a1e4	0.053132907
243	0xbe35ba25	-0.1774679
244	0xbe08f7a6	-0.1337572
245	0xbe177931	-0.14792325
246	0x3dace956	0.08442943
247	0x3dbb090b	0.09132584
248	0xbcb780ff	-0.022400377
249	0xbe0954c7	-0.13411246
250	0x3d9416e0	0.072309256
251	0x3e89de74	0.2692753
252	0x3c4d1d27	0.0125191575
253	0x3e4814c4	0.19539171
254	0xbd39a074	-0.045319036
255	0x3e0e3048	0.13885605

classifier.0.bias f4 [32]
0	0x3e0bacb8	0.13640106
1	0x3ea07e12	0.31346184
2	0x3ddad052	0.10684265
3	0x3d2302ba	0.039797522
4	0x3eae9ad6	0.34102505
5	0x3cd7a987	0.026325954
6	0xbdbe5eaa	-0.092953995
7	0x3dbaf504	0.09128764
8	0x3ceb809a	0.028747845
9	0xbc68cf59	-0.014209592
10	0x3d9a3e2b	0.07531389
11	0xbdd7f492	-0.10544695
12	0x3e0f10ce	0.13971254
13	0x3c09a6ea	0.008401612
14	0x3ceb0b32	0.028691862
15	0x3deb7dd2	0.11498608
16	0x3d4c440b	0.04986958
17	0x3d923b73	0.07140245
18	0x3eb030f1	0.3441234
19	0xbda703be	-0.08155011
20	0xbe395fbe	-0.18102929
21	0x3d75e573	0.060033273
22	0x3e1cdb33	0.15317993
23	0x3ab7333c	0.0013977061
24	0x3d51c26a	0.0512108
25	0x3d7b564d	0.0613616
26	0x3d6e235f	0.0581392
27	0xbcb51349	-0.022103922
28	0xbdba28fd	-0.09089849
29	0x3dd704ff	0.10499
30	0xbe147a43	-0.14499764
31	0x3d388531	0.045048896

classifier.2.weight f4 [2, 32]
0	0x3ea403d3	0.32034168
1	0xbea1268a	-0.31474715
2	0x3ed04d60	0.40684032
3	0x3e81f11f	0.25379273
4	0xbef15a21	-0.47139075
5	0x3ea20e7e	0.31651682
6	0x3e1234b6	0.1427792
7	0x3e6ad942	0.2293444
8	0x3e3ee6ea	0.18642774
9	0xbca4e2c8	-0.020127669
10	0x3e79af58	0.24383295
11	0xbc800a3a	-0.015629876
12	0x3e558174	0.20850164
13	0x3eac2b27	0.33626673
14	0x3e8bc219	0.27296522
15	0x3ea1a42d	0.3157057
16	0x3ed38d87	0.41318914
17	0x3e58a6ee	0.21157429
18	0xbec3162a	-0.38102847
19	0xbb8723d7	-0.0041241455
20	0xbd97d3fe	-0.07413481
21	0x3f132eb8	0.5749316
22	0x3e2a4a1a	0.1662983
23	0x3e665092	0.22491673
24	0x3e2b5877	0.16732965
25	0x3eb0cd3d	0.34531584
26	0x3e22e869	0.1590897
27	0x3ec465b3	0.3835884
28	0x3e00d0af	0.12579606
29	0x3e234030	0.15942454
30	0xbd0bff0c	-0.03417878
31	0x3e9a26c9	0.30107716
32	0xbe6c6d22	-0.23088506
33	0x3ed13e3c	0.40867794
34	0xbeff182d	-0.49823132
35	0xbe895ca8	-0.26828504
36	0x3ebc6345	0.36794487
37	0xbe895ea4	-0.26830018
38	0xbdb32fbe	-0.087493405
39	0xbe5bfe33	-0.21483688
40	0xbe9aec04	-0.3025819
41	0x3e02d0fe	0.12775037
42	0xbe8ba6b5	-0.27275625
43	0x3d0599ec	0.032617494
44	0xbe3fa9e3	-0.1871715
45	0xbebe70d0	-0.37195444
46	0x3c280090	0.01025404
47	0xbecfb7d7	-0.40569946
48	0xbece3140	-0.4027195
49	0xbec26506	-0.379677
50	0x3ec47974	0.3837391
51	0xbe4c9381	-0.19978143
52	0xbd8aac9b	-0.06771203
53	0xbf19fc2e	-0.6015042
54	0xbeaeb399	-0.34121397
55	0xbe132a18	-0.14371526
56	0xbe65df9c	-0.22448581
57	0xbe7b1e33	-0.24523239
58	0xbd923175	-0.071383394
59	0xbe831cc2	-0.25607878
60	0xbcf9daf6	-0.030499917
61	0xbe612883	-0.2198811
62	0x3cc16c26	0.02361114
63	0xbec747c4	-0.3892194

classifier.2.bias f4 [2]
0	0xbdc110c0	-0.09427023
1	0x3e3ab19f	0.1823182
