src/DARPA/pretrained/models/phase_4.pth (torch, 194061 bytes, 8 tensors)

lstm.weight_ih_l0 f4 [256, 112]
0	0x3ce504f5	0.027956465
1	0xbc5837a9	-0.013196864
2	0xbdd13e4a	-0.10216959
3	0xbcf64920	-0.030064166
4	0x3d26fe51	0.04076988
5	0xbc3e791b	-0.0116255535
6	0xbcc92ce8	-0.024557546
7	0x3bf36f62	0.0074290494
8	0x3db62070	0.08892906
9	0xbd1c6a96	-0.038187586
10	0xbe2ee17d	-0.17078204
11	0x3e0b04b2	0.1357601
12	0x3c9e27d5	0.019306103
13	0xbd80fed8	-0.062986076
14	0xbdc0420d	-0.09387598
15	0x3dee00a4	0.11621216
16	0x3e7634bf	0.24043559
17	0x3dc732f4	0.097265154
18	0x3e8218a9	0.2540944
19	0x3e9dd4b1	0.30826333
20	0x3e387109	0.1801187
21	0xbe503695	-0.20333321
22	0x3e95a0e2	0.29224306
23	0xbcd85eea	-0.026412446
24	0x3e05c0ce	0.1306183
25	0x3ce060e6	0.027389955
26	0x3f1f188f	0.6214685
27	0xbe908f3c	-0.2823428
28	0x3e204228	0.15650237
29	0xbe4b2a35	-0.1984032
30	0x3db90949	0.09034974
31	0xbcd0ead8	-0.025502607
32	0x3e7cc873	0.2468584
33	0x3e13252c	0.14369649
34	0x3dce9530	0.10087049
35	0xbe5aa536	-0.21352085
36	0xbde3b9b4	-0.111194044
37	0xbd56ecbf	-0.052471872
38	0x3e625daf	0.2210605
39	0x3e4f8ff6	0.2026976
40	0x3e457756	0.19283804
41	0x3c35d4e3	0.011098119
42	0x3d1a468c	0.037664935
43	0x3e9e1975	0.30878797
44	0x3de8f789	0.113753386
45	0xbd186d04	-0.03721334
46	0x3cb47518	0.02202849
47	0x3d3b786e	0.045769148
48	0xbdc3a08d	-0.09552107
49	0xbdb25f1e	-0.087095484
50	0xbdd36066	-0.10321121
51	0x3db1e3f9	0.086860605
52	0x3e07998e	0.1324217
53	0x3e6e44b9	0.23268403
54	0xbdeb0a68	-0.11476594
55	0x3dcd276a	0.10017283
56	0x3e34c077	0.17651545
57	0x3e2cb827	0.16867124
58	0xbe44d1ef	-0.19220708
59	0x3e6a07da	0.22854558
60	0x3ec8ba8a	0.39204818
61	0x3db96a65	0.09053496
62	0x3d725cfc	0.059170708
63	0xbd8629ba	-0.065509275
64	0x3da91bb9	0.08257241
65	0x3edb82c5	0.42873207
66	0x3d96cb5a	0.07363005
67	0x3ed5e9a2	0.4177981
68	0x3ea58c94	0.32333815
69	0xbe5542eb	-0.20826308
70	0x3d9df405	0.07712559
71	0x3d92b1f7	0.0716285
72	0xbbb880c4	-0.0056305844
73	0x3c6d03af	0.01446621
74	0x3d7148fb	0.05890749
75	0x3d7d027f	0.06176996
76	0x3dbd34e9	0.092386074
77	0xbcde3b07	-0.027127756
78	0x3eb93e8b	0.3618053
79	0x3e1302e8	0.14356577
80	0x3f142ec8	0.5788388
81	0x3de965e8	0.1139639
82	0x3e481874	0.19540578
83	0xbe086fa0	-0.13323832
84	0x3ed7d46e	0.42154258
85	0x3e76abe4	0.24089009
86	0x3e4fb752	0.20284775
87	0x3e3fd9d7	0.18735443
88	0x3e0ac54e	0.13551828
89	0x3d7d1108	0.06178382
90	0x3e14b167	0.14520799
91	0x3e493dd0	0.19652486
92	0x3f0ce79d	0.55040914
93	0xbd655c4b	-0.05599622
94	0x3e64652c	0.22304219
95	0xbe49e9ab	-0.19718044
96	0x3dbbb0f6	0.09164612
97	0x3d7d0cb4	0.061779693
98	0x3ea66dfe	0.32505792
99	0x3dab1072	0.08352746
100	0x3e00ad79	0.12566175
101	0x3d0cc7dd	0.034370292
102	0x3e3afc6a	0.18260351
103	0x3e269425	0.1626745
104	0x3f1b4ea4	0.6066687
105	0x3d807f41	0.06274272
106	0x3dd2e4ce	0.10297547
107	0x3c031953	0.008001643
108	0xbe204711	-0.1565211
109	0x3d3d932b	0.04628293
110	0xbd8a57f8	-0.0675506
111	0xbe2f2ce7	-0.17106973
112	0xbdc07787	-0.09397798
113	0xbea218bb	-0.31659493
114	0xbd0aed06	-0.03391745
115	0x3ce6d920	0.028179705
116	0xbe2ada1c	-0.16684765
117	0xbe98f5a7	-0.29874918
118	0xbd98997a	-0.07451148
119	0xbd102489	-0.035191093
120	0x3e876ae2	0.26448733
121	0x3d8f95a1	0.07010961
122	0xbcd36b8e	-0.025808122
123	0x3df56414	0.11981979
124	0x3ef9f704	0.4882127
125	0xbe1239f8	-0.14279926
126	0xbea2201a	-0.31665117
127	0xbcca7951	-0.024716051
128	0x3ea93e40	0.33055305
129	0xbe741c09	-0.2383882
130	0x3e6f37de	0.23361155
131	0x3e8937e7	0.26800463
132	0x3ed86f5f	0.4227247
133	0xbef604e7	-0.48050615
134	0x3e50f301	0.20405199
135	0xbdf55777	-0.11979573
136	0x3e1c7e1f	0.15282486
137	0x3ebe2427	0.37136957
138	0x3e3e7a00	0.18601227
139	0xbd0554c9	-0.03255156
140	0x3dba00e3	0.090822004
141	0xbe939e73	-0.28831825
142	0x3d34b97c	0.044122204
143	0xbe2a8f61	-0.16656257
144	0x3e659f1e	0.2242398
145	0x3da93e14	0.082637936
146	0x3d21e157	0.03952154
147	0xbdb2d22a	-0.08731492
148	0x3e4f3d48	0.2023822
149	0xbe474109	-0.19458403
150	0x3dabe7e8	0.08393842
151	0x3e861157	0.26185104
152	0xbd046048	-0.032318383
153	0xbcaa6117	-0.02079825
154	0x3e298d92	0.16557911
155	0x3f1ef4ec	0.6209247
156	0x3eac4857	0.3364894
157	0xbda07e8a	-0.078366354
158	0xbe3ff41b	-0.18745463
159	0x3d39d8da	0.04537282
160	0x3c38368a	0.011243472
161	0x3dbfc147	0.093630366
162	0x3d404864	0.046944037
163	0x3dfe3d1b	0.12413999
164	0x3e283ed9	0.16430224
165	0x3f0d122d	0.5510586
166	0x3ef3369d	0.47502604
167	0x3d6ca5c1	0.057775263
168	0x3dc9569f	0.09830975
169	0xbd3eb828	-0.046562344
170	0xbeadbbbc	-0.33932292
171	0x3e95ecdb	0.2928227
172	0x3ebbd2f4	0.36684382
173	0x3d8d9796	0.06913678
174	0x3e2e9f5a	0.17052975
175	0xbdc7d874	-0.09758082
176	0xbd67ad70	-0.056561887
177	0xbc1fa1af	-0.009743138
178	0x3dd60cdc	0.104516715
179	0xbe41c510	-0.1892283
180	0xbe8f96b8	-0.28044677
181	0xbdce8441	-0.10083819
182	0xbdcec971	-0.10097016
183	0xbda36879	-0.07978911
184	0xbda8e0ac	-0.08245978
185	0xbd8ce379	-0.068793245
186	0xbccbeb20	-0.02489239
187	0xbc3f3845	-0.011671131
188	0xbdc16b3b	-0.09444281
189	0xbd73a593	-0.059484076
190	0xbe85a8da	-0.26105386
191	0x3ddc82e9	0.10767157
192	0xbe72fe6f	-0.23729871
193	0x3d68d61c	0.056844816
194	0x3d20c952	0.039254494
195	0xbb0d91a0	-0.0021601692
196	0xbd44c800	-0.048042297
197	0xbded670b	-0.115919195
198	0xbd496c46	-0.049175523
199	0x3ddadcd0	0.10686648
200	0xbdb582ea	-0.088628605
201	0xbd0c4c99	-0.034252737
202	0xbd90987d	-0.07060335
203	0xbe0f7f48	-0.14013398
204	0x3dfe33ed	0.12412248
205	0xbcc4f42e	-0.024042215
206	0x3cc27ab5	0.023740152
207	0xbe869677	-0.2628667
208	0x3cefbe33	0.029265499
209	0xbd758512	-0.05994136
210	0xbcd38468	-0.025819972
211	0xbc0c4359	-0.008560979
212	0x3dfef513	0.12449088
213	0xbe0a1fcd	-0.13488694
214	0xbd8b6193	-0.0680572
215	0x3d50eb80	0.05100584
216	0x3ec968ca	0.3933776
217	0x3e5e724e	0.21723291
218	0x3e033c35	0.12815936
219	0x3e289940	0.1646471
220	0x3d948d77	0.07253545
221	0x3e35709e	0.17718741
222	0x3d3a6629	0.045507584
223	0xbbb4f300	-0.005522132
224	0x3e3cd867	0.18441926
225	0x3e8dce48	0.27696443
226	0xbdb2b428	-0.08725768
227	0xbde6468c	-0.112439245
228	0xbbe77267	-0.0070631984
229	0x3e632816	0.2218326
230	0x3e2b1aff	0.16709517
231	0xbcc36c4e	-0.023855355
232	0x3e25d092	0.16192845
233	0x3e970c62	0.29501635
234	0x3e92f811	0.28704885
235	0x3d5f6b25	0.05454554
236	0x3d984c8d	0.07436476
237	0x3eae27c4	0.34014714
238	0x3e3af999	0.18259276
239	0x3db7d6fd	0.08976553
240	0x3e7823ca	0.24232402
241	0x3e15f9ea	0.14646116
242	0x3e75009f	0.23926018
243	0x3d277298	0.04088077
244	0xbe1c5808	-0.15267956
245	0x3edafcb5	0.42770925
246	0x3dc0145b	0.093788825
247	0x3ddd7947	0.108141474
248	0x3dc6b063	0.09701612
249	0x3e195dcc	0.14977187
250	0x3ea3a0df	0.31958672
251	0x3d134b2a	0.035960354
252	0xbe1a8abd	-0.15091987
253	0xbe0f2455	-0.13978703
254	0x3dcbb013	0.09945693
255	0x3eb9d6fb	0.3629683

lstm.weight_hh_l0 f4 [256, 64]
0	0xbe4113e6	-0.18855247
1	0xbd4fe7e7	-0.05075827
2	0xbe34a0ee	-0.17639515
3	0xbdfd8799	-0.12379379
4	0xbe266a77	-0.1625155
5	0xbd2c5d38	-0.042081088
6	0x393692eb	0.00017411604
7	0xbe466bdc	-0.19377083
8	0x3e2db4c5	0.1696349
9	0xbd81382a	-0.063095406
10	0x3da8be7c	0.08239457
11	0xbdde66d9	-0.108594604
12	0xbe19e69a	-0.15029374
13	0x3e40b720	0.18819857
14	0x3e5ff19b	0.21869509
15	0x3e34c4c4	0.17653185
16	0xbdd7eb53	-0.105429314
17	0x3d9bb15a	0.076021865
18	0x3b74657a	0.003729193
19	0xbd2aa59b	-0.04166184
20	0xbdfe632e	-0.12421261
21	0xbe163bcf	-0.14671253
22	0x3d81eb67	0.063437276
23	0xbe803270	-0.2503848
24	0xbd9ed520	-0.07755494
25	0x3e2ab806	0.16671762
26	0xbe28a67d	-0.1646976
27	0xbd72f2f8	-0.059313744
28	0xbe4341ae	-0.19068024
29	0xbd43a86e	-0.04776805
30	0xbc7460b8	-0.014915638
31	0xbd4b2240	-0.04959321
32	0x3def25a1	0.11677099
33	0x3d7a1564	0.061055556
34	0x3d72e724	0.059302464
35	0x3eb0c9ef	0.34529063
36	0xbd2b9f5c	-0.041900024
37	0xbc1031b9	-0.008800917
38	0x3d92f356	0.07175319
39	0x3d21b480	0.03947878
40	0xbcacf67c	-0.021113627
41	0x3de3d005	0.11123661
42	0x3c8b4075	0.016998509
43	0x3e2ac0a1	0.16675045
44	0x3d5793b0	0.05263108
45	0xbcd0e3c8	-0.02549924
46	0xbe05b6c9	-0.13058008
47	0x3d88bbbc	0.066764325
48	0x3cf53ac2	0.029935244
49	0xbbf5bff7	-0.0074996906
50	0x3c223455	0.009900172
51	0xbe2935e3	-0.16524462
52	0xbdd403bd	-0.103522755
53	0x3d8ed695	0.06974522
54	0xbdba735c	-0.09104034
55	0xbe40a291	-0.18812014
56	0xbde6a937	-0.11262744
57	0xbe09e010	-0.1346438
58	0x3d83c792	0.064345494
59	0xbdfaa826	-0.12239103
60	0x3e1202b3	0.14258842
61	0xbd824cf5	-0.06362335
62	0xbde96e22	-0.11397959
63	0x3d154d68	0.036450773
64	0x3d7017ec	0.058616564
65	0x3def4ef2	0.116849795
66	0xbe100f6f	-0.14068387
67	0xbc3e71f4	-0.011623848
68	0x3e0ecb1b	0.13944666
69	0xbe3e264a	-0.18569294
70	0x3d8cde5c	0.06878349
71	0xbbb83093	-0.005621025
72	0xbdc7cef1	-0.09756268
73	0xbdd8afdc	-0.105804175
74	0xbd16290c	-0.03666024
75	0x3e3e6b67	0.18595658
76	0xbda5cf03	-0.08096125
77	0x3d550892	0.052010126
78	0xbd5fe4a9	-0.054661427
79	0xbbd465e9	-0.006481875
80	0xbdbe78c0	-0.09300375
81	0x3dee10ec	0.11624321
82	0xbde84387	-0.11341005
83	0xbcc01c25	-0.02345092
84	0x3afc5fb1	0.0019254592
85	0xbc79255e	-0.015206663
86	0xbd87700b	-0.066131674
87	0xbdd5082f	-0.104019515
88	0x3e73c293	0.23804693
89	0x3e295fdf	0.16540478
90	0xbd94a795	-0.07258526
91	0x3e101e77	0.14074121
92	0xbd75e2ee	-0.06003087
93	0x3cb23709	0.021754758
94	0xbd5f62d1	-0.054537598
95	0x3c4f8ab6	0.012667349
96	0xbd0eba16	-0.034845434
97	0xbc73fab6	-0.014891317
98	0x3e190c54	0.14946109
99	0x3e23c01e	0.15991256
100	0xbe06828c	-0.13135737
101	0x3e192fbe	0.14959618
102	0x3e330d4b	0.1748554
103	0xbd275c98	-0.04085979
104	0xbe062012	-0.13098171
105	0xbdf9c61a	-0.12195988
106	0x3d2f23d4	0.042758778
107	0x3e1e9f3a	0.15490428
108	0xbe1ca433	-0.15297012
109	0x3dc90b26	0.098165795
110	0xbe08df64	-0.13366467
111	0x3e0723aa	0.13197199
112	0xbe361615	-0.17781861
113	0xbe3dc65a	-0.18532696
114	0x3e182c57	0.14860664
115	0xbd59d79e	-0.053184144
116	0xbe06cc49	-0.13163866
117	0x3cd4c3da	0.025972296
118	0xbd425923	-0.04744829
119	0xbe7f5d04	-0.24937826
120	0xbe78a4aa	-0.24281564
121	0xbe8733c7	-0.2640669
122	0xbd43df9a	-0.047820665
123	0xbdab1501	-0.083536156
124	0x3df620aa	0.12017949
125	0xbd8ae83e	-0.06782578
126	0xbe320098	-0.17383039
127	0x3c8fce11	0.017554315
128	0xbdcb3a08	-0.09923178
129	0xbcf317bb	-0.029674402
130	0x3e9e598d	0.30927697
131	0x3da9cd8b	0.08291157
132	0xbe3153b9	-0.17317094
133	0xbd10bb8d	-0.035335112
134	0xbdff0b27	-0.12453299
135	0xbe54cff1	-0.20782448
136	0x3da18317	0.078863315
137	0xbe72938e	-0.236891
138	0xbd3b7f66	-0.045775793
139	0xbcdffb7b	-0.027341595
140	0xbcf89f9d	-0.030349547
141	0xbe1a1a10	-0.15049005
142	0x3e875f9e	0.26440138
143	0xbd886963	-0.06660726
144	0x3e125cfd	0.14293285
145	0xbb4c82b3	-0.0031205832
146	0x3dcbde25	0.0995448
147	0xbda994a7	-0.08280306
148	0x3dd43d0d	0.10363207
149	0xbd37cabe	-0.044871084
150	0x3da6fad1	0.08153308
151	0x3ca85327	0.020547463
152	0xbe832682	-0.25615317
153	0x3d155130	0.03645438
154	0x3ddeae8a	0.108731344
155	0xbe0b2cef	-0.1359136
156	0x3df5ac72	0.11995782
157	0xbe83131a	-0.2560051
158	0x3dcd7f58	0.100340545
159	0x3e818fe6	0.25305098
160	0xbdab92cd	-0.083776094
161	0x3d9af6b9	0.0756659
162	0xbe7d7b1e	-0.24753997
163	0x3e7dae85	0.24773605
164	0x3e149add	0.145122
165	0xbd9818dd	-0.07426617
166	0xbe6aa468	-0.22914279
167	0x3e02aaab	0.12760417
168	0x3e1a6935	0.15079196
169	0x3dd86705	0.105665244
170	0x3d253c12	0.04034049
171	0xbce3a62f	-0.027789203
172	0x3e1ed554	0.15511066
173	0x3dafd5e5	0.08585719
174	0x3d87d25d	0.066319205
175	0xbcab79ff	-0.020932196
176	0x3e922768	0.2854569
177	0xbe778b31	-0.24174191
178	0xbe712743	-0.23550133
179	0x3da201d6	0.079105064
180	0xbe714637	-0.23561941
181	0x3d1e77d1	0.038688485
182	0x3d987802	0.07444765
183	0x3ba48114	0.00502027
184	0x3da42dbb	0.08016535
185	0x3e412343	0.18861108
186	0xbe80faa2	-0.25191218
187	0x3d49962f	0.04921549
188	0xbb3842c8	-0.0028115977
189	0xbe4996da	-0.19686452
190	0xbdccee54	-0.10006395
191	0xbed3b5ea	-0.41349727
192	0xbd92f57b	-0.07175728
193	0x3e1d6f0d	0.15374394
194	0x3dc34622	0.09534861
195	0xbe386724	-0.18008095
196	0xbdecbc63	-0.115593694
197	0xbd1308c0	-0.035897017
198	0xbdf7f853	-0.12107911
199	0x3dccca46	0.09999518
200	0xbcbe877a	-0.02325796
201	0x3d3d9fd0	0.046294987
202	0xbde55790	-0.11198342
203	0xba912169	-0.0011072579
204	0xbe10e8ca	-0.14151302
205	0x3dab0258	0.083500564
206	0xbd8e83f8	-0.06958765
207	0x3e4206ec	0.18947953
208	0x3d9e636a	0.077338055
209	0xbd5ca095	-0.05386408
210	0xbcbc6921	-0.022999348
211	0xbe562156	-0.20911154
212	0xbe0c432e	-0.13697502
213	0xbdc19403	-0.09452059
214	0x3d9565c4	0.07294801
215	0x3b7e46b3	0.0038799464
216	0xbd9adcfb	-0.0756168
217	0x3d530d14	0.051526144
218	0xbd0d1cc3	-0.034451257
219	0xbd4edef8	-0.05050561
220	0xbd50bc08	-0.05096057
221	0x3d2a4a89	0.04157499
222	0xbdf2f22a	-0.118625954
223	0x3b34e1e5	0.0027600464
224	0x3de53d4c	0.11193332
225	0xbdbaa53b	-0.091135465
226	0x3cbbb185	0.022911796
227	0x3d826c60	0.06368327
228	0x3dc5f64c	0.09666118
229	0x3cc912de	0.02454513
230	0x3e5dee9e	0.21673056
231	0x3e052bb4	0.13004953
232	0x3cb803a4	0.022462673
233	0xbd610ca3	-0.054943692
234	0x3dbc24f6	0.09186737
235	0xbda9aeaf	-0.082852714
236	0x3d842797	0.06452864
237	0xbda73119	-0.081636615
238	0xbd8ffa6a	-0.070301846
239	0x3e2dec74	0.16984731
240	0xbbf86ac1	-0.0075810854
241	0xbc688d32	-0.01419382
242	0xbdb0124b	-0.08597239
243	0xbe53003e	-0.20605561
244	0xbdacde27	-0.0844081
245	0xbc17ca21	-0.0092645
246	0xbd9b448f	-0.07581436
247	0x3b9aa29a	0.0047190906
248	0xbe4a840d	-0.19776936
249	0xbc3fa9d7	-0.011698208
250	0x3dc8d6ac	0.098065704
251	0xbcac665b	-0.0210449
252	0x3da7ee20	0.081997156
253	0xbd0d9af6	-0.03457161
254	0xbb98aa91	-0.004659005
255	0x3e9996db	0.29997906

lstm.bias_ih_l0 f4 [256]
0	0xbe16271e	-0.1466336
1	0x3d073b89	0.03301576
2	0x3e910cfc	0.2833022
3	0xbd929f43	-0.07159283
4	0xbd6cea1f	-0.057840463
5	0x3e15ba6e	0.14621899
6	0x3d88991e	0.0666983
7	0x3e4f5081	0.20245554
8	0xbd89ab52	-0.0672213
9	0x3b21852a	0.0024646022
10	0x3cc3c440	0.02389729
11	0xbc8338e4	-0.016018339
12	0xbe212a4c	-0.15738791
13	0x3d88742b	0.06662782
14	0xbd0a057d	-0.03369664
15	0x3b1503d5	0.002273788
16	0x3e694f5b	0.22784178
17	0xbda83665	-0.082135
18	0x3d8e225d	0.06940148
19	0xbce857df	-0.028362213
20	0xbe1a6013	-0.15075712
21	0xbdcaad25	-0.09896306
22	0xbe24fd5d	-0.16112275
23	0x3bca1620	0.0061671883
24	0x3ddc7cbf	0.10765981
25	0xbdccb259	-0.099949546
26	0x3e118ccb	0.14213865
27	0xbe0c59ae	-0.13706085
28	0xbc175b5d	-0.009238091
29	0xbd91399f	-0.070910685
30	0xbe2f4be2	-0.17118791
31	0xbcf99573	-0.03046677
32	0xbd9629d7	-0.07332199
33	0xbe2c1c01	-0.16807558
34	0x3d8387cb	0.06422385
35	0xbd9ad185	-0.07559494
36	0x3d9183d0	0.07105219
37	0x3cb5565e	0.02213591
38	0xbd7c9a03	-0.061670315
39	0x3dbc9bed	0.09209428
40	0x3da92ea7	0.08260851
41	0xbccac571	-0.02475235
42	0xbdc11164	-0.09427145
43	0x3e1ab1c0	0.15106869
44	0x3cbd2b9e	0.023092087
45	0xbdc66b08	-0.09688383
46	0x3e47d451	0.19514586
47	0x3cfec3ab	0.031099161
48	0x3d9a5cd9	0.075372405
49	0x3dca3e37	0.09875148
50	0xbdde7817	-0.10862749
51	0x3d60a71a	0.05484686
52	0x3d89c97d	0.06727884
53	0x3cb9d88a	0.022686262
54	0x3e4eae02	0.20183566
55	0x3e7e1082	0.24810985
56	0x3d109eaf	0.035307582
57	0x3e078d1e	0.13237426
58	0x3cbb15e6	0.02283759
59	0x3d48defe	0.049040787
60	0x3cbd8b90	0.023137838
61	0xbd4f4f6e	-0.05061286
62	0xbc95a999	-0.018269347
63	0xbbe4a0ef	-0.0069771926
64	0x3e0e3e2b	0.13890903
65	0xbdb939e8	-0.09044248
66	0xbe318053	-0.17334108
67	0x3dec237e	0.11530207
68	0xbe7f8b22	-0.24955419
69	0xbaab8285	-0.0013085162
70	0xbe56e726	-0.20986614
71	0xbbbaf646	-0.0057056276
72	0xbd1d2a90	-0.03837067
73	0x3e008627	0.12551175
74	0x3c1a711c	0.009426381
75	0xbd552642	-0.05203844
76	0xbde58d84	-0.112086326
77	0xbd9f4d6f	-0.07778441
78	0xbcf2763b	-0.029597392
79	0xbda5895d	-0.080828406
80	0xbe274fee	-0.16339085
81	0xbd3e6e1f	-0.04649174
82	0x3c9917e1	0.018688144
83	0xbe824630	-0.25444174
84	0x3dc14f92	0.09439005
85	0xbe4538fa	-0.19260016
86	0xbe453096	-0.19256815
87	0xbd4897bf	-0.04897284
88	0xbde9aa21	-0.11409403
89	0xbd487fb9	-0.04894993
90	0xbd846397	-0.06464308
91	0x3ca018c0	0.019543052
92	0xbe71702e	-0.2357795
93	0xbe7a9016	-0.24469027
94	0xbd552c1c	-0.05204402
95	0x3d393a34	0.045221522
96	0xbdf30d2d	-0.118677475
97	0xbccc2219	-0.024918603
98	0x3e4a9f47	0.19787322
99	0xbdb2e363	-0.08734777
100	0x3d2a1171	0.04152054
101	0xbe5851a8	-0.211249
102	0x3d8c707e	0.06857394
103	0xbe3acdd6	-0.18242583
104	0x3d8fefe1	0.07028175
105	0xbe2ff271	-0.17182328
106	0xbdf38ee3	-0.11892488
107	0xbe0185c3	-0.12648682
108	0xbd8c83f7	-0.06861108
109	0xbe280606	-0.16408548
110	0xbe832b1a	-0.2561882
111	0xbd158723	-0.03650583
112	0xbdbb5732	-0.091474906
113	0xbd16a468	-0.036777884
114	0xbbff2133	-0.00778594
115	0x3e072ab9	0.13199891
116	0x3e05bd10	0.13060403
117	0xbe3b788e	-0.18307707
118	0xbe15baf4	-0.14622098
119	0xbde7b59e	-0.113139376
120	0xbb136d2a	-0.0022495487
121	0xbe075db0	-0.13219333
122	0xbe630795	-0.22170861
123	0xbe0c32a1	-0.13691188
124	0xbdbe44bc	-0.09290454
125	0xbe8a2883	-0.26984033
126	0xbe3b05be	-0.18263909
127	0x3c62dbdc	0.013846364
128	0x3d3e8db7	0.04652187
129	0x3e005ece	0.12536165
130	0xbd7fec4f	-0.06248122
131	0x3c73d4a7	0.014882243
132	0x3debb53a	0.115091756
133	0xbb7e6043	-0.00388147
134	0x3d1d5ff1	0.038421575
135	0xbe556558	-0.20839441
136	0x3da356e7	0.0797556
137	0xbe52a9de	-0.20572612
138	0xbd5d378a	-0.054008044
139	0xbc6984b8	-0.014252834
140	0xba01c0a8	-0.00049496675
141	0x3e47468f	0.1946051
142	0x3df81f49	0.12115342
143	0x3e02e6b6	0.12783322
144	0xbe0b9020	-0.13629198
145	0x3d0ad5c3	0.033895265
146	0xbd50a375	-0.050937135
147	0xbe0358e7	-0.12826882
148	0xbe2e83fd	-0.17042537
149	0xbda5281b	-0.0806429
150	0x3c200d39	0.0097687775
151	0xbd16c280	-0.036806583
152	0x3d112337	0.035433974
153	0xbc53faad	-0.012938184
154	0xbd34104b	-0.04396085
155	0x3e142bf1	0.14469887
156	0xbd6e78e6	-0.058220766
157	0xbcee654c	-0.029101036
158	0xbc8f4452	-0.017488632
159	0x3db3a447	0.08771568
160	0x3d8d764e	0.069073305
161	0xbd14603b	-0.036224585
162	0xbe38cd66	-0.18047103
163	0x3e1ffcdf	0.15623806
164	0x3d1993c7	0.037494447
165	0x3e1b83f3	0.15187053
166	0x3e39ace1	0.18132354
167	0xbd6af733	-0.057364654
168	0x3df7f4b4	0.1210722
169	0x3d2c3510	0.04204279
170	0xbdcfab67	-0.10140114
171	0xbdbb7828	-0.09153777
172	0xbd38102d	-0.0449373
173	0xbd04f883	-0.03246356
174	0xbe1836f9	-0.1486472
175	0x3dc890d3	0.09793248
176	0xbd765588	-0.060140163
177	0x3c9a27d6	0.018817823
178	0x3dceede2	0.10103966
179	0xbe0a43eb	-0.13502471
180	0xbd423494	-0.047413424
181	0xbd282351	-0.041049305
182	0xbe074074	-0.1320818
183	0xbd4ddf4c	-0.05026178
184	0xbe0cdea1	-0.13756801
185	0xbe2d5171	-0.16925599
186	0x3b8121ba	0.003940788
187	0xbe20eb30	-0.15714717
188	0x3d721608	0.059103042
189	0x3bbed89d	0.005824162
190	0xbd467989	-0.04845575
191	0xbe42cadd	-0.19022699
192	0xbe168565	-0.14699323
193	0xbde37d13	-0.111078404
194	0x3e5ea5ea	0.21742979
195	0xbd2ae2eb	-0.041720312
196	0xbc81ae8b	-0.015830299
197	0x3e04ee45	0.12981518
198	0xbe2ed54e	-0.17073557
199	0x3e634c84	0.22197157
200	0xbe8a1e6c	-0.26976335
201	0xbd8ac399	-0.067755885
202	0xbe5d0d31	-0.21587063
203	0xbdae34a1	-0.08506132
204	0xbd08120b	-0.033220332
205	0x3d775267	0.06038132
206	0x3da9eb7b	0.082968675
207	0xbbe41ff6	-0.006961818
208	0xbca1bbc5	-0.019742856
209	0xbdffb5b0	-0.12485826
210	0xbdee356e	-0.11631285
211	0xbd8c9381	-0.06864072
212	0xbe10415b	-0.14087431
213	0xbdde9e15	-0.108699955
214	0x3ca15805	0.019695291
215	0x3c2ea143	0.010658565
216	0xbdf2e57e	-0.118601784
217	0x3d4fb101	0.050705913
218	0x3daca3f9	0.08429713
219	0xbe1edad7	-0.15513168
220	0xbd845a5f	-0.064625494
221	0xbe13b658	-0.14425027
222	0xbd906af2	-0.07051648
223	0xbe53759c	-0.20650333
224	0xbd426c1e	-0.04746639
225	0xbe68bd39	-0.22728433
226	0x3cb68752	0.022281323
227	0x3e55b16f	0.20868467
228	0x3e043146	0.12909421
229	0x3d35c774	0.044379666
230	0xbdda6e1e	-0.106655344
231	0x3d74a076	0.05972334
232	0xbe170dc1	-0.1475134
233	0xbda17e14	-0.078853756
234	0xbd48c045	-0.049011488
235	0xbcd7ff4c	-0.026366852
236	0xbd43c2d6	-0.047793232
237	0xbe5bb411	-0.21455409
238	0x3d6c3af9	0.05767343
239	0xbe054636	-0.13015065
240	0xbdc0530c	-0.0939084
241	0x3dc76ad8	0.09737176
242	0xbdb91488	-0.09037119
243	0xbde992c0	-0.114049435
244	0x3cf08b85	0.029363403
245	0x3d1c51a0	0.03816378
246	0x3c576cf2	0.013148533
247	0x3e18dea0	0.14928675
248	0xbcaa9df3	-0.02082727
249	0xbe5fc20b	-0.21851365
250	0x3d82a1c8	0.063785136
251	0x3dacc1ae	0.08435379
252	0x3e09b95a	0.13449612
253	0x3d61c5f1	0.055120412
254	0xbc0aaa7f	-0.008463501
255	0x3d689671	0.056784097

lstm.bias_hh_l0 f4 [256]
0	0xbe1301b0	-0.14356112
1	0x3decbe56	0.11559741
2	0x3e0edd2e	0.13951561
3	0xbce58962	-0.02801961
4	0xbd602cb3	-0.05473013
5	0xbcd53b81	-0.02602935
6	0xbd16339a	-0.036670305
7	0x3d950ce5	0.0727785
8	0xbe105bf7	-0.14097582
9	0xbc9ebf34	-0.019378282
10	0xbd42a5bc	-0.047521338
11	0xbd387940	-0.045037508
12	0xbdf29e22	-0.11846568
13	0x3c0894fd	0.008336303
14	0x3d565a4f	0.05233222
15	0xbe618e48	-0.22026932
16	0x3e4030e5	0.18768652
17	0x3c8c99fd	0.017163271
18	0xbd4b7471	-0.049671594
19	0xbcfa024e	-0.030518677
20	0xbddffc47	-0.1093679
21	0xbe2c09a4	-0.16800553
22	0xbda061e0	-0.07831168
23	0xba9b1f3f	-0.0011834874
24	0xbc4adb7a	-0.012381429
25	0xbd5ccb92	-0.053905077
26	0xbdbc7951	-0.09202827
27	0xbdd8c731	-0.10584868
28	0x3d8905af	0.06690537
29	0xbe028c17	-0.12748753
30	0xbdbee648	-0.093212664
31	0xbe1adc1e	-0.1512303
32	0xbe4ff82e	-0.20309517
33	0xbd772f3a	-0.060347773
34	0x3dcda502	0.10041238
35	0xbc006801	-0.007837296
36	0x3e032025	0.12805231
37	0x3e0c91cc	0.13727492
38	0xbd1c488d	-0.038155127
39	0x3ddce4e1	0.10785843
40	0xbdb03af7	-0.08604997
41	0xbe00346b	-0.12519996
42	0xbe4fa494	-0.20277625
43	0x3e22a229	0.15882172
44	0xbcbc337a	-0.022973765
45	0xbe43a505	-0.19105919
46	0x3e34d904	0.1766091
47	0x3db76179	0.08954138
48	0x3c313148	0.010814972
49	0xbcb24ec1	-0.021766068
50	0xbddaa7b5	-0.10676519
51	0xbd6086af	-0.054815944
52	0x3e09c8fd	0.13455577
53	0xbd55a6cd	-0.052161027
54	0x3d3127bb	0.04325078
55	0x3c9b62df	0.018968044
56	0xbdf6e101	-0.12054635
57	0x3d29ca8c	0.04145293
58	0x3de961b2	0.11395587
59	0xbb08a443	-0.002084986
60	0x3e253510	0.16133523
61	0x3d5d4087	0.054016616
62	0xbcef9314	-0.029244937
63	0x3e54ea82	0.20792583
64	0x3dc79955	0.09746043
65	0xbe2ffd69	-0.17186512
66	0xbe8c336b	-0.2738298
67	0xbd239815	-0.03993996
68	0xbe79d692	-0.24398258
69	0x3d242037	0.040069785
70	0xbe859f9b	-0.26098332
71	0x3de89883	0.11357214
72	0xbe53eb26	-0.20695171
73	0x3e03b1df	0.12860821
74	0xbd8111b7	-0.06302207
75	0x3e2500c8	0.1611358
76	0xbca0897d	-0.01959681
77	0xbe04244e	-0.12904474
78	0xbd6e3818	-0.058158964
79	0x3ac6f0e4	0.0015177992
80	0xbc705fe1	-0.014671297
81	0x3e13029b	0.14356463
82	0xbc4e1716	-0.012578746
83	0xbcde2de7	-0.027121497
84	0xbd39a00a	-0.04531864
85	0xbc542056	-0.012947163
86	0xbd88ece2	-0.06685807
87	0xbe17d9aa	-0.14829126
88	0xbe43903f	-0.19097994
89	0x3cada69d	0.021197611
90	0xbba6c787	-0.0050897035
91	0xbe10e5b7	-0.1415013
92	0xbdd8ee77	-0.105923586
93	0xbd60a4e3	-0.05484475
94	0xbe22acb9	-0.15886201
95	0xbd32440c	-0.043521926
96	0xbdc77581	-0.09739209
97	0xbd1e1775	-0.03859659
98	0x3e84cb14	0.25936186
99	0xbd4d0536	-0.050053798
100	0xbd3bc6ef	-0.045844015
101	0xbe298c8f	-0.16557525
102	0xbd7dba7a	-0.061945416
103	0xbd8652cd	-0.06558762
104	0xbc81da96	-0.0158513
105	0xbd9b6339	-0.075872846
106	0xbe867c68	-0.2626679
107	0xbd9f5b7a	-0.0778112
108	0xbda2baef	-0.07945811
109	0xbe758300	-0.23975754
110	0xbe8797cd	-0.26483002
111	0xbd16b783	-0.036796104
112	0xbdda5bb4	-0.10662022
113	0x3d1e57aa	0.03865782
114	0xbe15affe	-0.14617917
115	0x3dde8629	0.10865433
116	0x3d35a3b0	0.044345558
117	0xbe30ae88	-0.17254078
118	0xbe38057e	-0.17970845
119	0xbde00cb8	-0.10939926
120	0xbe6dd28e	-0.23224851
121	0xbdd19414	-0.10233322
122	0xbd8d6e35	-0.06905786
123	0xbdfec22f	-0.12439381
124	0xbda41cd3	-0.0801331
125	0xbe8a8a2b	-0.2705854
126	0xbdf37fd9	-0.118896194
127	0x3e37ed82	0.17961696
128	0xbe1d85a0	-0.15383005
129	0xbd687cdc	-0.0567597
130	0xbe2cbadc	-0.16868156
131	0x3bd05ad7	0.006358485
132	0xbdd9adb8	-0.10628837
133	0x3cd82fcd	0.02638998
134	0x3dbd000a	0.09228523
135	0xbb74b616	-0.0037339977
136	0x3c7dcad5	0.015490253
137	0xbd714e03	-0.05891229
138	0xbdf18f69	-0.117949314
139	0x3d906b2a	0.0705169
140	0x39b13283	0.00033797705
141	0x39e322a6	0.0004332263
142	0x3d77e1a5	0.060517926
143	0xbde5d865	-0.112229146
144	0x3cdec40a	0.027193088
145	0xbe048e09	-0.12944807
146	0x3d1de559	0.0385488
147	0xbdb4e868	-0.088333905
148	0xbd34da42	-0.04415346
149	0x3d1121ee	0.03543275
150	0x3dded6e4	0.10880831
151	0x3b0fa6c8	0.0021919478
152	0x3c928b9f	0.017888842
153	0x3e4c6fc5	0.19964512
154	0x3ba56179	0.00504702
155	0x3d9d0bb8	0.07668251
156	0xbaae54ac	-0.0013300381
157	0x3dda4c16	0.106590435
158	0xbd90b4a3	-0.07065704
159	0x3d12e337	0.03586122
160	0x3d2c3fd4	0.04205306
161	0x3e17f49f	0.1483941
162	0xbd726d5e	-0.059186332
163	0xbc65fe29	-0.014037647
164	0x3cb27201	0.021782877
165	0x3d8f40d2	0.06994785
166	0x3dc84792	0.09779276
167	0x3d39cc9d	0.04536115
168	0x3cce87f9	0.025211321
169	0xbda822c0	-0.08209753
170	0x3dbb5745	0.09147505
171	0x3d61db8b	0.055141013
172	0x3d098457	0.033573475
173	0x3a5af5ff	0.00083526963
174	0xbe22bb63	-0.15891795
175	0x3e3d267f	0.18471716
176	0xbda731b7	-0.08163779
177	0xbd8f9c94	-0.07012287
178	0x3d720f95	0.05909689
179	0xbd7cc13d	-0.061707724
180	0xbe3122fc	-0.17298502
181	0x3d305ac3	0.043055307
182	0x3ca293d1	0.019845875
183	0xbd5d3ee4	-0.054015055
184	0xbde1897a	-0.1101255
185	0xbccf81f6	-0.025330525
186	0x3da8794d	0.08226261
187	0xbd8bf368	-0.068335354
188	0x3e281c1e	0.16416976
189	0xbd444718	-0.047919363
190	0xbe20d437	-0.15705954
191	0x3c7e5c41	0.015524925
192	0xbe18dc53	-0.14927797
193	0xbc11e9ff	-0.008905887
194	0x3e576d4c	0.21037787
195	0x3e0b1528	0.13582289
196	0xbc9f378b	-0.019435665
197	0xbb8fe991	-0.004391857
198	0x3d2bb271	0.04191822
199	0x3e051b82	0.12998775
200	0xbe89be3c	-0.2690295
201	0xbad10eac	-0.0015949807
202	0xbe1ee899	-0.15518416
203	0xbb156384	-0.0022794912
204	0xbe71d786	-0.23617372
205	0x3d500492	0.05078561
206	0x3a9fa479	0.0012179754
207	0xbb7f08ab	-0.0038915079
208	0x3d4e4dfe	0.050367348
209	0xbe1f4b7c	-0.15556139
210	0xbcfd269f	-0.030902205
211	0xbd8929c1	-0.06697417
212	0xbdc129c4	-0.09431794
213	0xbe1bf4ba	-0.15230075
214	0xbe58055f	-0.21095799
215	0x3d04b909	0.032403026
216	0xbdfa5ae6	-0.12224369
217	0xbc0a9906	-0.008459335
218	0x3e6b58dd	0.22983117
219	0xbd8f7ccf	-0.07006227
220	0xbdca858f	-0.098887555
221	0xbe63eced	-0.22258349
222	0xbe5bf8e4	-0.21481663
223	0xbe1a1b62	-0.15049508
224	0x3d56bc92	0.05242593
225	0xbe349a5f	-0.17637013
226	0xbdfdb02d	-0.123871185
227	0x3e5cee6d	0.21575327
228	0x3e1cc0a6	0.15307865
229	0x3dc63988	0.09678942
230	0x3df51373	0.119666
231	0x3cd2c23a	0.02572738
232	0xbcc65a94	-0.024213113
233	0xbe28b54b	-0.16475408
234	0xbe59ffae	-0.2128894
235	0x3d69b83c	0.057060465
236	0x3d209d1d	0.039212335
237	0xbe266c1c	-0.16252178
238	0x3d8a54c7	0.06754451
239	0xbda1f355	-0.0790774
240	0xbd701519	-0.05861387
241	0x3b63501e	0.0034685205
242	0xbd550eee	-0.05201619
243	0xbd5ec940	-0.054391146
244	0x3c62cf17	0.013843319
245	0xbd3adc60	-0.045620322
246	0x3d94d380	0.07266903
247	0x3e2278d9	0.15866412
248	0xbd84ee8a	-0.0649081
249	0xbe74fb87	-0.23924075
250	0x3d136d7d	0.035993088
251	0xbdc82777	-0.09773152
252	0xbd9056e4	-0.07047823
253	0xbda1145e	-0.07865213
254	0x3dfda220	0.123844385
255	0x3e27d56d	0.16390009

classifier.0.weight f4 [32, 64]
0	0xbd55ab51	-0.052165333
1	0x3e326417	0.17420994
2	0xbeb2efdb	-0.3494862
3	0x3e5eac14	0.2174533
4	0x3da43514	0.08017936
5	0xbe05a4be	-0.13051125
6	0x3e454d37	0.19267736
7	0xbe375721	-0.17904331
8	0x3e41b958	0.1891836
9	0xbe7efd3c	-0.24901289
10	0x3d19dad5	0.03756221
11	0x3e40bed0	0.18822789
12	0xbe47879d	-0.19485326
13	0x3ea41d11	0.32053426
14	0xbe037e49	-0.12841143
15	0x3d4947e9	0.049140844
16	0xbec5d737	-0.38640758
17	0xbdcfcbde	-0.101463065
18	0xbe414528	-0.18874037
19	0x3b851f99	0.0040626046
20	0x3e70aacb	0.23502652
21	0x3e3f83da	0.18702641
22	0xbc61c7c5	-0.013780539
23	0xbdc1bcc2	-0.09459831
24	0x3d867aa8	0.065663636
25	0x3eb62bf2	0.35580403
26	0xbee712bc	-0.4513148
27	0x3e63a601	0.22231294
28	0x3e9bd3a8	0.30434918
29	0x3e81a414	0.25320494
30	0xbe0a59ac	-0.1351077
31	0xbe42fe89	-0.1904241
32	0x3e642619	0.22280158
33	0x3ddafad1	0.10692371
34	0xbb66f6e0	-0.0035242364
35	0x3e2ecc17	0.17070042
36	0xbe83b596	-0.25724477
37	0x3e3a63bb	0.18202107
38	0xbe837997	-0.25678703
39	0xbe6abd78	-0.22923839
40	0x3d6ecead	0.05830257
41	0xbd907353	-0.07053246
42	0x3dffc78f	0.12489235
43	0x3eaa0974	0.33210337
44	0xbe17b49e	-0.14814994
45	0xbd178f67	-0.037001994
46	0xbe8285e2	-0.2549277
47	0x3ea434e3	0.320716
48	0xbc729cea	-0.014807919
49	0xbe839ece	-0.25707096
50	0x3d2ea0df	0.042633887
51	0x3e865273	0.2623478
52	0xbea7f27d	-0.3280219
53	0x3e726792	0.23672321
54	0xbe8d0feb	-0.27551207
55	0xbe5285ab	-0.20558803
56	0xbe6a4cb5	-0.22880824
57	0x3d0842b2	0.03326673
58	0x3e949292	0.29018074
59	0xbe06e4c3	-0.13173203
60	0x3e531997	0.2061523
61	0x3d8ae922	0.06782748
62	0xbde58dcc	-0.11208686
63	0xbea2955c	-0.31754577
64	0xbd93e027	-0.07220488
65	0xbda688a4	-0.08131531
66	0x3e42a829	0.1900946
67	0xbe4b67ef	-0.19863866
68	0xbe083014	-0.1329959
69	0x3e3058da	0.17221394
70	0xbe16d5cd	-0.14729996
71	0x3e4217e0	0.1895442
72	0x3dd962ec	0.10614571
73	0x3dd47428	0.103737175
74	0xbd5afe59	-0.05346522
75	0xbe6e549e	-0.23274466
76	0xbe26e9cc	-0.16300124
77	0xbe067c90	-0.13133454
78	0x3dfe22e8	0.124090016
79	0x3dc86e71	0.0978669
80	0x3e296a82	0.16544536
81	0xbd8aa802	-0.06770326
82	0x3e67ee2a	0.22649446
83	0xbd999bb0	-0.07500398
84	0x3d0e3d8b	0.03472666
85	0xbd70b28b	-0.05876402
86	0x3d8ae756	0.06782405
87	0x3dd806e1	0.10548187
88	0xbe674a06	-0.22586831
89	0xbe630d2c	-0.22172993
90	0x3d544256	0.051821075
91	0xbd4022e2	-0.046908267
92	0xbdb88c4c	-0.090111345
93	0xbe3d4d8e	-0.18486616
94	0x3cddc952	0.027073536
95	0x3d3fdc2e	0.04684084
96	0xbc03c2ea	-0.008042077
97	0xbdfcb841	-0.12339831
98	0xbe0515ee	-0.12996647
99	0xbe91cac2	-0.28475004
100	0x3e02c2d4	0.12769634
101	0xbe95f9fa	-0.2929228
102	0xbd36dc38	-0.04464361
103	0x3e28975e	0.16463992
104	0x3e1593a7	0.14607106
105	0x3e24c69c	0.16091388
106	0xbd58cfe8	-0.05293265
107	0xbdc8f3b9	-0.098121114
108	0x3e225538	0.15852821
109	0x3db4c21d	0.08826087
110	0x3e52bdea	0.20580259
111	0xbe0062d6	-0.12537703
112	0x3db807c4	0.08985856
113	0xbd1d4a7c	-0.038401112
114	0xbe2c2d44	-0.16814142
115	0xbbc0ce42	-0.005883963
116	0x3e27d718	0.16390646
117	0xbe2733ff	-0.16328429
118	0x3dfa44fc	0.12220189
119	0x3d502974	0.050820783
120	0x3e72b0e0	0.23700285
121	0x3de04055	0.1094977
122	0xbe941ad5	-0.2892672
123	0x3e370510	0.17873025
124	0xbdda3213	-0.10654082
125	0xbe6a6e66	-0.22893676
126	0x3dced7d6	0.10099761
127	0x3e3f9ffc	0.18713373
128	0x3dd55fc1	0.10418654
129	0x3ddde683	0.10834982
130	0xbe4496cf	-0.19198154
131	0xbbdad729	-0.006678481
132	0x3d8d8a9e	0.06911205
133	0xbe2fc3c3	-0.17164521
134	0x3df4f3c5	0.11960558
135	0xbe8ca4de	-0.27469534
136	0xbd08606f	-0.03329509
137	0xbea39e4c	-0.31956708
138	0x3c8c6abb	0.017140737
139	0x3ca5b56d	0.020228112
140	0xbcfc5ad3	-0.030805027
141	0x3e92bcb2	0.28659588
142	0xbdf30b63	-0.11867406
143	0xbdc693fb	-0.09696194
144	0xbea94014	-0.330567
145	0xbdfa7054	-0.12228456
146	0xbe41c968	-0.18924487
147	0x3d63381b	0.05547343
148	0x3e832279	0.25612238
149	0x3e4b3f96	0.19848475
150	0xbe3c8783	-0.18411069
151	0xbccb2250	-0.024796635
152	0x3e137b14	0.1440242
153	0x3edaf117	0.42762062
154	0xbea83367	-0.32851717
155	0x3e31c745	0.17361172
156	0x3e36149e	0.17781302
157	0x3ddd8406	0.10816197
158	0xbdd10ffb	-0.10208126
159	0xbd82021d	-0.06348059
160	0x3e0c2213	0.13684873
161	0x3e2b3d27	0.16722547
162	0xbd6facc1	-0.05851436
163	0x3e295901	0.16537859
164	0xbe6b595d	-0.22983308
165	0x3e6dac92	0.23210362
166	0xbe950cef	-0.2911143
167	0xbe0401cf	-0.12891315
168	0x3dc93a1d	0.09825537
169	0xbb15937b	-0.00228235
170	0x3e372829	0.17886414
171	0x3e0f036b	0.13966148
172	0xbe34b0d7	-0.17645584
173	0x3d1a2cdd	0.03764044
174	0xbe6a79b5	-0.2289799
175	0x3e950d4c	0.29111707
176	0xbd018cd9	-0.031628463
177	0xbdaaa4f4	-0.083322436
178	0xbe056e10	-0.13030267
179	0x3e37a25b	0.17933027
180	0xbe9e9090	-0.30969667
181	0x3e4466de	0.19179866
182	0xbe5a8a5c	-0.21341842
183	0xbe1f0632	-0.15529707
184	0xbe6e684a	-0.2328197
185	0xbdd5d6ac	-0.10441336
186	0x3e2f4bc4	0.17118746
187	0xbe37fe52	-0.17968109
188	0x3e8c716a	0.27430278
189	0x3e0b9968	0.13632739
190	0xbe0610e6	-0.13092384
191	0xbe251701	-0.16122057
192	0xbe21ae86	-0.15789232
193	0xbdedfed8	-0.11620873
194	0x3e1fdb38	0.15610969
195	0xbe286d1b	-0.1644787
196	0xbe48b39f	-0.1959977
197	0x3e27e461	0.16395713
198	0xbe8117b4	-0.25213397
199	0x3e391fc3	0.18078522
200	0x3d86e719	0.06587047
201	0x3dc9ab9e	0.098471865
202	0xbdcec830	-0.100967765
203	0xbe6b2579	-0.22963513
204	0xbdc5a2e0	-0.096502066
205	0xbe4a943e	-0.19783112
206	0x3dfae245	0.12250189
207	0xbced47c4	-0.028964885
208	0x3e469ed6	0.19396529
209	0x39e7f47d	0.0004424191
210	0x3da9b816	0.08287065
211	0xbe2566fa	-0.16152564
212	0xbd897c2e	-0.067131385
213	0xbde1b2c5	-0.11020426
214	0x3dd8dc87	0.10588937
215	0x3e00ed6e	0.12590572
216	0xbe419566	-0.18904647
217	0xbe2cbf49	-0.16869844
218	0x3ca9f742	0.020747785
219	0xbe5a6a8c	-0.21329707
220	0x3d2b90ed	0.04188626
221	0xbe2627ac	-0.16226071
222	0xbc2e4938	-0.010637574
223	0x3e3f7cfd	0.18700023
224	0xbdbb16fc	-0.09135243
225	0x3d755fa5	0.059905667
226	0xbe501771	-0.20321442
227	0xbe580a24	-0.21097618
228	0x3e966ca1	0.29379752
229	0xbe82c4df	-0.25540826
230	0x3baa6a9b	0.0052006966
231	0x3e4607cf	0.19338916
232	0x3dfc173c	0.12309119
233	0x3db2b68d	0.08726225
234	0x3cd3b631	0.025843712
235	0xbe31a1e5	-0.17346914
236	0x3cdaf369	0.026727395
237	0x3d56ae80	0.05241251
238	0x3e752f0c	0.23943728
239	0xbd640857	-0.055672016
240	0xbd154dfd	-0.03645133
241	0x3ae5dfbd	0.0017537993
242	0xbde2cfa9	-0.11074764
243	0xbe3492af	-0.1763408
244	0x3e53d298	0.20685804
245	0xbd5c51b3	-0.053788852
246	0x3de5f6c0	0.112287045
247	0x3da0d157	0.078524284
248	0x3dcf04ed	0.101083614
249	0x3e769d22	0.24083379
250	0xbe39d09a	-0.18145981
251	0x3e421d11	0.189564
252	0xbe0d4733	-0.13796692
253	0xbe09834f	-0.13428997
254	0x3e159aa3	0.1460977
255	0x3e10eeec	0.14153641

classifier.0.bias f4 [32]
0	0x3e94ac0c	0.2903751
1	0xbd1ac3b1	-0.037784282
2	0x3e8abe9f	0.27098557
3	0xbe0ee40f	-0.13954185
4	0x3e1bc497	0.15211712
5	0x3d1028b6	0.035195075
6	0xbd9a6733	-0.07539215
7	0xbc80de71	-0.015731068
8	0xbd74b176	-0.059739552
9	0x3e177a75	0.14792807
10	0x3e8a7d5b	0.27048764
11	0x3e5cff57	0.2158178
12	0xbe46bd90	-0.1940825
13	0x3c903485	0.017603168
14	0xbb54ed26	-0.0032489984
15	0x3d5edb91	0.054408614
16	0x3c3a1287	0.011356956
17	0x3c4b4fe4	0.012409184
18	0xbe014ed2	-0.12627724
19	0x3c5a9f1d	0.0133436
20	0x3d98a82a	0.0745395
21	0xbe3ce0e3	-0.18445162
22	0xbe1a5d8e	-0.15074751
23	0xbca7a826	-0.020465922
24	0x3c9ce5f0	0.019152611
25	0x3e87bbd3	0.26510486
26	0x3cf63c7f	0.030058144
27	0xbb07a659	-0.0020698516
28	0xbd7ad398	-0.061236948
29	0x3e01d125	0.12677439
30	0x3df2eb08	0.11861235
31	0xbdd010c0	-0.10159445

classifier.2.weight f4 [2, 32]
0	0xbe83aae5	-0.2571632
1	0x3e02412a	0.1272017
2	0xbec91277	-0.392719
3	0x3de37cde	0.11107801
4	0xbecc470f	-0.39897963
5	0x3e175bf2	0.14781168
6	0x3e2cdd77	0.16881357
7	0xbe3f969e	-0.187098
8	0x3e84ec13	0.2596136
9	0xbe8d1ffa	-0.2756346
10	0xbe8d3b27	-0.27584192
11	0xbe6cce47	-0.23125564
12	0xbd5a4e18	-0.053297132
13	0xbe97abbc	-0.2962321
14	0x3e0cb74a	0.13741794
15	0x3ee9f0bf	0.45691487
16	0x3dfe3116	0.12411706
17	0xbdc7eb08	-0.097616255
18	0x3d8551de	0.065097556
19	0x3e392ade	0.18082759
20	0x3e589f1e	0.21154448
21	0xbdc529f6	-0.09627144
22	0xbe200fe3	-0.1563106
23	0x3e47bec1	0.1950636
24	0xbe28955a	-0.16463223
25	0xbe66dfa7	-0.22546254
26	0xbe4f98ff	-0.20273207
27	0x3d321830	0.0434801
28	0x3e4811fe	0.19538113
29	0xbeb1d393	-0.3473173
30	0xbec03b7d	-0.37545386
31	0xbcadfbae	-0.021238174
32	0x3e80d082	0.2515908
33	0x3d5ec003	0.054382335
34	0x3ecb5447	0.39712736
35	0xbe43fb75	-0.19138892
36	0x3e17c156	0.14819846
37	0xbea9e564	-0.33182824
38	0xbd749545	-0.059712667
39	0x3d878212	0.06616606
40	0xbde30107	-0.1108418
41	0x3e92fa04	0.28706372
42	0x3eadb7fe	0.33929437
43	0x3ecec139	0.40381792
44	0xbe347882	-0.17624095
45	0x3e274424	0.16334587
46	0xbdc751ee	-0.09732424
47	0xbec2ea6f	-0.38069484
48	0x3e0a0495	0.1347831
49	0x3e2242a0	0.15845728
50	0x3e0f776a	0.14010397
51	0x3d2f75d8	0.042836994
52	0xbdae6903	-0.08516123
53	0x3d8ca0d3	0.06866612
54	0x3ea6e84c	0.32599103
55	0xbdc8f120	-0.09811616
56	0x3dfaa836	0.12239115
57	0x3ecee705	0.4041063
58	0x3e8ba846	0.2727682
59	0xbcf65142	-0.030068044
60	0xbe7df756	-0.24801382
61	0x3eaa2734	0.33233035
62	0x3dbae246	0.091251895
63	0xbdfc4ece	-0.12319718

classifier.2.bias f4 [2]
0	0x3caac884	0.020847566
1	0x3e3e970f	0.18612312
