src/DARPA/pretrained/models/w10/resampled/phase_4.pth (torch, 194061 bytes, 8 tensors)

lstm.weight_ih_l0 f4 [256, 112]
000000 96 00 e9 3d 50 9d bd 3d 90 cb d4 bd 68 b5 b1 3c
       0.11377065 0.092585206 -0.10390389 0.021692947
000010 01 7f 1c 3d 91 03 7a bc 8d 62 df 3d 04 2f b5 3d
       0.038207058 -0.015259639 0.10907469 0.08846858
000020 d6 c5 cb 3d 08 e3 7a 3c 6e 39 c1 bd f9 52 2c 3e
       0.099498436 0.0153129175 -0.09434782 0.16828527
000030 0c 48 27 3c 2d c2 d9 bd 93 54 b7 3d c6 eb 0b be
       0.010210048 -0.10632739 0.08951678 -0.13664159
000040 1b d5 c2 3d c1 31 9d 3d 67 4a 17 be a3 37 a4 3d
       0.09513303 0.076755054 -0.14774476 0.08018424
000050 f3 f4 62 3e 85 4f 0f be 71 40 06 3e 4b 12 e1 3d
       0.22163753 -0.13995178 0.1311052 0.10989817
000060 99 f0 76 bd be 2e 26 3e 65 27 68 3e c3 45 0b be
       -0.060288046 0.16228768 0.22671278 -0.1360083
000070 fb ea cb bd 89 90 00 be 81 73 0d 3d cd d5 19 bc
       -0.09956928 -0.12555136 0.03453398 -0.009389353
000080 01 15 5d 3e 2b 35 99 bd dd 14 98 bc 45 6d 1b be
       0.21590044 -0.07480844 -0.018564636 -0.15178402
000090 f4 63 c5 3d 41 67 17 be 6e 38 4a 3d 71 42 35 3d
       0.09638205 -0.14785482 0.04937022 0.044252817
0000a0 50 79 af bc b1 3d d1 3d 2b 70 5f bd 69 fc 34 3e
       -0.021420151 0.10216845 -0.05455033 0.17674412
0000b0 f3 f8 b4 bc 18 7f a5 bd 1a 17 11 3c 07 51 1b bd
       -0.022091364 -0.08080882 0.0088556055 -0.03791907
0000c0 4d 5b 40 3d 8c 53 5b bd 64 3a a5 bd 0c ac 94 3d
       0.04696207 -0.053546473 -0.08067778 0.07259378
0000d0 cd a8 20 3d 92 88 9a 3e a6 6e 9c 3c f6 5f ff 3d
       0.03922348 0.3018232 0.01909573 0.12469475
0000e0 46 44 1c 3e 4e 94 9f 3b dc 69 f5 bc f4 f7 61 bc
       0.15260419 0.004869974 -0.029957704 -0.013792027
0000f0 85 28 24 3e 63 b9 61 bc bf d5 f0 3d fe e7 a9 bd
       0.16031082 -0.01377711 0.11759519 -0.08296202
000100 0f 70 d9 3d 2d 26 da 3c 5f d5 05 bd 74 fb 72 3d
       0.106170766 0.026629532 -0.03267419 0.059321836
000110 28 3f e5 3c 32 7e 47 be 7a e6 31 bd fd 53 cc bd
       0.027984217 -0.19481733 -0.04343269 -0.09976957
000120 17 57 37 3d ea ec 0c bd aa a3 c7 bd a7 bf af 3c
       0.04476079 -0.034405626 -0.09748013 0.021453692
000130 a4 c8 e3 bc e3 0f d6 3d 5f 95 89 3c fb 4e 33 bd
       -0.027805634 0.10452249 0.016794859 -0.043776494
000140 18 1a ed bb c8 3b 74 bd 69 90 78 3d 7d 81 ce 3d
       -0.0072357766 -0.059627324 0.060684595 0.10083292
000150 6f c7 c4 3d bc de 8b bd e6 65 fe 3c d1 3d 45 3c
       0.096083514 -0.068295926 0.031054448 0.012038664
000160 de 4f 25 3e b0 00 85 bc e2 13 b9 bd b6 b4 b4 3b
       0.16143748 -0.01623568 -0.090369955 0.0055147065
000170 ed 6c 95 3e e6 ff 59 be 65 97 12 3e 7e 57 31 be
       0.29184666 -0.21289024 0.14315565 -0.17318532
000180 a1 03 21 bc fd ed 3b 3b cc 70 ae bd 1f d0 02 bd
       -0.009827525 0.0028675788 -0.08517608 -0.03193676
000190 d8 50 bd 3d ba 2e be bc c8 2e ce bc b5 d5 1f bc
       0.09243935 -0.02321564 -0.025168791 -0.009755542
0001a0 db 3d f2 3c 01 e0 b3 bd d4 1d db bc 79 63 e6 3d
       0.02957051 -0.0878296 -0.026747622 0.11249442
0001b0 6a 91 03 3d 4b 74 b3 bc 75 3c f7 3b 38 ae c2 3d
       0.0321211 -0.021906039 0.007545049 0.09505886
0001c0 14 98 b9 bc 2b 8c 19 be 4a 7a 37 be 80 55 1d 3c
       -0.022655524 -0.14994876 -0.17917743 0.009602904
0001d0 3b c5 a7 3d 82 da 11 bd b4 3c fd bd 32 f5 0d be
       0.081919156 -0.035608776 -0.12365094 -0.13863066
0001e0 c8 22 56 bb 1a 04 ee 3c a2 36 2a 3d f0 0b 48 3e
       -0.003267454 0.02905469 0.04155601 0.19535804
0001f0 88 4a b8 3d 7a 7b a6 3d a0 3e 8a bc d8 62 16 3e
       0.08998591 0.0812902 -0.016875565 0.14686143
000200 63 c9 c5 3d 81 98 a9 be 2c 6f 0f 3e b4 ee 47 3d
       0.09657552 -0.33124164 0.14007252 0.04881163
000210 df f0 1b 3d 7c 34 b7 3d a8 73 a5 bd 1d 43 86 bd
       0.03807151 0.089455575 -0.080787 -0.065557696
000220 95 e2 f9 be 7c a8 00 be 4e 13 45 bd b0 69 e6 3d
       -0.4880568 -0.12564272 -0.048114114 0.11250627
000230 42 9f 19 be 11 7e be 3d 03 e0 ad bd 95 74 a0 3d
       -0.15002158 0.09301389 -0.084899925 0.07834736
000240 20 09 48 bd 5c e1 dc bd e0 f2 97 3e c1 69 3a be
       -0.048836827 -0.107851714 0.29677486 -0.18204404
000250 3c f0 37 be 2f fd 85 3e 67 8e 23 bd 42 86 1c bd
       -0.17962736 0.26169726 -0.039930727 -0.038213976
000260 b2 ef f2 bc aa e5 cf bd 64 48 d9 3d 74 f8 b9 bd
       -0.029655311 -0.10151227 0.106095105 -0.09080592
000270 34 c4 a8 bd d7 e1 94 3e 07 aa dd 3d 58 51 d9 3b
       -0.08240548 0.29078552 0.10823446 0.0066320114
000280 4c f2 1f 3d 12 10 4d 3d 74 6a ad 3d 4b 5d cb 3d
       0.03904943 0.050064154 0.0846757 0.099299036
000290 7e 02 ef 3d 11 07 d5 ba 7e 7f a7 3d 6d 41 27 3d
       0.11670397 -0.0016252716 0.08178614 0.04083388
0002a0 b2 d4 15 3d d6 57 be bd cb 8e 99 3d 2a 88 bf bd
       0.036579795 -0.09294097 0.07497939 -0.09352143
0002b0 ff 9b d6 3d eb ed 25 3b e8 19 cd 3c cb 63 c1 bd
       0.10478973 0.0025318812 0.025036767 -0.09442862
0002c0 2d 67 0b bd 69 9e cb bc 9c da d0 3d 9e a4 1f be
       -0.034033943 -0.02485581 0.101979464 -0.1559014
0002d0 cb be 96 bd 04 2f 7a 3e 00 98 a6 3e 2c f2 59 bc
       -0.073606096 0.24431998 0.32537842 -0.013302367
0002e0 dc 17 38 be 24 4d e8 3d 92 09 a5 bc 23 89 bb bc
       -0.17977852 0.113428384 -0.020146165 -0.02289254
0002f0 93 83 04 3d 25 4c 88 3d 8c 45 a5 bd 4a 01 19 3d
       0.03235204 0.066551484 -0.08069906 0.037354745
000300 85 81 99 bd 46 9d d3 3d 6c b0 38 3d 4c f9 ee bd
       -0.07495407 0.10332732 0.045090124 -0.11668643
000310 7d a2 92 bd 05 c5 91 bd 43 48 ac 3d 16 18 42 be
       -0.071598984 -0.071176566 0.0841222 -0.189545
000320 c0 9d d1 3d 8c 7f 8f 3c f8 3c cd bc cc b4 91 bd
       0.102351665 0.017516874 -0.025053486 -0.071145624
000330 4e 16 5d be 5c 37 88 3e 67 c2 4b 3d 46 bb fb 3c
       -0.2159054 0.26604736 0.049745943 0.030728947
000340 2f 96 31 bc f7 ea 02 be 51 f9 87 3d e9 e2 f0 bc
       -0.010839029 -0.12784944 0.0663935 -0.029405074
000350 dd ac 56 bd c0 94 af bb 14 51 40 3d 3e 28 10 3c
       -0.05241095 -0.0053583086 0.046952322 0.008798657
000360 bc 26 ad bd ca 57 16 bd 87 87 9c 3d 61 00 a9 3d
       -0.084546536 -0.036704816 0.07643037 0.082520254
000370 64 d2 cd 3d 83 b5 71 3d 85 26 85 bd 66 22 55 3d
       0.100498945 0.059010994 -0.06501488 0.052034758
000380 8b a1 38 3d 09 b2 0a bd a1 68 cc bd 8a 19 b7 3d
       0.045075934 -0.033861194 -0.09980894 0.08940418
000390 da 36 5f 3e 17 ce c8 3d 80 42 e3 3c b5 48 0f be
       0.21798268 0.098049335 0.02774167 -0.1399258
0003a0 28 62 6e 3e 51 c4 4c 3e ab e1 13 3d 31 fd 58 3d
       0.23279631 0.19996764 0.036103886 0.052975837
0003b0 23 3b bd 3d cf a6 97 3d 2d 43 89 3d de 7e 63 bc
       0.09239795 0.07404863 0.06702266 -0.013885228
0003c0 db a8 5f 3e a4 eb 94 3e fe 35 ae bd ab 22 66 3d
       0.21841757 0.2908603 -0.08506392 0.056185406
0003d0 55 ed 11 3e 7d 6a 3a 3d e5 d7 7b 3c 94 7b f3 3d
       0.14250691 0.04551171 0.0153712975 0.11888805
0003e0 de eb a2 bd 60 65 59 bd f1 7c 0b 3e e5 37 ad 3d
       -0.07955144 -0.053075194 0.1362188 0.08457927
0003f0 9e de 0b 3d 5c 66 82 3d 12 b3 64 3d ad b4 07 bd
       0.03414785 0.0636718 0.055834837 -0.03313129

lstm.weight_hh_l0 f4 [256, 64]
000000 f3 09 a7 3d e6 69 78 3c 15 22 a3 bd fc e6 2e 3d
       0.081561945 0.015161967 -0.07965485 0.042700753
000010 6e c4 63 bc 58 09 c9 bc 64 94 a7 3d 0e 72 ae 3d
       -0.013901813 -0.024540588 0.081826 0.08517848
000020 d5 b5 1a bd 1c 01 8c bc ef 54 f1 3d 48 67 07 3d
       -0.037771065 -0.017090373 0.11783778 0.03305748
000030 a8 51 e4 3d 78 50 fd bc 96 4e d6 bc 51 84 2b bd
       0.11148387 -0.03092216 -0.02616052 -0.041874234
000040 6d 5c ce bd 0b 5a ed bd 81 dc 47 bd 13 19 86 bd
       -0.100762226 -0.1158944 -0.048794273 -0.06547751
000050 5e b4 83 bd 13 45 86 bd 57 73 74 3d f5 9a 19 3e
       -0.06430887 -0.065561436 0.05968031 0.15000518
000060 9a 1f 2b bc 19 5f 9d bd d7 f2 1e 3d 55 4f aa 3d
       -0.010444546 -0.07684154 0.03880581 0.08315913
000070 17 bb 85 3c af 75 af bb ab 25 5b 3d 01 75 9e bd
       0.016324563 -0.005354605 0.05350272 -0.077371605
000080 13 0e 11 bd b3 54 ca 3d 24 a4 06 bd bc 0f 27 bc
       -0.035413813 0.09879436 -0.03287138 -0.010196622
000090 c7 4a 78 bc 3f 88 aa bd e3 a7 02 be a0 78 94 bc
       -0.015154547 -0.08326768 -0.12759356 -0.018123925
0000a0 e7 9e be 3c 16 2d f3 bd 15 81 e6 3d ad 42 14 3e
       0.02326913 -0.11873834 0.11255089 0.1447856
0000b0 2f 26 02 3e 5a 44 58 3d ef 80 96 3d f2 9b ee 3c
       0.12709878 0.05279956 0.07348811 0.029127095
0000c0 a9 2d 7d 3c c4 6a f1 3b b8 6f 9d bd 6d fc 0b be
       0.015452781 0.007367464 -0.07687324 -0.13670512
0000d0 e3 92 66 bb a6 a7 a1 3c 6e 38 bd bb 61 92 dc bc
       -0.0035182766 0.019733261 -0.005774549 -0.026925268
0000e0 a9 79 06 bd 98 e3 04 bd ba 45 3b bd 64 a8 28 3c
       -0.032830868 -0.032443613 -0.045720793 0.010294054
0000f0 b5 50 6d 3d 56 28 48 bd ef fa 89 bd 83 09 15 3d
       0.057938296 -0.048866592 -0.06737315 0.036386024
000100 99 01 cb 3d 20 2f 7f be 14 ce 9b be 66 cf 7c bd
       0.09912414 -0.2492032 -0.30430663 -0.061721228
000110 c6 7d 33 3d e6 95 e6 bd 70 9d 71 3e 51 86 53 3e
       0.04382112 -0.112590596 0.23595214 0.20656706
000120 f1 0e 8b bd a7 04 2f 3e e9 94 0c be 64 5a dd 3d
       -0.06789959 0.17091618 -0.1372868 0.10808256
000130 70 80 b3 bd f0 14 4f 3e 77 ab d8 3d 1c d4 fe 3d
       -0.08764732 0.20222831 0.10579579 0.124428004
000140 2f a7 58 3e b4 89 94 3d 2e cc 43 be cb e0 74 3d
       0.21157525 0.07252827 -0.19120857 0.05978469
000150 86 51 c2 bc 8f 84 5e 3e f1 9f 16 3e 37 19 93 be
       -0.023720514 0.21730255 0.1470945 -0.28730175
000160 c0 63 65 be 85 bb cd bd 11 23 19 3d 13 a9 56 3d
       -0.22401333 -0.10045532 0.037386958 0.052407335
000170 c7 11 2a 3d 2f fa 8f 3d 6d 58 5a 3e b5 0d 14 3e
       0.04152086 0.070301406 0.21322794 0.14458354
000180 f8 e0 3e be 15 52 07 3e a5 9a 96 3d eb 52 58 3e
       -0.18640506 0.13214906 0.07353715 0.2112538
000190 4e 4f 01 3e 52 b5 c3 3e fc 03 8d 3d 20 5d b7 3c
       0.12627909 0.38224274 0.068855256 0.022383273
0001a0 28 86 fd bd 7b f3 21 3e 22 83 db bd bc 30 f3 3d
       -0.12379104 0.15815537 -0.10718371 0.1187453
0001b0 c2 8a fa bc 6e 24 27 3e b8 1e fa 3d 9b a0 b5 3e
       -0.030583743 0.1632249 0.122128904 0.35474095
0001c0 e9 3c 25 be 21 92 ca 3d c1 5e 0a 3e d9 07 f8 bd
       -0.16136517 0.09891153 0.13512708 -0.12110872
0001d0 95 7b 3a be a8 12 2f be 75 45 46 be 2a 7f be 3d
       -0.18211205 -0.1709696 -0.19362433 0.09301598
0001e0 2c 44 14 3e cc 55 b1 bd 16 1b 4c bd 0e 01 75 bd
       0.1447913 -0.086589426 -0.04983052 -0.05981546
0001f0 2f dd 86 bc fe 0d ec bc 1c 47 c0 3b 87 09 95 3c
       -0.01646289 -0.028815266 0.005867852 0.01819302
000200 fd cf 3b 3e a0 8d f1 3d ff ee 7a be a5 30 05 be
       0.1834106 0.11794591 -0.24505232 -0.13006838
000210 24 3d fa bd aa 2c f2 bd dc 0b 93 3b ec f9 8f 3e
       -0.12218693 -0.11824925 0.0044874977 0.28120363
000220 76 1f 66 3b 4e e7 f7 3c 94 d8 57 bd c8 10 37 3e
       0.0035113967 0.030261662 -0.05269678 0.17877495
000230 ed d9 25 bd 79 2e a6 bd 78 09 aa 3d 0c 01 b8 3d
       -0.040491033 -0.08114333 0.08302587 0.08984575
000240 fc 5a 05 3d 15 84 93 3d 90 18 84 bd a6 6f 8d 3b
       0.032557473 0.07202927 -0.064499974 0.004316288
000250 ec 19 6a 3e e7 ca 15 3e 9f 7d fa bc 2f 35 0b 3d
       0.22861451 0.14628182 -0.030577479 0.033986267
000260 5f c3 b7 bc 2e 5d 95 3d 91 75 e5 bd d2 d4 e0 3d
       -0.022432027 0.07293163 -0.11204065 0.10978092
000270 8f 6d c8 bd 31 d3 bd 3d 55 5b 0b 3e 3c 86 3e 3e
       -0.09786522 0.09268797 0.13609059 0.18605894
000280 1b c4 1b be 7b 04 31 3e 8b 5e df bd 6a f8 33 bd
       -0.15211527 0.17286865 -0.109067045 -0.043938078
000290 ec 3d 2d 3e d5 2e 80 3d d6 b8 6a 3e 4c a3 c2 bd
       0.16918153 0.062589325 0.22922072 -0.09503803
0002a0 ab f3 fe bd a0 77 e4 bc 81 1c b0 bd 9e 9c 86 bd
       -0.1244882 -0.027889073 -0.08599187 -0.06572841
0002b0 85 08 03 bd 66 3a 02 be a8 5c e7 3d ad b5 e0 3c
       -0.031990547 -0.1271759 0.1129697 0.02743038
0002c0 aa 8c 22 bd b6 ff f2 3c cd 7f e2 3d 88 ce 3c bd
       -0.03968493 0.029662948 0.11059532 -0.0460954
0002d0 2f c6 bf bb 6c c0 f0 bd f5 91 6d be dd 1e 6d bd
       -0.0058524827 -0.117554516 -0.2320021 -0.05789076
0002e0 a7 c3 51 3e 17 45 ac 3d 0a 58 05 be 8a b1 4f bc
       0.20484792 0.08411615 -0.13021865 -0.012676606
0002f0 c3 33 c9 bd 9d 02 46 3d 1a 4a 47 3e 3a de 49 3c
       -0.09824326 0.048342336 0.19461861 0.012321049
000300 44 cc 65 bd 65 46 8d bd 36 5c 81 3d 30 70 9d bd
       -0.056103006 -0.06898192 0.06316416 -0.07687414
000310 04 ec 72 3d a6 8a 45 be ee ba 83 3d 77 02 a2 bd
       0.059307113 -0.19291171 0.064321384 -0.079106264
000320 92 c5 aa 3d a1 2d 2d 3d 3d d7 f9 3d aa b8 34 3d
       0.08338465 0.042279843 0.121992566 0.044121422
000330 cc 6c d8 3d 15 02 15 bd 77 90 40 bc b2 e8 ae bd
       0.10567626 -0.03637894 -0.011753193 -0.08540477
000340 8c c7 9f 3d 93 e5 b1 bd 2b 5f 27 bd 3a 25 89 3d
       0.078017324 -0.08686366 -0.040862244 0.066965535
000350 5d 20 96 3d 3a 50 8e bb 25 7c 91 3d ac 3a fc bc
       0.073303916 -0.00434306 0.07103757 -0.030789696
000360 a7 e7 10 3d c9 e6 d1 3d db 21 a4 3d b5 34 82 bd
       0.03537717 0.10249097 0.0801427 -0.06357709
000370 20 1d d5 3b 8b 0c 35 3d 86 66 6e 3c bf d1 e8 3d
       0.006503716 0.044201415 0.014550811 0.11368131
000380 6c 7d 38 3e 8f a9 d2 bc 74 21 e2 3b e4 71 9c bd
       0.18016595 -0.025715617 0.0069009606 -0.076389104
000390 8f df ed 3d 04 2d 65 3d e5 74 fb 3b 5c 4e 8b bc
       0.11614906 0.055951133 0.007673847 -0.017005138
0003a0 cb 98 50 3c 74 ad 29 bc 0d 81 66 bd 24 35 93 bd
       0.012731741 -0.010356296 -0.056275416 -0.0718787
0003b0 9b 4a 0a 3d ae 9c 9e bd d1 60 da bd ec d0 3c bd
       0.033762556 -0.07744728 -0.106629975 -0.04609768
0003c0 fb 29 da 3d 4c 6c 0f bd 31 cc 02 ba 82 cb a8 3c
       0.106525384 -0.03501539 -0.00049895333 0.020604853
0003d0 93 9f 02 ba e6 69 ef 3d cb 0c ba bd 6b c4 b5 3d
       -0.0004982885 0.116901204 -0.09084471 0.088753544
0003e0 be 16 86 bd e2 f7 5a ba 75 52 be bd b0 f2 fe 3d
       -0.065473065 -0.00083529775 -0.09293071 0.12448633
0003f0 7e e0 ba bd ae 85 5a 3d b6 31 34 be 11 8f e2 3d
       -0.0912485 0.053350143 -0.17597088 0.11062444

lstm.bias_ih_l0 f4 [256]
000000 e7 70 a1 3d 8f f8 be 3d f6 a2 94 bc 08 67 e7 bd
       0.078828625 0.093247525 -0.018144112 -0.112989485
000010 8e 18 60 3d a1 cc 8c bd e1 d7 99 3d 67 48 6f ba
       0.054710917 -0.06874967 0.07511879 -0.0009127915
000020 95 a6 55 bd 74 09 93 bd 96 8d 9d bc 3e 2b 05 3c
       -0.052160818 -0.071795374 -0.019232552 0.0081279855
000030 30 67 a9 3b 8c 6b 89 bd c2 be 39 3e 69 c9 8f bd
       0.0051697716 -0.06709966 0.18139175 -0.07020838
000040 1a 54 9f 3d 83 68 c9 bc 5f d8 9e bd 10 87 b4 3d
       0.07779713 -0.024585968 -0.07756113 0.08814824
000050 d8 e9 40 3d cc b4 14 3d 12 42 6d bd e0 00 b8 3d
       0.04709801 0.036305234 -0.057924338 0.08984542
000060 99 5f 81 3c 12 d3 cd b9 40 86 b1 3c bb a7 da 3b
       0.015792655 -0.00039257907 0.02167046 0.006672827
000070 e8 ec 76 3d c6 60 00 3e 8b 1a 2a be 5b 86 ff bd
       0.060284525 0.12536916 -0.16611688 -0.12476798
000080 ac 61 82 bd 31 a7 be 3d b5 9a 1d 3a 53 fd bf bc
       -0.06366286 0.09309233 0.0006012128 -0.023436224
000090 ca 91 a1 bd 81 a2 3e 3d fd 4f 1b bd a2 54 cb bd
       -0.07889135 0.046541695 -0.03791808 -0.09928252
0000a0 cc 09 c2 bc 2d 94 c0 3d d3 6b 6c 3d f0 dd 87 bc
       -0.023686312 0.09403262 0.057720017 -0.01658532
0000b0 ea 98 77 bd ba 00 c7 bd 04 6e 44 3d 73 a7 23 3d
       -0.060448565 -0.097169355 0.04795648 0.039954614
0000c0 36 17 2c 3d 0b 79 96 3d 55 b7 ca bb 79 7c 22 3d
       0.042014323 0.07347306 -0.0061864057 0.039669488
0000d0 3d 06 e7 3c 79 cd a2 bd e2 9f 53 3d f8 60 82 bc
       0.028201217 -0.07949347 0.051666148 -0.015915379
0000e0 75 e3 f5 bd 53 5b 9d 3b a2 bd a9 bc 9a b3 da 3d
       -0.120062746 0.0048021465 -0.020720307 0.106787875
0000f0 8b c6 86 3b c4 c8 bf bd 5c 63 07 3e cf 5e 0d bd
       0.0041130236 -0.09364465 0.13221496 -0.034514245
000100 78 59 02 3e ed 9f be 3d 26 d9 39 3e 01 89 a3 3d
       0.12729442 0.09307847 0.18149242 0.07985116
000110 c3 e0 14 bd 39 e6 81 bd f7 7b f5 bc 7e 9f 8b 3d
       -0.036347162 -0.063427396 -0.029966338 0.0681753
000120 ca bd 0e be dd 39 25 3d f2 10 97 3b b9 13 58 3c
       -0.13939586 0.040338386 0.0046101743 0.013188296
000130 51 82 15 be c5 f7 91 bd 08 57 a0 bd 75 4c 8c bd
       -0.14600493 -0.071273364 -0.078291 -0.068505205
000140 ee 83 54 3d eb 0d b9 3d 31 cd 05 3e fb ec 6a bd
       0.05188363 0.09035858 0.13066556 -0.05735491
000150 e7 24 b5 bc bc 41 97 bd 5d 21 cf 3d 35 47 db bb
       -0.022112323 -0.07385585 0.101137854 -0.006691838
000160 a9 53 0c bd 65 2b 10 be 0b bc c4 3d e0 28 3a 3e
       -0.034259472 -0.14079054 0.09606179 0.18179655
000170 eb f8 20 bd 0f b9 63 bd b2 a5 1d bd fe 75 98 3d
       -0.039299887 -0.055596408 -0.038488097 0.0744438
000180 b8 00 09 3e 66 e0 46 3c fd f3 04 be bb 86 44 bd
       0.1337918 0.012138462 -0.12983699 -0.04798005
000190 b4 5e d4 bd 23 4b c3 bc 73 e2 be bd 16 4a 0e 3e
       -0.10369626 -0.023839539 -0.093205355 0.13895449
0001a0 91 c5 04 3c 0d 11 ea bd c6 bc 89 3d 9f c1 d8 bd
       0.008103744 -0.114290334 0.06725459 -0.10583805
0001b0 24 7e 74 bd 17 57 07 3c b1 dc b0 bd 4d c0 e2 3c
       -0.05969061 0.00826051 -0.086358435 0.027679587
0001c0 1c 62 78 bd 6d 2d 19 be 19 fe 4d bb 92 1a 7c bc
       -0.06064044 -0.14958735 -0.0031431972 -0.015387194
0001d0 c2 68 35 3d fc b4 23 bd 5a 0f 36 3d 7d 73 93 3c
       0.044289358 -0.039967522 0.044448234 0.017999405
0001e0 a9 ee 1f 3d 89 83 af 3d 6c a4 42 3d 57 c9 da bc
       0.039045963 0.0857001 0.047520086 -0.026707334
0001f0 6c 60 dd 3d 0b 86 b7 bd ed f5 0c 3e 6e 45 08 3d
       0.10809407 -0.089611135 0.13765688 0.03326934
000200 54 9d 14 3d cb 1d 36 ba a0 a0 7e 3d 20 9d c3 bc
       0.036282852 -0.00069471885 0.062164903 -0.023878634
000210 39 81 97 3d b0 17 0a be f2 13 a3 3c 5f db 06 3e
       0.07397694 -0.13485599 0.019906972 0.13169621
000220 a5 f8 9f 3d e7 23 7b 3d c9 7b 85 bc a2 fb 84 3d
       0.07811097 0.061313536 -0.016294377 0.06493308
000230 98 58 d3 bd 55 51 11 3d 6b 43 70 3d 1a 50 08 be
       -0.10319632 0.035477955 0.058658045 -0.13311806
000240 d2 49 fb 3c 6c f1 be 3c 67 ec 9e 3d 9c 6d fa bc
       0.030674849 0.023308478 0.07759934 -0.030569844
000250 19 53 e2 bb e5 1e 2b 3d 38 1a 71 3d 61 c0 6f 3d
       -0.0069068787 0.04177751 0.058862895 0.058533076
000260 a9 46 66 bd 03 4b ec bc a1 77 1d bd 8e b9 47 3d
       -0.05621973 -0.028844362 -0.038444165 0.048760943
000270 fc 25 f2 bc c6 a1 6d 3d 40 7a af 3c a9 a2 83 bd
       -0.029559128 0.058015607 0.021420598 -0.06427509
000280 ca 44 91 bd e6 ed 69 bd e7 ef 85 bd 39 66 04 3c
       -0.070931986 -0.057111643 -0.06539898 0.008081012
000290 9d 9d 59 bd c6 48 b2 3d 9d 67 5f bc 2a 72 1d bd
       -0.053128827 0.08705287 -0.013635543 -0.038438953
0002a0 47 07 a6 bd 56 e2 43 3d f2 2f 74 bd d7 cc 26 bd
       -0.08106857 0.047823273 -0.059616037 -0.040722694
0002b0 bc 0a 7d 3d a7 6f 3e bd 93 0d 4a bd f5 7d 39 3d
       0.061777815 -0.0464932 -0.04932935 0.045286138
0002c0 f9 a2 e5 bd b9 54 79 3d 28 ac 15 3b 55 3f a3 bd
       -0.11212725 0.060871813 0.0022838209 -0.07971064
0002d0 f6 9a f5 3d 5a 47 30 bd fa 12 38 3d ed 6d cb 3d
       0.11992447 -0.043036796 0.044939972 0.09933076
0002e0 d5 3d f3 bd cd 57 d5 3d 04 e3 10 bd b4 36 91 3c
       -0.11877028 0.10417137 -0.03537275 0.01772628
0002f0 84 1f 97 3d 86 31 a7 3b 8f af da 3d 65 a5 be bd
       0.07379058 0.005102339 0.106780164 -0.0930889
000300 61 66 96 3d a5 92 ce 3d f1 29 54 3e 0e 9f e6 bc
       0.07343746 0.10086564 0.20719124 -0.028152015
000310 0d d8 dd 3c 5e 55 08 bd cc f1 09 be 60 81 85 3d
       0.02708056 -0.033284537 -0.13471144 0.06518817
000320 d4 73 e5 bd ec 31 e5 3c 54 15 10 bd 53 fd 03 3e
       -0.11203733 0.027977906 -0.03517659 0.12889604
000330 26 f8 15 bd 82 b1 c1 bd 32 d6 8e 3c 12 df 03 be
       -0.036613606 -0.09457685 0.01743612 -0.12878063
000340 58 9a c4 bd 83 f3 ab bd 82 bf 9d bd 41 88 a6 3d
       -0.09599751 -0.083960555 -0.07702543 0.08131457
000350 89 ea f1 bd c2 5b ae bc 2e 4d 35 3d 0e 9f 7e 3c
       -0.11812312 -0.021283988 0.044263057 0.015540851
000360 c8 82 08 3b fc 93 d0 3d 7f e3 34 3e 13 3c 9f bd
       0.0020829905 0.10184476 0.17664908 -0.0777513
000370 ce a8 b8 3d 63 21 93 bd 80 9c ea 3c 8c b3 08 3d
       0.09016572 -0.071841024 0.028639078 0.033374354
000380 2f d9 c0 bc bb 77 ca bc 47 87 99 bd 17 67 f0 3d
       -0.023541061 -0.024715295 -0.07496505 0.11738413
000390 e1 cf af 3d 89 9f b2 3d 16 5d e7 bd f7 70 a0 3c
       0.08584572 0.08721835 -0.112970516 0.019585116
0003a0 35 17 01 3e 35 f8 89 bd 08 c4 1b 3d 0d 3b 76 bd
       0.12606509 -0.06736795 0.038028747 -0.06011491
0003b0 44 b1 5e bc c3 91 ee bd be 28 2e 3e f1 1b 14 3e
       -0.013592068 -0.116488956 0.1700773 0.14463784
0003c0 b0 73 3d 3c c6 19 8f 3d 5a 68 a1 3d 0a 77 fa bc
       0.011563227 0.06987338 0.078812316 -0.03057434
0003d0 54 a2 c9 bd 0c c7 26 bd da b8 3c 3d 0d 71 b8 bb
       -0.09845415 -0.04071717 0.046074726 -0.005628711
0003e0 d3 72 a6 bd d6 3f 08 3c 68 15 01 bd 86 5b f1 3d
       -0.0812737 0.008316001 -0.031514555 0.11785035
0003f0 af de db bd af cc f2 bd 79 79 19 3e 3a cc 9e bd
       -0.10735833 -0.118554465 0.14987744 -0.07753797

lstm.bias_hh_l0 f4 [256]
000000 6c de 83 bd 02 09 0b bd ca 02 a6 bc 4c 6d a5 bc
       -0.06438908 -0.033944137 -0.020265002 -0.020193718
000010 ac 27 4d 3e 6d 51 06 3c e7 03 12 3d 27 77 8a bd
       0.20034665 0.008198124 0.035648253 -0.06761008
000020 e8 d4 36 3d 0f 39 f6 bc c1 73 27 be b0 8d 46 3d
       0.044636637 -0.030056505 -0.1635275 0.048474967
000030 11 a5 c9 bd 57 78 67 bd 68 d6 a2 3b bf 35 ca 3d
       -0.09845937 -0.05651125 0.004969407 0.098735325
000040 05 99 66 3d 0e 86 a6 bd f8 69 7c 3d 7a 62 a5 bd
       0.056298275 -0.08131038 0.061624497 -0.080754235
000050 94 1f aa bd b4 32 7c 3d 0c c9 0b bd 1c c5 cf ba
       -0.08306804 0.06157179 -0.03412728 -0.001585159
000060 43 b8 1c be 9a e3 ec bd 7b 66 01 bc 06 45 57 3c
       -0.15304665 -0.11566849 -0.007897968 0.013139015
000070 d9 8a f9 3d 00 38 2b 3d 8b 03 9f 3d 76 75 d1 bd
       0.12184686 0.041801453 0.07764348 -0.10227482
000080 7b 1b 6a bc b4 47 d4 bc 98 23 d6 bc e3 be 3e 3d
       -0.014288778 -0.025913097 -0.02614002 0.046568763
000090 e5 61 77 bd 48 dd 8e bd f0 0c 88 bc 56 6d c7 3d
       -0.060396094 -0.069758 -0.016607732 0.09737651
0000a0 7e 9b 4a bd 34 eb cf 3c d2 fc 13 be ab 63 2a bd
       -0.049464695 0.025380708 -0.14451912 -0.041598957
0000b0 3a be bb 3d 6f 23 40 3d db cd 13 bb 31 b9 7d 3d
       0.09167142 0.046908792 -0.002255312 0.06194419
0000c0 e7 6b 41 bc 3e 85 ec bc 99 9b c1 3c 5c eb 13 bd
       -0.011805511 -0.028872129 0.023633765 -0.036113128
0000d0 e7 1a 1c be 9e 01 e0 3a fc 1f bb ba a2 8a 51 bd
       -0.15244637 0.0017090326 -0.00142765 -0.0511576
0000e0 8f ca 8b 3d 04 27 b7 bd 4f ca e5 3c 28 11 bd 3d
       0.06825744 -0.089429885 0.02805057 0.09231788
0000f0 be 48 f6 3c 21 df d7 bd ff df 87 3c fd 09 c0 bd
       0.030063983 -0.10540605 0.016586302 -0.09376905
000100 e9 2b 97 3d c7 69 27 3d 48 08 07 3e 23 fd 56 3c
       0.07381422 0.04087236 0.13186753 0.013121876
000110 da 4b ad 3d 53 1d ec 3d 9b da a8 3c 5d 8c c9 3d
       0.08461733 0.11529031 0.020612052 0.09841225
000120 0a 7c 1c 3d 41 d2 1a bc 04 25 a4 bd a5 d4 68 bd
       0.03820423 -0.0094495425 -0.08014873 -0.05684342
000130 8d bb 66 3b 1b 55 91 3c e8 e7 33 bd ee a9 21 bd
       0.0035207004 0.017740777 -0.043922335 -0.0394687
000140 3e 8f ee bc fd 0b e9 3c 33 fe 69 bd 06 09 b5 3d
       -0.029121038 0.0284481 -0.05712719 0.08839612
000150 a0 60 02 be 0a df ed bd 75 f0 da bd e3 2d e9 bd
       -0.12732172 -0.11614807 -0.10690395 -0.11385705
000160 c0 08 53 3b 34 e6 0d be b6 e6 37 3d dc 3d fd 3c
       0.003220126 -0.13857347 0.044897757 0.030913286
000170 aa 9f ac bc e5 5e aa bd 54 07 61 bd bc f8 b7 bc
       -0.021072228 -0.08318881 -0.05493863 -0.022457473
000180 8a f6 37 3d f8 20 2c bd 68 2d 14 bd 77 3a 2f bd
       0.044912852 -0.04202363 -0.036176115 -0.042780366
000190 fe e5 b2 bd 37 f0 28 be ed 35 f1 bd 32 35 fc 3d
       -0.08735274 -0.16497885 -0.11777864 0.12314834
0001a0 54 31 13 3c 3d 62 e3 bd 0e 3f ec bd fb 30 ba bd
       0.008983929 -0.11102722 -0.11535464 -0.090913735
0001b0 c9 cd 93 bd bb 0b ac 3d a6 4f c4 bd 40 54 02 be
       -0.07216985 0.08400675 -0.09585504 -0.12727451
0001c0 4b 93 e8 bd da 08 ac bd 5b 2d f6 bd 38 aa 1a bd
       -0.11356219 -0.08400126 -0.120203696 -0.03775999
0001d0 82 45 1a bd 26 b0 85 bd 00 73 88 3d 83 8b 12 be
       -0.037663944 -0.06527738 0.066625595 -0.14311032
0001e0 f7 4c 9c 3c 32 96 e8 3d b7 b7 14 3b 24 ec fc 3b
       0.019079668 0.113567725 0.002269251 0.00771858
0001f0 32 93 c1 3d a8 45 e6 bc aa b5 33 bd 7b 64 8b 3d
       0.094519034 -0.028109387 -0.04387442 0.068062745
000200 a8 08 13 bd aa 26 05 bc 69 1c 06 be cb bf cd bd
       -0.035896927 -0.008126894 -0.13096775 -0.10046347
000210 1b 76 42 3d 6e 09 9a bb d1 c8 5a bd 2c 6e 9b 3d
       0.047475915 -0.004700831 -0.05341417 0.07589373
000220 69 c1 8d 3d 0a 00 1f 3d e8 3a 9a bd ab 44 2b bd
       0.06921656 0.038818397 -0.07530767 -0.041813534
000230 23 03 b9 3c 9a 60 cd bd 32 f9 f4 3c 0e 66 bb bc
       0.022584504 -0.10028191 0.029903982 -0.022875812
000240 6a 65 aa 3d 0c 9c ff 3d 87 69 f1 3c 6e 6e 11 bd
       0.083201244 0.124809355 0.029469265 -0.035505705
000250 43 5d 14 3d 7d 16 07 3e de 0c 27 3d 49 7c 35 bd
       0.036221754 0.13192172 0.040783755 -0.04430798
000260 f7 91 83 3d 57 e3 2e 3d 9d 4b 02 bd bb 41 09 3d
       0.06424325 0.042697277 -0.03181039 0.03350995
000270 a3 0d f3 3c ee 96 a0 bd 4c ba 8f 3d 97 8f 9f 3d
       0.029669588 -0.078412876 0.07017955 0.077910595
000280 3e 0d 39 3d a1 bd 2e bd 0b c4 dc bd 2a 2c 45 bd
       0.045178644 -0.042661313 -0.1077958 -0.04813782
000290 94 c1 61 bd b3 8c af bd f1 22 a2 3c d0 eb f5 3c
       -0.05511625 -0.08571758 0.019792052 0.03001967
0002a0 9c ea 0b 3e 44 69 53 3d a2 19 86 bd 07 3d 11 bd
       0.13663715 0.05161406 -0.06547858 -0.03545859
0002b0 9b 79 dd bc 41 88 14 b9 57 db df 3d 37 61 9d bc
       -0.027035525 -0.00014165138 0.10930508 -0.019211395
0002c0 51 9d c9 3d f4 3d 9b 3d 49 0d 88 3d 8c 43 4c 3b
       0.09844459 0.07580176 0.06643159 0.003116819
0002d0 0b 21 c7 3d a9 de d6 bd d0 17 63 bd b2 c1 48 bd
       0.09723099 -0.10491688 -0.05544263 -0.049012847
0002e0 b1 cb ce 3d cf 0d 9e bd 43 be cd 3d 70 a8 4d bb
       0.10097445 -0.077174775 0.10046055 -0.0031380914
0002f0 0a bd f7 bd 15 30 f3 3c 65 ba 81 bd 89 6d ff bc
       -0.12096603 0.029686013 -0.0633438 -0.03118016
000300 cb de ab bd 59 c8 81 3e 51 ba 34 3e 89 ab 95 3d
       -0.08392104 0.25348166 0.17649199 0.07308108
000310 f3 9f 28 3e 9a 47 f9 3d 81 78 1a 3c b6 a7 48 bc
       0.16467266 0.1217186 0.009428144 -0.012247017
000320 d9 05 0c be 6f e1 db 3c 24 b5 9b bd 7c d3 c7 3c
       -0.13674106 0.026840894 -0.07602909 0.024392836
000330 b1 13 c1 bd 42 8e 8c 3d 13 a3 2f 3c 44 ff 88 3d
       -0.09427584 0.06863071 0.010720032 0.06689313
000340 70 06 65 3d cd 73 b6 3d bc 88 6b bd 99 21 46 3c
       0.055914342 0.08908806 -0.057503447 0.012092971
000350 d5 59 bf bd ff 1a a5 3d c2 e5 04 3d b9 fb af bd
       -0.09343306 0.0806179 0.032445677 -0.08592934
000360 47 20 df bd e5 4e 88 bd 52 ff de 3d d6 35 0f bd
       -0.10894828 -0.06655673 0.10888542 -0.03496345
000370 b8 3e 81 bd 4d 4a 1a 3c 2e c8 86 bc 22 2f b8 bd
       -0.06310791 0.009417129 -0.016452875 -0.08993365
000380 3d 51 0e 3d ec 92 7e bd d5 eb da bd 79 c8 12 bd
       0.034745444 -0.062151834 -0.10689513 -0.035835717
000390 02 bb 74 3d 34 6d 4d 3d 1b 9f 9e 3d e0 9a 8a bd
       0.059748657 0.050152972 0.07745191 -0.06767821
0003a0 2c 75 f2 3c 28 16 66 b9 33 46 a7 3c 5f f6 1a 3d
       0.029596888 -0.00021942763 0.020419216 0.037832614
0003b0 18 17 d1 bc 7b 15 ea bd 2a 40 24 3e c9 7c 03 3e
       -0.025523707 -0.11429878 0.16040102 0.1284057
0003c0 ab b1 ef 3d 07 9b 6a bd 71 fe 07 3e 16 ae f3 bd
       0.11703809 -0.05727675 0.13280655 -0.11898439
0003d0 b5 6a f5 3b 5c 91 ba 3c a5 0d 1b be 87 3f 4b bc
       0.007489527 0.02277439 -0.15141924 -0.012405283
0003e0 41 dd ae bd 07 b1 4a bd 3d 03 ea bd 12 29 bf 3d
       -0.085382946 -0.049485233 -0.11426399 0.093340054
0003f0 65 0f fc bd 5e e7 87 3d 2a b3 50 3d 46 7f 15 bc
       -0.12307624 0.06635927 0.050952114 -0.009124583

classifier.0.weight f4 [32, 64]
000000 9e 18 7c 3d 4f 29 80 be ad b3 da 3a 61 49 e9 bd
       0.061546914 -0.25031516 0.0016685628 -0.11390949
000010 f3 1f 89 3d 89 48 92 3d 15 f0 2e 3e 2d 01 32 bf
       0.06695547 0.07142741 0.17083772 -0.69533044
000020 ee 2d 6b be 2b ed 15 3e 01 54 99 bc b3 db ba 3c
       -0.2296674 0.14641254 -0.018716814 0.022809839
000030 aa 86 12 bd 5b f7 8e 3c 20 a8 e9 be b4 0f 2e 3e
       -0.035772957 0.017451933 -0.45636082 0.16998178
000040 7b 87 c0 bc e4 f2 9e 3d 34 1c 33 3e 34 b9 95 3e
       -0.023502102 0.077611715 0.17491227 0.2924286
000050 d8 60 c3 bd af 40 95 3d e3 cf a0 3d 23 57 05 3d
       -0.09539956 0.07287728 0.07852151 0.032553803
000060 7a ed a1 3d e4 b7 8b bd df 0b f1 3e 16 3f 22 3d
       0.07906623 -0.06822184 0.4707937 0.039610945
000070 11 8e f3 3c 2d d1 75 3e 3c 3f ad 3d d5 06 9f bc
       0.029730828 0.24005575 0.084593266 -0.019412437
000080 35 6d 89 bd fa 7e cc 3d a5 77 10 be 1f 99 b4 3e
       -0.06710283 0.09985156 -0.14108141 0.35273072
000090 f7 d9 0e 3d 63 6d 86 3e f9 d5 14 be c3 3f 29 be
       0.034875836 0.2625533 -0.14534749 -0.1652823
0000a0 01 54 43 3c 67 bf 5c be 3e a6 cc 3b 4d cd 30 3e
       0.011921884 -0.21557389 0.0062454036 0.17265816
0000b0 f8 47 81 be f0 de cf 3e 57 86 7d be 65 38 2c 3e
       -0.2525022 0.40599775 -0.24758278 0.16818388
0000c0 a2 10 53 3d 71 0d 3f 3e f4 c3 c6 be 57 0e 88 bd
       0.051529534 0.18657471 -0.38821375 -0.0664336
0000d0 a0 15 47 bd 7d 54 9d bd 88 35 34 be ea 48 41 be
       -0.048604608 -0.076821305 -0.17598546 -0.18875471
0000e0 d5 23 9d 3d 21 ad 2b 3d 41 37 de bd 19 0c c6 be
       0.0767285 0.041913155 -0.108503826 -0.38681105
0000f0 03 49 9a bd b8 28 52 be 5a a8 5f be 4f f4 f0 bc
       -0.07533457 -0.20523345 -0.21841565 -0.02941337
000100 cf ff 8e 39 55 2a a8 be 74 c6 19 3e 4f 3c 75 39
       0.00027274943 -0.32844797 0.1501711 0.00023387487
000110 4c da 0c 3e 55 ed 21 3a 81 56 19 3e fc 30 c4 be
       0.13755149 0.0006177028 0.14974405 -0.38318622
000120 8e 65 1f be cb f4 fe bc 13 35 00 be b5 bd 44 3e
       -0.15566084 -0.031122586 -0.12520246 0.19212992
000130 c4 8e a2 bd 18 8b 2e 3d 64 35 d4 be dd 54 03 3e
       -0.07937387 0.04261312 -0.41446984 0.12825342
000140 ee 1a 8e bd 2b 93 00 3e 9e bf 07 3e e6 8a ac 3e
       -0.0693873 0.1255614 0.1325669 0.3369972
000150 ad 80 ae bd f1 ec 2f 3d 6d b1 e6 bc 7a ef 8d bd
       -0.08520637 0.042950574 -0.028160775 -0.06930442
000160 11 02 64 3c 32 26 da bd a0 c0 5d 3e 37 7f 08 3e
       0.013916508 -0.106518164 0.21655512 0.13329779
000170 6b fe 27 3d 11 7c 80 3e 7c d2 fc 3c 2a 21 3f 3e
       0.041014116 0.25094655 0.030862086 0.18664995
000180 36 67 e4 3c c3 42 86 bc 44 ff 22 be 65 19 8b 3e
       0.027881246 -0.016389256 -0.15917689 0.27167812
000190 bf ad 4d 3d fd d2 14 3e 22 05 80 3d 4e 93 26 3d
       0.050214525 0.1453361 0.06250979 0.040667824
0001a0 ef 50 d0 3c e8 ab e0 bb f8 e0 8d bd c8 9f 9d 3d
       0.025429217 -0.0068564303 -0.06927675 0.076964915
0001b0 5b 87 be bd 25 c4 dd 3d ee c0 80 be 14 77 80 3e
       -0.09303161 0.10828427 -0.25147194 0.2509085
0001c0 22 3d 87 3d 17 2e 1d 3e 55 68 74 be 1a ea e7 3d
       0.06603457 0.15349613 -0.23867925 0.11323948
0001d0 e7 5f 1b ba f8 f0 7a bd c4 67 ef bd 68 61 f9 3c
       -0.00059270713 -0.061264962 -0.116897136 0.030441955
0001e0 b5 52 8f 3d bb 77 04 3d b8 b4 8e bd b2 0d c0 be
       0.06998197 0.032340746 -0.06968063 -0.3751045
0001f0 ef d0 7f bd f9 69 e8 bd 49 0e 80 bd b3 53 90 3d
       -0.062455114 -0.11348338 -0.06252725 0.07047214
000200 1c 2f 83 3d 43 46 16 be 4f 78 8d 3d 5e 4b e8 bd
       0.0640547 -0.1467524 0.06907713 -0.113425
000210 49 a5 b7 3d 8e 55 e0 3d 8d 9c c9 3d cc 23 a2 be
       0.089670725 0.10953818 0.09844313 -0.31667936
000220 99 46 fd bc ed fe e3 3d ff 3d 9e 3d d2 02 f7 3d
       -0.030917453 0.111326076 0.077266686 0.12061085
000230 86 08 30 be 79 37 bf 3d 1a eb 56 be ec ce 9b 3d
       -0.17190751 0.093367524 -0.20988122 0.076078266
000240 14 06 a7 3c 48 46 18 3e 04 08 2f 3e 7e 40 c6 3d
       0.02038864 0.1487056 0.17092901 0.0968027
000250 42 0f 46 3d b4 ad 34 3d 30 ee a8 3d 0c c1 0d bd
       0.048354395 0.04411097 0.08248556 -0.034607932
000260 85 90 84 3d 34 39 10 be 40 b7 59 3e 59 ad a0 3d
       0.064728774 -0.14084321 0.2126131 0.078455634
000270 90 76 3b 3c 43 50 a8 3d 6a fc c3 3d 9f cf 0b 3e
       0.011441842 0.08218434 0.095696285 0.1365342
000280 5e 8d e2 bd 2e d7 ca bc a9 f7 33 be d5 ef 87 3e
       -0.1106212 -0.024760809 -0.17574944 0.26550165
000290 14 af 95 3d 8b 73 2a 3e 28 05 00 be 3f 47 03 bc
       0.07308784 0.16645639 -0.12501967 -0.008012592
0002a0 1e 82 34 3e 76 2a 54 bc 43 12 f2 bd b8 7e de 3d
       0.17627761 -0.012949577 -0.118198894 0.108640134
0002b0 1f 04 37 be e4 ec 85 3d 21 fb ae be 62 32 c4 3d
       -0.17872666 0.06539324 -0.3417597 0.09579922
0002c0 42 76 2e bd f7 f6 41 3e ec c2 ff bd 3e bb 6b bd
       -0.04259325 0.18941866 -0.1248835 -0.057551615
0002d0 8d 7d 0d be b5 d0 36 3e 61 11 b9 3d 22 2a 06 bb
       -0.13817425 0.17853053 0.09036518 -0.002047189
0002e0 7b f6 67 3d 50 43 23 3e 9f e4 ae bd 41 0a ab be
       0.056631546 0.15943646 -0.085397 -0.3340626
0002f0 31 f6 52 bd 54 ea e3 3c 18 15 c3 bd ec 7e a5 bd
       -0.051504318 0.027821697 -0.09525508 -0.08080849
000300 40 03 1f 3e 08 d3 bc 3e 03 32 2f be c5 bb 1e be
       0.15528584 0.36879754 -0.17108922 -0.15501316
000310 8b 3c bb bc f3 2a 0c be 43 80 e3 3d b8 f3 ba 3e
       -0.022856018 -0.13688259 0.11108448 0.36514068
000320 56 b1 c6 3d e3 42 f9 3a a8 bf 1f bd 82 9d 11 bd
       0.09701793 0.0019017126 -0.039001137 -0.0355506
000330 2b 9f 76 bd 69 d8 4c bd 62 c8 66 3e 66 08 41 3d
       -0.06021039 -0.050011072 0.22537377 0.04712715
000340 c5 98 1a 3e e6 39 e7 3d a7 f6 d3 bd 0a 33 aa be
       0.1509734 0.1129034 -0.103497796 -0.33242065
000350 38 78 14 3e d8 62 e1 3d e7 f1 0c be e3 06 d5 bc
       0.14498985 0.11005181 -0.13764153 -0.02600426
000360 0e 73 42 be 63 70 1c 3e 9f d6 dd be de 84 a0 3d
       -0.18989202 0.15277247 -0.43327805 0.078378424
000370 f9 75 1b bd c7 fd 0d be 04 01 a8 bc a7 26 2b 3c
       -0.037954304 -0.1386634 -0.020508297 0.010446227
000380 44 ba da bc 1c fd 34 3e f4 3a 00 be 78 95 41 be
       -0.026700146 0.17674679 -0.12522489 -0.18904674
000390 9c ce 30 3e 0c bd 86 bc 7f 03 5b bc 9d d5 27 3b
       0.17266315 -0.016447566 -0.013367533 0.0025609501
0003a0 f8 ad b6 bc 0e 44 3b 3e e1 8a 14 be f7 a9 4b be
       -0.022299752 0.1828768 -0.14506103 -0.19889055
0003b0 46 39 e1 3d 46 b1 33 be 26 a7 59 3e 4d 13 44 be
       0.10997252 -0.17548093 0.21255168 -0.19147988
0003c0 63 b1 8d bd 8d 39 62 bd 10 c2 e2 3d 47 38 1d bc
       -0.069185995 -0.055230666 0.11072171 -0.009595937
0003d0 7f 65 c7 3d 65 82 a4 bd 66 9c 19 bd 78 e0 25 3d
       0.09736156 -0.08032683 -0.03750267 0.040497273
0003e0 3e 9c a2 3d 98 ad 01 3e a0 a5 ce 3c 19 92 6e 3e
       0.07939957 0.12663877 0.02522546 0.2329792
0003f0 08 19 00 be e2 a3 01 bd 19 d8 63 3d 68 7c 32 bd
       -0.12509549 -0.03165043 0.05562601 -0.043575674

classifier.0.bias f4 [32]
000000 cb 56 87 bd 60 3c d3 3d 77 9a 52 3d af 02 15 3e
       -0.06608351 0.1031425 0.05141684 0.14551805
000010 a1 d0 38 bb f4 96 32 3d 5b 7b cf 3d f0 31 5a 3e
       -0.0028200524 0.04360099 0.1013095 0.21308112
000020 8a 90 d4 3d 1d 8a 77 bd ba 45 b8 3d 5b a4 38 3e
       0.10379131 -0.06043445 0.08997674 0.18031447
000030 76 18 cf 3d f3 2a 02 3e d0 4f 17 3e 6a 53 12 bd
       0.101120874 0.12711696 0.1477654 -0.03572408
000040 96 fb 81 3d e8 08 bd 3d 19 34 13 3e 3c fc 23 39
       0.06346814 0.09230214 0.14375342 0.00015638856
000050 44 7c 2f 3e 39 25 04 be eb 2b 64 3e d2 9b 01 3e
       0.17137247 -0.12904824 0.22282378 0.12657097
000060 8a 63 2e 3c 5e e4 cc bb 4f 91 69 3d 38 35 08 bd
       0.010643849 -0.0062528094 0.057023343 -0.03325388
000070 3a 21 12 3e ab bb 01 be e2 da f0 3d 30 7d 49 3e
       0.14270487 -0.12669246 0.117604986 0.19676661

classifier.2.weight f4 [2, 32]
000000 9b 43 96 be 0b f5 18 be 00 aa 77 be 97 3d 9d 3e
       -0.29348454 -0.14937226 -0.24185944 0.30711052
000010 62 43 ac be f5 40 5e be 4f 69 52 be 3a 79 7b 3e
       -0.3364516 -0.21704467 -0.20547985 0.24557963
000020 2f 95 60 be 3a b8 f7 be 7a a2 a7 3d cb 4a a2 3d
       -0.21931909 -0.4838274 0.08185287 0.07924422
000030 bb 3b 43 bf 1a d9 8a 3e 0b eb 98 3e 35 97 9b be
       -0.76263016 0.2711876 0.29866824 -0.303888
000040 28 34 97 be 37 1c 2a 3e 2c a5 8e 3e 14 a1 86 3e
       -0.2953198 0.16612326 0.2786039 0.26294768
000050 d8 ed 9f 3e 20 a4 ca bd 29 49 91 3e 88 4c 59 be
       0.31236148 -0.098945856 0.2837613 -0.212206
000060 71 1c 9a 3d 1a 78 61 3e 40 76 be 3e 8e c5 cf be
       0.07524956 0.22018471 0.37199593 -0.4058041
000070 bb b3 0f 3e d7 4e 9b 3d 81 4d 0d 3f cf 9c 99 3e
       0.14033405 0.07583397 0.55196387 0.30002448
000080 ac 7e c6 3e a5 e5 8f 3e db c0 5b 3e 86 66 22 bd
       0.38768518 0.28104892 0.21460287 -0.039648555
000090 f0 52 df 3d 6a 30 34 3e 73 ea 9b 3e f9 3a b8 be
       0.10904491 0.17596593 0.30452308 -0.35982493
0000a0 74 b5 a1 3e 11 87 01 3f 53 0c b5 be 06 76 8f be
       0.3158375 0.5059672 -0.35360965 -0.28019732
0000b0 c6 ac 23 3f 8b 86 b8 be 15 fe fd bd bf f0 93 3e
       0.63935506 -0.36040148 -0.12401978 0.28894612
0000c0 a3 6b 07 3e 56 12 6e be 23 7e 91 be 84 de 84 bd
       0.13224654 -0.23249182 -0.28416547 -0.06487754
0000d0 4c b7 2f bd eb 13 f3 bd 5e fb d6 bd 19 9a 80 3e
       -0.042899415 -0.118690334 -0.10497163 0.25117567
0000e0 64 79 4e be 61 fb 58 be 43 a8 77 be 53 82 0e 3e
       -0.20163494 -0.21189643 -0.2418528 0.13916902
0000f0 82 9b 44 be 14 88 f2 3d 2d e1 62 be 7a 06 e2 bd
       -0.19199947 0.11842361 -0.2215621 -0.110363916

classifier.2.bias f4 [2]
000000 4f 29 e0 bd 21 b6 57 3d
       -0.10945379 0.052663926
