src/DARPA/pretrained/models/w10/resampled/phase_5.pth (torch, 194061 bytes, 8 tensors)

lstm.weight_ih_l0 f4 [256, 112]
0	0x3cf26c73	0.029592728
1	0x3e9137c4	0.28362858
2	0x3e17ce07	0.14824687
3	0xbd3d525c	-0.046221122
4	0xbe2558fb	-0.16147225
5	0x3d2f1992	0.042748995
6	0xbcb9a1fb	-0.022660246
7	0x3e1db4d6	0.15401015
8	0x3eddb824	0.4330455
9	0x3e41da12	0.18930843
10	0x3e2d363e	0.16915223
11	0xbd92013e	-0.07129143
12	0x3e8071ab	0.25086722
13	0x3dbb99ce	0.09160195
14	0x3f0b7d78	0.54488325
15	0x3f0a6fca	0.54076827
16	0x3eba0702	0.36333472
17	0x3f78fad6	0.97257745
18	0x3ea9f60a	0.33195525
19	0x3e258602	0.16164401
20	0x3ea3d244	0.31996357
21	0x3daf051e	0.08545898
22	0x3ddfdb80	0.10930538
23	0x3d4f55ad	0.050618816
24	0x3fb2147e	1.3912504
25	0x3e2520ba	0.16125765
26	0xbe759e81	-0.23986246
27	0x3fb377bf	1.4020919
28	0x3d088964	0.03333415
29	0x3d823cda	0.06359263
30	0xbb2d4f5a	-0.0026445002
31	0x3e9e42a7	0.30910227
32	0xbd909713	-0.07060065
33	0xbdbdcd84	-0.092677146
34	0x3e065af3	0.13120632
35	0xbd8f8402	-0.070076
36	0x3e8b6a82	0.27229697
37	0xbdd66777	-0.10468953
38	0x3edaff60	0.4277296
39	0x3e0fc797	0.14040981
40	0xbe12bb17	-0.14329182
41	0x3c2ad081	0.010425688
42	0xbdd4ac7d	-0.10384462
43	0x3eaadb4c	0.33370435
44	0x3e250eef	0.16118978
45	0x3e81ccf3	0.25351676
46	0x3d5f2e93	0.054487776
47	0x3d8c7023	0.06857326
48	0x3d8ba752	0.06819023
49	0xbcc749da	-0.024327207
50	0xbdb67432	-0.08908881
51	0x3cd6d9b4	0.026226856
52	0xbd367add	-0.044550765
53	0x3ee6deee	0.45091957
54	0x3dbd275b	0.09236022
55	0x3cceef3f	0.025260566
56	0x3d881e3c	0.06646392
57	0x3cf7dfda	0.030258108
58	0x3fab24da	1.3370621
59	0x3e50404a	0.20337024
60	0x3e471cbf	0.1944456
61	0x3da58b39	0.08083195
62	0xbd80ba7a	-0.062855676
63	0x3dc49aa9	0.095998116
64	0x3d7e47e0	0.062080264
65	0x3e16f5eb	0.14742248
66	0x3e9a1668	0.3009522
67	0x3f3248c7	0.696423
68	0xbe51fc95	-0.20506509
69	0x3fa49825	1.2858931
70	0x3f4fb022	0.8112813
71	0x3da866d0	0.08222735
72	0x3fa84307	1.3145455
73	0xbc32aa4d	-0.010904861
74	0xbd72677f	-0.059180733
75	0x3d6eb06a	0.05827371
76	0xbcc18d15	-0.023626843
77	0x3c57dad0	0.013174728
78	0xbdf1d737	-0.11808627
79	0x3db5f202	0.0888405
80	0xbd5284b0	-0.051396072
81	0x3d8dc932	0.069231406
82	0x3d626b30	0.055278003
83	0x3f61325f	0.87967485
84	0x3e0ab62b	0.13546054
85	0xbd424484	-0.047428623
86	0x3e55cee3	0.20879702
87	0x3dd39cfc	0.10332677
88	0x3f8a165e	1.0788076
89	0x3d6988d1	0.057015244
90	0x3dcb80a0	0.09936643
91	0x3ddb4fb8	0.107085645
92	0x3fe45e47	1.7841271
93	0x3e3086c0	0.17238903
94	0x3dc0272a	0.0938247
95	0x3fa50421	1.2891885
96	0xbd9a5558	-0.07535809
97	0xbda62bbe	-0.08113812
98	0xbd1e2180	-0.038606167
99	0x3dff432b	0.12463983
100	0x3d0a16c4	0.033713117
101	0xbd8e1731	-0.06938017
102	0x3d26ff11	0.040770594
103	0x3d461ac7	0.04836538
104	0xbe7c04ab	-0.24611156
105	0x3d047860	0.03234136
106	0xbdd417f8	-0.10356134
107	0xbd9ae1c5	-0.07562593
108	0x3c87c4d1	0.016573342
109	0x3eedf667	0.46477053
110	0x3e25986a	0.16171423
111	0xbd43ba43	-0.047785055
112	0x3eaedea2	0.3415423
113	0x3e180816	0.14846835
114	0xbdb238d3	-0.087022446
115	0x3db9cd82	0.09072401
116	0x3ca4b01e	0.02010351
117	0x3d2ac87b	0.0416951
118	0x3d9c1417	0.07621019
119	0x3e09e5d8	0.13466585
120	0x3ca03991	0.0195587
121	0xbe117de2	-0.14208177
122	0x3d8598e8	0.06523305
123	0xbe67f30e	-0.22651312
124	0x3ddba882	0.107255
125	0x3c2f5a35	0.010702659
126	0xbe6d82a2	-0.23194364
127	0xbeb3a9e8	-0.35090566
128	0x3c24f763	0.010068747
129	0xbca49364	-0.020089813
130	0xbe437838	-0.19088829
131	0xbd834f4c	-0.06411609
132	0x3da78960	0.08180499
133	0x3df0dcb1	0.117608435
134	0x3cb81985	0.022473106
135	0x3dc2dadd	0.09514401
136	0xbea653f1	-0.32485917
137	0xbe786670	-0.24257827
138	0x3e34f7c2	0.17672637
139	0xbda7aa56	-0.08186786
140	0x3dc88122	0.09790255
141	0x3e43b2c9	0.1911117
142	0xbd94ebef	-0.07271563
143	0x3e825f7a	0.25463468
144	0xbdae7ce6	-0.08519916
145	0xbd52dc01	-0.051479343
146	0xbda8b013	-0.082367085
147	0x3d1ee09a	0.038788415
148	0xbd9e6771	-0.07734574
149	0x3e82f676	0.2557866
150	0x3e2fc308	0.17164242
151	0xbe6531b8	-0.22382247
152	0x3e0bcfc5	0.13653477
153	0x3d2f328d	0.04277282
154	0xbda12845	-0.07869009
155	0xbdc4ff83	-0.096190475
156	0xbd0d93fa	-0.03456495
157	0x3e03a286	0.12854967
158	0x3d5f65c0	0.054540396
159	0xbd932ac6	-0.07185893
160	0xbd84b1b4	-0.06479207
161	0x3df637c8	0.12022358
162	0x3c2e4cec	0.010638457
163	0xbdae6ac7	-0.0851646
164	0xbd715474	-0.05891843
165	0xbde2235b	-0.110419
166	0x3d33fd4c	0.043942735
167	0xbded1d81	-0.11577893
168	0xbdb239cc	-0.0870243
169	0xbe40d524	-0.18831307
170	0xbca56643	-0.020190364
171	0xbdc4fe8e	-0.09618865
172	0xbd94be87	-0.07262903
173	0x3d8c12f6	0.06839554
174	0xbb8d92f3	-0.004320496
175	0x3d138de3	0.036023986
176	0xbd9c8ed4	-0.0764443
177	0x3ddec9cd	0.10878334
178	0x3e107221	0.14106037
179	0x3e7a034c	0.2441532
180	0xbe4a4b6e	-0.19755337
181	0xbe73109c	-0.23736805
182	0x3f12e968	0.573874
183	0x3ceb94a9	0.02875741
184	0xbe5d31eb	-0.21601073
185	0xbd64dedd	-0.0558766
186	0xbdecb938	-0.11558765
187	0xbcc9eca5	-0.024648974
188	0x3d78d616	0.060751043
189	0x3d7588d4	0.059944943
190	0x3d5f7607	0.05455592
191	0x3e43a4cf	0.19105838
192	0xbd17c8ca	-0.03705672
193	0x3d97516c	0.07388577
194	0x3dd60558	0.10450238
195	0x3e5071cb	0.20355909
196	0x3de338b0	0.11094797
197	0x3c400640	0.01172024
198	0x3dda549b	0.106606685
199	0xbdf292a2	-0.11844374
200	0x3ecc4d4c	0.39902723
201	0xbd9b8893	-0.07594409
202	0xbdaf631d	-0.08563826
203	0x3c935f70	0.017989844
204	0x3e88b7e1	0.26702788
205	0x3e40dfde	0.18835399
206	0x3d8afa45	0.067860164
207	0xbd8e8315	-0.06958596
208	0x3d247f78	0.040160626
209	0xbd1844bb	-0.03717492
210	0x3decf1b0	0.11569536
211	0xbdca2a82	-0.09871389
212	0x3d22a2c0	0.03970599
213	0xbd573678	-0.05254218
214	0xbd7d9fd9	-0.06192002
215	0x3dcd04e8	0.100107014
216	0x3ec6e4ac	0.38846338
217	0x3d856e00	0.065151215
218	0xbd5bbab3	-0.053644847
219	0x3dec23d4	0.11530271
220	0xbd9ba818	-0.07600421
221	0x3d29ac70	0.041424215
222	0xbd44d088	-0.048050433
223	0xbd5ab1f5	-0.05339237
224	0x3f1447d3	0.57922095
225	0x3e8fb6c5	0.2806913
226	0x3de272b9	0.11057038
227	0x3d9659e0	0.07341361
228	0x3e99286b	0.2991365
229	0x3e4a0b9a	0.19730988
230	0x3e8f0289	0.27931622
231	0x3d47ce95	0.048780996
232	0x3e5bd390	0.21467423
233	0xbd2059fb	-0.039148312
234	0x3e08e258	0.13367593
235	0xbdc08ab8	-0.094014585
236	0x3d4a6d8a	0.04942087
237	0xbbd1d60b	-0.0064036897
238	0xbd5ffe48	-0.05468586
239	0x3d9b3a09	0.07579429
240	0x3e322b39	0.173993
241	0x3e880c3e	0.2657184
242	0xbbc8cd82	-0.006128014
243	0xbccffcfb	-0.025389185
244	0x3d952358	0.07282132
245	0x3e777398	0.2416519
246	0x3deff247	0.117161326
247	0x3d097b19	0.03356466
248	0xbdc82536	-0.097727224
249	0xbe3293aa	-0.17439142
250	0x3ec8ce88	0.3922007
251	0x3dfa8629	0.1223262
252	0x3e6c78ec	0.23093003
253	0x3ef92e09	0.48667935
254	0x3cfb6577	0.03068803
255	0x3dd4da51	0.10393203

lstm.weight_hh_l0 f4 [256, 64]
0	0x3e41f5b5	0.18941386
1	0xbd318b5a	-0.043345787
2	0x3d88b598	0.06675261
3	0x3c5fda9a	0.0136629585
4	0x3d4eba76	0.05047079
5	0x3c9f77a4	0.019466229
6	0xbd0838c6	-0.03325727
7	0xbe08e722	-0.1336942
8	0x3daa34ae	0.08310829
9	0xbd86fc87	-0.065911345
10	0x3d032256	0.032015167
11	0xbdecc92f	-0.1156181
12	0x3d87c9ab	0.06630262
13	0xbe5139d9	-0.20432223
14	0x3d6d6b97	0.057963934
15	0xbdc705ca	-0.09717901
16	0xbd01a01e	-0.03164684
17	0x3d25a0c4	0.04043652
18	0xbbe8388c	-0.007086819
19	0xbe7af364	-0.24506909
20	0xbd6fcbb6	-0.058543883
21	0xbd3c6d00	-0.046002388
22	0x3e9c3bc5	0.3051435
23	0xbda5417a	-0.08069129
24	0x3d6c68dc	0.05771719
25	0xbbbe3b7f	-0.0058054323
26	0x3dadec59	0.08492345
27	0xbc9ec957	-0.019383116
28	0x3d4d79c1	0.05016494
29	0xbd26e4a3	-0.04074539
30	0xbd1f7d07	-0.038937595
31	0xbda2aa41	-0.079426296
32	0x3e577da4	0.21044022
33	0xbdaf83d2	-0.085700646
34	0x3ca8ec86	0.020620596
35	0x3e449f4f	0.19201396
36	0xbafc7fbb	-0.0019264141
37	0x3deccdfc	0.11562726
38	0xbc83d5c3	-0.01609314
39	0x3e103547	0.14082824
40	0xbcf60194	-0.03003005
41	0xbe822b26	-0.25423545
42	0xbe17ee6b	-0.14837043
43	0x3de37644	0.11106542
44	0xbd4fa7fa	-0.050697304
45	0x3cf377b0	0.029720157
46	0x3e4d0b07	0.20023738
47	0x3c938ca4	0.018011399
48	0x3e89b269	0.2689393
49	0x3e1283bf	0.1430807
50	0x3dadc55c	0.08484909
51	0xbdd0b47a	-0.10190673
52	0xbe3b0c96	-0.1826652
53	0xbdfed883	-0.1244364
54	0x3dbf1482	0.093300834
55	0x3d19395a	0.03740821
56	0x3c52b3e7	0.012860275
57	0x3d722416	0.059116445
58	0x3ca249d7	0.0198106
59	0xbd2580ed	-0.040406156
60	0x3d893d94	0.06701198
61	0x3cc3289f	0.02382308
62	0xbc6a8d93	-0.0143159805
63	0xbd8da01f	-0.06915306
64	0xbdbd4ffd	-0.09243772
65	0xbd601c8e	-0.054714732
66	0xbd89aab7	-0.067220144
67	0x3e253f17	0.16137348
68	0xbd42569d	-0.047445882
69	0x3d0f9919	0.035058115
70	0x3dbbe775	0.09175006
71	0x3da3180e	0.079635724
72	0xbd90a540	-0.07062769
73	0xbd73c0c9	-0.059510026
74	0xbdc24e08	-0.094875395
75	0xbd548c2d	-0.051891495
76	0x3db65d2a	0.089044884
77	0xbd759ebb	-0.05996583
78	0x3d8e92ee	0.06961618
79	0x3c0cb7b3	0.008588719
80	0xbc315c7a	-0.010825271
81	0xbe18f747	-0.14938079
82	0x3dc12a46	0.09431891
83	0x3d521a04	0.05129434
84	0xbd184c90	-0.03718239
85	0xbc1e7ee3	-0.009673807
86	0x3d5110d3	0.051041435
87	0x3d914b64	0.07094458
88	0xbd0444c2	-0.032292135
89	0xbdb50cc6	-0.08840327
90	0xbd468a17	-0.048471536
91	0xbd511c78	-0.05105254
92	0x3c9b7b92	0.018979821
93	0xbc6e6c71	-0.014552222
94	0xbda70761	-0.08155704
95	0x3df121f4	0.11774054
96	0xbcb9f7f6	-0.022701245
97	0xbc9e1579	-0.019297348
98	0xbc76f6f1	-0.015073524
99	0xbdc190e0	-0.09451461
100	0x386e5fa2	5.6832687e-05
101	0xbb9895c2	-0.0046565244
102	0xbdc550d2	-0.09634556
103	0xbe206bdd	-0.15666147
104	0x3da2a0cc	0.07940826
105	0x3ce4cc7f	0.027929543
106	0x3def2f67	0.11678963
107	0x3db170c6	0.08664088
108	0x3d2376ae	0.039908104
109	0x3e2e215c	0.17004913
110	0xbdf0b3b9	-0.117530294
111	0x3c9a2e99	0.018821048
112	0xbe1eaadd	-0.15494867
113	0xbe43e7c6	-0.19131383
114	0x3cb0a237	0.021561725
115	0x3bc9c310	0.0061572865
116	0xbdba5d26	-0.09099798
117	0xbc1652bc	-0.009174999
118	0xbd68b6b7	-0.056814875
119	0xbdd913d1	-0.10599483
120	0xbd39e3ba	-0.045383193
121	0x3d82bc31	0.06383551
122	0xbe517a8d	-0.20456906
123	0xbd8f2639	-0.06989712
124	0xbd04ecaf	-0.03245228
125	0x3d615933	0.055016708
126	0xbd912e92	-0.07088961
127	0x3d7d18ad	0.06179111
128	0xbdeb3397	-0.11484449
129	0x3de93940	0.11387873
130	0xbc6b3788	-0.014356501
131	0xbdded5f4	-0.10880652
132	0x3d9f2766	0.077711865
133	0x3d7121f4	0.05887027
134	0xbdbe9973	-0.09306612
135	0x3d920bff	0.07131194
136	0xbd9b776e	-0.07591139
137	0x3debd964	0.11516073
138	0x3ddec958	0.10878247
139	0xbb1f65df	-0.0024322195
140	0xbd95cef1	-0.073148616
141	0xbd3d291d	-0.046181787
142	0x3d3dd2f7	0.04634377
143	0xbd08fcd7	-0.033444252
144	0xbe1c6299	-0.15271987
145	0xbc564d67	-0.013079978
146	0xbd9102c2	-0.07080604
147	0x3ddcdb1c	0.10783979
148	0xbd95481d	-0.07289145
149	0x3d2c35f6	0.04204365
150	0xbe280f77	-0.1641215
151	0x3d5d968b	0.054098647
152	0xbd70bd57	-0.05877432
153	0x3c2f16d4	0.010686595
154	0xbdbcd7a4	-0.09220818
155	0xbda06ddc	-0.07833454
156	0x3dcb2e6c	0.09920964
157	0xbd8cfcfe	-0.06884192
158	0x3d3552ec	0.044268534
159	0x3c1c1131	0.009525583
160	0x3ca7209e	0.020401295
161	0xbaf6f022	-0.0018839876
162	0xbde18c89	-0.11013133
163	0xbdeb6a78	-0.11494917
164	0x3e7bc19a	0.24585572
165	0xbe2a1890	-0.16610932
166	0x3d325044	0.04353358
167	0xbdd5fc59	-0.10448522
168	0xbc969c9a	-0.01838522
169	0x3c9d3531	0.019190403
170	0x3d19f615	0.037588198
171	0x3db069c5	0.08613924
172	0xbc0eb320	-0.008709699
173	0x3e66601c	0.224976
174	0xbe0009b9	-0.12503709
175	0xbbb17f92	-0.005416819
176	0xbdfd69cb	-0.12373694
177	0xbddad866	-0.10685806
178	0xbd4f2c6c	-0.050579473
179	0x3c1927b6	0.009347847
180	0xbd4c72a0	-0.049914002
181	0xbb882e3f	-0.0041559036
182	0xbd942577	-0.07233708
183	0xbdd7e69a	-0.10542031
184	0xbe2fc23e	-0.17163941
185	0x3e1757f8	0.14779651
186	0xbdc29c97	-0.095025234
187	0xbb4c1e69	-0.0031146056
188	0xbd8a29ec	-0.06746277
189	0x3dd42760	0.10359073
190	0x3dbd4009	0.09240729
191	0x3cf98d7d	0.030462975
192	0xbc7f9813	-0.015600222
193	0xbd89528c	-0.06705198
194	0xbd11cc76	-0.03559538
195	0x3cedf458	0.029047176
196	0x3b5875aa	0.0033029118
197	0xbd2ee0d0	-0.042694867
198	0x3dda7799	0.10667343
199	0x3d73d0c1	0.059525255
200	0xbb0531fc	-0.0020323982
201	0xbc6d4e1a	-0.014483953
202	0x3e097c62	0.13426355
203	0x3dbb75f8	0.0915336
204	0xbe289721	-0.16463901
205	0x3e1f27c3	0.15542512
206	0xbd5369e9	-0.051614676
207	0x3c56312e	0.013073249
208	0xbe14ab03	-0.14518361
209	0x3ca6f4e2	0.020380441
210	0x3bee0b8e	0.007264561
211	0x3c69c0e5	0.014267181
212	0x3dfecbae	0.124411926
213	0x3e359f02	0.17736438
214	0x3a99363b	0.0011689136
215	0xbd416250	-0.0472129
216	0x3e06ccc0	0.13164043
217	0x3d07525b	0.033037525
218	0xbdfd4445	-0.12366537
219	0x3dcd61df	0.10028433
220	0xbd83ecc4	-0.06441644
221	0xbddf2024	-0.10894802
222	0x3da6cc19	0.08144397
223	0x3dc70eda	0.097196296
224	0xbc8a90ce	-0.016914751
225	0xbca14138	-0.019684419
226	0xbce01509	-0.02735378
227	0x3cf9c6d1	0.03049031
228	0xbd531444	-0.051533
229	0x3d92e124	0.071718484
230	0xbe1c5898	-0.15268171
231	0xbdac2741	-0.084059246
232	0xbd71b459	-0.059009884
233	0x3d4d3ca8	0.050106674
234	0xbd1b498c	-0.037911937
235	0x3df87d45	0.12133268
236	0x3d166306	0.03671553
237	0x3e134fda	0.1438593
238	0x3c4bc53f	0.012437164
239	0xbd841fc0	-0.06451368
240	0xbd261bbc	-0.040553793
241	0xbe0c7bac	-0.13719052
242	0xbe345a60	-0.176126
243	0xbdb5f0d5	-0.08883826
244	0x3e1582ca	0.14600673
245	0x3c9f4075	0.019439915
246	0x3de49c69	0.11162645
247	0xbe12d0d7	-0.14337479
248	0x3d569b04	0.05239393
249	0x3ee322a6	0.44362372
250	0x3c89b2e4	0.016808935
251	0x3d4c412f	0.04986685
252	0x3e1706ce	0.1474869
253	0x3ca806a4	0.020510979
254	0xbc3b3ff4	-0.011428822
255	0x3de139de	0.109973654

lstm.bias_ih_l0 f4 [256]
0	0x3e0e3fe3	0.13891558
1	0xbdd0d844	-0.101974994
2	0xbd166a8d	-0.03672271
3	0xbe4f0321	-0.20216037
4	0x3d89467d	0.06702898
5	0xbdcaf6b7	-0.09910338
6	0xbe0a48af	-0.13504289
7	0x3e5b7e39	0.21434869
8	0x3c3f4124	0.011673246
9	0x3ce0fe8c	0.027465127
10	0xbd6307fa	-0.05542753
11	0x3e0cca57	0.13749062
12	0x3e1f6dd0	0.15569234
13	0x3e0dedcb	0.13860242
14	0x3d311a46	0.043237947
15	0x3d69faa0	0.05712378
16	0x3d2a7859	0.04161868
17	0x3e577277	0.21039759
18	0x3dca3717	0.09873789
19	0x3e236f53	0.15960436
20	0x3dd2e172	0.102969065
21	0xbe08adef	-0.133476
22	0xbb45c133	-0.003017497
23	0xbb8e4724	-0.0043419767
24	0x3e28b5ac	0.16475552
25	0x3d80ab86	0.062827155
26	0x3a7fe030	0.00097608846
27	0x3d112cf6	0.03544327
28	0xbc836fcd	-0.016044522
29	0x3db5f672	0.08884896
30	0x3c9c4d9a	0.019079972
31	0x3d6df18f	0.058091696
32	0xbc82a63f	-0.015948413
33	0xbdf014c8	-0.11722714
34	0x3e1094c4	0.1411925
35	0xbc9bab47	-0.01900257
36	0xbd9edf69	-0.07757456
37	0x3e4fadfc	0.20281214
38	0xbc5fb6d1	-0.013654427
39	0x3d754c4d	0.05988722
40	0x3cbc14d0	0.022959143
41	0x3d6ce523	0.05783571
42	0xbd8d6f03	-0.069059394
43	0x3d859bea	0.06523879
44	0x3df3cb46	0.11904006
45	0x3c16a804	0.0091953315
46	0x3dd35c0b	0.1032029
47	0x3dac569a	0.084149554
48	0x3e938b25	0.28817096
49	0x3df6a41c	0.1204302
50	0x3ded2f45	0.115812816
51	0xbe15107c	-0.1455707
52	0x3d384859	0.04499087
53	0x3e2765ad	0.1634738
54	0xbdfcabe6	-0.123374745
55	0x3e04f0c9	0.12982477
56	0x3d3bd496	0.045857035
57	0x3da2c02a	0.07946809
58	0xbdb937fe	-0.09043883
59	0x3bab59b9	0.0052292016
60	0xbd79ce17	-0.06098756
61	0xbd9182dc	-0.071050376
62	0xbdc825e1	-0.0977285
63	0x3cb8429c	0.0224927
64	0x3dbf0194	0.09326473
65	0xbe04fc8e	-0.12986967
66	0xbdb4b777	-0.08824056
67	0xbe565335	-0.20930178
68	0xbde73195	-0.11288754
69	0xbda81d81	-0.082087524
70	0xbd8e577b	-0.06950279
71	0x3e02696d	0.12735529
72	0xbe442208	-0.19153607
73	0xbcb3c357	-0.021943731
74	0x3d57dac7	0.052698877
75	0x3dd2343e	0.10263871
76	0xbd2e15cc	-0.042501256
77	0x3e609cfd	0.21934886
78	0x3dfb1dde	0.12261556
79	0x3da21d12	0.07915701
80	0xbce02a91	-0.027364047
81	0x3d8075c1	0.0627246
82	0xbdea61f6	-0.11444466
83	0x3dc9d503	0.09855082
84	0xbe0678f3	-0.13132076
85	0x3b87d010	0.004144676
86	0xbe1fe2d7	-0.15613876
87	0xbe2b6ae1	-0.1673999
88	0x3e78f27d	0.24311252
89	0xbe161371	-0.14655854
90	0x3ba39b2a	0.004992862
91	0x3d57759c	0.052602395
92	0xbdaccc64	-0.08437422
93	0x3de53f6e	0.11193739
94	0x3d923ad0	0.07140124
95	0xbe0877ff	-0.13327025
96	0xbe1e1386	-0.15437135
97	0xbc8d540e	-0.017251994
98	0xbe37b488	-0.17939961
99	0x3d962cc5	0.07332758
100	0xbe3e06ed	-0.1855733
101	0xbe0d195c	-0.13779205
102	0xbdd5a43b	-0.10431715
103	0x3e3e8c2e	0.18608162
104	0xbda6c044	-0.081421405
105	0x3e721791	0.23641802
106	0xbdd04974	-0.1017026
107	0xb9a45d0b	-0.0003134984
108	0xbd152e72	-0.036421247
109	0xbe116931	-0.14200284
110	0x3d843c54	0.06456819
111	0xbda28f6e	-0.07937513
112	0x3d2d01f7	0.042238202
113	0x3de24069	0.110474415
114	0x3e51a017	0.20471226
115	0x3cf08ef8	0.029365048
116	0x3e7e0729	0.24807419
117	0xbce8847d	-0.028383488
118	0xbd7cef71	-0.061751787
119	0xbd22f490	-0.039784014
120	0xbe084d25	-0.13310678
121	0x3d4cae5b	0.049970966
122	0xbba2c2c8	-0.0049670674
123	0x3c540cc9	0.012942501
124	0xbcc0f865	-0.023555944
125	0x3dc52b30	0.09627378
126	0xbe19e50d	-0.15028782
127	0xbe3bd378	-0.18342388
128	0x3e2b8cca	0.16752926
129	0x3dc06d44	0.09395841
130	0xbde952c2	-0.11392738
131	0xbcc43add	-0.02395385
132	0x3d876b1b	0.066122256
133	0xbbf22a4d	-0.0073902966
134	0xbe0f35c3	-0.13985352
135	0x3d22c494	0.039738253
136	0x3d506949	0.050881658
137	0xbdd74e86	-0.10513024
138	0x3dea0917	0.11427515
139	0xbe270d2e	-0.16313621
140	0xbd839a55	-0.06425921
141	0xbd553571	-0.05205292
142	0x3d64d40f	0.055866297
143	0x3df4349b	0.11924096
144	0xbe2ed78e	-0.17074415
145	0x3beb39eb	0.007178535
146	0xbcf05d68	-0.029341415
147	0x3d7e1524	0.06203188
148	0xbd8e4899	-0.06947441
149	0x3d3e2542	0.04642225
150	0x3e065355	0.13117726
151	0xbc5eaeea	-0.013591507
152	0xbdd17a68	-0.10228425
153	0xbd043a20	-0.032281995
154	0x3d38132b	0.044940155
155	0x3d28d5d6	0.041219555
156	0xbd2135b8	-0.03935787
157	0xbce20e9c	-0.027594857
158	0xbe0e9129	-0.13922562
159	0x3dfc2249	0.12311227
160	0xbdc1064b	-0.094250284
161	0xbe2e3177	-0.17011057
162	0x3de6d703	0.11271479
163	0x3db628ac	0.08894476
164	0xbda3ea15	-0.08003632
165	0xbe049877	-0.12948786
166	0x3df4c3d4	0.11951414
167	0x3e328c8d	0.17436428
168	0xbd6d2446	-0.05789592
169	0x3d4fde42	0.05074907
170	0x3d1d6845	0.038429517
171	0xbdd1934e	-0.10233174
172	0x3dba7622	0.09104563
173	0x3d2ea31d	0.042636026
174	0xbddee757	-0.10883968
175	0x3d721377	0.059100594
176	0x3e23efc0	0.16009426
177	0x3df4e899	0.11958427
178	0x3d904bc1	0.07045699
179	0x3e004f14	0.12530166
180	0xbcfcdd87	-0.030867351
181	0xbde7d60f	-0.11320125
182	0xbe060744	-0.13088709
183	0x3c708cd8	0.014682017
184	0xbe1ffd2a	-0.15623918
185	0x3e3fedec	0.18743104
186	0x3e0ce44c	0.13758963
187	0x3dc0d1c1	0.094150074
188	0xbe17faa3	-0.14841704
189	0xbded9e5b	-0.116024695
190	0xbd353741	-0.044242147
191	0x3d89c4f7	0.06727021
192	0xbcbcb13e	-0.023033734
193	0xbdf6f048	-0.12057549
194	0xbd962fb3	-0.07333317
195	0xbe27b5ee	-0.16377994
196	0xbe58793d	-0.21139999
197	0xbe383e73	-0.17992572
198	0xbe55b3e4	-0.20869404
199	0xbdb49a7e	-0.088185295
200	0x3d90ee53	0.07076707
201	0xbd684bad	-0.056712795
202	0xbd6e075b	-0.058112483
203	0xbd19d4c8	-0.03755644
204	0xbe26976a	-0.16268697
205	0xbd688c50	-0.056774437
206	0xbe1cfff6	-0.15332016
207	0xbd645531	-0.055745307
208	0x3e613ccb	0.21995847
209	0x3e420891	0.1894858
210	0xbe86c953	-0.26325473
211	0x3da6b22c	0.08139452
212	0xbdc3d52f	-0.09562146
213	0xbd93a15d	-0.07208512
214	0xbddfd959	-0.10930128
215	0xbacbd251	-0.001555035
216	0x3e1c4258	0.15259683
217	0xbe69ab26	-0.22819194
218	0xbe2f01bc	-0.17090505
219	0xbe804280	-0.25050735
220	0xbdfad3b7	-0.12247413
221	0xbdfde3de	-0.12396978
222	0xbe0c1d29	-0.13682999
223	0xbd8349be	-0.064105496
224	0x3da29361	0.079382665
225	0xbe38ad16	-0.18034777
226	0xbe154a71	-0.14579178
227	0xbe18773e	-0.14889237
228	0xbe5b962b	-0.21444003
229	0xbe2da83f	-0.16958712
230	0xbe11368d	-0.14180966
231	0x3e1a526f	0.15070508
232	0xbe203c0d	-0.15647908
233	0xbe48bc74	-0.19603139
234	0xbe31f48c	-0.17378443
235	0xbdb7c950	-0.08973944
236	0xbe094224	-0.13404137
237	0xbe81de37	-0.2536485
238	0xbdda3631	-0.106548674
239	0x3d50c03b	0.050964575
240	0x3dbb4dd6	0.091457054
241	0x3ba9d86e	0.005183271
242	0xbdeb7ffd	-0.11499021
243	0xbe33582f	-0.17514108
244	0x3d3b5e40	0.04574418
245	0x3e186eef	0.14886068
246	0xbe06da03	-0.13169102
247	0xbe3bbea5	-0.18334444
248	0xbe6e6632	-0.23281172
249	0xbcd58471	-0.02606413
250	0xbe5352a8	-0.20637
251	0xbce54e47	-0.027991427
252	0xbdf9020b	-0.12158593
253	0xbe58ed9a	-0.21184388
254	0xbe571ea7	-0.21007787
255	0xbe810b96	-0.25204152

lstm.bias_hh_l0 f4 [256]
0	0x3b8d86a4	0.004319029
1	0xbdb0d3d9	-0.08634157
2	0xbd9601e7	-0.073245816
3	0xbdf33cf2	-0.11876859
4	0x3e6a37c3	0.22872834
5	0x3cdd8ae6	0.027043771
6	0x3d888b2b	0.06667169
7	0x3e7aa595	0.24477227
8	0x3d381655	0.044943172
9	0x3d6eb334	0.05827637
10	0xbc874768	-0.016513541
11	0x3e04020d	0.12891407
12	0x3dcec39e	0.10095905
13	0x3d94ae8b	0.07259854
14	0x3e12b17d	0.14325519
15	0x3e096582	0.13417628
16	0x3db311a0	0.08743596
17	0x3dbf59c1	0.09343291
18	0xbccbf736	-0.024898153
19	0x3e2a7575	0.16646369
20	0xbda86dda	-0.082240775
21	0xbe124dbf	-0.1428747
22	0x3d0fbace	0.03509026
23	0xbb2a3ace	-0.0025974992
24	0x3e596d7c	0.21233171
25	0xbd981ae5	-0.07427005
26	0x3e07bf8d	0.13256665
27	0x3e20eadf	0.15714596
28	0xbd60e166	-0.054902457
29	0xbc6750bb	-0.014118369
30	0xbd8e94ed	-0.06961999
31	0xbd4ff7c9	-0.050773416
32	0x3cd4b385	0.025964508
33	0x3d56bacb	0.052424233
34	0xbd88b2c4	-0.06674722
35	0x3dd8caf0	0.10585582
36	0x3d734fc2	0.059402235
37	0x3e1508a1	0.14554073
38	0xbe356bbb	-0.17716877
39	0x3e2c4e2d	0.16826697
40	0x3d300b7f	0.042979714
41	0xbd119abb	-0.035547953
42	0x3d45be50	0.0482772
43	0x3d940bba	0.07228799
44	0x3d8a21d9	0.06744737
45	0x3d3cf8c1	0.046135668
46	0xbd68f199	-0.05687103
47	0x3e413024	0.1886602
48	0x3e82ada0	0.2552309
49	0x3e4361d2	0.19080284
50	0x3e09f91f	0.13473938
51	0x3d5eda66	0.0544075
52	0x3d3e6828	0.04648605
53	0x3d768c6a	0.060192503
54	0x3d69ab26	0.057047985
55	0x3e183f3f	0.14867876
56	0x3cfb97a4	0.030711956
57	0xbbb1be7e	-0.0054243198
58	0xbe0155e3	-0.1263042
59	0xbe13824d	-0.14405175
60	0xbdf24623	-0.11829784
61	0xbb31236e	-0.0027029174
62	0x3d124e18	0.035719007
63	0x3d22d5e8	0.03975478
64	0x3e02403c	0.12719816
65	0x3bf3d867	0.0074415687
66	0xbe071fb4	-0.13195688
67	0xbd2bb7fb	-0.041923504
68	0xbe53605e	-0.2064223
69	0xbdf198ac	-0.11796698
70	0x3d80f577	0.06296819
71	0x3dcfd5e0	0.10148215
72	0xbe1cce9c	-0.1531319
73	0x3ce2874d	0.027652407
74	0xbd3a567b	-0.04549263
75	0xbd39432c	-0.045230076
76	0xbd5f4cd2	-0.05451662
77	0x3e5c0086	0.21484575
78	0x3e0efdd4	0.13964015
79	0xbc80f77d	-0.015743012
80	0x3e18e8ee	0.14932606
81	0x3dd5e339	0.1044373
82	0x3c59fc51	0.013304786
83	0x3d900dcc	0.070338815
84	0x3c18ed04	0.009333853
85	0x3ced190c	0.028942607
86	0xbdbfc56b	-0.09363826
87	0xbcbf8e2e	-0.023383226
88	0x3e273dbb	0.16332142
89	0xbde81fa3	-0.11334159
90	0xbdb2ea2e	-0.087360725
91	0xbdcfe53a	-0.10151143
92	0xbd24023d	-0.040041197
93	0x3ce10d76	0.027472239
94	0xbdcc34ce	-0.09971009
95	0xbdf95f8f	-0.121764295
96	0xbdc1759a	-0.09446259
97	0xbd5f81d8	-0.054567188
98	0xbd4595a8	-0.048238426
99	0x3d5bb31c	0.05363761
100	0x3ab1b30d	0.001355739
101	0x3b3a91e6	0.002846831
102	0xbe3fe9ff	-0.18741606
103	0x3c2a63ec	0.0103998
104	0xbe04760d	-0.12935658
105	0x3e62212f	0.22082971
106	0xbe4c1f65	-0.19933851
107	0xbb4bd659	-0.0031103103
108	0x3da35ccd	0.07976685
109	0xbd67e68c	-0.05661635
110	0xbc65d002	-0.014026644
111	0xbb8e2ff0	-0.0043392107
112	0x3dbf3a88	0.09337336
113	0xbd794a11	-0.06086165
114	0x3d92310d	0.07138262
115	0xbdbf5235	-0.093418516
116	0x3e94a715	0.29033723
117	0x3da8bccb	0.082391344
118	0xbdd03538	-0.10166401
119	0xbd93ec89	-0.0722285
120	0x3cc5d017	0.024147077
121	0xbd992453	-0.074776314
122	0xbd01cc2d	-0.031688858
123	0xbd8600fb	-0.06543156
124	0xbe230898	-0.15921247
125	0xbd1b7240	-0.037950754
126	0xbe2be946	-0.16788206
127	0xbe14cb5e	-0.14530703
128	0x3db4272b	0.08796533
129	0x3bbb8629	0.0057227802
130	0xbe2cdf14	-0.16881973
131	0x3d7bbfe4	0.061462298
132	0xbc0971f9	-0.00838899
133	0x3d011ecd	0.031523515
134	0xbe185ced	-0.14879198
135	0xbdc82bb2	-0.09773959
136	0xbd06887d	-0.03284501
137	0xbe1591a4	-0.14606339
138	0x3e4a2076	0.19738945
139	0xbd6136a4	-0.05498375
140	0xbb00f23f	-0.001967564
141	0xbcb35d86	-0.021895181
142	0xbdb79daf	-0.08965623
143	0x3e100a8b	0.14066522
144	0xbd4c2110	-0.04983622
145	0xbc7d4d30	-0.015460297
146	0xbe41a649	-0.18911089
147	0xbd748cf6	-0.059704743
148	0xbd6fa777	-0.058509316
149	0x3e00597b	0.12534134
150	0x3e0799d0	0.13242269
151	0xbce709b2	-0.028202865
152	0xbd7644f0	-0.060124338
153	0xbd26c1a4	-0.040712014
154	0x3d71e1df	0.059053298
155	0xbd91950d	-0.07108507
156	0xbe3ad962	-0.18246987
157	0xbc9c6418	-0.019090697
158	0x3c0728f1	0.008249507
159	0x3cbdebad	0.023183668
160	0x3cdb8e35	0.026801208
161	0xbdd0f68a	-0.102032736
162	0x3da7839d	0.081794
163	0xbcaf1fea	-0.021377522
164	0xbd8a851b	-0.06763669
165	0xbd7e232c	-0.06204526
166	0xbd26502f	-0.040603813
167	0x3d0067d6	0.031349026
168	0x3d72b79e	0.059257142
169	0xbca12029	-0.019668655
170	0x3bb3a8ff	0.0054827924
171	0xbcef52a5	-0.029214213
172	0xbd3c07ce	-0.04590588
173	0xbc9663af	-0.01835808
174	0xbe418ace	-0.18900606
175	0x3d850180	0.06494427
176	0xbc5c6e51	-0.013454036
177	0xbcdcc936	-0.026951414
178	0x3bc2bbaa	0.0059427815
179	0xbcc2c603	-0.02377606
180	0x3d1e322c	0.038622066
181	0xbd0d6abb	-0.034525614
182	0xbd86c7ad	-0.06581054
183	0xbcc063b3	-0.02348504
184	0xbe157d67	-0.14598618
185	0x3dbb0bcd	0.0913311
186	0xbd113559	-0.035451267
187	0x3d360878	0.04444167
188	0xbdf6aafb	-0.12044331
189	0xbd0218a0	-0.031761765
190	0xbe1ee933	-0.15518646
191	0xbd29697e	-0.04136037
192	0x3e3601e0	0.17774153
193	0xbdfe929c	-0.12430307
194	0xbd8e87e5	-0.069595136
195	0xbe802087	-0.25024816
196	0xbe09306b	-0.13397376
197	0xbd8de3e5	-0.06928233
198	0xbe044dcd	-0.12920304
199	0x3e184b14	0.1487239
200	0x3d4ff9f3	0.05077548
201	0xbe0514c8	-0.12996209
202	0xbe2c6a9e	-0.16837546
203	0xbb193617	-0.0023378187
204	0xbd5364c8	-0.051609784
205	0x3e40e4ba	0.18837252
206	0xbe3cb808	-0.18429577
207	0x3d8999b2	0.06718768
208	0x3e516de9	0.20452084
209	0x3db20f57	0.08694332
210	0xbcfe5551	-0.031046541
211	0x3c15a74c	0.009134125
212	0xbe0fef7b	-0.14056198
213	0x3c79c574	0.01524483
214	0xbd499106	-0.04921057
215	0xbe16e7b8	-0.14736831
216	0x3dee662b	0.11640581
217	0xbdf1f2a4	-0.11813858
218	0xbe68209a	-0.22668687
219	0xbe420c15	-0.18949921
220	0xbdd1853f	-0.10230493
221	0x3d4d6baa	0.050151505
222	0xbda9ecc1	-0.0829711
223	0xbe41d315	-0.18928178
224	0xbcb90f33	-0.022590255
225	0x3bc5ba83	0.006034197
226	0xbe1fb7d3	-0.15597467
227	0xbe1335f9	-0.14376058
228	0xbd55f589	-0.052236114
229	0xbd3f8cb1	-0.046765033
230	0xbe336471	-0.17518784
231	0xbc94b9e2	-0.018155042
232	0xbe1b51b3	-0.15167885
233	0xbe49f0b2	-0.19720724
234	0xbe3e9c3c	-0.18614286
235	0xbd9daa0d	-0.0769845
236	0xbd7fd0f9	-0.06245515
237	0xbe0662d2	-0.13123634
238	0xbdc8b90d	-0.09800921
239	0xbdb0beb3	-0.08630123
240	0x3e1f5017	0.15557896
241	0xbe30c012	-0.17260769
242	0xbd3e405b	-0.046448093
243	0xbde9807b	-0.11401459
244	0x3e0f55be	0.13997552
245	0x3e46a150	0.19397473
246	0xbde1eca5	-0.110314645
247	0xbdc37a64	-0.095448285
248	0xbd9415d7	-0.07230728
249	0xbda88fdf	-0.08230566
250	0xbddbbb56	-0.10729091
251	0xbd0fdac3	-0.035120737
252	0xbe37bb58	-0.1794256
253	0xbda92553	-0.08259072
254	0xbd88eb40	-0.066854954
255	0xbe1a4e63	-0.15068965

classifier.0.weight f4 [32, 64]
0	0xbd768480	-0.060184956
1	0xbdff55c4	-0.1246753
2	0xbd1b48ef	-0.03791135
3	0xbda486a5	-0.08033494
4	0x3c559c69	0.013037779
5	0x3dbfb7b9	0.09361214
6	0x3e1148bf	0.14187907
7	0x3daa92b1	0.083287604
8	0xbbc2e0c2	-0.0059472034
9	0xbdbd89f3	-0.09254827
10	0x3bb8b640	0.0056369603
11	0x3e1008c9	0.14065851
12	0x3ddeef5b	0.10885497
13	0xbd01974d	-0.031638432
14	0x3af9b814	0.0019052052
15	0xbd996798	-0.07490462
16	0x3c4afbbe	0.012389122
17	0xbd2c3620	-0.042043805
18	0x3dd86706	0.10566525
19	0x3d3e2452	0.046421356
20	0xbc0b01ba	-0.008484298
21	0xbe155a21	-0.14585163
22	0x3d280ece	0.041029744
23	0x3c8bd07a	0.017067183
24	0xbcc51d2a	-0.024061758
25	0x3dacae29	0.08431656
26	0xba966d0e	-0.0011476593
27	0x3e1b7f81	0.15185358
28	0xbb1f5cd0	-0.0024316795
29	0xbd9f49e9	-0.07777769
30	0x3e3c7b71	0.18406464
31	0xbe4a073f	-0.19729327
32	0xbdbcfb20	-0.09227586
33	0xbd47c661	-0.048773173
34	0xbc33cc2d	-0.010973972
35	0x3dd0c38f	0.1019355
36	0xbd9f15a2	-0.07767798
37	0x3afb7c9b	0.0019186916
38	0x3de1df81	0.11028958
39	0x3da4d787	0.08048921
40	0xbd712fd8	-0.058883518
41	0x3def82ad	0.11694846
42	0xbb8a090b	-0.004212504
43	0xbd8a8067	-0.06762772
44	0x3d9a46d0	0.07533038
45	0x3cd09d40	0.025465608
46	0xbd99b31c	-0.075048655
47	0xbdb10286	-0.086430594
48	0xba791386	-0.00095015054
49	0xbd61832e	-0.055056743
50	0xbb582a26	-0.0032984107
51	0x3d2dd6e4	0.042441264
52	0x3da0695f	0.07832598
53	0x3ca85c06	0.020551693
54	0xbdf4c1e7	-0.119510464
55	0xbda3ae3b	-0.07992216
56	0x3c432ba4	0.01191226
57	0xbe251fb8	-0.16125381
58	0xbde2ab4f	-0.11067831
59	0xbd0f1b58	-0.034938186
60	0xbdcffe8d	-0.101559736
61	0x3cb374ae	0.021906223
62	0xbdc01f68	-0.0938099
63	0xbe0f6de5	-0.14006765
64	0x3d5418f8	0.051781625
65	0x3c467f56	0.01211532
66	0xbd8adc8b	-0.067803465
67	0x3dae5442	0.08512165
68	0xbe3a4e44	-0.18193918
69	0xbd4358b7	-0.047692027
70	0x3d1245b6	0.035711013
71	0x3dad4580	0.08460522
72	0x3c2c99ff	0.010534762
73	0xbe2f11b0	-0.17096591
74	0x3d8c6b1d	0.06856368
75	0xbd8bacf9	-0.06820101
76	0xbb2b93c2	-0.00261806
77	0x3d90ac09	0.07064063
78	0xbdd0d270	-0.10196388
79	0xbc84ddce	-0.016219046
80	0xbdc54568	-0.09632379
81	0x3d088ba3	0.033336293
82	0xbc4ebdd9	-0.012618505
83	0xbcfd428c	-0.030915521
84	0xbc774ee4	-0.015094493
85	0xbd40ce78	-0.047071904
86	0x3cf2faa2	0.029660527
87	0x3d95583a	0.072922185
88	0xbdfec2df	-0.124395125
89	0xbcf43012	-0.029808078
90	0x3da0b781	0.078475006
91	0x3e0200f2	0.12695673
92	0x3c721b0a	0.014776954
93	0xbd3125d9	-0.043248985
94	0xbddd707a	-0.10812469
95	0xbddef78b	-0.10887059
96	0xbdb6c317	-0.08923929
97	0x3cf82545	0.030291209
98	0x3d802804	0.062576324
99	0xbdbdb2ba	-0.09262605
100	0xbd78d94c	-0.060754105
101	0x3e1db46f	0.15400861
102	0xbdd0edf8	-0.10201639
103	0xbc5b0832	-0.013368653
104	0x3d332a3a	0.043741442
105	0x3d135f17	0.035979357
106	0x3d62170c	0.05519776
107	0x3cd0f9cc	0.025509737
108	0x3d82acc1	0.063806064
109	0xbdf6afc8	-0.12045246
110	0x3dee6011	0.11639417
111	0x3c6bf0f5	0.01440071
112	0xbdf05bef	-0.11736285
113	0xbb6c04df	-0.0036013646
114	0x3da5a342	0.080877796
115	0xbdbbfd1d	-0.09179137
116	0xbce0d873	-0.027446961
117	0xbdcb8238	-0.09936947
118	0xbe074c9c	-0.13212818
119	0x3db5ca13	0.08876433
120	0x3cbb92b1	0.022897096
121	0xbc8935cb	-0.016749283
122	0xbd00c116	-0.03143414
123	0x3c913cc3	0.017729169
124	0xbd18da73	-0.037317704
125	0x3c25cae9	0.010119178
126	0x3dee4384	0.11633971
127	0x3ceb493c	0.028721444
128	0x3d2d0731	0.042243186
129	0x3d956e41	0.0729642
130	0xbdb16a3a	-0.08662839
131	0x3bcaf857	0.006194155
132	0x3dc85a1a	0.097828105
133	0xbe023797	-0.12716518
134	0x3d829a70	0.06377113
135	0xbc9f633f	-0.019456504
136	0xbd8cbb22	-0.0687163
137	0x3d1f8260	0.038942695
138	0x3d8a59e2	0.06755425
139	0x3e15f429	0.14643921
140	0x3bdc6e65	0.0067270272
141	0x3c757540	0.014981568
142	0x3d853945	0.06505064
143	0xbd4049f4	-0.046945527
144	0xbdb2b88f	-0.08726608
145	0xbdde5e59	-0.10857839
146	0x3d73b4fc	0.059498772
147	0x3dcceba0	0.100058794
148	0x3ccd6bb6	0.025075775
149	0xbc3d667a	-0.011560077
150	0x3d133353	0.03593762
151	0x3e25c294	0.16187507
152	0x3dfad278	0.12247175
153	0x3c560cea	0.013064602
154	0x3d3d38f6	0.0461969
155	0xbdc1b8cc	-0.09459075
156	0xbc929c35	-0.017896751
157	0x3db91cb0	0.09038675
158	0x3d06de2c	0.032926723
159	0xbddab57d	-0.106791474
160	0xbd25d282	-0.04048396
161	0x3ba0204a	0.0048866617
162	0x3d176c1a	0.036968328
163	0xbccf1759	-0.025279688
164	0xbd8f461a	-0.06995793
165	0xbb4c1463	-0.003114008
166	0x3cbf7854	0.023372807
167	0xbde39862	-0.11113049
168	0xbd32dcdc	-0.04366766
169	0xbd6d9090	-0.057999194
170	0x3ce7b6d8	0.028285429
171	0xbd5712e1	-0.05250824
172	0x3d8fd4f4	0.070230395
173	0x3dd26d52	0.102747574
174	0x3d92ad9c	0.071620196
175	0x3cf7044c	0.030153416
176	0xbdc50d38	-0.09621662
177	0xbd866947	-0.06563049
178	0xbe273111	-0.16327311
179	0xbe18c1aa	-0.14917627
180	0xbc90fb90	-0.01769808
181	0xbdb96212	-0.090519086
182	0x3c74b635	0.01493602
183	0xbdcf12be	-0.10110997
184	0xbc88da64	-0.0167057
185	0x3e4b69fc	0.19864649
186	0x3dfc8ee4	0.12331942
187	0xbd0b965b	-0.034078937
188	0x3ceadf8d	0.02867105
189	0xbb025f92	-0.001989339
190	0xbd736221	-0.059419755
191	0x3db24d87	0.087061934
192	0x3c8c172e	0.017100897
193	0x3c62bbe2	0.01383874
194	0x3c5d33ac	0.013501089
195	0x3d1b0dc5	0.03785493
196	0x3dd8d117	0.10586756
197	0x3d999349	0.074987955
198	0xbd72177d	-0.05910443
199	0xbc1fd18b	-0.009754549
200	0x3c97c27e	0.018525358
201	0x3d5238bf	0.05132365
202	0x3d6da5eb	0.05801956
203	0x3d930a44	0.071796924
204	0x3e056f73	0.13030796
205	0xbda1c97c	-0.07899758
206	0xbd8079f8	-0.06273264
207	0x3d2fb5c9	0.042897973
208	0xbdee4046	-0.11633353
209	0x3dd3f47c	0.10349366
210	0x3cc6cf9c	0.024268918
211	0x3deb07f8	0.11476129
212	0x3d8b995a	0.06816359
213	0xbd9d8630	-0.0769161
214	0xbcdf4f6c	-0.027259551
215	0xbda18a19	-0.07887668
216	0xbc18476b	-0.009294371
217	0x3dd96882	0.106156364
218	0xbc87bd87	-0.016569866
219	0x3b98e6dd	0.004666193
220	0x3d07be8c	0.033140704
221	0xbd97e00d	-0.07415781
222	0x3d98ac9c	0.074547976
223	0xbe1bf236	-0.15229115
224	0x3d38fb5f	0.0451616
225	0xbdb5dd54	-0.088801056
226	0x3e1f819c	0.15576786
227	0xbde0b1d9	-0.10971422
228	0xbd25e08b	-0.040497344
229	0xbd5f464b	-0.054510396
230	0xbcfd17f4	-0.03089521
231	0xbd675a06	-0.056482337
232	0xbd456d5a	-0.04819999
233	0x3deae3d5	0.11469237
234	0x3dd15992	0.10222162
235	0xbd7e07a0	-0.06201899
236	0xbb327a72	-0.0027233628
237	0xbe1362ec	-0.14393204
238	0x3c15b5e8	0.009137608
239	0xbbdeb598	-0.00679655
240	0x3dc5fec5	0.09667734
241	0xbd8d264a	-0.06892069
242	0xbcba0579	-0.022707688
243	0xbd99b76f	-0.0750569
244	0xbd17e7ce	-0.0370863
245	0x3a394294	0.0007067111
246	0x3cee408d	0.029083515
247	0xbd287bcb	-0.041133683
248	0xbdc32352	-0.09528221
249	0xbe312071	-0.17297532
250	0xbde42194	-0.11139217
251	0x3d50e254	0.050997093
252	0xbdcf045b	-0.101082526
253	0x3d9ed36d	0.0775517
254	0x3e0f9e73	0.14025287
255	0xbd8060a2	-0.06268431

classifier.0.bias f4 [32]
0	0xbc92afa3	-0.017906016
1	0x3da0da80	0.078541756
2	0x3badcaed	0.0053037317
3	0x3d8b6819	0.068069644
4	0xbde712a6	-0.11282854
5	0x3db3a7ff	0.08772277
6	0x3e06ed59	0.13176478
7	0xb8505be6	-4.967665e-05
8	0xbcc0cb94	-0.023534574
9	0xbe01ebf3	-0.12687664
10	0xbe12a137	-0.14319311
11	0xbde96206	-0.113956496
12	0x3da77c1b	0.08177968
13	0x3cfb6e31	0.030692192
14	0x3dbc3cef	0.0919131
15	0xbd1574ba	-0.036488272
16	0x3dd9bb62	0.106314436
17	0x3da70025	0.081543244
18	0xbe3fae19	-0.18718757
19	0xbd51088e	-0.05103355
20	0xbd5b6c10	-0.053569853
21	0x3e448370	0.19190764
22	0xbd70d5af	-0.058797535
23	0x3c90ea62	0.017689887
24	0xbd4bb126	-0.04972949
25	0x3dd7e28a	0.10541256
26	0x3cdd23a3	0.026994532
27	0xbe0f27bf	-0.13980006
28	0xbdea9227	-0.114536576
29	0x3da2dc68	0.079521954
30	0xbe0feb6e	-0.14054653
31	0xbdc364ae	-0.095406875

classifier.2.weight f4 [2, 32]
0	0xbd5f4f68	-0.054519087
1	0xbdd3bbf3	-0.10338583
2	0x3d28aeed	0.041182447
3	0xbcae0ea7	-0.021247221
4	0x3d013cae	0.03155201
5	0xbd9d6080	-0.076844215
6	0xbdedd533	-0.1161293
7	0x3d403b57	0.04693159
8	0x3d76b795	0.06023367
9	0x3c432fc3	0.011913243
10	0x3e2241a7	0.15845357
11	0x3d7d4e85	0.06184246
12	0xbe1227ea	-0.14273039
13	0xbd957593	-0.07297816
14	0xbe2cede2	-0.1688762
15	0xbd979f65	-0.07403449
16	0x3dfc65db	0.12324115
17	0xbd1a0cb6	-0.03760978
18	0x3e448e3a	0.1919488
19	0x3e1ca6b0	0.15297961
20	0x3e29a7e5	0.16567953
21	0xbe4e2229	-0.20130219
22	0x3d16a603	0.036779415
23	0x3d1b924e	0.037981324
24	0xbcde261a	-0.027117778
25	0x3eb63167	0.35584566
26	0xbe11c9cf	-0.1423714
27	0x3ec74486	0.38919467
28	0x3d256478	0.040379018
29	0xbe28b21e	-0.16474196
30	0x3d6eac2f	0.058269676
31	0x3db3699b	0.08760377
32	0xbd06f9b0	-0.032952964
33	0xbd81e43b	-0.0634236
34	0x3d2a0397	0.04150733
35	0x3d21938f	0.039447363
36	0xbe298fe4	-0.16558796
37	0x3d022613	0.03177459
38	0x3d70f97d	0.05883168
39	0x3e07a016	0.13244662
40	0xbd1f4f8f	-0.038894232
41	0x3cd3087c	0.025760882
42	0xbe02f951	-0.12790419
43	0x3c8dddee	0.017317738
44	0x3e3609a1	0.1777711
45	0xbd83e4b5	-0.06440107
46	0xbd0455b3	-0.03230829
47	0xbd94a83a	-0.07258649
48	0x3e02d620	0.12776995
49	0x3cc9f4cd	0.024652863
50	0xbeab2fa4	-0.33434784
51	0xbdd5bf31	-0.104368575
52	0xbdcc0e5e	-0.09963678
53	0x3e69837e	0.22804067
54	0xbdb2c10c	-0.08728227
55	0xbdadef88	-0.084929526
56	0x3b4a1e39	0.0030840768
57	0xbe3e65e3	-0.18593554
58	0xbe1da406	-0.15394601
59	0xbebbd3d2	-0.36685044
60	0xbe178f8c	-0.14800853
61	0x3e1b5f18	0.15172994
62	0x3d1180ef	0.03552335
63	0xbe17df1c	-0.14831203

classifier.2.bias f4 [2]
0	0xbe546bae	-0.20744202
1	0x3c95848c	0.01825168
