src/DARPA/pretrained/models/w10/resampled/phase_3.pth (torch, 194061 bytes, 8 tensors)

lstm.weight_ih_l0 f4 [256, 112]
00000000: f3dd 163d f351 f43d d9fc 04bd 30bc e6bd
00000010: 7b95 1c3e 037a 61bc 8ba0 8e3d 3ae0 7e3c
00000020: bbca 30be 5980 243e 00b1 cc3d 152d c13d
00000030: dfcc 2d3d b171 863c 0d81 dfbc 7cea 103e
00000040: a6a6 a53d bb2f d83c 05cb 8b3e 8577 1c3e
00000050: f974 a5bc 123b 923e cbb2 813c 8364 acbd
00000060: 2957 193e 47f6 f8ba e2b4 f13d a80b bfbd
00000070: 9260 80bd 0dd3 e13d 77bb 64bd f110 253e
00000080: a9b9 85bd fea1 d8bc fa70 a5bb 4049 07bc
00000090: 1cd6 4b3d d454 72bc 0053 ac3c 854c ed3d
000000a0: 8afe 84bd 418f 003e a07d a73d 3bf3 2cbe
000000b0: dc42 053d 1fff 203e f996 d63d 7478 583d
000000c0: f59f 923a ea79 b93d b079 a7bd 3ac9 ea3c
000000d0: 848b 5b3d f65f 37be 3c18 543d 7a95 4abc
000000e0: dcd0 7ebd b668 03bd c5ca c1bd c692 ef3d
000000f0: 4a64 b53c 5cbd 82bc 853d a5bd 2cd4 81bd
00000100: fbf8 ef3a 9746 193e 2136 82bd 0dd1 6d3d
00000110: ab0a 643d dadd 2cbb 19a9 f3bc 9d93 983b
00000120: 61e3 89bd e90d e93d 35e9 f2bc deae eb3d
00000130: 6b40 263a c093 ce3b be28 f93c d624 90bd
00000140: 39c1 dc3d 9efd f43d 7da9 d23c 2309 c1bb
00000150: 207c c5bc 60d0 2b3b 1b96 56bd b3e5 e5bd
00000160: 4093 0ebe 7916 83bd 17f9 8c3d 0c49 9abb
00000170: ec73 293d 9d7a ff3d 2618 87bd 51f1 bc3d
00000180: 3dc4 74bb abfd 303d fc38 cabd 24fa b63d
00000190: f6ff 133c 8fb3 5c3c 8b54 d3bc d1c2 d93c
000001a0: df02 07bd ef9f c63d 6093 b43c 8e8b 633d
000001b0: 265c 8d3d 30b1 b9bd d1e4 103e 5fc2 243e
000001c0: 84af c63d 906e 40bd e455 05be 6885 1d3d
000001d0: 6f31 55bd 52aa 593d 4860 d8bd 6781 a13d
000001e0: 588c 5b3d c575 03be db24 59bd 01ff c7bd
000001f0: d8a9 b63c eb37 983d dc06 503c a82c 453d
00000200: 53b1 de3d 64f9 dbbd ecbe cf3d 9ca1 e03d
00000210: 14f0 2c3e 2ab7 b2ba ff7c a03d 534d d1bb
00000220: 9063 58be f476 afbb 8694 823e b9a0 83bd
00000230: fe12 ca3d f0ad ccbd 834a 8b3d 70bf d13d
00000240: 4cee 5e3d aa90 50bd 0862 08bd 29d8 01bc
00000250: 2c74 703d d1d7 4b3d c758 333e f580 18bd
00000260: 7e14 b93d 3bce 06bd a9f8 453c f57c 643e
00000270: 7142 82bd 3cf0 10be 2da2 bb3d 92f9 6d3d
00000280: 07c9 ec3d f89b 0d3d c075 133c f37f 46bd
00000290: 2688 c4bd 459c 413e 57b0 c3bc 108c a23d
000002a0: 4b5b c4ba 1df9 73bd f468 2cbc b844 d03d
000002b0: 1175 113d fc83 d3bd 9f9f 2c3c e087 ba3d
000002c0: 1a00 70bd 2cf8 a7bd 9023 7abb 0fa5 f13d
000002d0: 12af 923d f157 7ebc ebe5 0abd cbae 21bd
000002e0: 919f 9bbd c2ec 5a3d a0da de3d 6cd9 703c
000002f0: ba13 f4bd 8764 ad3d c117 b8bd 1aec d13b
00000300: bb4d ad3d 6036 a5bd d6b5 4dbb 9585 d93d
00000310: 964b adbd 7b9f bf3c 6439 f13d 6cfa 283c
00000320: 2a18 1a3d 0aa9 c93c d839 adbd a7f8 03bd
00000330: 9d4a 41be 721c 87bd d8f8 83bd f6b4 923b
00000340: 3fe9 483d e74e 923c 688f adbd 8fbd 5f3d
00000350: b790 a8bd 2ab8 a73d 10b5 79bd 820e 00bd
00000360: 0759 2b3e c6ac ef3c 5949 7abd a65e 8bbd
00000370: 88dc 66bd 4612 073d a573 0ebe 566b 72bd
00000380: 9900 d33c bff2 2d3d b2a7 533e a0d4 433d
00000390: fc2c 80bc c111 d73c d547 6b3d 5ffd e53d
000003a0: fdc8 2f3b b1af 083e 8ed8 97bd 0166 003d
000003b0: b1cb 7e3d 013a cbbb 420c 8abe 5258 c73d
000003c0: ca0d 473e 4d1d 393d c047 623d 4bae 433e
000003d0: 32e1 aabb e09c 3e3e 68ab 7fbd 0b66 003d
000003e0: 0897 d83d ade8 bfbd 5b59 69bd e877 2e3e
000003f0: 2876 e13c 0890 543e c009 bebd 4de3 e4bd
0.03683276 0.11929693 -0.032467697 -0.11266363 0.15291397 -0.013762 0.06964215 0.0155563895
-0.17264836 0.16064586 0.099946976 0.09432427 0.04243171 0.016411634 -0.027283216 0.14151949
0.08088426 0.026389947 0.2730333 0.15279968 -0.020197378 0.28560692 0.015832325 -0.084176086
0.14974655 -0.0018994295 0.11802079 -0.09328395 -0.06268419 0.11026583 -0.055842843 0.16119744
-0.065295525 -0.026444431 -0.0050488682 -0.00825721 0.049764737 -0.014790732 0.021035671 0.115868606
-0.06493862 0.12554647 0.08178258 -0.1688966 0.032534465 0.15722321 0.104780145 0.052849248
0.0011186587 0.090564564 -0.08177507 0.028660405 0.05359985 -0.179077 0.051780924 -0.01236474
-0.062210903 -0.032082282 -0.09462503 0.11697917 0.022142548 -0.015959434 -0.080683745 -0.06339297
0.0018308455 0.14968334 -0.063579805 0.058060694 0.055674236 -0.002637735 -0.029743718 0.0046562687
-0.06732822 0.11379606 -0.029652217 0.11507963 0.00063419965 0.0063042343 0.030414935 -0.07038276
0.10779042 0.11962436 0.025715584 -0.0058909818 -0.024107039 0.002621673 -0.052389245 -0.11225452
-0.13923359 -0.06400771 0.068834476 -0.004708415 0.041370317 0.124745585 -0.06596403 0.09225715
-0.0037348412 0.043210667 -0.0987415 0.08934429 0.009033194 0.0134705445 -0.02579715 0.026582154
-0.032961722 0.09698474 0.02204293 0.05555301 0.069023415 -0.09066999 0.14149787 0.16089772
0.09701446 -0.04698044 -0.13021046 0.038457304 -0.052049097 0.053140946 -0.10565239 0.0788601
0.05360064 -0.12837894 -0.053013664 -0.09765435 0.022297785 0.074325405 0.012696948 0.04813829
0.10873666 -0.10740927 0.10143837 0.109683245 0.16888458 -0.0013634909 0.07836341 -0.0063873916
-0.2113173 -0.0053547565 0.2550394 -0.0642714 0.09866904 -0.099941134 0.06801321 0.10241592
0.054426476 -0.050919212 -0.033296615 -0.007925072 0.05870454 0.049766365 0.17514335 -0.037232358
0.09037112 -0.03291152 0.012083211 0.22313292 -0.06360329 -0.14154142 0.09161792 0.058099337
0.115617804 0.03457257 0.009000242 -0.048461866 -0.09596281 0.18907268 -0.023887796 0.07936871
-0.0014980821 -0.059563745 -0.01052307 0.10169357 0.035512034 -0.103279084 0.0105361035 0.09107947
-0.058593847 -0.08201632 -0.003816817 0.117990606 0.07162298 -0.015523897 -0.033910673 -0.039473336
-0.07598794 0.053448446 0.10881543 0.014700275 -0.11917825 0.0846644 -0.08988906 0.0064063193
0.084620915 -0.08067012 -0.00313889 0.10621182 -0.084616825 0.023391476 0.117785245 0.0103136115
0.0376207 0.024616737 -0.084582984 -0.032219555 -0.18876119 -0.065972224 -0.064439476 0.0044771386
0.049050566 0.01785989 -0.08474618 0.054624137 -0.08230727 0.081894234 -0.06096369 -0.031263836
0.1673318 0.02925719 -0.061105106 -0.06805162 -0.05636266 0.03297641 -0.13911302 -0.059184395
0.02575712 0.04246783 0.2066944 0.047810197 -0.01564645 0.026253583 0.05744155 0.11229967
0.002682268 0.13348271 -0.074143514 0.03134728 0.062205974 -0.006201983 -0.26962477 0.09733643
0.19438854 0.04519396 0.055244207 0.19109456 -0.0052148337 0.1861453 -0.062419325 0.031347316
0.10575682 -0.09370551 -0.05696998 0.17037928 0.027522162 0.20758069 -0.092792034 -0.11176167

lstm.weight_hh_l0 f4 [256, 64]
00000000: 28f1 5dbb 93a5 b33d 3994 633d 1b0e 083e
00000010: a18f 3f3d 6a1d 97bb 2af6 72bd 031b de3d
00000020: dfb7 48bd 0c0b c5bc afe7 9bbd 0927 13bc
00000030: de8f 09bd 9474 883d cdd2 83bc 9c10 39bc
00000040: 7c37 d03d d34c 263c c8d8 a13b 5886 123c
00000050: e7a1 92b9 9e9c f2bc bc87 d73c 2a17 efbd
00000060: be1e f63d 4313 9c3d 4d3e 073e d2b7 ac3d
00000070: 7a81 bebd ed04 f3bd ed19 55ba 9fb7 203c
00000080: 8ea3 883d bb84 bbb9 47a8 47bd 2982 423d
00000090: 1d7c e33d 2859 563e 776e a7bd 8011 033d
000000a0: cc6f 943d d04e cc3b 59dc c83d 826c 063e
000000b0: 9016 9e3d 4400 b5bd 3303 2fbd 5268 c3bc
000000c0: 612e cb3d c461 123e 9868 c3bc 41fb 33be
000000d0: 8bcf 9f3d 200c 083e e1b6 ddbd c878 a13c
000000e0: 2d56 c23d 8dc0 3e3d 6801 09bd 0eb3 a53d
000000f0: 52eb f8bd d551 02bc 057e ce3d 9dc5 17be
00000100: 65d0 a7bd 2bd5 223e 8f1c 033e 45e4 cc3c
00000110: a86c 88bd 5d2f 6abd 46ea bc3d eca2 053e
00000120: 4c72 903d 2947 143d b223 92bd 9de8 833d
00000130: bb1a 8a3d 5bb5 ca3d 8fc0 773d cb43 013d
00000140: 0e21 e23c 918b 183e 0282 9f3d 8295 abbd
00000150: 445f ecbd bb71 953d f5e6 8ebd a8d6 e63d
00000160: b562 8abc a364 f03d fd47 473d 9c2d 14bc
00000170: 2231 e0bd d2df a83d 4c7f 863c ac8d 8e3d
00000180: 8b23 453d edb6 aa3d 349a b1bd 26f6 c3bd
00000190: 5d4e 503e 5b75 eb3d 01cd 033d c674 dc3d
000001a0: bf26 70bd d117 13be d590 23bc fb3b b23d
000001b0: 7b4b 83bd 7be6 eabd b520 443d 9f57 87bc
000001c0: cf7f 093d e09a 313d 924e a03d 28a1 14be
000001d0: aa49 133d d53e 9c3d fbfe 803d 9c21 a2bd
000001e0: 1d43 183d 7ba8 383d 210d dabd 14fb 8f3c
000001f0: 5f70 8dbc 0d22 e2bd 2178 8abd e926 833d
00000200: c8d2 733d f59b 1ebd 67f5 a7bd 914a e3bc
00000210: d06b 153d da60 67bd f275 b3bd a031 0d3d
00000220: c8bb 8abd 52c0 0f3e ba1b 46bd d5bc 19bd
00000230: 5e85 f73d 43ea 81bd aa77 8b3d b8d1 bb3d
00000240: 4df7 eebb d94f 5c3d d185 be3d ca99 7a3d
00000250: 500f 033d 60be 063c 074c 16be 5296 c4bd
00000260: e435 133d c371 be3d ac4e 9b3d 792d 90bd
00000270: d3f3 803c c1e5 873d 21b5 0fbd c412 d83d
00000280: a1fa 0a3e 4644 913d 5cd9 62be 030b 8fbd
00000290: 2ed5 d93d c298 b23d fa13 193d cbb9 e13b
000002a0: 54f2 81bb 5170 18bd 17e7 b1bd 79fe 553d
000002b0: 8299 183e b7ba 2ebc ce29 52bd a1ac 753d
000002c0: f654 fc3c b71b ec3d cabe d53d d1a9 9d3d
000002d0: 64df 02bd ebee 85bd 472b 96bc 9092 0cbc
000002e0: 9fd5 693d 6ba0 aa3d 3689 6b3c 1661 623d
000002f0: 8738 81bd 9f2b 5fbd 82ef 893d 73a2 93bd
00000300: 1a62 2b3d c6bc 2b3e 52fd 423e 18a4 9dbd
00000310: a7bf 8a3e a789 98bd 98f2 b3bc b942 2d3e
00000320: 5f44 debc 00f4 123e 10e5 9abd 7f4d 9c3d
00000330: 7edf 9e3d fe48 25bd 9bcb 993c 2b5d 5b3d
00000340: 6010 fd3c 35b5 903e 7a0f 44be 1358 41be
00000350: 4891 323e 562b e7bd 7adc 4abd 44f0 e0bd
00000360: ac0e dd3d 8668 ae3d 38fc 1bbd f0c7 3c3e
00000370: c601 413d 6c84 7a3d b5df fabd aba6 18bd
00000380: 2c68 24be 4000 81be 3bdc 85be 3bf1 83bc
00000390: ca0a e83d 83b5 ec3d 7908 ebbd 4d99 89be
000003a0: c212 2bbe 4b0d 083e c9bc 2e3e bb9b 243e
000003b0: ff5d 5f3e d03a 44be 01f8 56be 77c1 a0bd
000003c0: a3c0 2d3c f52c 02bc 4636 83bd 9f44 85bd
000003d0: 38f3 1bbe 1139 e13d fc8a 0ebd 9441 80bd
000003e0: d929 1bbe 8183 343e af7e 6dbe b721 473e
000003f0: 790d 35be a0d5 39be 4aff 3b3e f1f2 8dbd
-0.0033865664 0.08771815 0.055561278 0.13286631 0.046767835 -0.0046116607 -0.05931679 0.10844996
-0.04900348 -0.02405312 -0.076125495 -0.008981475 -0.033584468 0.066628605 -0.016091729 -0.011295464
0.10166833 0.010150152 0.0049391724 0.008943163 -0.00027967917 -0.029615697 0.02630984 -0.1167434
0.12017582 0.076208614 0.1320736 0.084334984 -0.093020394 -0.11866174 -0.00081291684 0.009809404
0.066718206 -0.0003576631 -0.048744466 0.04748741 0.11107657 0.20932448 -0.08175366 0.03199911
0.07247886 0.006234981 0.09807653 0.1312733 0.07719147 -0.08837941 -0.04272766 -0.023853455
0.099209554 0.14295107 -0.023853585 -0.17576315 0.078032576 0.13285875 -0.10825897 0.019710913
0.09489093 0.04657035 -0.033448607 0.080907926 -0.12154259 -0.007954081 0.1008263 -0.14821477
-0.08194045 0.1590163 0.12803863 0.025011191 -0.066613495 -0.057174075 0.092243716 0.13050431
0.070530504 0.036200676 -0.071357146 0.06440852 0.0674338 0.09897872 0.060486373 0.031558793
0.027603652 0.1489699 0.07788469 -0.08378126 -0.11541608 0.07297083 -0.06977645 0.11271411
-0.01689277 0.11737945 0.048652638 -0.009044077 -0.10946871 0.08245815 0.016418122 0.069606155
0.0481296 0.083356716 -0.0867199 -0.095684335 0.20342393 0.11496993 0.03217793 0.1076446
-0.0586307 -0.14364554 -0.009983261 0.087028466 -0.06410881 -0.11469742 0.047882754 -0.016521273
0.033569153 0.04336059 0.07827486 -0.14514601 0.035958923 0.07629172 0.06298634 -0.07916567
0.03717338 0.04508255 -0.106470354 0.017575778 -0.017265497 -0.11041651 -0.06761194 0.06403906
0.05952719 -0.03872295 -0.08201104 -0.027745517 0.03647977 -0.05648885 -0.08762731 0.034471154
-0.06774098 0.14038208 -0.048366286 -0.0375336 0.12085985 -0.0634351 0.068099335 0.0917086
-0.007292664 0.053787086 0.09302867 0.06118182 0.031997025 0.0082241 -0.1467744 -0.09598984
0.035940066 0.09299042 0.07583365 -0.07039923 0.015741264 0.06635619 -0.035084847 0.10550454
0.1357217 0.070931 -0.22153229 -0.06984522 0.10636364 0.087205425 0.037372567 0.0068886033
-0.0039656553 -0.03721649 -0.08686655 0.052244637 0.14902309 -0.0106646335 -0.0513094 0.059979085
0.030802231 0.11528724 0.10436781 0.076984055 -0.031951323 -0.065397106 -0.018331183 -0.008579865
0.05708849 0.083313785 0.014375975 0.05526837 -0.0630961 -0.05448496 0.067351356 -0.07208719
0.041841604 0.1677123 0.19041947 -0.07697314 0.27099344 -0.0744813 -0.021966264 0.16919984
-0.027132211 0.14350891 -0.075632215 0.07631969 0.077574715 -0.040352814 0.018773844 0.05355565
0.030891597 0.2826325 -0.19146529 -0.18881254 0.17438233 -0.112875625 -0.04952667 -0.10983327
0.10793814 0.0851603 -0.03808233 0.18435645 0.047120832 0.061161444 -0.122497 -0.037268322
-0.16055363 -0.25195503 -0.26144585 -0.016106239 0.11330183 0.11558058 -0.114762254 -0.26874772
-0.16706374 0.13286321 0.17064203 0.16075031 0.218132 -0.1916306 -0.20993043 -0.078494005
0.01060501 -0.007945289 -0.06406836 -0.06507229 -0.152295 0.10997213 -0.034800515 -0.06262508
-0.15152682 0.1762829 -0.23192857 0.19446455 -0.1768092 -0.18147898 0.18359104 -0.06931103

lstm.bias_ih_l0 f4 [256]
00000000: 15b5 1b3e 6836 123d 3ff9 f43d bbb8 613c
00000010: 0ec8 833e 7191 993d 8334 5bbd e427 5fbd
00000020: 0941 d9bc a3cb d93c e775 95bb c76d 27bd
00000030: bd2d 593d 30a0 423d d6a3 1dba 3cfb 0c3e
00000040: da09 a53d d8d7 8bbd d210 88bd 4791 a03d
00000050: f522 173e 3740 4abc 95a0 3c3d ed68 e53d
00000060: ccee 343e 9f61 ff3d 0809 013d ba3e c13d
00000070: 1b7e e83d 4598 1bbd 7e10 fabc 8e37 e53d
00000080: 69e0 943d b27b 27be 47c9 4d3e 6ae1 0e3e
00000090: ff49 263e aa3b 423d a26e 85bb 8e65 3c3d
000000a0: 23b8 463e 392a 99bd db10 1b3e 9e40 19bc
000000b0: e8ca 88bd 63fa 23bd b170 20be c4e3 9dbc
000000c0: dbb0 4d3d 8805 91bc 7743 c33c f540 a9bd
000000d0: f0df a2bc f7ea 5d3e b2c1 1c3c cc9e b8bd
000000e0: 598c 103e 0052 9a3d af07 ca3d 66e5 4d3e
000000f0: 05a1 dd3d 61d9 a6bd fd86 a03c 5250 0b3e
00000100: 5933 6bbd 48f4 f73c f075 953d d652 2d3e
00000110: 0d35 ab3d e513 dd3d 2c57 db3c 5c3a fab8
00000120: 466e ee3d 41ea 83bc 5f66 d23d a449 3dbd
00000130: 36a0 41bc b65d 29bd 7351 b2bd 8ff8 7b3d
00000140: 1214 eebc 5a8c c1bd 7bf4 7d3d 001a 2e3e
00000150: ab48 173d 9d0d 0b3e e5c6 a13d 6a8e 203e
00000160: c621 f1bd c35c 42be 887f 6e3d 762f 88bc
00000170: b620 89bc 7cfa 893d a522 20bd 59de ee3d
00000180: 2abc 7a3d 9bf7 e1bd 03d2 30bd 5e55 89bd
00000190: 6d2f 0f3e 8848 0dbe 8077 033e 1a19 b93d
000001a0: 1319 5a3d b5a1 0a3d e580 94bd fa9c adbd
000001b0: 6570 983d dc45 19bd 364b dfbc 3d96 9cbd
000001c0: bd13 73bd 9aff 65bb 8870 1dbc 5166 9abd
000001d0: f3cc 1a3d a877 683c c9da cc3d 618e 0c3d
000001e0: 4d15 053e 7911 4f3e d35c 82bc c4dc cabd
000001f0: e5ff 50bd f4d5 7cbc 976e d4bd 332f a13d
00000200: 0ed9 7a3b b59c d9bd 1426 993d 1c93 cebd
00000210: 7b09 33bd d387 8a3c 0d69 06be f6d4 57bd
00000220: d2c8 983d 695f 8a3c 0aa5 3fbd 7ede 293d
00000230: 49ab cb3d 13a4 d73b efae ad3c b775 863d
00000240: 2bb7 103e 9f27 26bd a204 01bd 6970 1abd
00000250: b063 053e c88b ccbd 6fbc 8dbd 2667 083c
00000260: 4d68 cd3d 4b4a 9a3d 3aa2 a7bd 78c2 9d3d
00000270: a265 a1bd 5e52 083d 1988 56bd 00d6 c9bd
00000280: c123 483c 348a 9d3d 7361 16be 6c42 bcbd
00000290: c740 edbd ed2b 793d 5491 65bd 7d8d 0c3e
000002a0: 2418 a33d 5b27 043d 92a5 233c 6d2e ef3b
000002b0: 152a cb3d 806f 28bd 2692 d73c 60da 5cbd
000002c0: dedf 82bd 911d 703d 53df d9bc c929 443d
000002d0: 09f5 9fbd 2185 1c3d aeee 7e3d 45df efbd
000002e0: c444 94bd f735 503d 22ac 89bc de80 373d
000002f0: bd3d 8cbd d6d6 0bbc afb3 7e3d 97fc 8a3d
00000300: f816 83bd c005 7bbd b475 8a3d a6d5 6bbc
00000310: 0518 763e ab4f 013e 25af 703d 8fbd 5abd
00000320: 7579 a83c 6421 273d 6517 fb3d 2bf9 90bc
00000330: 7a06 e2bd e22a 30bd 436d 95bd 318b 733d
00000340: 1dd7 da3d eb6e a53d 5f45 6d3d 4c4c 9f3d
00000350: b58d 103e a63c 5a3e 3a3b d5bc cf84 f2ba
00000360: fe25 073e 5a34 32bd e0ac 7b3d 14be 66bd
00000370: 26d9 de3c ad4b bc3c 6d99 173e 5b44 77bc
00000380: 2c1c f4bd 0f21 15be ff98 0d3e 0bdb 893d
00000390: e3ae 783b 13a3 e83d 5b30 0c3d 950c cb3c
000003a0: a4d5 c9bb 1dba 35ba 7ff0 55bd bbb6 b53d
000003b0: 3c7e bc3d a552 153e a670 113d d7a3 cabd
000003c0: 1404 383d 4c82 bcbd 1f29 cb3b 8208 e63d
000003d0: a69d 063e 81fe 063e 738a 983d e30a 7a3c
000003e0: 25c0 ed3d 5288 b33d 1623 2ebd 83e3 103e
000003f0: 3a69 a93d 167b f03d 9544 683c 84e6 9dbd
0.15205796 0.035696417 0.119616024 0.013776953 0.25738567 0.07498444 -0.053516876 -0.054481402
-0.026520269 0.02658636 -0.004561174 -0.040876176 0.053022135 0.047516048 -0.0006013488 0.13767713
0.0805852 -0.06828278 -0.06643833 0.078402095 0.14759429 -0.012344412 0.04605158 0.11201654
0.17669219 0.124697916 0.031502753 0.09435792 0.11352178 -0.037987012 -0.030525442 0.11192237
0.07269365 -0.1635578 0.20096312 0.13953176 0.16239165 0.04742018 -0.0040720263 0.045995288
0.1940618 -0.074787565 0.15143149 -0.009353785 -0.06679326 -0.04003371 -0.15667988 -0.019273646
0.05021749 -0.017702833 0.02383588 -0.08264343 -0.019882172 0.21671663 0.009567665 -0.09014663
0.14116038 0.075351715 0.09864747 0.2010704 0.10821728 -0.081469305 0.019595617 0.13604859
-0.057422016 0.03026785 0.072978854 0.1692613 0.08359728 0.1079481 0.026774965 -0.00011931799
0.11642127 -0.016102912 0.10273432 -0.046212807 -0.011817982 -0.041349135 -0.087069415 0.06151634
-0.029062305 -0.09450598 0.062000733 0.17002106 0.036934536 0.13579412 0.07899264 0.15679327
-0.1177402 -0.18980698 0.058227092 -0.016624194 -0.01673923 0.06737229 -0.03909554 0.11663503
0.061214603 -0.11033555 -0.043169033 -0.067057356 0.13982935 -0.137972 0.12838554 0.09037991
0.05324657 0.033845622 -0.07251147 -0.084772065 0.074433126 -0.03742014 -0.027257543 -0.07645843
-0.059344996 -0.0035094977 -0.009609349 -0.075390466 0.03779311 0.0141886845 0.100026675 0.03431547
0.12996407 0.20221509 -0.015913403 -0.09905389 -0.05102529 -0.01543187 -0.10372656 0.07870331
0.0038276347 -0.106255926 0.07477966 -0.10086653 -0.043710213 0.01691047 -0.13126011 -0.05269333
0.074601784 0.016891198 -0.046788253 0.04147195 0.099447794 0.0065808385 0.021201579 0.06565421
0.14132373 -0.04056513 -0.03149856 -0.03770486 0.13026309 -0.09987599 -0.069207065 0.008325374
0.100296594 0.075337015 -0.08185239 0.077031076 -0.07880713 0.033281676 -0.052375887 -0.098552704
0.012215556 0.07692376 -0.14685611 -0.091923565 -0.11584621 0.060832907 -0.0560468 0.13725848
0.07963589 0.032264095 0.0099882055 0.0072992356 0.09920136 -0.04112196 0.026314806 -0.053919196
-0.063903555 0.058621947 -0.026595747 0.047891412 -0.078104086 0.0382129 0.06223934 -0.11712507
-0.072396785 0.050832715 -0.016805712 0.04480063 -0.06847713 -0.008535108 0.06218308 0.06786459
-0.06400865 -0.06128478 0.06760731 -0.0143941995 0.240326 0.12628047 0.05876078 -0.053403433
0.020565728 0.04080333 0.122603215 -0.017696938 -0.110363916 -0.043009646 -0.07296231 0.059458915
0.10685561 0.080777965 0.057927486 0.07778224 0.14116557 0.21312198 -0.026029218 -0.0018502715
0.13198087 -0.043506958 0.061444163 -0.056333616 0.027203154 0.022985304 0.14804621 -0.015091981
-0.11919436 -0.14563392 0.13827895 0.06731232 0.0037946037 0.11359229 0.034225803 0.024786273
-0.006159501 -0.0006932335 -0.052231308 0.08872744 0.09203765 0.14582308 0.03550782 -0.09894531
0.044925764 -0.0920454 0.0061999704 0.112320915 0.13146076 0.13183023 0.07448282 0.015261385
0.11608914 0.087662354 -0.04251393 0.14149289 0.082720235 0.11742227 0.0141765075 -0.07709983

lstm.bias_hh_l0 f4 [256]
00000000: ace2 593d 5cc0 813b 57d2 bd3d 034b 96bc
00000010: c4a0 6c3e 94e3 53bd 258a de3d 7e0a 433d
00000020: b3fd 95bd 620c abbb 7a8f 913d 42fc cd3d
00000030: fd16 42bd 3afd d73d 0fca ec3d ccd8 3f3e
00000040: a485 f23c 6db8 183e 8930 853d c072 933d
00000050: 8372 ad3d adcd 533d 85f3 51bd 782d 1cbb
00000060: ec41 05bb e810 1f3e 1a4e cb3d 6e8f 9dbd
00000070: 4b2a 893d 61c3 003e 51e2 fe3d 62e7 40bd
00000080: 6f61 953d e3b9 efbd 4c68 1a3e 382d 563e
00000090: ed9a bfbc 60ea a83d b83d ef3d 2099 0b3c
000000a0: f746 a53c 74cf c73c 7c26 943d 640a fe3d
000000b0: 9589 3f3d dc71 e43d 983b 1fbe 2332 423d
000000c0: 7dca 02ba 8a24 d83c 9b20 223e a5c4 56bc
000000d0: 3727 6abd d5c8 a43c 83e5 63bc 56a0 08be
000000e0: e735 6a3d 08e9 fbbd 159b 0e3e f471 4e3e
000000f0: 6de3 85bd 514a bdbd edfc 4dbd 6e1d 053e
00000100: 2c80 073e 7bd6 c3bd c856 bc3d 9b42 183e
00000110: df5d 96bc 00c9 1fbd b32a 24bd 8649 1a3d
00000120: 6472 783d 2c07 023d 3c5d 203d 7714 d03a
00000130: 5049 6ebd 5807 9dbd 3504 9d3d 88b5 1fbe
00000140: 0e01 0abb 08cf f4bc cd71 b03b 87c0 5c3e
00000150: 363a 9b3d 3a3e f9bc 2d3c b33c 7490 133e
00000160: 143e 663d ada5 0abe abc4 253c 8a0b 0cbd
00000170: 3bb9 a13c 720a b23d 3db5 14bd f5aa c8bd
00000180: e5a8 a53c 0b45 033d e6d8 b1bd 0bfa c3bc
00000190: 1e6b 923d f83e 3cbd d0e1 b83c 2090 333e
000001a0: 4da6 473d 1043 c23d 4ab6 f53c 50da ab3d
000001b0: dd5a 8fbd d8e8 243d 0af2 29bb 99ec aabd
000001c0: 4db3 24bd a758 c0bd f7f0 9abd 332b ab3d
000001d0: 4563 debb 09b4 59bb 3528 043e 3cee 543c
000001e0: e7df 21bc a232 253e 46a5 d33c 97e8 123d
000001f0: 5728 d8bc 9b0d c03c d3f5 cdbd f71f c1bd
00000200: ab7a 903d bd0a 5d3d 6ce6 153d a64d 9dbb
00000210: bee3 d63d 8fc7 853d 36ea d7bb 92d0 943d
00000220: 800e 123e 637d 9e3d 8463 a6bd 92b3 61bd
00000230: 0523 f13d 3862 82bd ff7f 9f3b 1fd8 a7bd
00000240: 030e 033e 2e13 1abc 95ad e9bd af0f 82bd
00000250: bf82 a6bc be33 6b3d 578b 06ba 5ae1 d4bd
00000260: a341 c33d c650 8c3d 1901 273d 2e2e cdbc
00000270: 5c74 c4bd 9ec6 4d3d 3a73 97bd 7214 b73d
00000280: 045d c43c c647 81bd fac0 77bd b6c8 bbbd
00000290: 7969 763d 561f 7a3c 5d1e 663b e907 aebc
000002a0: 12a3 37bb f2ae 2f3d c927 5a3d b085 74bd
000002b0: f357 ad3d 8c49 16bd 357a 123e ed77 e9bd
000002c0: fcfe 0d3e f7ea 8dbb 56dd 9b3c 0d72 d7bd
000002d0: dd09 96bd 784a 9c3d d067 98bd b908 46bd
000002e0: b883 96bd 265d 913d f09d cd3d 015d c7bb
000002f0: 1f2c 2cbd 0aa7 bd3c 481d fc3c b607 d7bd
00000300: 008e 993d 80a3 8f3d eeec cbbd 0b62 103e
00000310: 3754 0d3e b1f4 cabc 4bbc d13d 7edd a33c
00000320: d9a1 013e d5d2 113e 572e c8bd 1ae0 22bb
00000330: 2377 e63c 461c df3d bbee 84bb 4403 613e
00000340: 9ce0 ee3d fcc4 0bbd 357f bd3d 470c 383e
00000350: 3c12 b63d 4c71 2a3e 0ee5 153d 2bc8 22bc
00000360: aedf f33d f779 533b a9ce 60bd ca02 b13c
00000370: 46d9 293b 7bf4 9e3d 6f21 073e 40cf 6d3c
00000380: 309e 88bd 0ea3 023d 588f b73d 17cf e33d
00000390: 94a7 803d 1738 9bbc 7c7f 26bd 06a1 c8ba
000003a0: c2b5 223e 0de5 b4bd fd82 3cbd 3baa 133e
000003b0: 2533 b9bd 70e7 0c3d fdf5 1cbe c987 bfbd
000003c0: 8477 f0bb 5c3a 0dbe c8d4 cd3d bc81 023e
000003d0: 7ccb b53d 5e90 693d 5c79 0d3e 9446 fc3c
000003e0: 0b08 4c3d 4036 b93d b82b 973d d8be 8f3d
000003f0: b6bc 8e3c f99b 86bd 93da d63d 0321 073d
0.053194687 0.0039596986 0.09268635 -0.018346315 0.23108202 -0.051730707 0.10866193 0.047617428
-0.0732378 -0.005219982 0.07107444 0.1005788 -0.047385205 0.10546346 0.11561977 0.18735045
0.02960474 0.14914103 0.06503398 0.07199621 0.08469107 0.05170982 -0.05125763 -0.0023830812
-0.0020333482 0.15533793 0.09927006 -0.07693373 0.0669752 0.12574531 0.1244551 -0.047095664
0.072939746 -0.11705377 0.15078849 0.20915687 -0.023389304 0.082478285 0.11681694 0.008520395
0.02017544 0.024390914 0.07233903 0.124043256 0.046762068 0.111545295 -0.15550077 0.047411095
-0.00049892796 0.02638461 0.1583275 -0.013108407 -0.057166304 0.020115295 -0.0139097 -0.13342413
0.05718031 -0.123003066 0.13926347 0.20160657 -0.06537519 -0.0924269 -0.050290037 0.12999508
0.13232487 -0.09562393 0.0919624 0.14869158 -0.018355308 -0.039010048 -0.040079784 0.037667774
0.060655966 0.03174512 0.039151415 0.001587524 -0.058175385 -0.07667416 0.07666818 -0.15596592
-0.0021057758 -0.029883876 0.00538466 0.21557818 0.07579462 -0.03042518 0.02187928 0.14410573
0.056211546 -0.13539763 0.01011769 -0.034190692 0.019741645 0.086933985 -0.036305655 -0.097982325
0.020222137 0.032048266 -0.08683948 -0.02392294 0.07149337 -0.04595849 0.022568613 0.17535448
0.04874258 0.094854474 0.029994149 0.08391249 -0.06999753 0.04026112 -0.002593162 -0.08345909
-0.040210057 -0.09391909 -0.07565492 0.08357849 -0.006786736 -0.0033218882 0.12905963 0.012996253
-0.009880043 0.16132596 0.025835644 0.035866346 -0.026386423 0.023443988 -0.10056653 -0.09429925
0.07054647 0.05396532 0.0365967 -0.004800516 0.10492657 0.065322034 -0.0065891994 0.07266344
0.14263344 0.07738759 -0.0812445 -0.055102892 0.117742576 -0.0636639 0.0048675532 -0.08195519
0.12798314 -0.009403987 -0.11410061 -0.06350648 -0.020326016 0.057422392 -0.00051324576 -0.10394545
0.095340036 0.06851344 0.04077253 -0.025046434 -0.09592506 0.050238244 -0.073950246 0.089394465
0.023970135 -0.06312518 -0.06048677 -0.09169142 0.06015918 0.01526626 0.0035113313 -0.021244006
-0.0028020781 0.04289145 0.0532606 -0.059697807 0.084640406 -0.036691234 0.14304431 -0.11399827
0.138668 -0.0043309885 0.01902644 -0.105198 -0.073261 0.07631391 -0.07441676 -0.048348162
-0.07349342 0.07097845 0.1003989 -0.006084085 -0.042034265 0.02315094 0.030775681 -0.104995176
0.074977875 0.07013607 -0.099573 0.140999 0.13801657 -0.024774881 0.10240992 0.020003077
0.12659396 0.14240582 -0.097744636 -0.0024852813 0.02813298 0.108940646 -0.004056779 0.21973902
0.116639346 -0.034123406 0.092527784 0.17973433 0.08890197 0.16644782 0.036595397 -0.009935419
0.11907898 0.0032268742 -0.054884586 0.021607775 0.0025916859 0.07761475 0.13196348 0.014514744
-0.06670797 0.031893782 0.089628875 0.11123484 0.06281963 -0.018947644 -0.040648922 -0.0015306778
0.15889648 -0.088327505 -0.046023358 0.14420407 -0.09042958 0.034400403 -0.15328212 -0.09352071
-0.007338466 -0.13791794 0.100503504 0.12744802 0.08876702 0.057022445 0.13815826 0.030795373
0.049812358 0.090435505 0.073813856 0.070188224 0.017423969 -0.06572718 0.104909085 0.032990467

classifier.0.weight f4 [32, 64]
00000000: ff8f debd 3284 003e 461b f93d 3979 ef3c
00000010: db69 f83c 24a3 3b3e fb1a 1abe fc90 0dbe
00000020: c7f4 f33d 0742 013e f33d 9abd 2f8e 2c3c
00000030: 46a9 143e dc4b 003e b1da 683d a76e 50be
00000040: 4bbe 2f3e 1c16 98bd 161c d3bd 34a9 20be
00000050: 1210 163e 4f21 4abe 8323 a8bd c793 12be
00000060: 4c4d 843e ab03 a63e 88ef 403e 873c 81bb
00000070: b39b fe3d a42d b43d 3af7 d93d 4124 97bd
00000080: bc58 103c acc6 8b3d 989a e73d a0d2 913d
00000090: 7d8c 56bc b034 bcbd dc06 ca3b c8b8 ed3d
000000a0: 6f71 843d b559 d03d cb86 b5bd b036 b0bd
000000b0: ca46 0c3e 368e a7bb 05cc d4bd 0937 2fbe
000000c0: a58a 823e e7bc 223e d2d2 1e3e 4b5d db3c
000000d0: 0db0 69be 690a 31be 1e64 79be d273 5dbe
000000e0: 9368 69bc d15a 373e 7630 153e ad9e babd
000000f0: fe11 dfbd 70a9 1c3e 6f5d 64bd e5a9 30bd
00000100: e427 a73d a7d9 193d 8f93 d53d 131b 163c
00000110: cc7c 33be 54a1 143e 1d29 b4be 259d f8bd
00000120: b915 803d 8f81 debb 926b 97bd 6abf 21bd
00000130: cb60 ba3d d55a 6b3e 0830 d4bc 83de 50be
00000140: 223c 143e ed71 e3bc 6151 02be 3724 39be
00000150: cf66 973e 886d 5cbe 9d6f 1abe 8981 ef3c
00000160: 346a 213f f114 a53e 5223 213e 8490 013e
00000170: 70c4 613a 0e13 f4bd 5268 56bd dbf7 85be
00000180: 03b1 d2bc 9ee0 4b3e 5e81 f33c 5213 bf3d
00000190: ca66 913d 2e1f cdbc 6d00 8cbd fc13 bbbc
000001a0: 0090 a7bc e95b 273e 4c67 23bd 5a3c 47be
000001b0: b55f f53d 2e5b 23bd d021 123d a093 d0bc
000001c0: d8b2 ca3e ed71 28bd e45f 3e3e c025 293d
000001d0: 019a 15be 97f0 17be d80d 1abe 0934 9dbd
000001e0: 7161 c03c 782e 2b3e 54ec 193e 67b8 74be
000001f0: 800d 06be 3045 e33d aa67 acbc 4303 95bd
00000200: 5e77 9c3d a21a 95bd 17a1 b83d 8187 3bbd
00000210: 2982 41bd 6068 ffbc e457 84bd 3a68 edbd
00000220: f087 5bbd dbd6 d03d 4095 c0bd 26dc 9c3d
00000230: c782 a13d 4f99 f13b 5d08 c9bd 68d9 ca3d
00000240: 61c5 0cbe 61ba 44bd 629f dc3d 1d1e 0a3e
00000250: 44a4 983d 11d9 82ba 04a5 5f3d 9fec 8bbd
00000260: b5f3 0fbd 0c1c 203d 6f3b 8d3c d9e2 49bd
00000270: 10cc f83d 3dbe d6bd faee b8bd 7855 03bd
00000280: 8989 05bd 801f 09bd 2ede 6dbc 5fb6 473d
00000290: 783f ffbd 2513 503d b35c ecbd 123c 68bd
000002a0: 5431 933d bc83 0ebd c9f1 d23d 7a76 433d
000002b0: 44d5 04be 50c3 903d 5fc9 93bd 6996 1abb
000002c0: f3aa dfbd c3b9 91bd 5d10 89bc 8492 ac3d
000002d0: 2441 8b3d 465e a0bd 2bbf db3d 053e c5bd
000002e0: 8271 bebd 7dd1 afbd 36ec 22bd c153 47bb
000002f0: 6cb7 b63d c107 34bd 1108 173d 24b0 ed3c
00000300: 6f2e bdbd 6628 6fbd 4642 b03d 1bbe d9bd
00000310: d91b bf3c f5e1 b6bc f1f9 5cbc a782 db3d
00000320: a066 74bd 1341 8bbc f0e9 ab3d cd80 36bd
00000330: c0f0 e53d ad8d 5d3c f0c2 e8bd 4a49 d03d
00000340: 2003 893d 0593 e9bd 5e58 b13d 1b73 e33d
00000350: 33ed dcbd e0bf eabc c1cc f23d e1b1 983d
00000360: b93b f23d 80a1 e73c 77fd e03d d457 65bd
00000370: fbeb c83d 04fd 6f3d 3060 63bd 0a81 c13d
00000380: 2620 8dbd 23f6 123d 5e19 b53c ea13 86bd
00000390: b118 4f3d 6d2b a13d f35f 4cbd 873e f13c
000003a0: 3f59 f03d 7252 c9bc ec2d 3e3d 088b 06be
000003b0: d768 dabd d2c4 6d3d 096e 783d 8bb4 dbbd
000003c0: 3b3a 87bc 459c e3bd e950 bd3c 061b 87bd
000003d0: 2503 ba3d 7388 4bbc 060b ba3d 4dd3 063e
000003e0: 68c9 933c 6577 37bd d807 5cbd 927b b1bd
000003f0: 2339 ba3d 6059 d4bd fa4c 743c 7963 85bd
-0.10867309 0.12550429 0.12163405 0.029232608 0.030323913 0.18323952 -0.15049355 -0.13824838
0.11911922 0.12622844 -0.07531347 0.010531946 0.14517698 0.12528938 0.056849185 -0.2035471
0.17162435 -0.07426092 -0.10308091 -0.15689546 0.14654568 -0.19739269 -0.08209898 -0.14314185
0.25840223 0.32424673 0.18841374 -0.003943983 0.12432041 0.08797768 0.10642858 -0.07379962
0.008810218 0.06825003 0.11308783 0.07120252 -0.013095018 -0.09189737 0.0061653685 0.1160751
0.06466948 0.1017336 -0.088636 -0.08604181 0.13698879 -0.0051133884 -0.10390476 -0.17110838
0.25496402 0.15892373 0.15510109 0.026777884 -0.22821064 -0.17289127 -0.24354598 -0.21626213
-0.014246124 0.17905737 0.14569268 -0.09112296 -0.108921036 0.1529901 -0.055753168 -0.043130774
0.081619054 0.037561085 0.10428535 0.009161728 -0.17528075 0.14514667 -0.35187617 -0.12139348
0.06254143 -0.006790347 -0.07393564 -0.039489187 0.09100493 0.22983868 -0.02590181 -0.20397381
0.14476064 -0.027764285 -0.12726356 -0.18080221 0.29570624 -0.21526158 -0.1508164 0.029236572
0.6305268 0.3224254 0.1573613 0.12652785 0.00086123403 -0.11917697 -0.05234558 -0.2616566
-0.025719171 0.19909903 0.029724773 0.09329857 0.070996836 -0.025039282 -0.06836019 -0.022836678
-0.020454407 0.16343655 -0.039893433 -0.19456616 0.11981145 -0.039881878 0.035676777 -0.025461018
0.39589572 -0.041124273 0.18591267 0.041295767 -0.14609529 -0.14837871 -0.15044343 -0.076759405
0.023483964 0.16716945 0.15031558 -0.23898469 -0.13091087 0.11097181 -0.021045525 -0.07276013
0.07639955 -0.072804704 0.090151004 -0.045783523 -0.04724327 -0.0311777 -0.06462076 -0.11592145
-0.053596437 0.101972304 -0.09403467 0.076591775 0.07886272 0.007373012 -0.09816048 0.09904748
-0.13747169 -0.048029307 0.10772587 0.1348805 0.07453206 -0.0009982904 0.05460073 -0.06832241
-0.035144527 0.039089248 0.017240254 -0.049288604 0.12148297 -0.10485504 -0.09029956 -0.03206393
-0.032601867 -0.033477306 -0.014518304 0.048757907 -0.124632776 0.050799508 -0.115411185 -0.056697913
0.07187143 -0.0347936 0.10300023 0.04772041 -0.1297198 0.07068503 -0.07216143 -0.0023588187
-0.10921278 -0.07115509 -0.016731435 0.08426383 0.06799534 -0.07830481 0.10729822 -0.0963097
-0.09298994 -0.085848786 -0.03977605 -0.0030414911 0.08921704 -0.043952707 0.036872927 0.029014654
-0.09237372 -0.058388136 0.08606391 -0.10631963 0.023328708 -0.022324542 -0.013487325 0.10718279
-0.059668183 -0.016998803 0.083942294 -0.044556428 0.1122756 0.013522548 -0.113653064 0.10170229
0.06690049 -0.11404995 0.08659433 0.11105939 -0.1078743 -0.028655946 0.1185546 0.07455803
0.118277974 0.028275251 0.109858446 -0.055991963 0.09810635 0.058590904 -0.055511653 0.094484404
-0.068908975 0.035879266 0.022106823 -0.06546767 0.050560657 0.07869611 -0.04989619 0.02944876
0.11735772 -0.024575446 0.046430513 -0.13138974 -0.10664528 0.05804903 0.060651813 -0.10727795
-0.016507259 -0.111137904 0.02310987 -0.06596951 0.09082631 -0.012422669 0.09084134 0.13166542
0.018040374 -0.044791598 -0.053718418 -0.08666147 0.09092929 -0.103686094 0.014910931 -0.065131135

classifier.0.bias f4 [32]
00000000: 74fb 6dbc dff8 573e 9fb0 a2bd 5216 ebbd
00000010: 05d0 f23d ec1c 033e 3a82 a63d 08c4 d33d
00000020: e30d 5a3e 94a4 9ebc 8b7c 07bc 6ac4 da3d
00000030: 9794 88bc 1236 403e 1953 babd b9b4 3b3e
00000040: 555b c63d d08e 44bc a735 273d c0ef 3abd
00000050: 0734 8abd 53e6 653d 91d5 273e b3d6 193d
00000060: 6f86 043e 1d19 82bd 4349 0a3e 1751 9b3d
00000070: a98a 293e 4737 f13b 7f94 0c3d 0d7d e23d
-0.014525283 0.2109103 -0.07943844 -0.11478867 0.11856083 0.12804002 0.081303075 0.10340124
0.2129436 -0.019365586 -0.008269439 0.10681994 -0.016672416 0.18770626 -0.09097881 0.18330659
0.09685389 -0.01199694 0.04082265 -0.0456388 -0.06748205 0.056127857 0.16390063 0.03755827
0.12941907 -0.06352446 0.1350451 0.07583826 0.16556801 0.007361326 0.034321304 0.11059008

classifier.2.weight f4 [2, 32]
00000000: 016a 993e 96ef 943e cef8 1abd 1563 0d3e
00000010: cbb8 c63e 88a4 413e 633b afbe 6227 023e
00000020: 620b 863e de5d b5be 613f b7be 8b28 353e
00000030: a05d b93c b4c5 373e bd98 53bd e43e 213e
00000040: 9ac2 c83e 55c0 d33e 4f99 483e 2078 5abe
00000050: 8e23 a9bd b65c 1bbe b39a cfbd c97c 793e
00000060: 333c 72be ab5d 35be 3f76 9cbe a94b 9e3e
00000070: 805f e73d 3311 c73e 0055 8e3e 9067 aabe
00000080: d08f 5cbe 385a 03be 02c5 9dbd 04ef 16be
00000090: 764e 22be aac1 85be 0316 dd3d 5f40 9fbe
000000a0: 100b d3be 109c c03e ca7e 883d ec7e 43be
000000b0: b639 d63d 6c93 64be 088e a7bd 91db afbe
000000c0: 9e4f a8bd b354 6cbe 768f 6abe d5bb 993e
000000d0: 0194 c73d f059 9f3e 401e a13e 5ff4 7fbe
000000e0: 6cca 813e e8e7 a53e 3aa2 0f3e 0db7 98be
000000f0: dbb4 97be a394 55be dbdc bebe 5e64 a83e
0.29963687 0.2908904 -0.037834935 0.13807328 0.3881286 0.1891042 -0.34224996 0.12710336
0.2618056 -0.35423177 -0.35790542 0.17691247 0.022627652 0.17946512 -0.051659334 0.15746647
0.3921097 0.41357675 0.19589733 -0.21334887 -0.08258735 -0.15172085 -0.101369284 0.24364008
-0.23655777 -0.17711513 -0.30558965 0.309171 0.11297512 0.3888031 0.27799225 -0.33282137
-0.21539235 -0.12827384 -0.07703592 -0.14739615 -0.15850243 -0.26124316 0.10795214 -0.311038
-0.41219378 0.37619066 0.06664808 -0.19091386 0.10460226 -0.22321862 -0.08181387 -0.34347203
-0.08218311 -0.23079185 -0.22906289 0.30026117 0.097450264 0.31123304 0.3146839 -0.24995564
0.25349748 0.32403493 0.14026728 -0.29827157 -0.2963017 -0.20857482 -0.37277874 0.32889074

classifier.2.bias f4 [2]
00000000: 3c88 da3d 5292 a7bd
0.10670516 -0.08182205
