src/DARPA/pretrained/models/w10/resampled/phase_2.pth (torch, 194061 bytes, 8 tensors)

lstm.weight_ih_l0 f4 [256, 112]
0.39505777 0.2782138 0.15560836 0.07044473 0.1586076 0.29159653 -0.030918567 0.11385316
0.022124125 0.02076304 -0.06612712 0.15813906 0.10412546 -0.22748554 0.17775719 0.056544635
0.0147253545 0.111564204 -0.21026629 -0.0016315826 -0.16189022 0.11869477 -0.07258394 -0.112052076
-0.18240824 -0.09489965 0.04489012 -0.06724472 0.15927862 0.049450524 -0.069560885 0.058143716
0.03156813 -0.1149019 0.31298497 -0.16253701 -0.049057394 -0.00465392 0.04513278 -0.0070695183
0.20627072 0.0015221627 0.029118575 0.012462461 -0.025938183 -0.12188341 0.11818004 0.18363112
0.08890688 0.12010034 0.05072002 -0.060120665 0.019886533 -0.046325512 0.031240715 -0.16744424
0.13261707 -0.13415197 0.08500726 -0.10961857 0.12371904 -0.01153449 -0.08925642 0.015176987
0.020516023 -0.059768025 0.08087039 0.04354816 0.1119635 -0.100163795 0.08334291 -0.09217547
0.10367996 -0.037288617 0.02289458 -0.09377691 -0.022832697 -0.09373096 -0.0048917527 -0.1470238
0.02860101 0.058567725 -0.08920356 -0.02262434 0.10775073 0.0017084111 0.074177906 -0.09587444
-0.041337103 -0.0763019 -0.013487172 -0.09875592 0.071836315 0.054768834 0.08720161 0.16011202
-0.09711937 0.0034514929 0.0191539 -0.0017019978 -0.06692953 -0.059117965 0.01196744 -0.015522928
-0.12911606 -0.01376947 0.11508331 0.04513586 -0.10719444 0.039615165 0.005391479 -0.109572425
-0.054514002 0.15578422 -0.03659855 0.08459374 0.050213948 0.15416525 0.07683298 0.09640865
0.048326574 0.01234985 -0.17210352 0.065899074 -0.021099433 -0.09237511 0.14399555 0.057303935
0.13384934 -0.093351305 0.105050705 0.06320103 0.016292384 -0.10106642 -0.04941711 -0.019887522
-0.22344564 -0.11626796 0.087265834 0.05174591 0.24502258 -0.01895097 0.076722905 -0.027192503
0.04370111 0.08962086 -0.0751962 0.017331613 -0.0755345 -0.0790194 -0.1821236 0.07942692
0.3874619 -0.099194214 0.11993742 -0.0024943128 -0.04704552 0.030028889 -0.01456396 -0.034719955
-0.09935533 0.12380428 0.08444802 -0.10476498 0.09664943 0.039254032 0.12763992 0.046176046
-0.0415479 -0.1100848 0.15772246 0.089881524 0.19121289 -0.016695328 -0.074408114 -0.04025408
0.009315297 0.11436582 0.031210806 0.052280262 0.15357262 -0.104661494 0.25979862 0.011901677
0.13000445 0.111740015 0.063277826 -0.09254792 0.1144315 -0.10622859 -0.14189118 0.09266025
-0.085707426 -0.10360314 -0.001806516 -0.08952452 -0.035897337 0.051469874 0.10230465 -0.10104248
-0.039986208 0.033797856 0.13888383 0.10618644 0.15115005 -0.017038781 0.10622324 0.019877983
-0.06664106 0.016843647 -0.039362703 0.13058461 -0.1389042 0.012976436 0.10981229 0.08575883
0.0014860968 -0.022734078 -0.041292727 -0.11720169 -0.083145894 -0.076039135 -0.01952876 -0.095174916
-0.110187426 -0.013506424 -0.08262922 -0.109937415 -0.015623343 0.14206685 0.12725489 0.025521586
0.23148021 -0.108272776 -0.084489286 0.1931296 0.014574653 -0.08677922 -0.05489818 -0.17764252
-0.02326907 -0.07992779 0.14327295 0.122082286 0.04398841 0.17118043 0.060015216 0.10973542
0.17752887 0.2063576 -0.011421529 0.0769049 0.110196106 -0.17940392 0.06619012 -0.11389666
00000000: 0345 ca3e 0a72 8e3e cc57 1f3e 5445 903d
00000010: 086a 223e 244c 953e ef48 fdbc d82b e93d
00000020: a73d b53c 4017 aa3c a86d 87bd 35ef 213e
00000030: bb3f d53d f8f1 68be fb05 363e 599b 673d
00000040: 9d42 713c c67b e43d 0c50 57be d4da d5ba
00000050: 8dc6 25be 3e16 f33d e4a6 94bd 8f7b e5bd
00000060: 3ac9 3abe bf5a c2bd b4de 373d 9ab7 89bd
00000070: ef19 233e a28c 4a3d f075 8ebd 1b28 6e3d
00000080: 954d 013d b051 ebbd 913f a03e 1a70 26be
00000090: 68f0 48bd e97f 98bb 26dd 383d 6ba7 e7bb
000000a0: a238 533e 4e83 c73a 148a ee3c 5a2f 4c3c
000000b0: 507c d4bc 029e f9bd 6008 f23d cc09 3c3e
000000c0: cf14 b63d 2bf7 f53d ccbf 4f3d 1641 76bd
000000d0: 15e9 a23c d2bf 3dbd 87ec ff3c 8176 2bbe
000000e0: c5cc 073e 225f 09be 4918 ae3d b37f e0bd
000000f0: 6860 fd3d 28fb 3cbc 12cc b6bd e6a8 783c
00000100: 3811 a83c 51cf 74bd 609f a53d 8e5f 323d
00000110: 1f4d e53d ad22 cdbd b0af aa3d 7ec6 bcbd
00000120: 2956 d43d f3bb 18bd 6a8d bb3c 1c0e c0bd
00000130: a30b bbbc 04f6 bfbd ff4a a0bb 688d 16be
00000140: aa4c ea3c b6e4 6f3d 5bb0 b6bd ae56 b9bc
00000150: 6aac dc3d c4ec df3a 96ea 973d d259 c4bd
00000160: 1851 29bd 2c44 9cbd 4df9 5cbc 8b40 cabd
00000170: eb1e 933d 4955 603d c296 b23d 68f4 233e
00000180: 85e6 c6bd 7132 623b a4e8 9c3c 9215 dfba
00000190: 5912 89bd ae25 72bd 1513 443c e153 7ebc
000001a0: 0037 04be 5899 61bc ccb0 eb3d 61e0 383d
000001b0: c288 dbbd 8343 223d 01ab b03b 8267 e0bd
000001c0: 134a 5fbd e685 1f3e 5ce8 15bd 7c3f ad3d
000001d0: 24ad 4d3d 7fdd 1d3e 9c5a 9d3d e671 c53d
000001e0: 16f2 453d 0657 4a3c e83b 30be 18f6 863d
000001f0: b8d8 acbc 292f bdbd 9273 133e 88b7 6a3d
00000200: cd0f 093e f82e bfbd d324 d73d 8b6f 813d
00000210: 9b77 853c e9fb cebd 9869 4abd 28eb a2bc
00000220: efce 64be e51d eebd 6eb8 b23d 85f3 533d
00000230: 33e7 7a3e 113f 9bbc e620 9d3d d0c2 debc
00000240: efff 323d 248b b73d 7700 9abd 07fb 8d3c
00000250: d5b1 9abd ecd4 a1bd 9c7e 3abe 95aa a23d
00000260: 6861 c63e 5626 cbbd c0a1 f53d a077 23bb
00000270: ceb2 40bd 25ff f53c ad9d 6ebc 8336 0ebd
00000280: cf7a cbbd 198d fd3d 15f3 ac3d 068f d6bd
00000290: 23f0 c53d d6c8 203d 0ab4 023e 1823 3d3d
000002a0: 212e 2abd 2474 e1bd ff81 213e ce13 b83d
000002b0: 50cd 433e a4c4 88bc 4863 98bd 76e1 24bd
000002c0: 309f 183c a138 ea3d cead ff3c d423 563d
000002d0: 2442 1d3e c458 d6bd 5304 853e 40ff 423c
000002e0: e31f 053e f3d7 e43d ce97 813d c489 bdbd
000002f0: 105b ea3d 608e d9bd ec4b 11be a8c4 bd3d
00000300: 6087 afbd e22d d4bd 9ec8 ecba a258 b7bd
00000310: 1609 13bd 13d2 523d 1a85 d13d 5cef cebd
00000320: 94c8 23bd 9f6f 0a3d 9037 0e3e 4778 d93d
00000330: 14c7 1a3e ea94 8bbc 928b d93d 27d7 a23c
00000340: 1c7b 88bd b0fb 893c c93a 21bd f9b7 053e
00000350: e73c 0ebe 1e9b 543c 44e5 e03d 53a2 af3d
00000360: 22c9 c23a d13c babc 9022 29bd 7107 f0bd
00000370: 6548 aabd 68ba 9bbd c7fa 9fbc 11eb c2bd
00000380: f2a9 e1bd 0c4a 5dbc 8239 a9bd de26 e1bd
00000390: 0df9 7fbc f979 113e 1b4f 023e a512 d13c
000003a0: 2609 6d3e 1ebe ddbd b808 adbd c4c3 453e
000003b0: 86ca 6e3c 4eb9 b1bd eadc 60bd ece7 35be
000003c0: c79e bebc 2eb1 a3bd 25b6 123e 4706 fa3d
000003d0: 312d 343d ec49 2f3e 84d2 753d f7bc e03d
000003e0: 21ca 353e 684f 533e 5d21 3bbc 5180 9d3d
000003f0: 7fae e13d a9b5 37be b08e 873d a742 e9bd

lstm.weight_hh_l0 f4 [256, 64]
-0.051468495 0.035496604 -0.09650837 0.18530928 0.02326988 -0.07229369 0.13465671 0.013926787
-0.09403115 -0.059969105 0.25523412 0.060779072 -0.026906239 0.05416916 -0.12118125 0.109959185
0.06276788 0.04452646 0.06896573 -0.13027956 -0.014960478 0.1607398 -0.13916808 -0.04381244
0.048375923 0.023181424 0.05402861 -0.12589234 -0.036843818 0.039950453 0.020671155 -0.07955932
-0.056360807 -0.006031923 0.0159932 0.12040014 -0.0040209433 0.0046474077 0.0027767252 0.033179622
0.104534455 0.08674283 -0.15220413 0.010849444 -0.23847644 -0.019218301 -0.20232417 -0.0014724331
-0.15135257 0.034811042 -0.109839275 -0.06444323 0.13303831 0.09149669 -0.10002544 0.031536505
0.01211313 0.043319575 0.1509308 -0.008203594 -0.011495049 -0.051051285 -0.037437703 0.033693053
0.049699463 -0.042372264 0.010331091 0.08456701 -0.09524473 -0.11572904 -0.080824494 0.030868175
-0.06485078 0.15052101 0.10166005 -0.003999609 -0.054293174 0.16852462 -0.058066696 0.10578193
0.17755458 -0.19046532 -0.017605811 -0.090842985 0.025049662 0.09369377 -0.18947802 0.081880055
-0.22065784 -0.13970512 0.10776337 0.0675863 0.092845745 -0.062305156 0.052245826 -0.017242124
0.006584188 0.15825528 0.117152505 -0.0445903 0.032374863 -0.09238252 -0.023387043 -0.024069138
-0.12179301 -0.033940732 -0.12837365 0.018905891 -0.09195974 0.14263658 -0.12671144 -0.107222095
0.0001436503 0.10550021 -0.054227013 0.01809299 -0.14958584 0.100696504 -0.067092486 0.15866157
-0.05872683 0.038855337 0.027011465 0.26103598 0.09099549 0.07076045 0.043180898 -0.06312228
-0.033181015 0.019212965 -0.04761064 0.24418806 -0.075550474 -0.20029902 0.06537802 -0.02856211
-0.055315062 -0.05615179 -0.10981883 -0.006929214 0.056513295 -0.14700899 -0.14495485 0.15052149
-0.031257845 0.13467483 0.18543905 0.025995838 -0.13455123 0.13699056 -0.11125624 -0.10973517
0.08569844 0.11736459 0.07559843 0.19291803 0.10005827 -0.039821535 -0.020080961 0.23944452
0.16817161 -0.177739 0.13687383 0.12741236 0.08596624 0.31890646 0.06412098 0.09033079
0.07569657 -0.02320163 0.13421363 0.08736774 -0.047365066 -0.08362822 -0.05826348 -0.010157604
-0.30764967 0.0616188 -0.072534226 0.0425451 0.006368094 -0.015080365 0.21037312 -0.16016941
0.10698543 0.00093934627 0.01656324 0.0023112856 -0.00031005734 0.09073743 0.03004404 -0.036617916
-0.17026283 -0.15893865 -0.0752776 0.22756544 -0.089446425 -0.16630335 0.06138116 -0.1453741
0.08072537 -0.14607821 -0.04897507 0.0060642925 0.056188717 0.089789726 -0.019642225 0.15370397
-0.19186334 0.038506057 0.21246032 0.10292904 0.1770252 0.14025699 -0.20785329 -0.18805832
0.058770217 0.10667926 0.12583911 -0.0035291165 0.16845332 -0.044998627 0.21963604 0.11430102
-0.02565643 0.048628494 0.049832284 -0.026068043 0.085011825 0.24186595 -0.0032536378 -0.05868343
-0.13380578 -0.11744319 0.06685215 0.01871508 0.1282787 -0.03594727 0.08153643 -0.079676434
-0.018941607 -0.10251427 0.023160314 0.017826986 0.09441783 -0.14018172 0.062941246 0.06831797
0.19883925 0.03721295 0.2566974 -0.08561128 -0.17909044 0.253898 0.13854128 -0.03836152
00000000: a1d0 52bd e364 113d 2ea6 c5bd b7c1 3d3e
00000010: 7aa0 be3c b70e 94bd 73e3 093e 2e2d 643c
00000020: 6793 c0bd 2aa2 75bd 0cae 823e 7af3 783d
00000030: 796a dcbc 7be0 5d3d e02d f8bd 4832 e13d
00000040: 728c 803d 6161 363d e83d 8d3d 0168 05be
00000050: cb1c 75bc f998 243e 1482 0ebe ac74 33bd
00000060: d525 463d f8e6 bd3c 1b4d 5d3d ece9 00be
00000070: 8be9 16bd 16a3 233d 8e56 a93c ffef a2bd
00000080: 97da 66bd 70a7 c5bb 2c04 833c 5994 f63d
00000090: 1ec2 83bb 4849 983b b8f9 353b 5be7 073d
000000a0: 2916 d63d 3aa6 b13d 66db 1bbe dec1 313c
000000b0: 2b33 74be b36f 9dbc 112e 4fbe a8fe c0ba
000000c0: 2bfc 1abe 0696 0e3d 6af3 e0bd d0fa 83bd
000000d0: 323b 083e 9e62 bb3d 23da ccbd 6c2c 013d
000000e0: 2676 463c de6f 313d 9b8d 1a3e 5e68 06bc
000000f0: bb55 3cbc 271b 51bd 4758 19bd ba01 0a3d
00000100: aa91 4b3d 8a8e 2dbd bc43 293c 7831 ad3d
00000110: ab0f c3bd 5903 edbd 5087 a5bd 41df fc3c
00000120: 7cd0 84bd 2e22 1a3e 2533 d03d 270f 83bb
00000130: 8562 5ebd b891 2c3e 58d7 6dbd 32a4 d83d
00000140: ded0 353e 5709 43be 103a 90bc e30b babd
00000150: f334 cd3c 85e2 bf3d 8706 42be bbb0 a73d
00000160: 21f4 61be dc0e 0fbe 0bb3 dc3d b06a 8a3d
00000170: e925 be3d b133 7fbd b8ff 553d 5b3f 8dbc
00000180: 2cc0 d73b ac0d 223e a7ed ef3d 52a4 36bd
00000190: 819b 043d 0c33 bdbd 2f96 bfbc a42c c5bc
000001a0: 9d6e f9bd 7005 0bbd 6274 03be 87e0 9a3c
000001b0: 6355 bcbd 530f 123e a5c0 01be 4297 dbbd
000001c0: d5a0 1639 7e10 d83d 251d 5ebd c037 943c
000001d0: 082d 19be f839 ce3d c967 89bd 2e78 223e
000001e0: 8b8b 70bd c626 1f3d 2647 dd3c 82a6 853e
000001f0: d85b ba3d dbea 903d 74de 303d 4146 81bd
00000200: d1e8 07bd 8264 9d3c 6003 43bd 6f0c 7a3e
00000210: 35ba 9abd 301b 4dbe e9e4 853d 16fb e9bc
00000220: 0c92 62bd 6bff 65bd b2e8 e0bd 760e e3bb
00000230: 7c7a 673d 8689 16be 0b6f 14be 4e22 1a3e
00000240: 3a08 00bd 33e8 093e bce3 3d3e 39f5 d43c
00000250: ccc7 09be 4147 0c3e 50da e3bd d5bc e0bd
00000260: aa82 af3d d95c f03d 5ad3 9a3d 4e8c 453e
00000270: 5aeb cc3d e81b 23bd d480 a4bc f230 753e
00000280: 2e35 2c3e 3601 36be a728 0c3e 6378 023e
00000290: 110f b03d b547 a33e dc51 833d 59ff b83d
000002a0: ce06 9b3d 5811 bebc 4c6f 093e dced b23d
000002b0: df01 42bd 4645 abbd b0a5 6ebd 146c 26bc
000002c0: 4284 9dbe ff63 7c3d d38c 94bd c543 2e3d
000002d0: 72ab d03b a313 77bc 0d6c 573e 7303 24be
000002e0: 2d1b db3d 763e 763a a2af 873c f078 173b
000002f0: 318f a2b9 8cd4 b93d eb1e f63c abfc 15bd
00000300: 6159 2ebe d0c0 22be 242b 9abd ea06 693e
00000310: b02f b7bd 6d4b 2abe d06a 7b3d f3dc 14be
00000320: 5853 a53d 8795 15be 159a 48bd f9b6 c63b
00000330: 2426 663d ade3 b73d bbe8 a0bc 9364 1d3e
00000340: d377 44be 87b8 1d3d 338f 593e 76cc d23d
00000350: 1846 353e 879f 0f3e 7ed7 54be 5c92 40be
00000360: 0ab9 703d a87a da3d f8db 003e c048 67bb
00000370: 077f 2c3e 7b50 38bd 45e8 603e a716 ea3d
00000380: 6f2d d2bc ac2e 473d f01c 4c3d a68c d5bc
00000390: ae1a ae3d b5ab 773e fc3a 55bb 095e 70bd
000003a0: 6204 09be 0e86 f0bd c8e9 883d 5e50 993c
000003b0: 7e5b 033e 723d 13bd 92fc a63d 662d a3bd
000003c0: 6e2b 9bbc 00f3 d1bd b3ba bd3c e609 923c
000003d0: 235e c13d cc8b 0fbe 57e7 803d 4bea 8b3d
000003e0: 849c 4b3e 9b6c 183d d76d 833e f754 afbd
000003f0: 7c63 37be ebfe 813e c4dd 0d3e f820 1dbd

lstm.bias_ih_l0 f4 [256]
-0.04574496 -0.109996945 0.07225213 0.089904115 0.053685084 0.16568273 -0.039181482 0.06529235
-0.09515452 -0.040950406 0.058139425 -0.053459376 -0.07442402 -0.1010973 0.12201109 0.06746817
-0.022189807 0.003894588 0.07258619 -0.06426234 -0.025038099 0.14971091 0.13923642 -0.05942283
0.06866485 0.106387645 0.016910708 -0.08261362 0.22730523 0.054413036 0.1662224 0.22517604
-0.10119047 -0.03933573 0.043325104 0.09266199 0.0845695 0.054328322 0.003319122 -0.03854284
0.054770738 -0.11956289 -0.05740266 0.08729305 0.0870679 -0.0113922665 0.03726649 -0.029595328
0.035124723 -0.012797286 0.21627516 -0.046790954 0.026216423 -0.0940912 -0.10516099 -0.12853867
-0.061359923 0.050220206 -0.017529866 0.0573591 0.03777889 0.064167045 0.05514391 -0.02564593
0.13833769 -0.042223644 0.09743083 -0.04756662 -0.10245375 -0.11337997 0.099008545 0.062214114
0.036632482 0.07051392 0.12395914 -0.11181182 -0.16879112 0.08548847 -0.02489509 0.1218492
0.19327195 0.12951288 0.023005763 0.043149233 -0.075092554 0.032277387 -0.033387117 0.06718925
0.12559476 -0.030739522 -0.056950055 -0.09444614 -0.046911404 -0.010580554 0.034965146 -0.038042076
0.01606692 0.11185134 -0.015795372 0.02879632 -0.058275223 -0.029459339 -0.121787906 0.05122841
0.17098166 0.004110304 -0.040808335 -0.039084163 -0.075280644 -0.011337124 -0.061866585 -0.101660855
0.0935254 0.10690368 -0.10867842 -0.08982909 0.050206754 -0.057602968 0.12503883 0.08807502
0.046467736 0.075535744 0.094564304 0.0036526062 0.085200384 -0.044817206 0.0896374 -0.015189238
-0.048493605 0.072908714 0.07391601 0.029140096 -0.09914883 -0.07903734 0.05183689 0.0290703
-0.083689965 0.07394763 0.11312279 -0.021474022 -0.058796648 -0.08075395 0.033717666 0.061562356
-0.025633084 0.01929318 0.014785251 -0.05108061 -0.083715916 0.024931395 -0.05229433 -0.1094924
0.032734666 0.055705767 -0.026009982 -0.10413626 -0.0010135943 0.036918227 0.016393337 -0.064168945
-0.112005666 0.07261301 -0.113527834 -0.05053487 -0.082365274 0.11226611 -0.02601369 -0.045369226
-0.14505965 -0.013355092 0.021759128 0.0142879905 0.029411621 0.111987315 0.049154438 0.0027123676
0.05851666 -0.022442373 -0.0936999 -0.09776186 0.0047102123 -0.060663857 -0.13986127 -0.085043445
0.03648707 -0.03352855 -0.020463035 0.055130158 -0.0680087 0.16494885 0.07239607 -0.027171956
-0.046786215 -0.121840015 -0.062785804 -0.01847857 0.051698778 0.21830152 0.122143105 0.055416927
-0.045623664 -0.07318111 0.048838172 0.047707442 -0.12861207 -0.0658712 -0.105546944 -0.0048300456
0.062241934 -0.03553414 -0.05329115 -0.13098098 0.09934784 -0.0033079162 0.006729918 0.04635484
0.11862188 0.04855884 0.09247871 -0.15239064 0.049102448 -0.05360128 0.06888801 0.075053886
-0.012678111 0.10604291 0.17850699 -0.09341842 0.10073264 0.001260436 0.04307418 -0.14019309
-0.058288522 0.09138162 0.11874292 -0.029381072 0.09072012 0.07970927 -0.09814993 0.15178542
0.13533145 0.03342839 -0.03111695 -0.026162663 0.08560979 0.08061569 -0.07571076 -0.14626203
0.15503004 -0.03649472 0.09128726 -0.023794776 -0.10044551 -0.018082201 -0.023209441 0.031766493
00000000: 115f 3bbd 1446 e1bd edf8 933d a61f b83d
00000010: e4e4 5b3d bca8 293e c37c 20bd ffb7 853d
00000020: 5fe0 c2bd 9dbb 27bd 9b23 6e3d 38f8 5abd
00000030: 9f6b 98bd 1a0c cfbd f3e0 f93d c02c 8a3d
00000040: 66c7 b5bc 583c 7f3b 12a8 943d f99b 83bd
00000050: b31c cdbc d14d 193e fe93 0e3e 5a65 73bd
00000060: 28a0 8c3d c4e1 d93d 5388 8a3c 5431 a9bd
00000070: b4c2 683e 34e0 5e3d 3436 2a3e 8c94 663e
00000080: f33c cfbd 811e 21bd aa75 313d 92c5 bd3d
00000090: c632 ad3d 6087 5e3d a085 593b 19df 1dbd
000000a0: 4857 603d 63dd f4bd 0d1f 6bbd b3c6 b23d
000000b0: a850 b23d a1a6 3abc bfa4 183d e771 f2bc
000000c0: f1de 0f3d b5ab 51bc 3c77 5d3e dfa7 3fbd
000000d0: d3c3 d63c e3b2 c0bd a55e d7bd a49f 03be
000000e0: 8b54 7bbd b4b3 4d3d cb9a 8fbc 60f1 6a3d
000000f0: 0abe 1a3d 036a 833d 95de 613d 6a17 d2bc
00000100: 65a8 0d3e b3f2 2cbd d189 c73d 37d5 42bd
00000110: 46d3 d1bd c233 e8bd fec4 ca3d 3ad4 7e3d
00000120: f10b 163d 9a69 903d 4ade fd3d 98fd e4bd
00000130: 94d7 2cbe 9414 af3d caf0 cbbc 138c f93d
00000140: 15e9 453e 069f 043e 9576 bc3c 40bd 303d
00000150: 20ca 99bd 4b35 043d eec0 08bd 849a 893d
00000160: ea9b 003e 73d1 fbbc 7644 69bd fa6c c1bd
00000170: 2c26 40bd 0f5a 2dbc 9d37 0f3d 02d2 1bbd
00000180: c69e 833c 5112 e53d 4c65 81bc 43e6 eb3c
00000190: 00b2 6ebd b654 f1bc f06b f9bd e2d4 513d
000001a0: d115 2f3e bbaf 863b a426 27bd b716 20bd
000001b0: bd2c 9abd 58bf 39bc d167 7dbd 9133 d0bd
000001c0: 3f8a bf3d 51f0 da3d cb92 debd 50f8 b7bd
000001d0: 99a5 4d3d 17f1 6bbd 2e0a 003e ad60 b43d
000001e0: f454 3e3d 7cb2 9a3d eeaa c13d 9060 6f3b
000001f0: 8a7d ae3d 3f92 37bd d093 b73d 48dc 78bc
00000200: 3ba1 46bd 2a51 953d 4761 973d 36b7 ee3c
00000210: 8b0e cbbd 54de a1bd eb52 543d d624 ee3c
00000220: a565 abbd db71 973d ecac e73d 4aea afbc
00000230: c1d4 70bd 5462 a5bd 891b 0a3d cf28 7c3d
00000240: 79fc d1bc bb0c 9e3c d63d 723c e739 51bd
00000250: 4073 abbd ed3c cc3c 9432 56bd 8d3d e0bd
00000260: c914 063d bb2b 643d e312 d5bc 6445 d5bd
00000270: 95da 84ba 9137 173d 524b 863c 026b 83bd
00000280: 3a63 e5bd 21b6 943d 4881 e8bd a7fd 4ebd
00000290: 20af a8bd c6eb e53d a91a d5bc 15d5 39bd
000002a0: 848a 14be 51cf 5abc 3340 b23c 2d18 6a3c
000002b0: a4f0 f03c 9b59 e53d 2a56 493d fac1 313b
000002c0: 2aaf 6f3d 11d9 b7bc bce5 bfbd 5f37 c8bd
000002d0: 2058 9a3b aa7a 78bd cb37 0fbe 422b aebd
000002e0: 7773 153d 3c55 09bd 18a2 a7bc 29d0 613d
000002f0: 2548 8bbd 5ae8 283e 6444 943d b997 debc
00000300: e7a2 3fbd 4287 f9bd d895 80bd 5f60 97bc
00000310: 19c2 533d 6f8a 5f3e 2a26 fa3d dcfc 623d
00000320: e1df 3abd fadf 95bd 890a 483d e168 433d
00000330: e2b2 03be 7be7 86bd ff28 d8bd 5c45 9ebb
00000340: 66f1 7e3d 3f8c 11bd d247 5abd e11f 06be
00000350: e176 cb3d a0c9 58bb a586 dc3b 93de 3d3d
00000360: 07f0 f23d a2e5 463d 7a65 bd3d 4b0c 1cbe
00000370: a61f 493d 048d 5bbd 2815 8d3d dab5 993d
00000380: dab7 4fbc 062d d93d 89ca 363e 2852 bfbd
00000390: ea4c ce3d 3735 a53a 8d6e 303d c78e 0fbe
000003a0: f2bf 6ebd 4926 bb3d 7d2f f33d 93b0 f0bc
000003b0: 78cb b93d 9d3e a33d d502 c9bd a36d 1b3e
000003c0: 5494 0a3e 35ec 083d f9e8 febc 1553 d6bc
000003d0: 3054 af3d d719 a53d 3e0e 9bbd b7c5 15be
000003e0: 32c0 1e3e 7d7b 15bd d1f4 ba3d 43ed c2bc
000003f0: 60b6 cdbd 2021 94bc ba21 bebc 951d 023d

lstm.bias_hh_l0 f4 [256]
0.040970787 -0.16691647 -0.11803397 -0.051746394 -0.009890519 0.1516814 -0.037427694 0.05055237
-0.15688366 -0.053595148 0.026914146 0.048022836 -0.015283716 -0.12435888 0.0725251 0.049153525
0.08797513 0.044430707 0.01942245 -0.09500948 -0.0003604562 -0.005410201 0.03363978 -0.0039773225
-0.043132145 -0.0038193844 0.05685264 0.05489877 0.14417434 0.02890608 -0.0012592886 0.0613079
-0.12625425 0.041666392 0.039096124 -0.04311832 -0.04994349 0.025249504 -0.12741879 -0.14589292
-0.059312187 0.09464485 0.07986749 -0.04636603 -0.011158641 -0.17128675 -0.13411444 0.108529784
-0.05473687 0.028706418 0.04470089 0.021813104 -0.02825551 -0.011682637 0.01240764 0.021890054
0.08163699 -0.00069155183 0.019137712 0.1026555 0.07360034 0.008483785 0.13060558 0.05260257
0.05777962 -0.06564083 -0.11835734 0.12695363 -0.101936415 -0.029931229 0.14130253 0.05055114
0.042302694 -0.08042323 0.012729523 -0.14030516 -0.07196988 0.020081058 0.105572626 -0.064114206
-0.0026504872 -0.02970192 0.027522434 0.06452559 -0.16051246 -0.08543836 0.058646586 -0.10016506
0.096460566 -0.109515466 0.11183852 -0.11094239 0.057861686 0.09274771 0.13614416 -0.08636798
0.072543494 0.09055427 -0.17399569 0.06962588 -0.009540858 0.011681373 -0.08618357 0.03627473
0.15957174 -0.11505239 -0.017492946 -0.016462818 -0.116311766 -0.10226936 0.014791892 0.0775932
-0.12511565 0.16841419 0.058675744 0.0042919335 0.038250614 -0.07497119 -0.060552802 -0.110645555
-0.07108699 0.19131458 0.19374016 0.058524374 0.14571016 0.06501688 0.13372716 -0.083009616
0.039381277 0.040695522 0.05421047 0.07653065 -0.09122545 0.018028477 0.09755208 -0.0025994133
0.073833995 0.0108202845 -0.011492293 -0.089241125 0.029278127 0.05414591 0.017698033 -0.044910632
-0.04972225 0.048186664 0.14212555 0.06776335 -0.10294315 0.1160209 -0.028834583 0.06632914
0.07166471 0.08705449 -0.035379514 0.035555065 0.14692543 -0.033113927 0.027385402 -0.089651346
-0.002866063 -0.05434954 -0.10013163 -0.05443832 -0.12534514 0.109921925 -0.07492562 0.068393834
-0.048723087 -0.062529325 -0.046435766 -0.124878064 0.113053314 -0.07156842 -0.04469627 0.0773498
-0.01373515 0.13733025 -0.036555383 0.108068906 0.0374991 0.10954513 -0.11706768 0.0076701855
-0.13144809 0.09832497 0.08010312 0.10814141 0.038281016 0.044222023 -0.08226894 0.024147805
-0.14035735 0.0102557605 -0.044518344 -0.07126102 -0.00015587172 0.24885817 -0.03703284 -0.071092285
-0.064628504 0.10857668 0.23602714 -0.058816295 -0.07275575 0.015720494 -0.023301182 0.051463954
0.10664642 0.012222339 0.04325067 -0.066576086 -0.11520297 -0.039921515 0.2217769 -0.01913524
-0.011471695 0.16623184 -0.07540707 -0.014236399 0.02456894 -0.05165323 0.019790623 0.1680463
0.019964943 -0.02125458 0.027628353 0.07195739 0.07991442 0.06553255 0.043498818 -0.07683797
0.037927076 -0.1468103 0.11919258 -0.034909517 0.061465174 -0.032560647 -0.065971196 0.08418085
-0.03779625 -0.11778529 0.1968431 -0.020209895 0.0122245215 0.0114891725 -0.07203928 -0.04884317
-0.02392057 0.027278582 0.0052743163 0.00870832 -0.0799014 0.0034521522 0.06801358 0.06168762
00000000: fcd0 273d 27ec 2abe cbbb f1bd 07f4 53bd
00000010: d80b 22bc 5e52 1b3e c84d 19bd 0010 4f3d
00000020: 1ca6 20be 9686 5bbd 0e7b dc3c 98b3 443d
00000030: 8d68 7abc deaf febd 0a88 943d 3555 493d
00000040: 4e2c b43d f9fc 353d d41b 9f3c 5594 c2bd
00000050: 9dfb bcb9 0e48 b1bb dec9 093d 3354 82bb
00000060: 55ab 30bd a34e 7abb 50de 683d 88dd 603d
00000070: 70a2 133e 72cc ec3c b70e a5ba fe1d 7b3d
00000080: cb48 01be 61aa 2a3d 4223 203d d69c 30bd
00000090: 8c91 4cbd 0cd8 ce3c 127a 02be f464 15be
000000a0: 56f1 72bd 29d5 c13d 9191 a33d 4eea 3dbd
000000b0: bcd2 36bc cb65 2fbe 4c55 09be dd44 de3d
000000c0: c533 60bd b929 eb3c 4818 373d 65b1 b23c
000000d0: 1978 e7bc 8868 3fbc 6a49 4b3c c552 b33c
000000e0: 4b31 a73d 4249 35ba b1c6 9c3c 0c3d d23d
000000f0: c6bb 963d 93ff 0a3c 78bd 053e cb75 573d
00000100: 53aa 6c3d b36e 86bd 5565 f2bd 2200 023e
00000110: 0ac4 d0bd 5632 f5bc 9cb1 103e b60e 4f3d
00000120: 9745 2d3d efb4 a4bd 7d8f 503c 28ac 0fbe
00000130: f264 93bd 0881 a43c 7636 d83d 4f4e 83bd
00000140: ccb3 2dbb 7151 f3bc ba76 e13c fe25 843d
00000150: 615d 24be 4ffa aebd 6737 703d 5723 cdbd
00000160: 1e8d c53d a549 e0bd 980b e53d c435 e3bd
00000170: 6000 6d3d 83f2 bd3d 6069 0b3e b2e1 b0bd
00000180: af91 943d 8474 b93d ed2b 32be 0398 8e3d
00000190: 4251 1cbc 3b63 3f3c 0381 b0bd d094 143d
000001a0: c666 233e 96a0 ebbd 5e4d 8fbc 08dd 86bc
000001b0: dd34 eebd 9972 d1bd b159 723c 2fe9 9e3d
000001c0: 511e 00be c574 2c3e fa55 703d 59a3 8c3b
000001d0: adac 1c3d 7f8a 99bd 3706 78bd 239a e2bd
000001e0: 0e96 91bd f8e7 433e d263 463e 41b7 6f3d
000001f0: 0b35 153e 9227 853d c6ef 083e f200 aabd
00000200: 434e 213d 59b0 263d cc0b 5e3d 1abc 9c3d
00000210: 69d4 babd 75b0 933c 63c9 c73d eb5a 2abb
00000220: 4736 973d 9047 313c 2c4a 3cbc 0dc4 b6bd
00000230: afd8 ef3c 1ac8 5d3d 77fb 903c 36f4 37bd
00000240: 8fa9 4bbd 615f 453d 5c89 113e 83c7 8a3d
00000250: dcd3 d2bd 5e9c ed3d 8136 ecbc 92d7 873d
00000260: f3c4 923d a049 b23d 1cea 10bd 30a2 113d
00000270: 9f73 163e 78a2 07bd 5a57 e03c 209b b7bd
00000280: 8fd4 3bbb a09d 5ebd d011 cdbd b7fa 5ebd
00000290: 7a5a 00be bf1e e13d 9a72 99bd 1112 8c3d
000002a0: dc91 47bd 600f 80bd 6e33 3ebd 12c0 ffbd
000002b0: 7f88 e73d 7792 92bd 7013 37bd 9269 9e3d
000002c0: 6509 61bc 4da0 0c3e 19bb 15bd 3b53 dd3d
000002d0: a898 193d 3259 e03d 2ec1 efbd 2e56 fb3b
000002e0: 549a 06be 9a5e c93d 1b0d a43d 3e79 dd3d
000002f0: 8ecc 1c3d 2722 353d 9e7c a8bd 9ed1 c53c
00000300: d6b9 0fbe c707 283c de58 36bd 4cf1 91bd
00000310: 7f71 23b9 add4 7e3e bfaf 17bd d598 91bd
00000320: f35b 84bd 735d de3d 19b1 713e 5be9 70bd
00000330: f700 95bd 44c8 803c 1fe2 bebc decb 523d
00000340: 7069 da3d 3540 483c 9d27 313d 0b59 88bd
00000350: 89ef ebbd be84 23bd 7c19 633e 82c1 9cbc
00000360: c7f3 3bbc ae38 2a3e 066f 9abd c93f 69bc
00000370: cd44 c93c 5692 53bd f21f a23c 5414 2c3e
00000380: 858d a33c 161e aebc db54 e23c 655e 933d
00000390: 2caa a33d ee35 863d d12b 323d 3a5d 9dbd
000003a0: 6c59 1b3d 7055 16be 3d1b f43d 48fd 0ebd
000003b0: e8c2 7b3d 505e 05bd e81b 87bd 0267 ac3d
000003c0: 3ed0 1abd 6a39 f1bd 3d91 493e 398f a5bc
000003d0: 5c49 483c 153d 3c3c 5489 93bd c70f 48bd
000003e0: 12f5 c3bc 5577 df3c 2cd4 ac3b 57ad 0e3c
000003f0: 58a3 a3bd 813d 623b b44a 8b3d 28ac 7c3d

classifier.0.weight f4 [32, 64]
0.19920158 0.12281518 0.18851355 -0.09754355 -0.11778487 0.099370934 -0.0035877016 -0.059768736
-0.11355513 -0.048595294 0.1344568 -0.025292851 -0.12935343 -0.04925677 -0.11410207 -0.038537964
0.10497911 -0.10989638 -0.20658708 -0.230169 0.09262471 -0.1697894 -0.17563692 -0.13069637
-0.005434764 -0.1771523 -0.008865305 0.14746572 0.31064057 -0.0459492 -0.032708567 0.09325174
-0.019281272 0.14685868 0.40245003 0.0755226 -0.086264186 0.13411194 0.09965471 0.015953267
-0.1012037 0.022296304 0.013629427 0.16073741 -0.060958307 0.07308977 -0.22073217 -0.27152306
-0.3401725 0.020533875 0.33406875 -0.085513964 -0.17669523 -0.052346263 -0.036134616 -0.15354392
-0.013263305 0.28456748 -0.1836988 0.16071552 0.13681966 -0.0010533042 0.14933664 0.05010142
0.0037335134 0.0155539 0.016482815 0.018442923 0.039585464 -0.20919524 -0.04881834 0.15360823
0.13298728 0.01659277 -0.11112971 -0.044848222 0.12679614 -0.019495131 0.0859486 0.043872803
-0.099267885 0.017500259 0.03045521 0.042385474 0.015800774 0.18080351 0.27898026 0.069079146
-0.06997984 0.14189158 -0.12349784 0.063004084 -0.2132817 0.025262797 -0.0362737 -0.22796562
0.099353634 -0.23691398 -0.7289246 -0.07355898 -0.038602013 -0.013493605 0.1803061 0.22325915
-0.07963892 -0.07636959 -0.027704233 -0.22222511 0.16673185 -0.29695535 0.116892174 0.2843473
0.2815194 0.22091442 -0.29070124 -0.1187051 -0.030422475 -0.024201293 0.122973256 0.0016257653
0.1764342 -0.0035617393 0.13920523 -0.22192228 0.06445143 0.06877281 -0.26044935 0.12395279
-0.21336807 0.12128141 0.02028049 0.16052201 0.034372475 -0.22538969 -0.12887457 0.13920657
0.011291859 -0.12149928 -0.083612666 -0.08759352 0.052615106 -0.09959034 0.1981557 0.010613642
0.0280134 0.19481783 0.1275944 0.061310623 -0.0683879 0.28834265 0.22701195 0.0037236372
0.04044201 0.27051577 -0.051620074 -0.07975817 -0.118450664 0.08488278 0.094828196 -0.041949958
0.1693749 -0.114739895 -0.39473912 -0.08725301 -0.10991015 0.038563 0.06949266 0.22300476
-0.1124749 0.07808934 0.12121099 -0.19951765 0.2171948 -0.12153668 0.10660722 0.20426239
0.1404597 0.06559818 -0.177014 -0.17842308 0.10071347 -0.07567203 -0.005639633 -0.120421916
0.19376834 -0.07247663 0.15755 -0.051888682 -0.10908449 -0.017672095 -0.19513315 0.15702136
-0.11705883 0.11633689 0.037984923 0.14012583 0.036742892 -0.088757865 -0.2197864 0.08569663
0.0105601065 -0.17687926 -0.10504554 -0.07288956 0.13959767 -0.20714706 0.09279146 -0.031606607
-0.033641096 0.15541016 0.041489594 0.23718666 -0.10521222 0.34352928 0.2624771 0.19616383
0.11133421 0.26478285 -0.09529783 -0.07777852 -0.24758011 0.0979151 -0.07755763 0.031721216
0.10437477 -0.17433874 -0.36821854 0.018352445 -0.16647185 -0.09925078 0.13351886 0.051090922
-0.06330033 -0.063637525 0.013258031 -0.3922057 0.13293624 -0.07393095 0.24216864 0.11440726
0.31139258 0.03729337 -0.36577874 -0.22550939 0.10117787 0.017452192 -0.08392403 -0.1307888
0.12842746 -0.18608974 0.093565896 -0.101830795 -0.16063914 -0.032858584 -0.10573069 0.19126326
00000000: 80fb 4b3e 8686 fb3d b209 413e eac4 c7bd
00000010: 3239 f1bd fd82 cb3d a51f 6bbb 10d0 74bd
00000020: 988f e8bd dc0b 47bd 0baf 093e f432 cfbc
00000030: 3a75 04be 78c1 49bd 59ae e9bd fcd9 1dbd
00000040: 4aff d63d 5a11 e1bd 908b 53be 6cb1 6bbe
00000050: 06b2 bd3d 46dd 2dbe 2ada 33be 45d5 05be
00000060: 1b16 b2bb 6a67 35be c93f 11bc 4101 173e
00000070: 480c 9f3e 3a35 3cbd 6bf9 05bd c5fa be3d
00000080: c2f3 9dbc 1f62 163e ee0d ce3e 98ab 9a3d
00000090: 47ab b0bd a454 093e c517 cc3d 6db0 823c
000000a0: e343 cfbd bda6 b63c f64d 5f3c 5998 243e
000000b0: 6baf 79bd 17b0 953d 9d07 62be 1205 8bbe
000000c0: 172b aebe a836 a83c 0f0b ab3e f221 afbd
000000d0: 98ef 34be 0969 56bd e401 14bd 9e3a 1dbe
000000e0: 554e 59bc d4b2 913e 8a1b 3cbe 9c92 243e
000000f0: 741a 0c3e 060f 8aba b4eb 183e 2637 4d3d
00000100: f6ad 743b c9d5 7e3c f806 873c 9d15 973c
00000110: 5e24 223d 4737 56be bdf5 47bd 7a4b 1d3e
00000120: d12d 083e 90ed 873c f997 e3bd c5b2 37bd
00000130: d9d6 013e 41b4 9fbc d205 b03d f8b3 333d
00000140: f64c cbbd b45c 8f3c 347d f93c 649c 2d3d
00000150: a070 813c 8e24 393e 80d6 8e3e 5e79 8d3d
00000160: 9751 8fbd 074c 113e 6fec fcbd 4908 813d
00000170: 8566 5abe edf3 ce3c bb93 14bd d26f 69be
00000180: eb79 cb3d 9499 72be cd9a 3abf 17a6 96bd
00000190: 251d 1ebd 4814 5dbc 2aa2 383e 0c9e 643e
000001a0: bb19 a3bd a967 9cbd fdf3 e2bc fb8e 63be
000001b0: c1bb 2a3e 880a 98be 2a65 ef3d f895 913e
000001c0: 5023 903e 6437 623e cbd6 94be a91b f3bd
000001d0: 8e38 f9bc ca41 c6bc 67d9 fb3d a217 d53a
000001e0: 2bab 343e 126c 69bb d18b 0e3e 983f 63be
000001f0: 1dff 833d c2d8 8c3d 9e59 85be f6da fd3d
00000200: 297d 5abe 6362 f83d 4523 a63c e25f 243e
00000210: 27ca 0c3d 8ecc 66be b2f7 03be 2b8c 0e3e
00000220: 7d01 393c 9dd4 f8bd 1e3d abbd 3b64 b3bd
00000230: f082 573d 05f6 cbbd 54e9 4a3e d7e4 2d3c
00000240: 5c7c e53c 537e 473e 1ba8 023e d920 7b3d
00000250: f50e 8cbd a6a1 933e d275 683e 4408 743b
00000260: 85a6 253d 0b81 8a3e 926f 53bd 4058 a3bd
00000270: 4396 f2bd 06d7 ad3d 4935 c23d b8d3 2bbd
00000280: 9d70 2d3e c0fc eabd 3f1b cabe b5b1 b2bd
00000290: 9318 e1bd 3cf4 1d3d 2b52 8e3d 5c5b 643e
000002a0: 3e59 e6bd 4eed 9f3d 783d f83d 5b4e 4cbe
000002b0: 5068 5e3e 39e8 f8bd e354 da3d 292a 513e
000002c0: abd4 0f3e 5758 863d 2843 35be 8ab4 36be
000002d0: dd42 ce3d f0f9 9abd accc b8bb c49f f6bd
000002e0: 356b 463e a16e 94bd ca54 213e 3a89 54bd
000002f0: b067 dfbd 12c5 90bc fcd0 47be 35ca 203e
00000300: 8abc efbd 0942 ee3d 1496 1b3d 257d 0f3e
00000310: b77f 163d afc6 b5bd b00f 61be b781 af3d
00000320: 4c04 2d3c d61f 35be 1e22 d7bd 1f47 95bd
00000330: b1f2 0e3e 5c1e 54be 7309 be3d ee75 01bd
00000340: 3fcb 09bd d723 1f3e fef0 293d 0fe1 723e
00000350: 8179 d7bd 12e3 af3e 6663 863e 2cdf 483e
00000360: 3103 e43d 9e91 873e 822b c3bd 584a 9fbd
00000370: a485 7dbe b687 c83d 89d6 9ebd 1bee 013d
00000380: 70c2 d53d db85 32be 2487 bcbe de57 963c
00000390: 9977 2abe fe43 cbbd 2bb9 083e b744 513d
000003a0: 9aa3 81bd 6454 82bd 3638 593c 2fcf c8be
000003b0: 7020 083e 1c69 97bd 0efb 773e 5b4e ea3d
000003c0: d96e 9f3e efc0 183d 5a47 bbbe efeb 66be
000003d0: 5836 cf3d e6f7 8e3c 5de0 abbd 80ed 05be
000003e0: 7d82 033e 4f8e 3ebe 7a9f bf3d aa8c d0bd
000003f0: 967e 24be b996 06bd 5589 d8bd 84da 433e

classifier.0.bias f4 [32]
0.07844401 0.13674371 0.06389051 0.15456484 0.21591018 0.019525377 0.055491176 0.0052156146
-0.06958453 0.08674873 0.2122925 0.15998049 0.20406435 -0.067473955 0.11922668 -0.012112473
0.11644321 0.013940998 0.09457738 0.106325656 0.16457942 0.073886715 0.047376774 -0.060591545
0.040076807 0.037665647 0.049428996 0.07345689 0.047778264 0.10972037 0.09150851 -0.07872296
00000000: 41a7 a03d 8b06 0c3e 07d9 823d 3f46 1e3e
00000010: 8f17 5d3e aff3 9f3c b74a 633d bfe7 aa3b
00000020: 5682 8ebd 51a9 b13d 3563 593e edd1 233e
00000030: 3ff6 503e c92f 8abd 1e2d f43d 6573 46bc
00000040: c779 ee3d c968 643c c9b1 c13d 44c1 d93d
00000050: 8287 283e eb51 973d 260e 423d d72e 78bd
00000060: 9427 243d 4b47 1a3d 0f76 4a3d 9170 963d
00000070: 24b3 433d 13b5 e03d d068 bb3d 8139 a1bd

classifier.2.weight f4 [2, 32]
-0.15750903 0.34622163 0.2771082 0.2517785 0.20678326 -0.13359807 -0.15384896 -0.26527086
-0.48223633 -0.08522884 0.30297235 0.33201975 0.16218959 0.3048071 0.33031338 -0.23286141
0.72857904 -0.2845978 -0.20418273 -0.19443148 0.10647606 0.26974308 0.5060861 -0.29245666
-0.07384351 -0.23054926 -0.21631998 0.38858622 0.14475434 0.29415953 -0.11213262 -0.27317095
0.206078 -0.1999912 -0.31484812 -0.24168855 -0.34561783 0.1924738 0.2977106 0.14292607
0.5564357 0.32589364 -0.3089016 -0.24884118 -0.3237217 -0.102753334 -0.20400193 0.124517314
-0.6337993 0.17924288 0.11377598 0.14875852 -0.3325794 -0.38086244 -0.4896349 0.2541967
0.315546 0.07384479 0.08132731 -0.37367874 -0.43338493 -0.26590374 0.1734178 0.3289495
00000000: 0c4a 21be f643 b13e 20e1 8d3e 1de9 803e
00000010: febe 533e efcd 08be 958a 1dbe 95d1 87be
00000020: aee7 f6be 758c aebd 311f 9b3e 7efe a93e
00000030: 0715 263e ad0f 9c3e d61e a93e 3973 6ebe
00000040: 2884 3a3f ceb6 91be 4715 51be 0c19 47be
00000050: 1f10 da3d c41b 8a3e dc8e 013f e1bc 95be
00000060: 443b 97bd 1b15 6cbe fc82 5dbe c6f4 c63e
00000070: 7b3a 143e 149c 963e c9a5 e5bd 10dd 8bbe
00000080: 1c06 533e 7eca 4cbe c633 a1be 347d 77be
00000090: d2f4 b0be da17 453e 866d 983e 365b 123e
000000a0: 9272 0e3f 88db a63e 5a28 9ebe 39d0 7ebe
000000b0: dabe a5be 5770 d2bd e2e5 50be ef02 ff3d
000000c0: ac40 22bf 728b 373e 6203 e93d 2754 183e
000000d0: d947 aabe 6700 c3be 6db1 fabe 1226 823e
000000e0: 3f8f a13e f03b 973d ef8e a63d d252 bfbe
000000f0: a1e4 ddbe 8924 88be 7094 313e 126c a83e

classifier.2.bias f4 [2]
0.098073535 -0.15079696
00000000: c7da c83d 856a 1abe
