experiments/darpa2000/s1_inside/deepproblog/phase_classifiers/models/w10/original/phase_1.pth (torch, 194061 bytes, 8 tensors)

lstm.weight_ih_l0 f4 [256, 112]
0	0xbcfc933e	-0.03083193
1	0xbe20faa9	-0.1572062
2	0xbe13a559	-0.14418544
3	0x3d411508	0.047139198
4	0xbe2beed4	-0.16790324
5	0xbd47c3ab	-0.048770588
6	0xbe4b2c98	-0.1984123
7	0xbe42a46d	-0.19008036
8	0xbcb6587d	-0.022258991
9	0x3cb0b0e1	0.021568717
10	0x3dd4e3b5	0.10394994
11	0x3e53c54f	0.20680736
12	0x3dcb13e5	0.09915904
13	0x3d803dbc	0.06261775
14	0x3e8c8c6a	0.27450877
15	0x3e74631b	0.2386593
16	0x3ea51631	0.32243493
17	0xbdca3627	-0.0987361
18	0x3edb000f	0.42773482
19	0x3e411836	0.18856892
20	0x3e9c8aa7	0.30574533
21	0x3f1801e8	0.5937791
22	0x3e21c636	0.15798268
23	0x3e1bdf3b	0.15221874
24	0x3d8315a1	0.0640061
25	0x3e47d9f8	0.19516742
26	0x3ed822a3	0.42213926
27	0xbc415e10	-0.011802211
28	0x3f3e81e0	0.74416924
29	0x3e27dd5d	0.16393037
30	0x3e4f9bbd	0.20274253
31	0x3d8444f9	0.06458468
32	0x3e270369	0.16309895
33	0x3e26d017	0.16290317
34	0x3ead4bc5	0.3384687
35	0xbded0c86	-0.11574654
36	0xbe90c397	-0.28274223
37	0x3e5dbd7e	0.21654317
38	0xbd003c3f	-0.031307455
39	0x3f239e9f	0.6391391
40	0x3f1efa3e	0.6210059
41	0xbc9eb6ca	-0.01937427
42	0x3d4560b1	0.048187915
43	0x3e6f7fe3	0.23388629
44	0x3de7924a	0.11307199
45	0x3e120515	0.14259751
46	0xbd3eec7e	-0.046612255
47	0x3cd36b19	0.025807904
48	0x3dcf4dd9	0.1012227
49	0x3d9c8c16	0.07643907
50	0x3d35f795	0.044425566
51	0x3e1f64c6	0.15565786
52	0x3dea8b4d	0.11452351
53	0x3e82ae16	0.25523442
54	0x3e08c6a9	0.13357033
55	0xbd215a96	-0.03939303
56	0x3d0051c0	0.031327963
57	0x3de6f501	0.112771995
58	0x3dfa4f14	0.12222114
59	0x3e2f2e5f	0.17107533
60	0x3eddc843	0.4331685
61	0x3ea34b4f	0.31893393
62	0xbe1e96a5	-0.15487154
63	0xbdc212a8	-0.09476215
64	0xbd4c7051	-0.0499118
65	0x3e3e946b	0.18611304
66	0x3e0a4493	0.13502721
67	0x3cccd13c	0.025002114
68	0xbc66c212	-0.014084356
69	0xbd2e7bd2	-0.042598553
70	0x3e87050d	0.2637104
71	0x3e30948b	0.17244165
72	0xbd00f14a	-0.03148011
73	0xbd617f69	-0.05505315
74	0x3cee5ccd	0.029096985
75	0x3b3864ab	0.0028136175
76	0x3c49c9df	0.012316196
77	0xbe08e4e0	-0.13368559
78	0x3b508996	0.003182029
79	0x3e25e7ee	0.16201755
80	0xbd144f64	-0.036208525
81	0x3b959340	0.0045646727
82	0x3e14a87e	0.145174
83	0xbe069258	-0.13141763
84	0x3d420516	0.04736813
85	0x3c7adca8	0.015311398
86	0x3df98d5c	0.12185165
87	0x3e17c540	0.14821339
88	0x3e7af2ad	0.24506636
89	0x3d7c25aa	0.061559357
90	0xbdaba7f1	-0.08381642
91	0x3e4886fc	0.19582742
92	0x3ea70af9	0.3262556
93	0x3f21ee10	0.6325388
94	0x3cfdff5c	0.031005554
95	0x3ed8f36b	0.42373213
96	0x3e181393	0.14851217
97	0x3df5e0d4	0.12005773
98	0x3e1a3200	0.15058136
99	0xbcc326ed	-0.023822272
100	0x3ddb81ff	0.10718154
101	0xbdf0c220	-0.117557764
102	0x3dcf9d74	0.10137454
103	0x3e087871	0.13327195
104	0x3ee5af2f	0.44860217
105	0x3e337370	0.17524505
106	0x3df76336	0.1207947
107	0x3e5dc4b4	0.21657068
108	0x3d9dcbf6	0.07704918
109	0x3d662fa4	0.056197777
110	0x3d5be80a	0.053688087
111	0x3db04a76	0.08607952
112	0xbbb0fd71	-0.0054013063
113	0xbd105a67	-0.035242464
114	0xbc363ad8	-0.011122428
115	0x3c6fc430	0.014634177
116	0xbe1141b4	-0.1418522
117	0xbc8a8c9d	-0.016912753
118	0xbbf068fb	-0.0073367334
119	0x3dd5c167	0.10437279
120	0xbe089d42	-0.13341239
121	0x3de52779	0.111891694
122	0x3ddfc42f	0.10926091
123	0xbddc046c	-0.10743031
124	0x3e8aba12	0.27095085
125	0xbd81ad9b	-0.06331941
126	0x3a888c2a	0.0010417749
127	0x3e06db1c	0.13169521
128	0xbd6dd3dd	-0.058063377
129	0x3e02d7d7	0.12777649
130	0xbe05c513	-0.13063459
131	0x3d998803	0.07496645
132	0x3d69ab12	0.05704791
133	0xbea66d77	-0.3250539
134	0xbae23322	-0.001725767
135	0xbdb6d1bc	-0.089267224
136	0x3d9c6729	0.07636864
137	0xbd03ec8b	-0.032208007
138	0xbe03902c	-0.12847966
139	0x3de051df	0.10953116
140	0xbda849a5	-0.082171716
141	0xbd855436	-0.065102026
142	0x3da29823	0.07939174
143	0x3debafe8	0.11508161
144	0x3d44834b	0.047976773
145	0xbd48426c	-0.04889147
146	0xbe27e9f4	-0.1639784
147	0xbc068296	-0.008209845
148	0xbc1f1b15	-0.009711047
149	0xbe8c7148	-0.27430177
150	0xbe341361	-0.17585517
151	0x3e3700a4	0.17871338
152	0xbd9691f5	-0.07352058
153	0x3dd13181	0.1021452
154	0x3dd32bd1	0.10311092
155	0x3e241846	0.16024885
156	0xbdbe3c3e	-0.09288834
157	0x3c365d55	0.0111306505
158	0xbc2349c5	-0.0099663185
159	0x3d90cc26	0.07070188
160	0x3cedba94	0.029019631
161	0x3df86639	0.121288724
162	0xbdb8a9db	-0.09016772
163	0x3e61a5e7	0.22035943
164	0x3e2d41f3	0.16919689
165	0x3e33fa8a	0.17576042
166	0x3d9471ca	0.07248266
167	0x3e1a54d6	0.15071425
168	0x3de67223	0.112522386
169	0x3dca53ed	0.09879289
170	0xbca56158	-0.020188019
171	0xbd9febdb	-0.07808658
172	0xbe00cd80	-0.12578392
173	0x3e2b8ce1	0.1675296
174	0xbd89bcc7	-0.067254595
175	0xbda046b7	-0.07825988
176	0xbe02a38b	-0.12757699
177	0xbdb52a4e	-0.088459596
178	0x3df60868	0.12013322
179	0x3cf5959b	0.029978564
180	0x3db7f0c7	0.089814715
181	0x3e1c21e0	0.15247297
182	0xbc8506f8	-0.016238675
183	0xbd890735	-0.06690828
184	0xbe264e98	-0.16240919
185	0xbd0b88ca	-0.034066
186	0xbd47b51d	-0.048756707
187	0x3d858c95	0.065209545
188	0x3d944e06	0.07241444
189	0xbdf8d893	-0.12150683
190	0xbc47ab0c	-0.012186777
191	0xbdd0c92b	-0.1019462
192	0x3dc563f2	0.09638204
193	0x3dce0a16	0.100605175
194	0xbdabfe63	-0.0839813
195	0x3e4fc718	0.20290792
196	0x3cfc02fd	0.030763144
197	0xbd6ea9b6	-0.058267318
198	0x3e3da1fe	0.18518826
199	0x3d820ad1	0.06349719
200	0x3dace337	0.08441775
201	0x3caa5e6e	0.02079698
202	0x3d430fe0	0.04762256
203	0xbcfddcff	-0.030989168
204	0xbd6f8493	-0.058476042
205	0xbe3784ff	-0.17921828
206	0x3dabb547	0.08384185
207	0xbdb7cc8d	-0.08974562
208	0xbbfc9810	-0.007708557
209	0x3dd311c6	0.103061244
210	0x3b52d48e	0.003217015
211	0xbc5ccbb8	-0.013476305
212	0x3d6d0fb1	0.057876293
213	0xbdd328f4	-0.103105456
214	0x3d42d3f2	0.047565408
215	0x3cc3c14b	0.02389588
216	0xbda56891	-0.08076585
217	0x3d9c789e	0.076401934
218	0x3c3516bd	0.0110527845
219	0x3d7cdb07	0.06173232
220	0xbe0aa5f2	-0.13539866
221	0xbe3dd66f	-0.18538831
222	0x3deb2aa0	0.114827394
223	0xbd553c58	-0.0520595
224	0x3cb31b2a	0.021863539
225	0xbe060a19	-0.1308979
226	0xbd11e2cd	-0.035616685
227	0xbdd2db82	-0.10295774
228	0xbcd34990	-0.025791913
229	0xbd57726a	-0.052599348
230	0xbd926a79	-0.07149214
231	0xbbc66c44	-0.0060553867
232	0xbde1a193	-0.11017146
233	0x3da6cbd9	0.081443496
234	0x3cc3a29a	0.023881245
235	0xbccd3ab9	-0.025052415
236	0x3de5fc8e	0.112298116
237	0x3aa54217	0.0012608197
238	0xbde3134e	-0.110876665
239	0x3e82cb8f	0.25545928
240	0x3ea30725	0.31841388
241	0xbda54784	-0.08070281
242	0x3e95c200	0.29249573
243	0x3d84d0e6	0.06485157
244	0x3e5f6cd5	0.2181886
245	0x3f1d86ea	0.6153399
246	0x3d040d12	0.032239027
247	0xbd7f12d6	-0.062273823
248	0x3e3a8e32	0.18218306
249	0x3de67519	0.11252803
250	0x3f02c55d	0.510824
251	0x3d9e30db	0.07724162
252	0x3f20c08b	0.627938
253	0x3d20dee8	0.03927508
254	0x3c6f9f0a	0.01462532
255	0xbbd91175	-0.0066243955

lstm.weight_hh_l0 f4 [256, 64]
0	0x3def71f9	0.116916604
1	0xbde39602	-0.11112596
2	0xbcd7070b	-0.026248476
3	0xbd586031	-0.05282611
4	0x3dca1eb6	0.09869139
5	0x3ddd6f67	0.10812264
6	0xbd3bbf62	-0.045836814
7	0xbd90e427	-0.070747666
8	0xbdf024e9	-0.1172579
9	0xbe80db93	-0.25167522
10	0x3e187f0f	0.14892219
11	0xbdda673a	-0.1066422
12	0x3dc885d9	0.097911544
13	0xbda64be0	-0.08119941
14	0x3e2759aa	0.16342798
15	0x3d7e3765	0.062064547
16	0x3d461a8c	0.04836516
17	0x3da51ef9	0.08062548
18	0x3d85f728	0.06541282
19	0xbe9309b1	-0.2871833
20	0xbd3482db	-0.044070106
21	0xbd8b0745	-0.06788496
22	0x3e192c32	0.14958265
23	0x3e03b11a	0.12860528
24	0x3e0e63a2	0.13905194
25	0x3e7cfafa	0.24705115
26	0x3dfca3e9	0.12335951
27	0x3da885fe	0.08228682
28	0x3d93d657	0.072186165
29	0xbc1e3913	-0.009657162
30	0x3d98ede1	0.07467247
31	0xbddcf391	-0.10788644
32	0x3e20f2d0	0.15717626
33	0xbd52f586	-0.05150368
34	0xbd1e42fe	-0.038638107
35	0x3d9177d2	0.07102932
36	0xbddd1c63	-0.1079643
37	0xbe20b240	-0.15692997
38	0x3dc3e408	0.09564978
39	0x3d9f0480	0.0776453
40	0x3d3f3094	0.046677187
41	0x3c539022	0.012912782
42	0xbd9476ce	-0.07249223
43	0x3c97e39c	0.01854115
44	0x3be29805	0.006915095
45	0x3e0dec24	0.13859612
46	0xbe15630a	-0.14588562
47	0x3d8fdd0e	0.07024585
48	0xbd85dc5a	-0.06536169
49	0x3e169f49	0.147092
50	0x3d868bb9	0.06569619
51	0x3dfb5446	0.12271933
52	0x3cfe20ea	0.031021554
53	0x3d6e7d1f	0.058224794
54	0x3e2a682d	0.16641302
55	0xbdc5e532	-0.09662856
56	0x3cea896c	0.028629981
57	0xbd50cd49	-0.050977025
58	0x3e0f5251	0.13996245
59	0xbd9673c7	-0.073463015
60	0x3ded2b5c	0.11580536
61	0x3cafdd42	0.021467809
62	0xbd34233b	-0.04397891
63	0x3e683eb9	0.22680177
64	0xbdaaec4f	-0.083458535
65	0xbd4b254e	-0.049596123
66	0x3d1bfa3a	0.03808043
67	0x3d269804	0.040672317
68	0x3e09776e	0.13424465
69	0xbdbc3beb	-0.09191116
70	0x3a95be77	0.0011424561
71	0xbe1b72e5	-0.15180548
72	0xbe0d29eb	-0.13785522
73	0xbdb512dc	-0.08841488
74	0x3e053192	0.13007191
75	0x3d4f547f	0.05061769
76	0x3d2bfde5	0.04199018
77	0x3d1f5d85	0.038907547
78	0x3dc3eb59	0.095663734
79	0xbd07e62e	-0.0331785
80	0xbe36cbe6	-0.17851219
81	0x3d9b6e08	0.07589346
82	0xbcad4c76	-0.021154623
83	0xbde9d3e0	-0.11417365
84	0xbe10f84a	-0.14157215
85	0xbd1f90cd	-0.038956452
86	0x3d87b796	0.06626813
87	0x3d101740	0.035178423
88	0xbe0cb5b9	-0.13741197
89	0xbe6c83e3	-0.23097186
90	0x3d5879e5	0.052850623
91	0x3db906da	0.0903451
92	0x3df1eea4	0.11813095
93	0x3e0b73c1	0.13618375
94	0x3d2a8d1b	0.041638475
95	0xbc2599c6	-0.010107463
96	0xbd92ec0d	-0.07173929
97	0xbbb3319f	-0.005468562
98	0xbd8538fe	-0.06505011
99	0xbc6afa53	-0.0143419085
100	0xbdbdbfb9	-0.09265084
101	0x3d936e6c	0.07198796
102	0xbc82d387	-0.015970005
103	0xbb0449b7	-0.002018554
104	0x3a11b7f0	0.000555872
105	0xbcfa5b3a	-0.030561078
106	0x3dd095de	0.10184835
107	0x3e1b652f	0.15175317
108	0xbba226cf	-0.004948474
109	0x3d10de1b	0.035368066
110	0x3e3a3973	0.18185978
111	0xbdb16e10	-0.08663571
112	0x3cb99291	0.022652896
113	0xbd5034d9	-0.05083165
114	0x3e1161a3	0.14197402
115	0x3e76d48a	0.24104515
116	0x3ddc22ef	0.107488506
117	0xbda25ea5	-0.07928208
118	0x3ad7c86f	0.0016462932
119	0x3e118077	0.14209162
120	0x3c33850d	0.010957015
121	0xbd741b7a	-0.059596516
122	0xbe7a5531	-0.2444656
123	0x3d593f08	0.053038627
124	0xbd41f578	-0.047353238
125	0x3d8e3c82	0.06945135
126	0xbd90bb43	-0.07066967
127	0xbce0d9ae	-0.027447548
128	0x3cf3d57d	0.029764885
129	0xbca26b21	-0.019826474
130	0x3d115be0	0.03548801
131	0xbda2b6f5	-0.079450525
132	0xbcf73522	-0.030176703
133	0x3d4413cf	0.047870453
134	0xbdb87e7e	-0.090085015
135	0xbe00f9e3	-0.12595324
136	0xbc98157c	-0.018564932
137	0xbdf1f61e	-0.11814521
138	0xbcb4ee53	-0.022086298
139	0xbcb126e8	-0.021624997
140	0x3dd41f0c	0.10357484
141	0x3d1bfbe6	0.038082026
142	0xbd44606d	-0.04794352
143	0xbd8a8918	-0.0676443
144	0x3d8bdb5c	0.06828949
145	0xbe200c60	-0.1562972
146	0x3d8bd9e8	0.06828672
147	0x3da77c29	0.081779785
148	0xbe0f9d1b	-0.14024775
149	0x3e19ee17	0.1503223
150	0xb984633a	-0.00025250932
151	0xbe335eaf	-0.17516588
152	0xbc455e2c	-0.012046378
153	0x3d09b5c7	0.033620622
154	0xbdad7ed0	-0.08471453
155	0xbd1bcfa8	-0.038039833
156	0xbcc804a5	-0.024416277
157	0x3d188edc	0.037245616
158	0x3dfa61dc	0.122256964
159	0xbdab2c3b	-0.08358046
160	0xbd28e908	-0.04123786
161	0x3d8a7dbf	0.067622654
162	0x3d1bf18f	0.038072165
163	0x3bfd6936	0.0077334894
164	0x3dbfab9d	0.093589045
165	0xbd87534b	-0.06607684
166	0xbd72fcf0	-0.05932325
167	0xbe1fb1a9	-0.15595116
168	0xbd0510ea	-0.032486834
169	0xbbf80e32	-0.0075700516
170	0xbd9147ae	-0.0709375
171	0x3dcb81ad	0.09936843
172	0xbd623d9c	-0.055234537
173	0x3e137780	0.14401054
174	0x3ddd0372	0.10791673
175	0x3d0db2b5	0.034594256
176	0xbd62d19c	-0.05537568
177	0x3d3b2d10	0.04569727
178	0x3d19b722	0.037528165
179	0x3d257cd3	0.040402245
180	0x3d819bf3	0.06328573
181	0x3d1e8119	0.038697336
182	0xbdb2ffa9	-0.087401696
183	0xbd67d594	-0.05660017
184	0xbccbcb70	-0.02487728
185	0x3d990480	0.074715614
186	0xbe475021	-0.1946416
187	0x3cd80960	0.026371658
188	0x3de89e59	0.113583274
189	0x3cea2b3a	0.028585065
190	0xbab7aead	-0.001401385
191	0x3d032f4c	0.032027528
192	0x3c431ee0	0.011909217
193	0x3d3fd014	0.0468293
194	0xbd30cf05	-0.04316618
195	0xbe13556e	-0.14388058
196	0xbcb1c247	-0.021699084
197	0xbdcdfefe	-0.100584015
198	0xbc2da470	-0.010598287
199	0xbda10b7c	-0.078635186
200	0xbe1536a7	-0.1457163
201	0xbd5a0360	-0.053225875
202	0x3d3645ee	0.044500284
203	0xbdc06ce2	-0.09395768
204	0x3d802e7e	0.06258868
205	0xbd35e03d	-0.044403303
206	0x3e2813f6	0.16413864
207	0xbcd0b2a3	-0.025475806
208	0xbdba2729	-0.090895005
209	0x3df7df0c	0.1210309
210	0xbb9c715b	-0.004774255
211	0x3ce08a1a	0.027409602
212	0xbdf6837d	-0.12036798
213	0xbdaeda4c	-0.085377306
214	0x3d20dcfa	0.03927324
215	0xbd051ab5	-0.032496173
216	0xbd83134e	-0.064001665
217	0xbd058a24	-0.032602444
218	0x3d7045a4	0.058660164
219	0x3d4e4080	0.05035448
220	0x3cedc0e5	0.029022643
221	0xbd9383c7	-0.07202869
222	0xbdaaff32	-0.08349456
223	0x3ac6d9b5	0.0015171083
224	0x3e24936b	0.1607186
225	0xbd77455d	-0.060368884
226	0xbd8a1155	-0.06741587
227	0x3e2a375e	0.16622683
228	0xbc85a6f5	-0.016314963
229	0xbd7ca664	-0.06168212
230	0xbd25ee5a	-0.040510513
231	0x3c80628d	0.015671993
232	0x3c6b0a63	0.014345738
233	0xbc6aac02	-0.014323236
234	0x3e14c865	0.1452957
235	0x3d8762ac	0.06610617
236	0xbd9308c6	-0.07179408
237	0x3bf3c8dd	0.0074397163
238	0x3c8baf19	0.017051267
239	0x3b9cf9ba	0.004790512
240	0x3e21a1db	0.15784399
241	0xbce15117	-0.027504487
242	0x3d8625e3	0.06550195
243	0xbc2a3351	-0.010388211
244	0xbc85caeb	-0.01633211
245	0x3dfa7b47	0.122305445
246	0x3c2711e6	0.010197138
247	0xbdd64b05	-0.104635276
248	0x3dfb0630	0.122570395
249	0xbdb267f5	-0.087112345
250	0x3d30b7ab	0.04314391
251	0xbd0fbccf	-0.03509217
252	0x3e05afc7	0.13055335
253	0xbdd74e67	-0.10513001
254	0x3da5baf8	0.08092302
255	0x3decd011	0.11563123

lstm.bias_ih_l0 f4 [256]
0	0xbd0e771f	-0.03478157
1	0xbd6c894f	-0.057748135
2	0xbb9b5b73	-0.004741126
3	0xbe3132a7	-0.17304479
4	0xbe004487	-0.12526141
5	0xbe218149	-0.15771975
6	0xbe176394	-0.1478408
7	0x3dd0ce60	0.10195613
8	0x3c998c9e	0.01874381
9	0x3d87220f	0.06598293
10	0xbe0613cc	-0.1309349
11	0x3d6d7938	0.05797693
12	0x3de2b202	0.110691085
13	0xbe29bf40	-0.16576862
14	0x3c16f993	0.009214777
15	0xbd90a59c	-0.070628375
16	0x3d2c89c2	0.042123564
17	0xbe0b82e3	-0.13624148
18	0x3d77ab5d	0.06046616
19	0x3d34369a	0.043997385
20	0xbd9e53f3	-0.07730856
21	0xbd6567f6	-0.056007348
22	0x3d797422	0.06090177
23	0x3d3c76e0	0.046011806
24	0xbd2ace5e	-0.041700713
25	0x3dfe0bc7	0.1240459
26	0xbe14d4d8	-0.14534318
27	0x3d711c93	0.05886514
28	0xbdc4bd47	-0.09606414
29	0xbcdf0a74	-0.027226664
30	0x3d782711	0.06058413
31	0x3de3a4b4	0.11115399
32	0x3d1b1cc9	0.03786925
33	0x3db741f2	0.08948125
34	0xbdc43b7f	-0.095816605
35	0xbd825864	-0.063645154
36	0xbe242608	-0.16030133
37	0xbe1813c0	-0.14851284
38	0x3d28f332	0.041247554
39	0xbd4decc5	-0.05027463
40	0x3ce79743	0.02827037
41	0x3df8b295	0.12143437
42	0xbd197759	-0.037467334
43	0xbde0edff	-0.10982894
44	0x3ad01632	0.0015875755
45	0xbd9a4916	-0.07533471
46	0x3d84917b	0.06473061
47	0x3b655bf6	0.003499744
48	0xbc48e191	-0.0122608105
49	0xbdddae2a	-0.10824235
50	0xbdf3408f	-0.11877548
51	0x3d5e0243	0.054201376
52	0xbd531774	-0.05153604
53	0x3e048a04	0.12943274
54	0x3e17738a	0.14790168
55	0xbe4ce334	-0.20008546
56	0xbd87a717	-0.06623667
57	0x3dc4b833	0.09605446
58	0x3d20205f	0.03909337
59	0x3ceee199	0.029160308
60	0x3d19522b	0.037431877
61	0xbd8e93a2	-0.069617525
62	0xbd88c4ac	-0.06678137
63	0xbd089b75	-0.03335138
64	0xbdb79d6e	-0.08965574
65	0xbdf02b8d	-0.11727057
66	0x3ddcf611	0.10789121
67	0xbda84923	-0.08217075
68	0xbe11c2cc	-0.14234465
69	0xbc46e9d6	-0.012140712
70	0x3da9fa22	0.08299662
71	0xbc2b35fc	-0.010449883
72	0x3d6070e4	0.05479516
73	0xbb8dd3d9	-0.0043282327
74	0xbd802ccf	-0.062585466
75	0xbdd26281	-0.102726944
76	0x3dbc1a1d	0.09184668
77	0xbe00b790	-0.12570024
78	0x3d97eca6	0.07418184
79	0x3b3888f3	0.00281578
80	0x3a05683c	0.00050890795
81	0xbd94020a	-0.072269514
82	0xbe079724	-0.1324125
83	0x3d0504ab	0.032475155
84	0xbdb2ec62	-0.08736493
85	0x3d29cab1	0.041453067
86	0xbd03d4ad	-0.032185245
87	0xbbcb6c3d	-0.0062079714
88	0xbdc99c98	-0.09844321
89	0x3de831ac	0.11337599
90	0xbda061f7	-0.07831185
91	0xbd877286	-0.066136405
92	0xbe079438	-0.13240135
93	0x3dd3e4fe	0.10346411
94	0xbabca14f	-0.0014391335
95	0xbc3ec760	-0.011644214
96	0xbe280e9e	-0.16411826
97	0x3d849359	0.06473417
98	0xbd80bc3d	-0.062859036
99	0x3d25daf2	0.040492006
100	0xbd895784	-0.067061454
101	0xbe16c0c5	-0.14721973
102	0x3ced8728	0.028995112
103	0xbd2812c6	-0.04103353
104	0xbde309e6	-0.11085872
105	0x3ccd9ef5	0.02510021
106	0x3db3eb74	0.087851435
107	0x3cb330dd	0.021873886
108	0xbdaf7986	-0.08568101
109	0xbe1eb95a	-0.15500394
110	0xbe0051b1	-0.12531163
111	0xbd3439cf	-0.044000443
112	0x3d8b54fc	0.06803319
113	0x3daf78e2	0.085679784
114	0xbdcd6c4f	-0.10030424
115	0x3d9a9004	0.07547
116	0x3ce2d70b	0.027690431
117	0x3da6bcee	0.08141504
118	0x3c17ae81	0.009257914
119	0xbd78635d	-0.060641635
120	0x3da362a2	0.07977797
121	0xbdfb1402	-0.122596756
122	0xbded265c	-0.11579582
123	0x3d76a1e9	0.060213003
124	0xbd3036ba	-0.04302094
125	0xbbad94a3	-0.00529726
126	0xbd8d2e8d	-0.068936445
127	0xbd75e63d	-0.060034025
128	0xbdde994e	-0.10869084
129	0x3ce7b69f	0.028285323
130	0x3c96c664	0.018405147
131	0xbd9533aa	-0.07285245
132	0xbce8134b	-0.028329512
133	0xbc919bcb	-0.017774483
134	0x3d2d79e6	0.04235258
135	0x3dbd0f4c	0.09231433
136	0xbc5479bc	-0.012968477
137	0xbdd4a810	-0.10383618
138	0xbde0b986	-0.10972886
139	0x3e0e7544	0.13911921
140	0xbd21c271	-0.039492074
141	0x3c8f93d8	0.017526552
142	0xbd0583d8	-0.03259644
143	0xbdee9704	-0.11649898
144	0x3de13bbb	0.10997721
145	0x3dd74398	0.10510939
146	0xbd68e739	-0.056861136
147	0xbd9c40a3	-0.07629516
148	0xbda4dc1a	-0.080497935
149	0xbd76aa9c	-0.0602213
150	0xbb888c00	-0.00416708
151	0xbd761817	-0.060081568
152	0x3d2bc309	0.041934047
153	0x3e256c38	0.16154563
154	0xbd9e0a20	-0.07716775
155	0x3ce6af31	0.02815971
156	0xbce18a23	-0.027531689
157	0x3d3db990	0.046319544
158	0xbdf0db90	-0.11760628
159	0x3ce55722	0.02799565
160	0x3d3171f2	0.043321557
161	0xbdb8cdba	-0.09023614
162	0x3d4dbad1	0.05022699
163	0xbd892b66	-0.06697731
164	0xbc86e76e	-0.016467776
165	0xbbbf0be3	-0.0058302744
166	0x3ca6e52e	0.020372953
167	0xbdd057b1	-0.10172976
168	0x3d9865ac	0.07441267
169	0xbd962810	-0.0733186
170	0x3db51de5	0.088435926
171	0xbdea29c0	-0.114337444
172	0xbdb2a096	-0.087220356
173	0x3e04daf8	0.12974155
174	0xbd92ace5	-0.07161883
175	0x3dbc2f82	0.09188749
176	0xbd59b12f	-0.05314749
177	0x3d1e07f5	0.038581807
178	0xbb8138a7	-0.003943521
179	0xbd93e123	-0.07220676
180	0x3dca2f07	0.09872251
181	0xbd9556f9	-0.07291979
182	0x3d59e965	0.053201098
183	0x3d0e5b8c	0.034755275
184	0xbd88be1b	-0.06676885
185	0x3ce95db9	0.028487073
186	0xbd107bc3	-0.03527428
187	0x3d5b39d0	0.05352193
188	0xbdfe34ad	-0.12412391
189	0xbdca71cb	-0.098849855
190	0x3dacf018	0.08444232
191	0xbcb4f702	-0.022090439
192	0x3d3a26d2	0.04544718
193	0xbd736870	-0.05942577
194	0x3de2df3c	0.11077735
195	0xbe395fd8	-0.18102968
196	0xbde852ce	-0.11343919
197	0xbd581d19	-0.052762125
198	0x3cb87187	0.022515072
199	0xbc32ee6a	-0.0109211
200	0x3d183d85	0.037168045
201	0x3cadbb50	0.021207482
202	0xbb725aae	-0.003698032
203	0xbc85f089	-0.016350048
204	0x3de51701	0.11186028
205	0xbd4b6a29	-0.04966179
206	0x3ddfd8ea	0.10930045
207	0xbe06f256	-0.13178381
208	0x3d9b57ad	0.07585082
209	0xbd231135	-0.03981133
210	0x3d7b1d89	0.061307464
211	0xbd1cbab1	-0.03826398
212	0xbca13da0	-0.019682705
213	0x3d5e22d0	0.05423242
214	0x3db7099b	0.08937379
215	0xbe5209de	-0.20511577
216	0xbdfc9ec8	-0.123349726
217	0x3df64efe	0.12026785
218	0xbe3a99c6	-0.18222722
219	0x3dbe42ca	0.09290083
220	0xbdac2954	-0.0840632
221	0x3da27f9f	0.07934498
222	0x3e0c9636	0.13729176
223	0x3d995ea3	0.07488754
224	0xbd41c5f6	-0.04730793
225	0xbd939232	-0.07205619
226	0xbd1d9222	-0.03846944
227	0x3c005801	0.007833482
228	0x3c58c5e2	0.013230773
229	0x389649d6	7.1663104e-05
230	0xbd23bee6	-0.039976977
231	0x3b413bf9	0.002948521
232	0xbe17f9d6	-0.14841399
233	0xbd705fce	-0.058685116
234	0xbcd40a3b	-0.025883785
235	0x3deb6edf	0.11495756
236	0x3d83ef94	0.0644218
237	0xbd93aedc	-0.07211086
238	0x3da4d080	0.08047581
239	0xbdff56eb	-0.1246775
240	0x3c443405	0.011975293
241	0xbdf50b62	-0.11965062
242	0xbdb51686	-0.08842187
243	0xbcdc6270	-0.026902407
244	0xbd88b80a	-0.06675728
245	0x3e12ce32	0.1433647
246	0xbd9487e1	-0.07252479
247	0x3c698e7b	0.014255161
248	0xbd8efc6a	-0.06981738
249	0xbde31db8	-0.11089653
250	0xbd90a295	-0.0706226
251	0xbdc1508d	-0.09439192
252	0x3d57530c	0.052569434
253	0xbc4b7b2b	-0.012419502
254	0xbd6cb566	-0.057790183
255	0x3d6b97f6	0.057517968

lstm.bias_hh_l0 f4 [256]
0	0x3cb84907	0.02249576
1	0xbbc9f7e8	-0.006163586
2	0xbdc9f111	-0.09860433
3	0xbcf3a4d3	-0.02974168
4	0xbe12f112	-0.14349774
5	0xbe0438ce	-0.12912294
6	0xbd550c35	-0.052013595
7	0x3dfbc809	0.12294013
8	0xbd74b7f4	-0.059745744
9	0xbd961491	-0.073281415
10	0x3d1c6ce5	0.038189787
11	0xbdd945bc	-0.10609004
12	0x3d256b07	0.040385272
13	0xbdf62c24	-0.12020138
14	0x3db48f5b	0.088164054
15	0xbccde0dd	-0.025131637
16	0x3e11c909	0.14236845
17	0xbddf547a	-0.109047845
18	0xbdcd15da	-0.100139335
19	0x3d74b11d	0.05973922
20	0xbe0b6825	-0.13613947
21	0x3dd21ad2	0.10259022
22	0xbc7aeeb4	-0.0153157
23	0xbd22feb4	-0.039793685
24	0xbc3cc310	-0.011521116
25	0x3da23318	0.079199016
26	0xbe1e3106	-0.15448388
27	0x3e2c3851	0.16818358
28	0x3d811591	0.063029416
29	0x3d5345fe	0.05158042
30	0x3d4966df	0.04917037
31	0x3c4093c2	0.011753978
32	0x3d5a8422	0.053348668
33	0xbd4887bc	-0.04895757
34	0x3d2bf0b5	0.041977603
35	0xbcb17612	-0.021662746
36	0xbe1d3b01	-0.1535454
37	0xbd4eceb5	-0.0504901
38	0xbe002648	-0.12514603
39	0xbddc5c25	-0.10759763
40	0xbdb071ae	-0.08615433
41	0x3d73d6eb	0.059531134
42	0xbe1c936e	-0.15290615
43	0xbe0d2561	-0.1378379
44	0xbc9396fd	-0.018016333
45	0x3d883dc0	0.06652403
46	0xbcfc3ec2	-0.030791644
47	0x3c4a1f70	0.012336597
48	0xbd220566	-0.03955593
49	0x3dde540e	0.10855876
50	0xbd3381cb	-0.043824952
51	0x3c71f680	0.014768243
52	0x3d77eec5	0.060530443
53	0x3dd405cb	0.103526674
54	0xbd545d60	-0.05184686
55	0xbe524d6c	-0.20537347
56	0x3bece4ae	0.007229409
57	0xbd882c2d	-0.06649051
58	0x3da49d7c	0.0803785
59	0xbd402f0b	-0.046919864
60	0xbdc2a18f	-0.09503471
61	0xbe0e81c5	-0.1391669
62	0xbc3f9fc4	-0.011695806
63	0xbd240f99	-0.040053938
64	0xbc18b277	-0.009319893
65	0x3d95b551	0.07309974
66	0x3d8e27da	0.06941195
67	0x3afb000f	0.0019149798
68	0xbda4bb26	-0.08043508
69	0x3d704dd7	0.058667984
70	0x3c703b02	0.014662506
71	0xbc2455d0	-0.010030225
72	0xbd6c58fe	-0.057702057
73	0xbde0e49c	-0.10981104
74	0xbd013c01	-0.031551365
75	0x3db42f5f	0.08798098
76	0x3d8b4891	0.0680095
77	0x3d4e8ae6	0.050425433
78	0xbbf58a2d	-0.0074932785
79	0x3d90f430	0.07077825
80	0xbdaf2a12	-0.08552946
81	0x3d63d819	0.05562601
82	0xbdbda8f3	-0.0926074
83	0x3d27d1ec	0.04097168
84	0x3c8455b1	0.016154142
85	0x3d8124f4	0.063058764
86	0x3d1d76ff	0.03844356
87	0xbd9472f6	-0.072484896
88	0x3d7d28d7	0.061806526
89	0x3e01f749	0.12691988
90	0xbe5ef216	-0.21772036
91	0x3d964910	0.07338154
92	0xbdcfc353	-0.10144677
93	0xbd112822	-0.035438664
94	0xbdc4c06b	-0.09607013
95	0xbd669298	-0.056292146
96	0xbe27a3e0	-0.16371107
97	0xbc3e9234	-0.011631537
98	0xbd9cf532	-0.07663955
99	0xbe364767	-0.17800675
100	0xbc44c1a6	-0.01200906
101	0x3daec19b	0.08533021
102	0xbd445f1c	-0.047942266
103	0x3d86e3a6	0.06586389
104	0xbcf4923f	-0.029854892
105	0xbdfbbbed	-0.122917034
106	0x3d7d2d33	0.061810683
107	0xbdc58fa8	-0.09646541
108	0xbe1f817f	-0.15576743
109	0xbe1e24ca	-0.15443721
110	0x3d88b4dc	0.06675121
111	0xbe079e31	-0.13243939
112	0xbdc96652	-0.09833969
113	0x3d72b835	0.059257705
114	0xbdc2e294	-0.095158726
115	0x3d45d0ac	0.048294708
116	0x3be89747	0.007098112
117	0xbb534d4b	-0.0032242115
118	0xbd727907	-0.059197452
119	0xbe45512b	-0.19269244
120	0xbe080a71	-0.13285233
121	0xbdcf25ca	-0.101146296
122	0xbdc98a9a	-0.09840889
123	0xbe25a841	-0.16177465
124	0xbcc6ac3d	-0.024252051
125	0xbdae061d	-0.0849726
126	0xbcaad2a7	-0.0208524
127	0x3db6bd2b	0.089228
128	0x3dbf32da	0.09335871
129	0x3c136ba8	0.008997835
130	0xbdefab81	-0.11702634
131	0xbdb01bca	-0.0859905
132	0x3dd040ea	0.101686314
133	0xbcb34833	-0.021885013
134	0xbe053ee3	-0.1301227
135	0x3d8edfa2	0.06976248
136	0xbd8bef1e	-0.06832717
137	0x3df258a6	0.118333146
138	0xbc76a050	-0.01505287
139	0x3d1d1577	0.03835055
140	0x3e07d83e	0.13266084
141	0xbcef3ab0	-0.029202789
142	0x3d781792	0.060569353
143	0x3d9450cd	0.07241974
144	0x3d93eb1d	0.07222579
145	0xbdfcc857	-0.12342899
146	0x3d533ad3	0.05156977
147	0x3d0e0ef8	0.034682244
148	0x3d3d7286	0.046251796
149	0x3d25726a	0.040392317
150	0x3d8efdd4	0.069820076
151	0xbddcd87c	-0.107834786
152	0xbcc94343	-0.024568206
153	0x3e420572	0.1894739
154	0xbd907416	-0.07053392
155	0xbe06a6f8	-0.13149631
156	0x3e0ccae7	0.13749276
157	0xbcf40114	-0.02978567
158	0x3cdd24e8	0.026995137
159	0x3d01b9f0	0.031671464
160	0x3c3b2ae5	0.011423801
161	0x3d6b789d	0.057488073
162	0xbbe96ebd	-0.0071237967
163	0xbcb4f82b	-0.022090992
164	0x3dbd40bd	0.092408635
165	0xbd534d69	-0.051587496
166	0xbcd83938	-0.026394472
167	0xb914a5e3	-0.00014176178
168	0xbd965ebc	-0.07342288
169	0x3d50aba1	0.050944928
170	0xbd241622	-0.04006017
171	0x3dc24c92	0.09487261
172	0x3dd11970	0.1020993
173	0xbd78be36	-0.060728274
174	0x3d907e44	0.07055333
175	0xbd8c7cc0	-0.06859732
176	0x3cb6fb6f	0.02233669
177	0x3db09287	0.08621698
178	0xbd96a301	-0.07355309
179	0xbd0cfefb	-0.034422856
180	0x3d1a8fb5	0.037734706
181	0x3c3870c5	0.011257355
182	0x3dbbcf99	0.091704555
183	0xbce3e468	-0.027818874
184	0x3d98777b	0.07444664
185	0x3e167368	0.14692461
186	0x3d407044	0.046982065
187	0x3ccddc2c	0.0251294
188	0xbd9133d6	-0.07089965
189	0xbd5d4e66	-0.054029845
190	0xbde2f7fd	-0.11082456
191	0xbcf86647	-0.030322207
192	0x3d4f623a	0.050630786
193	0xbd9c492f	-0.07631146
194	0x3d84cc97	0.06484335
195	0xbdb2ad20	-0.08724427
196	0x3cdf1245	0.027230391
197	0xbd1279ed	-0.03576081
198	0x3d6864a4	0.056736603
199	0x3db8eb28	0.090292275
200	0xbad7d746	-0.0016467355
201	0x3dc320bf	0.0952773
202	0x3b76c946	0.003765659
203	0xbd97b145	-0.07406858
204	0x3e5b77a9	0.21432365
205	0xbe21eff0	-0.15814185
206	0xbc94d26a	-0.01816674
207	0xbda26418	-0.079292476
208	0x3d8feffe	0.07028197
209	0x3d273a19	0.04082689
210	0xbd35017e	-0.044190876
211	0xbd2036c1	-0.039114717
212	0xbda35334	-0.07974854
213	0x3dbf651e	0.093454584
214	0x3da108e9	0.078630276
215	0xbd8308e9	-0.06398184
216	0xbe038893	-0.12845068
217	0x3d8f5dda	0.07000323
218	0x3d1e4281	0.03863764
219	0x3ba1fda3	0.004943566
220	0xbda1e8e2	-0.07905747
221	0xbc7bb7d5	-0.015363653
222	0xbc7ad6df	-0.015310018
223	0xbe216e5e	-0.15764758
224	0x3dd380f3	0.103273295
225	0xbe222aab	-0.15836589
226	0xbd13576e	-0.03597205
227	0xbc8e5878	-0.01737617
228	0xbdd6b288	-0.10483271
229	0xbcfb2e47	-0.030661715
230	0x3c8e7ab1	0.017392488
231	0xbcb799be	-0.022412177
232	0xbd3a67e3	-0.04550923
233	0xbdf2ea8b	-0.11861142
234	0x3bb08aa4	0.005387621
235	0x3c06d670	0.008229837
236	0xbd185232	-0.037187763
237	0xbd8d10d7	-0.068879776
238	0x3c8562c8	0.016282454
239	0x3d17dada	0.037073947
240	0x3c8fb9b3	0.017544603
241	0x3d32e955	0.043679554
242	0xbd92041a	-0.071296886
243	0xbc1a2065	-0.0094071375
244	0x3dcb01e1	0.09912468
245	0xbd41e1c8	-0.047334462
246	0xbd26281f	-0.040565606
247	0xbe068f16	-0.1314052
248	0x3dcf3670	0.10117805
249	0xbdb24393	-0.08704295
250	0x3d190b26	0.037364148
251	0x3cdd2dee	0.02699944
252	0xbda94e6e	-0.082669124
253	0x3c01e2ba	0.007927591
254	0xbd50f0f8	-0.051011056
255	0x3dc9fefe	0.09863089

classifier.0.weight f4 [32, 64]
0	0xbeeb8e1b	-0.46006855
1	0x3e42a462	0.1900802
2	0xbe947189	-0.2899287
3	0x3e83a2ce	0.25710148
4	0x3e08d791	0.13363482
5	0x3dab4ae3	0.08363893
6	0xbe66ad65	-0.22527082
7	0x3e27f292	0.16401127
8	0xbe1eecfa	-0.15520087
9	0x3ea12a07	0.31477377
10	0xbebe2ef7	-0.37145206
11	0x3eb5900c	0.35461462
12	0x3ea0cd02	0.3140641
13	0x3e03741f	0.12837265
14	0xbf111904	-0.56678796
15	0x3d7556c7	0.05989721
16	0x3f0224b3	0.5083725
17	0xbe94f5f8	-0.2909391
18	0xbe686f46	-0.22698697
19	0x3ec6b577	0.38810322
20	0x3e1c14e4	0.15242344
21	0x3dd1aa8d	0.10237608
22	0xbd7f1da4	-0.062284127
23	0x3e3a9840	0.18222141
24	0xbda7152f	-0.08158337
25	0xbdcce5d1	-0.100047715
26	0x3e48eddb	0.19621985
27	0xbeec376f	-0.46136042
28	0x3eae3904	0.34027874
29	0xbea21632	-0.3165756
30	0xbe1db09a	-0.153994
31	0xbe9d5aaf	-0.3073325
32	0xbed33251	-0.41249326
33	0x3eac589a	0.33661348
34	0xbeaeb773	-0.34124336
35	0x3ddfc95b	0.109270774
36	0xbdf35c44	-0.11882833
37	0xbe7276c3	-0.23678117
38	0x3e3beac9	0.18351282
39	0xbe77b2ea	-0.24189344
40	0xbe4531ed	-0.19257326
41	0xbe9901a9	-0.2988408
42	0xbedf8cab	-0.4366201
43	0xbe8d4d54	-0.2759806
44	0xbe6f05c9	-0.2334205
45	0xbe3bd7fa	-0.18344107
46	0xbdab7014	-0.083709866
47	0xbdfb4a8c	-0.12270078
48	0xbe35475a	-0.17703
49	0xbdf238fa	-0.11827274
50	0x3e767f11	0.2407191
51	0x3d1bc345	0.03802802
52	0x3da2c326	0.07947378
53	0xbef70935	-0.48249212
54	0xbed78d2f	-0.42099902
55	0xbea38edf	-0.3194494
56	0xbe860f68	-0.2618363
57	0x3ee64878	0.44977164
58	0x3e8724b8	0.26395202
59	0xbe2dd11a	-0.16974297
60	0xbe96840f	-0.29397628
61	0xbe74752d	-0.23872824
62	0xbea8ffe7	-0.33007738
63	0xbe3916f8	-0.18075168
64	0xbdeae38f	-0.114691846
65	0xbd854a2b	-0.06508287
66	0xbd697394	-0.05699499
67	0xbbf9d1ba	-0.0076238783
68	0xbd3e17bb	-0.04640935
69	0x3cae3f5a	0.021270443
70	0xbc34d381	-0.011036755
71	0x3db88cca	0.090112284
72	0xba6deef4	-0.00090764393
73	0xbd141939	-0.036156867
74	0x3d457823	0.048210274
75	0x3c780e56	0.015140137
76	0x3dc276fe	0.09495352
77	0x3dd669a8	0.10469371
78	0xbe60f480	-0.2196827
79	0x3e0ab6c6	0.13546285
80	0x3dd43593	0.10361781
81	0xbdea7475	-0.11447994
82	0xbdcf037f	-0.10108089
83	0x3d858310	0.06519139
84	0x3db71239	0.089390226
85	0x3e19ab4a	0.15006748
86	0xbe31873e	-0.17336747
87	0xbd23c080	-0.039978504
88	0xbdb91122	-0.09036471
89	0x3c2b4492	0.01045336
90	0xbcdd4e6b	-0.027014932
91	0xbe5b3f8a	-0.21410957
92	0x3ce76807	0.028247846
93	0xbd8becae	-0.068322524
94	0xbe00ab99	-0.1256546
95	0xbd177392	-0.03697545
96	0xbd51ab74	-0.0511889
97	0xbc90706d	-0.017631734
98	0xbe0f3426	-0.13984737
99	0x3da2d502	0.07950784
100	0xbd673627	-0.056448128
101	0xbe03a4f0	-0.12855887
102	0x3dbef723	0.09324481
103	0xbdca51d5	-0.098788895
104	0xbd56b280	-0.052416325
105	0xbbafe3b4	-0.0053677205
106	0x3d680865	0.05664863
107	0xbe10a381	-0.14124872
108	0xbdf4c12b	-0.11950906
109	0xbd6e129d	-0.05812322
110	0xbd2e9d9a	-0.04263077
111	0xbdcb04be	-0.09913014
112	0xbe0ecb1a	-0.13944665
113	0x3c90a088	0.017654672
114	0xbd614f66	-0.05500736
115	0xbdcfa2a7	-0.10138445
116	0x3e05b59a	0.13057557
117	0x3d01dd46	0.031705163
118	0xbda49c16	-0.080375835
119	0xbe0236f7	-0.1271628
120	0xbd8fc8e7	-0.07020741
121	0x3e051502	0.12996295
122	0x3bcfc242	0.006340296
123	0xbd715081	-0.058914665
124	0xbd51b7da	-0.051200725
125	0xbc3f96db	-0.011693682
126	0xbdaba71a	-0.083814815
127	0x3c99c7af	0.018771974
128	0xbe424ccb	-0.18974607
129	0x3d8751ec	0.06607422
130	0x3d7d8916	0.061898313
131	0x3d63bfaa	0.055602707
132	0xbd5f3ccc	-0.05450134
133	0x3cd22182	0.025650743
134	0xbcafaa67	-0.021443559
135	0xbd4b2d89	-0.049603973
136	0xbd05c491	-0.032658163
137	0x3e11bbd7	0.14231811
138	0xbc89fe14	-0.016844787
139	0x3e369134	0.17828828
140	0xbe134a54	-0.14383823
141	0x3d9d0a13	0.07667937
142	0x3d3e9cf9	0.04653642
143	0x3a969c40	0.0011490658
144	0x3db92f7c	0.0904226
145	0xbd0126ed	-0.031531263
146	0xbc605401	-0.013691903
147	0x3dc57419	0.096412845
148	0xbdb5dd3e	-0.08880089
149	0x3c4f6015	0.012657185
150	0x3c1265e9	0.00893543
151	0xbd3d2605	-0.046178836
152	0x3d7ec9f2	0.06220431
153	0x3ab41cfe	0.001374155
154	0x3d963e76	0.07336132
155	0x3d4b8b3a	0.049693324
156	0x3b9c1474	0.0047631804
157	0xbe1f981a	-0.15585366
158	0xbd6b6003	-0.05746461
159	0x3cd286f5	0.025699118
160	0x3d5ee8ff	0.05442142
161	0x3c4d44e8	0.012528636
162	0xbd6f9e40	-0.05850053
163	0x3d8351cf	0.06412088
164	0x3cba1d97	0.022719188
165	0xbdb5241b	-0.08844777
166	0x3ddab519	0.10679073
167	0x3cf7f0ef	0.030266253
168	0xbcc2025e	-0.02368277
169	0xbe1ab2f7	-0.15107332
170	0x3ce3260e	0.027728107
171	0xbdd41065	-0.103546895
172	0x3cde4542	0.027132634
173	0x3caab50f	0.020838289
174	0x3d326722	0.043555386
175	0x3d0cb8bc	0.034355864
176	0xbe06d2ff	-0.13166426
177	0xbcd6c8ce	-0.026218798
178	0x3e1437c5	0.144744
179	0xbd44ae88	-0.04801801
180	0xbc1693b5	-0.00919049
181	0xbdd20aa0	-0.10255933
182	0xbbce93d9	-0.006304246
183	0xbd8db53d	-0.06919334
184	0xbd9b3207	-0.07577901
185	0xbd1c22e7	-0.038119223
186	0xbcebb214	-0.028771438
187	0xbc78cfc3	-0.015186253
188	0x3d26267e	0.040564053
189	0x3cac49ff	0.021031378
190	0x3d3137c1	0.04326606
191	0x3daddb5f	0.08489107
192	0x3e0c2b61	0.13688423
193	0x3e08d704	0.13363272
194	0xbcf52c70	-0.029928416
195	0xbd0fef09	-0.03514007
196	0xbd94625f	-0.07245325
197	0xbdc3b178	-0.09555334
198	0x3c6d1164	0.014469478
199	0xbd857762	-0.06516911
200	0xbe28e1d5	-0.16492398
201	0xbe76ac0a	-0.24089065
202	0x3e2d2ad5	0.1691087
203	0xbd9633d7	-0.073341064
204	0x3e56a903	0.2096291
205	0xbdc165ef	-0.094432704
206	0x3e4697d5	0.19393857
207	0xbe190a87	-0.14945422
208	0xbe81405e	-0.2524442
209	0x3e02e923	0.12784247
210	0xbca0fc28	-0.019651487
211	0xbe7a5e2d	-0.24449988
212	0xbde66317	-0.11249369
213	0xbe19bbee	-0.15013096
214	0x3e5143e6	0.20436057
215	0xbd6f30d0	-0.05839616
216	0x3d93371a	0.07188244
217	0x3e89eb14	0.26937163
218	0x3deb72db	0.11496516
219	0x3dad1780	0.08451748
220	0x3cee3853	0.029079592
221	0x3e2ef0f1	0.170841
222	0x3d95c157	0.07312267
223	0x3d829bfe	0.063774094
224	0x3e60ce45	0.21953686
225	0xbc17bc1b	-0.009261156
226	0xbd2c9c75	-0.042141397
227	0xbd8d9cf8	-0.06914705
228	0x3d958326	0.07300405
229	0xbe204bc4	-0.15653902
230	0xbe5c3786	-0.21505556
231	0x3d3a70e0	0.045517802
232	0x3c9df9fd	0.019284243
233	0x3e034add	0.12821527
234	0x3def94ba	0.11698289
235	0x3e726408	0.23670971
236	0x3e4497c2	0.19198516
237	0xbcaa17ec	-0.02076336
238	0x3e33e4bf	0.17567728
239	0x3d1ae201	0.03781319
240	0xbd03ff6f	-0.032226022
241	0x3bed271e	0.007237329
242	0xbc862aa2	-0.01637775
243	0xbd853fa8	-0.06506282
244	0xbe3306f8	-0.17483127
245	0x3e370dc4	0.17876345
246	0x3e5cc629	0.21559967
247	0xbcaa0b69	-0.020757394
248	0x3e28c68e	0.16481993
249	0xbe7210ec	-0.23639268
250	0x3de2629c	0.110539645
251	0xbe85a6cb	-0.26103815
252	0x3d6b1fc3	0.057403337
253	0x3dc387a8	0.09547359
254	0x3de97fb1	0.11401308
255	0x3e976664	0.29570305

classifier.0.bias f4 [32]
0	0x3dcfc552	0.10145058
1	0x3e0ad558	0.13557947
2	0x3d6fee0c	0.05857663
3	0x3e5bec5a	0.2147688
4	0x3e23e526	0.16005382
5	0xbe1d9da5	-0.15392168
6	0x3d8b8a5a	0.06813498
7	0xbad2a3ed	-0.0016070582
8	0x3e37291f	0.1788678
9	0xbdfd68d7	-0.12373512
10	0x3d2bd60f	0.04195219
11	0x3dd6a59c	0.10480806
12	0x3e525377	0.20539652
13	0x3c085baf	0.00832264
14	0x3e4eefa4	0.20208603
15	0x3e05140e	0.12995932
16	0xbcf50357	-0.02990882
17	0x3d35e8f2	0.044411607
18	0x3df012d0	0.11722338
19	0xbdc3f8a2	-0.09568907
20	0x3d230675	0.03980108
21	0x3e38a352	0.18031052
22	0x3e383eac	0.17992657
23	0xbd8399c0	-0.0642581
24	0x3e10a1bd	0.14124198
25	0x3da50e0b	0.08059319
26	0x3e2f3270	0.17109084
27	0xbddf8cd2	-0.10915531
28	0x3e0c03b1	0.13673283
29	0xbcea18b0	-0.028576225
30	0xbcf27383	-0.029596096
31	0xbde9d93a	-0.11418386

classifier.2.weight f4 [2, 32]
0	0x3f0cf7c9	0.5506559
1	0x3e0fc209	0.14038862
2	0x3db5ecac	0.08883032
3	0xbe9c1e51	-0.3049188
4	0x3ebfd9bf	0.37470815
5	0xbdbe8959	-0.09303541
6	0x3e5dee2e	0.2167289
7	0x3c8926f4	0.016742207
8	0x3bf7c938	0.007561829
9	0x3d053964	0.032525435
10	0x3edec6a0	0.43510914
11	0xbe5aa331	-0.21351315
12	0xbe26053e	-0.16212937
13	0x3e7a5f70	0.24450469
14	0xbe683d6a	-0.22679678
15	0xbdbb8075	-0.091553606
16	0x3e82ff02	0.2558518
17	0x3e0fca51	0.14042021
18	0xbe8c51ba	-0.27406102
19	0x3e1414d9	0.14461078
20	0xbe7f16c6	-0.24911031
21	0xbe8c66b3	-0.27422103
22	0x3e2adf7e	0.16686818
23	0x3ce5f854	0.028072514
24	0xbdd22bb7	-0.10262244
25	0x3e18a62d	0.14907141
26	0xbe851f13	-0.2600027
27	0xbbcf63eb	-0.00632905
28	0x3e3240e6	0.1740757
29	0x3cfcd9f9	0.030865656
30	0x3e9f90ff	0.3116531
31	0xbd35bbed	-0.044368673
32	0xbee96b92	-0.45589882
33	0xbdb39b95	-0.08769909
34	0xbca929d4	-0.020649828
35	0x3e07597a	0.13217726
36	0xbf150071	-0.582038
37	0xbd7274a2	-0.05919326
38	0xbe2ae2b1	-0.16688038
39	0xbe409f44	-0.18810755
40	0xbe13f206	-0.14447793
41	0x3d465e1f	0.048429605
42	0xbdf65d0d	-0.12029467
43	0x3e3e45fd	0.18581386
44	0x3e7d9b6b	0.24766319
45	0x3d1eca39	0.038767073
46	0x3e90d770	0.28289366
47	0x3e3d8417	0.1850742
48	0xbdb82af4	-0.08992568
49	0xbe5022ac	-0.20325726
50	0x3cfda51b	0.030962517
51	0x3e022a91	0.1271155
52	0x3e8ebb9a	0.27877504
53	0x3e234afd	0.15946575
54	0xbe39b7dc	-0.18136543
55	0x3e024151	0.12720229
56	0x3ea90124	0.33008683
57	0xbcf77ec9	-0.030211823
58	0x3e668e88	0.22515309
59	0xbc3808e0	-0.011232585
60	0xbe077336	-0.13227543
61	0xbe282b30	-0.16422725
62	0xbe7b2cde	-0.24528834
63	0x3dc096c5	0.09403757

classifier.2.bias f4 [2]
0	0xbe15f8d4	-0.14645702
1	0x3d992642	0.07478
