experiments/darpa2000/s1_inside/deepproblog/phase_classifiers/models/w10/original/phase_2.pth (torch, 194061 bytes, 8 tensors)

lstm.weight_ih_l0 f4 [256, 112]
-0.1220656 0.071035944 0.007994905 -0.12091677 -0.0077650733 -0.07672819 0.11376894 0.037210908
0.05208753 0.07109824 0.09437712 0.21178654 0.23998068 0.36470917 0.35854593 0.112343624
0.16965246 0.13964628 0.29717004 0.18632299 -0.062550366 0.12648556 0.03034301 0.17358907
-0.18353012 -0.046189208 0.2177183 0.18872245 -0.104327604 -0.06405076 0.03631403 0.13618483
0.01789116 0.04759753 0.1274198 0.13279873 0.34149882 -0.031148903 0.10413211 -0.04378772
-0.17484906 -0.032569505 -0.0766532 -0.009446969 0.16639313 0.13545169 0.23216535 0.055031788
0.15883565 0.008980697 0.013031824 -0.039713576 0.023003215 -0.26088548 0.2057952 -0.027321871
0.02365315 -0.09285499 -0.06458909 0.08866361 0.1698074 0.1928448 -0.0017009927 -0.06403637
0.086744696 -0.0020629459 0.12429057 -0.153194 -0.12059363 -0.0062092394 0.23399378 -0.053809404
0.2898854 -0.03435228 0.08833505 0.081784576 -0.08574757 0.019699289 -0.03867652 -0.062002506
0.23423079 -0.062429957 -0.0726812 0.035192233 0.06815789 0.00042856432 0.2126659 0.01694832
-0.068105645 0.061530653 -0.031866606 -0.012715478 0.11320177 0.15694545 0.056646317 0.34864616
-0.038063087 0.033815708 0.10541349 0.055985168 0.13362566 0.03636436 -0.11640508 0.1926566
0.070907414 0.05697556 -0.058008753 0.02619255 0.18083878 -0.043772273 0.08913917 0.18124789
0.008877258 -0.22096124 -0.19789593 -0.011988118 0.026091902 0.0067315977 0.13404891 -0.012748386
-0.079619884 -0.09393409 0.15689862 0.124654554 -0.08473868 0.18317243 -0.13759471 0.14740454
0.030129105 -0.13869329 0.0030693854 0.070997745 0.24204066 -0.24603371 0.24204992 0.037141
0.21485318 0.22322431 -0.06436106 -0.07257114 0.0067880615 0.16358277 0.008629893 -0.13943616
0.10496682 -0.012487367 0.27608666 0.056089114 -0.26622754 0.054857254 0.055970732 0.15780038
0.18693411 -0.02822948 -0.018874688 -0.07289257 -0.09283859 0.14250831 0.10736335 0.046479654
0.12872809 -0.07506417 0.050723337 0.02959442 -0.028850798 0.24298607 -0.01308359 -0.12750441
0.13026048 -0.11802281 -0.08914299 0.1308865 0.072959006 -0.088302724 0.02591606 0.055478454
-0.033191606 0.041463133 0.02348192 -0.10023492 -0.046052806 0.06874969 0.08006426 0.11318094
-0.25481215 -0.0059161102 0.093466945 -0.08337092 -0.02379501 0.010102566 -0.0745552 0.19907124
-0.17053227 0.0019480726 0.21739143 0.11688749 -0.041465297 0.04914572 0.054546382 -0.15174273
0.18325868 -0.011456459 0.0023400001 0.03415452 0.30748853 -0.23559088 -0.025141064 -0.28005666
-0.006112794 0.040595073 0.11156768 0.06922368 0.097128116 -0.096272714 -0.03599763 -0.023724135
-0.03245391 0.046114262 0.09115658 -0.012941956 0.15959151 -0.01381733 -0.08347775 0.13853586
-0.12102133 -0.0005018904 0.07347299 0.120634496 -0.06095551 0.10661827 -0.09648953 -0.009162385
0.12443313 -0.07198696 0.17733257 -0.017512482 -0.18046264 0.19072029 -0.22503193 0.18323596
-0.050176054 -0.0056419466 0.29253948 0.11259914 0.019866973 -0.0807336 0.06059763 0.060451142
0.27252963 0.24505098 0.000686122 -0.0052574035 0.02662022 0.03420077 -0.018621627 0.04689632
00000000: 87fd f9bd 4b7b 913d 10fd 023c 36a3 f7bd
00000010: 2872 febb ab23 9dbd b1ff e83d 776a 183d
00000020: bc59 553d f49b 913d cb48 c13d 92de 583e
00000030: 7fbd 753e 29bb ba3e 5593 b73e 6a14 e63d
00000040: 60b9 2d3e 6fff 0e3e ac26 983e 74cb 3e3e
00000050: 681a 80bd 6e85 013e e791 f83c 55c1 313e
00000060: 52ef 3bbe e530 3dbd 8cf1 5e3e 7540 413e
00000070: b6a9 d5bd 0b2d 83bd 05be 143d 0974 0b3e
00000080: 7b90 923c a1f5 423d 567a 023e 64fc 073e
00000090: efd8 ae3e fc2b ffbc 3743 d53d c15a 33bd
000000a0: a20b 33be 9a67 05bd 5afc 9cbd 76c7 1abc
000000b0: f662 2a3e d9b3 0a3e c1bc 6d3e 0369 613d
000000c0: d0a5 223e c623 133c 6e83 553c b4aa 22bd
000000d0: 3d71 bc3c c892 85be fabb 523e 1ed2 dfbc
000000e0: 40c4 c13c c22a bebd 4947 84bd 4495 b53d
000000f0: fee1 2d3e 1b79 453e d8f3 deba 8025 83bd
00000100: 34a7 b13d 7d32 07bb 0e8c fe3d e3de 1cbe
00000110: cbf9 f6bd e076 cbbb 119c 6f3e 4067 5cbd
00000120: dc6b 943e fab4 0cbd 02e9 b43d ac7e a73d
00000130: 6c9c afbd 6760 a13c 456b 1ebd 57f6 7dbd
00000140: 32da 6f3e 8eb6 7fbd e2d9 94bd bb25 103d
00000150: 5d96 8b3d eeb0 e039 17c5 593e 34d7 8a3c
00000160: f97a 8bbd 9107 7c3d 8f86 02bd 9554 50bc
00000170: 54d6 e73d 4fb6 203e f805 683d c081 b23e
00000180: 0ae8 1bbd 5782 0a3d 07e3 d73d b450 653d
00000190: 2ad5 083e ccf2 143d c965 eebd c647 453e
000001a0: e837 913d 345f 693d 969a 6dbd c291 d63c
000001b0: cd2d 393e 8e4a 33bd 998e b63d 0c99 393e
000001c0: eb71 113c aa43 62be 3ba5 4abe d069 44bc
000001d0: afbe d53c bc94 dc3b 1e44 093e 9bde 50bc
000001e0: c00f a3bd 8460 c0bd 08aa 203e e34a ff3d
000001f0: 798b adbd 8e91 3b3e a1e5 0cbe 37f1 163e
00000200: 50d1 f63c 9d05 0ebe be27 493b 4467 913d
00000210: 82d9 773e 43f0 7bbe efdb 773e 2921 183d
00000220: 7902 5c3e ea94 643e bbcf 83bd 2ea0 94bd
00000230: 636e de3b 3e82 273e 6564 0d3c 5ac8 0ebe
00000240: d8f8 d63d d097 4cbc 3b5b 8d3e b3bd 653d
00000250: fa4e 88be 00b2 603d 9141 653d 6c96 213e
00000260: a86b 3f3e 8341 e7bc 179f 9abc b348 95bd
00000270: 2922 bebd b3ed 113e 51e1 db3d 7361 3e3d
00000280: 4cd1 033e 3ebb 99bd 46c3 4f3d ff6f f23c
00000290: 8258 ecbc 57d1 783e 8e5c 56bc 8490 02be
000002a0: 0163 053e f1b5 f1bd 9a90 b6bd 1c07 063e
000002b0: 886b 953d 0fd8 b4bd eb4d d43c 603d 633d
000002c0: ecf3 07bd 3fd5 293d 285d c03c f747 cdbd
000002d0: dea1 3cbd a3cc 8c3d bbf8 a33d 69cb e73d
000002e0: bd76 82be eedb c1bb 996b bf3d 5fbe aabd
000002f0: c1ed c2bc 3c85 253c 66b0 98bd 55d9 4b3e
00000300: 03a0 2ebe 7856 ff3a dc9b 5e3e b562 ef3d
00000310: 84d7 29bd 064d 493d 076c 5f3d 7262 1bbe
00000320: 2aa8 3b3e dfb3 3bbc b05a 193b 9ce5 0b3d
00000330: 236f 9d3e bc3e 71be a2f4 cdbc 9663 8fbe
00000340: d54d c8bb 0547 263d 997d e43d 25c5 8d3d
00000350: 1beb c63d a12a c5bd 4072 13bd 1e59 c2bc
00000360: 64ee 04bd 4fe2 3c3d 4db0 ba3d 7f0a 54bc
00000370: f56b 233e 1562 62bc 62f6 aabd 58dc 0d3e
00000380: 08da f7bd 4b91 03ba 0279 963d 380f f73d
00000390: 7cac 79bd ae5a da3d 4d9c c5bd d41d 16bc
000003a0: ccd6 fe3d e66d 93bd ab96 353e 5676 8fbc
000003b0: 33cb 38be 2e4c 433e c56e 66be 35a2 3b3e
000003c0: 6885 4dbd 14e0 b8bb bcc7 953e 619a e63d
000003d0: 10c0 a23c a857 a5bd 3835 783d 9e9b 773d
000003e0: 0189 8b3e a5ee 7a3e dedc 333a 4c46 acbb
000003f0: a612 da3c 1b16 0c3d 628c 98bc 5b16 403d

lstm.weight_hh_l0 f4 [256, 64]
0.05242863 0.23022014 -0.22762087 -0.11295886 -0.22710451 0.12017326 0.0002506683 -0.16809686
0.08546013 -0.086655185 -0.25336155 0.22178935 -0.045484003 0.1584957 -0.08447453 -0.112617664
-0.08042998 0.23701617 -0.029219808 0.27791953 -0.13100964 0.15544927 -0.17509289 0.08883236
-0.020789893 -0.11674598 -0.27112618 0.09116761 0.08217563 0.242529 0.058262236 -0.23802225
-0.093464985 -0.13462393 -0.13581842 -0.042128462 0.39378536 0.06710896 0.13453354 0.070424005
0.09792001 0.055809002 -0.18395394 0.112452924 0.04450184 0.16676514 0.20299104 0.28537363
-0.026274862 -0.0036328882 -0.23791559 -0.08770537 -0.117723145 0.24009518 -0.088921696 0.019986557
0.15789595 -0.029026035 -0.059144028 0.08957142 0.15389697 0.0044398075 -0.09116734 0.059260517
0.095089786 0.13897112 -0.13423845 0.03791474 -0.066937424 0.041631117 0.12753528 0.068577185
0.01829322 -0.03822587 0.027784597 0.040744353 0.09001348 0.017977789 0.026089385 -0.010673556
0.010472518 -0.15097477 0.013276343 0.042462926 -0.03913541 -0.18190742 -0.019988589 -0.047329914
-0.05545236 0.02180212 -0.03937616 -0.07160675 0.05915418 0.11796498 -0.013183779 -0.026827557
0.021640984 0.052524157 0.15701039 0.090542115 0.051216584 -0.1289102 -0.010916236 0.12027661
0.025763003 -0.08829224 0.102923565 -0.10680331 0.031759992 -0.074522056 0.01353117 0.0826779
-0.09034313 -0.06504182 0.10696743 -0.012963689 0.09324012 0.03944134 0.106600165 0.0631925
-0.03476625 -0.057806116 -0.090651885 0.104766406 0.029338688 -0.1173145 0.10909323 -0.13504185
-0.11337248 0.15011929 0.016288757 -0.073114194 -0.13929422 0.042699736 0.07598013 0.025722802
0.06361619 -0.06392357 0.008968797 0.009878965 0.12877329 -0.021311237 -0.028588561 0.14159754
0.015470069 0.16025038 0.014816182 0.10836769 -0.015463227 0.016210146 0.021463813 0.11702516
0.046918042 0.0007111448 -0.17372452 -0.032888245 -0.041957106 0.18166378 0.01645061 0.017108377
-0.093180425 0.011019242 0.08458507 -0.12440039 0.07252518 0.03167918 0.022818813 0.11517877
0.107121035 0.049649928 0.13303535 0.008282685 -0.08957264 -0.061800305 0.07811799 -0.07943451
-0.08139734 -0.06631764 0.06133163 -0.09792603 0.12150205 -0.02829381 0.02794813 0.1072922
0.06650497 0.030877186 -0.08734131 -0.054812286 -0.03331655 -0.09454403 0.079986244 -0.08218189
0.009828134 0.036202494 0.06217122 -0.098446965 0.022301834 0.042675965 0.021784829 -0.098368414
-0.07329826 -0.0005195433 0.10971779 -0.19987395 -0.06254153 0.05510196 -0.10461855 0.0578735
0.14037776 0.062251154 0.05825951 -0.029255083 -0.057450995 -0.1704785 0.08031026 -0.051510796
0.05372347 0.12106343 0.13062611 -0.124510184 0.039406653 -0.12730287 -0.05185242 0.079803884
-0.02081509 -0.07749654 0.11855504 0.12611051 0.025104666 -0.07368704 -0.070697874 -0.047909528
0.08382814 -0.14114656 0.1435482 -0.034721278 -0.036588605 -0.039675146 -0.1813245 -0.21056955
-0.027457114 -0.16404818 0.18434072 0.1661378 -0.030157397 -0.16890477 0.02012874 0.09911516
-0.1111281 0.19820745 -0.057296246 -0.030745808 0.079511024 0.02925025 0.052000225 -0.026480356
00000000: 67bf 563d d4be 6b3e 7215 69be fa56 e7bd
00000010: 168e 68be 661d f63d 216c 8339 9521 2cbe
00000020: b805 af3d 4678 b1bd 9bb8 81be bf1c 633e
00000030: 6f4d 3abd b24c 223e fb00 adbd 17a4 e6bd
00000040: 79b8 a4bd 5eb4 723e 615e efbc 784b 8e3e
00000050: 6427 06be 182e 1f3e 8d4b 33be beed b53d
00000060: 914f aabc 8418 efbd 0dd1 8abe 15b6 ba3d
00000070: b24b a83d 8659 783e 62a4 6e3d 1bbc 73be
00000080: 926a bfbd dbda 09be fc13 0bbe e58e 2cbd
00000090: 3c9e c93e 6c70 893d 29c3 093e 763a 903d
000000a0: 498a c83d fb97 643d 6c5e 3cbe b84d e63d
000000b0: 9047 363d 7bc4 2a3e e2dc 4f3e 7e1c 923e
000000c0: 613e d7bc c015 6ebb 25a0 73be df9e b3bd
000000d0: d518 f1bd 83db 753e 941c b6bd d9ba a33c
000000e0: 7aaf 213e 02c8 edbc 0241 72bd 3871 b73d
000000f0: 2b97 1d3e ce7b 913b f1b5 babd 28bb 723d
00000100: 6fbe c23d 724e 0e3e ce75 09be 7d4c 1b3d
00000110: 7d16 89bd 6485 2a3d 9c98 023e 3272 8c3d
00000120: aadb 953c bb92 1cbd 869c e33c 8de3 263d
00000130: fd58 b83d 2846 933c 68b9 d53c 23e0 2ebc
00000140: ed94 2b3c 2199 1abe 0585 593c 9bed 2d3d
00000150: 744c 20bd f045 3abe 1cbf a3bc 03dd 41bd
00000160: 0422 63bd 5c9a b23c e548 21bd 8fa6 92bd
00000170: a74b 723d a097 f13d c700 58bc 77c5 dbbc
00000180: 6f48 b13c 9223 573d 55c7 203e 256e b93d
00000190: 7bc8 513d 0901 04be 03da 32bc 9553 f63d
000001a0: ef0c d33c 90d2 b4bd 97c9 d23d b2bb dabd
000001b0: c416 023d 059f 98bd d7b1 5d3c 0853 a93d
000001c0: d205 b9bd a534 85bd bd11 db3d a765 54bc
000001d0: adf4 be3d 3e8d 213d 3051 da3d 126b 813d
000001e0: 0e67 0ebd 1bc6 6cbd b2a7 b9bd c58f d63d
000001f0: b057 f03c 9642 f0bd 456c df3d 6948 0abe
00000200: d52f e8bd dfb8 193e 0070 853c e5bc 95bd
00000210: 25a3 0ebe ebe5 2e3d 789b 9b3d a0b8 d23c
00000220: 3449 823d 5cea 82bd dcf1 123c 62db 213c
00000230: 25dd 033e e794 aebc 8f32 eabc f2fe 103e
00000240: 2c76 7d3c ad18 243e 92bf 723c e1ef dd3d
00000250: 7a59 7dbc 24cb 843c e1d4 af3c e3aa ef3d
00000260: 222d 403d 1f6c 3a3a d7e4 31be d3b5 06bd
00000270: 37db 2bbd 1206 3a3e 6ec3 863c de26 8c3c
00000280: 61d5 bebd 0d8a 343c f03a ad3d a2c5 febd
00000290: 1588 943d 07c2 013d 85ee ba3c d9e2 eb3d
000002a0: 4662 db3d b95d 4b3d 6b3a 083e 19b4 073c
000002b0: dc71 b7bd 5122 7dbd 53fc 9f3d 8fae a2bd
000002c0: a6b3 a6bd 8bd1 87bd e036 7b3d 718d c8bd
000002d0: 11d6 f83d 6cc8 e7bc 7af3 e43c 03bc db3d
000002e0: c233 883d 27f2 fc3c 00e0 b2bd d982 60bd
000002f0: ef76 08bd 4da0 c1bd d4cf a33d fb4e a8bd
00000300: 2f06 213c 1149 143d 40a7 7e3d 909e c9bd
00000310: 56b2 b63c fecc 2e3d 1976 b23c 6175 c9bd
00000320: 661d 96bd f631 08ba b8b3 e03d c2ab 4cbe
00000330: c615 80bd 98b2 613d 4042 d6bd c30c 6d3d
00000340: 30bf 0f3e 11fb 7e3d 86a1 6e3d 5ba8 efbc
00000350: bc51 6bbd ea91 2ebe b579 a43d fcfc 52bd
00000360: 240d 5c3d 1bf0 f73d dac2 053e 32ff febd
00000370: df68 213d af5b 02be 3463 54bd 3870 a33d
00000380: 6884 aabc 82b6 9ebd fccc f23d 1d23 013e
00000390: 4da8 cd3c 3be9 96bd 0cca 90bd c83c 44bd
000003a0: 16ae ab3d b988 10be 4dfe 123e e637 0ebd
000003b0: efdd 15bd 6882 22bd 21ad 39be 8b9f 57be
000003c0: beed e0bc 3ffc 27be d0c3 3c3e 0720 2a3e
000003d0: a50c f7bc 5ff5 2cbe 07e5 a43c e4fc ca3d
000003e0: 2197 e3bd e5f6 4a3e 78af 6abd a2de fbbc
000003f0: add6 a23d 389e ef3c 30fe 543d 55ed d8bc

lstm.bias_ih_l0 f4 [256]
0.16206795 0.16660237 0.08964782 -0.09794515 0.035080142 0.08900348 0.028487116 -0.047714762
0.118169986 0.07675396 0.22958894 0.13583325 -0.14406846 -0.04186869 -0.08883402 0.0662025
0.13062295 0.04259326 0.031906556 0.005973957 -0.05072241 -0.027081145 -0.035174 0.13036364
0.09851915 0.21248269 -0.06147921 -0.1293171 0.046677195 0.014338489 0.14512907 0.050301798
0.10567009 -0.023294987 -0.11049149 -0.03468368 0.061228096 0.06144635 -0.021448318 0.10539238
-0.067238964 0.10168052 -0.12544526 0.13958894 0.036869865 0.023604522 0.31375507 -0.054083705
0.00014941482 -0.030828781 0.09439799 0.16725679 0.10840794 0.15892883 0.21115704 -0.10405337
-0.07577867 0.15561523 -0.12397056 0.14441268 0.01951116 0.16593316 0.12422945 0.06400811
-0.10214073 0.09537888 0.095524885 0.07000178 0.057372842 -0.020451166 -0.14725876 -0.044776626
-0.13956736 -0.022010183 -0.20222229 0.03687198 0.05062626 0.16326103 0.030574456 -0.057454184
-0.08033747 -0.04439844 -0.16402473 0.093262255 0.078747384 -0.0343002 -0.1570562 -0.08070235
-0.12835665 0.14724939 -0.01475123 -0.13921788 0.066557005 0.15741742 -0.07603712 -0.037377376
-0.041622948 -0.019153113 0.0049403426 0.12521061 -0.0052742027 -0.027595198 0.058756787 0.021235686
0.014010401 0.04942281 -0.0154732345 -0.061557624 -0.06496264 0.10924993 -0.0029898246 0.024849981
-0.1801922 -0.008075386 0.094428405 0.08883945 -0.2935779 0.13397922 0.01939155 -0.13573772
0.06330219 0.021798123 -0.019610245 -0.025061756 -0.107915014 -0.11196016 0.0027331812 -0.009727675
-0.12419253 0.046661124 -0.10751109 -0.16187935 0.002802814 0.08539252 -0.094563015 -0.109807596
-0.0450269 0.008688692 0.09590263 0.009930994 -0.08654399 0.031063365 -0.07890957 -0.08156171
-0.12402865 0.14345519 0.07046822 0.03487522 -0.10428413 -0.01646035 0.064569026 0.019197552
0.051467042 0.006811616 0.09013937 0.003255864 0.118161246 -0.03933691 -0.029003251 -0.17444907
-0.032573383 -0.10467954 -0.033608224 -0.19467765 0.107268825 -0.054868717 -0.047743224 0.07188024
-0.05964589 0.0993012 0.070342466 0.010571559 -0.0116724055 -0.060965654 -0.09716461 -0.005667251
0.071440905 0.082492 0.11151619 0.033410206 -0.048316915 -0.050457925 -0.049526222 0.049005985
-0.06738038 0.005618936 -0.08071284 -0.033041134 0.017954273 -0.0923875 -0.13791023 -0.15931942
0.17722414 -0.09641876 -0.18705106 0.03838374 0.04507437 -0.08877539 0.07932153 -0.13064937
-0.03261133 -0.100784935 0.086720705 0.02668416 -0.0674277 0.007165842 -0.014499719 -0.11011244
0.0661777 -0.09787982 0.03530152 -0.16472779 -0.17819746 0.15717179 0.13177949 -0.07837353
0.010336237 0.08495078 -0.16985245 0.03392907 0.047796093 -0.069329955 -0.18615513 -0.0778556
0.10365045 0.033309452 -0.19983654 -0.13091543 0.23415318 -0.09004876 -0.015396104 -0.08119493
-0.16620287 0.08239999 -0.094671674 0.08204685 -0.009279421 -0.17577082 0.03694092 0.039689433
0.03673908 -0.062444486 -0.13400109 -0.02395415 -0.019125076 0.060155835 0.060000192 0.036226846
-0.038423568 -0.10587001 -0.024120243 0.046790723 -0.015935857 0.061560217 0.0029419793 -0.035861365
00000000: 24f5 253e d099 2a3e 4799 b73d 7897 c8bd
00000010: 32b0 0f3d 7547 b63d d05d e93c 8e70 43bd
00000020: 1b03 f23d 2e31 9d3d 5d19 6b3e df17 0b3e
00000030: af86 13be 817e 2bbd 9cee b5bd 2d95 873d
00000040: 06c2 053e 4576 2e3d 73b0 023d 2fc1 c33b
00000050: 4dc2 4fbd 47d9 ddbc 9d12 10bd 0c7e 053e
00000060: 68c4 c93d 1095 593e a0d1 7bbd b46b 04be
00000070: 9630 3f3d fbeb 6a3c b79c 143e 4209 4e3d
00000080: 8f69 d83d 21d5 bebc 5d49 e2bd 7910 0ebd
00000090: 50ca 7a3d 2baf 7b3d 62b4 afbc f6d7 d73d
000000a0: 95b4 89bd e03d d03d b974 00be 67f0 0e3e
000000b0: db04 173d 455e c13c 81a4 a03e e086 5dbd
000000c0: 3cac 1c39 a48c fcbc bc53 c13d 5d45 2b3e
000000d0: fb04 de3d 3dbe 223e 8d39 583e ef19 d5bd
000000e0: d931 9bbd 9959 1f3e 47e4 fdbd ebe0 133e
000000f0: ded5 9f3c 62ea 293e 036c fe3d af16 833d
00000100: 292f d1bd 0156 c33d 8da2 c33d 185d 8f3d
00000110: c9ff 6a3d 3489 a7bc 00cb 16be b267 37bd
00000120: bfea 0ebe b34e b4bc 5c13 4fbe 1307 173d
00000130: 7b5d 4f3d e62d 273e 4877 fa3c 1455 6bbd
00000140: f987 a4bd 23db 35bd 19f6 27be 4800 bf3d
00000150: 4f46 a13d 5e7e 0cbd 57d3 20be 4647 a5bd
00000160: ed6f 03be 8bc8 163e 25af 71bc 228f 0ebe
00000170: 0a4f 883d 0832 213e 59b9 9bbd 0519 19bd
00000180: d37c 2abd fde6 9cbc 99e2 a13b 3637 003e
00000190: 38d3 acbb 530f e2bc f5aa 703d 76f6 ad3c
000001a0: e28b 653c 936f 4a3d 7383 7dbc d923 7cbd
000001b0: 220b 85bd 6dbe df3d eff0 43bb 3092 cb3c
000001c0: 4e84 38be a04e 04bc ae63 c13d 75f1 b53d
000001d0: d84f 96be d931 093e 07db 9e3c d4fe 0abe
000001e0: 94a4 813d fa91 b23c aaa5 a0bc 504e cdbc
000001f0: 8c02 ddbd 5e4b e5bd 2c1f 333b d360 1fbc
00000200: a758 febd bc1f 3f3d c62e dcbd b3c3 25be
00000210: 6aaf 373b 46e2 ae3d 41aa c1bd cee2 e0bd
00000220: 206e 38bd 045b 0e3c 9968 c43d 9cb5 223c
00000230: fa3d b1bd 9978 fe3c 579b a1bd d309 a7bd
00000240: bc02 febd ebe5 123e a451 903d 52d9 0e3d
00000250: eb92 d5bd dbd7 86bc c43c 843d 2f44 9d3c
00000260: 1bcf 523d fa33 df3b fd9a b83d 5560 553b
00000270: 86fe f13d bd1f 21bd 3a98 edbc c7a2 32be
00000280: ab6b 05bd 3a62 d6bd c7a8 09bd 9459 47be
00000290: c2af db3d 05be 60bd 668e 43bd f335 933d
000002a0: 404f 74bd 6d5e cb3d b60f 903d 5534 2d3c
000002b0: 9e3d 3fbc 1fb7 79bd 3dfe c6bd 59b4 b9bb
000002c0: 9c4f 923d 91f1 a83d 9a62 e43d 24d9 083d
000002d0: f5e7 45bd f8ac 4ebd 02dc 4abd 80ba 483d
000002e0: bafe 89bd 0d1f b83b c64c a5bd 2456 07bd
000002f0: d714 933c a835 bdbd 5738 0dbe a124 23be
00000300: 3f7a 353e 3377 c5bd 508a 3fbe 4538 1d3d
00000310: e79f 383d dfcf b5bd 5473 a23d f3c8 05be
00000320: 7593 05bd 5568 cebd a09a b13d bd98 da3c
00000330: 8917 8abd 71cf ea3b 3b90 6dbc a282 e1bd
00000340: 2d88 873d 3775 c8bd 5498 103d 67ae 28be
00000350: 6579 36be a4f1 203e 34f1 063e 4d82 a0bd
00000360: 5259 293c adfa ad3d cded 2dbe 35f9 0a3d
00000370: d6c5 433d ddfc 8dbd 739f 3ebe c272 9fbd
00000380: b046 d43d 7e6f 083d f3a1 4cbe b20e 06be
00000390: dac5 6f3e 7c6b b8bd f13f 7cbc 8749 a6bd
000003a0: 1631 2abe 53c1 a83d 39e3 c1bd 2e08 a83d
000003b0: b608 18bc 44fd 33be 5d4f 173d 6391 223d
000003c0: b87b 163d cac5 7fbd 9537 09be 7e3b c4bc
000003d0: 31ac 9cbc f765 763d c3c2 753d 9a62 143d
000003e0: 0862 1dbd 60d2 d8bd d197 c5bc a1a7 3f3d
000003f0: ea8b 82bc 9126 7c3d 39ce 403b 5ee3 12bd

lstm.bias_hh_l0 f4 [256]
0.18674546 0.011481463 -0.015948191 -0.042500377 -0.07671687 -0.021202743 0.06842876 0.08979747
0.035039123 0.051247206 0.06210736 -0.028034098 -0.16913201 0.039133515 -0.09306292 -0.06957756
-0.0038900175 0.013514389 -0.098830976 -0.101376556 -0.16480528 0.1871271 0.102096796 -0.0032954041
0.00029164957 0.052589063 -0.23286046 0.008807946 -0.043184437 0.055842083 -0.026444212 0.1189061
0.05119772 0.059113998 0.0070780437 0.11574495 0.20422465 0.0105339 0.01521927 0.15068664
-0.031417433 0.045997486 -0.049983744 0.21783753 -0.043687496 0.0001872288 0.09796739 0.12043659
0.00066672615 0.052620113 0.13669251 0.15559335 0.11407807 0.007991628 0.099927396 -0.13254683
0.021042313 0.0902096 0.0064974586 -0.04155118 -0.17641181 0.006718304 0.12874623 0.08538449
-0.18756047 -0.022336988 0.18755846 -0.09735248 0.02823881 -0.099226944 0.021529557 -0.061273046
-0.034793288 0.081317976 -0.10104383 -0.0114539405 0.10710227 0.1419639 -0.12762612 -0.016624516
-0.031603236 -0.0032578777 -0.12841944 0.078308284 0.06733735 -0.15346335 -0.13374132 -0.058080945
-0.16938853 0.056317016 0.061907016 0.040036447 -0.15208337 0.21892771 0.091317184 0.05674394
-0.0535793 -0.03652137 -0.18065126 -0.07351014 -0.12282857 0.08818339 0.15793213 0.07610728
0.074519865 0.15925662 0.028617175 -0.12937853 0.022911688 0.07703667 -0.0226952 0.072240256
-0.17226854 0.088990256 0.1401434 0.057169586 -0.13605487 0.070851445 -0.1052234 -0.20350403
0.15137748 0.1566986 -0.035629746 -0.13153523 -0.13200438 -0.0830667 0.13007343 0.109116614
-0.14341997 0.13775079 -0.08405119 0.013941902 0.04173285 0.11674139 -0.10393312 0.029883672
0.102912165 -0.061343763 0.10689486 -0.015551301 0.022595879 -0.09589939 -0.06551308 -0.085465156
-0.16700967 0.14111166 0.021556113 0.14863779 -0.007947636 -0.06563425 -0.0036254758 -0.119968556
0.13510881 -0.17674403 -0.003711468 0.07789353 0.04590993 0.12043536 0.028141286 0.03138118
0.00021558515 0.0655295 -0.0108147105 -0.101964615 -0.060666323 0.07698507 0.05282329 0.124892205
0.046643507 -0.02142596 -0.08432238 0.061891258 -0.1052432 0.071129605 -0.07889705 -0.05844923
0.019585954 0.11304893 -0.0476598 -0.09309944 -0.067322046 0.13129988 0.13766262 -0.057517517
-0.011524452 0.08721023 0.0015324558 0.023252677 0.062359616 -0.044630945 -0.041368023 -0.09491505
-0.037325706 -0.13303222 0.027995728 -0.027106147 -0.08501893 0.028898718 -0.08856418 0.0075045303
-0.05714525 -0.09883686 0.03762321 0.11967757 -0.03478525 -0.12013143 -0.16537814 0.055263396
0.045359753 -0.033607878 0.035726123 -0.10137208 -0.08198233 -0.08102056 0.13222921 -0.08390197
-0.018918963 -0.027319206 -0.13767327 -0.03367571 -0.12533146 -0.220543 0.041804366 -0.071902774
0.030265136 -0.03581732 -0.19616485 -0.03349692 0.055202823 -0.026275365 -0.10140942 -0.048691586
-0.14565872 0.10393422 -0.003448694 0.11196844 -0.052726846 0.038778536 0.27206063 0.06006988
0.014326983 -0.12978536 -0.056422133 -0.15991284 0.022064459 0.102061674 0.17530932 -0.17338091
-0.1532559 -0.08035261 -0.17790417 -0.009897354 -0.025533438 0.0187361 -0.03723562 -0.041413635
00000000: 343a 3f3e bf1c 3c3c c8a5 82bc e014 2ebd
00000010: bc1d 9dbd 60b1 adbc 6124 8c3d bce7 b73d
00000020: 2f85 0f3d 97e8 513d 4a64 7e3d c4a7 e5bc
00000030: f130 2dbe 774a 203d c697 bebd ae7e 8ebd
00000040: aaef 7ebb 756b 5d3c e567 cabd 839e cfbd
00000050: b7c2 28be 3f9e 3f3e 2018 d13d b5f7 57bb
00000060: 8be8 9839 a167 573d f972 6ebe 344f 103c
00000070: 2ae2 30bd abba 643d 88a1 d8bc 0b85 f33d
00000080: b3b4 513d 8521 723d efee e73b b00b ed3d
00000090: 4420 513e 6196 2c3c 3f5a 793c 994d 1a3e
000000a0: 91af 00bd dc67 3c3d c1bb 4cbd cd10 5f3e
000000b0: a9f1 32bd d952 4439 21a3 c83d 75a7 f63d
000000c0: 3cc7 2e3a 3088 573d 1ff9 0b3e dd53 1f3e
000000d0: c3a1 e93d 51ef 023c bca6 cc3d 5bba 07be
000000e0: ee60 ac3c d0bf b83d a2e8 d43b 9231 2abd
000000f0: 4ca5 34be 3825 dc3b 0dd6 033e 10de ae3d
00000100: da0f 40be 0ffc b6bc 530f 403e bd60 c7bd
00000110: 1455 e73c 7f37 cbbd c15e b03c 72f9 7abd
00000120: 6883 0ebd 0a8a a63d 11f0 cebd 4fa9 3bbc
00000130: 6f58 db3d fc5e 113e 6cb0 02be 2330 88bc
00000140: 6572 01bd 1e82 55bb 6380 03be 1860 a03d
00000150: 2ae8 893d 7f25 1dbe 7cf3 08be 49e6 6dbd
00000160: 3074 2dbe acac 663d 3692 7d3d 42fd 233d
00000170: bebb 1bbe 962e 603e 8104 bb3d 556c 683d
00000180: f875 5bbd 6f97 15bd a5fc 38be 7c8c 96bd
00000190: 8c8d fbbd 7e99 b43d f6b8 213e 22de 9b3d
000001a0: df9d 983d 2b14 233e 916e ea3c ce7b 04be
000001b0: 4bb1 bb3c 67c5 9d3d 49eb b9bc b3f2 933d
000001c0: 2a67 30be 8640 b63d c081 0f3e a82a 6a3d
000001d0: f851 0bbe 901a 913d 5e7f d7bd 5c63 50be
000001e0: b302 1b3e 9975 203e 7ff0 11bd 2cb1 06be
000001f0: 282c 07be e01e aabd f831 053e 8878 df3d
00000200: afdc 12be 8b0e 0d3e 0823 acbd 936c 643c
00000210: 11f0 2a3d 1c16 ef3d e3da d4bd 9ace f43c
00000220: 9dc3 d23d 9943 7bbd b1eb da3d e2ca 7ebc
00000230: fe1a b93c e666 c4bd b92b 86bd 5b08 afbd
00000240: 9504 2bbe 937f 103e 7296 b03c 8134 183e
00000250: cd36 02bc 406b 86bd 6499 6dbb 13b2 f5bd
00000260: f759 0a3e 63fc 34be 1a3c 73bb a586 9f3d
00000270: 0d0c 3c3d d0a6 f63d 8e88 e63c 8d89 003d
00000280: b30e 6239 5534 863d 2f30 31bc d3d2 d0bd
00000290: 407d 78bd 59aa 9d3d 3c5d 583d 7cc7 ff3d
000002a0: 430d 3f3d 7f85 afbc 36b1 acbd b081 7d3d
000002b0: bf89 d7bd 66ac 913d c794 a1bd 7668 6fbd
000002c0: b972 a03c 3386 e73d ec36 43bd ebaa bebd
000002d0: 24e0 89bd 7a73 063e 6ef7 0c3e 7d97 6bbd
000002e0: 0ed1 3cbc 479b b23d afdc c83a 667c be3c
000002f0: cc6c 7f3d f0ce 36bd 8471 29bd d262 c2bd
00000300: d7e2 18bd 9939 08be 4c57 e53c b60d debc
00000310: 681e aebd 01bd ec3c 2361 b5bd 90e8 f53b
00000320: 2311 6abd fb6a cabd cc1a 1a3d 8419 f53d
00000330: fa7a 0ebd 7807 f6bd e358 29be df5b 623d
00000340: 26cb 393d 6aa8 09bd 8e55 123d 2a9c cfbd
00000350: 5ae6 a7bd 1bee a5bd 1867 073e ccd4 abbd
00000360: f1fb 9abc 87cc dfbc 39fa 0cbe 8bef 09bd
00000370: e456 00be 06d6 61be 0e3b 2b3d c341 93bd
00000380: 97ee f73c 2fb5 12bd 70df 48be 1134 09bd
00000390: 5b1c 623d 6f3f d7bc beaf cfbd d470 47bd
000003a0: 8f27 15be 77db d43d 7c03 62bb b64f e53d
000003b0: 1bf8 57bd 3ed6 1e3d 884b 8b3e d60b 763d
000003c0: b9bb 6a3c 74e6 04be e51a 67bd 31c0 23be
000003d0: 86c0 b43c b605 d13d 4984 333e c48a 31be
000003e0: 1def 1cbe e98f a4bd 832c 36be 8328 22bc
000003f0: 802b d1bc 737c 993c 6184 18bd 58a1 29bd

classifier.0.weight f4 [32, 64]
0.3188036 0.024051633 0.016565321 -0.14728037 -0.015108356 0.083727114 -0.005456792 0.026562711
0.08054639 -0.10732263 -0.08492153 -0.15940307 0.053209323 0.042967245 0.0003500548 0.09148997
-0.06450008 0.1321607 0.119313836 0.1989074 -0.11569778 0.19662811 -0.12063107 0.01142937
0.087626755 -0.07710111 -0.12898842 -0.043355297 -0.04373592 0.046443842 0.097825356 -0.15773167
-0.13874526 -0.0865488 -0.052203104 -0.1194096 0.3174045 0.16926013 0.028067503 0.1262615
0.05975709 0.045286354 0.06941753 0.11332772 0.11957086 0.047104243 0.33246386 -0.042336263
0.14371009 0.018784385 0.012529156 0.026022248 -0.011384994 -0.07983815 -0.13505991 0.044543628
0.055350456 0.020379608 -0.043220237 -0.005357865 -0.028441958 -0.018466368 -0.16474853 -0.09042573
0.24091691 0.060379583 -0.1730267 -0.03515302 -0.23166999 0.20625313 -0.1712052 -0.004381071
0.22900018 -0.23323782 -0.10133762 -0.28862777 -0.15369898 -0.02899295 -0.16298994 -0.056972492
-0.023355233 0.14156625 0.10882776 0.24405448 0.008808603 0.07258464 -0.22937153 0.09924497
0.048228934 -0.19196533 -0.07859238 0.1334999 0.13102908 0.20522276 0.08245596 -0.12698849
-0.061236307 -0.048202872 0.027753882 -0.0076233344 0.28682455 0.10219955 0.10569245 0.031028902
0.13024725 -0.0120071815 -0.0933492 0.1394171 -0.07429081 0.24681114 0.32813403 0.1429996
0.09010721 0.03936901 -0.11109372 0.020829853 -0.08151619 -0.2120536 -0.062510096 0.025500195
0.057607323 -0.11799634 0.090597235 -0.048579518 0.092532754 0.18389599 -0.098502025 -0.027571077
0.1372041 0.15144125 -0.06283961 -0.07245617 -0.09517415 0.18298702 -0.11945532 -0.13953707
0.16984764 -0.07662903 0.029335491 -0.26701456 0.06608587 0.023439273 -0.1093249 -0.055765867
-0.11152584 0.1058759 0.03343092 0.18100578 -0.08643012 0.20600829 -0.07946093 0.050278287
0.13426065 -0.112603135 -0.07095295 0.07862724 0.03684154 0.042610202 0.08237717 -0.16350101
0.030095994 -0.06666592 -0.048130233 -0.13459045 0.25828603 0.069054246 0.091313176 0.081961766
-0.036790743 -0.14422095 -0.07821101 0.17901757 0.0038134768 0.15966229 0.32700852 0.04435736
0.16059837 0.19290656 -0.15818624 -0.03689405 -0.08395906 -0.28879032 -0.07889751 0.0528918
0.09198363 -0.15795866 -0.045744885 -0.044359554 -0.010290401 0.10645903 -0.12671615 0.11189221
-0.029514967 0.09685755 0.028911544 0.071403965 0.08691811 0.08705327 -0.072620094 -0.10721978
-0.0023069938 0.03760764 -0.08177724 0.046626173 0.00043563088 -0.12035861 0.07031619 0.056480456
-0.079981014 -0.07548103 0.034230582 -0.17220147 0.036988616 0.030336505 -0.080013156 -0.09791536
0.028873805 0.04751967 0.13784817 -0.069144584 0.07806412 -0.14449117 -0.10932324 -0.054266594
0.054517653 0.13885234 -0.095225416 -0.053277474 0.015444068 -0.09456061 -0.083115704 -0.03476835
-0.0841765 -0.07687586 0.045436833 0.108012505 -0.00029412954 0.06376157 -0.061126515 -0.048950717
0.08490307 0.00419949 -0.017541153 -0.07690032 -0.068293884 0.020411335 -0.01545253 -0.04789781
-0.0001966553 0.004810419 0.060415916 -0.089451306 0.0388574 0.09993455 0.08412487 0.15835541
00000000: 3a3a a33e ee07 c53c ffb3 873c aad0 16be
00000010: 0a89 77bc 1f79 ab3d e4ce b2bb 0b9a d93c
00000020: 81f5 a43d f8cb dbbd 57eb adbd 8f3a 23be
00000030: 05f2 593d 6cfe 2f3d 8f87 b739 185f bb3d
00000040: 9e18 84bd 2255 073e d05a f43d 62ae 4b3e
00000050: f5f2 ecbd e158 493e 6c0d f7bd 4142 3b3c
00000060: a875 b33d 30e7 9dbd 8a15 04be 5395 31bd
00000070: 7024 33bd e63b 3e3d a958 c83d 6984 21be
00000080: 3d13 0ebe 7f40 b1bd ecd2 55bd 058d f4bd
00000090: d882 a23e 8752 2d3e d2ed e53c b24a 013e
000000a0: dac3 743d 2f7e 393d c72a 8e3d 5d18 e83d
000000b0: 91e1 f43d 61f0 403d b438 aa3e ca68 2dbd
000000c0: bd28 133e b6e1 993c 1747 4d3c 9c2c d53c
000000d0: 2088 3abc 2f82 a3bd 254d 0abe 6173 363d
000000e0: 29b7 623d 23f3 a63c b407 31bd 0791 afbb
000000f0: 1cff e8bc c846 97bc d7b3 28be 2031 b9bd
00000100: ecb2 763e 9550 773d e92d 31be 9dfc 0fbd
00000110: e63a 6dbe 0534 533e 6a50 2fbe 168f 8fbb
00000120: 067f 6a3e e5d5 6ebe 198a cfbd 05c7 93be
00000130: 4463 1dbe a082 edbc d6e6 26be fd5b 69bd
00000140: 7953 bfbc bef6 103e 17e1 de3d 6be9 793e
00000150: f551 103c 41a7 943d 5fe0 6abe f240 cb3d
00000160: b48b 453d 8f92 44be 0bf5 a0bd 33b4 083e
00000170: 7d2c 063e ea25 523e acde a83d 4509 02be
00000180: ecd2 7abd 6070 45bd 1c5c e33c 2acd f9bb
00000190: abda 923e ff4d d13d 4975 d83d 5330 fe3c
000001a0: 895f 053e c5b9 44bc de2d bfbd 5bc3 0e3e
000001b0: c825 98bd 0fbc 7c3e 2f01 a83e 7d6e 123e
000001c0: 218a b83d 6641 213d 1b85 e3bd 5ea3 aa3c
000001d0: f6f1 a6bd 9424 59be 4b05 80bd c9e5 d03c
000001e0: a8f5 6b3d 11a8 f1bd 0b8b b93d 51fb 46bd
000001f0: d081 bd3d 3b4f 3c3e 6ebb c9bd bddc e1bc
00000200: 3b7f 0c3e 6a13 1b3e 0eb2 80bd e763 94bd
00000210: aaea c2bd f360 3b3e fea4 f4bd cee2 0ebe
00000220: 8aec 2d3e aeef 9cbd fc50 f03c 22b6 88be
00000230: 0758 873d b803 c03c bce5 dfbd c06a 64bd
00000240: a967 e4bd 77d5 d83d dcee 083d 9459 393e
00000250: 4602 b1bd d6f3 523e 69bc a2bd 9bf0 4d3d
00000260: a07b 093e 799c e6bd c84f 91bd 5207 a13d
00000270: 28e7 163d 0988 2e3d 5db5 a83d cf6c 27be
00000280: e08b f63c 2488 88bd 3524 45bd 14d2 09be
00000290: 113e 843e 506c 8d3d 6702 bb3d 92db a73d
000002a0: e4b1 16bd a8ae 13be 182d a0bd 6250 373e
000002b0: 86eb 793b 837e 233e a96d a73e 10b0 353d
000002c0: e673 243e 4c89 453e 93fb 21be 371e 17bd
000002d0: baf2 abbd 53dc 93be 0595 a1bd 12a5 583d
000002e0: ea61 bc3d eabf 21be fd5e 3bbd 5db2 35bd
000002f0: 1299 28bc 3107 da3d e1c1 01be be27 e53d
00000300: 5fc9 f1bc 405d c63d e7d7 ec3c 3e3c 923d
00000310: 1f02 b23d fc48 b23d d8b9 94bd 0b96 dbbd
00000320: ef30 17bb 780a 1a3d d37a a7bd 16fb 3e3d
00000330: 6365 e439 937e f6bd ef01 903d 0d58 673d
00000340: 16cd a3bd cc95 9abd 5e35 0c3d 9555 30be
00000350: 6081 173d 4384 f83c f0dd a3bd d987 c8bd
00000360: c288 ec3c fca3 423d 1228 0d3e ad9b 8dbd
00000370: 15e0 9f3d 7ef5 13be dde4 dfbd a646 5ebd
00000380: e74d 5f3d 4f2f 0e3e 8b05 c3bd 7b39 5abd
00000390: 1e09 7d3c fea8 c1bd 9138 aabd 4269 0ebd
000003a0: bb64 acbd 1771 9dbd f91b 3a3d a935 dd3d
000003b0: 6635 9ab9 6d95 823d cc5f 7abd 8c80 48bd
000003c0: a9e1 ad3d e09b 893b 77b2 8fbc ea7d 9dbd
000003d0: aadd 8bbd ac35 a73c 9c2c 7dbc 7e30 44bd
000003e0: 4135 4eb9 b8a0 9d3b ae76 773d 3f32 b7bd
000003f0: f028 1f3d 7caa cc3d a949 ac3d ec27 223e

classifier.0.bias f4 [32]
0.026889257 -0.09460999 -0.019507004 -0.10903517 -0.029802138 0.07390931 0.27392185 -0.039825402
-0.050274905 0.0820482 0.3298919 -0.15363188 -0.011094285 0.053828787 0.09659152 0.0049988586
0.16821772 -0.038423587 -0.0010798736 0.06479902 -0.0079781115 0.08268259 0.076582104 0.050679624
-0.05709857 0.06361325 0.057913683 -0.011184067 0.057136267 -0.086526245 -0.085964195 -0.0547387
00000000: dc46 dc3c e2c2 c1bd 27cd 9fbc d54d dfbd
00000010: 9d23 f4bc c45d 973d 7c3f 8c3e f61f 23bd
00000020: 0fed 4dbd e308 a83d 97e7 a83e ad51 1dbe
00000030: cec4 35bc 937b 5c3d c6d1 c53d 77cd a33b
00000040: 4441 2c3e 0d62 1dbd 8c8a 8dba 59b5 843d
00000050: a0b6 02bc 7d55 a93d 14d7 9c3d 7095 4f3d
00000060: 31e0 69bd aa47 823d e636 6d3d 613d 37bc
00000070: b807 6a3d ac34 b1bd ff0d b0bd b035 60bd

classifier.2.weight f4 [2, 32]
0.009899804 0.09784016 0.24457966 -0.08105451 0.11178483 0.046071578 -0.3555744 0.21612927
0.11843808 0.30080742 -0.27230182 0.05518048 0.1313543 0.17486748 -0.07692693 0.109692246
-0.34960112 0.051443897 0.2471366 -0.1768288 0.13030484 0.21874793 -0.045210302 0.09523771
-0.09975685 0.1702218 0.10623225 0.2247172 0.07680902 0.20070708 0.05783677 0.039283227
-0.23589627 -0.20639053 -0.22804356 0.04278368 0.12995271 -0.2027841 0.22061448 -0.20096122
-0.40685093 -0.27240163 0.33362493 0.00066265475 -0.009598344 -0.21567461 -0.23213105 -0.110183954
0.2712796 0.010312263 -0.11476563 0.31549922 0.024781391 -0.069962434 -0.21269178 -0.053262915
0.018665692 0.018087422 -0.2585881 -0.3117493 -0.21692921 -0.26874784 -0.121289335 -0.17145221
00000000: ca32 223c 6c60 c83d 1773 7a3e e8ff a5bd
00000010: 72ef e43d 8db5 3c3d d90d b6be fe50 5d3e
00000020: aa8f f23d 6e03 9a3e 256b 8bbe ed04 623d
00000030: be81 063e 7610 333e de8b 9dbd 54a6 e03d
00000040: ebfe b2be d6b6 523d 6011 7d3e 9c12 35be
00000050: a26e 053e 75ff 5f3e 702e 39bd fd0b c33d
00000060: 524d ccbd a04e 2e3e 4b90 d93d 441c 663e
00000070: 0c4e 9d3d 2886 4d3e 40e6 6c3d 73e7 203d
00000080: cb8e 71be 0a58 53be 4084 69be f13d 2f3d
00000090: 5312 053e a3a6 4fbe c3e8 613e c7c8 4dbe
000000a0: c44e d0be 3a78 8bbe e3d0 aa3e 02b6 2d3a
000000b0: 5f42 1dbc ced9 5cbe c3b3 6dbe 20a8 e1bd
000000c0: 29e5 8a3e c4f4 283c 3e0a ebbd 1d89 a13e
000000d0: 5802 cb3c 7748 8fbd e0cb 59be 372a 5abd
000000e0: cbe8 983c 132c 943c a965 84be 9b9d 9fbe
000000f0: b122 5ebe 5199 89be 8b66 f8bd 2b91 2fbe

classifier.2.bias f4 [2]
0.016747622 -0.03794545
00000000: 4f32 893c b06c 1bbd
