experiments/darpa2000/s1_inside/deepproblog/phase_classifiers/models/w10/original/phase_5.pth (torch, 194061 bytes, 8 tensors)

lstm.weight_ih_l0 f4 [256, 112]
0	0xbe3afaf6	-0.18259797
1	0x3e2a0cd4	0.16606456
2	0xba64a776	-0.00087224634
3	0x3dabd63c	0.08390471
4	0x3d9f955e	0.077921614
5	0xbd42dd12	-0.04757411
6	0x3e1355c4	0.14388186
7	0x3da66d96	0.081263706
8	0x3e627b66	0.22117385
9	0x3e4c019a	0.19922486
10	0x3dd1f789	0.10252292
11	0x3dfd5518	0.12369746
12	0x3e8e70dc	0.2782048
13	0xbda0898f	-0.07838737
14	0x3ebcbb1a	0.36861497
15	0x3ed56aa8	0.41682935
16	0xbd6fceb0	-0.058546722
17	0x3e2eeb1e	0.17081878
18	0xbd48dd15	-0.049038965
19	0x3e9e8884	0.30963528
20	0x3e79e6d2	0.24404457
21	0x3e709207	0.23493205
22	0x3d1afdfc	0.037839875
23	0x3e3307a4	0.17483383
24	0x3e77d50d	0.24202366
25	0x3dfb7ecf	0.12280046
26	0x3d1180cf	0.035523232
27	0x3d10431d	0.035220254
28	0xbdbcfb55	-0.09227625
29	0xbdd1e447	-0.102486186
30	0x3e1ed29d	0.1551003
31	0xbcbd9b18	-0.023145244
32	0x3b8566bd	0.0040710852
33	0x3df07d8e	0.11742698
34	0x3df269f0	0.11836612
35	0x3e10436a	0.14088216
36	0x3da5d429	0.08097107
37	0xbd916c3d	-0.07100723
38	0x3e096029	0.13415588
39	0x3e05bb54	0.13059741
40	0xbe50cd1d	-0.20390745
41	0x3b7f3dfe	0.0038946862
42	0x3d82566a	0.063641384
43	0x3d4b22c8	0.049593717
44	0x3e149981	0.14511682
45	0xbc99a6d2	-0.018756304
46	0x3e7e721d	0.24848218
47	0xbd934a18	-0.07191867
48	0x3dee81f0	0.11645877
49	0xbd8108c5	-0.06300501
50	0xbb81392b	-0.0039435825
51	0x3cad7fc6	0.021179091
52	0x3e54b95a	0.20773831
53	0x3e4781c4	0.19483095
54	0x3e7908ca	0.24319759
55	0x3e204773	0.15652256
56	0x3d014d09	0.031567607
57	0xbd9a0c93	-0.075219296
58	0xbc0ffee6	-0.0087888
59	0x3ec4e6c1	0.384573
60	0x3c75058f	0.014954939
61	0x3e751093	0.23932104
62	0x3a875f07	0.0010328003
63	0x3df5166a	0.11967166
64	0xbdc9e0da	-0.0985734
65	0xbe925ace	-0.28584903
66	0x3d4313c5	0.047626276
67	0x3e4afe35	0.19823535
68	0x3de3e0ea	0.11126883
69	0x3e8551fa	0.26039106
70	0x3e96a290	0.294209
71	0x3d42ef5a	0.047591545
72	0x3ea60d46	0.32432002
73	0x3d834067	0.06408768
74	0xbdacdbe4	-0.08440378
75	0xbd6a14ec	-0.05714886
76	0x3dd2e576	0.102976725
77	0x3d972cd4	0.07381597
78	0x3dfc9769	0.12333567
79	0xbe8dda1b	-0.27705464
80	0x3e0ecbfd	0.13945003
81	0x3e157091	0.14593722
82	0x3e816021	0.25268653
83	0x3e80e472	0.2517429
84	0x3dac69c1	0.084186085
85	0x3ca5222c	0.020157896
86	0x3d62a5d0	0.055333912
87	0xbcf7e3e4	-0.030260034
88	0x3e5a1f25	0.21300943
89	0xbd8c39ef	-0.068469875
90	0xbd089bc8	-0.03335169
91	0x3dc9aeae	0.09847771
92	0x3e831680	0.25603104
93	0x3e80e690	0.25175905
94	0xba91803e	-0.0011100841
95	0x3ef1805f	0.47168252
96	0xbd9123de	-0.07086919
97	0x3d13c0fc	0.036072716
98	0x3e38e5ea	0.18056455
99	0xbd497b83	-0.049190056
100	0xbdae1382	-0.084998146
101	0xbdc2998c	-0.09501943
102	0x3d0cf943	0.034417402
103	0x3bfc71d7	0.0077040005
104	0x3e5514bf	0.20808695
105	0xbcedda6a	-0.029034812
106	0xbc863ed2	-0.016387377
107	0x3d8fc03f	0.0701909
108	0x3dfeb284	0.12436393
109	0x3e8053d5	0.2506396
110	0x3e4af0e0	0.19818449
111	0x3dfaf02b	0.1225284
112	0xbe287b67	-0.16453324
113	0x3d8a22bd	0.06744907
114	0xbe351429	-0.17683472
115	0x3d38bb34	0.045100406
116	0xbd8d5ceb	-0.06902488
117	0xbd436b93	-0.047710013
118	0xbc4388bd	-0.011934456
119	0xbe8ae325	-0.27126423
120	0xbe18e923	-0.14932685
121	0x3d5ed9e4	0.054407015
122	0xbdafcfa6	-0.08584528
123	0x3d89b2a5	0.06723527
124	0x3e1a56d8	0.15072191
125	0x3d31e38e	0.043429904
126	0x3eed0e9a	0.46300203
127	0x3f05868b	0.5215842
128	0x3d6b113a	0.057389475
129	0x3c858f84	0.016303785
130	0x3de703f6	0.11280052
131	0x3c2c19ad	0.010504168
132	0x3ddcf59f	0.10789036
133	0xbdc12ce6	-0.09432392
134	0x3d65f4d6	0.056141697
135	0x3e2a66f6	0.16640839
136	0x3e2444fc	0.1604194
137	0x3d69f739	0.057120536
138	0x3c9f3734	0.019435503
139	0x3e9a8f4c	0.30187452
140	0xbdab105d	-0.083527304
141	0xbe4cf6e4	-0.20016056
142	0x3c443af7	0.011976949
143	0xbdaa3247	-0.08310371
144	0xbd49442c	-0.04913728
145	0x3e3c97e2	0.18417314
146	0x3e163301	0.14667894
147	0x3dca04d3	0.098642014
148	0x3dd802ae	0.10547386
149	0xbc8de036	-0.017318826
150	0xbd5df4d7	-0.054188576
151	0xbc82911d	-0.015938336
152	0x3da86e4f	0.08224165
153	0x3dd3dff0	0.10345447
154	0x3db4b540	0.08823633
155	0x3de24ddd	0.110500075
156	0x3e3ce2aa	0.1844584
157	0xbd9452dc	-0.07242367
158	0x3d5a1df9	0.05325124
159	0x3dfa4abc	0.12221286
160	0x3dd84a7e	0.10561083
161	0x3d9070ab	0.0705274
162	0x3daff5cb	0.08591803
163	0x3d107864	0.035271063
164	0xbda2ac3f	-0.079430096
165	0x3dbc9b3a	0.092092946
166	0x3e25b311	0.1618159
167	0x3ddfe23e	0.10931824
168	0xbd92ecab	-0.07174047
169	0x3ded7848	0.115952075
170	0xbdb327a4	-0.08747795
171	0x3ecd3463	0.4007903
172	0xbbd33884	-0.006445946
173	0x3e7cfc23	0.24705558
174	0x3dc50c3e	0.09621476
175	0xbd518d29	-0.05116001
176	0xbdc04cd5	-0.093896545
177	0xbe5ea399	-0.21742095
178	0x3e89c1cd	0.2690567
179	0x3e52ef04	0.2059899
180	0x3d5f15e1	0.054464225
181	0x3e26d626	0.16292629
182	0xbd582333	-0.052767944
183	0x3ced1fda	0.028945852
184	0xbd2188a2	-0.039436944
185	0xbd47d219	-0.04878435
186	0x3df8c2ec	0.121465534
187	0x3d9d6f27	0.07687216
188	0x3d144a93	0.036203932
189	0xbd386343	-0.04501654
190	0x3ec3b7dc	0.3822621
191	0xbd9a38b7	-0.07530349
192	0x3da83d7d	0.08214853
193	0xbddcae7a	-0.10775466
194	0x3ed7d084	0.42151272
195	0x3d9f7b47	0.07787185
196	0xbdf3abb5	-0.11897985
197	0xbdca7a98	-0.09886664
198	0x3dab76f1	0.08372296
199	0x3e345c69	0.17613377
200	0x3d582119	0.05276594
201	0xbdbb1a79	-0.09135909
202	0x3dbd9a0d	0.092578985
203	0x3e3e7120	0.18597841
204	0xbb47db40	-0.0030495673
205	0xbd0b02b3	-0.03393812
206	0x3e1921f6	0.14954361
207	0x3eb15264	0.34633172
208	0xbcdd2c02	-0.026998524
209	0x3dbcd9ca	0.092212275
210	0x3db8276c	0.08991894
211	0x3df5573d	0.1197953
212	0x3d0eb03f	0.03483605
213	0x3dfcf48c	0.12351331
214	0x3e8ed5a2	0.27897364
215	0x3d9247d9	0.0714261
216	0x3dd07087	0.10177713
217	0x3db361fc	0.087589234
218	0x3e5543d4	0.20826656
219	0x3e0e6a27	0.13907681
220	0x3cb0aaa1	0.021565737
221	0xbd13e0e4	-0.036103144
222	0x3da3cfd2	0.07998623
223	0x3d8e22c8	0.06940228
224	0x3e2ebe64	0.17064816
225	0x3e5b7ac9	0.21433558
226	0x3e0ef080	0.13958931
227	0x3dec8044	0.11547902
228	0x3b761e4b	0.0037554677
229	0xbd95a046	-0.0730596
230	0x3dc20683	0.09473898
231	0x3dcb6af0	0.09932506
232	0x3ea6e68c	0.32597768
233	0xbdcd0a29	-0.100117035
234	0xbcde2e45	-0.027121672
235	0xbb2fce6e	-0.0026825923
236	0x3d566741	0.052344564
237	0x3dd8f48a	0.10593517
238	0x3eacc3c3	0.33743104
239	0x3e09df85	0.13464172
240	0x3de4994b	0.11162051
241	0xbd9f26c5	-0.077710666
242	0xbe4464d0	-0.19179082
243	0xbc2a5c47	-0.010397977
244	0x3de3b029	0.11117584
245	0x3d6bb53c	0.057545885
246	0xbd489609	-0.04897121
247	0x3e541961	0.20712806
248	0xbe3a93f7	-0.18220507
249	0xbb623d75	-0.0034521495
250	0x3df5b30c	0.11997041
251	0xbdd8c263	-0.10583951
252	0x3e0d3a97	0.13791882
253	0x3dc3b51c	0.09556028
254	0x3e12894a	0.14310184
255	0x3e17760a	0.14791122

lstm.weight_hh_l0 f4 [256, 64]
0	0x3dadbb19	0.08482952
1	0xbe347faf	-0.17626832
2	0x3d09f8fb	0.033684712
3	0x3e0e8874	0.1391924
4	0xbd519112	-0.05116374
5	0x3dc79485	0.09745125
6	0xbcd4070b	-0.025882265
7	0xbd08d49e	-0.033405893
8	0x3d08ae79	0.033369515
9	0xbdeb7d02	-0.11498453
10	0xbe29a6a4	-0.16567475
11	0x3d4beee9	0.04978839
12	0xbca13163	-0.01967687
13	0x3bab611d	0.0052300827
14	0xbe3463fd	-0.17616268
15	0x3de7f92d	0.113268234
16	0xbcd039c4	-0.02541817
17	0x3d4b5eea	0.049651064
18	0xbe29e11f	-0.16589783
19	0xbe2d49fe	-0.16922757
20	0xbde34e74	-0.11098948
21	0x3d865afc	0.06560323
22	0xbe3c10b3	-0.18365745
23	0xbe269983	-0.16269498
24	0x3e457ca7	0.19285832
25	0x3dc647db	0.09681674
26	0x3d3950dd	0.045243133
27	0x3ddd5ca0	0.108086824
28	0x3d0662b3	0.03280897
29	0xbdaac7c3	-0.08338883
30	0xbc7047c1	-0.014665545
31	0xbd1d7977	-0.038445916
32	0xbd26c31d	-0.04071342
33	0xbdd59842	-0.104294315
34	0x3e024c40	0.127244
35	0x3dece211	0.11566556
36	0xbbd44bc3	-0.006478758
37	0x3de5f2c3	0.11227944
38	0xbd18e03f	-0.037323233
39	0xbe6a7f90	-0.22900224
40	0xbe12b97a	-0.14328566
41	0xbddb58ca	-0.107102945
42	0xbd96ae30	-0.073574424
43	0x3d695e62	0.056974776
44	0xbd72fe04	-0.05932428
45	0xb9dde681	-0.00042324144
46	0xbe27d0e8	-0.16388285
47	0x3d625b00	0.055262566
48	0xbca53e3d	-0.02017128
49	0x3c35a0bf	0.011085688
50	0xbd1839d9	-0.037164543
51	0x3cba4e25	0.02274234
52	0x3e3e6bf9	0.18595876
53	0x3db45a1a	0.08806248
54	0xbb0f6c7a	-0.0021884725
55	0xbdf75abe	-0.120778546
56	0xbdc6a5fa	-0.09699626
57	0x3e00eedd	0.12591119
58	0x3e0c7dd4	0.13719875
59	0xbe0adc03	-0.1356049
60	0x3c91099c	0.017704777
61	0xbe1cdd63	-0.15318827
62	0x3cc8bc83	0.024503952
63	0xbe305c4f	-0.17222713
64	0xbd48f49f	-0.049061414
65	0x3d84ec57	0.06490391
66	0xbc3f5341	-0.011677564
67	0x3e566b57	0.20939384
68	0xbd87f4ec	-0.06638512
69	0xbe277337	-0.16352545
70	0xbe5a104d	-0.21295281
71	0xbdda9b5e	-0.10674165
72	0x3db84378	0.08997244
73	0x3d473daa	0.04864279
74	0xbdf524fb	-0.11969944
75	0x3dabaae6	0.08382206
76	0x3dc3e994	0.09566036
77	0xbda0c31b	-0.078497134
78	0x3de11433	0.10990181
79	0xbd12a956	-0.035806023
80	0x3db797d2	0.08964504
81	0xbc883f47	-0.016631735
82	0xbe65119e	-0.22370002
83	0xbdcb08f5	-0.09913818
84	0xba7bd919	-0.000960724
85	0xbdef1a5a	-0.11674948
86	0x3e1acb47	0.15116607
87	0xbddc150b	-0.10746201
88	0x3dc8164c	0.09769878
89	0x3da9b6c4	0.08286813
90	0x3c2dc1ed	0.010605318
91	0x3de918b4	0.11381665
92	0xbd9f900b	-0.07791146
93	0x3cbfb950	0.023403794
94	0xbd361114	-0.04444988
95	0x3ceb78a3	0.028744048
96	0xbd442a94	-0.04789217
97	0xbb91f00e	-0.0044536656
98	0x3ddfba3f	0.109241955
99	0x3dbd341b	0.09238454
100	0xbd5b33ef	-0.053516325
101	0x3d9e2470	0.07721794
102	0xbde8a5ad	-0.11359725
103	0xbe5ff3f6	-0.21870407
104	0xbe008906	-0.1255227
105	0xbde8e93a	-0.113726094
106	0xbdc33f05	-0.095335044
107	0x3d7d690d	0.061867762
108	0xbd8fe17b	-0.07025429
109	0x3dcb0b32	0.09914245
110	0xbc8a95ba	-0.016917098
111	0x3da803d9	0.08203859
112	0x3df59f42	0.11993267
113	0xbe3a51a2	-0.18195203
114	0xbdbf822e	-0.09351002
115	0x3c8cb73d	0.017177219
116	0xbcb85b47	-0.022504462
117	0x3da81c43	0.082085155
118	0x3e105960	0.14096594
119	0xbdec2a92	-0.11531557
120	0x3d76b8b2	0.060234733
121	0xbca50d51	-0.020147951
122	0x3d7430cf	0.05961686
123	0xbdc29e6b	-0.09502872
124	0xbde44d08	-0.11147505
125	0x3d906554	0.07050577
126	0xbe80d676	-0.2516362
127	0xbd2dbdc9	-0.04241732
128	0xbd0050d2	-0.031327076
129	0x3e6cb6f2	0.23116663
130	0x3dc22623	0.0947993
131	0x3d8d8209	0.06909568
132	0x3e45ac55	0.1930402
133	0xbdaea22d	-0.08527026
134	0x3c538992	0.012911217
135	0xbe0b3e68	-0.13598025
136	0x3d43fe32	0.04784984
137	0xbd8a81bb	-0.067630254
138	0xbc0f832e	-0.008759303
139	0x3e1f500b	0.15557878
140	0xbdef91a9	-0.11697704
141	0xbe2abb5a	-0.16673031
142	0x3e804365	0.25051418
143	0xbcc3734d	-0.02385869
144	0xbe016aac	-0.12638348
145	0x3d09ee46	0.0336745
146	0x3d5e4938	0.054269046
147	0x3e082396	0.13294825
148	0xbe18ebca	-0.14933696
149	0x3e325bf5	0.17417891
150	0x3db16fbe	0.08663891
151	0x3da01643	0.07816746
152	0x3d8694a9	0.065713234
153	0x3cc57fed	0.024108851
154	0xbe709160	-0.23492956
155	0x3d473334	0.048632815
156	0x3e3fe984	0.18741423
157	0x3d9573bf	0.072974674
158	0xbe408f23	-0.18804602
159	0xbb0f7ce0	-0.00218945
160	0xb9bb4093	-0.0003571553
161	0xbe0cc0f0	-0.13745475
162	0xbde38ac0	-0.11110449
163	0xbbd49c14	-0.0064883325
164	0xbc4c3e71	-0.012466059
165	0xbe26e1b4	-0.16297036
166	0x3cb38c83	0.021917587
167	0xbe5559d3	-0.20835046
168	0x3e56806e	0.2094743
169	0xbdec0d19	-0.11525936
170	0x3ca483fd	0.020082468
171	0xbc2ce337	-0.010552219
172	0x3e52acbc	0.20573705
173	0x3e0b9413	0.13630705
174	0xbdc594ce	-0.09647523
175	0x3cd2bfba	0.025726188
176	0xbdc32e26	-0.095302865
177	0xbda7b913	-0.08189597
178	0x3d7a59b3	0.0611207
179	0xbe3c5e0b	-0.1839525
180	0xbe02b65b	-0.12764876
181	0xbd7ef740	-0.062247515
182	0x3baf64af	0.0053525786
183	0xbe0c3a51	-0.13694121
184	0xbe394d82	-0.18095973
185	0xbe4ebd3a	-0.20189372
186	0xbe85328c	-0.26015127
187	0xbc4604db	-0.012086119
188	0xbb081e73	-0.0020770102
189	0x3e5c9abf	0.21543406
190	0x3e4a93cf	0.19782947
191	0x3ddf0074	0.10888758
192	0xbd0a504d	-0.033767987
193	0x3c27142c	0.01019768
194	0x3c75bf7a	0.014999265
195	0x3e2a1daa	0.16612878
196	0xbdc66581	-0.09687329
197	0x3e21c860	0.15799093
198	0xbe11d09f	-0.14239739
199	0x3d151a86	0.036402248
200	0x3d65a656	0.056066833
201	0xbdc99026	-0.09841947
202	0xbdfc4ed6	-0.12319724
203	0x3e1c41e9	0.15259518
204	0x3cb92f75	0.022605637
205	0x3dd3814d	0.103273965
206	0x3d678952	0.056527443
207	0xbd40c043	-0.047058355
208	0xbdf739f0	-0.120715976
209	0x3d789601	0.06068993
210	0xbc3388fe	-0.010957954
211	0xbde2a641	-0.11066867
212	0x3d627d8d	0.055295516
213	0xbd96f363	-0.07370641
214	0xbdce5b5b	-0.100760184
215	0x3d69fcd0	0.057125866
216	0x3d9051ac	0.07046828
217	0x3ba63970	0.005072765
218	0xbbbec9dd	-0.005822404
219	0xbdc27551	-0.094950326
220	0x3c341770	0.010991916
221	0xbda0703c	-0.07833907
222	0x3d618453	0.055057835
223	0xbd81e5c4	-0.063426524
224	0x3d70e6f5	0.058814008
225	0xbba3d26d	-0.00499945
226	0x3c738fce	0.014865829
227	0x3e1d2060	0.15344381
228	0x3dc4009a	0.09570427
229	0x3de43e6e	0.1114472
230	0x3dd13f8a	0.10217197
231	0xbd1dd436	-0.03853246
232	0xbd3434e5	-0.043995757
233	0xbd4ef4c6	-0.050526403
234	0x3e4b6269	0.19861759
235	0x3e4d51b7	0.20050703
236	0xbbd346fd	-0.0064476714
237	0x3e28ec7f	0.16496466
238	0xbe2e696c	-0.17032403
239	0x3de1f83e	0.110336766
240	0x3cea08f3	0.02856872
241	0x3d127a14	0.035760954
242	0xbc9729ab	-0.018452486
243	0x3e01c938	0.12674415
244	0xbdefac34	-0.11702767
245	0xbe0de5ab	-0.13857143
246	0x3ddc5d51	0.10759986
247	0xbc5934d7	-0.013257227
248	0x3d27c4a9	0.040959034
249	0xbdd78447	-0.10523277
250	0x3dcee833	0.10102882
251	0xbd3bebfc	-0.04587935
252	0xbd18f6ea	-0.03734485
253	0x3dcdac61	0.10042644
254	0xbdccca41	-0.09999514
255	0xbcb890d7	-0.022530003

lstm.bias_ih_l0 f4 [256]
0	0xbc3320a1	-0.010933072
1	0xbd1f1dab	-0.038846653
2	0xbcf1e450	-0.029527813
3	0xbda7471b	-0.08167859
4	0xbda2512c	-0.079256386
5	0x3d7e81b2	0.062135406
6	0xbdba37dc	-0.090926856
7	0xbda414a3	-0.08011749
8	0x3d835445	0.064125575
9	0xbd41dbc0	-0.04732871
10	0x3d22dd8c	0.039762065
11	0x3dd45f18	0.103697
12	0xbd9da40b	-0.07697304
13	0x3df07a8d	0.11742125
14	0x3cea30ae	0.028587665
15	0xbe1771b7	-0.14789473
16	0xbb73df0c	-0.0037211804
17	0x3d850967	0.06495934
18	0xbcade58a	-0.021227617
19	0xbdb388cd	-0.08766327
20	0xbde21da8	-0.11040813
21	0xbdf1d0b8	-0.11807388
22	0x3d4594d3	0.048237633
23	0x3d921ca2	0.071343675
24	0xbcf176b8	-0.029475555
25	0x3cdc18ac	0.026867233
26	0xbd339035	-0.0438387
27	0x3c4810d7	0.012211046
28	0x3daf7501	0.085672386
29	0xbde6b133	-0.11264267
30	0x3d9db397	0.0770027
31	0xbbba16ee	-0.005679003
32	0xbd8175fd	-0.063213326
33	0xbccac956	-0.024754208
34	0xbd040559	-0.032231662
35	0x3d91e391	0.07123483
36	0x3d814d97	0.06313627
37	0xbd9ee613	-0.07758727
38	0x3da6d559	0.081461616
39	0x3d2b6578	0.041844815
40	0xbe19de26	-0.15026149
41	0x3da80fdc	0.0820615
42	0x3d0a37fe	0.033744805
43	0x3e27e5a7	0.16396199
44	0x3acb5238	0.0015512174
45	0x3deef4fb	0.1166782
46	0xbd52cf45	-0.0514672
47	0x3c8a703b	0.016899219
48	0x3e28c071	0.1647966
49	0xbcfcd244	-0.030861981
50	0xbdba773a	-0.09104772
51	0xbcf1aa4a	-0.029500145
52	0x3cb0cc9b	0.021581938
53	0xbdbb18c6	-0.091355845
54	0xbe03dd9f	-0.1287751
55	0x3e0a71c4	0.1351996
56	0x3d822936	0.063555166
57	0xbddeeeaf	-0.10885369
58	0x3afcf5e9	0.0019299361
59	0xbd78700c	-0.06065373
60	0x3dbbcdc4	0.09170106
61	0xbd19f744	-0.037589327
62	0x3e252548	0.16127503
63	0x3d7d9f1e	0.061919324
64	0xbd4e0399	-0.0502964
65	0x3cdd5411	0.027017625
66	0x3a533894	0.0008057442
67	0x3e0c9a88	0.13730824
68	0xbdbdb61c	-0.0926325
69	0xbd1f6182	-0.03891135
70	0x3e472804	0.19448858
71	0x3d26d359	0.0407289
72	0x3da39514	0.07987419
73	0xbaf9a1f1	-0.0019045455
74	0xbd0889f4	-0.033334687
75	0x3e4754f1	0.19465996
76	0x3cdb8654	0.026797451
77	0x3d26e017	0.040741052
78	0xbd5fa50c	-0.05460076
79	0x3d081deb	0.033231657
80	0xba50fb03	-0.0007971974
81	0xbe26a7d2	-0.16274956
82	0x3d716bf3	0.05894084
83	0x3e75b1c5	0.23993595
84	0xbceefe0c	-0.029173873
85	0xbe1a3840	-0.1506052
86	0x3d084495	0.03326853
87	0x3e0814a3	0.13289122
88	0xbc4a592d	-0.012350363
89	0x3d00ba90	0.03142792
90	0xbd5fb326	-0.05461421
91	0xbe11cab3	-0.1423748
92	0xbd0619e3	-0.03273953
93	0xbcf40567	-0.029787732
94	0xbd62f22b	-0.05540673
95	0x3b18f818	0.0023341235
96	0x3d8b94b1	0.0681547
97	0x3c3681fb	0.011139388
98	0x3b91c660	0.004448697
99	0x3caae5f7	0.020861609
100	0xbe04aeb3	-0.12957267
101	0x3c864d89	0.016394394
102	0xbdedac03	-0.11605074
103	0x3d16f9ef	0.03685945
104	0xbe0106bd	-0.12600227
105	0x3d66e875	0.056374032
106	0x3d3176d7	0.043326225
107	0x3d3cb144	0.04606749
108	0xbe171385	-0.1475354
109	0x3d2ced10	0.042218268
110	0x3d94ccc7	0.07265621
111	0x3d43897f	0.04773855
112	0xbdcfcf34	-0.10146943
113	0x3cc3aea3	0.023886984
114	0xbc40c4d1	-0.011765675
115	0xbd78fb30	-0.060786426
116	0xbd79aa59	-0.06095347
117	0xbd6bdfef	-0.057586607
118	0xbe0d8b91	-0.13822772
119	0x3d0573c1	0.032581095
120	0x3db78917	0.08961695
121	0xbd62c390	-0.055362284
122	0x3d334c40	0.04377389
123	0x3e3212ae	0.17389938
124	0xbd1345a0	-0.03595507
125	0xbe14d189	-0.14533056
126	0xbd5eda8b	-0.054407638
127	0xbe16b302	-0.14716724
128	0x3e266f58	0.16253412
129	0x3dd7b903	0.10533335
130	0xbd1a35b6	-0.03764888
131	0x3cdeafcd	0.027183438
132	0x3df15772	0.11784257
133	0xbd2a3968	-0.041558653
134	0x3acbf83f	0.0015561654
135	0x3d814aa0	0.06313062
136	0x3d8b30ea	0.06796439
137	0xbe2767e4	-0.16348225
138	0xbcecf289	-0.028924244
139	0xbdc165ed	-0.09443269
140	0xbd1076c1	-0.035269503
141	0xbe171b85	-0.14756592
142	0xbbd587f0	-0.006516449
143	0x3d6bc806	0.057563804
144	0x3d3fbecf	0.04681283
145	0xbd3b98a1	-0.045799855
146	0xbd615e82	-0.05502177
147	0xbd905931	-0.07048262
148	0xbe01c89b	-0.12674181
149	0x3c8c4147	0.01712097
150	0xbcc12f75	-0.0235822
151	0x3c84999c	0.016186528
152	0xbd950999	-0.07277221
153	0xbd9f5e11	-0.077816136
154	0xbdb58ff2	-0.08865346
155	0x3d66be8b	0.05633406
156	0x3c0358ed	0.008016807
157	0xbd0e4347	-0.03473213
158	0xbbb56150	-0.005535282
159	0x3e1e7694	0.15474921
160	0xbd216799	-0.03940544
161	0x3d30ae85	0.043135185
162	0xbcec7287	-0.028863205
163	0xbd30052e	-0.04297369
164	0x3bc9365a	0.0061405124
165	0x3c9c3160	0.019066513
166	0xbc60382e	-0.013685269
167	0xbe02eef2	-0.12786463
168	0xbdd96e81	-0.1061678
169	0xbbdf4cce	-0.0068145758
170	0xbdb46ac9	-0.0880943
171	0x3e0cc70c	0.13747805
172	0xbcb28a13	-0.021794355
173	0xbe02adcf	-0.12761615
174	0xbded308c	-0.11581525
175	0xbd8cfda0	-0.06884313
176	0xbd8543bd	-0.06507061
177	0xbdd26b4d	-0.10274372
178	0xbd7c0200	-0.061525345
179	0xbc8deefd	-0.017325873
180	0x3de8e27c	0.113713235
181	0x3cdf5d17	0.027266068
182	0x3d85639a	0.06513138
183	0x3d6e8fdb	0.05824266
184	0x3c5367f9	0.012903207
185	0x3d9c4cbd	0.07631824
186	0xbd941bf4	-0.07231894
187	0x3cea7c24	0.028623648
188	0x3bc10cd1	0.0058914204
189	0xbd2a4ead	-0.041578937
190	0x3de8653a	0.113474324
191	0x3daff7d6	0.08592193
192	0xbc71d038	-0.014759116
193	0x3b8afcd7	0.0042415666
194	0x3d860698	0.065442264
195	0x3d8ec2ca	0.06970747
196	0xbe020f26	-0.12701091
197	0xbe1d9e58	-0.15392435
198	0xbac7525d	-0.0015207041
199	0x3db02ed6	0.08602683
200	0x3e3d7f87	0.18505679
201	0xbd51e466	-0.05124321
202	0x3dc52275	0.09625713
203	0x3da10d5c	0.07863876
204	0xbd699c82	-0.057034023
205	0xbd7005d1	-0.058599297
206	0xbe1d95f5	-0.15389235
207	0xbdd033bf	-0.1016612
208	0xbc895a91	-0.016766818
209	0x3d2d4c38	0.042309016
210	0xbd897f23	-0.067137025
211	0x3c17e865	0.009271716
212	0x3db11ced	0.08648095
213	0xbc80d6b3	-0.015727377
214	0xbd4d78c9	-0.050164018
215	0x3e190d58	0.14946496
216	0x3dea9f90	0.114562154
217	0xbe3b763c	-0.18306822
218	0x3ca2ce66	0.01987381
219	0x3d84fd64	0.06493643
220	0x3b9027d6	0.00439928
221	0xbc83ef07	-0.016105188
222	0xbd76cabe	-0.060251944
223	0x3e161844	0.14657694
224	0x3d979976	0.07402317
225	0x3da419da	0.08012743
226	0xbb968b85	-0.0045942687
227	0x3dcd0676	0.10010998
228	0xbdd68512	-0.104746
229	0x3e1436d1	0.14474036
230	0x3de9cca5	0.11415986
231	0x3e353ef7	0.176998
232	0xbc8db342	-0.01729739
233	0x3d214e6f	0.03938144
234	0x3cff6e3c	0.031180494
235	0xbc81ca53	-0.015843546
236	0xbe1b6870	-0.15176558
237	0x3d20a6ec	0.03922169
238	0x3d93a1c7	0.07208591
239	0x3e6f3062	0.233583
240	0x3df84381	0.1212225
241	0x3e0907b0	0.13381839
242	0xbd6b7118	-0.0574809
243	0x3d86bfc8	0.06579548
244	0xbe0c717c	-0.13715166
245	0xbdd8d8e8	-0.105882466
246	0x3d5f28e8	0.05448237
247	0x3e047ae5	0.12937506
248	0xbe19d398	-0.15022123
249	0x3d19f392	0.037585802
250	0xbc8e860c	-0.017397903
251	0xbd4a5d63	-0.049405467
252	0x3c447165	0.011989926
253	0x3d32e0f0	0.04367155
254	0x3e8259ee	0.25459236
255	0x3d8e1674	0.06937876

lstm.bias_hh_l0 f4 [256]
0	0x3e29bc60	0.16575766
1	0x3b3bd0b3	0.002865833
2	0x3dc928b0	0.09822214
3	0xbde10e27	-0.109890275
4	0x3d7b7d83	0.061398994
5	0x3db20a35	0.08693353
6	0xbce8dd30	-0.028425783
7	0x3d82dd2d	0.06389842
8	0xbc805544	-0.015665658
9	0xbc6734d4	-0.014111716
10	0xbd576a62	-0.05259169
11	0xbd4e8218	-0.050417036
12	0xbd05b14e	-0.032639794
13	0x3d06fdcb	0.03295688
14	0xbe11f1c6	-0.14252385
15	0xbe0ba990	-0.13638902
16	0x3d6624d8	0.05618748
17	0x3ce2764d	0.0276443
18	0x3de124c5	0.10993341
19	0xbddbdbff	-0.1073532
20	0x3d9cb72c	0.07652125
21	0x3cb8d8e8	0.022564366
22	0xbd0eca53	-0.03486092
23	0xbdd5af76	-0.10433857
24	0xbd9e89d9	-0.07741136
25	0x3c38cb39	0.011278921
26	0xbe10dedb	-0.14147513
27	0x3c1a3e0d	0.009414208
28	0x3e4eb485	0.2018605
29	0xbcdf4706	-0.027255546
30	0xbad0b280	-0.0015922338
31	0x3d8e0afb	0.06935688
32	0xbc45e3f1	-0.012078271
33	0xbe48cb98	-0.19608915
34	0xbe2988da	-0.16556111
35	0xbd53251e	-0.05154907
36	0x3dd7dbc6	0.10539965
37	0x3d07eef0	0.033186853
38	0x3d2a303e	0.041549914
39	0x3c1a0434	0.009400416
40	0x3be5188f	0.006991453
41	0xbd2ed70f	-0.042685565
42	0x3be62098	0.0070229284
43	0x3daf487f	0.085587494
44	0xbe095314	-0.13410598
45	0xbc8fbc64	-0.017545886
46	0xbd8d7034	-0.06906167
47	0x3d61591e	0.05501663
48	0x3dae8e47	0.08523231
49	0xbdf3e997	-0.11909788
50	0xbe157143	-0.14593987
51	0x3d650872	0.055916257
52	0xbd58cc39	-0.052929137
53	0xbd56cdbf	-0.05244231
54	0xbe0d04cd	-0.13771363
55	0xbb155ebe	-0.0022792066
56	0xbca53e96	-0.020171445
57	0xbe1961c8	-0.14978707
58	0x3dae2bbc	0.085044354
59	0x3d428dac	0.04749839
60	0x3e1db020	0.15399218
61	0xbbf382a4	-0.007431345
62	0x3c810b97	0.015752597
63	0x3daab045	0.08334402
64	0x3d909c86	0.070611045
65	0x3b8f7db6	0.0043789996
66	0xbe22c74b	-0.15896337
67	0x3c7f1fd4	0.015571553
68	0xbda74112	-0.08166708
69	0x3d23e069	0.040008936
70	0x3e486e88	0.19573414
71	0x3cd5f496	0.026117604
72	0x3df9ecfb	0.122034036
73	0xbc2951e4	-0.010334466
74	0xbc9d765b	-0.019221475
75	0x3da8a9e1	0.08235527
76	0xbdee3613	-0.116314076
77	0x3d49b563	0.04924525
78	0x3dbe34f6	0.09287445
79	0xbd889867	-0.066696934
80	0x3df647cf	0.12025415
81	0xbdc1e36a	-0.09467204
82	0x3ce5897d	0.028019661
83	0x3e04b8ec	0.12961167
84	0xbc8969c7	-0.016774071
85	0xbdaa5167	-0.083163075
86	0xbe01e4c7	-0.12684928
87	0xbc25e199	-0.010124587
88	0x3dd6a2b2	0.104802504
89	0xbd1fb3c0	-0.038989782
90	0xbdb35357	-0.0875613
91	0xbd8dd68f	-0.069256894
92	0xbe2dc37f	-0.16969107
93	0xbdb9ebce	-0.09078179
94	0xbe0ad409	-0.13557447
95	0x3c05fc5e	0.008177845
96	0xbdd7d873	-0.10539331
97	0xbe0aa55b	-0.1353964
98	0xbd760768	-0.060065657
99	0xbe034b23	-0.12821631
100	0xbd7619d0	-0.06008321
101	0x3dc2b40e	0.09506999
102	0xbd50ca73	-0.05097432
103	0xbaab5b46	-0.0013073466
104	0xbded0df0	-0.11574924
105	0xbd22b837	-0.039726462
106	0xbe04d423	-0.12971549
107	0xbb6ea820	-0.0036416128
108	0xbdf4dce8	-0.11956197
109	0x3e018453	0.12648134
110	0xbd1cd38e	-0.03828769
111	0xbd796a3a	-0.06089232
112	0x3dcb6130	0.099306464
113	0x3ca52573	0.020159459
114	0xbc03867d	-0.00802767
115	0xbe16c9df	-0.14725445
116	0x3c86f07b	0.016472092
117	0x3d5952e1	0.053057555
118	0xbd7095a7	-0.05873647
119	0x3e89fac7	0.2694914
120	0x3d8e976a	0.06962474
121	0xbe03b2a5	-0.12861116
122	0xbd882b63	-0.066489
123	0x3e562374	0.20911962
124	0x3d99d9ca	0.07512243
125	0x3dcc6c95	0.09981648
126	0xbdaedd7b	-0.08538338
127	0xbcc68615	-0.024233857
128	0x3e16a088	0.14709675
129	0x3b36f361	0.0027916061
130	0x3e473abd	0.19456
131	0xbd38a224	-0.045076504
132	0x3d954d7d	0.0729017
133	0x3d3b7a06	0.045770667
134	0x3d7c81ac	0.061647102
135	0xbda95551	-0.08268226
136	0x3d022549	0.03177384
137	0xbd5ad88c	-0.05342917
138	0xbdad7a48	-0.08470589
139	0xbd08e8f1	-0.033425275
140	0xbc7765e5	-0.015099977
141	0x3cd98a35	0.02655516
142	0x3d41eabb	0.047342997
143	0xbd8a786c	-0.0676125
144	0xbd61f00b	-0.055160563
145	0x3e0ff4c2	0.14058211
146	0xbd858a0b	-0.0652047
147	0xbd85d69d	-0.06535075
148	0x3d1140c7	0.035462167
149	0x3e0f4d41	0.13994314
150	0xbd694f5d	-0.056960452
151	0xbe1c5669	-0.15267338
152	0xbd8b3503	-0.067972206
153	0xbda1c693	-0.07899203
154	0xbdcedf52	-0.10101189
155	0x3d8d7ec3	0.069089435
156	0x3da306f2	0.07960309
157	0x3db391b9	0.08768029
158	0x3b44dfc1	0.0030040594
159	0x3c8f38a4	0.017483063
160	0x3cca7af7	0.024716837
161	0xbe09e35e	-0.1346564
162	0x3d228640	0.039678812
163	0x3c94b4da	0.018152643
164	0x3dcd8f10	0.10037053
165	0x3d837103	0.0641804
166	0x3bfc062c	0.0076911654
167	0xbd23b5c4	-0.039968267
168	0x3d5e8ff5	0.054336507
169	0xbd812360	-0.06305575
170	0x3c33fc42	0.010985436
171	0x3e057a07	0.13034831
172	0xbda31701	-0.07963372
173	0x3ad681c5	0.0016365579
174	0x3ce087df	0.027408538
175	0x3d05288a	0.032509364
176	0xbd99a7e0	-0.07502723
177	0xbe1943b9	-0.1496724
178	0xbbb84503	-0.005623461
179	0xbde12e28	-0.10995132
180	0x3cfe794d	0.0310637
181	0x3dc9a90a	0.09846695
182	0x3db5b044	0.088715106
183	0x3c9970e5	0.01873059
184	0xbd9901aa	-0.074710205
185	0xbc58b219	-0.013226056
186	0x3d2ff73e	0.042960398
187	0x3df7ce7f	0.12099933
188	0x3d3e43c6	0.046451353
189	0xbc96a585	-0.018389473
190	0x3d4c0188	0.049806148
191	0xbd8f2f3a	-0.069914296
192	0xbd15ca9a	-0.03657017
193	0x3c39d727	0.0113428
194	0x3e2880d7	0.16455398
195	0x3d9b3214	0.07577911
196	0xbc5c525b	-0.013447369
197	0xbe384463	-0.17994837
198	0x3c9319c7	0.017956628
199	0x3d077c9a	0.033077814
200	0x3c2ace6c	0.010425191
201	0x3d61f060	0.05516088
202	0x3d443434	0.047901347
203	0x3d91d92c	0.071215004
204	0xbd8e86b2	-0.06959285
205	0xbdd3f0c8	-0.1034866
206	0x3d825d6a	0.063654736
207	0xbe0f95ea	-0.14022031
208	0xbddabf7a	-0.106810525
209	0xbd179343	-0.037005674
210	0x3c83e827	0.01610191
211	0x3dc2b199	0.0950653
212	0xbd183977	-0.037164178
213	0xbdd72b8e	-0.10506354
214	0x3e08e76f	0.13369535
215	0x3e29a622	0.16567281
216	0xbc886102	-0.01664782
217	0x3d7bc814	0.061470106
218	0xbdc5f866	-0.09666519
219	0xbe078c44	-0.13237101
220	0xb92412ac	-0.00015647215
221	0x3da67c7e	0.08129214
222	0xbdb05f59	-0.08611936
223	0x3be70081	0.0070496206
224	0x3ce86055	0.028366247
225	0xbd35f86c	-0.044426367
226	0xbd314805	-0.043281574
227	0x3d9c9b6a	0.076468304
228	0x3d8c0a62	0.06837918
229	0x3e1e4c5f	0.15458821
230	0xbdea948d	-0.11454115
231	0x3c949d0f	0.018141298
232	0xbdd4fef3	-0.1040019
233	0xbdc330c3	-0.09530785
234	0xbda182f8	-0.078863084
235	0x3ca99798	0.020702168
236	0xbe3d04f9	-0.18458928
237	0x3da66918	0.08125514
238	0xbcb12305	-0.021623144
239	0x3d97e420	0.07416558
240	0x3dd2ecd4	0.10299078
241	0x3d33052b	0.0437061
242	0xbd3807dc	-0.04492937
243	0x3dbfd9ed	0.09367738
244	0xbe2ebe03	-0.17064671
245	0xbdb5a0f4	-0.0886859
246	0x3cfd853e	0.030947324
247	0x3e081650	0.13289762
248	0xbe1ddea7	-0.15416966
249	0xbe231c61	-0.15928794
250	0x3e076b2d	0.13224478
251	0xbdabc2ba	-0.083867505
252	0xbcd04cb6	-0.025427204
253	0x3da0dccd	0.078546144
254	0x3da0adb3	0.078456305
255	0x3c55655c	0.013024654

classifier.0.weight f4 [32, 64]
0	0xbc219470	-0.00986205
1	0x3e61bd1a	0.22044793
2	0xbe0914fd	-0.13386913
3	0x3d563e6f	0.052305635
4	0xbb77121e	-0.0037700008
5	0x3a715ef9	0.00092075724
6	0xbd84ad67	-0.06478386
7	0xbcc2a1b7	-0.023758752
8	0xbc8cfd42	-0.017210606
9	0xbe27a080	-0.1636982
10	0x3db8503a	0.08999677
11	0x3e4fb1e1	0.20282699
12	0xbe230e34	-0.15923387
13	0xbe833013	-0.25622615
14	0xbd443c7f	-0.047909256
15	0xbe4d835b	-0.2006964
16	0xbeab91c6	-0.33509654
17	0x3e6c7d76	0.23094735
18	0x3e0dfae8	0.13865244
19	0xbf03e8e5	-0.51527244
20	0xbe694873	-0.22781543
21	0x3e6dd4b5	0.23225673
22	0x3e03c26b	0.12867133
23	0xbe18cc76	-0.14921746
24	0x3dbf7153	0.09347787
25	0x3de31109	0.110872336
26	0xbe10ee7d	-0.14153476
27	0xbe124e1b	-0.14287607
28	0x3e4d40c5	0.20044239
29	0xbe2a3527	-0.16621839
30	0x3d23752f	0.039906677
31	0x3e3f9a5e	0.1871123
32	0xbebd5c12	-0.36984307
33	0xbe4702f0	-0.19434714
34	0xbc312916	-0.010813018
35	0x3b856177	0.0040704566
36	0xbd9a8d16	-0.07546441
37	0xbe7b1792	-0.2452071
38	0xbe5dee1e	-0.21672866
39	0xbcfa3080	-0.030540705
40	0x3dbd5715	0.09245125
41	0xbe6e08b7	-0.23245512
42	0xbd3e3c8e	-0.04644447
43	0xbd925bed	-0.0714644
44	0x3e0bf0d1	0.13666083
45	0xbe2ba80e	-0.16763327
46	0xbc8649f8	-0.016392693
47	0xbd6562b6	-0.05600234
48	0xbe5e73b6	-0.21723828
49	0xbcc63446	-0.024194848
50	0x3cf07864	0.029354282
51	0xbd95bbaa	-0.07311185
52	0x3d3c29ca	0.04593829
53	0x3d48c50d	0.049016047
54	0x3ddf8489	0.10913951
55	0xbe180d94	-0.1484893
56	0xbe286275	-0.16443808
57	0xbe430de9	-0.19048275
58	0xbe046d9c	-0.12932438
59	0xbc9dbf5d	-0.019256288
60	0xbe36670b	-0.17812745
61	0x3e72cfdc	0.23712105
62	0x3e7b717e	0.24555013
63	0x3dd0f9d9	0.10203905
64	0xbe401648	-0.187585
65	0xbe5f76ce	-0.21822664
66	0xbca6b13e	-0.020348188
67	0x3d8780c2	0.066163555
68	0xbd4f8d9b	-0.050672155
69	0x3cb7b424	0.022424765
70	0x3e378109	0.17920317
71	0x3e61bd36	0.22044834
72	0x3d011194	0.031510904
73	0x3dbe870f	0.09303104
74	0xbd98788b	-0.07444867
75	0xbe1f32e2	-0.15546754
76	0xbd5b055c	-0.053471908
77	0x3e3d5e1e	0.18492934
78	0xbd898e98	-0.06716651
79	0xbc48376e	-0.012220247
80	0x3c85de5c	0.01634138
81	0xbdf5ac78	-0.119957864
82	0xbcee9d58	-0.029127762
83	0xbd5591b4	-0.052140906
84	0xbde1ad90	-0.110194325
85	0xbd345d15	-0.044034082
86	0xbe1d8663	-0.15383296
87	0xbd38a1ee	-0.045076303
88	0xbdf02a56	-0.11726825
89	0xbd77e01f	-0.060516473
90	0x3d2ed4c4	0.042683378
91	0xbd3f0ecb	-0.046644967
92	0xbce681da	-0.02813809
93	0xbbb59f03	-0.0055426373
94	0x3ddf5f23	0.10906818
95	0xbd718475	-0.05896421
96	0x3e18e6ba	0.14931765
97	0x3d9fade3	0.07796838
98	0xb95204e7	-0.00020028987
99	0xbddd92c7	-0.10819011
100	0x3dab648a	0.08368786
101	0x3d09de57	0.033659305
102	0x3d81b885	0.063340224
103	0x3c28abf9	0.010294908
104	0xbdba4d68	-0.09096795
105	0x3e688fc3	0.2271109
106	0x3e358047	0.17724715
107	0x3d736dd8	0.059430927
108	0xbd824fe4	-0.06362894
109	0xbc249704	-0.010045771
110	0x3d507af8	0.050898522
111	0x3df4b53e	0.11948632
112	0x3de2d4b7	0.110757284
113	0x3e24f113	0.16107588
114	0xbe033a5c	-0.12815231
115	0x3e002831	0.12515332
116	0x3e3f8aaa	0.1870524
117	0x3d56bef1	0.05242819
118	0xbc671e7f	-0.014106392
119	0xbbe44fc5	-0.006967517
120	0xbd66d481	-0.056355003
121	0x3dbb412d	0.09143291
122	0x3e6a7512	0.22896221
123	0x3d92e6b5	0.0717291
124	0x3e4a0bb6	0.1973103
125	0xbe3a3a17	-0.18186222
126	0xbe0f702a	-0.14007631
127	0xbdb22565	-0.08698539
128	0xbe2d0a7c	-0.1689853
129	0xbd6fefd8	-0.058578342
130	0x3d7469e7	0.05967131
131	0x3de10789	0.10987765
132	0xbc986bf3	-0.018606162
133	0x3d27cee1	0.04096878
134	0x3cbefe65	0.023314664
135	0x3d663aa0	0.056208253
136	0x3de6bb01	0.11266137
137	0x3e6ac62a	0.22927156
138	0xbda6220e	-0.08111964
139	0xbd1d20a7	-0.038361218
140	0xbda6ff06	-0.081541106
141	0xbb78cc98	-0.0037963744
142	0xbd0d0591	-0.034429137
143	0xbba51f05	-0.005039098
144	0x3d921452	0.07132782
145	0xbe909991	-0.28242162
146	0xbcc6193e	-0.024181958
147	0xbe31ac82	-0.17350963
148	0xbe03f1c6	-0.12885198
149	0xbe24279d	-0.16030736
150	0xbe4f76d9	-0.2026018
151	0xbdc470f8	-0.095918596
152	0xbdf5e5d6	-0.12006728
153	0x3e24e967	0.16104661
154	0x3dc618c6	0.09672694
155	0xbd060433	-0.03271885
156	0xbdacdc05	-0.08440403
157	0xbe1cb37a	-0.1530284
158	0x3d832a38	0.06404537
159	0xbdb6e049	-0.08929498
160	0x3e2d11f4	0.1690138
161	0x3ce8f663	0.028437799
162	0x3d3bdc70	0.045864522
163	0xbbc3b752	-0.005972781
164	0x3d4b1509	0.049580608
165	0x3de89378	0.113562524
166	0x3df891f6	0.12137215
167	0x3de58b5b	0.112082206
168	0xbe466c23	-0.19377188
169	0x3c3a7ab7	0.011381797
170	0xbcf2242d	-0.029558266
171	0x3e162aed	0.14664812
172	0xbe469bc0	-0.19395351
173	0x3dac1098	0.084016025
174	0x3e60e0da	0.21960774
175	0xbb84b3d0	-0.0040497556
176	0x3e131fd8	0.14367616
177	0x3e1ac176	0.15112862
178	0xbe0e4f17	-0.13897358
179	0x3e2f8afc	0.17142862
180	0x3c5d5034	0.013507891
181	0x3d9040ec	0.07043633
182	0x3de990c3	0.11404564
183	0xbd9ae2fb	-0.07562824
184	0xbd277358	-0.040881485
185	0x3d65957b	0.05605076
186	0x3e2f362f	0.17110513
187	0x3d00e43f	0.031467672
188	0x3a8da784	0.001080737
189	0xbe61b9f1	-0.22043587
190	0xbe3bc5b4	-0.18337137
191	0xbe3b7df5	-0.18309768
192	0xbe166230	-0.14685893
193	0xbe1b3896	-0.15158305
194	0xbad4dbec	-0.0016239858
195	0xbe125828	-0.14291441
196	0xbdc6a88b	-0.09700116
197	0xbce478fc	-0.027889721
198	0x3c8ee9ea	0.017445523
199	0x3d4d97df	0.050193664
200	0x3d8b9e44	0.06817296
201	0x3d018e91	0.031630103
202	0xbe161d4c	-0.14659613
203	0xbd007efa	-0.031371094
204	0xbd120c35	-0.035656173
205	0x3e11af27	0.14226972
206	0xbe39925a	-0.18122235
207	0x3e025f7d	0.12731738
208	0x3d14e952	0.036355324
209	0xbe4f16ff	-0.20223616
210	0xbe747c9b	-0.23875658
211	0xbe42fae3	-0.19041018
212	0xbdab3925	-0.08360509
213	0x3c97b433	0.018518543
214	0xbe79189d	-0.24325795
215	0x3bacbd65	0.005271601
216	0xbe04781a	-0.1293644
217	0x3def04be	0.116708264
218	0x3d4ea82c	0.05045335
219	0x3e066a71	0.13126542
220	0xbe5c0f5b	-0.21490233
221	0x3d20c4c2	0.039250143
222	0x3dbd7dae	0.09252487
223	0xbdb197f8	-0.08671564
224	0x3dd7afb1	0.10531557
225	0x3e31a1f7	0.17346941
226	0x3db98cc8	0.09060055
227	0xbbb8d618	-0.0056407563
228	0x3c9c09db	0.019047668
229	0x3e27ee42	0.16399482
230	0x3e288aa1	0.16459133
231	0x3d7068be	0.05869364
232	0xbdf1ab0d	-0.118002035
233	0x3e2bc4a2	0.16774228
234	0x3cbd1672	0.023081992
235	0x3e0fc5b5	0.14040263
236	0x3bf0c966	0.0073482273
237	0xbe1512de	-0.14557979
238	0x3e03004b	0.1279308
239	0x3c89ddb9	0.016829358
240	0x3e833719	0.25627974
241	0x3e6d66e5	0.23183782
242	0xbe56f146	-0.20990476
243	0x3e4c0bd5	0.19926389
244	0x3c900345	0.017579684
245	0x3bfcf332	0.007719421
246	0x3dc02c48	0.09383446
247	0x3ca20be8	0.019781068
248	0xbe0b2a02	-0.13590243
249	0x3d41b01b	0.047287088
250	0x3d952f16	0.072843716
251	0xbcea7e3c	-0.028624646
252	0x3e5e30ee	0.21698353
253	0xbe35b3fb	-0.17744438
254	0xbd205dcc	-0.03915195
255	0xbe82a0ce	-0.2551331

classifier.0.bias f4 [32]
0	0x3e67b34e	0.22626993
1	0x3d14491b	0.03620253
2	0xbda91abb	-0.082570516
3	0xbd421753	-0.047385525
4	0x3d25c83e	0.04047417
5	0x3deaeed8	0.11471337
6	0xbdf7444a	-0.12073572
7	0xbdb1ad79	-0.086756654
8	0x3d3afdce	0.045652203
9	0x3e1ec6b9	0.15505494
10	0xbd705b67	-0.058680918
11	0xbdd1548b	-0.102212034
12	0xbde116b9	-0.10990662
13	0x3e028749	0.1274692
14	0x3d14957d	0.036275376
15	0xbd1e58b3	-0.03865881
16	0xbddeabd7	-0.108726196
17	0x3d161dc5	0.036649484
18	0xbdaf8e8c	-0.085721105
19	0xbd2f0c38	-0.042736262
20	0x3e3bedce	0.18352434
21	0xbda41b11	-0.08012975
22	0x3c0e5c51	0.008689002
23	0x3e26ae0f	0.16277336
24	0x3daaef59	0.08346433
25	0xbd940bdf	-0.07228827
26	0x3e5f8482	0.21827891
27	0xbc15bd24	-0.009139333
28	0x3d4ac528	0.04950443
29	0xbe10eda4	-0.14153153
30	0xbccb0db9	-0.024786817
31	0xba73625f	-0.0009284373

classifier.2.weight f4 [2, 32]
0	0x3e6a6b6f	0.22892545
1	0xbe01b582	-0.12666896
2	0xbd581170	-0.052751005
3	0xbdd9b4ca	-0.10630186
4	0xbe7cce23	-0.2468801
5	0x3dae0f8d	0.0849906
6	0xbdb8fa26	-0.09032087
7	0xbdd82ad0	-0.10555041
8	0xbe31eb7f	-0.17374991
9	0x3e036bfd	0.12834163
10	0xbd7b25f7	-0.061315503
11	0xbdaad3fc	-0.08341214
12	0xbe1ac893	-0.15115575
13	0xbe6324f5	-0.22182067
14	0xbe07957e	-0.1324062
15	0x3d9bb579	0.076029725
16	0xbe1e093e	-0.15433213
17	0x3e8bac79	0.27280024
18	0xbec8f486	-0.39249057
19	0xbe5166ac	-0.20449322
20	0x3de9256f	0.11384093
21	0x3e165437	0.14680563
22	0x3cd0e479	0.02549957
23	0x3e50bf9b	0.20385592
24	0xbdbb6c8e	-0.091515645
25	0x3e17aa0f	0.14810966
26	0x3eb19175	0.34681287
27	0xbd866bfc	-0.06563565
28	0xbddb9317	-0.107214145
29	0xbe495beb	-0.1966397
30	0xbe2185f4	-0.15773755
31	0xbe69b43c	-0.2282266
32	0xbd011b9a	-0.031520464
33	0x3e2b57fd	0.16732784
34	0x3e4da798	0.20083463
35	0x3e7e4435	0.24830706
36	0x3e5af7c7	0.21383582
37	0xbe02d489	-0.12776388
38	0xbc9521e5	-0.018204639
39	0xbd6e85cf	-0.05823308
40	0x3def2908	0.11677748
41	0xbe7f0d3c	-0.24907392
42	0x3e3dd1d0	0.18537068
43	0x3cd83042	0.026390199
44	0x3e18b60a	0.14913192
45	0x3e282cd5	0.16423352
46	0xbd8decdd	-0.06929944
47	0xbe51792d	-0.20456381
48	0x3da0f029	0.07858307
49	0xbe145cac	-0.14488477
50	0x3e9c1974	0.3048817
51	0x3d68c701	0.05683041
52	0xbe144c6d	-0.14482279
53	0xbe62a0b5	-0.22131617
54	0xbe8afd7d	-0.2714652
55	0xbddfd37e	-0.10929011
56	0x3e24c81b	0.16091959
57	0x3cde9887	0.02717234
58	0xbe8d8abc	-0.27644908
59	0xbda2a1ca	-0.07941015
60	0x3dface52	0.12246384
61	0x3d6a7e00	0.05724907
62	0x3da2140a	0.079139784
63	0xbd9edd63	-0.0775707

classifier.2.bias f4 [2]
0	0xbd2d4fc8	-0.042312413
1	0xbe59d490	-0.21272492
