experiments/darpa2000/s1_inside/deepproblog/phase_classifiers/models/w10/original/phase_3.pth (torch, 194061 bytes, 8 tensors)

lstm.weight_ih_l0 f4 [256, 112]
000000 5a 9d d6 bd c1 93 05 be 12 a6 96 3d 38 54 57 bd
       -0.10479231 -0.13044645 0.07355894 -0.05257055
000010 e1 9d cb bd 0c ad dc bd a3 94 0d 3d bc 9c 2e 3d
       -0.099422224 -0.107751936 0.03456558 0.042629942
000020 ae 24 9f bc 17 fe 00 3e 22 60 93 be c6 06 11 be
       -0.01942667 0.12596928 -0.2878428 -0.1416274
000030 ce 52 93 bd 9d 7a ed bd 26 fc a8 3d 3e 23 30 be
       -0.07193528 -0.11595652 0.082512185 -0.17200944
000040 2c da b9 be 9c 91 e6 bd fd 0c 0c bd f4 47 bc bd
       -0.36299264 -0.112582415 -0.034192074 -0.091934115
000050 94 ca 91 3b 85 1d bd be 23 e2 ef bd 40 9e 8b bd
       0.004449198 -0.36936584 -0.11713054 -0.06817293
000060 3e e8 56 3d 5c 2e de 3d 7f 8a 8d be 6b 66 7b 3d
       0.052467577 0.10848686 -0.27644727 0.06137697
000070 00 ab 10 be 6b f2 49 be 57 22 2a bd 5e ed 7b bd
       -0.14127731 -0.19721381 -0.041536655 -0.061505668
000080 66 17 87 bd ba 88 d4 3d 18 a0 83 be 34 b1 fa 3d
       -0.0659626 0.10377641 -0.2570808 0.1224083
000090 de e7 b5 3d 82 14 7e be fb 87 8a bb 6e 8e 9a bd
       0.08882116 -0.2481251 -0.004227636 -0.075466976
0000a0 b9 c8 39 be d1 19 9c 3d 55 3b e1 3c db 1b 29 3e
       -0.18142976 0.076221116 0.027494112 0.16514532
0000b0 bd 4c 78 be ae 5f 3d be 8f fa 09 be 4b 2c fe bd
       -0.24248023 -0.1849353 -0.13474487 -0.12410792
0000c0 68 f6 95 bd b9 13 74 bd 64 f9 57 3d 28 da 57 bd
       -0.07322389 -0.05958912 0.05272807 -0.052698284
0000d0 54 e1 0e 3d 73 c7 b6 3c 04 86 59 be 78 18 8c bb
       0.03488286 0.022311902 -0.21242529 -0.004275378
0000e0 b0 4d c4 bd 64 ac 3d bd 1d f2 57 be 51 97 46 3d
       -0.0958513 -0.046306983 -0.21088453 0.04848415
0000f0 77 0f 6b be 58 fa f6 bc 72 7b 19 bd 5b c5 b4 3c
       -0.22955118 -0.03014867 -0.037471242 0.022066763
000100 ad da 43 bd a1 5d 8a bd c7 ab 17 be 59 f9 a2 bd
       -0.047815967 -0.067561395 -0.14811622 -0.079577155
000110 e6 12 23 3c 73 64 47 bc 1c 37 68 3d 53 bb 15 3d
       0.009953236 -0.012169945 0.05669318 0.0365556
000120 54 35 30 3e ee 3b be bd 00 f0 d7 bd d4 2a a1 3d
       0.17207843 -0.092887744 -0.10543823 0.07869497
000130 a0 80 95 bc 62 f4 e6 3d 59 e7 89 bc 00 5d aa 3d
       -0.01824981 0.11277081 -0.016833948 0.083185196
000140 0c 78 88 be 2f 91 ea bd 49 f4 74 bc 19 0f b0 be
       -0.26654088 -0.11453473 -0.01495082 -0.3438652
000150 2a 4a 32 bd 8b 14 b8 3d 97 b9 2b bc 43 25 0d be
       -0.04352776 0.08988293 -0.01048126 -0.13783745
000160 49 56 a8 3d 66 c8 b3 bd 97 2b 71 3d 48 9e ba 3d
       0.082195826 -0.08778457 0.05887946 0.09112221
000170 42 ae db 3c 7b 0c d6 be a7 47 f5 3d ae 91 27 bd
       0.026816491 -0.41806397 0.11976557 -0.040910415
000180 f2 4a fa bc 90 3d 62 bd 4f c4 e9 3d 58 c7 50 bd
       -0.030553315 -0.05523449 0.11414396 -0.05097136
000190 fb b6 a9 3d 1b 00 ac bd a3 b4 83 3d bf 00 05 3e
       0.08286854 -0.083984576 0.06430938 0.12988566
0001a0 29 a0 c1 bd 6b bd 48 3c b3 ad 0a bd 2c 9a 32 3d
       -0.09454376 0.012252192 -0.03385706 0.04360406
0001b0 cd 91 b1 3c a1 1a f8 3c ea 0c e3 3d 61 5a 75 be
       0.021675969 0.030286135 0.110864475 -0.23960258
0001c0 dc d9 15 3e d2 04 a1 bd a5 75 bf bc cc 36 ad 3d
       0.14633888 -0.078622475 -0.023371527 0.08457717
0001d0 5a df 0c be 96 d1 79 be 8d 16 ca bb ef c3 a4 3c
       -0.13757077 -0.24396357 -0.006167239 0.02011296
0001e0 90 64 2c 3e ff 6e b9 3c 81 b7 22 bd c0 af 09 be
       0.16835237 0.022635935 -0.039725784 -0.1344595
0001f0 6b 85 6f bd 61 5a 13 3e 1c ae 17 3d 3c 50 5e 3d
       -0.058476847 0.14389946 0.037031278 0.054275736
000200 7e 60 3e 3d 6a 13 0e be 2c 07 8c 3e b2 cb 0c 3e
       0.04647874 -0.13874593 0.27349222 0.13749579
000210 96 76 01 3e 90 93 b2 bd da 86 02 3e 32 09 f8 3d
       0.12642893 -0.087195516 0.12746754 0.12111129
000220 ca 05 b5 bc 00 f0 48 bd e2 a5 f2 bd 02 ad 1b 3e
       -0.022097487 -0.049057007 -0.11848046 0.15202716
000230 87 01 d1 3c 2f bf b7 bb 52 0c 09 be e5 ac ca bd
       0.025513424 -0.0056075077 -0.13383606 -0.09896258
000240 60 97 1a 3e 6c 91 91 3d ac 54 76 3c a3 99 39 3d
       0.15096807 0.07107815 0.015034836 0.045312535
000250 63 2f e0 bd 1c 32 b8 3c ca f4 0b bd 1b bd 75 3d
       -0.10946538 0.022484832 -0.034168996 0.0599948
000260 44 38 68 3d 1f 92 93 bd 04 80 e7 3c 01 9b bf bd
       0.056694284 -0.07205605 0.028259285 -0.093557365
000270 88 fa f5 bd dd 0b af bc 27 06 e7 3d 96 51 ab 3b
       -0.12010676 -0.021367962 0.1128047 0.0052282317
000280 4c e5 95 3d 8e db 35 3b 2f 4b bb bd 0e af a3 3c
       0.073191255 0.0027749273 -0.091451995 0.019980934
000290 4a bd f6 bc 21 32 2e bd 9a 7b 8e bd d9 96 3d bd
       -0.030119557 -0.042528275 -0.06957169 -0.046286438
0002a0 7f 19 c4 3d 59 12 8b bc f2 3b be bc 12 c6 21 3e
       0.095751755 -0.016976522 -0.023221944 0.15798214
0002b0 8f 8b 8c bd 34 7b bb 3d 2e 18 20 bb d6 a8 b7 bc
       -0.06862556 0.091543585 -0.0024428475 -0.022419374
0002c0 d8 36 f1 3c 97 7a 17 bd 9d 5b 51 bd 4f e5 ea bc
       0.029445097 -0.036982145 -0.05111276 -0.028673796
0002d0 b8 2b 46 bd 39 31 ce 38 e6 6c 97 bd 79 97 4e bd
       -0.048381537 9.832014e-05 -0.073938176 -0.050437424
0002e0 48 96 42 be 5b d9 f9 bc e7 9e 5d 3e 5a 59 a1 3d
       -0.1900264 -0.030499151 0.21642648 0.078783706
0002f0 4c 43 93 bd 65 29 2e bd 86 3e 35 3d 2a 14 e6 3b
       -0.0719057 -0.042519946 0.04424908 0.0070214467
000300 b2 33 1b 3c 60 09 eb 3d 33 00 d9 3c 8f e1 42 bd
       0.009472774 0.114763975 0.026489353 -0.04757839
000310 01 c6 47 3e bb 6d af 3d 5c 24 d9 bb 4c ec 24 bd
       0.19509126 0.08565851 -0.006626649 -0.040264413
000320 0f fa 8f 3d 10 5e a1 3d 42 82 c7 bd 28 4b 02 3e
       0.07030117 0.07879269 -0.097416416 0.12723982
000330 d0 c4 21 be b0 9a a4 3d 96 7d 4a bd c8 01 09 3d
       -0.15797734 0.08037317 -0.049436174 0.033448964
000340 4f b5 c1 3d d7 2e da bd d5 5d 84 bd 97 c4 d0 3d
       0.0945841 -0.10653465 -0.064632095 0.101937465
000350 5f 7d 3c bc e7 7b fa 3d 05 63 ce bc f7 4c 02 bd
       -0.0115045 0.12230664 -0.0251937 -0.03181168
000360 63 de eb bd 6e 31 be 3d 47 8f 13 3c ba 28 4b b9
       -0.11517026 0.09286772 0.009006328 -0.0001937476
000370 3d 35 0a 3d 23 c2 11 3e e7 a3 0b be 23 01 a0 bd
       0.03374218 0.14234214 -0.13636743 -0.07812717
000380 1d 7e e6 bd 1c e3 86 3d 50 f9 20 3d 30 1e 3f 3c
       -0.11254523 0.065862864 0.039300263 0.011664912
000390 cc 84 4a bd 21 cf 7b 3d b7 e0 37 bd 0e 3c 1c bd
       -0.04944305 0.06147683 -0.04489204 -0.03814321
0003a0 8a bf 53 3e 2b 2a 14 3d 88 33 e0 3c 02 cf 4c be
       0.20678535 0.036173027 0.027368322 -0.20000842
0003b0 35 d3 36 3e 06 3b a4 3e c7 a8 25 3e b7 62 29 3e
       0.17854007 0.3207628 0.16177665 0.16541563
0003c0 e4 d9 a2 3d bc 05 00 3e ca 26 a7 3d 47 33 21 3c
       0.079517156 0.12502187 0.08161695 0.009838886
0003d0 91 a7 55 3e a5 6f d9 3d 45 f9 0b 3e 7c 26 a3 bc
       0.20864703 0.10616998 0.13669308 -0.019915812
0003e0 69 19 65 3e de 77 0f 3e 45 de 8a 3e 47 d1 ef 3d
       0.22372974 0.1401057 0.27122703 0.11709838
0003f0 75 80 dc 3c f4 f5 4c 3e 95 1e 2a bd 79 e4 87 bd
       0.026916722 0.20015699 -0.04153307 -0.066353746

lstm.weight_hh_l0 f4 [256, 64]
000000 4e b3 0f 3e 81 cb 70 3d a8 c8 b7 3b ab 9d f1 3d
       0.14033243 0.058787826 0.005608637 0.11797651
000010 51 9b 9b 3b 41 36 ac bb 92 18 c4 bc 34 93 48 3b
       0.00474874 -0.005255491 -0.023937497 0.0030605318
000020 09 92 6d bd 92 96 88 3d de c4 16 3d 8c 9f dc bd
       -0.058000598 0.06669344 0.03680884 -0.10772619
000030 01 80 21 3e 81 40 0d 3e a6 e0 2e ba 0f 6d 0f 3e
       0.15771486 0.13794138 -0.00066710485 0.14006446
000040 dd fd 32 3d 86 ce 54 bc 22 50 72 3c 97 bd 09 3c
       0.043699134 -0.012988692 0.014789613 0.008407018
000050 de 97 23 be e0 6c 09 3c e9 fa 5c 3e 8a e9 a3 bd
       -0.15975901 0.008387774 0.2158009 -0.080035284
000060 28 82 28 be f7 be 8c bd 48 83 3b 3c 96 97 f9 3d
       -0.164559 -0.06872361 0.011444874 0.12187116
000070 23 d1 b4 bd e3 ac f3 bc 83 06 cd 3d 23 88 73 3b
       -0.08828952 -0.029745525 0.10011008 0.0037160001
000080 81 3b 39 3d 7d 18 eb bb 7e 10 29 be 4d bf bf 3d
       0.045222763 -0.00717455 -0.16510198 0.093626596
000090 ae 87 bc bd eb f3 1b 3d e1 1c b6 3d 74 d0 11 3e
       -0.09205566 0.038074415 0.08892227 0.14239675
0000a0 83 d5 23 3e 64 58 f1 3d 0a 26 4f 3e 15 64 2d be
       0.15999417 0.11784437 0.20229355 -0.1693271
0000b0 1b 39 d7 bd 5b b4 92 3d d1 00 74 3c 99 1c b0 3d
       -0.10508939 0.07163306 0.014892773 0.085992046
0000c0 00 fa aa bc de 66 14 3d 2e ba 11 3e 36 68 65 3d
       -0.020871162 0.036230914 0.14231178 0.056007586
0000d0 a9 1b fa bd 68 e0 04 3d bb d4 51 bd a4 6b df 3d
       -0.12212307 0.032440573 -0.051228266 0.10909203
0000e0 b8 57 51 ba ef b1 9f 3d 07 14 89 bd 87 0d cc 3b
       -0.00079857884 0.0779761 -0.06693273 0.0062271985
0000f0 24 b8 25 3c 48 ba 82 3e a5 07 c4 3d 30 12 ca 3d
       0.010114703 0.25532746 0.095717706 0.0986675
000100 a6 59 dc 3a c3 23 dc bd fb cd a2 bd 69 a1 04 3e
       0.0016811385 -0.107490085 -0.07949444 0.12952198
000110 d6 35 b8 bd be 52 0c 3c 9b e4 af 3b f7 5d 85 bd
       -0.089946434 0.008564649 0.005367828 -0.06512063
000120 89 51 4d bd af 88 aa 3c cf f5 e7 3c 12 7a 80 bd
       -0.050126586 0.020817129 0.028315453 -0.06273283
000130 09 55 ad 3d 85 46 bf 3d 69 5a 0a 3e d3 31 2b bd
       0.08463485 0.093396224 0.13511051 -0.041795563
000140 cd 2b 29 3b c6 7e 73 bd 56 a9 1a bd 7a 6e 48 bc
       0.002581346 -0.059447072 -0.037759148 -0.012233371
000150 80 df bd bc 24 a2 33 bd e4 fc 8d 3d 69 8a ac 3d
       -0.023177862 -0.0438558 0.06933001 0.08424837
000160 62 e8 67 bd bc a7 bf bd 44 9c 32 be 03 9a 2d 3d
       -0.056618102 -0.09358165 -0.17442423 0.042383205
000170 64 bd 19 3e 76 c6 e3 bc 91 b5 6b bd 81 8e cd bc
       0.15013653 -0.027804594 -0.057546202 -0.025092365
000180 51 4f c0 bd b6 18 b3 3d 16 66 b1 bd b0 90 62 bd
       -0.093901284 0.087449476 -0.086620495 -0.055313766
000190 50 a3 8b 3d 13 ce 1b be 79 df 57 3d 1b 93 e7 3d
       0.06818259 -0.1521533 0.052703355 0.11307355
0001a0 98 4d 0b bc 96 4f 53 3c 84 39 42 3e a7 6c 58 3d
       -0.0085023865 0.012897393 0.18967253 0.052837994
0001b0 b5 76 29 3d 6b d2 16 3d 6a 80 a7 bc 59 c3 e9 bc
       0.041372973 0.036821764 -0.020446975 -0.028535532
0001c0 f5 a0 19 3d 38 82 9f 3d eb 0b 44 3d 02 5b 62 bd
       0.037507016 0.07788509 0.04786293 -0.055262573
0001d0 03 86 99 bd 3f 72 8d 3c 79 c1 d2 bd 3d 53 16 3e
       -0.07496264 0.01726639 -0.10290808 0.1468019
0001e0 97 bb 48 3d 3a e5 23 3d 7d de c8 bd 9c 79 b1 bb
       0.049007025 0.04001353 -0.09808061 -0.0054161083
0001f0 77 a4 20 bd 7d 45 4f 3e 8d 5f 0c 3e 8b c1 20 3d
       -0.039219346 0.20241351 0.13708325 0.039247077
000200 6e 05 8a bd f8 1c 8f 3d 61 d6 b1 bd 44 cf ad 3d
       -0.06739317 0.06987947 -0.08683468 0.084867984
000210 e3 ec 15 3e c2 32 4e ba 5d cf cb bd 6d 80 b5 3d
       0.14641146 -0.000786584 -0.09951661 0.08862386
000220 8c a2 8e bc dd ee 4d 3d 04 41 cf 3a 2f 49 c1 3d
       -0.017411493 0.050276626 0.0015812223 0.09437787
000230 82 32 a5 bb 8e 23 7b bd 10 7a 5e 3c 94 9b 3b 3d
       -0.0050414214 -0.061313204 0.013578907 0.045802668
000240 23 ae 01 3e 70 01 ea 3d 79 02 99 bd 63 e7 01 bd
       0.12664084 0.114260554 -0.07471175 -0.03171481
000250 cd 5e a4 3d aa f1 46 bd ca 04 b9 3d f9 19 ca 3c
       0.08025894 -0.048570313 0.090341166 0.024670588
000260 ae 09 18 be 6e 92 2d bd a2 f1 61 3d ba 57 40 3d
       -0.14847443 -0.042375974 0.05516208 0.046958663
000270 1c 3c 06 3e 26 91 ab 3d 51 2a ae 3c 86 da 3c bd
       0.13108867 0.08377294 0.021260412 -0.046106838
000280 af 69 3b bd 27 bf 96 3b f8 13 52 3d 52 9b 88 3d
       -0.045755085 0.004600424 0.051288575 0.0667025
000290 1f 71 d7 3d cb 6e 09 be 78 f0 a4 3d e8 24 5d b8
       0.10519623 -0.1342117 0.08053678 -5.2724878e-05
0002a0 1c 62 3e be 6b f5 dd 3d 4f 51 cc bd 2e 76 0f be
       -0.18592113 0.108378254 -0.09976446 -0.14009926
0002b0 b9 6b 58 3d 9e 3d 29 be 72 08 a7 3d 79 34 96 3b
       0.052837107 -0.16527411 0.08155908 0.004583892
0002c0 2c c5 d2 3c f7 3c 01 bd 6e 5c 18 bd a9 44 eb 3d
       0.025728785 -0.03155228 -0.037197523 0.11487705
0002d0 b9 87 44 3d 7c ba 70 3d 0a 3f 51 3d 42 e5 4f 3a
       0.047980998 0.058771595 0.05108551 0.00079305854
0002e0 05 59 23 be 1c 95 6c 3c 07 e7 11 3c c5 83 bc 3d
       -0.15951927 0.014439847 0.008905179 0.092048205
0002f0 a7 06 07 3d 93 01 14 3e 91 00 a6 bc 84 19 01 be
       0.03296533 0.14453726 -0.020263942 -0.1260739
000300 ec 69 d5 3d 00 c5 ba 3c 46 5f a9 bc ba 4c eb 3d
       0.104205936 0.022799015 -0.020675313 0.11489244
000310 b8 d7 be 3d d0 a3 61 3d a3 9f 3d be 8a 4b 7b bb
       0.09318489 0.055087864 -0.18517928 -0.0038344585
000320 98 92 13 be bd 18 6f 3c 91 de d9 3d 2b e9 80 bc
       -0.1441139 0.0145933 0.10638154 -0.015736183
000330 d6 23 fa bc 2b 19 b8 bd c6 81 80 bb 86 be 0a bd
       -0.030534666 -0.089891754 -0.00392172 -0.033873104
000340 8d 24 b4 bd e5 63 9e bd c8 d6 1b be 28 d4 61 3c
       -0.08796034 -0.07733897 -0.15218651 0.013783492
000350 02 9f 59 be fe f2 7a bc 6a 29 3a 3e f4 51 08 be
       -0.21252063 -0.015316723 0.1817986 -0.13312513
000360 63 df d9 3d c3 eb 14 be ea 3b 98 bd 6c 81 89 bd
       0.10638311 -0.14543061 -0.07433303 -0.067141384
000370 cd c8 08 3e 91 b9 60 3d ad 8e e1 bd d8 24 30 3d
       0.1335785 0.05486447 -0.11013541 0.043003887
000380 fe 63 a6 3d 32 3b 05 be 01 ea be 3d b5 6e e9 3d
       0.08124541 -0.13010862 0.093219765 0.11398069
000390 a2 05 02 be 40 f4 45 3d 28 7c fd bb 50 96 0e 3c
       -0.12697461 0.048328638 -0.007735748 0.0087028295
0003a0 32 52 92 3d c5 ef a6 3c d5 a3 98 3d 21 19 9a 3d
       0.07144584 0.020378003 0.074531235 0.07524324
0003b0 ee 8e 87 3d c0 1c 02 be bd f4 88 bd a4 8b c3 bd
       0.066190585 -0.1270628 -0.06687305 -0.09548119
0003c0 68 4c 84 bd cb 25 3f be c7 bf 0a 3c 60 f8 73 3e
       -0.06459886 -0.1866676 0.008468575 0.23825216
0003d0 53 30 2c bd 37 a6 36 3c fc f2 9e 3d c1 b7 7f 3e
       -0.042038273 0.011148027 0.07761189 0.2497244
0003e0 98 14 15 3d 07 9e 08 bc 7b ba 0b 3d a3 3c 04 3d
       0.036396593 -0.008338458 0.03411339 0.03228439
0003f0 c9 82 b5 bd 6e 21 e5 3d a9 84 db 3d 24 35 0d 3e
       -0.08862836 0.11188017 0.10718662 0.13789803

lstm.bias_ih_l0 f4 [256]
000000 f6 aa 29 3d ec 51 03 be 66 3e e5 3d 8d 1b 29 be
       0.041422807 -0.1282422 0.11193542 -0.16514416
000010 2e b2 51 bd bd fe ee bd 96 57 df bd 69 f1 13 bd
       -0.051195316 -0.11669681 -0.109053776 -0.0361189
000020 53 35 b0 bd 4e 10 9f bd 7b 1a c6 3c c1 06 e3 bd
       -0.08603921 -0.07766782 0.024182549 -0.110852726
000030 18 64 f4 bd 15 18 f1 3d 79 2c 52 bd df 39 84 bd
       -0.11933154 0.117721714 -0.051311944 -0.064563505
000040 19 97 02 3e a1 bf 0c 3d ff 3a 86 3d 77 b0 ba 3d
       0.12752952 0.03436244 0.06554221 0.09115689
000050 6b aa 4a 3d b2 cd 07 be a7 f1 6c 3c 45 87 ca 3d
       0.04947893 -0.1326206 0.014461911 0.09889082
000060 89 96 2d be dd 37 cd 3d a1 44 5c 3d 1b 05 ef 3d
       -0.16951956 0.10020421 0.053776387 0.11670896
000070 ea 38 52 3d 7c 04 54 3e d8 e7 8c 3e a6 36 93 3c
       0.05132381 0.20704836 0.27520633 0.017970394
000080 84 fd 20 3d ea 28 0b 3d ec 6c 24 3e e9 64 84 bd
       0.03930427 0.033974566 0.16057175 -0.064645596
000090 9e 27 0b 3c 90 a0 6d bd 07 f4 d3 bd 4e 46 ed 3d
       0.008493332 -0.058014452 -0.10349279 0.11585675
0000a0 78 d7 6c bd 93 52 c5 bd 47 63 a5 3d 8f 71 1e bc
       -0.057822675 -0.096348904 0.08075576 -0.009670629
0000b0 a3 15 85 bd 3b d2 42 3e b8 de 06 3e 86 2a d2 3d
       -0.064982675 0.19025509 0.13170898 0.10262017
0000c0 d6 67 00 bd 61 cc 64 3d fd 5b ad 3b e6 4b a4 bd
       -0.031349026 0.055858973 0.005290507 -0.08022289
0000d0 62 1f 21 3c aa 33 5b 3d 3d 10 8e bd d0 f0 24 3e
       0.009834142 0.053516068 -0.06936691 0.16107488
0000e0 29 f6 e2 3d 2a fe 1b 3d 90 db 9b bd 1d 01 59 3d
       0.110821076 0.038084187 -0.076102376 0.052979577
0000f0 2a d4 17 3e 17 b3 84 bd e1 9e 9f 3d 9c f9 3c bd
       0.14827028 -0.06479471 0.077939756 -0.046136484
000100 dd 2d 06 be ac 7a 4f bc 7d a4 20 be 6e d6 05 be
       -0.13103433 -0.012663525 -0.15687747 -0.1307008
000110 aa de 4d 3e 96 7e b8 bd be 0f 9b 3b 07 62 e4 bd
       0.20104471 -0.09008519 0.004732101 -0.1115151
000120 ca 1e 0a be b2 26 81 bd c1 dc aa bd 26 b3 12 3c
       -0.13488308 -0.06306209 -0.08342887 0.008953845
000130 58 7a 7c bd 3b 89 ea bd 05 82 3d bb 7f 5a d6 bc
       -0.061640114 -0.11451956 -0.002891661 -0.026166199
000140 d8 d8 11 bd d8 6a fd 3c 83 af c6 bc d9 fc 3c be
       -0.03560719 0.030934736 -0.024253612 -0.18455829
000150 04 14 12 be b5 61 33 3d c0 d3 35 be 9e e0 cb 3d
       -0.14265448 0.043794353 -0.17756557 0.09954952
000160 68 23 26 bd cf dd 17 be 52 22 89 bd 6e 81 be bd
       -0.04056111 -0.14830707 -0.06695999 -0.093020305
000170 ce 45 8c bd 8c 61 7a bc b2 9e 1f be bd 53 87 bd
       -0.06849252 -0.015282046 -0.15587881 -0.06607769
000180 31 bc 64 3d 02 58 5b 3d f0 6a 48 bd 38 1e 12 bc
       0.055843536 0.053550728 -0.04893011 -0.0089183375
000190 52 0f 19 3e a3 f9 2f bd 31 74 ee b9 c1 75 2f 3d
       0.1494725 -0.04296268 -0.00045481467 0.04283691
0001a0 f1 9a 28 3e 58 ab 84 bd 77 e8 bb bd 65 61 6e bd
       0.16465355 -0.06477994 -0.091751985 -0.05819835
0001b0 ff d3 86 3d e4 39 1d be c0 99 f0 bd e3 00 08 3c
       0.06583404 -0.15354115 -0.117480755 0.008300993
0001c0 85 a8 02 3e 05 d8 b4 bc 3c ed 04 be 63 9f 82 3d
       0.12759598 -0.022075662 -0.12981123 0.06378057
0001d0 80 21 b6 bd 82 16 d8 3c 13 83 00 be ba bc b4 bd
       -0.08893108 0.02637792 -0.12550001 -0.08825059
0001e0 c1 d4 0b bd 4a 6e 24 3d ed 93 ed bd 92 46 10 be
       -0.034138445 0.040144242 -0.1160048 -0.1408942
0001f0 d7 42 18 be 8f b9 1a 3e 93 86 11 be b8 de dd 3d
       -0.14869247 0.15109847 -0.14211492 0.10833496
000200 21 f3 54 3d 86 78 a2 3a 6d 14 8f 3d 02 7a 18 bd
       0.05198968 0.0012395538 0.06986318 -0.03722573
000210 fd ba e4 3d f9 bc 26 bc 60 1b 75 bd 8f f8 99 bd
       0.11168478 -0.0101768905 -0.05984056 -0.07518112
000220 08 f7 c3 bd b9 d6 a9 3d c7 b7 cd bd 30 d3 3e 3d
       -0.09568602 0.08292908 -0.10044818 0.046588123
000230 65 bc 97 bb 2d b0 74 3b 9d dd 2b 3d 62 f4 ac bd
       -0.0046306127 0.0037336454 0.041959394 -0.0844505
000240 0e 3c 3c bd c7 ea 8f 3d 7e ff 9b bd 23 0a 77 3d
       -0.04595571 0.07027202 -0.07617091 0.0603124
000250 33 3d a5 bc 56 4b 65 bd 3d 7c 0a 3d 78 25 3c 3d
       -0.020170784 -0.05598005 0.03380989 0.04593417
000260 99 c4 ae bd 32 2a 0a bc 3a 62 83 3d ba a1 d4 bc
       -0.08533592 -0.008432912 0.064152196 -0.025956023
000270 6b ec 09 3b 16 83 0a 3e d5 54 c4 bc 21 c7 1a be
       0.0021045457 0.13526568 -0.023966232 -0.15115024
000280 ad ab d2 3c 68 a9 38 bd 2d 57 b4 3d d6 f1 eb bc
       0.025716627 -0.045083433 0.0880569 -0.02880184
000290 7c 50 8b bd 8a 95 d9 bd 94 42 24 be 49 57 02 be
       -0.068024606 -0.106242254 -0.16041023 -0.12728609
0002a0 b4 55 b3 3c 47 82 81 3d b8 00 4f 3d 83 36 e0 3c
       0.021891452 0.063236766 0.050537795 0.027369743
0002b0 76 e8 fc 3c 99 54 3f 3d 44 60 8c bc d5 3d e8 3c
       0.030872565 0.046711538 -0.017135747 0.028349796
0002c0 84 38 8b 3d cd 40 f2 bd bd 64 8c 3c 63 59 20 be
       0.06797889 -0.11828766 0.01713788 -0.15659098
0002d0 7e b1 f7 bd 6d d9 12 3c 64 76 28 3d 32 f5 be bd
       -0.12094401 0.008962971 0.04112853 -0.09324111
0002e0 58 51 15 be 1f 64 e4 bd 58 91 11 3b 78 27 d7 bd
       -0.14581811 -0.11151909 0.0022211876 -0.10505575
0002f0 eb 09 c9 bd 85 67 19 3d 36 95 92 3d a1 0d ae bc
       -0.09816345 0.03745224 0.07157366 -0.021246733
000300 69 21 f1 bd b6 1d a5 bd 2a ea d2 bd a9 96 9f bd
       -0.117739506 -0.080623075 -0.102985695 -0.07792408
000310 4a 27 e9 3c 92 a0 c9 3b b4 2e d0 3c b3 c4 0f be
       0.028461117 0.0061531747 0.025412895 -0.14039879
000320 37 59 82 bd f1 d1 2a be d4 46 87 3b 36 da 8f bb
       -0.06364673 -0.16681649 0.0041283164 -0.0043900264
000330 64 f5 37 bb 45 d5 d5 3c 32 06 60 bc 9c 6a 21 bd
       -0.0028069848 0.026102671 -0.013673352 -0.03940831
000340 9a 68 0f 3e af 92 94 3c 56 dc d3 bd 22 f0 d4 3b
       0.14004746 0.01813635 -0.1034476 0.0064983526
000350 4c 0d ca 3c b9 1d 3d 3d a8 6c 34 bb 3e a6 db bd
       0.024664544 0.046170924 -0.0027530584 -0.107250676
000360 49 e8 bb bd a5 14 1d 3d 72 19 c6 3d c6 32 ff bd
       -0.09175164 0.038349766 0.09672822 -0.12460856
000370 93 b2 75 3d cd 3c e1 bc 37 2f 64 3e 8d c0 01 bd
       0.059984755 -0.027494812 0.22283636 -0.03167777
000380 f1 fa 1b be ae f7 99 bd d1 a2 aa 3d 6c 83 5b 3d
       -0.15232445 -0.07517944 0.08331836 0.05359213
000390 04 5f 8a 3b 3b 31 4c 3d 6b 56 55 3d e9 9d 36 3d
       0.0042227525 0.049851637 0.052084368 0.04458419
0003a0 a5 e0 74 3c 3a 6b a6 3d a1 a9 a1 3d 47 ab dd bc
       0.014946138 0.081259206 0.07893682 -0.02705921
0003b0 a5 d7 87 bd 63 1e dc 3d 1b 9c 99 3d d6 45 9a bd
       -0.06632928 0.10747983 0.07500478 -0.075328514
0003c0 48 25 72 bd 07 3b 5c 3e c9 17 69 3d 33 98 87 bc
       -0.059117585 0.21506892 0.05690745 -0.016552066
0003d0 3b 4d 2e 3c 9a b0 c3 3d 8f 86 96 3d 0d c5 0b 3c
       0.01063853 0.095551684 0.07349884 0.008530867
0003e0 0e d0 e6 3d 2c e5 68 bc 44 16 83 bc 23 60 f6 3d
       0.11270152 -0.014214795 -0.016001828 0.120300554
0003f0 fb 92 e1 bd fb c9 04 3e d9 7c a5 3d 33 22 31 be
       -0.110143624 0.12967674 0.080804534 -0.17298202

lstm.bias_hh_l0 f4 [256]
000000 90 a4 07 be c4 16 ee bc 0a 86 06 3d 96 09 02 bd
       -0.1324637 -0.02906359 0.032842673 -0.031747423
000010 3f 6d 7f 3d 01 e1 0e 3d 66 ed dc bd 64 64 fa 3c
       0.062360045 0.03488255 -0.10787468 0.030565448
000020 95 09 0c be 8c 8b 09 bd 95 7b 22 3e 5a 3d 29 bd
       -0.1367553 -0.033580348 0.15867455 -0.041318275
000030 c5 5f 20 be 75 8b a1 bd 28 2b 99 bd 60 db dc bd
       -0.15661533 -0.078879274 -0.074789345 -0.1078403
000040 5b 61 32 3d cc ed 27 be 45 69 d9 3d b1 c9 bb 3d
       0.043549877 -0.16399306 0.10615782 0.09169329
000050 07 2f fe bd 23 06 13 be b7 03 63 bd 7f 21 be 3d
       -0.124113135 -0.1435781 -0.055423465 0.092837326
000060 bd b3 a5 3c ef 6d d2 bc 34 03 95 3d 66 e4 c4 3d
       0.020227307 -0.025687186 0.072760016 0.09613876
000070 6a 60 4f bd 27 20 76 3d 14 5a 55 3e d0 61 64 3d
       -0.050629057 0.060089257 0.20835143 0.055757344
000080 dd d9 86 bc 9f 92 a7 3d e4 a2 c6 3d 99 fe 89 bc
       -0.016461307 0.08182263 0.09699038 -0.016845034
000090 64 17 1b bd cd 28 bf bd 69 c3 76 3d aa 21 d0 bd
       -0.037864104 -0.09333954 0.06024495 -0.10162671
0000a0 62 db fc bc 30 f4 01 bd 5d c0 c5 3c f0 fd 12 3d
       -0.030866329 -0.031727016 0.024139578 0.035886705
0000b0 33 ff d5 bc 4f e7 c4 3c 7b c5 98 3d b2 2e b8 3d
       -0.026122665 0.024036078 0.074595414 0.089932814
0000c0 73 06 12 3e 66 d4 e1 3d ad 62 2f bd de 45 c8 bd
       0.14260273 0.1102684 -0.042818714 -0.09778951
0000d0 95 b4 3d 3d f0 a9 95 3d 85 59 88 bd 6f 4f 5b bd
       0.046314795 0.07307804 -0.066576995 -0.05354255
0000e0 76 02 8f 3d 65 cc 38 3e 78 4b f5 bd 4b d7 c4 3d
       0.06982891 0.1804672 -0.11977285 0.096113764
0000f0 a7 b4 a3 3d 04 f9 de 3c 40 60 e4 bc 9e 13 1f 3d
       0.07993441 0.02721835 -0.027877927 0.038837068
000100 98 ca 0a be d7 05 46 3d 46 b4 5e bd 68 94 1b 3d
       -0.13553846 0.048345413 -0.05437114 0.037983328
000110 8a e4 67 3d 4e 3a 4b bc 62 d0 f0 3c 75 b8 f2 bd
       0.056614436 -0.012404038 0.02939624 -0.11851589
000120 48 0d ed bd c6 27 1d be ff 0f 19 be df f3 2b 3e
       -0.11574799 -0.15347204 -0.14947508 0.16792248
000130 de 89 d9 bd f0 32 07 be bb 25 d6 3c 32 80 42 bd
       -0.10621999 -0.13203025 0.026141038 -0.047485538
000140 8b a9 33 be 12 1a 23 bc f6 52 8f 3c 4b 51 4b bd
       -0.17545144 -0.009954946 0.017495614 -0.049638074
000150 61 b2 f1 bd 13 4f a9 3d 59 97 32 be d0 6e 96 bd
       -0.11801601 0.08267035 -0.17440547 -0.073453546
000160 b3 49 d6 3c 72 33 43 3c 11 55 d7 bd 53 9f 47 3b
       0.02615819 0.011914121 -0.10514272 0.0030459955
000170 84 22 a4 3d 03 b3 07 3d 2c a9 ff bc 5a cf 72 3d
       0.08014396 0.033129703 -0.031208597 0.059279777
000180 49 b2 fd 3d 33 91 e9 3d ab c6 aa bd ac 0c d8 bd
       0.12387521 0.11404648 -0.08338674 -0.10549292
000190 13 cb 2b 3e 24 d9 e7 bd 00 89 89 bc f3 92 d6 bd
       0.16776685 -0.11320713 -0.01678896 -0.10477247
0001a0 d6 f1 1a 3e 22 b4 09 bd ae 89 32 be 22 08 ac bd
       0.15131316 -0.033619054 -0.17435333 -0.08399989
0001b0 9f 93 ad bd d7 4d 76 3b 61 d5 47 bd 0e ee d4 bd
       -0.08475422 0.0037583017 -0.04878748 -0.10396968
0001c0 67 2a fb 3d 8b be ec bc 94 7b eb bb 0f dd 1c bd
       0.12263947 -0.028899452 -0.0071863625 -0.038296755
0001d0 52 30 d9 bd 70 7f 31 3d 9c 9a 16 be b8 2d cc 3d
       -0.106049195 0.043334424 -0.14707416 0.09969658
0001e0 ae 5e b7 bc b8 9a cc bd a4 c8 f2 bc b6 09 10 be
       -0.022384014 -0.09990448 -0.029636689 -0.14066204
0001f0 62 c0 df 3c 54 21 d8 3d 83 13 a9 bd cc 7b 4d bd
       0.027313415 0.10553232 -0.08255675 -0.05016689
000200 c3 6d f9 bc 63 6e 42 3c a0 b3 e7 3d 0f 73 d5 bd
       -0.030447846 0.011867139 0.113135576 -0.10422336
000210 ec e8 c6 3d 3c 4a bc bb 44 04 69 3d a0 81 0a be
       0.09712395 -0.005746154 0.056888834 -0.1352601
000220 7e e6 da 3d 65 a5 a3 3c f6 90 60 bd 48 1d da bd
       0.10688494 0.019976327 -0.054825746 -0.10650116
000230 5f 06 5f 39 63 5b 2b 3d 51 f0 c1 bd 99 65 80 bc
       0.0002126931 0.0418352 -0.09469665 -0.015673446
000240 f0 b9 40 bd b1 2c b9 3d 25 13 28 3d 86 76 1a 3c
       -0.047052324 0.09041727 0.041033883 0.009427672
000250 5e 88 cd 3b 52 03 c7 bc 6e 76 1d 3b d3 f8 01 be
       0.0062723598 -0.024293575 0.0024026888 -0.12692575
000260 50 c1 5b 3d 7f e1 fb 3d 60 00 d3 bd 1d 8b 04 3e
       0.053651154 0.12298869 -0.10302806 0.12943693
000270 7f 38 cd bd f9 59 81 bc cf 3e a1 3c f5 37 9f bd
       -0.100205414 -0.015789973 0.01968327 -0.07774345
000280 38 e8 06 3e 0b 80 67 3d 5f 77 07 be 6a a8 5e bc
       0.13174522 0.056518596 -0.1322913 -0.013589958
000290 a1 53 90 3d 84 37 3b 3d 99 66 bb bd a7 24 07 3d
       0.07047201 0.04570724 -0.09150428 0.03299394
0002a0 e4 bd 01 3d fa 9d 53 bd 13 5d ae 3d ec 6c 04 3e
       0.031675234 -0.05166433 0.08513846 0.12932175
0002b0 06 39 af bc b4 33 1e 38 1f 52 3a 3d eb 01 a6 3c
       -0.021389496 3.7718288e-05 0.045488473 0.020264586
0002c0 36 98 61 3d cc 8a 92 bd 96 24 cb bd 48 13 a1 bd
       0.0550768 -0.0715538 -0.099190876 -0.07865006
0002d0 94 0c 15 be ea 3c 82 3d c3 2c cd 3c a0 52 82 bd
       -0.1455558 0.06359275 0.025045758 -0.06363416
0002e0 ae 24 bf bd 8e 2f 87 3d 83 2c 3e bd 72 67 7a bd
       -0.09333168 0.06600867 -0.04642917 -0.06113381
0002f0 3a 4f 20 bd 94 bd c2 bd 71 59 58 bb ca d1 42 bd
       -0.039138056 -0.095088154 -0.0033012296 -0.04756335
000300 cf cf 41 3d 9f 4b 2c be 80 33 c6 bd 83 e3 b7 bc
       0.047317322 -0.16825722 -0.096777916 -0.022447353
000310 c5 b3 1d be 48 97 d7 bd 24 4c 27 be ab 36 0a be
       -0.15400608 -0.105269015 -0.16337639 -0.13497417
000320 ab 62 ed bd 20 cb 59 be f8 96 c9 3d c7 ea 2f 3c
       -0.11591085 -0.21268892 0.09843248 0.010737128
000330 36 5f 3a bd 17 7f 47 bd 77 ce 4c 3d 37 94 c3 bc
       -0.045500956 -0.048705187 0.050001588 -0.023874385
000340 de 14 97 3d 12 4a ab 3c 44 04 53 3c 33 b9 84 bd
       0.07377027 0.020909343 0.012879435 -0.064806364
000350 43 6d 26 bd 11 44 0c be c4 2e b4 3d 9e 1e 3a 3b
       -0.040631544 -0.1369784 0.08797982 0.0028399597
000360 7d a5 4b be 40 21 fe 3d f8 28 e1 3d 14 56 8e 3d
       -0.19887348 0.12408686 0.10994142 0.06950012
000370 e7 f7 f3 3d d4 48 34 3e 72 99 26 3e df d1 95 bd
       0.11912518 0.17605907 0.16269472 -0.0731542
000380 b0 ae ba bc 37 fd 38 3d fe 10 5c 3d b7 f4 55 bd
       -0.022788376 0.04516336 0.053727143 -0.05223533
000390 c7 d2 0a 3e 93 66 63 bd 3e c3 1b bc 87 f8 45 bd
       0.13556968 -0.055517744 -0.009506999 -0.048332717
0003a0 27 69 f9 3d 14 cd 5b bc e8 84 85 bd a2 57 1c be
       0.12178259 -0.013415594 -0.065194905 -0.15267804
0003b0 c7 e4 b8 bd cd ff 52 3d d8 9c 74 3d e2 1a de bd
       -0.09028011 0.051513482 0.05971989 -0.10844971
0003c0 9e 08 13 bd dd 39 08 3e 43 29 92 3d 6b 10 ef 3d
       -0.03589689 0.13303323 0.07136776 0.11673053
0003d0 2d 61 87 3d fc 11 ca 3d 83 04 84 3d 19 df 4b 3e
       0.06610332 0.098667115 0.06446173 0.19909324
0003e0 7d 71 b2 bc 0d 27 b9 3d be 9e fe bb e1 b4 82 3c
       -0.021782631 0.090406515 -0.0077703884 0.01595539
0003f0 fb 47 10 bd 34 e8 d8 3c 61 f8 a8 bd 11 9b 3f bd
       -0.035224896 0.02647791 -0.082504995 -0.046778742

classifier.0.weight f4 [32, 64]
000000 fe bc 88 bd df 4a 0d 3d 8a a6 09 3e 85 bc bf 3d
       -0.066766724 0.03449523 0.13442436 0.09362129
000010 02 c2 43 3e 8e 4f b1 bd 22 21 f3 bd b5 b8 13 be
       0.19116977 -0.08657752 -0.11871554 -0.14425929
000020 83 4b e5 3d 50 48 f2 3d 73 14 3b 3e ea 23 95 bc
       0.11196043 0.11830199 0.1826952 -0.018205602
000030 64 a0 b1 bd e3 8b 63 bb 51 5b 8d bd b5 a5 43 bd
       -0.0867317 -0.003472083 -0.06902183 -0.047765452
000040 ce 88 59 bc 86 07 bb 3c fc 09 9d 3d f4 c0 a1 3d
       -0.013277246 0.022830736 0.0766792 0.07898131
000050 2d 51 9f bd 3a 9c 24 3d 55 a7 59 3d 2f 6c 2f 3c
       -0.07779155 0.04018805 0.053138096 0.010706945
000060 5f 31 b4 39 e4 ed da bd 73 28 4b bc 5f 19 c0 3d
       0.0003436906 -0.10689905 -0.012399781 0.09379839
000070 f5 a6 5d 3d 21 92 38 3e b3 9b c6 3d 2b 2d b8 bd
       0.0541143 0.18024494 0.09697666 -0.0899299
000080 af ee a5 bd 89 9e bd bc 09 6f ba bc b8 1a ec bc
       -0.08102166 -0.023146885 -0.022758024 -0.028821334
000090 f5 3b 7d bc 18 ed 10 be 8c 82 e2 bd e5 c6 fd 3d
       -0.015456189 -0.14152944 -0.11060056 0.12391452
0000a0 bf 8a d4 3d a7 30 c4 3b 50 40 7e 3c 92 ba 2d bd
       0.10378026 0.005987245 0.015518263 -0.042414255
0000b0 1b c8 ad 3d 89 99 98 bd 21 0a 46 bc f9 96 13 3e
       0.08485433 -0.074511595 -0.012087376 0.1441306
0000c0 91 a0 d8 3d 99 db 5f be 9e 70 5b 3d 24 83 74 3e
       0.105775006 -0.21861114 0.053574197 0.23878151
0000d0 d2 5e 11 be f2 d1 23 be f6 1a a8 be 3b 40 0b 3e
       -0.14196327 -0.15998057 -0.3283307 0.1359872
0000e0 bc f6 69 be b9 e3 4a 3e b5 b5 b4 bd 59 6a b2 3d
       -0.22848028 0.19813432 -0.0882372 0.087116905
0000f0 5c 5e 11 3c 79 1a b2 3d df d1 7a bd b2 40 de bd
       0.008872595 0.086964555 -0.061235305 -0.108521834
000100 5c 7a ec bd a2 57 d2 3d 02 2c 5b 3e 3d 8e 0f 3e
       -0.11546776 0.10270621 0.21403506 0.14019103
000110 66 d1 58 3e 07 3d 29 be 1a 54 b1 3d 96 ba 95 3c
       0.21173629 -0.16527186 0.08658619 0.018277448
000120 f5 9d c6 3d f4 4a 0a be 93 07 5b 3e d8 45 fa bc
       0.09698097 -0.13505155 0.21389608 -0.030550882
000130 04 e6 9d 3d 3c 55 1e 3d ac 35 2a 3d cb 9e 3a 3e
       0.077098876 0.038655505 0.04155509 0.18224637
000140 2a 85 b7 3c 2e e6 6c bb 97 65 00 3e c1 ef a6 bc
       0.022402365 -0.003614794 0.12538753 -0.020377995
000150 03 5c d8 bc 64 81 0f 3d 9f 2d e0 bc 6e 42 ee bd
       -0.026411062 0.035035506 -0.027365504 -0.11633764
000160 20 c7 85 3d ef 36 6e bd 6a 19 69 3d 9d 63 7b bd
       0.06532121 -0.058157858 0.056909002 -0.061374296
000170 03 e7 b9 3d 7f 84 f6 3d db 8e 5e 3e 50 d9 29 be
       0.09077265 0.120369904 0.21734183 -0.16586804
000180 a8 15 9d bd 73 af 78 3e 3e b8 50 be 7c 5e 0f 3e
       -0.07670146 0.24285679 -0.20382783 0.14000887
000190 70 03 80 3d 62 b7 eb bc 3b 40 37 be 89 8d f5 3d
       0.06250656 -0.028773967 -0.17895596 0.11989886
0001a0 34 75 a7 3c 08 a0 3c 3c 08 4e e9 3d ce 9a 1a 3e
       0.020441629 0.011512764 0.113918364 0.15098116
0001b0 91 bd a8 3d 40 86 44 bd 90 02 17 3e e2 5c 7c bd
       0.08239282 -0.047979593 0.14747071 -0.061612017
0001c0 7b 22 cc bc 33 c7 ea bd 6f b0 17 3c 22 12 a1 3d
       -0.024918785 -0.114637755 0.009258374 0.07864787
0001d0 72 7a dc 3c 39 5c 67 be 75 78 8f be ee c1 96 3d
       0.026913855 -0.22593774 -0.2802159 0.07361208
0001e0 4c 0f 19 be e9 de 89 3d 00 27 9f bd 0b ad 35 3e
       -0.14947242 0.0673197 -0.077711105 0.17741792
0001f0 87 0c 3e be 11 55 db 3d 3d 76 19 be 37 33 2b be
       -0.18559466 0.107095845 -0.1498651 -0.16718756
000200 b1 cc cc 3d 0d db 6f 3b e0 dc c1 3d 65 dd 94 3d
       0.09999979 0.003659907 0.09465957 0.0726879
000210 83 e3 e7 bd 23 f3 2e 3d 42 95 51 bd 14 1a 74 bc
       -0.11322691 0.042712342 -0.051167734 -0.014898796
000220 7e 90 c2 bd 75 f7 b0 bd 26 85 c6 3a a0 8f 88 3d
       -0.09500216 -0.08640949 0.0015145882 0.06668019
000230 ae 91 57 3d d5 0f 75 bd 74 c7 8d 3d 88 1c ea bd
       0.052629165 -0.05982955 0.06922808 -0.11431223
000240 a6 9c cd bd 8b 8a 55 bd 62 83 e2 bc 7b 60 13 3d
       -0.10039644 -0.052134078 -0.027650539 0.035980683
000250 b2 2f 3c 3d 48 ed 0b bd 8b bf 98 3d ea 51 8c 3c
       0.045943923 -0.034161836 0.07458409 0.017128903
000260 c2 a2 34 bd 9f 99 8e bd 82 3f d8 3d 3b 18 ea bd
       -0.04410053 -0.06962895 0.10558988 -0.11430403
000270 18 b7 93 bb f0 24 73 bd b5 b5 a2 bc 21 5f d9 3d
       -0.0045079105 -0.0593614 -0.019862035 0.106138475
000280 43 67 81 bd e2 f2 a6 3c 98 3e a4 3d 7c 80 ff bb
       -0.06318524 0.020379487 0.08019751 -0.007797299
000290 a0 74 c1 3d 4d 89 07 3d d3 12 ae bd 43 1c 03 3e
       0.094460726 0.033089925 -0.08499684 0.1280375
0002a0 df 17 b8 3d 57 00 de bd e2 90 a7 3d b7 7a 93 3d
       0.08988928 -0.108399086 0.08181931 0.072011404
0002b0 f7 d3 ba bd 8d 22 b1 bc d0 7f d7 3d 28 52 94 3d
       -0.0912246 -0.02162292 0.10522425 0.072422326
0002c0 33 bb c7 3d 52 0f 27 3d 3d 0f 09 3e 8c af 46 bd
       0.09752502 0.040786095 0.13384719 -0.04850726
0002d0 85 ca d0 3d 44 78 59 3d cc cf b6 bd ae 31 c0 3c
       0.101948775 0.05309321 -0.08926353 0.02346119
0002e0 b1 5a b0 bd e0 ea 17 3c 5a 3b d3 ba e5 48 4c bd
       -0.08611048 0.009272307 -0.0016115711 -0.049874205
0002f0 f9 a3 24 3d 61 67 96 3d 8f fb ad bd d6 c5 03 3d
       0.04019544 0.07343937 -0.084952466 0.032171093
000300 5b 51 37 3d 5d 22 13 3c af d1 40 3e 94 a5 c7 bd
       0.04475532 0.008980361 0.18829988 -0.097483784
000310 86 08 28 bd ce 98 f5 3c fa 9b 1d 3d 55 f5 1a be
       -0.041023754 0.02998009 0.03847883 -0.15132649
000320 85 7f 7d 3c cb ca f1 bd 30 e6 04 3e 73 38 db bd
       0.015472298 -0.11806258 0.12978435 -0.10704126
000330 66 7c ac 3d d0 27 91 3d 74 94 10 3e 91 63 3c 3e
       0.084221646 0.07087672 0.1411913 0.18397357
000340 1d 36 89 bd ef 22 ec bd a3 5f 58 bd d9 10 96 3b
       -0.066997744 -0.115301006 -0.05282558 0.004579645
000350 4d 94 af 3d bd a2 ea bd c6 2d cc 3d c4 0a bc bd
       0.08573208 -0.11456821 0.09969668 -0.09181741
000360 02 e1 fe bd 9c 0e 0c 3d ba 24 a0 3c 9e 17 74 3d
       -0.124452606 0.03419362 0.019548763 0.059592836
000370 f0 d3 7a 3e e1 41 4b 3e 7b 7a 90 3e 74 84 11 be
       0.2449491 0.1984935 0.28218445 -0.14210683
000380 d8 af b0 bd 7b c9 f5 3d 75 68 1d 3d cd c8 c0 bd
       -0.086272895 0.1200132 0.038429696 -0.094133
000390 d4 cb 64 3d 73 ed 75 bb 9a c5 ad bd 5d 81 a3 3d
       0.05585845 -0.0037525564 -0.08484955 0.079836585
0003a0 99 11 52 3e 55 af 35 be cc ff fd 3d 8e dd 1d bd
       0.20514525 -0.17742665 0.12402305 -0.03854137
0003b0 85 12 af 3d e2 1a 50 be 82 9c 33 3e d2 c6 38 bd
       0.08548454 -0.20322755 0.17540172 -0.045111485
0003c0 39 79 e2 bd ef 83 26 be 03 3c 85 3d 10 8b ef 3d
       -0.11058278 -0.16261266 0.06505587 0.11696446
0003d0 69 fb 70 bb a2 2e 05 be 8a 62 16 be ef c5 5b 3e
       -0.0036770946 -0.1300607 -0.14686027 0.21462224
0003e0 69 89 10 be f5 a8 35 3d c8 0e f9 bd 2b 16 3b 3e
       -0.14114918 0.044350583 -0.121610224 0.18270175
0003f0 d2 fe 22 be 89 69 fb 3d 97 ca 47 bd 83 ef eb bd
       -0.15917519 0.122759886 -0.04877719 -0.115202926

classifier.0.bias f4 [32]
000000 40 bb 45 ba 54 89 48 3c 71 69 16 be eb fb dd 3b
       -0.0007542856 0.012239773 -0.1468866 0.0067744157
000010 8e 6f a5 3c e3 da c6 3c 8f 86 e2 3d ec 5e 06 3e
       0.020194795 0.024274295 0.11060821 0.13122147
000020 ec 6f 18 3e ae 4e c0 3d 4f 4c 75 3d 96 ee 6b bd
       0.14886445 0.09390007 0.059887227 -0.05760058
000030 ec 0c 71 b9 49 82 93 3d 71 ca 87 3d 40 fe 84 3e
       -0.00022988365 0.07202584 0.066304095 0.25975227
000040 7a bd a3 bd 07 ce 9c 3c 76 6f 55 3d 4a 16 54 3e
       -0.07995124 0.01914121 0.05210825 0.20711628
000050 08 2e 21 bd d9 49 38 3d 6f 12 1d 3e 7c 34 75 bd
       -0.03935054 0.0449923 0.15339063 -0.059864506
000060 a2 b6 03 3d 84 0e 63 3e de 95 f3 bc 9f 04 00 be
       0.032156594 0.22173506 -0.029734548 -0.12501763
000070 76 18 d5 3d 56 d7 39 bd 40 10 67 bb 3a db 41 bc
       0.10405056 -0.045371376 -0.0035257488 -0.011832053

classifier.2.weight f4 [2, 32]
000000 43 a9 80 bd e7 fa 81 3e 55 ab c1 bd 76 b7 b4 3c
       -0.06282284 0.25386736 -0.09456507 0.022060137
000010 42 ec 35 3e 4d 10 72 3b 2c bd a1 be 66 cc c1 be
       0.17765906 0.0036935986 -0.3158964 -0.37851256
000020 6b 41 4e 3e b3 e4 42 3e 27 40 4d 3d 0a ad 4c 3e
       0.20142142 0.19032554 0.05011001 0.19987884
000030 6a 66 05 3f ec b1 89 3e 36 8c 2d 3e 53 bf c5 be
       0.52109396 0.26893556 0.16948017 -0.3862253
000040 c1 6b ea 3d 7e c1 35 3e 00 49 af 3d 64 da 87 be
       0.11446334 0.17749593 0.085588455 -0.26533806
000050 2b 25 31 be cc fe 1c 3e 3c 57 97 be 99 b8 8e 3e
       -0.17299335 0.15331572 -0.29558742 0.27875212
000060 43 21 91 3e 5f 7c a0 be dd 2c 4f 3e b5 44 d4 3d
       0.2834569 -0.31344888 0.20231958 0.10364667
000070 de 35 02 3e ff 4d 23 bd df b5 21 3e dc d5 94 3e
       0.12715861 -0.039869305 0.15792035 0.29069412
000080 42 7b 62 be 1c d2 87 be 92 14 00 3d 61 51 3c be
       -0.22117332 -0.26527488 0.031269617 -0.18390419
000090 95 b7 33 3c 2f c5 2f be cb 4d ad 3e 1d 13 98 3e
       0.010969062 -0.17165063 0.33848414 0.29702082
0000a0 e9 7e 15 3c d4 9e f0 bd a2 cd 3c be b7 43 53 be
       0.009124496 -0.11749044 -0.18437818 -0.206313
0000b0 c9 76 e6 be 09 04 87 be cb 38 f7 bd a7 a8 55 3e
       -0.450125 -0.26370266 -0.12071379 0.20865117
0000c0 50 6e 9d 3d 9d ee 1c 3d f1 72 8a be e7 4f 93 3e
       0.07687056 0.038313497 -0.27040818 0.28771898
0000d0 9c ea e4 bc 30 43 5a be 26 36 aa 3e 6d 65 f8 3b
       -0.027943902 -0.21314692 0.33244437 0.0075804503
0000e0 b6 88 1c be 5e 43 93 3e ed 53 87 be ba 39 79 3d
       -0.15286526 0.28762335 -0.26431218 0.060846068
0000f0 45 08 e9 bd 9f 42 45 be 9b ce 6a be 1e b1 21 be
       -0.113785304 -0.19263695 -0.22930376 -0.15790221

classifier.2.bias f4 [2]
000000 88 01 31 bd 27 74 a4 3d
       -0.04321435 0.08029967
