experiments/darpa2000/s1_inside/deepproblog/phase_classifiers/models/w10/original/phase_4.pth (torch, 194061 bytes, 8 tensors)

lstm.weight_ih_l0 f4 [256, 112]
0	0x3ca0945d	0.019601995
1	0x3e098ae7	0.13431893
2	0x3db35623	0.08756664
3	0xbdce107c	-0.10061738
4	0x3e24b62e	0.16085121
5	0x3e3fbabe	0.1872358
6	0xbdd545f2	-0.10413732
7	0xbd8a6cde	-0.06759046
8	0x3dd9efa7	0.10641413
9	0x3c080164	0.008301113
10	0xbb33b613	-0.0027421757
11	0xbd30b1e0	-0.043138385
12	0x3eb8aa25	0.3606731
13	0xbdb3915f	-0.08767962
14	0xbd850e05	-0.06496815
15	0xbdcc7349	-0.099829264
16	0x3ed42dea	0.4144128
17	0x3e700d58	0.2344259
18	0x3d77a4f1	0.060460035
19	0x3e32eb31	0.17472531
20	0x3ec497a8	0.38396955
21	0xbe181aac	-0.14853925
22	0x3e8f1e2e	0.27952713
23	0x3daed022	0.08535792
24	0x3d114c39	0.035473082
25	0x3c010a0e	0.007875932
26	0x3eedea32	0.4646774
27	0xbe3c0465	-0.18361051
28	0x3e17984f	0.14804195
29	0xbe2b36ae	-0.16720077
30	0xbd9e29ee	-0.07722841
31	0xbd80c58d	-0.0628768
32	0x3e8aac44	0.27084553
33	0x3d1a95ac	0.037740394
34	0x3d855bac	0.06511626
35	0xbda322b1	-0.07965601
36	0x3e297399	0.16548003
37	0xbd6bcffe	-0.057571404
38	0x3d085b74	0.03329034
39	0x3cf9dd74	0.030501105
40	0x3e48edb4	0.19621927
41	0x3c87c6a8	0.016574219
42	0xbcac2edb	-0.021018436
43	0x3eda5aa2	0.42647272
44	0x3e811513	0.2521139
45	0xbe2d74e2	-0.16939119
46	0x3c9463ce	0.018113997
47	0x3ddf771a	0.10911389
48	0x3da2d072	0.07949914
49	0xbde102af	-0.1098684
50	0x3c557414	0.013028163
51	0x3e31e95e	0.17374179
52	0x3cd60fc4	0.026130565
53	0x3ea8a1cb	0.32935938
54	0x3e391c4e	0.18077204
55	0x3bf0196a	0.0073272483
56	0x3e816dfd	0.25279227
57	0x3cc5a61d	0.02412706
58	0xbe9c97ac	-0.30584466
59	0x3e5e5316	0.21711382
60	0x3ee5cd20	0.4488306
61	0x3e8236d4	0.25432456
62	0x3e25f548	0.16206849
63	0x3da6460c	0.08118829
64	0x3de717de	0.11283849
65	0x3e509f05	0.20373161
66	0x3e5e406f	0.21704267
67	0x3db50dae	0.088405
68	0x3e898dec	0.2686609
69	0xbe774331	-0.24146725
70	0x3ab24198	0.0013599871
71	0x3db14f35	0.08657686
72	0x3e005e83	0.12536053
73	0x3da14012	0.078735486
74	0xbda6e32f	-0.081488006
75	0xbd5f124c	-0.05446081
76	0xbdd38920	-0.10328889
77	0x3cc6886c	0.024234973
78	0x3e1445ad	0.14479704
79	0xbdb3e12a	-0.08783181
80	0x3ea7da91	0.3278394
81	0x3d432785	0.04764511
82	0x3d886f53	0.066618584
83	0x3e14a47f	0.14515875
84	0x3e98a120	0.2981043
85	0xbcdfa415	-0.02729992
86	0x3eaa57d1	0.33270124
87	0x3c35ba24	0.011091743
88	0x3e363e15	0.1779712
89	0x3e047b40	0.12937641
90	0x3ce57336	0.028009038
91	0x3e291664	0.16512448
92	0x3f248727	0.64268726
93	0xbe0be0b4	-0.13659936
94	0x3e1e4f5a	0.15459958
95	0xbe9e0d57	-0.30869552
96	0xbda7949c	-0.08182642
97	0x3e0aaac3	0.13541703
98	0x3e591f52	0.21203354
99	0x3ca0a4a7	0.019609762
100	0x3d3f29f4	0.04667087
101	0x3da79215	0.0818216
102	0x3e40d2f2	0.18830469
103	0x3e6b4d41	0.22978689
104	0x3f1475d7	0.5799231
105	0x3d3abc04	0.045589462
106	0x3e5640fa	0.20923224
107	0x3dfb87b5	0.122817434
108	0x3d9a2f71	0.0752858
109	0x3e31f738	0.17379463
110	0x3dc85f95	0.09783856
111	0xbdc9cb7b	-0.09853264
112	0x3de465ec	0.111522526
113	0x3da117d6	0.078658745
114	0xbda86f2d	-0.0822433
115	0xbddd3f04	-0.10803035
116	0xbcf8ab4b	-0.030355116
117	0xbc5bcd45	-0.013415639
118	0x3b6f26a4	0.0036491537
119	0xbe0cf84f	-0.13766597
120	0x3c40119f	0.011722951
121	0xbcb18084	-0.021667726
122	0x3d8987b8	0.067153394
123	0xbd56fdd5	-0.052488167
124	0xbd010021	-0.031494264
125	0x3dd9ee5d	0.10641167
126	0xbced0305	-0.028932104
127	0xbe18dd5e	-0.14928195
128	0x3e58b070	0.21161056
129	0x3e1b71ac	0.15180081
130	0x3d0a4632	0.03375835
131	0x3d6fb083	0.058517944
132	0x3e28086e	0.16409466
133	0x3e8bd817	0.273133
134	0x3e5199ec	0.20468873
135	0x3e27a453	0.16371278
136	0xbdbc0310	-0.091802716
137	0x3a3be4f7	0.00071676023
138	0x3edbff99	0.42968443
139	0xbe462fc7	-0.19354163
140	0x3d0280d0	0.031861126
141	0xbe014659	-0.12624492
142	0x3c80201b	0.01564031
143	0xbe0622c5	-0.13099201
144	0x3e00d2dd	0.12580438
145	0x3e26bd5f	0.16283177
146	0x3d933284	0.071873695
147	0xbdde9e73	-0.108700655
148	0x3d9a2c98	0.07528037
149	0xbe6338d7	-0.22189651
150	0x3e312aab	0.17301433
151	0x3cba440a	0.022737522
152	0xbdbef1b2	-0.093234435
153	0x3d162ded	0.036664892
154	0x3dab301d	0.08358786
155	0x3ea2147a	0.31656247
156	0x3d4a6c8d	0.04941993
157	0x3d1bd9d5	0.038049538
158	0x3e598534	0.21242219
159	0x3dfb8eed	0.1228312
160	0x3dad5edd	0.08465359
161	0x3e00748c	0.12544459
162	0xbd36d9b8	-0.044641227
163	0x3d00eb7a	0.031474568
164	0x3b9d2f97	0.004796933
165	0x3dfca0d7	0.12335365
166	0x3c154485	0.009110575
167	0x3d9ac78d	0.075575925
168	0x3e875d0a	0.2643817
169	0xbcba757e	-0.022761103
170	0xbe5937e3	-0.21212725
171	0x3e09869a	0.13430253
172	0x3ec549a8	0.38532758
173	0x3ea367e1	0.3191519
174	0x3c894094	0.016754426
175	0xbb386bf8	-0.0028140526
176	0x3d436acf	0.047709282
177	0x3e92ddce	0.2868485
178	0x3e5b9ab2	0.2144573
179	0x3e355a6c	0.17710274
180	0x3e9c8036	0.30566567
181	0x3c4c362f	0.01246409
182	0xbd9de3bb	-0.07709452
183	0x3c972a73	0.018452859
184	0xbd2c18be	-0.042015783
185	0x3d1a775f	0.037711497
186	0x3d3d4036	0.046203814
187	0x3e0816f3	0.13290004
188	0x3c2ed3c0	0.010670602
189	0xbd97cb67	-0.07411843
190	0x3e11ad0a	0.14226165
191	0x3e05ece2	0.13078645
192	0x3e73bc91	0.23802401
193	0xbd65a521	-0.056065682
194	0x3e6562ed	0.22401018
195	0x3d267104	0.040635124
196	0x3ec5dc30	0.38644552
197	0xba690659	-0.00088891905
198	0x3e55ed4d	0.20891304
199	0x3e13ce91	0.14434268
200	0x3e8d85a4	0.27641022
201	0x3e1c0c5d	0.15239091
202	0xbd6202e0	-0.055178523
203	0x3e7b0990	0.24515367
204	0x3e7f8a3e	0.24955079
205	0x3e2e4170	0.1701715
206	0x3d63e575	0.05563875
207	0xbe06e9d0	-0.1317513
208	0x3db6806f	0.089112155
209	0xbd42160f	-0.047384318
210	0x3e6754b6	0.22590908
211	0xbd386c31	-0.045025054
212	0xbcdd8643	-0.02704156
213	0x3d6e3808	0.058158904
214	0x3e6fc57f	0.23415183
215	0x3d83d77e	0.06437586
216	0x3ed5e2c8	0.41774583
217	0x3dbbd329	0.09171135
218	0x3c60dc37	0.013724378
219	0x3db0af51	0.08627189
220	0x3b809185	0.0039235973
221	0x3e1ace4b	0.15117757
222	0xbd6d9a55	-0.05800851
223	0xbdbc1792	-0.09184183
224	0x3e79a3b0	0.24378848
225	0x3d16fdc9	0.036863122
226	0xbccb169f	-0.02479106
227	0xbd3bf6ac	-0.04588954
228	0x3e385eda	0.18004933
229	0x3db9bdbb	0.09069391
230	0x3dee1318	0.116247356
231	0x3e30c622	0.17263082
232	0x3e081178	0.13287914
233	0xbd55006e	-0.052002363
234	0xbc9c311f	-0.019066392
235	0x3cf19ca4	0.029493637
236	0x3e3462a8	0.1761576
237	0xbdacacaf	-0.08431374
238	0x3e44c605	0.19216163
239	0x3e26cf3d	0.16289993
240	0x3eaf250b	0.3420795
241	0x3e2f1ccb	0.17100827
242	0x3e04e69e	0.12978598
243	0x3e1eed5e	0.15520236
244	0x3e4909f9	0.1963271
245	0xbcacbf36	-0.02108727
246	0x3e23854e	0.1596882
247	0x3e276fbd	0.16351219
248	0xbcff97c4	-0.031200297
249	0x3c5e5327	0.01356963
250	0x3e9e4898	0.3091476
251	0xbe5b754e	-0.21431467
252	0x3e92f387	0.28701422
253	0xbd9f54be	-0.07779835
254	0xbd2f7626	-0.042837285
255	0xbde0c2c3	-0.10974648

lstm.weight_hh_l0 f4 [256, 64]
0	0x3c5db632	0.013532208
1	0xbdfc00ae	-0.12304817
2	0xbd1b66e2	-0.037939914
3	0x3c182cb3	0.009288001
4	0xbceebcfe	-0.029142853
5	0xbd9d5b9f	-0.07683491
6	0xbe0c1080	-0.13678169
7	0x3dada737	0.08479159
8	0xbd3abfd6	-0.045593105
9	0xbdf0fb78	-0.11766714
10	0x3dda89cf	0.10670816
11	0x3d91fd58	0.071283996
12	0xbd190864	-0.037361518
13	0x3d9346f8	0.071912706
14	0xbe42a287	-0.19007312
15	0xbd02d6c7	-0.03194311
16	0xbd78889c	-0.060677156
17	0x3b961e03	0.0045812144
18	0x3da75eb1	0.08172358
19	0xbd40d99c	-0.04708253
20	0x3d22fc68	0.039791495
21	0xbb5f6c90	-0.0034091808
22	0xbdc4130a	-0.09573944
23	0xbd661503	-0.056172382
24	0xbe52b6b2	-0.20577505
25	0xbe862a97	-0.26204368
26	0xbbd457c8	-0.006480191
27	0xbe49bda9	-0.19701256
28	0x3d72f217	0.059312906
29	0xbdd438f6	-0.10362427
30	0x3c8f9cdb	0.01753085
31	0xbe08a229	-0.13343109
32	0x3bcd5555	0.006266276
33	0xbe0ef6b3	-0.13961296
34	0x3cb34ee6	0.021888208
35	0x3db703cc	0.08936271
36	0x3d7a7b12	0.061152525
37	0xbd6bf000	-0.05760193
38	0x3d9e6a88	0.07735163
39	0xbd5f62ba	-0.054537512
40	0xbd0217fb	-0.03176115
41	0x3de06f3f	0.109587185
42	0xbd965aa7	-0.07341509
43	0x3e15e090	0.14636445
44	0x3d7ebc66	0.06219139
45	0x3da14230	0.078739524
46	0x3db73322	0.089453
47	0x3e24494b	0.16043584
48	0x3d8990c7	0.06717067
49	0x3dbf6905	0.09346203
50	0x3da786e2	0.08180024
51	0x3e2f4b8b	0.17118661
52	0x3dc77af4	0.09740248
53	0x3dc0cfd4	0.0941464
54	0x3c74bef9	0.01493811
55	0x3de5549b	0.11197778
56	0xbd6229d8	-0.055215687
57	0xbde8147b	-0.11332031
58	0xbd284e92	-0.041090555
59	0x3d8926ba	0.0669684
60	0xbd5c53e6	-0.05379095
61	0xbdc5c83b	-0.096573316
62	0x3cb871da	0.022515226
63	0xbb5aeb1d	-0.0033404299
64	0x3d5ccb69	0.053904925
65	0x3d3810cd	0.044937897
66	0xbd8c5d78	-0.06853765
67	0x3ccbbe94	0.024871148
68	0x3c89925f	0.016793428
69	0x3d7444b1	0.05963582
70	0xbc6d0fea	-0.014469126
71	0x3c87522c	0.016518675
72	0x3d8c0e7d	0.06838701
73	0xbdfd9d65	-0.12383536
74	0xbe0a2cce	-0.13493654
75	0x3d0970ed	0.03355496
76	0xbc8a8d6c	-0.016913138
77	0xbd859a80	-0.06523609
78	0x3d93cbe7	0.07216626
79	0x3d2517b9	0.040305827
80	0xbd810f25	-0.06301717
81	0xbdca0176	-0.0986356
82	0xbc8ff35f	-0.017572103
83	0x3e08df83	0.13366513
84	0xbdf9dac7	-0.121999316
85	0x3d000037	0.031250205
86	0x3d0806aa	0.03320948
87	0x3e101c6c	0.14073342
88	0x3d23a534	0.03995247
89	0x3e51051a	0.20412102
90	0xbd92c14f	-0.07165777
91	0x3d72966a	0.059225477
92	0x3d3f3bb7	0.046687808
93	0xbce33e4e	-0.02773967
94	0xbd243d17	-0.040097322
95	0x3d842300	0.06451988
96	0xbca44057	-0.02005021
97	0xba223f0d	-0.0006189205
98	0x3dd64e75	0.10464183
99	0x3da95171	0.08267487
100	0xbdc4c7ee	-0.09608446
101	0x3d81ddcb	0.06341132
102	0xbdc7bb0c	-0.09752473
103	0xbda8b0a3	-0.08236816
104	0x3cc8bcad	0.02450403
105	0x3d4cf8e9	0.050042067
106	0x3dc59f7d	0.096495606
107	0x3cd2b73d	0.02572214
108	0x3d712747	0.05887535
109	0xbd983bfa	-0.074333146
110	0xbcccdb74	-0.025006987
111	0xbddbe511	-0.1073705
112	0xbdc290be	-0.09500264
113	0xbd79657f	-0.06088781
114	0x39fea0ba	0.00048566406
115	0xbc8fe841	-0.017566802
116	0x3d2d8e7c	0.04237221
117	0xbe18fd85	-0.1494046
118	0xbb840183	-0.0040285005
119	0x3e7f7f8f	0.24951003
120	0x3d428a69	0.04749528
121	0xbcda323c	-0.026635282
122	0xbd481c7f	-0.0488553
123	0xbd895dd3	-0.06707349
124	0x3d76f04d	0.060287762
125	0x3d3ee0a6	0.04660096
126	0xbda93289	-0.08261592
127	0xbdaee6ee	-0.0854014
128	0x3dc02b6a	0.093832806
129	0x3cdc3eff	0.026885508
130	0x3db6c88b	0.08924969
131	0xbdd9fe06	-0.10644154
132	0xbd90b6b9	-0.070661016
133	0xbe038002	-0.128418
134	0x3e1bac01	0.15202333
135	0x3d0eecc5	0.03489377
136	0xbdc81fcf	-0.09771692
137	0xbe5357cb	-0.20638959
138	0x3c18b0d3	0.009319502
139	0xbde043c7	-0.109504275
140	0x3db348ea	0.08754142
141	0x3bbd992d	0.0057860822
142	0x3e30bae3	0.17258792
143	0x3da27e1a	0.07934208
144	0xbd40e92e	-0.047097377
145	0xbdd640cf	-0.1046158
146	0xbe028683	-0.12746625
147	0x3c48402a	0.012222329
148	0xbbf94de0	-0.0076081604
149	0xbcb65353	-0.022256529
150	0xbdae8129	-0.08520729
151	0x3dae3f23	0.08508136
152	0xbd0ab9a6	-0.033868454
153	0xbd96d67f	-0.07365131
154	0xbd5b347f	-0.05351686
155	0xbe08e7bd	-0.13369651
156	0x3db07d98	0.08617705
157	0x3d3acf45	0.045607824
158	0x3b8cadde	0.0042931875
159	0x3b9320d1	0.004489996
160	0xbd9d81ce	-0.07690774
161	0x3e1f1990	0.15537095
162	0x3ce4ac1b	0.027914098
163	0x3e6ef24a	0.23334613
164	0x3df5967b	0.119915925
165	0xbce2bc16	-0.027677577
166	0x3d3c8b53	0.046031307
167	0xbe4d9b4c	-0.20078772
168	0x3d3632fc	0.044482216
169	0x3d5f0e69	0.054457102
170	0x3d7822e5	0.060580153
171	0xbcb2658b	-0.021776935
172	0xbd42ba28	-0.047540814
173	0x3d02cf3d	0.03193592
174	0x3bcead3e	0.006307273
175	0x3d605060	0.05476415
176	0x3d785e20	0.06063664
177	0xbd9bd236	-0.07608454
178	0xbe2c2681	-0.16811563
179	0x3bdb2c0b	0.0066886
180	0x3de2d828	0.11076385
181	0xbdaac6f9	-0.08338732
182	0xbdb6fd74	-0.08935061
183	0x3e33c469	0.17555393
184	0xbb92a069	-0.004474689
185	0x3de1d90a	0.11027725
186	0xbd3a00e1	-0.045410994
187	0xbda11c49	-0.07866723
188	0xbdcc8157	-0.09985607
189	0x3d88fdb6	0.066890165
190	0xbdf5d91f	-0.12004303
191	0x3e5eab68	0.21745074
192	0xbddf6b92	-0.10909189
193	0x3c05e033	0.008171129
194	0xbe0733e6	-0.13203391
195	0x3e177a84	0.1479283
196	0x3cd5fd55	0.026121775
197	0xbb88c40e	-0.004173762
198	0xbbf33b8a	-0.007422869
199	0x3cee2a56	0.029072922
200	0xbe80861a	-0.2510231
201	0xbd5ac8f7	-0.05341431
202	0x3dd9ff58	0.10644406
203	0x39e47927	0.00043577814
204	0xbdf9fa5a	-0.12205954
205	0x3dbb6e7b	0.09151932
206	0xbc343a5f	-0.011000245
207	0xbcd1cb05	-0.025609503
208	0xbe122380	-0.14271355
209	0x3d1d5040	0.03840661
210	0xbcd6deff	-0.02622938
211	0xbc9d03dc	-0.01916688
212	0x3db22c8e	0.086999044
213	0xbd33dec7	-0.04391363
214	0x3d54dbde	0.051967494
215	0x3cdfbf68	0.02731295
216	0xbc7eb0b5	-0.01554506
217	0x3c87fa97	0.016598983
218	0xbd7f4a91	-0.06232697
219	0x3cf27cb7	0.029600484
220	0xbdc68ece	-0.096952066
221	0x3e32f35c	0.17475647
222	0xbd191932	-0.037377544
223	0x3ddf1e31	0.108944304
224	0x3c856db7	0.016287668
225	0xbd8aee36	-0.067837164
226	0x3d5df5b8	0.054189414
227	0xbdd42133	-0.10357895
228	0x3cbb0151	0.022827776
229	0xbd1551e8	-0.036455065
230	0xbe356b86	-0.17716798
231	0x3e0abcb8	0.13548553
232	0xbd4b6cad	-0.04966419
233	0x3df36c36	0.11885874
234	0xbd5b3eaf	-0.053526577
235	0x3cd126a6	0.025531124
236	0x3b8dc064	0.0043259133
237	0xbd161d53	-0.03664906
238	0x3e28dbef	0.16490148
239	0xbbda7b82	-0.0066675553
240	0x3d416510	0.04721552
241	0x3dcba907	0.09944349
242	0xbbf2fc2f	-0.0074153165
243	0xbd048262	-0.032350905
244	0xbdc547fc	-0.096328706
245	0xbe3f6b19	-0.18693198
246	0xbe6fecc6	-0.23430166
247	0x3dbf6ad7	0.0934655
248	0x3d8d4291	0.06897462
249	0xbdc86b6f	-0.09786116
250	0xbd7fac79	-0.062420342
251	0x3daf11e8	0.08548337
252	0x3dc5f107	0.09665113
253	0xbe19beff	-0.15014265
254	0xbdc657d9	-0.09684724
255	0x3d679e57	0.05654749

lstm.bias_ih_l0 f4 [256]
0	0x3d2a0076	0.041504346
1	0xbddc5a56	-0.10759418
2	0x3d83b16e	0.064303264
3	0x3dc25135	0.09488145
4	0x3dd70445	0.10498861
5	0x3e21a770	0.15786529
6	0x3d2cc534	0.042180255
7	0x3d842774	0.064528376
8	0xbd252493	-0.040318083
9	0xbd99fcae	-0.07518898
10	0xbccd4030	-0.025055021
11	0x3b0c0778	0.0021366756
12	0xbde22124	-0.11041477
13	0x3e104a20	0.14090776
14	0x3d31d21f	0.043413278
15	0xbccdc780	-0.025119543
16	0xbe467089	-0.19378866
17	0x3ce93dab	0.028471788
18	0xbc58db22	-0.013235839
19	0x3d8cd907	0.06877332
20	0x398e6adf	0.00027163976
21	0x3e5fb1a4	0.21845108
22	0x3e27c89a	0.16385117
23	0xbb96caad	-0.0046017976
24	0x3dfad345	0.12247328
25	0xbe0d5e0e	-0.1380541
26	0x3bb015b7	0.0053736824
27	0xbd94fe9f	-0.072751276
28	0x3c419578	0.011815421
29	0xbe62a83b	-0.22134487
30	0x3cd02720	0.025409281
31	0x3e24b81d	0.16085859
32	0xbdab7e32	-0.08373679
33	0xbcb64313	-0.02224878
34	0x3ba64a45	0.0050747716
35	0x3dbce6a8	0.09223682
36	0x3dcb39b5	0.09923116
37	0x3d40ce59	0.04707179
38	0xbdf154c9	-0.117837496
39	0x3e5b1e9a	0.21398392
40	0x3c7cb2bc	0.015423473
41	0x3e3692f2	0.17829493
42	0xbe17993c	-0.14804548
43	0x3e0062a6	0.12537631
44	0xbd4b8abe	-0.04969286
45	0xbe1d2261	-0.15345146
46	0x3e448d02	0.19194415
47	0xbdf6e403	-0.120552085
48	0xbd48c9ff	-0.049020763
49	0xbcad5a31	-0.02116117
50	0xbdb6c81b	-0.08924886
51	0x3dc5ecf5	0.096643366
52	0xbcd22e05	-0.02565671
53	0x3d2a004c	0.04150419
54	0x3d56fbdb	0.05248628
55	0x3d31e114	0.04342754
56	0x3c80b1ae	0.015709724
57	0xbd410fa4	-0.047134057
58	0x3e451cc4	0.19249254
59	0x3e7385f3	0.23781566
60	0x3dd31a49	0.10307748
61	0x3e367888	0.17819417
62	0x3ddba066	0.10723953
63	0xbda54e8e	-0.08071624
64	0x3dd82c2c	0.105553
65	0xbd9239f6	-0.071399614
66	0x3cd9a783	0.026569134
67	0xbd9575f7	-0.07297891
68	0xbce70fff	-0.02820587
69	0xbd8243a6	-0.06360559
70	0xbd5eed3a	-0.054425456
71	0xbdfafc76	-0.12255184
72	0x3dd348e3	0.103166364
73	0xbe2f6892	-0.17129734
74	0xbd50b953	-0.05095799
75	0x3baf03db	0.005341036
76	0xbcd0513c	-0.02542936
77	0x3dadf597	0.08494108
78	0xbde04d71	-0.10952271
79	0x3ccf7a8f	0.025326995
80	0xbe524e79	-0.20537747
81	0x3c81b269	0.015832143
82	0xbc8b3494	-0.016992845
83	0xbe6bbd0d	-0.23021336
84	0xbd80c7cd	-0.06288109
85	0xbe1bdde9	-0.15221371
86	0x3bb2a261	0.005451486
87	0xbcf2726a	-0.029595573
88	0xbd68314c	-0.05668764
89	0xbcd7f74b	-0.026363036
90	0xbc83c102	-0.016083244
91	0xbd941351	-0.07230247
92	0xbca451c5	-0.020058522
93	0xbe0ea77e	-0.1393108
94	0xbdfcf1cf	-0.12350809
95	0xbc2a78ea	-0.010404805
96	0xbdffc653	-0.12488999
97	0x3d584467	0.05279961
98	0xbd1d9d26	-0.038479947
99	0xbdeed712	-0.11662115
100	0xbdfdc61d	-0.12391303
101	0xbd8d8049	-0.06909234
102	0xbd943200	-0.07236099
103	0xbda2832c	-0.07935175
104	0xbd41c063	-0.047302615
105	0x3c933c0c	0.017972969
106	0xbdccc457	-0.09998386
107	0xbdd49ccd	-0.1038147
108	0xbe3f4bbe	-0.18681237
109	0xbd15621d	-0.03647052
110	0xbd214332	-0.039370723
111	0xbdd2a723	-0.10285785
112	0x3c6a3832	0.014295625
113	0xbe1d8cd2	-0.1538575
114	0xbe1e0bfe	-0.15434262
115	0xbd760993	-0.060067724
116	0xbe7e8182	-0.24854091
117	0x3d2b6ff7	0.041854825
118	0xbdecb4a2	-0.115578905
119	0xbd8569cb	-0.06514319
120	0x3d8b1318	0.06790751
121	0xbe27e33b	-0.16395275
122	0xbcfc3e1c	-0.030791335
123	0x3ce2dae7	0.027692271
124	0xbdde0ad9	-0.10841913
125	0x3d60e6ac	0.054907486
126	0xbe08e219	-0.133675
127	0xbd6fda47	-0.058557775
128	0x3e122473	0.14271717
129	0xbce52d31	-0.02797565
130	0x3dd55af6	0.1041774
131	0xbda53659	-0.080670066
132	0x3d8ac14b	0.06775149
133	0xbe20b583	-0.15694241
134	0x3e095cc7	0.13414298
135	0xbb8f3404	-0.0043702144
136	0xbe042604	-0.12905127
137	0xbda6c285	-0.081425704
138	0xbdf0997c	-0.11748025
139	0xbd203e62	-0.039121993
140	0xbdb30462	-0.0874107
141	0x3e445db4	0.1917637
142	0x3cfe7a0a	0.031064052
143	0x3dd97344	0.10617688
144	0xbd1cbd9b	-0.03826676
145	0xbe018659	-0.12648906
146	0xbe168d99	-0.14702453
147	0xbe026280	-0.12732887
148	0xbdb31d0f	-0.08745777
149	0xbd9e8a6a	-0.07741244
150	0xbdd925da	-0.10602923
151	0xbc35406d	-0.011062724
152	0xbe094e53	-0.13408785
153	0x3ccdd3e4	0.025125451
154	0x3c35d698	0.011098526
155	0x3c993271	0.01870081
156	0xbc2f4e17	-0.01069977
157	0x3e235ffd	0.15954585
158	0x3d33a317	0.043856706
159	0xbd832afb	-0.06404682
160	0xbce5672b	-0.028003296
161	0xbccb2efd	-0.02480268
162	0xbbcb52d5	-0.0062049427
163	0x3dafff07	0.085935645
164	0x3d563ef3	0.052306127
165	0x3d7ad2ee	0.061236314
166	0xbd3e050a	-0.046391524
167	0x3d9ce1fc	0.076602906
168	0x3d870ca7	0.0659421
169	0x3c9a7550	0.018854767
170	0xbdaed612	-0.085369244
171	0x3d5920f9	0.05300996
172	0x3da7cc8b	0.0819331
173	0xbd538f07	-0.051650073
174	0x3dcf1e7a	0.10113235
175	0xbc906428	-0.017625883
176	0xbd0c9381	-0.03432036
177	0xbd80ddc3	-0.06292298
178	0x3d87cd68	0.06630975
179	0x3debf880	0.11522007
180	0x3d0fbef7	0.035094228
181	0x3ddb5333	0.10709228
182	0xbe03f7f9	-0.12887563
183	0xbda36180	-0.07977581
184	0xbd667782	-0.056266315
185	0xbd8d827a	-0.06909652
186	0x3da21fda	0.079162315
187	0x3c71780b	0.014738093
188	0x3cba875b	0.02276962
189	0x3d37b0ad	0.044846226
190	0xbc4fb338	-0.012677006
191	0x3dac2e86	0.08407311
192	0xbe433543	-0.19063286
193	0xbde8006b	-0.11328205
194	0x3cf48710	0.02984956
195	0x3b9693e0	0.004595265
196	0xbe1034ae	-0.14082596
197	0xbc3765bf	-0.011193692
198	0xbe1b21a8	-0.15149558
199	0xbd743387	-0.059619453
200	0x3dfc2e5b	0.12313529
201	0x3bd3befb	0.0064619756
202	0xbcb11cd9	-0.021620201
203	0xbe076dbf	-0.13225459
204	0x3cd5ce3f	0.026099322
205	0x3ddc6502	0.10761453
206	0xbe29d5ea	-0.16585508
207	0xbd806dff	-0.0627098
208	0xbe21eea3	-0.15813689
209	0xbaea363b	-0.0017868945
210	0xbdd7f8d4	-0.10545507
211	0x3d9f647f	0.0778284
212	0xbd65dfc8	-0.056121618
213	0xbd5849f8	-0.052804917
214	0x3d9e7a0f	0.077381246
215	0xbde17030	-0.11007726
216	0xbdd693f5	-0.10477439
217	0x3cf62e0f	0.03005126
218	0xbe0ce7a8	-0.13760245
219	0xbdf52237	-0.119694166
220	0xbd2e32eb	-0.042529028
221	0xbe3d6d68	-0.18498766
222	0xbe5a1012	-0.21295193
223	0x3c643d14	0.013930578
224	0x3c8e5570	0.017374724
225	0xbd5b3374	-0.053515866
226	0x3dee5cec	0.11638817
227	0xbdb84bba	-0.08998819
228	0xbda8a69b	-0.082349025
229	0x3ba59e85	0.0050542974
230	0xbd66989e	-0.05629789
231	0x3d9680da	0.07348795
232	0x3dbbc2e4	0.09168032
233	0xbcb46f93	-0.022025859
234	0xbd0c4e26	-0.034254216
235	0x3df514c6	0.11966853
236	0xbde423e3	-0.11139657
237	0xbd7f90ce	-0.062393956
238	0xbd31080a	-0.043220557
239	0xbdef1919	-0.11674709
240	0xbca05b42	-0.019574765
241	0x3cd30dd7	0.025763435
242	0xbe0a0dfb	-0.13481896
243	0x3b5e1b60	0.0033890828
244	0xbbf787eb	-0.0075540445
245	0x3d0bb363	0.034106623
246	0x3b6ae389	0.0035841188
247	0x3da871d1	0.08224834
248	0xbe3c54f0	-0.18391776
249	0xbb4830f8	-0.0030546766
250	0x3dbadd86	0.091242835
251	0x3e17e3a4	0.14832932
252	0x3a8e011a	0.0010834069
253	0xbd89d1b8	-0.06729454
254	0x3d73d065	0.059524912
255	0x3cf36866	0.029712867

lstm.bias_hh_l0 f4 [256]
0	0x3d8a262a	0.067455605
1	0xbdf470b6	-0.119355604
2	0xbd523b43	-0.051326048
3	0x3d11ed1c	0.035626516
4	0x3d52f9ca	0.05150775
5	0x3dd8640f	0.1056596
6	0xbbf3f446	-0.007444891
7	0xbb103f65	-0.0022010442
8	0x3da52a00	0.080646515
9	0x3dd406da	0.10352869
10	0x3cd115f3	0.025523162
11	0x3d049a49	0.0323737
12	0x3d899870	0.06718528
13	0x3dba9d3c	0.09112021
14	0xbd295a46	-0.041345857
15	0xbdc2ded2	-0.09515156
16	0xbd354ce6	-0.04426279
17	0x3df09cb3	0.11748638
18	0x3cad1db8	0.021132335
19	0x3dc8507a	0.09780975
20	0xbda5573d	-0.0807328
21	0x3e204c1c	0.15654033
22	0xbcc42180	-0.023941755
23	0x3e108965	0.14114912
24	0x3c8d6e0d	0.01726439
25	0xbe38acbf	-0.18034647
26	0xbe4f886a	-0.20266882
27	0xbe383bf1	-0.17991616
28	0x3d49e9a6	0.04929509
29	0xbe606309	-0.21912779
30	0xbcd2fbe1	-0.02575487
31	0x3c2370ff	0.009975671
32	0xbd8629a7	-0.06550913
33	0xbd4c2629	-0.04984108
34	0xbc3a6164	-0.011375759
35	0xbb98d8c9	-0.0046645147
36	0x3c299a8b	0.010351787
37	0xbbe85423	-0.007090108
38	0xbcc60e4d	-0.024176741
39	0x3e6071ae	0.21918365
40	0x3d021e3d	0.03176712
41	0x3d1830fa	0.037156083
42	0xbe30c315	-0.17261918
43	0x3de06606	0.109569594
44	0xbd47efc8	-0.048812658
45	0xbe19cb07	-0.15018855
46	0x3c18f4cb	0.009335707
47	0xbdd85371	-0.1056279
48	0xbd7be7a2	-0.0615002
49	0x3d5f946e	0.054584913
50	0xbdca3af9	-0.098745294
51	0xbd6ed748	-0.058310777
52	0xbda0ed98	-0.078578174
53	0x3ddb5221	0.10709024
54	0xbd843f49	-0.06457383
55	0x3cac7b28	0.02105482
56	0xbd87aae3	-0.06624391
57	0xbd945d9d	-0.07244418
58	0x3e5bd268	0.21466982
59	0x3d9d17b2	0.07670535
60	0x3daa3639	0.083111234
61	0x3e5301b6	0.20606121
62	0x3d7de8b2	0.061989494
63	0xbd3d9ad9	-0.046290252
64	0x3dbc5eda	0.09197779
65	0xbc2229aa	-0.009897629
66	0xbe1eae72	-0.15496233
67	0xbd1c688c	-0.03818564
68	0xbdcd9742	-0.10038616
69	0xbd917c22	-0.071037546
70	0xbe7d7ffa	-0.2475585
71	0xbe4bea71	-0.19913651
72	0x3d9d02c1	0.07666541
73	0xbd288496	-0.04114207
74	0xbdfe85a4	-0.12427834
75	0xbd4eb1d2	-0.05046255
76	0xbd0c9758	-0.03432402
77	0x3d7fc733	0.06244583
78	0xbe2c948a	-0.16853538
79	0xbda6bf56	-0.08141963
80	0xbda303b9	-0.079596944
81	0xbdf59c2d	-0.11992679
82	0xbd3b6120	-0.045746922
83	0xbdf5b340	-0.1199708
84	0xbc29a6e1	-0.010354728
85	0xbd4fb8f5	-0.0507135
86	0xbd2ecf93	-0.042678427
87	0xbd0d70a9	-0.03453127
88	0xbc5e260d	-0.013558877
89	0x3d829f61	0.06378055
90	0xbd0bedbb	-0.034162264
91	0xbe3358d5	-0.17514355
92	0x3dcda08a	0.10040386
93	0xbd8acab8	-0.06776947
94	0xbdef5bbb	-0.11687418
95	0xbcd22b18	-0.025655314
96	0xbd8679a7	-0.06566172
97	0xbdab45d4	-0.08362928
98	0x3c286930	0.010278985
99	0x3cd16c1c	0.025564246
100	0xbbffab7b	-0.0078024245
101	0xbd5fd055	-0.05464204
102	0xbdeb05f2	-0.11475743
103	0xbe0ad2ef	-0.13557027
104	0xbd49e450	-0.04929
105	0xbe1e837d	-0.15479846
106	0xbd884eda	-0.06655665
107	0xbd10d164	-0.03535594
108	0x3cfd143c	0.030893438
109	0xbd05db59	-0.03267989
110	0xbd394678	-0.04523322
111	0xbdc7df33	-0.09759369
112	0xbd989ca4	-0.07451752
113	0xbddc2c28	-0.1075061
114	0x3b8ca1dc	0.004291756
115	0xbdff1bdc	-0.12456486
116	0xbd1b85b9	-0.037969325
117	0x3d689740	0.05678487
118	0xbd52a8f6	-0.051430665
119	0x3c90de07	0.017683996
120	0x3d39325e	0.04521405
121	0xbe6740c5	-0.22583301
122	0xbe065289	-0.13117422
123	0xbdf717f7	-0.12065118
124	0x3de3fe59	0.11132497
125	0xbe0178ff	-0.12643813
126	0x3b0d6b8b	0.0021578993
127	0xbda2a81d	-0.07942221
128	0xbd5527dd	-0.05203997
129	0xbb5e4e6b	-0.0033921252
130	0xbd870ee1	-0.06594635
131	0xbc99b014	-0.018760718
132	0xbdb783c0	-0.08960676
133	0xbb8dc519	-0.0043264744
134	0x3dd3da3f	0.103443615
135	0x3dc65fe2	0.09686257
136	0x3c0bf17c	0.008541461
137	0x3d96afd1	0.07357753
138	0x3cda638c	0.026658796
139	0xbdeeb56b	-0.116556965
140	0xbde59c62	-0.11211468
141	0x3e4333a4	0.19062668
142	0xbc205efd	-0.009788272
143	0x3adb6bce	0.0016740502
144	0xbdc476bd	-0.0959296
145	0x3d166649	0.03671864
146	0xbe1d6e2f	-0.15374063
147	0x3d8bf837	0.068344526
148	0x3d840079	0.06445403
149	0x3dc3dd32	0.09563674
150	0xbdb12adc	-0.08650753
151	0xbda46c1b	-0.08028432
152	0xbde00bd9	-0.1093976
153	0x3e021382	0.12702754
154	0xba3c6ebc	-0.00071881316
155	0xbda982a6	-0.08276872
156	0xbdf94dff	-0.1217308
157	0xbc1118ce	-0.008856012
158	0xbcc3d9b2	-0.023907516
159	0xbcae27a9	-0.021259146
160	0xbe39a09b	-0.18127672
161	0x3d673dce	0.056455426
162	0xbd521cc0	-0.05129695
163	0xbd191458	-0.037372917
164	0x3de27e5e	0.11059259
165	0x3cc2f783	0.023799663
166	0xbda06760	-0.07832217
167	0xbd9ce930	-0.076616645
168	0x3d233431	0.039844695
169	0xbc952ed0	-0.018210799
170	0x3dd725dc	0.10505268
171	0xbd0c4d75	-0.034253556
172	0xbc6e2758	-0.0145357475
173	0x3c7dee6a	0.015498737
174	0x3dab0e06	0.08352284
175	0x3da47fcb	0.08032187
176	0xbd3d72d0	-0.04625207
177	0xbd78c300	-0.06073284
178	0x3d67f8bf	0.056633707
179	0x3dcaba20	0.09898782
180	0x3e0ff199	0.14057006
181	0xbca44ff5	-0.020057658
182	0xbd995b79	-0.0748815
183	0xbe2c38e1	-0.16818573
184	0x3d4b7b40	0.049678087
185	0xbbb7a957	-0.0056049037
186	0xbdf257cc	-0.11833152
187	0x3c0270b9	0.0079614455
188	0x3c98ddaf	0.018660394
189	0xbc5441b8	-0.012955122
190	0xbdc36eaf	-0.095425956
191	0x3d73f777	0.059562173
192	0xbe534da1	-0.20635082
193	0x3d92b3cb	0.07163199
194	0xbd8d77f3	-0.06907644
195	0x3d9585c1	0.07300902
196	0xbda28f64	-0.07937506
197	0x3df96777	0.121779375
198	0xbe27f1de	-0.16400859
199	0xbdb45dca	-0.08806951
200	0xbdecf9b4	-0.115710646
201	0xbd515bf8	-0.0511131
202	0x3ac2e91e	0.00148705
203	0xbdd4da25	-0.1039317
204	0xbe20755d	-0.1566977
205	0x3e063f0b	0.13109986
206	0xbc1f5813	-0.009725588
207	0xbe28614a	-0.16443363
208	0x39fb7a18	0.00047965418
209	0xbc39b0d3	-0.011333662
210	0xbcc8b9bd	-0.02450263
211	0x3c8e0dbb	0.017340532
212	0xbe106ebb	-0.1410474
213	0x3cb6354f	0.022242216
214	0x3d8c59db	0.06853076
215	0xbd99c946	-0.07509093
216	0xbe0fe9ac	-0.14053982
217	0xbd09f910	-0.03368479
218	0xbd4a4451	-0.049381558
219	0xbd45bdb5	-0.04827662
220	0x3e1119d2	0.14170006
221	0xbda063fe	-0.07831572
222	0x3c37ca77	0.011217705
223	0xbd385fce	-0.04501324
224	0xbdef978f	-0.116988294
225	0x3c14371f	0.009046345
226	0x3c898bf4	0.016790368
227	0xbe0d69ac	-0.13809842
228	0xbdafbac4	-0.085805446
229	0x3d97a6bb	0.07404848
230	0xbdce8883	-0.10084631
231	0x3e21f573	0.15816288
232	0x3e104fa2	0.14092878
233	0x3e2f614e	0.17126963
234	0xbe2d0f84	-0.1690045
235	0xbd962b10	-0.07332432
236	0xbe510439	-0.20411767
237	0xbe297e1d	-0.16552015
238	0x3e25e934	0.16202241
239	0xbce070ab	-0.027397474
240	0xbd9fd7e1	-0.078048475
241	0x3d8cd2bc	0.06876132
242	0x3d725ebb	0.059172373
243	0xbd8140ba	-0.06311174
244	0x3e097c52	0.1342633
245	0x3dd5281a	0.104080394
246	0xbdd24846	-0.10267691
247	0x3c0d8ea7	0.008639968
248	0xbd0f60ef	-0.035004552
249	0xbdf8edf3	-0.1215476
250	0xbd673344	-0.056445375
251	0x3caf7e38	0.02142249
252	0xbdbef298	-0.09323615
253	0xbba6d81b	-0.0050916797
254	0x3d2ef07e	0.04270982
255	0xbd44f95f	-0.04808938

classifier.0.weight f4 [32, 64]
0	0xbdbeae70	-0.09310615
1	0x3d835f25	0.06414632
2	0xbded63c0	-0.115912914
3	0x3da4e89c	0.08052179
4	0x3be8d9d0	0.0071060434
5	0xbc1412df	-0.009037702
6	0xbcb4faaf	-0.022092192
7	0x3c9863fb	0.018602362
8	0xbd92f54b	-0.07175692
9	0xbd25a543	-0.04044081
10	0x3df7a847	0.12092643
11	0x3e12b16a	0.1432549
12	0xbdda1028	-0.10647613
13	0xbde50210	-0.11182034
14	0xbdfa3843	-0.12217762
15	0x3e4c3428	0.19941771
16	0xbd2e453d	-0.0425465
17	0x3ce159d5	0.027508656
18	0xbd1fab75	-0.038981874
19	0xbdb1dd10	-0.086847425
20	0x3d19f616	0.0375882
21	0x3dd42894	0.10359302
22	0x3e096259	0.13416423
23	0x3c8adf37	0.01695214
24	0x3e3983c5	0.18116672
25	0xbd3879a1	-0.04503787
26	0x3d456981	0.04819632
27	0xbd8348ca	-0.06410368
28	0x3d4f4b39	0.050608847
29	0xbdb2c1c2	-0.087283626
30	0xbe228832	-0.15872267
31	0xbd92bda3	-0.071650766
32	0xbd16575d	-0.03670441
33	0x3c831f5b	0.016006162
34	0xbc13333f	-0.008984386
35	0x3d7dbb04	0.06194593
36	0x3e2f4f9c	0.17120212
37	0xbd93bfd1	-0.072143205
38	0xbe5cd329	-0.21564926
39	0x3e9b81d9	0.30372503
40	0x3e17b9fb	0.1481704
41	0xbd9e8243	-0.07739689
42	0x3e32ddc7	0.17467414
43	0x3d9cf7dc	0.07664463
44	0x3d25ae5f	0.040449496
45	0x3d1ce42a	0.03830353
46	0x3d61f478	0.055164784
47	0xbdffd96a	-0.1249264
48	0x3d7d60f7	0.06186005
49	0xbe15876a	-0.14602438
50	0x3d88bf9b	0.06677171
51	0xbc8c4762	-0.017123882
52	0x3d2b9460	0.04188955
53	0xbd126c5e	-0.03574788
54	0x3c873ab4	0.016507484
55	0x3e50cf97	0.20391689
56	0x3e081f18	0.13293111
57	0xbd0a341a	-0.033741094
58	0xbe2e8edd	-0.17046686
59	0x3e3dc2cf	0.18531345
60	0x3e1996ec	0.14998978
61	0xbdf18e25	-0.1179469
62	0xbda1980e	-0.0789033
63	0xbe2fb5a4	-0.17159134
64	0xbdf0dc39	-0.11760754
65	0x3d95fdd1	0.07323802
66	0x3d0899a5	0.03334965
67	0x3e42c441	0.19020177
68	0x3d973b45	0.07384352
69	0x3e35a52f	0.17738794
70	0xbdfc6ce8	-0.1232546
71	0xbdf5fcd3	-0.12011113
72	0xbc4771a3	-0.012173089
73	0x3db430ba	0.08798356
74	0x3db57c2b	0.08861574
75	0x3e227cef	0.15867971
76	0x3c282a3d	0.010263977
77	0x3c9f5af3	0.019452548
78	0x3d75d47f	0.060017105
79	0x3e06eb7a	0.13175765
80	0xbe0d2cbb	-0.13786595
81	0x3dcb743f	0.099342816
82	0x3df4405d	0.11926339
83	0xbde82a01	-0.113361366
84	0x3e0eda43	0.13950448
85	0x3e13c449	0.14430346
86	0x3e3b62d8	0.18299425
87	0xbe488f46	-0.19585904
88	0x3e9de81a	0.30841142
89	0xbcf742fb	-0.030183306
90	0x3e26c1c7	0.16284858
91	0xbd0d5eea	-0.034514345
92	0x3d9f766a	0.077862576
93	0xbe039be5	-0.12852438
94	0xbe0788ad	-0.13235731
95	0xbdf43958	-0.11925
96	0xbd767036	-0.060165606
97	0xbdef88f8	-0.116960466
98	0x3d91cfb2	0.07119693
99	0x3ce6ae59	0.028159307
100	0xbc1a8963	-0.00943217
101	0xbd810d43	-0.063013576
102	0xbe72a7e0	-0.23696852
103	0x3e86507a	0.26233274
104	0x3e563bd6	0.20921263
105	0xbd7db8f6	-0.06194397
106	0xbcc6fdd0	-0.02429095
107	0xba90dd87	-0.0011052348
108	0x3e264cd9	0.16240253
109	0x3d3fa551	0.046788517
110	0xbde6cc7d	-0.11269472
111	0xbdac0b5a	-0.08400603
112	0xbd439d2c	-0.047757313
113	0xbe1a3ab1	-0.15061451
114	0xbd5af3d3	-0.053455185
115	0xbe03be6a	-0.12865606
116	0xbdbc4eaa	-0.091946915
117	0x3baed1d0	0.00533507
118	0x3e17d248	0.1482631
119	0x3d9fffce	0.07812463
120	0xbcef68cb	-0.029224774
121	0x3e3f1c8e	0.18663236
122	0x3c9cbc82	0.019132856
123	0x3e34a204	0.17639929
124	0x3deee1a2	0.1166413
125	0x3cb6f117	0.022331757
126	0xbdc510d8	-0.09622353
127	0xbe2f04e4	-0.1709171
128	0xbe05080d	-0.12991352
129	0x3e48f983	0.19626431
130	0xbcf0d027	-0.02939613
131	0x3d644618	0.05573091
132	0x3e085861	0.13314964
133	0x3e216f57	0.15765129
134	0x3c493bc6	0.0122823175
135	0xbe370334	-0.17872316
136	0x3c866fd0	0.016410738
137	0xbd561fdb	-0.052276473
138	0x3e1e1b07	0.15439998
139	0xbc21cfba	-0.009876186
140	0xbbf102a1	-0.0073550497
141	0xbd8450e6	-0.06460743
142	0xbd52bd2a	-0.051449932
143	0x3d6c8288	0.05774167
144	0xbe1c3d16	-0.15257677
145	0x3ce146e0	0.027499616
146	0x3c8a67a8	0.01689513
147	0x3c539236	0.012913277
148	0x3e106b21	0.14103366
149	0x3e39e8b8	0.18155181
150	0xbcbe73b4	-0.02324853
151	0xbe43df1b	-0.19128077
152	0x3e85e7dd	0.2615346
153	0x3d8a9df1	0.06768406
154	0xbd3635eb	-0.044485014
155	0xbd2419ee	-0.04006379
156	0xbdb3741d	-0.08762381
157	0x3d507189	0.050889526
158	0xbe00fff1	-0.12597634
159	0xbdbb9d1e	-0.09160827
160	0x3db89ddb	0.090144835
161	0xbe12817d	-0.14307208
162	0x3c99a7e3	0.018756812
163	0xbdd886cc	-0.105725855
164	0x3e178ba5	0.14799364
165	0x3db88a21	0.09010721
166	0xbe51ba3f	-0.20481203
167	0x3dd1268f	0.102124326
168	0x3e5c9789	0.21542181
169	0xbe018f2b	-0.1265227
170	0x3cae439d	0.021272475
171	0x3ccaebb9	0.024770604
172	0x3e2e3f8f	0.17016433
173	0x3b818b40	0.0039533675
174	0xbe0c55be	-0.13704583
175	0xbe5d05be	-0.21584222
176	0xbd14ee70	-0.036360204
177	0xbdca86ca	-0.0988899
178	0x3c94b9e8	0.018155053
179	0xbe40c35e	-0.18824527
180	0xbdfc891c	-0.12330839
181	0xbd0068c9	-0.03134993
182	0x3d1f2796	0.03885611
183	0x3e82735d	0.2547864
184	0x3e2d2811	0.16909815
185	0x3daf7bb8	0.08568519
186	0xbd74b335	-0.059741218
187	0x3e043709	0.12911619
188	0x3e1003e1	0.1406398
189	0xbd2ba481	-0.04190493
190	0xbd9ba267	-0.07599335
191	0xbd5a9b39	-0.053370688
192	0xbda12870	-0.07869041
193	0xbe23a2b7	-0.1598004
194	0x3d72e3ec	0.059299394
195	0xbe7a9334	-0.24470216
196	0xbd0a5785	-0.03377487
197	0xbea0375d	-0.3129224
198	0xbcad50c7	-0.021156682
199	0xbd17dee5	-0.037077803
200	0xbe4b8720	-0.19875765
201	0xbdc5b731	-0.096540816
202	0xbc30cfcd	-0.010791731
203	0xbe2b49b6	-0.16727337
204	0x3ddd005a	0.10791083
205	0x3e1f09f6	0.15531144
206	0xbe65f413	-0.22456388
207	0xbdf0e204	-0.11761859
208	0x3da1c40e	0.078987226
209	0xbe6eda8f	-0.23325561
210	0xbc52c6cf	-0.0128647825
211	0x3e71bb15	0.23606522
212	0x3d93d3a4	0.072181016
213	0xbde40942	-0.11134578
214	0xbcc10569	-0.02356215
215	0x3a6a70c4	0.0008943195
216	0xbe552442	-0.20814613
217	0x3e3d511c	0.18487972
218	0xbb9aa277	-0.0047190743
219	0xbd2c2d45	-0.04203536
220	0xbe16870d	-0.14699955
221	0xbcb6af24	-0.02230031
222	0x3e024b43	0.12724023
223	0x3e1471d0	0.14496541
224	0xbd8568c5	-0.06514124
225	0xbcd3cbb3	-0.025853967
226	0xbe0b8491	-0.13624789
227	0x3dcfd059	0.10147161
228	0xbd9f400f	-0.0777589
229	0x3e1183e7	0.14210473
230	0xbd53456f	-0.05157989
231	0xbdfd4bcb	-0.12367972
232	0xbec4b24e	-0.38417286
233	0x3e98ac9d	0.29819193
234	0xbc84e7d5	-0.016223827
235	0x3ca33d2b	0.019926628
236	0x3d991d9c	0.07476351
237	0xbe2f276f	-0.17104886
238	0x3e45e2f6	0.1932486
239	0x3d9bc4c9	0.07605893
240	0xbd795d8b	-0.060880225
241	0x3e0dbb61	0.1384101
242	0x3d3befc4	0.045882955
243	0x3e4a7504	0.197712
244	0x3e447c3e	0.1918802
245	0x3e030f53	0.12798814
246	0xbcb89fef	-0.0225372
247	0xbde0c1bb	-0.10974451
248	0xbe126c98	-0.14299238
249	0xbe30876c	-0.1723916
250	0x3e9a8f26	0.3018734
251	0xbeb407c8	-0.35162187
252	0x3df3e5c4	0.11909059
253	0x3e3b9c5d	0.18321367
254	0xbe31a280	-0.17347145
255	0x3d434c89	0.04768041

classifier.0.bias f4 [32]
0	0x3db6e55c	0.089304656
1	0x3d562363	0.05227984
2	0x3e14e297	0.14539562
3	0x3e8b8647	0.27250883
4	0x3d6f7c13	0.058467936
5	0x3e8051eb	0.25062498
6	0x3e73233b	0.23743908
7	0x3df40a1f	0.11915993
8	0x3db4885d	0.08815072
9	0x3c9bad4b	0.019003531
10	0x3e8c14a0	0.27359486
11	0xbe1748ed	-0.14773913
12	0x3deb0886	0.11476235
13	0x3e3bc4cb	0.1833679
14	0xbd894fab	-0.067046486
15	0xbd11e659	-0.035620067
16	0x3d7130a9	0.058884297
17	0xbd8c0d41	-0.068384655
18	0x3c83f02e	0.016105738
19	0xbc9646aa	-0.018344242
20	0xbd336600	-0.043798447
21	0xbc9ae487	-0.018907798
22	0xbd58f7ed	-0.052970815
23	0x3e277c93	0.16356115
24	0x3d87ce76	0.06631176
25	0x3dbb1ae6	0.0913599
26	0x3e5ba6c2	0.21450332
27	0x3e53166d	0.20614024
28	0x3c5f3701	0.013623954
29	0x3ce5f33e	0.028070088
30	0x3e2dfb59	0.16990413
31	0xbddbe36d	-0.107367374

classifier.2.weight f4 [2, 32]
0	0x3c4c803e	0.012481747
1	0x3e76670d	0.24062748
2	0x3e7c63e9	0.24647488
3	0xbe31de42	-0.17369941
4	0xbe47bf1d	-0.19506498
5	0xbe0433c8	-0.12910378
6	0xbdc1c173	-0.09460726
7	0x3d61f646	0.055166505
8	0xbe9b10d1	-0.30286267
9	0x3e31d095	0.17364724
10	0xbea38895	-0.3194014
11	0xbb75c627	-0.0037502141
12	0x3d44f279	0.048082802
13	0xbe88421d	-0.2661294
14	0x3e0c98a6	0.13730106
15	0x3ef1611e	0.47144407
16	0xbd1bb60c	-0.03801541
17	0xbe2a6f97	-0.1664413
18	0x3f1b69d1	0.6070834
19	0x3e25d99b	0.16196291
20	0x3d793e71	0.060850564
21	0x3e764f68	0.24053729
22	0x3e670058	0.22558725
23	0xbdab1d28	-0.083551705
24	0x3e349163	0.17633586
25	0xbe5f5242	-0.21808723
26	0xbeaa8f01	-0.33312228
27	0xbe9d54cc	-0.30728757
28	0x3e92c1de	0.28663534
29	0x3d69ef18	0.057112783
30	0xbeb0967e	-0.34489816
31	0xbc9f5a5d	-0.019452268
32	0xbe341fc4	-0.17590243
33	0xb92c312a	-0.00016421513
34	0x3c321a82	0.010870578
35	0x3ea017ff	0.31268308
36	0x3ddd7a20	0.10814309
37	0x3ec048f1	0.3755565
38	0x3ec2d9a2	0.38056666
39	0xbe764284	-0.24048811
40	0x3ea9874f	0.33111045
41	0xbcf77255	-0.030205885
42	0x3e39c5c0	0.18141842
43	0xbc72c75b	-0.014818038
44	0xbe1b953f	-0.15193652
45	0x3e814506	0.25247973
46	0xbe787c75	-0.24266227
47	0xbe5b39ca	-0.21408764
48	0xbe79c632	-0.24392012
49	0xbe01a28e	-0.12659666
50	0xbf197347	-0.59941524
51	0xbe04f0b3	-0.12982444
52	0x3e232a06	0.15934
53	0xbcb00d13	-0.02149061
54	0xbdc37412	-0.09543623
55	0x3ea04848	0.31305146
56	0x3cbb2e7d	0.022849316
57	0x3e9de1de	0.30836385
58	0x3e59ad93	0.2125762
59	0x3e44301c	0.19158977
60	0xbeadbaa6	-0.33931464
61	0xbe766701	-0.2406273
62	0x3e3aa7a2	0.1822801
63	0xbbef3b00	-0.0073007345

classifier.2.bias f4 [2]
0	0x3ddfbab0	0.1092428
1	0xbdbdb651	-0.0926329
