src/DARPA/pretrained/phase_3.pth (torch, 194061 bytes, 8 tensors)

lstm.weight_ih_l0 f4 [256, 112]
00000000: 42e3 99bd 0c09 9dbd 2b73 db3d f4c9 513d
00000010: db3d ccbc afe5 6b3e 5007 b4bd f518 133e
00000020: c394 af3e 5bfa 27bd 781f 653e 2ac8 b03e
00000030: 0be8 a93e 614c 3cbe 88fe a6be 1956 2e3f
00000040: 4728 633f 23d1 22be 5506 bc3d a0f6 ea3e
00000050: 57f1 65be 8a76 913f b059 f83d 3096 163e
00000060: bcb6 2cbe 6c33 bd3e cc83 1e3f d711 bb3e
00000070: afbd 2dbd 1a42 193f 0a83 6b3e c2bb 39be
00000080: e9c5 893e 04df c03d cfcf e73e cf0a b9bd
00000090: 3986 11be 1bc7 e73d 1746 5b3e 3583 a53e
000000a0: fd5e 123e a897 af3e 0d31 cabc 309e 3ebd
000000b0: 64a5 fe3e 03af 2f3e 3ed5 a23e 505b 4fbc
000000c0: 92db 043d 1563 073e 68dd e33d d38a fc3d
000000d0: 6628 c73d d574 86bd 30eb c03e 62f1 a53d
000000e0: 08e4 5c3e 8f53 0b3e ef40 c73e 85cc 863e
000000f0: ea15 223f 26e5 113e 06b7 67bd 49b8 dcbd
00000100: 92b5 c93d 1b57 c93e ba7a cf3e a340 ae3e
00000110: 9ce5 c13e 4784 cc3e a22b e03e 446d 9d3e
00000120: 817d 15be 8acf 1cbd 9fae 173e cd2b 6a3d
00000130: 3581 f43c d24a 5e3d a0b8 4a3e 8de5 633e
00000140: 2c36 0b3f 4c5b 56bd f4b4 a93e f9b7 263e
00000150: 5084 dd3e 8df1 223e 1c09 403e 299f cebc
00000160: d1e9 323d d376 b73d b074 f6bb 4621 5f3e
00000170: f346 403e c7d9 733f 54f6 1b3d 9ed6 3f3f
00000180: 5384 123e cc06 e43d ebb9 e23d ec3a a1bc
00000190: 1d87 1c3e acf6 063e 81b5 0b3e cac7 803e
000001a0: 941f 293f 7fd2 4c3e c0d1 1f3e fa4a 973e
000001b0: 16c7 93bd 90e4 d63e 4e25 eabc e959 7e3e
000001c0: f156 00bd 1a6c a6be e2aa 663d 00f8 963b
000001d0: 4892 89bd 4b66 5a3c fecf 62bc c3e7 223d
000001e0: d81c 263c b832 d33c 54aa 8cbd 64ae 913a
000001f0: d433 1fbe 2b49 6dbe 25d0 69bd 92cf 60be
00000200: a8f8 79bd 5324 9a3d 84cf 853d 1758 1e3e
00000210: ca71 fc3d fa31 0e3f 81d4 2e3c 49b2 4b3d
00000220: 2ca3 9ebd 81a8 d13d a870 4bbc 7335 ddbd
00000230: 589a 3fbd c9bd 67bd 37c5 02be a41f 56be
00000240: 09a6 943d 03ee f03d f2f1 363e aa00 dfbd
00000250: 1269 82bd a0b0 a03c a252 63bd e3b0 363d
00000260: 924f 06bd 0bcb 863d 0eb7 9cbd 482c 5dbe
00000270: 9887 d0ba 2356 adbe 5266 303c 5ab6 863d
00000280: eeb6 933d 4b4f e2bc 6e0d 94bd 5956 793d
00000290: 2a1d 8e3d 096c a73d 3abd 53bc f317 103d
000002a0: 91d5 63bd 818b 20bd 18ef 5c3d 2918 223d
000002b0: eba0 b5bc b820 bebd b26f 40bc adb6 dfbd
000002c0: 14ed 5bbd f2c9 133d de22 663d 94cc 6b3d
000002d0: 9944 093e 8a06 573c caf1 103e 7a5e 803d
000002e0: 2739 e0bb 7227 ed3d 9838 6c3d 0044 9fbc
000002f0: 5357 593c a16d b5bd cb6e a83d 4372 e43c
00000300: 21e8 953d 7d95 a23d b283 39be cbfa 6e3a
00000310: a269 fabc 9c07 133e f545 f3ba 6874 833d
00000320: ceea 993d 8015 273d 45de 073d ee39 793d
00000330: 8e65 a4bd ac03 113f d9ad fbbd a551 7abd
00000340: 8061 5cbd f0f5 0bbd 24c8 b23d 237d 7abd
00000350: 8bae 6a3d 9f5e 8dbd 6f5e bebd 3123 6abc
00000360: f5bd e8bd 7c22 b53d df4a fe3d 0a86 4c3e
00000370: 5797 0ebe 6ae3 03be a977 03bd 02c6 3fbe
00000380: 64cd ccbd d5b7 dbbe ec3d bbbe 5827 df3c
00000390: 0c51 9bbe 333b febd db94 30be 6094 86be
000003a0: 51fc 6c3e 0db0 8fbe f7f3 aa3e 83ad 8e3e
000003b0: 29ca 7d3d efc4 07be 4e2b a5be a96b 0fbe
000003c0: 3bbd d9bd 9021 3fbe 85e6 03bd e7a5 823d
000003d0: 302c b53e 7fd7 4abf 85bc d63d 68b5 563d
000003e0: 4f3e b13d 3041 8abd d2d4 1abd e704 3bbe
000003f0: a46b 103e f927 f5bd b3ca bc3d ca8d 903e
-0.07514049 -0.07667741 0.10715326 0.051217988 -0.024931839 0.23036836 -0.08790457 0.14364989
0.34293184 -0.041010242 0.22375286 0.34527713 0.33184847 -0.18388511 -0.32616067 0.68100125
0.88733333 -0.15900092 0.09180895 0.45891285 -0.22455345 1.13643 0.121264815 0.1470573
-0.16866583 0.36953294 0.61919856 0.36537048 -0.042417224 0.5986649 0.22999206 -0.1813803
0.26908806 0.09417537 0.45275733 -0.09035265 -0.14211358 0.11317273 0.21413456 0.32326666
0.14294048 0.34295392 -0.024681592 -0.046537578 0.49735558 0.17156605 0.31803316 -0.012656048
0.03243596 0.1322139 0.11126214 0.12331166 0.09724502 -0.06565253 0.37679434 0.08102681
0.21571362 0.13606094 0.38916728 0.2632791 0.6331469 0.1424757 -0.05657103 -0.10777337
0.09849085 0.3932427 0.4052332 0.3403369 0.3787049 0.3994467 0.4378329 0.30747426
-0.14598657 -0.038283862 0.14812706 0.057170678 0.029846767 0.054270573 0.19796991 0.22255535
0.54379535 -0.05233316 0.3314587 0.16281117 0.4326501 0.15912457 0.18753475 -0.025222378
0.043680016 0.08958211 -0.0075212345 0.21790037 0.18777065 0.95254177 0.038076714 0.74936855
0.1430829 0.11134109 0.11070617 -0.019681416 0.15285917 0.13180035 0.13643457 0.25152427
0.6606381 0.20002173 0.15607357 0.2954939 -0.07215707 0.41971254 -0.028582241 0.24838986
-0.031332914 -0.3250435 0.05631531 0.0046072006 -0.06717354 0.013330053 -0.0138435345 0.039771806
0.010138713 0.02578102 -0.06868425 0.0011114595 -0.15547115 -0.23172443 -0.057083268 -0.21954182
-0.061028153 0.075264595 0.06533721 0.15463291 0.12326391 0.5554501 0.010670782 0.049730573
-0.07745966 0.10237218 -0.012416996 -0.1080121 -0.046778053 -0.056577478 -0.12770544 -0.20910507
0.07258231 0.11764147 0.17865732 -0.108887985 -0.06367697 0.019615471 -0.055498727 0.044602286
-0.032790728 0.06581696 -0.076521024 -0.21598923 -0.0015909551 -0.3385478 0.010766583 0.065777496
0.072126254 -0.0276257 -0.07229124 0.060873363 0.06939156 0.08174903 -0.012923533 0.03517909
-0.055623595 -0.03919554 0.053938955 0.039573822 -0.022171458 -0.09283584 -0.01174538 -0.109235145
-0.053692892 0.036081262 0.056185596 0.057568148 0.13405074 0.013124118 0.14154735 0.0626802
-0.0068427506 0.11579789 0.05767116 -0.019441605 0.013265449 -0.08858801 0.08224257 0.027886515
0.07319666 0.07938669 -0.18116644 0.00091163506 -0.030567948 0.14358371 -0.0018560278 0.06418687
0.075154886 0.04079199 0.033170957 0.06084626 -0.080271825 0.5664623 -0.12289018 -0.06111302
-0.05380392 -0.03417009 0.0872958 -0.061154496 0.057295363 -0.06902813 -0.092953555 -0.014290617
-0.113643564 0.08844468 0.12416624 0.19973007 -0.13924919 -0.1287972 -0.03209654 -0.18727878
-0.10000113 -0.4291369 -0.3657068 0.02724044 -0.3033527 -0.12413635 -0.17244284 -0.26285076
0.23143126 -0.28064004 0.33389255 0.27866754 0.061960373 -0.13258718 -0.322596 -0.14005913
-0.10631796 -0.18665147 -0.032202262 0.063792996 0.35385275 -0.7923507 0.10485176 0.052419096
0.086544625 -0.06750715 -0.037800618 -0.18263589 0.14103562 -0.11970515 0.09218349 0.28233176

lstm.weight_hh_l0 f4 [256, 64]
00000000: 28a8 1e3d 8c3b 31bd 41ab da3c be11 e53d
00000010: 857f 9b3d cba0 8abc 2bcb 8b3d c798 013e
00000020: 2999 c5bd 19ca 90bd 0022 833d 2ce2 043d
00000030: c749 bbbd e5e6 3cbc 4662 38bd 6cf9 afbd
00000040: fa14 c43b 3c08 3ebe ee13 5e3d 3539 313e
00000050: deb8 41be 9ec6 dcbd 874a 90bd 6a42 f73d
00000060: 9c95 c33d 346d 583c 4650 8d3e 49e4 38bd
00000070: 6099 75bd 4f4b 4bbe 065c 903c 8268 353e
00000080: fdf3 a1bd 8ca2 753b 60bd 913b a6d8 b7be
00000090: 22a7 4fbe 4c5b 0c3e 4af6 9b3c 35ca 5abc
000000a0: efef 81bc 4514 093d 8849 17bd 966e 9bba
000000b0: 8872 973c 76af 593d 49e2 3d3c 3465 49be
000000c0: a110 d43c cbad 913d 54c2 703e fa60 0f3e
000000d0: 91f5 f43d b3fc e0bd 903c bcbd 34b4 ab3d
000000e0: 5770 773c 24ca 5cbe 3f20 0d3e 5dff 1d3d
000000f0: 0c98 4e3e dceb 3c3e 4a5b 77bd c9b4 0a3e
00000100: b41a 03bd bf09 65be 678b cb3d 4ecb d43d
00000110: f322 10bd eb18 a6bd 70e3 12be 73a8 2a3e
00000120: ac5d 41ba 1399 45be 2fa6 cabc b742 cbbc
00000130: 9738 ec3b bb47 b4bd 889b b0bd c520 50bd
00000140: d82e e43d ad0c 973d 04a1 85bd f016 0b3e
00000150: b051 66be 43e2 c2bc 88e6 2c3c 99eb e4bc
00000160: 0115 b03d 8310 99bd 3ba7 6d3e 1296 d1bc
00000170: 5347 083e e78b 1fbe 3875 76bc b79d d83d
00000180: 9392 cb3d 0acc f6bb 47d7 693d 8f08 5c3d
00000190: 0350 e9bd 70b3 cebc 2566 2cbe 9527 013d
000001a0: a527 f63c 18a6 903d 5415 423d 0fac 053e
000001b0: 8c66 e0bd 6fa4 a8bd b766 9abd b1dd 46be
000001c0: 5a5b 5b3c 4410 90bd ae89 0f3e c1ae 543d
000001d0: d84e 5b3e 4334 69bd 29f5 b6bd 5d03 a33d
000001e0: 41ac c63d 0453 c3bd 0922 c13d e3f5 3dbc
000001f0: 9717 373e d124 223c e123 c03c ed98 35be
00000200: 09b8 a13d 29bc 3ebd 9227 c33e 76df da3d
00000210: 69ac 05be 123e 883e 6790 aebc 54b8 213e
00000220: 7b16 df3d 17de 03be df5a 0abe ffa9 39bd
00000230: 3334 003e e2e1 bf3c 9b5a 9e3b a874 ddbd
00000240: 9d25 22bd 095c c63d 745f 633e fb9c 00be
00000250: 924c 0bbe f01c 6c3c 96b7 043e 8624 583e
00000260: cdac 85be 6e1e af3e 7acd eebd 7514 693d
00000270: d3b3 e33a f19e 813d 664c c03e bc97 dc3c
00000280: 7971 c23d 587f b63d 8dd9 dfbc bd00 863e
00000290: 6959 84be beaa f63e 806f dc3d 6416 a63d
000002a0: 1f08 143e b104 db3d d51c 89bd 87dc e73d
000002b0: b31a 7cbd 2e21 693e 7915 ce3c 754f a0bd
000002c0: 8041 553e 05af 1d3e 2019 9f3d 1b8d 84bc
000002d0: 3c83 85bd 08f4 a5bd b429 503e 55f1 333d
000002e0: 5911 13bd 1db2 083e ad9f 893d 378a 2d3e
000002f0: 24ec b23b 8901 393e 1f10 ac3b b055 043e
00000300: f96d 8d3d 4d70 ea3d a280 3c3e 1273 12be
00000310: 3a15 0cbe 0f2c a43b 2bc2 9bbb a4f5 803d
00000320: 98b2 13bd 8116 c03d 1604 fdbd fc86 ee3c
00000330: 96e3 2abe 3d5a 673d b3ec 96bd aba7 64bc
00000340: 1375 e2bc 2208 683d 97b2 d13d a916 6c3d
00000350: b207 35be c614 93bd 511e f9bd feae 043e
00000360: f270 503e 85c3 b93d 53ea 003d 13bd 073e
00000370: cd10 a0bd 473b 7cbd 8267 c93d 79d1 6e3d
00000380: 4d7d d9bd 9e6a b9ba 21d7 84bd 6a09 a3bd
00000390: b8b2 18be 4777 a63d fb49 3cbd fa3c 673d
000003a0: 7838 61bd 6163 403b 8e76 3fbc 9695 f53b
000003b0: ad77 213e 9764 98bd bcbc 90bd 3dd1 92bd
000003c0: 3665 a7bd f0f7 0abe 7fa5 5b3e f180 c9bd
000003d0: fc4a 213e 9934 adbb 4131 123e f108 003e
000003e0: 1f6f b2bd 5581 a1bd a094 8f3c b128 2b3e
000003f0: e9d3 2e3d a4ce 8dbd 4200 663c 6183 cbbc
0.038734585 -0.04326968 0.026692988 0.11185025 0.07592682 -0.016922375 0.068258606 0.12655936
-0.096483536 -0.07069797 0.06402969 0.032442257 -0.09144931 -0.011529659 -0.045015596 -0.08592495
0.005983946 -0.18557829 0.054218225 0.17306979 -0.18918177 -0.10780071 -0.07045465 0.12073214
0.0955002 0.01320963 0.27600306 -0.045139585 -0.059960723 -0.19852947 0.017622005 0.17715648
-0.07907865 0.0037480919 0.004447624 -0.35907477 -0.202786 0.13706702 0.019038338 -0.013353874
-0.01586148 0.033466596 -0.03693536 -0.0011858519 0.01848723 0.05314585 0.011589595 -0.19667512
0.025886836 0.071132265 0.2351163 0.14001837 0.119609006 -0.109856986 -0.09191239 0.083839804
0.0151024675 -0.21561486 0.13781832 0.03857361 0.20175189 0.18449348 -0.060389794 0.13545527
-0.032007888 -0.22366999 0.09938698 0.1039034 -0.03518958 -0.081102215 -0.14344573 0.16665821
-0.0007376324 -0.19296674 -0.024737446 -0.024812086 0.0072088945 -0.08802744 -0.08623415 -0.0508125
0.11141747 0.073754646 -0.06524852 0.13582969 -0.22492099 -0.02378953 0.01055301 -0.027944373
0.08597756 -0.074738525 0.23208325 -0.025584254 0.13308458 -0.15580712 -0.015042596 0.10576957
0.09940066 -0.0075316476 0.05709007 0.0537191 -0.11392214 -0.025232047 -0.1683584 0.03153189
0.0300482 0.0706293 0.04738362 0.13053916 -0.10957059 -0.08234488 -0.075391226 -0.19420506
0.013388479 -0.070343524 0.14017364 0.05192447 0.21416795 -0.056934606 -0.08933479 0.07959626
0.097008236 -0.09537318 0.0943032 -0.0115942685 0.17880093 0.009896473 0.023454608 -0.17734118
0.0789643 -0.046566162 0.38116127 0.10687153 -0.1305405 0.26609856 -0.02130909 0.15792972
0.1089296 -0.1287769 -0.13511227 -0.045328137 0.12519912 0.023423139 0.0048325784 -0.10813266
-0.039586652 0.09685523 0.22204381 -0.12559883 -0.13603428 0.014411196 0.12960657 0.21107683
-0.261084 0.34202904 -0.11660285 0.056904275 0.0017372317 0.06329144 0.37558287 0.026927821
0.094942994 0.08911008 -0.027325416 0.26172438 -0.25849465 0.4817714 0.107634544 0.081097394
0.14456223 0.10694254 -0.066949524 0.11321359 -0.0615489 0.22766563 0.025156723 -0.07827655
0.20825768 0.15398796 0.07768464 -0.016180566 -0.065191716 -0.08103186 0.20328408 0.043931324
-0.035905216 0.13349195 0.06719909 0.16947256 0.005460279 0.18066992 0.005250945 0.12923312
0.06905741 0.11447201 0.18408445 -0.14301708 -0.13679972 0.005010135 -0.0047533712 0.06296852
-0.036058992 0.09379292 -0.12354295 0.0291171 -0.1668838 0.056482542 -0.073693655 -0.013955991
-0.027643716 0.05664838 0.102391414 0.057638798 -0.17678717 -0.071816966 -0.121639855 0.12957379
0.20355585 0.090704955 0.03147347 0.1325572 -0.078157045 -0.06157997 0.09834196 0.058305237
-0.10619602 -0.0014146154 -0.06486345 -0.0796078 -0.14911926 0.08128219 -0.04596899 0.056454636
-0.054985493 0.002935611 -0.0116859805 0.0074946387 0.15768309 -0.07441061 -0.07067248 -0.07168815
-0.08173601 -0.13571143 0.2144985 -0.09839047 0.1575126 -0.005285811 0.14276601 0.12503411
-0.08712601 -0.07885996 0.017526925 0.16714741 0.042682562 -0.06924179 0.014038147 -0.02484292

lstm.bias_ih_l0 f4 [256]
00000000: c683 e33d 0c8d 3e3d 6aee 8f3e 86ae 9a3c
00000010: e0c3 343e 9bf6 65be b827 03be 5439 6a3d
00000020: f336 c73d e336 06be 25c5 f9bc b641 d0bd
00000030: 53ea abbd 4503 3fbe 6277 4abe ee48 863d
00000040: 1e52 c3bd a654 743c 58a0 99bd 6896 8bbc
00000050: 668f 733c d036 ae3c fc78 aebd 175b 6abd
00000060: d017 673c e881 92bd 2243 133b e633 1dbe
00000070: 147c 68be 6f90 5fbc 8d54 abbc 3b2f 3d3d
00000080: 3e01 fd3b 2f6a 0bbe 1f04 97bd ffc2 43bd
00000090: b0e6 933d 4eb6 4bbd 57ab 243d fd0a 80bd
000000a0: 9c49 0bbc e0f3 433b 4cc1 c73d b081 53be
000000b0: 07dd 833d e5fb 0a3e 3685 edbd 8fe0 90bc
000000c0: 98e3 e13d 103b 36be 385e 0cbb 49b7 39be
000000d0: 4166 fabd f3bc c63c 1a43 d9bd 7cbf 2fbe
000000e0: 73a2 923d 4143 70bd 46bd 643d 57cd 4a3d
000000f0: fcc4 0ebe 932d 5a3e ad7a cdbd 3f2d 38be
00000100: 7fcb 4bbe fef0 84bd 1509 af3c 8bfa 533e
00000110: c8a5 00be b6ce abba c6c6 e6bd a70f 00be
00000120: 1121 76bd 1e8e 3d3e c3a2 3bbe 5470 1a3e
00000130: dd22 e2bd 4d47 49be ba5e 44bd 121f 273e
00000140: f03d 8ebd 1113 2bbe 6409 04be 297e 1ebe
00000150: 1158 2bbe 3092 293d 82d5 523d 7e77 5fbb
00000160: 3668 fabd e6d9 703c 7698 abbd 36cb 2abe
00000170: 494a 0ebe 5871 cdbd f48d 473d bba0 9a3d
00000180: d20c 193d 00e5 91bd 6339 833c 2db0 2cbe
00000190: 5d70 0f3e 0b4b 863d fe38 92be 0921 edbd
000001a0: d63c 56be 013d 04be e6cb 893d 9ddc 12be
000001b0: 8ef6 833e ede3 473e c41a 8ebc 1935 17bd
000001c0: bc0e 2bbe 5e52 85be f132 0cbe 0bd0 f1bc
000001d0: 61ef e6bd 47d2 fe3c 753a f5bb fd31 23bd
000001e0: 1dd0 56b9 e0cb 7cbd 4407 e1bd 0274 52bd
000001f0: 1e77 05be 66cc cb3c 60b4 11be 51f6 4dbd
00000200: c499 f7bc 16d5 2cbd dbb9 a0bd dd2a e5bd
00000210: 0d64 033d 27ff 3abd d441 943c 4d7e 0dbd
00000220: 2a2a 29be 7ee0 c6bd d6e4 bbbd 63a0 09be
00000230: d8e5 fc3c 2628 a0bc e7de 58ba 4a86 efbd
00000240: 1095 2fbd 38e9 08be 9bcd 04bd 3b76 6b3d
00000250: d636 b5bc 6805 913d 6100 013d f5c4 5c3c
00000260: dba6 83bd 0b20 063d a82d 02be bc19 30bd
00000270: 16cb babd c813 1abc 413f 423e 0bf3 823c
00000280: 779b 7f3d dbd3 c13b 6ec7 353c 8d4b 913d
00000290: 8d68 04be 167b 833d 354a a93d f2f2 c9bd
000002a0: 0d46 64bd fd45 87bd 4523 8ebb 6423 1e3e
000002b0: 7309 063e 108e 6a3d daf5 aabd 5b83 843b
000002c0: c112 d5bd 71e0 b0bd ecb3 8bbd e9fa 4d3d
000002d0: d192 21bb 9271 7dbc 5b15 8abc 3b73 acbd
000002e0: 2034 033d bfad 9b3d 291c 4a3d e7d7 dcbd
000002f0: 8257 74bd de5c e93d 898d 91bd 4657 9cbd
00000300: 05f2 f43d 7d96 cabd 6b2a 8f3e 54d9 f0bc
00000310: 2eae 143e b64f 56bd 2083 2dbe 6a27 583e
00000320: 30a1 8b3d f4e1 8abd d840 cdbd 2418 f53d
00000330: 7996 0abd 4c7b 0bbe 0558 2e3d 59cd 323b
00000340: b0e8 66be ee23 113d f81e 43be ed53 8ebd
00000350: b587 393d 012a be3d fa2f df3c 9dec 873d
00000360: 4aca 24be c96b 2e3d 1a0b 1d3e a53f eabc
00000370: 3439 46be 0bc3 9c3d 8bd7 253e 3d54 e03d
00000380: 082d a43d eb04 543c 7169 64bd 6139 953c
00000390: 3a71 393d fff7 f63d f12e a5bc 03b6 73bd
000003a0: 4f2f 07be 34dc e4bd daaa ad3d 4ddf 0fbe
000003b0: 85d9 3b3c ca1c 5a3d 771c 03be 2c55 bfbd
000003c0: 96ce eb3d 4bd2 d5bd 9335 93bc f4f6 6bbe
000003d0: 3709 1abe 23ba 14bd 6f65 c83d 5867 34be
000003e0: 33d4 803d 8cce 2b3b 8589 163e 7d9c d9bd
000003f0: ca96 f8bd 58da bc3d 4c67 d6bd 2b2f 92bd
0.11109118 0.04652123 0.28111583 0.018882047 0.17652845 -0.22457354 -0.1280812 0.05718358
0.097272776 -0.13106875 -0.030489514 -0.10168783 -0.08394303 -0.18653591 -0.19772103 0.06556879
-0.09537147 0.01491276 -0.07501286 -0.017039493 0.014865732 0.021266371 -0.0851917 -0.057215776
0.014104798 -0.07153684 0.0022470434 -0.15351829 -0.22703582 -0.0136452755 -0.02091434 0.04618762
0.0077210953 -0.13614725 -0.07373833 -0.047793385 0.072217345 -0.049734406 0.040202465 -0.06252096
-0.008501437 0.00299 0.09753665 -0.2065494 0.06438642 0.13572653 -0.115976736 -0.017685203
0.11029738 -0.17795968 -0.0021418463 -0.18136324 -0.12226535 0.02426002 -0.10608502 -0.17162889
0.07159891 -0.05865789 0.055844568 0.049512234 -0.13942331 0.21306448 -0.10033164 -0.1798601
-0.19901846 -0.06491278 0.021366635 0.20701043 -0.1256324 -0.0013107869 -0.11268382 -0.12505971
-0.06009013 0.18511245 -0.18323807 0.15081912 -0.11041806 -0.19656105 -0.0479419 0.16320446
-0.069454074 -0.16706492 -0.12894207 -0.15477814 -0.16732813 0.04139918 0.05147315 -0.0034098323
-0.12226908 0.014700389 -0.08378689 -0.16679081 -0.13895525 -0.10031384 0.04871936 0.07550188
0.037365742 -0.071237564 0.016018575 -0.1686408 0.14007707 0.06557282 -0.28559107 -0.115785666
-0.20921645 -0.12913896 0.06728344 -0.1434197 0.25774044 0.1952054 -0.017346747 -0.036915872
-0.1670484 -0.26039404 -0.13691308 -0.029518148 -0.11276127 0.031106127 -0.0074837753 -0.039842594
-0.00020486159 -0.061717868 -0.10987714 -0.051380165 -0.13033721 0.024877738 -0.14228964 -0.050283734
-0.030224688 -0.042195402 -0.07847949 -0.11189816 0.032077838 -0.04565349 0.018097796 -0.034544278
-0.1651999 -0.09710787 -0.09174506 -0.13440089 0.030871317 -0.019550394 -0.0008272961 -0.116955355
-0.042866766 -0.13370216 -0.032422643 0.0574858 -0.022120874 0.07081109 0.031494502 0.013474693
-0.064283095 0.032745402 -0.12712729 -0.042993292 -0.09120767 -0.00940413 0.18969442 0.015985033
0.062404122 0.0059151477 0.011094911 0.07094488 -0.12930508 0.06419961 0.08266107 -0.09860791
-0.055730868 -0.06605146 -0.0043377005 0.15443188 0.13089542 0.057264388 -0.08347674 0.004043979
-0.10403968 -0.08636559 -0.06821427 0.050288115 -0.002465416 -0.015468972 -0.016855886 -0.08420416
0.032032132 0.07601499 0.049343262 -0.107833676 -0.059653766 0.11394666 -0.07107074 -0.076338336
0.11960224 -0.098919846 0.2796205 -0.029400505 0.1451957 -0.052322112 -0.16944551 0.21108785
0.068178535 -0.067813784 -0.100221336 0.11967495 -0.03383491 -0.13621253 0.04256441 0.0027283041
-0.225497 0.035434656 -0.19054782 -0.06949601 0.045295436 0.09285355 0.027244557 0.06636927
-0.16092792 0.04258326 0.15336266 -0.028594801 -0.19357759 0.07654389 0.16195504 0.10953567
0.080164015 0.012940626 -0.05576462 0.018215837 0.045273997 0.1205902 -0.020163985 -0.05949975
-0.1320164 -0.11174813 0.08479853 -0.14050026 0.011465435 0.05325011 -0.12803827 -0.09342417
0.115140125 -0.10440501 -0.017969882 -0.23043424 -0.15042578 -0.036310326 0.09784972 -0.17617548
0.06290474 0.002621564 0.14700897 -0.10625551 -0.12138136 0.09221333 -0.10468921 -0.07137903

lstm.bias_hh_l0 f4 [256]
00000000: 853a 1cbc d6a3 21bd 6a98 1d3e 0061 8c3d
00000010: 97d5 8abc f73a 48bd 992c bebd a1bc 353d
00000020: d745 a23c 596d 59bc 981d 43bc d058 233d
00000030: 9e4e 30bb 352e 32be e030 41be 4d38 163d
00000040: f8e1 0abe 2b40 0bbd 9915 49bc 36cb 7abc
00000050: 4ebd f73c 95e4 03be 42f9 c33d 6a91 f0bd
00000060: cce4 8ebd d659 0ebc 6f33 da3d f96c dabd
00000070: b481 60be ff73 f93c c427 b83d 427e 67bc
00000080: 605d f43d ccd7 e9bd 3825 42be 0f2a 49bc
00000090: bae8 34bc 5f72 023e 7460 973d b4a3 eebd
000000a0: 5c68 b9bc 168a aabd 0ff8 1bbd cfd4 863b
000000b0: 821c e2bd 2df6 b13d ab7a e8bc 567e efbd
000000c0: 1eea b43d 155e 0cbe 9e35 a53d a2f4 08bd
000000d0: f418 743d ecfb fcbd 1bfb 0fbd ac20 61be
000000e0: 2b46 be3d 0b1c 263e db69 563e 2d9e 113d
000000f0: 2cf7 1abe 1d27 2c3e 1352 8dbd 97c1 c7bd
00000100: 18db e2bb e8a3 1fbe d63a efbc 6b6f 113e
00000110: 73bd 463c c84b 1cbd 2aa8 48bb 8d89 e7bd
00000120: 8e14 fbbc 74de 973c 7002 0fbe b959 ce3d
00000130: 4b53 3abe d8e3 5dbd 6abd dabd 1601 423e
00000140: c0bf 143d 7ee6 9dbd 3d82 cfbd 7d57 8fbc
00000150: ac6a fd3b 9776 403a d6a7 29be b88e 05be
00000160: b6ea 34bd d1a4 02be 5849 96bb 8cfb 2dbe
00000170: 6377 81be 9e94 8abb 5df2 a03d 50f5 183e
00000180: 8a85 33be b780 4ebc 0eff 493b 7548 4dbd
00000190: 3f3a 0ebd 7343 c03d 4e98 91bd 53e1 01bc
000001a0: acd7 36be 6f9e 92bd c67a c4bc c423 92bd
000001b0: dadd 523d 819f 453e 8a7c debb 52ee 1ebe
000001c0: 6124 95bd d8ee c4bd cd60 d5bd b10f d3bd
000001d0: 597a 2f3c 0b09 4a3d 32cb 2fbd 1b3c 52be
000001e0: 274a 1fbd 4646 343d 180a 1ebe 7ded 03be
000001f0: 1c67 32bd 09d8 0abe 7851 3bbe 1f1c 05be
00000200: bd7f 9abd 7eb0 b43d 2b25 6dbd 92e5 193d
00000210: 3328 c63c 8d44 ab3d b6d7 d1bd 91fa 5dbd
00000220: 3838 18be 3ac7 083d c342 00be 8e74 bfbd
00000230: 5c3f 313d 00f1 9ebd 7468 64bc cbf6 83bc
00000240: c6bf 193d 9d8d 79bd ce8d 28bd 527a 03be
00000250: 51f5 5ebd 9a1d ccbc 3ba2 9c3d 30d0 053d
00000260: ef60 86bd 9285 2c3d 90ac b43d a5c5 cd3d
00000270: d5f0 893d 46de cfbd 48b1 a13d 7405 ab3c
00000280: aace cdbd 208e a63d 66b7 22bd 1b70 953d
00000290: 00cb b8bd dcb0 233e 347c a3bc 93ee 16be
000002a0: 91fb 6b3d 177b 8dbd 879a 1a3d e6d3 16b9
000002b0: e01e aa3d f1c0 f6bd 25cb 8cbd 89a5 473c
000002c0: 87c2 c33d 0bcc 86bd ebbe 6bbd be46 983d
000002d0: 1e54 21be 248f f13d 70ab da3c 0756 1b3d
000002e0: 76b4 023e dacf e5bc 899a cfbb da48 b7bd
000002f0: 71e7 06be 5a3d 26bc 2a6d 52bd d237 de3d
00000300: 9e90 373e bf81 ecbd b21a 963e c6b0 c7bd
00000310: 8727 efbb 07fa ccbd 04f5 f0bb f260 1f3e
00000320: d6a1 db3d 80cf 99bd 435a 5bbd 0632 2f3d
00000330: a727 5ebc 9e83 a83b 3c6d 47bd 436b 223e
00000340: 3cfd 14bd e0b8 ff3c bac4 0bbe 34d9 bcbd
00000350: 4c53 703d a775 9bbd 618b 12bd d5d1 bcbd
00000360: fb16 26bd b0ed 873a 6441 84bd 8c98 6abd
00000370: ce96 16be d203 803d 9d49 f73d 3430 ddbd
00000380: 5587 92bd 3fd5 31bc e929 62bd 30f9 543d
00000390: 2cd4 2d3d 5cec e33c 19a9 613e 64bc 49be
000003a0: e05c a6bd 56ce 29be ec8e cdbb c7b6 3fbd
000003b0: 330c cd3d f624 e43d 9cf4 04be 6c76 1dbd
000003c0: d03a c13d 24d9 04be 6fd1 1fbd c6cb 95bc
000003d0: 648e 78bd 45c6 0abd 0524 19be 0773 15be
000003e0: 8966 49bc 1968 a33d 6c37 343e 2646 29bd
000003f0: 43ae 18be 5c9c e9bb 1c58 edbd 35d1 47be
-0.0095354365 -0.039462887 0.15390173 0.06854439 -0.01694755 -0.04888436 -0.0928585 0.044369344
0.019808693 -0.013270699 -0.011908911 0.03987962 -0.0026902328 -0.17400439 -0.188663 0.036674786
-0.13562763 -0.033996742 -0.012273216 -0.015307238 0.030241635 -0.12880166 0.095690265 -0.117464855
-0.06977233 -0.008688411 0.106543414 -0.10665316 -0.21924478 0.030450819 0.0899196 -0.014129223
0.11931872 -0.11418113 -0.1895951 -0.012278094 -0.011041814 0.12738942 0.07391444 -0.11652318
-0.02263277 -0.08327119 -0.038078364 0.004114724 -0.11040594 0.086895324 -0.028378805 -0.116940185
0.08833717 -0.13707764 0.08066867 -0.033436425 0.05959411 -0.12352738 -0.035151582 -0.2198512
0.09290727 0.16221635 0.20938818 0.03555124 -0.15133351 0.16811796 -0.0690042 -0.09753721
-0.0069230907 -0.15589869 -0.02920286 0.14202659 0.012130129 -0.038158208 -0.0030617812 -0.113055326
-0.03064945 0.018538691 -0.13965774 0.10075707 -0.18195836 -0.054172367 -0.10680659 0.18945727
0.03631568 -0.077099785 -0.10132263 -0.017497772 0.0077336635 0.000734189 -0.1656793 -0.13042724
-0.04416915 -0.12758185 -0.00458638 -0.16990489 -0.25286397 -0.0042291423 0.07858727 0.1493733
-0.1753141 -0.01260393 0.003082219 -0.05011793 -0.034723517 0.09387865 -0.07109128 -0.007927257
-0.1785571 -0.07159125 -0.023984324 -0.07135728 0.051481105 0.19299127 -0.0067897486 -0.155206
-0.07282329 -0.09615868 -0.10418854 -0.10305727 0.010710322 0.04932503 -0.04291839 -0.20530741
-0.038889077 0.04401233 -0.15433538 -0.12883563 -0.043555364 -0.13558973 -0.18292797 -0.12999009
-0.075438954 0.08822726 -0.057896774 0.03757245 0.02418909 0.083626844 -0.10246222 -0.054194037
-0.14865196 0.033393122 -0.12525468 -0.09348403 0.043273315 -0.07760811 -0.013940919 -0.016108891
0.037536405 -0.06092607 -0.04115086 -0.1283963 -0.05443317 -0.024916459 0.076481305 0.032669246
-0.06561457 0.04211957 0.08821976 0.10047463 0.06735388 -0.10149817 0.07895142 0.020876624
-0.10049184 0.08132577 -0.039725684 0.07296773 -0.09023094 0.15985435 -0.019956686 -0.14739446
0.05761296 -0.06908243 0.037745025 -0.00014384053 0.0830667 -0.120485194 -0.06874684 0.012185463
0.095585875 -0.06581887 -0.05755512 0.07435368 -0.15754744 0.1179488 0.026693076 0.03792384
0.12764153 -0.028053213 -0.0063355607 -0.08949442 -0.13174225 -0.010146463 -0.05137364 0.10850491
0.17926261 -0.115481846 0.29317242 -0.09750514 -0.007298413 -0.100086264 -0.007353427 0.15564325
0.10724227 -0.075102806 -0.053552877 0.042772315 -0.013559259 0.005142643 -0.04868816 0.1586123
-0.036374316 0.031216085 -0.13649264 -0.09221116 0.058673188 -0.075908 -0.035777453 -0.0921971
-0.04054926 0.0010370519 -0.06457785 -0.057274386 -0.14705965 0.06250729 0.120745875 -0.1080021
-0.07154719 -0.0108540645 -0.05521575 0.051995456 0.04243867 0.027822666 0.22037162 -0.19700772
-0.08123183 -0.16582617 -0.006273141 -0.04680517 0.100120924 0.11139862 -0.12983936 -0.038443014
0.09435046 -0.12973458 -0.03901809 -0.018285643 -0.06068267 -0.03388049 -0.14955147 -0.1459466
-0.012292513 0.079788394 0.17599267 -0.041326664 -0.14910226 -0.007129235 -0.11589071 -0.195134

classifier.0.weight f4 [32, 64]
00000000: d5b6 5fbe 7d0a cf3d ee20 d03e af92 6bbe
00000010: fb01 193e 5965 373d d2dd c23d 861d 603e
00000020: a167 3cbe 1f53 2e3e 55c5 36bc 1dce 0c3e
00000030: a828 82bb 31ca 21bd 7dbc ca3a 3338 7ebe
00000040: 466d 72bd 5da0 07be 3ce8 2d3e 4d18 933d
00000050: ccb9 373d 23d9 30bc bfec 9b3d 469e fb3c
00000060: 8869 673e 13be a23e bcfc d1bd 59cc 3dbd
00000070: 1b51 89b8 a4c3 ad3b 52f5 f23d 0a3d 013e
00000080: d1b3 043d a69c 113e cece 88bd 1b21 c8bd
00000090: 02a9 8abe 301d 893e 6358 ba3e d4db 283e
000000a0: 6321 abbc 8ee9 133e 1e13 0bbd 4ed2 563c
000000b0: 615c 2b3c d1ac 8a3e 6399 80be c786 453c
000000c0: ae45 7bbe 018c b53d 99eb 813e 9508 803d
000000d0: 2b0e bc3d 7b19 b23d 0b9a 1e3d 862a 563d
000000e0: 04b4 303e 469b b4be 4563 b43e 16f9 29be
000000f0: bb7d 903c 3ac3 a63c b567 8b3d a09c d1bc
00000100: e4c5 fb3d f13a cdbd cb32 f3bd 1571 0d3e
00000110: 1f35 4dbd cc2d 823d b3f4 843d b020 98bd
00000120: 4625 8a3e dd27 ff3c cf08 f5bd 8c81 4dbe
00000130: cbc0 73bc 9a52 af3d 400b 00bb 6167 193e
00000140: 12b3 eeba 652b 813e 4a89 eebd 5898 2cbe
00000150: 3e32 b9bc f43f 4abe b27b 35bd 8e19 c33d
00000160: cd31 9abd 8419 12be 2abc 1fbb 2094 4bbd
00000170: b8a3 ecbd 0fed 90bc cc58 45bd 316c 95be
00000180: 8899 29bd 4b8a 98bd db91 24bd 1abc 363e
00000190: 4671 31bd a9bf 1ebe 34cd 96bc 2498 42be
000001a0: cea2 50bd 28aa 89bb e34d 943d 10d8 f0bd
000001b0: cd58 ec3d 13dd b5bc 3314 69bd 669d 84bd
000001c0: 72fc 193e 4a63 143d f1b4 17be 4b5f c5bd
000001d0: f5bd 223e a71a 50bd 3469 4d3c b896 ae3d
000001e0: b638 febb 3337 543e 6631 adbe 29f4 573d
000001f0: 640a d2bd 30f7 e9bd 8824 3ebe 4319 d3bd
00000200: ebb7 033e 3b5e 853c be19 80be 458d e0bc
00000210: b0a4 1abe 8477 493e 81b3 cc3c 23a9 12be
00000220: 0a48 cf3e 815d 11bd bdd3 93be 6f3e b8be
00000230: fec1 553b 6523 043e e1a1 0cbe 1fb3 8e3c
00000240: a6c0 73bd 7bdf a63e d2d0 68bd ba2a 8f3d
00000250: 6f31 95bd 47f6 68be 958b aebd c007 eebc
00000260: 49e1 19be fdf9 1a3d 06ed 5b3e 2d11 c23c
00000270: dd9d 113d 94f2 fa3c 2d46 dbbd 12b0 dbbe
00000280: e692 983d 6cef 303e cde5 b33a edbf 013d
00000290: 9b0b a73d 9fef 46be aeea afbd 383e 5cbe
000002a0: f830 0d3e efec a63d 60d7 613e fddf 2a3d
000002b0: 6a2a a33e bafd d93d f748 983e b1da cfbc
000002c0: 4d01 ac3d b018 c5bd 7a08 8a3d 20ab fcbd
000002d0: edb2 90ba 9122 11bc ca1c 0a3e 7fbb bf3c
000002e0: 2171 51be 969e d53e 79d4 4ebe 7909 de3d
000002f0: a4ad 34bd fbc8 0a3c 91af c7bd 0a25 97bc
00000300: f4ee d83e 669a 6abe 9ae6 81be 0644 8f3e
00000310: b9db 02bf 2fbd f3bd 0470 183e 9148 f2be
00000320: dda1 3d3f 2e6b 8dbe e5e6 f6be 8530 09bf
00000330: f163 88be bfee d93e 2e4a b4be 6cf6 3abe
00000340: 3708 e5be 4e23 033f 62d5 e7bd 1bc9 a63e
00000350: c343 e5be 3073 e6be 2700 92be 9f15 ab3e
00000360: d4b4 3bbd 76cb c5be 4e05 c63e c3bc a53e
00000370: 4e42 d8bd 2036 953c e402 3bbe dc35 01bf
00000380: b0bf 92be 5dc8 2abd 7ac5 cfbe 3aea 2f3e
00000390: 26a1 e53d fc35 76be cdd5 d5be 9490 cebe
000003a0: 9b30 a83e 5873 89bc d29b fb3e b9b3 58be
000003b0: ca51 2abc 800d c0bd 8d4a 02be 21bd 78be
000003c0: e4bf 923e f837 dcbd 16c1 5b3e 1cbe 42be
000003d0: 8c08 623e f824 3e3e 9357 c83e 31e3 713e
000003e0: 2d38 41bf 1a46 3c3f ea84 acbe 581f b53e
000003f0: 0a66 04be 4d57 a5be f083 d7be f0f9 903e
-0.21847089 0.10109422 0.40650123 -0.23005174 0.14942162 0.044774387 0.09514965 0.21886262
-0.18398906 0.17023896 -0.011155446 0.13750501 -0.0039721318 -0.039499465 0.0015467551 -0.24826126
-0.059186243 -0.13244767 0.16983122 0.071823694 0.044854924 -0.010793957 0.07613515 0.03071512
0.2259885 0.3178564 -0.102532834 -0.04633746 -6.547776e-05 0.005302863 0.118631974 0.12620941
0.03239805 0.14219913 -0.0668007 -0.09771939 -0.27082068 0.2678008 0.3639556 0.16490108
-0.020889943 0.14444563 -0.03395378 0.013111664 0.010459037 0.27084973 -0.25117025 0.012056059
-0.245383 0.08864594 0.2537506 0.06251637 0.0918239 0.08696266 0.038721126 0.052286647
0.1725617 -0.35274714 0.35231987 -0.16598925 0.017638078 0.020356763 0.0680689 -0.02558738
0.12293604 -0.10021008 -0.11874922 0.13812669 -0.05009949 0.06356391 0.06491985 -0.0742811
0.26981562 0.031146938 -0.11964571 -0.2006895 -0.014877508 0.08560677 -0.0019537956 0.14980842
-0.0018211326 0.2522842 -0.116472796 -0.1685499 -0.022606965 -0.19750959 -0.04430742 0.095263585
-0.0752903 -0.14267546 -0.002437363 -0.04970181 -0.115546644 -0.017691163 -0.048180386 -0.29184106
-0.041406184 -0.07448252 -0.04017816 0.17845193 -0.043320917 -0.155028 -0.018408395 -0.1900335
-0.050936513 -0.0042011924 0.07241418 -0.11759961 0.11540375 -0.022200143 -0.05690403 -0.06475334
0.15037706 0.036227502 -0.14815117 -0.09637316 0.15892775 -0.050806668 0.012537289 0.08524841
-0.0077582253 0.20724182 -0.3382675 0.052723084 -0.10255888 -0.114241004 -0.18568623 -0.10307553
0.12863128 0.016280284 -0.2501964 -0.027411113 -0.15101886 0.19674498 0.024987938 -0.14322333
0.4048465 -0.035489563 -0.2887248 -0.35985133 0.003261685 0.12904127 -0.13733627 0.017419396
-0.059509896 0.32592377 -0.05683977 0.06990571 -0.07284819 -0.22750197 -0.08522717 -0.02905643
-0.15027346 0.037836064 0.21477136 0.02368983 0.03555094 0.030633248 -0.10706744 -0.42907768
0.07449894 0.17278832 0.0013725102 0.031677175 0.081565104 -0.19427346 -0.085896835 -0.2150811
0.13788211 0.0815066 0.22054815 0.041717518 0.31868297 0.106440976 0.29743168 -0.025372835
0.083986856 -0.096238494 0.06739898 -0.12337327 -0.0011039652 -0.008858339 0.13487545 0.023404835
-0.20453312 0.41722554 -0.2019824 0.108416505 -0.04411091 0.008470769 -0.097502835 -0.018450279
0.42369807 -0.22910461 -0.25371248 0.27981585 -0.5111652 -0.11901318 0.1488648 -0.4732099
0.7407511 -0.27620834 -0.48223034 -0.5358966 -0.2663875 0.4256496 -0.35212845 -0.18258065
-0.4473283 0.51225746 -0.113199964 0.32575306 -0.4477826 -0.45009756 -0.2851574 0.33414933
-0.045826748 -0.3863179 0.38675922 0.32370576 -0.105595216 0.018214285 -0.18262821 -0.5047281
-0.2866187 -0.041694988 -0.4058035 0.17179194 0.11212377 -0.24044031 -0.4176468 -0.4034468
0.32849583 -0.016778633 0.4914232 -0.21162309 -0.010395477 -0.09377575 -0.12723751 -0.24290897
0.28662026 -0.10752863 0.21460375 -0.19017833 0.22073573 0.1856879 0.39129314 0.23621823
-0.7547634 0.73544466 -0.33695155 0.35375476 -0.1292955 -0.32293168 -0.42092848 0.28315687

classifier.0.bias f4 [32]
00000000: 63a7 713e d453 e83d 5ec1 5bbd 7fc0 f13d
00000010: 940e 47be 7b3f 0f3e 6aff 813d 09f5 523c
00000020: ac11 763d 7bc0 0b3e 20d5 383e 5fcf 753d
00000030: 1b3b 2bbd ad88 713e 08c5 633e d982 be3c
00000040: f1c1 be3d d659 43bd 6edf 2e3d 1d31 033a
00000050: 9e79 373e 22bf e23d bfec 8fbd 9b65 b9bd
00000060: 30db 043e fc25 cf3c 671e 8f3d 5f70 e6bc
00000070: 9cf8 ecbd 2e12 eb3d 8f94 1a3e 41e1 993d
0.23599009 0.11344114 -0.053651206 0.11804294 -0.19439155 0.1398906 0.063475445 0.012875804
0.060075447 0.13647644 0.1805005 0.060012218 -0.041804414 0.23587294 0.2224313 0.023255752
0.09314335 -0.047693096 0.042693548 0.0005004572 0.17917487 0.11071612 -0.070275776 -0.09052583
0.12974238 0.025286667 0.06988221 -0.028129755 -0.11570856 0.11478077 0.15095733 0.07513667

classifier.2.weight f4 [2, 32]
00000000: 5b4b a5be 7950 c2bd d8d3 663e f880 d83e
00000010: 9a14 8dbe b1c9 bfbe 0df8 c83e 7e87 bd3a
00000020: 4cde 1f3e cf53 aebe 5835 a1be 45c6 283e
00000030: 41b3 393e 4e2e 22be fa4a cfbe ae83 8c3e
00000040: 798b 123c a89e c43d 9905 413e 8c9c 753c
00000050: 02dd a73e 09f4 acbe 74ae 153f 5e5c 723d
00000060: 88c6 92be 05f6 843e ac3b 5fbb 67e2 ea3d
00000070: 0127 eebd 86a6 c7be ab17 2cbe e068 eb3d
00000080: 8fbb d63e f177 57be 508a 61be ede7 fcbe
00000090: a7f8 483e 5e70 a93e c970 e8be 0495 4abe
000000a0: 9462 c63d a45d 0d3e 549d 843e b55f debe
000000b0: e1b3 443d ccbc b13e 7c1d 653e 03a3 9abe
000000c0: 5081 ddbd 5ec5 2ebe 51a8 33be a909 5cbe
000000d0: 1e38 fdbd 24e4 7a3d 212e 02bf e962 eebc
000000e0: 3523 a13e 7613 14be 226c 98be b075 dbbc
000000f0: e771 14be 29df b93e 24e3 783e d0b7 2cbe
-0.32284054 -0.09488005 0.2254175 0.42285895 -0.2755478 -0.37458566 0.39251748 0.0014459935
0.15612143 -0.34048316 -0.3148601 0.16481884 0.18134786 -0.15837976 -0.4048689 0.27444214
0.008944386 0.09600574 0.18849792 0.014990937 0.32785803 -0.33779934 0.5846932 0.05917012
-0.28667092 0.25968948 -0.0034062667 0.11468964 -0.11628533 -0.38994235 -0.16805904 0.11494613
0.4193997 -0.21041848 -0.22025418 -0.49395695 0.19626103 0.33093542 -0.45398548 -0.19783407
0.09686771 0.13805252 0.25901282 -0.43432394 0.04802311 0.34714353 0.22374529 -0.30202493
-0.1081568 -0.17067477 -0.17544676 -0.2148806 -0.12364219 0.061252728 -0.5085164 -0.029099898
0.31472173 -0.14460549 -0.2977 -0.026789516 -0.14496575 0.3630307 0.24305397 -0.16866994

classifier.2.bias f4 [2]
00000000: 6031 efbd f45e ebbd
-0.116793394 -0.1149272
