src/DARPA/models/pretrained/phase_3.pth (torch, 193933 bytes, 7 tensors)

lstm.weight_ih_l0 f4 [256, 112]
-0.11795073 0.008413894 0.0049759247 -0.09115766 0.10069156 0.009807453 -0.061771937 0.009028937
0.051994596 -0.052960403 -0.004006845 -0.20876867 0.1515381 0.1839022 0.11703616 0.42800468
0.68638784 0.035135966 0.42149124 0.4816593 -0.07480156 1.0399489 0.41030926 0.11067888
0.38009906 0.17123015 0.39857885 0.19639377 -0.050545085 0.41207588 0.26873216 -0.0015435948
0.107057504 0.18721382 -0.27222994 0.03022718 0.0448514 0.012189544 0.1368163 0.2143719
-0.063294336 0.16763905 0.15485348 -0.119985074 0.67216396 -0.009095314 0.1253647 0.15134323
0.14389768 0.2616241 0.0017171204 0.05591817 0.09461436 -0.07776368 0.055609822 0.1253125
0.127285 -0.031521335 0.32445028 0.31566027 0.65275013 0.11693356 0.20194055 0.12016228
0.022021085 0.31121185 0.3322371 0.120342426 0.063585386 0.24445136 0.4872832 0.35097402
0.003791844 -0.056362867 0.1404549 0.16457126 0.0025666112 0.102556095 0.41717476 0.04579758
0.36716905 -0.060235973 0.22129436 0.08489926 0.35386375 0.16431087 0.31888163 0.10091257
-0.1416115 0.053881343 -0.11105202 0.25752413 -0.11257065 0.9630448 0.20444983 0.7471434
-0.05070441 0.12857634 0.048185106 0.05570594 0.009786171 0.26392213 0.26366824 0.21983819
0.42527202 0.081655264 0.30452645 0.1922122 -0.046127487 0.016475456 -0.10235687 -0.10589977
0.11034205 -0.3875405 -0.017175965 -0.005052641 0.03747766 -0.018771464 -0.024526156 -0.012272944
0.18496725 -0.013649619 -0.03103254 0.22229338 0.08089674 -0.670199 -0.39261234 0.3521717
0.40864554 -0.24312806 0.33161116 0.4027463 0.055606164 0.07224975 -0.1283621 -0.08003949
-0.19918883 0.2601652 0.2959044 0.38724554 -0.2761326 0.40920377 0.013611119 0.15110438
-0.026768005 0.0064390223 0.29379082 -0.38014275 -0.14199659 0.007029691 0.30682492 0.42695957
-0.07556632 0.049782526 0.13481744 -0.15822518 0.101501726 0.049073108 -0.20222937 0.052745968
-0.04764096 0.009915641 0.11884992 -0.040012524 0.1131489 -0.031239295 -0.07286379 0.19607075
0.1441048 0.16716935 0.3898609 0.15710686 0.43045357 0.1618854 -0.32394037 0.053176545
0.008050341 0.1708677 0.2590746 0.040713347 -0.08939146 0.33069617 0.0033246481 0.14934939
-0.12723191 -0.08013716 -0.08467606 0.126597 -0.1154972 -0.04432509 -0.22582714 0.18465923
-0.1800703 0.016858157 -0.03537619 -0.55623096 0.19609317 0.03931676 0.07898531 -0.019544238
0.24852453 -0.022655932 0.08899553 -0.13709772 0.45803463 -0.018662028 0.045209527 0.06502008
0.014171237 0.010090567 0.270686 -0.018413456 -0.020255124 -0.028158115 0.032300826 0.032131877
0.45836854 0.052480154 0.007999194 -0.14831592 0.13592188 0.13299614 -0.020887727 0.040822186
0.013866346 -0.04373192 -0.035651196 -0.056056753 -0.122863196 -0.12350293 -0.14316888 -0.014921883
0.3184223 -0.12554574 -0.04391686 0.14391404 0.28942555 -0.23968454 -0.21428782 0.33359966
1.0460417 -0.19025229 1.1069278 0.3949725 -0.031516124 1.3405637 0.15787725 -0.015366279
-0.079280615 0.04784772 0.8122659 -0.049316302 -0.09475392 0.3948633 0.10684675 -0.022934208
00000000: 2790 f1bd 6eda 093c 150d a33b deb0 babd
00000010: 6037 ce3d 70af 203c 9204 7dbd 1bee 133c
00000020: 49f8 543d 02ed 58bd da4b 83bb 74c7 55be
00000030: ce2c 1b3e dc50 3c3e a7b0 ef3d 6e23 db3e
00000040: 1db7 2f3f bbea 0f3d b3cd d73e 0c9c f63e
00000050: 8f31 99bd 0c1d 853f 0e14 d23e 9cab e23d
00000060: 589c c23e f556 2f3e 8712 cc3e 731b 493e
00000070: 5d08 4fbd 9cfb d23e 4397 893e 7252 caba
00000080: f740 db3d fbb4 3f3e b961 8bbe fe9e f73c
00000090: 1ab6 373d a7b6 473c 9219 0c3e 4f84 5b3e
000000a0: 76a0 81bd 92a9 2b3e e991 1e3e bcba f5bd
000000b0: f012 2c3f 8304 15bc 9b5f 003e b8f9 1a3e
000000c0: ea59 133e 98f3 853e 0011 e13a 730a 653d
000000d0: 2cc5 c13d 9042 9fbd 20c7 633d ec51 003e
000000e0: 0057 023e 841c 01bd 591e a63e 399e a13e
000000f0: a21a 273f dd7a ef3d 81c9 4e3e a417 f63d
00000100: 9065 b43c 2957 9f3e fb1a aa3e 1776 f63d
00000110: 0e39 823d 7551 7a3e 2f7d f93e deb2 b33e
00000120: 9680 783b c0dc 66bd 69d3 0f3e 5e85 283e
00000130: 9734 283b ee08 d23d ee97 d53e 3e96 3b3d
00000140: 95fd bb3e ffb9 76bd fd9a 623e aadf ad3d
00000150: a12d b53e 1c41 283e 7444 a33e 40ab ce3d
00000160: 9b02 11be afb2 5c3d 3e6f e3bd 34da 833e
00000170: 718b e6bd 1b8a 763f 4c5b 513e ca44 3f3f
00000180: 6daf 4fbd 84a9 033e bf5d 453d e92b 643d
00000190: 2d56 203c cd20 873e 86ff 863e 431d 613e
000001a0: 41bd d93e e03a a73d e4ea 9b3e 46d3 443e
000001b0: 2df0 3cbd 89f7 863c 7ba0 d1bd fbe1 d8bd
000001c0: 03fb e13d b56b c6be 9cb4 8cbc a090 a5bb
000001d0: 2d82 193d 9dc6 99bc 14eb c8bc 7514 49bc
000001e0: 0e68 3d3e a7a2 5fbc f437 febc e0a0 633e
000001f0: 31ad a53d 2992 2bbf 7c04 c9be d94f b43e
00000200: fd39 d13e 90f6 78be f0c8 a93e c334 ce3e
00000210: 4ac3 633d adf7 933d 5b71 03be beeb a3bd
00000220: 28f8 4bbe 6034 853e c880 973e 0c45 c63e
00000230: 4161 8dbe 2883 d13e 2c01 5f3c 1bbb 1a3e
00000240: 9348 dbbc 6ffe d23b c06b 963e 12a2 c2be
00000250: 8e67 11be 5259 e63b 2818 9d3e 729a da3e
00000260: 84c2 9abd c3e8 4b3d 950d 0a3e c805 22be
00000270: 23e0 cf3d e200 493d 3715 4fbe 280c 583d
00000280: 2b23 43bd 3675 223c 9667 f33d 2ce4 23bd
00000290: 9cba e73d 8de9 ffbc 9c39 95bd c5c6 483e
000002a0: 3590 133e 712e 2b3e d99b c73e 9fe0 203e
000002b0: 6964 dc3e 49c5 253e 83db a5be a6cf 593d
000002c0: 94e5 033c f1f7 2e3e 6da5 843e 0ac3 263d
000002d0: df12 b7bd 0251 a93e 57e2 593b 0cef 183e
000002e0: 1549 02be f41e a4bd a46a adbd a5a2 013e
000002f0: cc89 ecbd 3a8e 35bd 3b3f 67be 4f17 3d3e
00000300: 5964 38be 1e1a 8a3c a0e6 10bd 2765 0ebf
00000310: a6cc 483e 9c0a 213d 0dc3 a13d 3d1b a0bc
00000320: 377d 7e3e ef98 b9bc 4a43 b63d 5863 0cbe
00000330: 8483 ea3e 1ce1 98bc a02d 393d 3f29 853d
00000340: 7a2e 683c e852 253c 5b97 8a3e d1d7 96bc
00000350: 13ee a5bc d9ab e6bc df4d 043d b79c 033d
00000360: 48af ea3e 6ef5 563d 0d0f 033c 21e0 17be
00000370: 1b2f 0b3e 2430 083e bd1c abbc 2a35 273d
00000380: ac2f 633c 3e20 33bd fd06 12bd c49b 65bd
00000390: b39f fbbd 1bef fcbd dd9a 12be ea7a 74bc
000003a0: 3f08 a33e 108f 00be 2ae2 33bd 345e 133e
000003b0: 962f 943e dd6f 75be 446e 5bbe 93cd aa3e
000003c0: b2e4 853f 7fd1 42be cfaf 8d3f d639 ca3e
000003d0: 0d17 01bd 9797 ab3f 93aa 213e d8c2 7bbc
000003e0: e05d a2bd f9fb 433d a8f0 4f3f e4ff 49bd
000003f0: 580e c2bd 862b ca3e 78d2 da3d 85e0 bbbc

lstm.weight_hh_l0 f4 [256, 64]
0.024449598 0.020403987 -0.015222339 -0.16250876 0.052634988 0.047856342 0.003760166 0.02031338
3.6412155e-05 -0.003529868 -0.072096504 -0.15135877 0.09650597 0.02579006 -0.007732519 0.008279292
-0.019932758 -0.009107025 0.03833061 -0.20302631 -0.025141757 0.046204776 0.15422563 0.060686182
0.17103799 0.085757375 0.0002881388 0.016464157 0.093545206 -0.06876614 0.20976542 0.23483998
-0.03212394 -0.06964239 -0.0064624865 -0.087322205 -0.20054682 0.07663913 0.18016519 0.083229214
0.00807519 0.039391514 0.094896525 0.06500068 0.087907456 0.032938384 -0.102584235 0.044909727
-0.081036255 -0.2856975 -0.034797814 -0.0048403786 -0.089032106 -0.06556043 0.0046293284 -0.10607867
-0.20086521 -0.049408358 -0.014279652 0.17885303 -0.13475786 0.042664632 -0.11998542 0.2211022
-0.16783607 -0.057363193 0.023696046 0.08827844 -0.14960779 0.071766526 0.073769316 -0.043850992
0.00087594904 0.09056976 -0.11901838 0.15698332 -0.13876905 0.075700045 0.008477136 -0.19478776
-0.18126145 -0.047194265 -0.03381312 -0.1668965 0.041174192 0.06479571 -0.0046366868 -0.19802552
0.006978107 -0.19163772 0.12140065 0.10493267 -0.024260305 0.0054804743 0.056477197 0.07238469
-0.25051883 -0.07768675 0.117602944 -0.13049768 -0.019873708 0.010411313 -0.18014278 -0.10274546
0.08560926 -0.030444885 -0.08403154 0.16582252 -0.20252727 0.021695103 -0.09550049 0.08957027
0.011183393 0.17873357 0.07963055 -0.19447082 -0.17311823 -0.14390792 0.13958216 -0.17381525
0.03876997 -0.24717128 0.021848094 -0.14166829 0.01580471 0.104459725 0.1118849 -0.105506256
-0.12967612 -0.05029525 -0.047759153 -0.15284842 0.110659525 0.06563006 -0.13710757 -0.04726999
-0.06446126 -0.025818042 0.04011079 -0.1010717 0.012660861 -0.03883316 -0.0062394678 0.052844994
0.017493358 -0.023674209 -0.16145302 0.046780992 0.028197626 0.013535281 0.10406694 0.033551782
0.12819213 0.08879853 0.14077555 0.06939665 -0.03356025 0.15528993 0.055304576 0.021721862
0.06769722 0.0048866454 0.07719499 -0.10405199 -0.028864726 -0.035765056 -0.098368846 0.09966693
-0.09857962 -0.10315302 -0.000407295 0.025817355 -0.20571657 -0.02163441 -0.057475477 0.043152746
-0.10815426 0.19332884 -0.025000649 0.057602957 -0.08650182 -0.05849836 -0.0068963594 -0.039227355
0.04038071 -0.11665449 -0.017421916 0.039142888 0.07562861 0.07175538 -0.07645595 0.07401526
0.00635352 -0.101996385 -0.22380021 0.014791925 -0.17556736 0.030283678 -0.10133545 -0.03362617
0.14185451 0.08943121 -0.02080959 -0.11156598 0.103933945 -0.011741598 0.16130142 -0.072363235
-0.18408269 0.036691938 -0.08254287 -0.0055934703 0.038267493 0.13023709 0.0099482015 0.017923137
-0.34565502 -0.14205605 0.22854449 0.06341855 -0.0903656 -0.03788267 -0.015312313 0.15532295
-0.09620027 -0.088896826 -0.17203206 0.0152584715 -0.013314299 0.2436473 -0.0072064023 0.035106752
0.07322621 0.050443113 0.17309384 0.061642326 -0.12765852 -0.05454143 -0.029606052 0.14206159
-0.02711143 0.17701268 -0.036797237 -0.22552657 -0.19402483 -0.11309709 0.08264375 -0.008217117
0.08513133 -0.12736955 0.16057472 0.0037305956 0.034149967 0.19313677 -0.23025882 -0.115981385
00000000: 864a c83c 4326 a73c 1e67 79bc b268 26be
00000010: c997 573d 0305 443d 1e6d 763b 3f68 a63c
00000020: 41b9 1838 5c55 67bb 55a7 93bd cbfd 1abe
00000030: eca4 c53d ad45 d33c 1261 fdbb dea5 073c
00000040: 064a a3bc a235 15bc 8f00 1d3d 21e6 4fbe
00000050: 16f6 cdbc 3841 3d3d 53ed 1d3e 1392 783d
00000060: 9524 2f3e 90a1 af3d 5611 9739 d7df 863c
00000070: a194 bf3d 43d5 8cbd bfcc 563e e479 703e
00000080: 6494 03bd aba0 8ebd 44c3 d3bb fcd5 b2bd
00000090: 255c 4dbe faf4 9c3d 397d 383e 1474 aa3d
000000a0: cd4d 043c ff58 213d 1c59 c23d 141f 853d
000000b0: d308 b43d 66ea 063d af17 d2bd 43f3 373d
000000c0: 56f6 a5bd f146 92be 2788 0ebd 0a9c 9ebb
000000d0: 7756 b6bd 8c44 86bd 9fb1 973b c63f d9bd
000000e0: 9caf 4dbe 6b60 4abd 34f5 69bc 4025 373e
000000f0: f7fd 09be 1cc1 2e3d eaba f5bd 9d68 623e
00000100: 38dd 2bbe abf5 6abd 361e c23c 54cb b43d
00000110: c932 19be 54fa 923d 5e14 973d 199d 33bd
00000120: f29f 653a a37c b93d e9bf f3bd 3cc0 203e
00000130: 7919 0ebe a008 9b3d afe3 0a3c 7176 47be
00000140: 9a9c 39be c64e 41bd a07f 0abd ebe6 2abe
00000150: 45a6 283d 9db3 843d 59ef 97bb 34c7 4abe
00000160: 9ba8 e43b ae3c 44be e7a0 f83d f1e6 d63d
00000170: 8cbd c6bc 8d95 b33b a254 673d 6d3e 943d
00000180: 0144 80be 3b1a 9fbd d0d9 f03d 2fa1 05be
00000190: 30ce a2bc 3694 2a3c 5977 38be 366c d2bd
000001a0: e853 af3d 8d67 f9bc ba18 acbd 61cd 293e
000001b0: 4f63 4fbe eeb9 b13c c395 c3bd 9e70 b73d
000001c0: 8d3a 373c ef05 373e 5815 a33d 5c23 47be
000001d0: e845 31be 995c 13be a0ee 0e3e a0fc 31be
000001e0: 43cd 1e3d 781a 7dbe c6fa b23c 7e11 11be
000001f0: e178 813c fbee d53d e923 e53d aa13 d8bd
00000200: d1c9 04be 6402 4ebd 1a9f 43bd 4c84 1cbe
00000210: 76a1 e23d 0e69 863d ed65 0cbe 2d9e 41bd
00000220: 4404 84bd 5c80 d3bc 364b 243d aefe cebd
00000230: 806f 4f3c 850f 1fbd 7374 ccbb fe73 583d
00000240: 3b4e 8f3c 6af0 c1bc f153 25be 6d9d 3f3d
00000250: b5fe e63c 15c3 5d3c 0c21 d53d 986d 093d
00000260: cc44 033e 01dc b53d 7727 103e d51f 8e3d
00000270: 7976 09bd 5304 1f3e 0d87 623d 0cf2 b13c
00000280: d7a4 8a3d 2720 a03b 6818 9e3d 3619 d5bd
00000290: b875 ecbc 617e 12bd 9b75 c9bd 2d1e cc3d
000002a0: 1de4 c9bd e441 d3bd 368a d5b9 eb7e d33c
000002b0: 5da7 52be a53a b1bc 686b 6bbd efc0 303d
000002c0: fb7f ddbd fff7 453e 29ce ccbc 14f1 6b3d
000002d0: de27 b1bd fa9b 6fbd dbfa e1bb ddac 20bd
000002e0: 3e66 253d 8de8 eebd 68b8 8ebc 4b54 203d
000002f0: 2ce3 9a3d 7cf4 923d f094 9cbd 5095 973d
00000300: 3031 d03b 7be3 d0bd e22b 65be d559 723c
00000310: eec7 33be 7a15 f83c f688 cfbd 98bb 09bd
00000320: 4f42 113e b627 b73d e078 aabc b47c e4bd
00000330: 52db d43d d55f 40bc 332c 253e 2d33 94bd
00000340: 2c80 3cbe 494a 163d 3c0c a9bd 6e49 b7bb
00000350: 60be 1c3d df5c 053e c8fd 223c 8bd3 923c
00000360: b2f9 b0be 2477 11be 9107 6a3e 96e1 813d
00000370: 9a11 b9bd dc2a 1bbd 7fe0 7abc fb0c 1f3e
00000380: a604 c5bd 8a0f b6bd 2c29 30be abfe 793c
00000390: 3824 5abc ae7e 793e af23 ecbb 19cc 0f3d
000003a0: a0f7 953d 709d 4e3d 833f 313e aa7c 7c3d
000003b0: eab8 02be d666 5fbd 6488 f2bc 9878 113e
000003c0: ca18 debc d042 353e b3b8 16bd 70f0 66be
000003d0: 72ae 46be 729f e7bd 2041 a93d 16a1 06bc
000003e0: 5659 ae3d 2a6d 02be b36d 243e 027d 743b
000003f0: d6e0 0b3d a5c5 453e f8c8 6bbe a687 edbd

lstm.bias_ih_l0 f4 [256]
-0.14851406 0.19173184 0.13417624 -0.14462698 0.13499811 0.07442526 -0.13000652 0.089516856
-0.11248331 0.22746299 -0.13848223 -0.087291785 -0.03554377 0.06252652 0.24681106 0.250277
0.06176354 0.068758674 -0.014717553 -0.11088554 0.058179937 0.14775197 -0.108406715 -0.056026082
0.12912758 -0.056697726 -0.08667247 0.084235296 -0.07995966 0.04391226 -0.044101212 0.1271862
0.26829213 -0.2326775 -0.011039583 0.07916368 0.108957306 -0.076554984 0.09212126 0.0781011
-0.037402697 0.0020176538 -0.0021397998 0.10361452 -0.12764642 0.0841361 0.118186936 -0.20819955
0.05760203 -0.12334448 0.10412673 0.12647451 -0.035114676 -0.0569992 0.23166904 -0.20724986
0.18838356 0.079844706 -0.055824947 -0.033811424 -0.06748149 -0.054412503 0.042358223 0.14148457
-0.13024446 -0.07396913 -0.19664808 -0.009332277 0.029156243 0.10091168 -0.18645954 0.1461656
0.0917529 0.10465423 -0.10985278 -0.12677386 0.04728693 -0.17685747 0.2963328 0.24164234
-0.064025655 -0.022795042 0.031430755 0.021973858 0.08194432 0.032381665 -0.11488017 -0.10441957
0.1834455 -0.08887345 -0.007966887 0.15846719 -0.0057676155 -0.016035788 0.09925471 -0.05065117
-0.19684598 -0.10763693 0.036751572 -0.15476525 0.1330704 0.09098903 0.13219395 0.07587943
-0.11563002 0.01974577 0.23595901 0.0406956 -0.1667467 0.16541387 0.06651745 -0.048135813
-0.11026712 0.06216342 -0.053473223 0.15440291 -0.0034749699 -0.040659536 -0.13997774 -0.15610225
0.035487134 0.023133777 -0.054250557 0.028833952 -0.15340757 -0.108086385 0.13400936 -0.09179127
-0.0919146 0.038632806 0.032539677 -0.17944849 0.14587656 0.014981175 0.05222584 0.07121218
0.021351146 0.18144095 0.07598973 0.050690986 0.018622834 -0.062400248 -0.0008185726 -0.09833655
0.058874946 -0.10733223 0.029879399 0.089262225 -0.023868429 -0.059153147 0.12370975 0.08606625
-0.030970361 -0.075154155 0.14099017 0.16654733 -0.12856723 -0.00033925392 -0.13199933 -0.08273156
0.08052908 0.057049826 0.08390705 0.124360435 0.060390446 0.02201348 -0.17118086 0.005937331
-0.012870106 0.0021838194 -0.16428511 0.0714157 0.1465786 -0.06193095 0.09976156 0.024152381
-0.1254148 -0.009160307 -0.018865375 0.14466836 0.033264697 -0.008778073 -0.14033815 0.08736357
0.054616407 0.07801181 0.00028470997 -0.032849528 0.06716367 -0.04764172 0.046843793 0.031979617
-0.050720923 0.13472708 0.13420175 0.033662327 -0.0040707574 -0.049959853 -0.060752857 -0.08780491
0.016997064 0.048297256 -0.19041058 0.03862402 -0.030941324 0.064737484 0.20185174 0.041663308
0.038072437 0.046625137 0.060948096 -0.12534526 -0.09234265 0.21468507 -0.0042555886 -0.10801133
0.031558115 -0.06525491 -0.06555598 0.022320164 -0.020429255 0.07081556 0.0025048333 -0.09799192
0.11222896 -0.01130832 -0.05400082 0.046449117 0.080695175 0.08286167 0.041836727 -0.016507816
0.019489879 0.04290671 -0.01315764 0.06733504 -0.054333854 0.06491744 0.22904013 -0.07882243
0.114789985 -0.09995232 0.06584694 0.113377355 -0.06928508 -0.029197047 0.25119466 0.078857504
0.14082982 0.09945542 0.18849419 0.06738618 -0.113404326 0.011190054 0.050764672 0.04950762
00000000: 1214 18be 5a55 443e 7f65 093e 1819 14be
00000010: f23c 0a3e 456c 983d 6e20 05be 9d54 b73d
00000020: a65d e6bd 0fec 683e 49ce 0dbe 09c6 b2bd
00000030: 5896 11bd e70d 803d 0abc 7c3e 4f24 803e
00000040: c4fb 7c3d 59d1 8c3d e421 71bc f517 e3bd
00000050: 164e 6e3d 4b4c 173e 5704 debd 9b7b 65bd
00000060: 053a 043e e03b 68bd 5681 b1bd 8e83 ac3d
00000070: e4c1 a3bd 58dd 333d 79a3 34bd 193d 023e
00000080: 965d 893e 0343 6ebe 5edf 34bc 9120 a23d
00000090: 0225 df3d dcc8 9cbd 12aa bc3d 78f3 9f3d
000000a0: 9233 19bd 9d3a 043b e23b 0cbb d933 d43d
000000b0: beb5 02be 8c4f ac3d fe0b f23d 4332 55be
000000c0: 1bf0 6b3d 089c fcbd 6540 d53d 8982 013e
000000d0: 68d4 0fbd fe77 69bd a63a 6d3e 4f39 54be
000000e0: 9fe7 403e 9f85 a33d b3a8 64bd d97d 0abd
000000f0: bc33 8abd a5df 5ebd d17f 2d3d 55e1 103e
00000100: ce5e 05be 217d 97bd 1d5e 49be 68e6 18bc
00000110: 13d9 ee3c c8aa ce3d 40ef 3ebe 6fac 153e
00000120: f2e8 bb3d f554 d63d 7ffa e0bd 02d1 01be
00000130: f1af 413d 201a 35be efb8 973e 1771 773e
00000140: e21f 83bd abbc babc 89bd 003d 8502 b43c
00000150: 6cd2 a73d a3a2 043d 4b46 ebbd edd9 d5bd
00000160: 23d9 3b3e 4903 b6bd 8c87 02bc 3945 223e
00000170: 44fe bcbb 7c5d 83bc 0e46 cb3d 9a77 4fbd
00000180: fe91 49be c070 dcbd d188 163d c87a 1ebe
00000190: 9b43 083e 7558 ba3d da5d 073e ad66 9b3d
000001a0: 6fcf ecbd e2c1 a13c 3d9f 713e 6eb0 263d
000001b0: a6bf 2abe 4162 293e 4d3a 883d 0f2a 45bd
000001c0: bad3 e1bd 129f 7e3d bd06 5bbd cc1b 1e3e
000001d0: 52bc 63bb 9d8a 26bd 5356 0fbe 45d9 1fbe
000001e0: f55a 113d 0c83 bd3c d535 5ebd 2e35 ec3c
000001f0: e016 1dbe 655c ddbd c039 093e 10fd bbbd
00000200: b93d bcbd 6f3d 1e3d 5348 053d 58c1 37be
00000210: aa60 153e 9a73 753c c3ea 553d b1d7 913d
00000220: 99e8 ae3c a8cb 393e 81a0 9b3d 5aa1 4f3d
00000230: ea8e 983c 6797 7fbd 7a95 56ba ac64 c9bd
00000240: db26 713d 00d1 dbbd a4c5 f43c 1dcf b63d
00000250: b987 c3bc 924a 72bd 8a5b fd3d 8143 b03d
00000260: 8eb5 fdbc 6cea 99bd ba5f 103e 628b 2a3e
00000270: 21a7 03be e4dd b1b9 d52a 07be 2a6f a9bd
00000280: 6eec a43d 14ad 693d 76d7 ab3d afb0 fe3d
00000290: f95b 773d 9d55 b43c 094a 2fbe f18d c23b
000002a0: 23dd 52bc 691e 0f3b 5b3a 28be 6542 923d
000002b0: b318 163e 4fab 7dbd ca4f cc3d 37db c53c
000002c0: bd6c 00be 1d15 16bc 8f8b 9abc f123 143e
000002d0: 9040 083d e8d1 0fbc ceb4 0fbe aceb b23d
000002e0: 74b5 5f3d a8c4 9f3d 2045 9539 3a8d 06bd
000002f0: 1b8d 893d f723 43bd 47df 3f3d 0ffd 023d
00000300: bec0 4fbd e5f5 093e 2f6c 093e 82e1 093d
00000310: fd63 85bb b4a2 4cbd fdd7 78bd 10d3 b3bd
00000320: 6d3d 8b3c 58d3 453d fefa 42be 3834 1e3d
00000330: a978 fdbc 1695 843d 39b2 4e3e 25a7 2a3d
00000340: d8f1 1b3d 00fa 3e3d b6a4 793d 825a 00be
00000350: 251e bdbd 67d6 5b3e 7772 8bbb 0b35 ddbd
00000360: 1543 013d 5ea4 85bd 3742 86bd c7d8 b63c
00000370: 415b a7bc c007 913d 2128 243b fdaf c8bd
00000380: 4cd8 e53d 8846 39bc f72f 5dbd 6e41 3e3d
00000390: 8343 a53d 61b3 a93d fd5c 2b3d 663b 87bc
000003a0: 3da9 9f3c f2be 2f3d 2493 57bc f4e6 893d
000003b0: 2d8d 5ebd 6ff3 843d 7f89 6a3e a76d a1bd
000003c0: 0317 eb3d cdb3 ccbd c3da 863d 6332 e83d
000003d0: 56e5 8dbd a52e efbc 969c 803e 0b80 a13d
000003e0: b135 103e 49af cb3d 9f04 413e c401 8a3d
000003f0: 8740 e8bd 7d56 373c 9eee 4f3d 81c8 4a3d

lstm.bias_hh_l0 f4 [256]
-0.15755598 -0.015587304 -0.092895694 -0.077359475 0.120592035 -0.024015026 -0.20618905 0.033887684
-0.16939212 0.16114518 -0.13258557 0.07979957 -0.07336198 -0.09199815 0.31007323 0.029429292
0.10903049 -0.09746212 0.036670618 -0.026474161 0.064733155 0.024140049 -0.10248175 -0.10799432
0.036891308 -0.014917537 -0.062168427 0.18514323 0.07454836 -0.09622976 0.06092371 0.18329097
0.2703572 -0.13235597 0.06259162 -0.01912744 0.12573148 -0.11799508 -0.0019709803 0.02099996
0.011521463 0.076109745 0.045469753 -0.05360029 -0.085290134 -0.05212657 0.1369634 -0.20154683
0.20145066 0.094530545 0.11914102 0.14299136 0.053141028 0.07022801 0.24791098 -0.10983193
0.061488688 -0.064598635 0.15249807 -0.01811219 -0.17696398 -0.03926678 0.045101922 0.10783026
-0.08228956 -0.0127611365 -0.1885236 -0.10678125 -0.0038713804 0.12711798 -0.09181824 0.021601303
0.019761933 -0.0467246 -0.03379455 -0.044177525 -0.06867977 -0.22905898 0.18244678 0.108809866
-0.078645036 0.03444033 0.12754634 0.032039963 -0.06874719 0.034197237 -0.010124655 -0.07199658
0.18213817 0.025542732 -0.03186099 0.15609418 -0.118214376 -0.039653514 0.012545943 0.06544624
0.006312149 -0.1774617 -0.061567534 -0.08830339 0.0321201 0.1026164 -0.027677687 0.0842686
-0.032691505 -0.105020866 0.042266615 -0.05816642 -0.13711782 0.12892488 -0.06402685 -0.08831712
-0.09089338 -0.10212472 0.07759189 -0.057929162 0.034067098 0.07363181 -0.026110498 -0.03226529
0.037760716 -0.05500006 -0.0016611547 -0.08666332 -0.18748324 -0.024028074 0.09931567 -0.16429855
0.0010286055 0.098705865 -0.07290087 -0.05045801 -0.020059083 -0.17839499 -0.043422535 0.01669268
0.114563756 -0.017740158 0.027574457 0.10182692 -0.13749698 -0.07696598 0.17099433 -0.0017094077
0.044611685 -0.07054351 0.054580897 0.13639481 0.026226172 -0.22045645 -0.009833742 0.061324578
-0.002253136 -0.13625105 0.027786588 0.196539 -0.029086802 -0.052295353 -0.03041595 -0.0940035
0.018689329 -0.08287041 0.032399815 0.04932725 0.050049637 -0.13248423 -0.10188062 0.17677826
-0.015150008 0.14447924 -0.10183697 0.10682931 0.11095639 -0.025520362 0.07107414 0.028149523
-0.090621844 0.17040698 0.071581185 -0.023717554 -0.051752403 0.006375637 -0.0114898905 0.055257715
0.0070354254 0.07186175 0.009678096 -0.06345406 0.07027423 -0.1617679 0.23277396 0.05808218
-0.06789726 0.12259388 0.010765162 -0.09395547 0.13976265 0.069945805 -0.13331331 -0.010324116
0.05538931 0.18366697 -0.19811279 -0.10310169 -0.14255399 -0.031574525 0.11291673 0.0587058
-0.05023767 -0.053394493 0.04072568 0.06927828 -0.13439263 0.15093912 -0.1505889 -0.1777724
0.20691752 0.0057565137 0.032528296 0.08924408 0.092993796 0.090573765 0.0062919524 0.11976629
0.061345898 -0.15735482 -0.13086338 -0.03180676 0.09246298 -0.021371284 -0.06470412 0.0648994
-0.13171749 0.057249773 0.056566402 0.051789574 0.008113298 0.037719164 0.07617997 0.013544189
0.077073075 -0.08750158 -0.05015613 0.1712027 0.03569193 0.00010439744 0.43019593 -0.013820247
0.13222544 -0.044232145 -0.019960146 0.02510648 -0.11832685 -0.018171791 0.19055042 0.062861666
00000000: 5b56 21be e461 7fbc 1940 bebd a56e 9ebd
00000010: f5f8 f63d 29bb c4bc 3923 53be d0cd 0a3d
00000020: 2175 2dbe 3e03 253e 83c4 07be f56d a33d
00000030: ce3e 96bd 8769 bcbd ebc1 9e3e b315 f13c
00000040: 614b df3d 389a c7bd ee33 163d 57e0 d8bc
00000050: d192 843d 5ac1 c53c f4e1 d1bd 202c ddbd
00000060: 571b 173d af68 74bc 52a4 7ebd 3096 3d3e
00000070: d0ac 983d 1c14 c5bd 248b 793d a1b0 3b3e
00000080: 426c 8a3e 5388 07be 0930 803d 26b1 9cbc
00000090: c1bf 003e 68a7 f1bd 902b 01bb 1c08 ac3c
000000a0: 85c4 3c3c 6ddf 9b3d 7e3e 3a3d fa8b 5bbd
000000b0: 98ac aebd ac82 55bd 2240 0c3e 4b62 4ebe
000000c0: 1549 4e3e 3b99 c13d 3500 f43d 546c 123e
000000d0: 68aa 593d b4d3 8f3d 60dc 7d3e 90ef e0bd
000000e0: 90db 7b3d 4a4c 84bd 7428 1c3e 0460 94bc
000000f0: 0c36 35be 34d6 20bd cbbc 383d 1dd6 dc3d
00000100: 6e87 a8bd 1614 51bc 550c 41be 21b0 dabd
00000110: fcb6 7dbb 372b 023e 340b bcbd 37f5 b03c
00000120: c7e3 a13c 4b62 3fbd 276c 0abd 7ef3 34bd
00000130: fba7 8cbd 708e 6abe 54d3 3a3e b5d7 de3d
00000140: a610 a1bd 4e11 0d3d 829b 023e 563c 033d
00000150: 54cb 8cbd 6712 0c3d e2e1 25bc f172 93bd
00000160: 6e82 3a3e fe3e d13c ab80 02bd 27d7 1f3e
00000170: 611a f2bd b96b 22bd 808d 4d3c ae08 863d
00000180: 25d6 ce3b 85b8 35be 3d2e 7cbd 68d8 b4bd
00000190: 5e90 033d 8c28 d23d 51bc e2bc 0495 ac3d
000001a0: 87e7 05bd 2e15 d7bd c21f 2d3d e93f 6ebd
000001b0: 9d68 0cbe e204 043e 8220 83bd 9bdf b4bd
000001c0: 4f26 babd c426 d1bd 7fe8 9e3d 2147 6dbd
000001d0: f189 0b3d 46cc 963d afe5 d5bc 9c28 04bd
000001e0: fbaa 1a3d be47 61bd 1abb d9ba 8a7c b1bd
000001f0: 9bfb 3fbe 86d6 c4bc 0466 cb3d e13d 28be
00000200: 46d2 863a 4d26 ca3d 0d4d 95bd 0fad 4ebd
00000210: f252 a4bc 2dad 36be d4db 31bd 16bf 883c
00000220: 67a0 ea3d cf53 91bc d4e3 e13c a28a d03d
00000230: 02cc 0cbe 57a0 9dbd 2319 2f3e 340e e0ba
00000240: beba 363d 1e79 90bd 3890 5f3d 15ab 0b3e
00000250: 45d8 d63c 56bf 61be b41d 21bc 7b2f 7b3d
00000260: 59a9 13bb 6585 0bbe b3a0 e33c 8541 493e
00000270: 7247 eebc a733 56bd df2a f9bc e884 c0bd
00000280: 5d1a 993c f6b7 a9bd abb5 043d 5f0b 4a3d
00000290: d900 4d3d f2a9 07be c9a6 d0bd 5c05 353e
000002a0: bd37 78bc 5ef2 133e e78f d0bd 53c9 da3d
000002b0: 1b3d e33d 1410 d1bc 528f 913d d499 e63c
000002c0: f297 b9bd 2b7f 2e3e 2899 923d 514b c2bc
000002d0: 54fa 53bd b8ea d03b 1840 3cbc ea55 623d
000002e0: 6d89 e63b 412c 933d e090 1e3c 34f4 81bd
000002f0: efeb 8f3d 7ca6 25be 4c5c 6e3e 94e7 6d3d
00000300: b80d 8bbd 8012 fb3d 5d60 303c ba6b c0bd
00000310: f11d 0f3e bf3f 8f3d 4983 08be 7b26 29bc
00000320: e7df 623d 3213 3c3e 14de 4abe fb26 d3bd
00000330: acf9 11be 4a54 01bd e340 e73d 7e75 703d
00000340: 04c6 4dbd 2fb4 5abd f8cf 263d c5e1 8d3d
00000350: 399e 09be c98f 1a3e fa33 1abe f809 36be
00000360: 30e2 533e 23a1 bc3b 643c 053d 9ac5 b63d
00000370: 8873 be3d bd7e b93d b92c ce3b 0748 f53d
00000380: d645 7b3d 9f21 21be 0d01 06be ce47 02bd
00000390: 3b5d bd3d d512 afbc 9883 84bd fae9 843d
000003a0: f3e0 06be bd7e 6a3d 2cb2 673d 4e21 543d
000003b0: a3ed 043c 697f 1a3d 3e04 9c3d 72e8 5d3c
000003c0: 7dd8 9d3d 0734 b3bd 8470 4dbd c34f 2f3e
000003d0: b431 123d f3ef da38 a442 dc3e 516e 62bc
000003e0: 1b66 073e c42c 35bd 7683 a3bc 1bac cd3c
000003f0: 5955 f2bd 02dd 94bc a61f 433e 9ebd 803d

classifier.0.weight f4 [32, 64]
-0.08548289 0.18592338 0.20673771 -0.27776608 0.08559731 -0.04528389 -0.079615906 0.14369728
-0.1484549 0.06678358 -0.17847823 -0.16624525 0.025063064 0.08916689 0.46252897 -0.31472287
0.2055277 0.07806599 0.1049349 0.05188925 0.094775185 -0.17184393 0.01781417 0.0219891
-0.22743635 0.21404196 0.08880631 0.11811099 -0.054851584 -0.03870656 -0.16103625 -0.2997623
0.42405218 0.0349481 -0.06396466 0.20737067 0.35576075 0.11084036 -0.19138339 0.09760367
0.08708106 0.03891676 -0.25169334 0.10726323 0.0734722 -0.13298415 0.2552831 -0.013899019
-0.054571558 0.17728375 -0.08011149 -0.18585569 -0.0074855275 -0.21869044 -0.5593578 0.086029895
0.45225397 0.18551943 0.18710348 0.260764 -0.0035202312 -0.050241034 0.33259347 0.10317274
0.018645171 0.32989848 0.06827602 -0.29845694 0.23528126 -0.22333612 0.012717561 0.11188042
-0.12409518 0.13664915 -0.012977252 -0.18310381 -0.18775539 -0.141074 0.26508704 -0.2583016
0.050188374 0.17164333 0.19493234 0.13677083 0.064315796 -0.14799911 0.023069585 -0.15177973
-0.3404999 0.07161185 0.1588237 0.31580082 0.09391097 -0.009155587 -0.1573432 -0.39919165
0.37272927 0.04164919 -0.0037779112 0.06350001 0.25544444 0.37529925 -0.26852366 0.22795089
-0.058944054 0.33386698 -0.22966345 0.37933686 -0.013167911 -0.34428698 0.31319112 -0.0036730072
-0.16676793 0.14530157 -0.058685616 -0.10221538 0.12820506 -0.1697868 -0.7280928 0.1550238
0.3865395 0.18839417 0.09419009 -0.07311494 0.027037663 0.019248383 0.25912854 0.23577145
-0.0034828675 0.22867158 0.24051999 -0.3213586 0.20469332 -0.086705156 -0.07327072 0.07489299
-0.028696846 0.14275342 -0.1252524 -0.10866919 -0.123982295 0.089992985 0.46904287 -0.36546552
0.1186162 -0.023919549 0.20273083 0.12764475 0.04306025 -0.29378292 -0.0068402872 0.07248309
-0.17840947 0.13022114 0.29928994 0.07800765 -0.0035642544 0.040266894 -0.20296223 -0.2989007
0.3663519 0.059860077 -0.11691588 0.22509894 0.33648536 0.31602868 -0.23060629 0.14410338
0.090710044 0.22405602 -0.23171893 0.29258192 0.11632375 -0.3140254 0.3317615 -0.06604771
-0.27686113 0.19430535 -0.096130565 -0.0762857 0.23107956 -0.14463188 -0.6676609 0.2262356
0.28558284 0.20776068 0.20047073 0.24257655 0.13331896 0.038685344 0.36422825 0.2365723
-0.12913361 -0.084257215 -0.08791358 0.039127596 -0.1488378 0.082224205 -0.05529642 -0.07934802
-0.010441352 -0.12926959 0.112006105 0.11330466 0.04768427 0.07046056 -0.004986531 0.09823304
-0.04989354 -0.15562387 -0.15292281 -0.053454783 0.0494216 -0.037076406 0.09012624 -0.15472764
0.17762382 -0.116822794 -0.20332226 -0.16829701 0.06844009 -0.15578161 0.15513387 -0.043672495
-0.08854643 -0.047971938 0.0019882298 -0.14417599 -0.09031205 -0.074041955 -0.0591673 -0.20235454
0.04650774 -0.0008520877 -0.011900669 -0.015296959 -0.07132884 0.03585026 -0.19664147 0.1494752
-0.06394021 -0.07941862 0.23300879 0.058787737 0.09003929 -0.12738653 0.38778028 -0.20293997
-0.17937423 0.002108876 -0.06280108 -0.19109896 -0.09290062 0.051221404 -0.1014821 -0.1850787
00000000: a711 afbd b362 3e3e 0db3 533e 5b37 8ebe
00000010: a44d af3d 9a7b 39bd aa0d a3bd 6125 133e
00000020: 9004 18be d4c5 883d ffc2 36be 323c 2abe
00000030: 0e51 cd3c 219d b63d 99d0 ec3e 5b23 a1be
00000040: da75 523e 10e1 9f3d 1ce8 d63d d289 543d
00000050: 7e19 c23d dbf7 2fbe 06ef 913c 7c22 b43c
00000060: 13e5 68be d12d 5b3e 15e0 b53d 2de4 f13d
00000070: 0eac 60bd c58a 1ebd b0e6 24be 727a 99be
00000080: 5e1d d93e bd25 0f3d e7ff 82bd fa58 543e
00000090: 4626 b63e 4500 e33d 02fa 43be 6fe4 c73d
000000a0: 8e57 b23d 2e67 1f3d f3dd 80be d3ac db3d
000000b0: 9878 963d ff2c 08be 77b4 823e b6b8 63bc
000000c0: 6d86 5fbd df89 353e 7e11 a4bd f450 3ebe
000000d0: 2849 f5bb 63f0 5fbe 1332 0fbf 7130 b03d
000000e0: d58d e73e cef8 3d3e 0e98 3f3e dc82 853e
000000f0: aeb3 66bb 8bc9 4dbd b149 aa3e 3b4c d33d
00000100: c2bd 983c 74e8 a83e 4cd4 8b3d 59cf 98be
00000110: 92ed 703e 39b2 64be 515d 503c 9021 e53d
00000120: 9d25 febd c1ed 0b3e 8a9e 54bc 917f 3bbe
00000130: f342 40be b475 10be 7db9 873e 1b40 84be
00000140: 5392 4d3d 45c3 2f3e 589c 473e a70d 0c3e
00000150: 00b8 833d 148d 17be 6dfc bc3c 256c 1bbe
00000160: 0156 aebe 3ca9 923d aea2 223e a5b0 a13e
00000170: 6554 c03d 5101 16bc 931e 21be d962 ccbe
00000180: 5fd6 be3e 5798 2a3d d596 77bb 4b0c 823d
00000190: 9dc9 823e 3927 c03e ef7b 89be f56b 693e
000001a0: 526f 71bd 9df0 aa3e e52c 6bbe 7138 c23e
000001b0: 39be 57bc 6246 b0be 965a a03e d6b6 70bb
000001c0: 36c5 2abe efc9 143e 5460 70bd 4c56 d1bd
000001d0: 3048 033e 97dc 2dbe 4a64 3abf 8fbe 1e3e
000001e0: 81e8 c53e 67ea 403e bce6 c03d 49bd 95bd
000001f0: 177e dd3c c9ae 9d3c 7fac 843e 126e 713e
00000200: d240 64bb e228 6a3e df4a 763e 1d89 a4be
00000210: 209b 513e 7992 b1bd f60e 96bd 7f61 993d
00000220: a615 ebbc f42d 123e 2a42 00be f48d debd
00000230: 6eea fdbd 3e4e b83d 6326 f03e 4c1e bbbe
00000240: 0ded f23d eef2 c3bc ac98 4f3e 4eb5 023e
00000250: f25f 303d b76a 96be 7d24 e0bb 0472 943d
00000260: f9b0 36be b158 053e 883c 993e 7ac2 9f3d
00000270: 4496 69bb e6ee 243d 55d5 4fbe 8309 99be
00000280: 7a92 bb3e d72f 753d 9871 efbd 5680 663e
00000290: cf47 ac3e 83ce a13e 0e24 6cbe d68f 133e
000002a0: 30c6 b93d f16e 653e ba47 6dbe 4ccd 953e
000002b0: 253b ee3d f0c7 a0be a5dc a93e 0644 87bd
000002c0: bec0 8dbe fbf7 463e 1ae0 c4bd ad3b 9cbd
000002d0: 1fa0 6c3e 611a 14be d3eb 2abf 4eaa 673e
000002e0: ea37 923e 37bf 543e 3348 4d3e fd65 783e
000002f0: c484 083e 8674 1e3d 207c ba3e 0240 723e
00000300: 9a3b 04be 0c8f acbd 090c b4bd 4244 203d
00000310: f068 18be 2a65 a83d 807e 62bd 3781 a2bd
00000320: 3412 2bbc 3f5f 04be 7563 e53d 460c e83d
00000330: 9550 433d a04d 903d 0e66 a3bb 672e c93d
00000340: 2b5d 4cbd dd5b 1fbe cc97 1cbe 67f3 5abd
00000350: 4e6e 4a3d 6edd 17bd 1b94 b83d ec70 1ebe
00000360: 05e3 353e ca40 efbd b633 50be 0d56 2cbe
00000370: 512a 8c3d 3785 1fbe 6adb 1e3e eee1 32bd
00000380: d557 b5bd 397e 44bd f64c 023b dfa2 13be
00000390: 86f5 b8bd 4fa3 97bd 6959 72bd 0736 4fbe
000003a0: e67e 3e3d a35e 5fba 06fb 42bc 19a0 7abc
000003b0: db14 92bd b9d7 123d 625c 49be 0710 193e
000003c0: 16f3 82bd 3ba6 a2bd db99 6e3e 69cb 703d
000003d0: 8566 b83d 9d71 02be 238b c63e 7fcf 4fbe
000003e0: e1ad 37be 1135 0a3b da9d 80bd 72af 43be
000003f0: ae42 bebd 89cd 513d d9d5 cfbd 4585 3dbe

classifier.0.bias f4 [32]
0.19170323 0.22076747 0.27204454 0.14959998 0.17813344 -0.017555028 0.24256954 0.18805304
0.20379537 0.20854183 0.09782491 0.2054367 0.27124515 0.10664905 -0.022478992 0.25501433
-0.13490279 0.26181844 0.07942738 -0.069157645 0.18659139 0.18281433 0.039407235 0.23563968
-0.13085617 -0.0051120296 0.32903 -0.14689109 -0.14803934 0.062741674 -0.031005586 0.0046908963
00000000: da4d 443e de10 623e 6c49 8b3e bd30 193e
00000010: 9d68 363e 90cf 8fbc 2664 783e fa90 403e
00000020: bcaf 503e fd8b 553e 6d58 c83d 005e 523e
00000030: a5e0 8a3e d16a da3d dd25 b8bc 3d91 823e
00000040: f523 0abe 110d 863e d2aa a23d 86a2 8dbd
00000050: d011 3f3e ae33 3b3e 7b69 213d 874b 713e
00000060: 29ff 05be d082 a7bb 9f76 a83e 9e6a 16be
00000070: a097 17be b57e 803d 6dff fdbc 17b6 993b

classifier.2.weight f4 [1, 32]
0.3645888 0.357526 0.40986603 -0.13312504 0.34817058 -0.15687893 0.4503627 0.43856823
0.3500111 -0.3688833 -0.19987564 -0.25923458 0.32906213 -0.11435447 -0.6836537 0.35928068
0.03504865 0.47545642 -0.30547073 -0.23455656 0.38525063 -0.39025572 0.12921634 0.43875283
0.22953095 0.41293433 -0.7386001 -0.22316396 -0.0007548519 -0.16051354 -0.23087512 -0.5052084
00000000: 62ab ba3e a60d b73e f6d9 d13e ee51 08be
00000010: 6a43 b23e dfa4 20be f195 e63e 048c e03e
00000020: a834 b33e 46de bcbe 33ac 4cbe 65ba 84be
00000030: d57a a83e ad32 eabd ee03 2fbf a3f3 b73e
00000040: 2c8f 0f3d 066f f33e a966 9cbe 982f 70be
00000050: 923f c53e 99cf c7be 4a51 043e 36a4 e03e
00000060: 290a 6b3e 216c d33e e514 3dbf 1885 64be
00000070: 41e1 45ba a95d 24be 876a 6cbe 5655 01bf
