src/DARPA/models/pretrained/phase_5.pth (torch, 193933 bytes, 7 tensors)

lstm.weight_ih_l0 f4 [256, 112]
0.1905516 0.12402687 0.014355857 0.09833661 -0.060174998 0.102637365 -0.062716484 0.056661792
-0.062117 0.105806716 0.09197446 0.03909163 0.014649268 -0.03802934 0.15068571 -0.10416307
0.06667357 -0.08649416 -0.2374912 -0.022714583 0.08654938 -0.05516253 -0.14613922 -0.0042768866
0.084551275 -0.13786025 0.32349554 0.10757336 0.1621289 0.0008806242 0.011891545 0.032817774
0.10942941 -0.11891168 0.058834 0.26427412 0.06832143 0.08021902 0.023085857 -0.17204995
0.151012 -0.12121847 0.044684965 -0.063795015 -0.17577559 0.009686101 -0.06483802 -0.121514566
0.028397553 -0.07170598 -0.121184036 0.117225856 0.013732119 0.12016459 -0.17292692 -0.07799819
0.124402545 -0.050199874 0.22130723 -0.05435544 -0.002747766 0.05926786 0.06297373 -0.07055093
0.07256755 0.4049207 -0.03999693 0.2738967 0.096769616 -0.052787155 -0.058849156 0.038009867
-0.18950833 -0.009334326 0.051693812 0.06654031 0.06335112 -0.073264286 -0.042605344 0.076458536
-0.0004079133 0.086688034 0.16833356 -0.14533319 0.007398094 0.11623183 -0.00994403 -0.085847236
0.071705185 0.11781507 -0.016541012 0.093862586 0.12629892 -0.1272183 -0.014847108 -0.053596225
0.07515739 -0.059509456 0.13171019 -0.042555388 0.086466186 -0.011431701 0.041504223 0.08369604
0.36979374 -0.19017516 -0.042054646 -0.037460923 0.05498987 0.009354693 0.0571795 0.25040838
0.039206777 0.31404573 0.20533329 -0.049550593 0.02075046 0.018471345 -0.0329584 0.027953709
-0.011442142 -0.016123546 -0.020119874 -0.030717567 0.16443798 0.15645157 0.32386374 -0.23629414
-0.087349854 0.18191203 -0.30989912 0.41310334 0.33690736 0.13569406 -0.079646155 -0.016121583
-0.017790917 -0.0015333164 0.3311493 0.24977203 -0.12071526 0.018295309 0.028380087 0.06381967
0.26471004 0.07541767 0.03703043 -0.085018806 0.14823036 -0.088325 0.01042448 0.098663054
-0.18603373 0.08223698 0.070423864 0.36670092 -0.3794374 -0.036830142 0.4726047 -0.082484715
-0.045616716 -0.10151154 -0.0729067 0.24604191 0.06907335 0.28895456 -0.04943219 0.13272701
0.27023354 0.011971474 0.15118393 0.04407431 -0.29715168 0.012277759 0.13020368 0.0011067105
-0.09443186 0.34413207 0.3323041 0.26524076 -0.12654842 0.21192276 0.103578135 0.1024731
0.34656715 0.00017631729 0.13058916 0.033625215 -0.050362896 0.06667982 0.08368043 0.08163128
0.050239462 -0.030726315 0.36231786 0.10692684 -0.0378124 0.25767946 0.060835093 -0.06082389
0.24332535 0.20477903 -0.005594943 -0.022950796 0.25690156 0.30488247 -0.014467688 0.24243887
0.0034394497 -0.009234939 -0.09181519 -0.0007399952 0.01326246 0.0070351963 -0.04728581 -0.06495002
0.2063292 0.25539035 -0.02475456 0.09588229 0.06809886 -0.10230606 0.14993757 -0.007445541
0.16256082 0.27051017 0.20202625 0.121908605 0.20460519 0.3798358 0.26114383 0.18494871
-0.07648254 0.053575587 0.17183381 -0.18888271 -0.030742584 0.17109428 0.08084515 0.14906637
0.25351003 0.112892576 -0.27738148 0.08418851 -0.09522341 0.21626781 -0.1516191 -0.059008505
0.24264775 -0.2898944 -0.029952928 0.09686036 -0.12695003 -0.010874048 -0.058579374 0.11474244
00000000: f51f 433e cd01 fe3d d434 6b3c b464 c93d
00000010: 0f7a 76bd 8a33 d23d 8071 80bd 3216 683d
00000020: 656e 7ebd 31b1 d83d 1b5d bc3d 8c1e 203d
00000030: 7c03 703c a7c4 1bbd 5b4d 1a3e 7353 d5bd
00000040: 278c 883d da23 b1bd e530 73be ef13 babc
00000050: cd40 b13d 1bf2 61bd 85a5 15be 2025 8cbb
00000060: 3829 ad3d 3d2b 0dbe 35a1 a53e 6c4f dc3d
00000070: 1e05 263e b1d9 663a c1d4 423c ee6b 063d
00000080: 871c e03d f887 f3bd ecfb 703d f04e 873e
00000090: 1bec 8b3d df49 a43d 8d1e bd3c dd2d 30be
000000a0: e4a2 1a3e 6441 f8bd 9507 373d f6a6 82bd
000000b0: 84fe 33be 74b2 1e3c ccc9 84bd a1dc f8bd
000000c0: fca1 e83c 96da 92bd 562f f8bd 1c14 f03d
000000d0: affc 603c da18 f63d c113 31be 84bd 9fbd
000000e0: c3c6 fe3d 629e 4dbd 5d9e 623e cfa3 5ebd
000000f0: dd13 34bb dbc2 723d 5ff8 803d 027d 90bd
00000100: 4c9e 943d c451 cf3e d2d3 23bd 303c 8c3e
00000110: 262f c63d 5837 58bd d00b 71bd 3cb0 1b3d
00000120: 790e 42be 00ef 18bc e4bc 533d 4946 883d
00000130: 3bbe 813d 960b 96bd f182 2ebd 4b96 9c3d
00000140: 32dd d5b9 7f89 b13d a25f 2c3e 39d2 14be
00000150: b66b f23b f40a ee3d 49ec 22bc add0 afbd
00000160: 2bda 923d 0749 f13d 0481 87bc 073b c03d
00000170: 8154 013e 8445 02be 4941 73bc b787 5bbd
00000180: 1eec 993d 30c0 73bd 09df 063e 8f4e 2ebd
00000190: 2f15 b13d 074c 3bbc 5500 2a3d d468 ab3d
000001a0: 9b55 bd3e 47bd 42be 7e41 2cbd a070 19bd
000001b0: 0f3d 613d 6d44 193c 0d35 6a3d 8735 803e
000001c0: 4997 203d 9aca a03e e442 523e 90f5 4abd
000001d0: defc a93c 3851 973c 63ff 06bd 2dff e43c
000001e0: d277 3bbc 8715 84bc 6fd2 a4bc 68a3 fbbc
000001f0: 6e62 283e d734 203e 78d1 a53e 17f7 71be
00000200: 7be4 b2bd 2647 3a3e 19ab 9ebe 4882 d33e
00000210: 1f7f ac3e 62f3 0a3e 861d a3bd 6911 84bc
00000220: 42be 91bc 90f9 c8ba 678c a93e 3dc4 7f3e
00000230: 9039 f7bd 0be0 953c 5b7d e83c e3b3 823d
00000240: 1388 873e 9474 9a3d 38ad 173d 571e aebd
00000250: b3c9 173e bde3 b4bd 70cb 2a3c db0f ca3d
00000260: a07f 3ebe dd6b a83d 633a 903d 39c0 bb3e
00000270: 9e45 c2be 34db 16bd 3ef9 f13e bfed a8bd
00000280: 98d8 3abd 48e5 cfbd 1c50 95bd 69f2 7b3e
00000290: 5476 8d3d daf1 933e 6879 4abd 97e9 073e
000002a0: 0d5c 8a3e 0024 443c f6cf 1a3e 4487 343d
000002b0: 4424 98be a728 493c 1d54 053e 0b0f 913a
000002c0: 7e65 c1bd 1432 b03e c323 aa3e a3cd 873e
000002d0: e995 01be 4802 593e c620 d43d 6bdd d13d
000002e0: 4071 b13e d0e1 3839 2ab9 053e 98ba 093d
000002f0: 5349 4ebd 6e8f 883d a560 ab3d 4d2e a73d
00000300: e5c7 4d3d c1b5 fbbc ba81 b93e 76fc da3d
00000310: 2de1 1abd 90ee 833e 382e 793d 7922 79bd
00000320: 482a 793e 98b1 513e c955 b7bb 4f03 bcbc
00000330: 9a88 833e 8e19 9c3e e209 6dbc e541 783e
00000340: 6468 613b 244e 17bc 9a09 bcbd 3dfc 41ba
00000350: ca4a 593c 8187 e63b c4ae 41bd 8404 85bd
00000360: f647 533e 86c2 823e 13ca cabc ef5d c43d
00000370: 6a77 8b3d d785 d1bd 3c89 193e baf9 f3bb
00000380: 5876 263e 4f80 8a3e f8df 4e3e 38ab f93d
00000390: 0684 513e d779 c23e a5b4 853e 3263 3d3e
000003a0: e1a2 9cbd 1372 5b3d 34f5 2f3e 786a 41be
000003b0: dfd7 fbbc 5733 2f3e 2492 a53d dba4 183e
000003c0: 11cc 813e 3934 e73d f204 8ebe 076b ac3d
000003d0: 7e04 c3bd 4f75 5d3e 0a42 1bbe e7b2 71bd
000003e0: a778 783e 0a6d 94be d85f f5bc b95e c63d
000003f0: 30ff 01be 1029 32bc edf0 6fbd 16fe ea3d

lstm.weight_hh_l0 f4 [256, 64]
0.11896647 -0.17930609 0.11563485 0.057239987 0.19260468 -0.34084898 -0.25591296 0.17476581
0.16734844 -0.28647646 -0.31873685 -0.25057745 0.2649387 -0.081744194 0.2360451 -0.30885196
-0.09509279 0.26647502 -0.46777093 0.05795386 -0.243335 -0.012192018 -0.10080506 -0.114690796
-0.20218816 0.015562808 0.082091555 -0.05754048 -0.1578018 -0.3599203 0.13102381 0.1701201
0.06362487 -0.010358399 0.30265394 0.028372016 0.06371614 -0.26546064 -0.30382746 0.3152657
-0.13673002 0.15550996 -0.07437674 -0.41101977 0.074517466 0.42806786 0.2542096 0.08428875
0.10884993 0.33289313 0.0928976 -0.28904128 0.10762777 -0.1931036 -0.30954987 -0.023178073
-0.4135042 0.15149963 0.29971793 -0.29292482 -0.206077 -0.25392753 -0.5237074 -0.00021373617
-0.009094174 0.052540235 0.113067344 -0.06862361 0.041462544 -0.03929142 0.078758866 -0.1428338
-0.005996589 -0.19997303 -0.11983159 -0.27327794 0.024922809 0.10032826 0.06716398 -0.076089345
-0.19981156 0.14511517 -0.20059118 0.11700348 -0.032994222 0.27427313 -0.14608897 -0.13814566
-0.060793437 -0.0994652 -0.00508904 0.035371404 0.033479303 -0.011129539 -0.009719151 -0.14232177
-0.09315644 -0.05558566 0.11886564 0.0025098557 -0.1074326 -0.08787573 -0.04721813 0.116486244
-0.017252743 0.059867818 -0.027291745 -0.009884939 0.05866742 0.26428592 0.13976158 -0.04926901
-0.119648084 0.12494528 0.17979603 0.056652136 0.14697345 -0.11284182 0.05865086 0.09851187
-0.119370446 0.23876232 0.14307766 -0.16707958 -0.1116251 0.088976465 -0.2884954 -0.032803472
0.08523022 -0.09685658 0.14122334 0.069936685 0.080272295 -0.34046575 -0.22502106 0.03242162
0.3544943 -0.15314685 -0.23955928 -0.05380675 0.29663175 -0.18776202 0.38156593 -0.20498267
-0.11901432 0.073049895 -0.2626777 0.06628909 -0.2532286 -0.25332645 0.057839893 0.09003133
-0.17497858 0.115417846 0.10823059 -0.068694815 -0.094108544 -0.24206099 0.0015032851 0.25182486
0.10545316 0.022298297 0.39957878 0.015791295 -0.0076995636 -0.2865474 -0.3592878 0.26462254
-0.26607585 0.16830964 -0.118003756 -0.54866236 0.25696868 0.14115267 0.29802975 0.1058601
0.10462596 0.38300106 -0.06758608 -0.44602722 0.119242676 -0.3406241 -0.13981499 0.058173116
-0.25422418 0.01226543 0.15883482 -0.15065502 -0.05723613 -0.14562449 -0.35399082 -0.13337916
0.2781525 -0.16724493 0.14234842 0.11433957 0.2299511 -0.2623341 -0.01566314 -0.14000277
0.20428187 -0.09015887 -0.20447011 -0.16481613 0.34892106 -0.071974546 0.22911376 -0.27052942
-0.21848504 0.15312004 -0.30086118 0.03339138 -0.3598182 0.09220589 -0.15936328 -0.10871625
-0.13444234 -0.0755452 -0.11005614 0.24259017 -0.23471579 -0.3285106 0.11114945 0.0330799
-0.24332969 -0.035821743 0.28738138 -0.18681051 0.02356287 -0.40142515 -0.23473264 0.19603977
-0.17454298 0.10033562 -0.30046734 -0.4433807 0.04811861 0.31938195 0.19404744 0.29625225
0.20905703 0.1442128 0.099929444 -0.18869866 0.20904915 -0.13734944 -0.23775263 0.09193118
-0.37215382 0.10785841 0.3342742 -0.23451261 -0.19827576 -0.23380934 -0.20909274 0.121997714
00000000: b1a4 f33d 049c 37be f7d1 ec3d 7a74 6a3d
00000010: 293a 453e c283 aebe 0607 83be cff5 323e
00000020: 645d 2b3e 0bad 92be 7a31 a3be b04b 80be
00000030: 0ca6 873e 8069 a7bd cfb5 713e d821 9ebe
00000040: 02c0 c2bd 6a6f 883e ac7f efbe 0761 6d3d
00000050: cf2c 79be 08c1 47bc e272 cebd 02e3 eabd
00000060: 6a0a 4fbe 26fb 7e3c 9e1f a83d 91af 6bbd
00000070: cc96 21be 7947 b8be 1b2b 063e f733 2e3e
00000080: c14d 823d 46b6 29bc 75f5 9a3e 6e6c e83c
00000090: 9c7d 823d 75ea 87be 468f 9bbe 816a a13e
000000a0: f402 0cbe 013e 1f3e d552 98bd 2f71 d2be
000000b0: 9d9c 983d b62b db3e c327 823e 959f ac3d
000000c0: b6ec de3d f870 aa3e 1941 be3d 38fd 93be
000000d0: f36b dc3d f3bc 45be 527d 9ebe f1df bdbc
000000e0: d3b6 d3be b822 1b3e a174 993e 3efa 95be
000000f0: d905 53be ca02 82be b011 06bf 5e1e 60b9
00000100: bbff 14bc 6e34 573d da8f e73d 898a 8cbd
00000110: a1d4 293d 0af0 20bd 544c a13d 0643 12be
00000120: 097f c4bb bbc5 4cbe 446a f5bd 16eb 8bbe
00000130: eb2a cc3c e778 cd3d 458d 893d bbd4 9bbd
00000140: 679b 4cbe 1299 143e c667 4dbe 859f ef3d
00000150: f324 07bd 876d 8c3e 5998 15be 0e76 0dbe
00000160: 8a02 79bd 69b4 cbbd f6c1 a6bb 9be1 103d
00000170: 9821 093d ac58 36bc 133d 1fbc ccbc 11be
00000180: cec8 bebd caad 63bd d46f f33d 647c 243b
00000190: 9f05 dcbd 31f8 b3bd cc67 41bd 5790 ee3d
000001a0: a055 8dbc f537 753d f092 dfbc 70f4 21bc
000001b0: 404d 703d 7c50 873e a91d 0f3e 4dce 49bd
000001c0: 0e0a f5bd 50e3 ff3d 731c 383e 120c 683d
000001d0: 3580 163e 9d19 e7bd e23b 703d 97c0 c93d
000001e0: 7e78 f4bd 1c7e 743e f382 123e e916 2bbe
000001f0: b39b e4bd 4b39 b63d abb5 93be ef5c 06bd
00000200: 2e8d ae3d be5c c6bd da9c 103e f73a 8f3d
00000210: cd65 a43d 8751 aebe ec6b 66be 88cc 043d
00000220: 4780 b53e 87d2 1cbe 074f 75be 7764 5cbd
00000230: 1ee0 973e b044 40be 9c5c c33e fae6 51be
00000240: c8bd f3bd 2f9b 953d b17d 86be 93c2 873d
00000250: 2ea7 81be 01b4 81be 86e9 6c3d 5962 b83d
00000260: 962d 33be 3160 ec3d 00a8 dd3d deaf 8cbd
00000270: fbbb c0bd d6de 77be e109 c53a 30ef 803e
00000280: d4f7 d73d ebaa b63c 9795 cc3e bf5c 813c
00000290: 9f4c fcbb 57b6 92be 92f4 b7be 9b7c 873e
000002a0: 183b 88be 5d59 2c3e f4ab f1bd 2375 0cbf
000002b0: 6691 833e 538a 103e 5b97 983e 2ecd d83d
000002c0: 2346 d63d b718 c43e 926a 8abd ae5d e4be
000002d0: 8135 f43d 4866 aebe a92b 0fbe ef46 6e3d
000002e0: ac29 82be f1f4 483c 98a5 223e 4f45 1abe
000002f0: 6f70 6abd 961e 15be 493e b5be 8c94 08be
00000300: 016a 8e3e 4142 2bbe c9c3 113e dd2a ea3d
00000310: 4d78 6b3e a850 86be fc4f 80bc e35c 0fbe
00000320: 442f 513e 37a5 b8bd 9d60 51be 8fc5 28be
00000330: c8a5 b23e 6467 93bd cc9c 6a3e d582 8abe
00000340: 8bba 5fbe 80cb 1c3e 7a0a 9abe 66c5 083d
00000350: 173a b8be 71d6 bc3d 2130 23be a0a6 debd
00000360: 41ab 09be 71b7 9abd 1d65 e1bd 8f69 783e
00000370: 5659 70be 8b32 a8be 53a2 e33d ca7e 073d
00000380: 6b2b 79be d2b9 12bd a723 933e 414b 3fbe
00000390: ec06 c13c 9987 cdbe c15d 70be a6be 483e
000003a0: 65bb 32be c37c cd3d dbd6 99be cc02 e3be
000003b0: 0518 453d 0886 a33e 5fb4 463e 60ae 973e
000003c0: 0c13 563e 85ac 133e cfa7 cc3d 393a 41be
000003d0: fb10 563e 55a5 0cbe 6d75 73be 6a46 bc3d
000003e0: f28a bebe dfe4 dc3d fd25 ab3e 1324 70be
000003f0: cd08 4bbe b76b 6fbe 681c 56be f0d9 f93d

lstm.bias_ih_l0 f4 [256]
0.20368658 0.14121929 0.041849602 0.099743135 -0.031425733 0.13619784 -0.09962099 -0.07086047
-0.02173413 0.21244502 0.08639654 0.06629744 0.052076124 -0.027824106 0.04824712 0.092177175
0.047800545 0.06404703 0.016221605 0.12991183 0.023438271 0.11289716 0.06489783 0.04704045
0.21662821 -0.05313438 0.08441145 -0.15131061 0.044066463 -0.045293335 -0.012868968 0.019080672
-0.057713542 -0.14050232 0.12275297 0.05442451 -0.05059802 0.07692865 -0.041414637 -0.12830141
0.05838369 -0.13229872 -0.10607741 0.23289782 -0.040644705 -0.040505715 0.1312275 0.112129085
0.09980393 0.13492356 0.2508024 0.1688787 -0.09282466 -0.07792351 0.16920048 -0.019854546
-0.15120776 -0.11023186 -0.0262968 -0.08434973 0.12975778 0.023132196 0.13725908 0.012282191
-0.22485304 -0.07969091 -0.0787077 0.038763233 -0.009556706 0.0450526 -0.18604387 -0.11742977
-0.1561103 0.01480282 0.09804554 -0.039840236 0.12983386 0.11872338 -0.07010002 -0.17828959
-0.15676117 -0.19537954 -0.010895954 -0.031303097 0.043914896 0.003892324 0.05814694 0.043188393
0.085097946 -0.06803062 0.12747653 -0.05523077 0.045087535 -0.013255122 0.20297073 -0.10204646
-0.028209373 -0.17876442 -0.0131096905 0.15074712 0.16248564 -0.16368693 -0.09833051 0.046739697
-0.04176573 0.04571174 -0.13830574 0.08573911 0.09729365 -0.027484052 -0.018566946 -0.041715533
-0.3156135 0.1378405 -0.20012204 -0.10494119 0.027322875 0.14104258 -0.053386975 -0.02675872
-0.115030594 0.12503602 -0.17314908 -0.043498922 -0.05794925 0.048521355 -0.021959785 0.13078254
0.03180749 0.031677824 -0.09835036 0.12623273 0.17450942 0.1097012 -0.034101147 0.006236397
-0.047913074 0.037096247 -0.12268104 0.2037273 -0.05479258 0.02267398 0.035416994 -0.04988357
0.011848158 0.05407686 0.09423425 -0.03700692 -0.028987836 0.08674895 0.02207494 -0.14231724
-0.060430363 -0.036906715 -0.112900294 -0.010489144 0.10066926 -0.08600344 -0.037407488 0.013368165
-0.06700055 0.036937255 -0.1348518 0.03393339 -0.0080800345 0.104302585 0.06199221 0.09745414
0.08020308 -0.1529764 -0.030671025 -0.03761517 -0.048663538 0.04096528 -0.0012981023 0.08130673
0.09799017 -0.0036062722 0.080891214 -0.09302684 0.0011911227 -0.030426947 0.11620946 -0.025044283
-0.0987656 -0.10115046 -0.046691015 -0.004965746 -0.054781754 0.012480268 0.014905387 0.0001522827
0.05607081 -0.00047797285 0.0034289714 -0.06792991 -0.163619 -0.04429635 -0.03881147 -0.036813844
-0.19415598 0.31899112 -0.0035588783 0.23207197 -0.25274768 -0.13171007 -0.19923054 -0.14791629
-0.20548448 -0.2695645 0.09746685 -0.019654442 -0.22965652 -0.121611826 -0.0012429527 -0.22427523
0.2662552 -0.14681335 0.06939824 -0.073989205 -0.10377133 -0.005985623 -0.027385106 -0.029614896
0.06336751 -0.17088953 0.22176035 0.13949487 0.03289401 -0.2306672 -0.016178085 -0.14652914
-0.18468665 -0.027473478 0.021888744 0.10574684 -0.10523467 0.25943848 0.14915018 -0.09370328
-0.041162636 0.04364271 0.07855948 -0.18838866 -0.24838875 -0.1578084 -0.097885266 0.10713771
-0.11467957 0.05554959 -0.12703829 -0.10059844 -0.021688825 -0.16758439 0.23702055 -0.03656921
00000000: 3793 503e ca9b 103e 7d6a 2b3d 2146 cc3d
00000010: 45b8 00bd 7277 0b3e 1706 ccbd 4b1f 91bd
00000020: c60b b2bc 308b 593e abf0 b03d f4c6 873d
00000030: c64d 553d 61ef e3bc c69e 453d 63c7 bc3d
00000040: 81ca 433d 172b 833d 2ce3 843c 9b07 053e
00000050: 9e01 c03c a036 e73d 27e9 843d 7dad 403d
00000060: c9d3 5d3e 70a3 59bd e9df ac3d 2bf1 1abe
00000070: 097f 343d 8185 39bd 5dd8 52bc 124f 9c3c
00000080: 0965 6cbd d7df 0fbe e965 fb3d 3cec 5e3d
00000090: df3f 4fbd c58c 9d3d 65a2 29bd 7261 03be
000000a0: bc23 6f3d 5179 07be 1d3f d9bd c47c 6e3e
000000b0: 107b 26bd 52e9 25bd 8060 063e efa3 e53d
000000c0: 0166 cc3d 6729 0a3e 2c69 803e 8aee 2c3e
000000d0: db1a bebd 5c96 9fbd e442 2d3e 00a6 a2bc
000000e0: 35d6 1abe 3ec1 e1bd 636c d7bc 8dbf acbd
000000f0: 39df 043e bb7f bd3c a58d 0c3e 3e3b 493c
00000100: e03f 66be fd34 a3bd 8131 a1bd 32c6 1e3d
00000110: bb93 1cbc 1389 383d 4982 3ebe 057f f0bd
00000120: 61db 1fbe 8787 723c 1acc c83d 842f 23bd
00000130: 2bf3 043e 3e25 f33d 9990 8fbd 8c91 36be
00000140: 0086 20be 9311 48be f284 32bc ad37 00bd
00000150: 1be0 333d 5c16 7f3b 7c2b 6e3d 50e6 303d
00000160: d547 ae3d a353 8bbd 3589 023e a939 62bd
00000170: b5ad 383d 032c 59bc 8fd7 4f3e bcfd d0bd
00000180: 5817 e7bc 050e 37be 07ca 56bc 745d 1a3e
00000190: a362 263e 8c9d 27be 8261 c9bd 2072 3f3d
000001a0: 8b12 2bbd 3c3c 3b3d 05a0 0dbe fd97 af3d
000001b0: e541 c73d 3c26 e1bc b519 98bc e8dd 2abd
000001c0: 1898 a1be 0f26 0d3e cbec 4cbe 68eb d6bd
000001d0: 39d4 df3c 776d 103e 4dac 5abd 1a35 dbbc
000001e0: 2995 ebbd 7109 003e fe4d 31be ed2b 32bd
000001f0: 315c 6dbd 54be 463d 02e5 b3bc dceb 053e
00000200: 9248 023d 9bc0 013d ea6b c9bd 2743 013e
00000210: 99b2 323e 06ab e03d a5ad 0bbd b15a cc3b
00000220: 8040 44bd 3cf2 173d 3240 fbbd e49d 503e
00000230: 2f6e 60bd c8be b93c 6911 113d b752 4cbd
00000240: c71e 423c b37f 5d3d e3fd c03d 9194 17bd
00000250: e677 edbc 6fa9 b13d 81d6 b43c 9cbb 11be
00000260: d485 77bd 7f2b 17bd 4538 e7bd a9da 2bbc
00000270: af2b ce3d 9222 b0bd 9838 19bd 2606 5b3c
00000280: 9637 89bd 854b 173d 9716 0abe bdfd 0a3d
00000290: 1f62 04bc 989c d53d 8beb 7d3d 0996 c73d
000002a0: 8341 a43d d8a5 1cbe cd41 fbbc 5d12 1abd
000002b0: 6b53 47bd 36cb 273d 1625 aaba 2584 a63d
000002c0: 12af c83d 3557 6cbb 4baa a53d db84 bebd
000002d0: 721f 9c3a ef41 f9bc 3aff ed3d ab29 cdbc
000002e0: 9e45 cabd f927 cfbd 143f 3fbd b2b7 a2bb
000002f0: d562 60bd 0a7a 4c3c b935 743c 13ae 1f39
00000300: 81aa 653d 6e98 fab9 98b8 603b d61e 8bbd
00000310: bd8b 27be 1770 35bd c7f8 1ebd 1dca 16bd
00000320: d3d0 46be ce52 a33e 123c 69bb 46a4 6d3e
00000330: 2568 81be 01df 06be 1703 4cbe 5e77 17be
00000340: 866a 52be 5c04 8abe b39c c73d 5a02 a1bc
00000350: 142b 6bbe 9f0f f9bd 92ea a2ba 68a8 65be
00000360: 9a52 883e 3d56 16be aa20 8e3d a787 97bd
00000370: 1086 d4bd 0c23 c4bb bb56 e0bc f09a f2bc
00000380: d3c6 813d aafd 2ebe 2515 633e bed7 0e3e
00000390: dfbb 063d 0634 6cbe e787 84bc bc0b 16be
000003a0: 7f1e 3dbe 0f10 e1bc 0650 b33c cd91 d83d
000003b0: 4685 d7bd 1fd5 843e d3ba 183e 81e7 bfbd
000003c0: 279a 28bd b3c2 323d cbe3 a03d f5e8 40be
000003d0: 9f59 7ebe 8698 21be 1278 c8bd 046b db3d
000003e0: 1fdd eabd f887 633d 5316 02be 8e06 cebd
000003f0: c3ac b1bc 3e9b 2bbe 84b5 723e 99c9 15bd

lstm.bias_hh_l0 f4 [256]
0.1810456 -0.08729841 0.112165205 0.050201416 -0.059724953 0.1612798 0.1268731 0.11135817
0.006215886 0.20119351 0.06754708 0.023597224 0.107997075 0.10371681 0.03786444 -0.06941622
0.109825775 -0.11942629 -0.10335318 0.06410578 0.091453224 -0.021186816 0.044798505 0.11271976
0.06975364 -0.07198134 -0.031909235 0.01248148 0.07341563 0.14042298 0.05086339 -0.07601652
0.15366778 -0.05317644 -0.060524486 0.12437586 -0.10228333 0.14278819 -0.07858022 -0.15519033
0.043254994 0.07725582 -0.10589603 0.07630616 -0.055677373 -0.023531286 0.1819797 0.02121061
0.027279379 -0.07238807 0.16205265 0.18683864 0.078070946 0.13198906 -0.0040504257 -0.1224229
0.0058437665 -0.11458574 0.06392993 0.033094477 -0.03201881 0.0018780944 0.15056032 0.12398967
-0.020494146 -0.12563504 -0.12157012 -0.10641834 0.06035725 -0.1018479 -0.0053563076 -0.030888686
-0.07551471 -0.026376579 -0.06222651 -0.1937621 -0.048918594 -0.03370979 0.07938499 -0.24386933
0.06158912 0.007959377 0.13007967 -0.15945487 -0.1088122 -0.04186581 0.07436428 0.08054405
0.060705572 -0.16317095 0.09346444 -0.1674239 -0.04376599 -0.112057365 0.24591288 -0.21707852
-0.03844959 -0.12599398 -0.008125163 0.18446404 -0.023270965 -0.07604157 -0.23085278 -0.017865263
0.09621701 0.080654204 -0.28486127 0.13647681 0.041387416 -0.034582417 -0.18697222 -0.15109865
-0.11189565 -0.047171347 -0.083448805 -0.012179589 0.034492962 -0.047749467 0.00034639405 -0.121532194
0.030680995 0.043561973 -0.12779799 0.07755768 -0.12862527 -0.12573248 0.05295919 0.031151412
0.10984946 -0.037233036 -0.024392456 -0.031271208 0.15937899 -0.031413097 0.043762613 -0.047908604
-0.012255134 0.15141158 -0.1811663 0.051231544 -0.099537425 0.0058339983 -0.0008867455 0.14113003
-0.011778932 0.12491167 0.0598575 0.038627002 0.007985223 -0.0015906198 -0.113143615 -0.068016835
0.10390307 -0.0804729 0.0681271 0.06291453 0.018599637 0.080963194 0.09769856 -0.08997787
-0.03820981 0.03608943 0.043635104 0.111773096 -0.075961374 0.06366932 0.07711454 0.12107233
-0.020406116 0.017097468 -0.027199121 0.03652475 -0.061082363 -0.1635225 0.11374034 0.08850207
0.098438114 -0.15728821 0.12580755 0.05938105 0.08223388 -0.023573996 -0.06717949 0.097474076
0.09794146 0.01909887 0.06640204 0.09971933 0.012562965 -0.12844533 0.051435318 0.15791084
-0.014807328 -0.0890112 -0.084540255 0.06131553 -0.09932325 -0.04051398 -0.096303515 -0.04067209
-0.10968001 0.11254471 -0.09835935 0.1954306 -0.28657323 -0.21134366 -0.1445757 -0.09383135
-0.20962566 -0.2079503 0.074485414 0.020054236 -0.36463127 -0.0027302685 0.004058312 -0.17059769
0.3514683 -0.10029932 0.2863211 -0.22075224 -0.16224672 -0.06575211 0.11328902 -0.18342315
0.13186301 -0.13976699 -0.0062455432 0.13461071 -0.07624976 -0.21425056 -0.08388926 -0.13843784
-0.2403555 -0.17750433 0.08522491 0.09178648 -0.21954653 0.22621492 0.11895575 -0.08298862
-0.106895395 0.18640386 0.08660446 -0.21888421 -0.12453632 -0.14361092 -0.08713873 0.09049395
-0.21074049 -0.02857441 -0.095789425 -0.094461545 -0.23681502 -0.001991564 0.24363914 0.06264553
00000000: 0564 393e 82c9 b2bd dfb6 e53d 00a0 4d3d
00000010: 27a2 74bd 8826 253e 06eb 013e c10f e43d
00000020: a2ae cb3b ac05 4e3e 2056 8a3d f74e c13c
00000030: 922d dd3d 7b69 d43d be17 1b3d 172a 8ebd
00000040: 56ec e03d c595 f4bd d5aa d3bd e449 833d
00000050: d44b bb3d f98f adbc a37e 373d 9ed9 e63d
00000060: ffda 8e3d f46a 93bd 42b3 02bd 1f7f 4c3c
00000070: ef5a 963d 0bcb 0f3e 2156 503d 8dae 9bbd
00000080: 165b 1d3e 8acf 59bd 86e8 77bd c5b8 fe3d
00000090: ec79 d1bd 1137 123e abee a0bd 37ea 1ebe
000000a0: 262c 313d 4d38 9e3d 05e0 d8bd 6746 9c3d
000000b0: f50d 64bd afc4 c0bc e358 3a3e e0c1 ad3c
000000c0: 0179 df3c 3240 94bd 21f1 253e a152 3f3e
000000d0: a9e3 9f3d 2428 073e 6fb9 84bb dbb8 fabd
000000e0: 117d bf3b eeab eabd b2ed 823d 138e 073d
000000f0: 2826 03bd 642a f63a 7c2c 1a3e 4cee fd3d
00000100: 57e3 a7bc 79a6 00be c1f9 f8bd dcf1 d9bd
00000110: 2a39 773d a295 d0bd f783 afbb 450a fdbc
00000120: 75a7 9abd b213 d8bc 3ae1 7ebd 9269 46be
00000130: dd5e 48bd 4713 0abd 9994 a23d e2b8 79be
00000140: e044 7c3d 0c68 023c 9b33 053e 2348 23be
00000150: eed8 debd 7c7b 2bbd 4d4c 983d 47f4 a43d
00000160: 68a6 783d 4916 27be 496a bf3d 2c71 2bbe
00000170: f743 33bd 557e e5bd 96d0 7b3e d549 5ebe
00000180: 517d 1dbd 9104 01be 671f 05bc 24e4 3c3e
00000190: c0a2 bebc afbb 9bbd ac64 6cbe 2c5a 92bc
000001a0: 6c0d c53d 082e a53d 56d9 91be 94c0 0b3e
000001b0: da85 293d 4ba6 0dbd a575 3fbe 9bb9 1abe
000001c0: 8c29 e5bd be36 41bd 35e7 aabd e68c 47bc
000001d0: 7e48 0d3d f294 43bd 399c b539 dfe5 f8bd
000001e0: b656 fb3c 0a6e 323d 7add 02be 90d6 9e3d
000001f0: 58b6 03be 04c0 00be bceb 583d 3f31 ff3c
00000200: c1f8 e03d ab81 18bd b0d2 c7bc 3d16 00bd
00000210: 3f34 233e 05ab 00bd 6d40 333d d03b 44bd
00000220: c2c9 48bc a30b 1b3e a983 39be 2bd8 513d
00000230: 47da cbbd 202b bf3b 7c74 68ba 6484 103e
00000240: 6cfc 40bc b1d1 ff3d 232d 753d 5937 1e3d
00000250: 74d4 023c 587c d0ba d7b7 e7bd 694c 8bbd
00000260: 22cb d43d face a4bd 3986 8b3d 55d9 803d
00000270: 445e 983c 08d0 a53d 2f16 c83d 5146 b8bd
00000280: e481 1cbd 83d2 133d b9ba 323d 4be9 e43d
00000290: a391 9bbd 0f65 823d 3aee 9d3d c5f4 f73d
000002a0: ba2a a7bc fd0f 8c3c b1d0 debc fa9a 153d
000002b0: 8031 7abd 7172 27be b2f0 e83d 9340 b53d
000002c0: ec99 c93d 2910 21be b2d3 003e 8b39 733d
000002d0: 3d6a a83d 411e c1bc 6795 89bd 7da0 c73d
000002e0: 8895 c83d 3c75 9c3c cbfd 873d a639 cc3d
000002f0: e5d4 4d3c 2c87 03be d7ad 523d 61b3 213e
00000300: 6f9a 72bc 814b b6bd 7123 adbd fe25 7b3d
00000310: fd69 cbbd fdf1 25bd c73a c5bd c797 26bd
00000320: ea9f e0bd d77d e63d a070 c9bd f61e 483e
00000330: bab9 92be 796a 58be a70b 14be a72a c0bd
00000340: 1ca8 56be ecf0 54be cf8b 983d c848 a43c
00000350: f3b0 babe 4eee 32bb 97fb 843b 29b1 2ebe
00000360: a7f3 b33e bb69 cdbd ae98 923e e00c 62be
00000370: 0124 26be 0ba9 86bd 1304 e83d 47d3 3bbe
00000380: 1907 073e 141f 0fbe 6aa7 ccbb 64d7 093e
00000390: d628 9cbd 8064 5bbe 22ce abbd a6c2 0dbe
000003a0: c11f 76be b2c3 35be 668a ae3d 8dfa bb3d
000003b0: ced0 60be e2a4 673e 129f f33d f0f5 a9bd
000003c0: f9eb dabd a7e0 3e3e ae5d b13d 2f23 60be
000003d0: e60c ffbd be0e 13be ca75 b2bd e454 b93d
000003e0: 5bcc 57be e214 eabc 3f2d c4bd 0e75 c1bd
000003f0: a37f 72be e684 02bb 8a7c 793e 4d4c 803d

classifier.0.weight f4 [32, 64]
0.0044137184 -0.07866899 0.044418227 -0.06870905 0.7682783 -0.5850613 -0.121995986 -0.1595612
0.041953485 -0.1286768 -0.07951084 -0.1785447 0.14935791 -0.044219963 0.14343075 -0.14876968
0.012994837 -0.105962016 -0.028755905 -0.076376654 -0.15040357 0.03174547 -0.10838247 -0.088146135
-0.47842976 -0.014391085 -0.13310263 0.08214613 -0.04635635 0.029692408 0.18527116 0.0893495
-0.17460857 -0.106257536 -0.19898169 -0.19700569 0.5398269 -0.09715376 -0.17320372 0.09665089
0.022897061 -0.017433343 -0.17980595 0.008448375 0.18719181 -0.026964638 0.07578409 -0.06267659
-0.04247219 0.14078803 0.08104349 -0.20679931 0.018062102 0.05070298 -0.0240988 0.15656745
-0.13921338 -0.0028152526 0.115384944 -0.13755478 -0.06313762 0.020466292 0.13574097 0.2495317
-0.1487105 0.19868433 -0.009995679 -0.08229934 -0.2608153 0.035531934 0.038666233 -0.057261847
-0.075630315 -0.06547008 0.025896285 -0.009791637 0.15297122 -0.22079444 0.04646128 0.019561216
-0.03787569 -0.17788632 0.12627496 -0.11834687 0.0738841 0.0954354 0.12698577 -0.019557891
0.04706225 0.03164434 0.02532854 0.074331224 0.03174043 -0.0014076132 -0.034389373 -0.124021895
-0.09036672 -0.033689138 0.11671081 -0.04124799 -0.030421145 0.06747991 0.18105546 -0.0419573
-0.13599811 0.1266283 0.13302964 -0.10848957 -0.035684578 0.079394765 0.10042372 -0.09670087
0.094063565 0.021099195 -0.025097337 0.017677983 -0.05199781 -0.048860658 -0.03104211 -0.078106284
-0.012245844 -0.07485703 -0.054749295 -0.10986244 0.07847343 0.1051902 0.09982161 0.11448855
0.09810772 -0.024105893 0.25424656 -0.068096094 0.62616754 -0.80746007 -0.20619348 -0.04620984
0.038908735 0.024291925 -0.1493241 -0.22581711 0.15092854 0.05980406 0.2076931 -0.027747894
-0.13736774 0.0755084 -0.21964724 0.20758285 -0.14716999 0.0015791343 -0.17671809 -0.20570357
-0.2957255 0.04877554 -0.109707184 0.17306587 -0.1401177 0.033007562 0.24427356 0.019966329
-0.16316144 0.053407166 -0.054964293 -0.15375543 0.21197161 -0.18911071 -0.27997872 0.22128206
-0.04877835 -0.06401841 -0.1638815 0.04667837 -0.11422105 -0.038635783 0.019747997 0.19110674
0.121725395 0.22921474 -0.141058 -0.3299543 -0.05453991 0.04660715 -0.09171381 -0.020000173
-0.14459193 0.123760514 0.044876255 -0.20819208 -0.16072026 -0.09761611 -0.053970773 0.26265126
-0.07403455 0.21461251 0.10071522 -0.077788174 -0.15280925 0.1820361 0.09773137 0.01840909
-0.05493624 0.0076404186 0.0414459 0.11541061 0.042517975 0.13627754 0.042933967 -0.19215201
-0.15745378 -0.004110513 -0.1449707 -0.28417566 -0.122582294 0.14808515 0.26624507 0.07125387
0.044604555 -0.008060732 0.16701642 -0.036368098 0.11378341 0.027064035 0.0151423905 0.15701309
-0.02817018 -0.12348317 -0.025417702 -0.108820796 -0.06761435 -0.15505168 0.13825174 0.06085213
0.06877365 0.11686953 0.27287003 -0.11399173 0.08102005 -0.003119757 -0.09894163 -0.06587896
-0.04835601 0.19712612 0.18135756 0.11878678 -0.054122325 -0.012906502 -0.024298495 -0.021533854
-0.09634598 -0.044160187 0.031282876 -0.00839492 0.032052517 0.10035864 -0.035242952 -0.06264721
00000000: f4a0 903b 351d a1bd e3ef 353d 55b7 8cbd
00000010: e3ad 443f 94c6 15bf 08d9 f9bd 0364 23be
00000020: 6bd7 2b3d dac3 03be 94d6 a2bd 6cd4 36be
00000030: 48f1 183e fe1f 35bd 83df 123e 1457 18be
00000040: 4ce8 543c 9d02 d9bd 8191 ebbc 5d6b 9cbd
00000050: 6503 1abe 8a07 023d a1f7 ddbd f685 b4bd
00000060: bff4 f4be 96c8 6bbc 0e4c 08be 3b3c a83d
00000070: 28e0 3dbd 7e3d f33c b9b7 3d3e dffc b63d
00000080: 97cc 32be 8d9d d9bd dbc1 4bbe dcbb 49be
00000090: 1932 0a3f 8df8 c6bd 515c 31be e7f0 c53d
000000a0: 9e92 bb3c 5fd0 8ebc 0d1f 38be 0e6b 0a3c
000000b0: 36af 3f3e f2e4 dcbc b034 9b3d 965c 80bd
000000c0: 52f7 2dbd bd2a 103e 21fa a53d 33c3 53be
000000d0: f9f6 933c eead 4f3d d96a c5bc 3853 203e
000000e0: f48d 0ebe 1a80 38bb f14e ec3d 29db 0cbe
000000f0: 4c4e 81bd eda8 a73c aeff 0a3e 3d85 7f3e
00000100: 9147 18be e873 4b3e ebc4 23bc 8e8c a8bd
00000110: 9589 85be ef89 113d 7c60 1e3d 668b 6abd
00000120: 11e4 9abd 2d15 86bd 7224 d43c 1a6d 20bc
00000130: 7da4 1c3e f017 62be 2f4e 3e3d d83e a03c
00000140: 8a23 1bbd d527 36be 394e 013e d85f f2bd
00000150: 8c50 973d a373 c33d 8f08 023e df37 a0bc
00000160: 59c4 403d 7f9d 013d cc7d cf3c f83a 983d
00000170: 4102 023d a97f b8ba dfdb 0cbd 31ff fdbd
00000180: 3012 b9bd 9ffd 09bd 1406 ef3d a7f3 28bd
00000190: c435 f9bc e832 8a3d 9a66 393e 6bdb 2bbd
000001a0: 1743 0bbe d9aa 013e ec38 083e c82f debd
000001b0: fe29 12bd b999 a23d f4aa cd3d 1b0b c6bd
000001c0: 66a4 c03d 38d8 ac3c ee98 cdbc 6bd1 903c
000001d0: a8fb 54bd 1d22 48bd 064c febc 30f6 9fbd
000001e0: cba2 48bc a44e 99bd cc40 60bd 8fff e0bd
000001f0: adb6 a03d f66d d73d 466f cc3d f978 ea3d
00000200: b3ec c83d b979 c5bc 9b2c 823e f775 8bbd
00000210: 844c 203f b4b5 4ebf 6224 53be 8746 3dbd
00000220: c45e 1f3d dcff c63c 6be8 18be 9a3c 67be
00000230: 038d 1a3e 1af5 743d 80ad 543e 8d4f e3bc
00000240: 21aa 0cbe 26a4 9a3d 35eb 60be 9990 543e
00000250: bbb3 16be f4fa ce3a 96f5 34be f5a3 52be
00000260: 5569 97be dcc8 473d 29ae e0bd 2e38 313e
00000270: 047b 0fbe f032 073d d922 7a3e 6d90 a33c
00000280: cb13 27be 79c1 5a3d 3d22 61bd 1072 1dbe
00000290: 160f 593e 3da6 41be 5f59 8fbe c497 623e
000002a0: cfcb 47bd 161c 83bd 8dd0 27be d231 3f3d
000002b0: baec e9bd 8e40 1ebd 8dc6 a13c 7cb1 433e
000002c0: 2a4b f93d 45b7 6a3e 8271 10be c5ef a8be
000002d0: 3e65 5fbd 24e7 3e3d 73d4 bbbd 67d7 a3bc
000002e0: e80f 14be 2776 fd3d 2ad0 373d 4e30 55be
000002f0: da93 24be f5ea c7bd 7510 5dbd 3a7a 863e
00000300: 6d9f 97bd 62c3 5b3e c843 ce3d 684f 9fbd
00000310: 077a 1cbe ac67 3a3e 6227 c83d a9ce 963c
00000320: d304 61bd 7a5c fa3b 2dc3 293d 665c ec3d
00000330: 5427 2e3d 578c 0b3e 87db 2f3d 7fc3 44be
00000340: 903b 21be 7bb1 86bb 3373 14be 797f 91be
00000350: 6d0c fbbd a2a3 173e 4651 883e 8ded 913d
00000360: 44b3 363d 2911 04bc 5a06 2b3e b7f6 14bd
00000370: 4707 e93d 65b5 dd3c ca17 783c 0ac8 203e
00000380: 26c5 e6bc bfe4 fcbd c938 d0bc 70dd debd
00000390: 6479 8abd dec5 1ebe dd91 0d3e 1540 793d
000003a0: 33d9 8c3d 4b59 ef3d 9fb5 8b3e 7f74 e9bd
000003b0: d7ed a53d d674 4cbb e9a1 cabd 8ceb 86bd
000003c0: f410 46bd 6edb 493e ccb5 393e 7c46 f33d
000003d0: 5faf 5dbd cb75 53bc a30d c7bc c467 b0bc
000003e0: 0b51 c5bd 50e1 34bd 7922 003d d98a 09bc
000003f0: 8049 033d d588 cd3d ea5a 10bd 2e4d 80bd

classifier.0.bias f4 [32]
-0.02126926 0.008197041 -0.056543093 0.13437338 0.064013265 0.06430212 0.09612987 -0.04405812
-0.14482819 0.042710975 -0.10219993 -0.023773054 0.003444999 -0.12388193 0.19845882 -0.109558456
0.14843947 -0.064165525 -0.017361702 0.016595416 -0.044032652 -0.17862648 -0.016795859 0.10451334
-0.007553273 -0.097876266 -0.11021546 -0.15114361 -0.1285688 -0.05915673 0.0018505385 -0.19242217
00000000: df3c aebc e24c 063c bb99 67bd 2d99 093e
00000010: 6319 833d d4b0 833d bddf c43d 4a76 34bd
00000020: d74d 14be b4f1 2e3d 324e d1bd b5bf c2bc
00000030: 7ec5 613b cfb5 fdbd ca38 4b3e 2f60 e0bd
00000040: 8400 183e 3769 83bd 213a 8ebc 1cf3 873c
00000050: 955b 34bd dce9 36be 7897 89bc 170b d63d
00000060: 7281 f7bb 5a73 c8bd a5b8 e1bd 64c5 1abe
00000070: 8aa7 03be 544e 72bd c58d f23a 510a 45be

classifier.2.weight f4 [1, 32]
-0.26636845 0.0058965255 -0.15494423 0.06352276 0.012831197 -0.30326414 0.106258355 -0.19028245
-0.181895 -0.48754084 0.04475454 -0.25524545 -0.25708568 0.008720364 0.13948967 0.031854782
0.17032386 -0.2444788 -0.19020443 0.23678951 -0.14832434 -0.092410855 -0.227572 0.14785701
-0.00088460685 -0.33785686 0.0016369623 0.10565794 -0.22234046 -0.17857529 -0.28314447 -0.14145479
00000000: 7261 88be a437 c13b b3a9 1ebe 3918 823d
00000010: f139 523c 7045 9bbe fb9d d93d 67d9 42be
00000020: af42 3abe f49e f9be 8950 373d 88af 82be
00000030: bca0 83be dcdf 0e3c 61d6 0e3e 297a 023d
00000040: 6169 2e3e a758 7abe f3c4 42be f378 723e
00000050: 56e2 17be e741 bdbd a208 69be d467 173e
00000060: f6e4 67ba 93fb acbe 578f d63a 3163 d83d
00000070: 38ad 63be 71dc 36be 50f8 90be 86d9 10be
