experiments/darpa2000/s1_inside/baselines/multi_class_lstm/models/multi_class_lstm_original_class_weights_w10.pth (torch, 195589 bytes, 8 tensors)

lstm.weight_ih_l0 f4 [256, 112]
0	0x3c915b38	0.017743692
1	0xbe2f96de	-0.17147395
2	0xbde0824d	-0.10962353
3	0x3d411508	0.047139198
4	0xbefbdfff	-0.49194333
5	0xbe9d078c	-0.3066982
6	0xbebc43b2	-0.36770397
7	0xbe20dc7c	-0.15709108
8	0x3cc497d8	0.023998186
9	0x3d99a47d	0.07502077
10	0xbbbceb40	-0.0057653487
11	0x3e7b72d8	0.24555528
12	0xbdc1bdf1	-0.094600566
13	0x3e073f3e	0.13207719
14	0xbe8a4172	-0.27003056
15	0x3d808cee	0.0627688
16	0xbe557e52	-0.20848969
17	0xbe736c23	-0.2377172
18	0x3c46c4b7	0.012131861
19	0x3e043234	0.12909776
20	0xbc99d757	-0.01877944
21	0xbdc90cc7	-0.0981689
22	0x3e2bb3c5	0.16767795
23	0x3d803777	0.06260579
24	0xbd8ebe20	-0.06969857
25	0x3e2facc0	0.17155743
26	0x3d8eb271	0.06967629
27	0x3e14a7d0	0.1451714
28	0x3ccf0c5e	0.025274452
29	0xbd40172b	-0.046897095
30	0x3de9e268	0.11420137
31	0x3e210778	0.15725505
32	0x3dea27ab	0.11433347
33	0x3e1ebac0	0.15500927
34	0x3dfadd09	0.1224919
35	0x3e1a2f32	0.15057066
36	0xbcaaa029	-0.020828323
37	0x3dc69502	0.0969639
38	0x3c74ef11	0.014949576
39	0xbcfda37d	-0.030961746
40	0xbdc87d81	-0.09789563
41	0xbd6a3570	-0.05717987
42	0xbd693e9a	-0.056944467
43	0x3e592954	0.21207172
44	0x3e87d5ad	0.2653021
45	0x3e1412f1	0.1446035
46	0xbe1edff3	-0.15515117
47	0x3cd88433	0.026430225
48	0x3da61d58	0.081110656
49	0x3d9d2e8a	0.07674892
50	0x3d39d46e	0.045368604
51	0x3d51589d	0.0511099
52	0x3cfc8f75	0.030830124
53	0xbd650e12	-0.05592162
54	0x3c4bf00e	0.01244737
55	0xbde8c2d1	-0.11365283
56	0xbc8edc4e	-0.017439034
57	0x3dfb945f	0.12284159
58	0x3e156c50	0.14592099
59	0xbdd928f4	-0.10603514
60	0x3d39b3f7	0.045337643
61	0xbcbf6547	-0.023363722
62	0xbea720ca	-0.32642204
63	0xbe09aeab	-0.13445537
64	0xbd8bca88	-0.06825739
65	0xbe4d5414	-0.20051605
66	0xbe64a7aa	-0.22329584
67	0x3d2827bc	0.04105352
68	0xbe941da9	-0.2892888
69	0x3dea3da3	0.114375375
70	0xbe6db944	-0.23215204
71	0x3dabd412	0.083900586
72	0xbdb36c7c	-0.08760926
73	0xbd1aaec8	-0.03776434
74	0x3bdc9763	0.006731914
75	0x3af3bef2	0.0018596335
76	0xbd3de774	-0.04636331
77	0xbe11c0eb	-0.14233749
78	0xbe86fc12	-0.2636419
79	0x3c80dbd2	0.015729818
80	0xbda1b038	-0.07894939
81	0x3b959340	0.0045646727
82	0x3d072940	0.032998323
83	0xbe5d2823	-0.21597342
84	0xbea86193	-0.32886943
85	0x3d142581	0.03616858
86	0xbdda3770	-0.10655105
87	0x3e55e0cc	0.20886534
88	0x3dd36963	0.10322835
89	0x3db56690	0.08857453
90	0xbdc047ef	-0.0938872
91	0x3df1a260	0.11798549
92	0xbc5acb33	-0.0133541105
93	0x3e2e6042	0.17028907
94	0xbe285ea9	-0.1644236
95	0x3dc0c581	0.09412671
96	0x3e0cea42	0.13761237
97	0x3d932d2e	0.07186352
98	0x3e41cabf	0.18924998
99	0xbc6b57de	-0.014364211
100	0x3cedcde1	0.029028835
101	0xbdbc69dc	-0.091998786
102	0x3d92a371	0.0716008
103	0xbe350fb4	-0.17681772
104	0x3dc4e481	0.09613896
105	0xbba80ef8	-0.0051287375
106	0x3de6de5b	0.1127288
107	0x3e569ea4	0.20958954
108	0x3e645523	0.22298102
109	0x3dd1d37a	0.10245414
110	0x3ddb6c49	0.10714013
111	0xbcc19fb1	-0.023635717
112	0xbcd63a95	-0.026150981
113	0x3e254163	0.16138224
114	0xbe400703	-0.18752675
115	0x3c6fc430	0.014634177
116	0xbe5d5112	-0.21612957
117	0x3e9d30c6	0.30701274
118	0xbdcad79c	-0.099044055
119	0xbd72e4d6	-0.059300266
120	0x3d579b57	0.052638378
121	0x3e0f6140	0.14001942
122	0x3df1ce8c	0.11806974
123	0xbce6e5a0	-0.028185666
124	0x3ec51ca9	0.38498428
125	0xbe567c7b	-0.20945923
126	0x3db167cb	0.08662375
127	0xbe0ab1a7	-0.13544331
128	0xbd443451	-0.047901455
129	0x3deed53a	0.116617635
130	0xbd104dca	-0.035230435
131	0x3d8096ad	0.06278739
132	0xbd8fad7d	-0.07015512
133	0x3e446be9	0.1918179
134	0xbd7ec88f	-0.062202986
135	0xbd9152c0	-0.070958614
136	0x3ca92d58	0.020651504
137	0x3e017b42	0.12644675
138	0xbe3b3aec	-0.18284196
139	0xbdf10068	-0.117676556
140	0x3e7f9da0	0.24962473
141	0xbe89e4ae	-0.2693228
142	0x3d7776c3	0.060415994
143	0x3ded59e6	0.115894124
144	0xbd39c2ec	-0.045351908
145	0xbd252641	-0.040319685
146	0x3babc7ca	0.0052423226
147	0x3c091d9a	0.008368874
148	0xbbfbbd9b	-0.007682515
149	0xbd913da1	-0.07091833
150	0x3c2710bb	0.01019686
151	0xbdb09a3e	-0.08623169
152	0x3e843cc7	0.2582762
153	0x3c911baf	0.017713396
154	0x3de1b856	0.110214874
155	0x3eac32f6	0.3363263
156	0xbe828819	-0.2549446
157	0xbdd54131	-0.10412825
158	0x3d70bcd1	0.05877382
159	0x3d9aa097	0.07550161
160	0xbc6092fd	-0.01370692
161	0x3df88715	0.1213514
162	0xbdabe1da	-0.08392687
163	0x3db86e80	0.09005451
164	0x3dffd298	0.124913394
165	0x3d31617a	0.04330585
166	0x3e8357c0	0.25652885
167	0x3e9a793b	0.30170617
168	0x3c9d3ccc	0.01919403
169	0x3dfb09c5	0.12257723
170	0xbe3a97f8	-0.18222034
171	0x3c2163b4	0.009850431
172	0xbdc7120d	-0.0972024
173	0xbd0ec308	-0.034853965
174	0xbd2c6f14	-0.04209812
175	0xbd20d56e	-0.039266042
176	0xbe06a354	-0.13148242
177	0xbdc89de6	-0.09795742
178	0x3ded32ca	0.11581953
179	0x3d295f3f	0.0413506
180	0xbd81b991	-0.06334222
181	0xbd990efd	-0.07473562
182	0xbdf26cb6	-0.11837141
183	0xbdafe3ec	-0.085883945
184	0xbec998f0	-0.39374495
185	0xbd3f15f9	-0.046651814
186	0xbe2ad0cb	-0.1668121
187	0x3d617406	0.05504229
188	0x3d45065e	0.048101775
189	0xbdedfa5d	-0.11620019
190	0xbe0842eb	-0.13306777
191	0xbe23277f	-0.15933035
192	0x3cb421f0	0.021988839
193	0x3dc06c02	0.09395601
194	0x3d3a6f40	0.045516253
195	0x3e0f929d	0.14020772
196	0x3d7ca3fd	0.06167983
197	0x39a36c32	0.00031170395
198	0x3ea8ca80	0.32966995
199	0xbde043fd	-0.10950468
200	0x3dfc5608	0.12321097
201	0x3bd829a9	0.006596763
202	0x3d0d99d5	0.034570534
203	0x3c450d73	0.012027132
204	0x3e4522d5	0.19251569
205	0x3e720f0a	0.2363855
206	0x3d8c24f8	0.06842989
207	0x3c1e2f0d	0.0096547725
208	0xbd480379	-0.048831437
209	0x3d17bb7c	0.037044033
210	0x3d3b4e38	0.045728892
211	0xbc8a7da2	-0.01690561
212	0xbc90dd8a	-0.017683763
213	0xbdc81b09	-0.097707815
214	0x3c35734a	0.01107485
215	0x3db6c582	0.089243904
216	0xbe0a5f22	-0.13512853
217	0xbcdb70bb	-0.026787153
218	0x3c9fb7c0	0.019496799
219	0x3cc27870	0.02373907
220	0xbd7186f9	-0.05896661
221	0x3a2dfa93	0.0006636765
222	0x3e1262d4	0.14295512
223	0xbd31280f	-0.043251093
224	0xbdfa3f66	-0.122191235
225	0xbe152695	-0.14565499
226	0xbe7453b8	-0.23860061
227	0xbdd2db82	-0.10295774
228	0x3d598a24	0.053110257
229	0x3ed0c911	0.40778401
230	0x3d0ab6fa	0.033865906
231	0xbe1c1036	-0.15240559
232	0xbd9e9427	-0.077431016
233	0x3e5848e1	0.21121551
234	0xbcdbb2eb	-0.026818713
235	0xbd85d253	-0.06534257
236	0xbb965368	-0.0045875795
237	0xbe07d129	-0.13263382
238	0xbd032888	-0.032021075
239	0xbdb9ad14	-0.09066215
240	0xbd6e2681	-0.05814219
241	0xbe58d8ff	-0.21176527
242	0xbda5f21c	-0.08102819
243	0xbe0049e0	-0.12528181
244	0x3e8c3a59	0.27388266
245	0x3eb57614	0.3544165
246	0xbe411f48	-0.18859589
247	0xbd8be753	-0.06831231
248	0x3e61f4e3	0.22066073
249	0x3dcd1e14	0.100155026
250	0xbc922e39	-0.017844306
251	0xbe86911b	-0.26282582
252	0x3ee2a1e8	0.4426415
253	0xbeafc7e3	-0.3433219
254	0x3cf6f9d7	0.03014843
255	0xbe5072d8	-0.2035631

lstm.weight_hh_l0 f4 [256, 64]
0	0x3dd888d9	0.105729766
1	0x3cb06b3f	0.021535514
2	0x3dee3054	0.116303116
3	0xbe93aada	-0.28841287
4	0x3e8b3d58	0.2719524
5	0x3d6b549c	0.057453737
6	0xbe020818	-0.126984
7	0x3cd46dd6	0.02593128
8	0xbe3bbe8b	-0.18334405
9	0x3d02e8b9	0.031960223
10	0x3d9b8d2d	0.075952865
11	0xbe507259	-0.2035612
12	0x3e33a5cb	0.17543714
13	0x3d254e4d	0.040357877
14	0xbdc2f83b	-0.095200025
15	0x3e157339	0.14594735
16	0x3c98083f	0.01855862
17	0x3e460795	0.1933883
18	0xbd708efb	-0.058730107
19	0xbe92c92e	-0.28669113
20	0x3df9bfd8	0.121947944
21	0xbd882581	-0.06647778
22	0x3e366cbb	0.17814915
23	0x3e91670c	0.2839893
24	0xbcf23ea4	-0.029570885
25	0x3e02bcc6	0.12767324
26	0xbddd227e	-0.107975945
27	0xbc6e09c4	-0.0145286955
28	0x3ea1d240	0.3160572
29	0x3de276c9	0.11057813
30	0xbdbe1cea	-0.09282859
31	0xbe943d33	-0.2895294
32	0xbd7e4a7e	-0.06208276
33	0x3e43193f	0.190526
34	0xbe513681	-0.20430948
35	0x3ea8600c	0.32885778
36	0x3d0d1d6f	0.0344519
37	0x3d07a5b0	0.033116996
38	0x3e778b94	0.24174339
39	0xbd8f3a7d	-0.06993578
40	0x3e057d7b	0.13036148
41	0xbe822d04	-0.2542497
42	0xbdb00c89	-0.08596141
43	0x3e0436e1	0.1291156
44	0xbdf058b7	-0.11735671
45	0xbd80ad04	-0.06283
46	0xbe2556f4	-0.16146451
47	0xbe0f13c7	-0.13972388
48	0xbe8ccf28	-0.27501798
49	0x3e857b9d	0.26070872
50	0x3d9bc10e	0.07605182
51	0xbda31114	-0.07962242
52	0x3e58a225	0.21155603
53	0xbe7a0b35	-0.24418338
54	0x3ce7483c	0.028232686
55	0x3daad94c	0.08342227
56	0xbcf72cc5	-0.030172715
57	0x3e3ba6a6	0.1832529
58	0x3d63d4f8	0.055623025
59	0xbe0abe93	-0.13549261
60	0xbd8c6dec	-0.068569034
61	0xbdbd9596	-0.09257047
62	0xbe10274d	-0.14077492
63	0xbd543580	-0.051808834
64	0xbdcfd466	-0.10147934
65	0xbde4468b	-0.111462675
66	0x3dd5a768	0.10432321
67	0x3e0a3242	0.13495734
68	0x3d9a1d99	0.075251766
69	0xbe8609d5	-0.26179376
70	0xbdc4c953	-0.09608712
71	0xbe65ffa4	-0.224608
72	0xbe2b3c8c	-0.16722316
73	0x3ca56792	0.020190988
74	0x3e339292	0.17536381
75	0x3da60e28	0.08108169
76	0xbc29a7f9	-0.010354989
77	0x3c30508b	0.01076139
78	0xbd9c5805	-0.07633976
79	0xba020b71	-0.00049608113
80	0xbc19c15c	-0.009384479
81	0xbd193622	-0.03740514
82	0x3c13dbfa	0.0090246145
83	0xbdf5d973	-0.12004366
84	0xbdf0fa92	-0.117665425
85	0x3dd03e37	0.101681165
86	0x3e1f24a2	0.15541318
87	0x3d1b295a	0.037881233
88	0x3babc9e3	0.0052425726
89	0xbe50c2c6	-0.203868
90	0x3d896a94	0.06709781
91	0x3dbc55e7	0.09196072
92	0x3d14883e	0.036262743
93	0x3e88d063	0.26721486
94	0x3e2bb015	0.16766389
95	0xbd397878	-0.045280904
96	0xbda0845d	-0.07837746
97	0x3d576023	0.052581917
98	0xbd9114e0	-0.0708406
99	0xbe823ea7	-0.25438425
100	0x3d49a3fa	0.049228646
101	0x3e44693c	0.19180769
102	0xbd55a11f	-0.05215561
103	0xbe2bdafb	-0.16782753
104	0x3d8fe940	0.07026911
105	0xbdc61154	-0.09671274
106	0x3dc3e86b	0.095658146
107	0x3df19011	0.117950566
108	0x3d92e87f	0.07173251
109	0x3d5ca1d0	0.053865254
110	0x3d91b3cb	0.07114371
111	0x3ca655ec	0.020304643
112	0x3d076ebc	0.03306459
113	0xbdbe5dbe	-0.09295224
114	0x3e4017ff	0.18759154
115	0xbe3c9a19	-0.18418159
116	0x3d2cebc0	0.042217016
117	0xbe5459ca	-0.20737377
118	0x3e09fddf	0.1347575
119	0x3da3bcec	0.07995018
120	0xbce2b630	-0.027674764
121	0x3d0ca440	0.03433633
122	0xbe185b24	-0.14878517
123	0x3e94553a	0.28971273
124	0xbdc44a86	-0.09584527
125	0x3de11a50	0.10991347
126	0xbd2523ea	-0.040317453
127	0x3c6d18d3	0.014471251
128	0x3cf3b781	0.029750587
129	0xbd54f606	-0.05199244
130	0x3d98c683	0.07459738
131	0xbdc49c2a	-0.096000984
132	0xbd952980	-0.07283306
133	0x3c7b3da6	0.015334522
134	0xbbc79e05	-0.0060918354
135	0xbe8f0081	-0.27930072
136	0xbd8a6d72	-0.06759156
137	0xbe2aca56	-0.16678748
138	0xbb2f011d	-0.0026703544
139	0x3d5c09b2	0.053720184
140	0xbdbc8f74	-0.09207049
141	0x3def7123	0.11691501
142	0x3d9aa25b	0.07550498
143	0xbd9d07d5	-0.076675095
144	0x3daa7d66	0.08324699
145	0xbe4d5ef5	-0.20055754
146	0x3dad1294	0.08450809
147	0x3db9baad	0.09068809
148	0xbe60d444	-0.21955973
149	0x3d18f29d	0.03734075
150	0x3d547c4a	0.051876344
151	0xbe2ecadd	-0.17069574
152	0x3e44c554	0.192159
153	0xbd81eb90	-0.06343758
154	0x3cd09d48	0.025465623
155	0xbc48a022	-0.01224521
156	0xbd3267e3	-0.043556105
157	0x3defe9c4	0.11714509
158	0x3dfc8009	0.12329108
159	0x3cb6c785	0.022311935
160	0xbcba3dca	-0.022734541
161	0x3bffe985	0.00780982
162	0x3d894165	0.06701926
163	0xbd439c63	-0.047756564
164	0xbdaa4154	-0.083132416
165	0xbdb71e20	-0.08941293
166	0x3c6a060d	0.014283669
167	0xbe133084	-0.14373976
168	0xbe08843f	-0.13331698
169	0xbc9fe183	-0.019516712
170	0x3df816aa	0.12113698
171	0xbd445ae2	-0.047938235
172	0x3d1c4155	0.038148243
173	0x3e29c450	0.16578794
174	0x3d824efc	0.06362721
175	0x3ad8ed38	0.0016550189
176	0xbd9dfa70	-0.07713783
177	0xbca10c12	-0.019659076
178	0xbca6ea04	-0.02037526
179	0xbdcaed81	-0.099085815
180	0x3d87baf0	0.066274524
181	0x3e487e42	0.19579414
182	0x3d452e6f	0.048139986
183	0xbe561f27	-0.20910321
184	0xbd8643d8	-0.06555909
185	0x3cfe24b1	0.031023355
186	0xbe9cf440	-0.30655098
187	0x3df928d8	0.121659935
188	0x3e18f6b3	0.14937858
189	0x3d884e4b	0.06655558
190	0x3e226869	0.15860142
191	0x3dd1d0e1	0.102449186
192	0x3d42514e	0.04744082
193	0x3e7ddf38	0.24792182
194	0xbdc0d864	-0.09416273
195	0xbdd2eca9	-0.102990456
196	0x3ccb8a46	0.024846207
197	0xbdf9a6fa	-0.121900514
198	0xbe6989c2	-0.22806457
199	0x3c016baa	0.007899204
200	0xbd1044c8	-0.035221845
201	0x3d872869	0.065995045
202	0xbe645294	-0.22297126
203	0xbe336511	-0.17519023
204	0x3db43c09	0.08800513
205	0xbd983f59	-0.074339576
206	0x3c2a21f9	0.010384076
207	0xbcd9e3bd	-0.026597852
208	0xbd4668f4	-0.048439935
209	0x3e0d638a	0.13807502
210	0x3a94e441	0.0011359529
211	0x3cda2ebd	0.026633615
212	0x3d01c63a	0.031683184
213	0xbd0764ca	-0.033055104
214	0xbde003e6	-0.109382436
215	0x3e17435a	0.14771786
216	0xbdce47a1	-0.10072256
217	0xbd921e60	-0.071347
218	0x3bf74978	0.0075466
219	0x3d12ff86	0.035888217
220	0x3dd1901d	0.102325656
221	0xbde41961	-0.11137653
222	0xbe23eea1	-0.16008998
223	0xbdcb4cc1	-0.09926749
224	0x3d812249	0.063053675
225	0xbd41092e	-0.047127895
226	0xbdc0682e	-0.09394871
227	0x3ea078df	0.31342217
228	0x3e0d79a5	0.13815935
229	0x3c192095	0.009346147
230	0xbd7e1c4b	-0.0620387
231	0x3d200eff	0.0390768
232	0x3e2155de	0.15755412
233	0xbd81e88e	-0.063431844
234	0xbd2583a8	-0.04040876
235	0x3d8e96ff	0.06962394
236	0xbe1fe53a	-0.15614787
237	0x3c9c73c0	0.019098163
238	0xbd426e5c	-0.04746853
239	0x3e638a61	0.22220756
240	0x3da611c3	0.081088565
241	0x3a34b332	0.0006893157
242	0x3d23f7f8	0.040031403
243	0xbdcdb218	-0.10043734
244	0x3e1f2e43	0.15544991
245	0xbd496bef	-0.0491752
246	0xbe067984	-0.13132292
247	0xbe885a98	-0.26631618
248	0x3e164519	0.14674796
249	0xbd0e3fa1	-0.03472865
250	0x3d260049	0.040527616
251	0xbdcc4811	-0.09974683
252	0x3d8bd2aa	0.0682729
253	0xbe10f053	-0.14154176
254	0x3da6263e	0.08112763
255	0xbd2b5dcf	-0.04183751

lstm.bias_ih_l0 f4 [256]
0	0x3de3a345	0.111151256
1	0x3c990d04	0.018682964
2	0xbd333f03	-0.043761265
3	0xbd9cc504	-0.07654765
4	0xbcac9e2f	-0.021071522
5	0xbdbe287b	-0.09285065
6	0xbcc4807b	-0.023987046
7	0x3e3fe8cd	0.1874115
8	0x3cb9a3c2	0.022661094
9	0x3e643e77	0.22289453
10	0x3d2c94e3	0.042134177
11	0x3e040736	0.12893376
12	0x3e05a897	0.13052593
13	0xbe440de3	-0.19145922
14	0x3e3ac4c4	0.18239123
15	0x3cb91f7c	0.02259802
16	0x3e07926b	0.13239448
17	0xbd23ecf8	-0.040020913
18	0x3e70ac7c	0.23503298
19	0x3e7871c5	0.2426215
20	0xbbfffb6d	-0.0078119547
21	0x3d9f20d1	0.07769931
22	0x3dea5b24	0.11443165
23	0x3e1d0fc2	0.15338042
24	0x3dc0aeca	0.09408338
25	0x3dedc3c2	0.116096035
26	0x3d455f79	0.048186753
27	0x3e43b32c	0.19111317
28	0xbc81e6ac	-0.015857063
29	0xbc7a9b69	-0.015295842
30	0x3df690b0	0.12039316
31	0x3e86664b	0.26249918
32	0x3daf86e2	0.08570649
33	0x3e4d3a9a	0.20041886
34	0xbe098ed2	-0.13433388
35	0x3dfe23d6	0.12409179
36	0xbdd2e6ca	-0.10297926
37	0x3db765aa	0.08954938
38	0x3de09209	0.10965354
39	0xbcd218cc	-0.02564659
40	0x3d087956	0.03331884
41	0x3df9341a	0.12168141
42	0x3e087f0e	0.13329718
43	0x3e084294	0.13306648
44	0x3d3ec9b6	0.046579085
45	0x3d2b6b66	0.04185047
46	0x3e2aeefb	0.16692726
47	0x3e73f9fb	0.23825829
48	0x3da65011	0.0812074
49	0xbd3d6a9a	-0.04624424
50	0x3d2a6d4a	0.041608132
51	0x3c45f377	0.012081972
52	0x3cfb111d	0.030647809
53	0x3eb99be7	0.36251757
54	0x3e162e37	0.14666067
55	0xbd2a2545	-0.04153945
56	0x3cc80c4f	0.024419932
57	0x3d92053a	0.07129903
58	0x3dfbe50d	0.12299547
59	0x3eb322ad	0.34987393
60	0x3e30a123	0.17248969
61	0x3da37d51	0.079828866
62	0xbcb6037e	-0.022218462
63	0xbe02b642	-0.12764838
64	0xbe3b33fb	-0.18281548
65	0xbe316649	-0.17324175
66	0x3dd4db91	0.103934415
67	0xbd8d42ad	-0.06897483
68	0xbd6d03c7	-0.05786493
69	0xbccff9ec	-0.025387727
70	0xbd2a161f	-0.041525003
71	0x3c0a18d0	0.008428767
72	0x3dc8b740	0.09800577
73	0x3d7367c8	0.059425145
74	0x3d6e95d2	0.05824835
75	0xbcea8d19	-0.028631734
76	0x3e5ac3fb	0.21363823
77	0xbde501d6	-0.11181991
78	0x3db8d7c6	0.090255305
79	0x3e1091f5	0.14118178
80	0x3c1b4ca0	0.009478718
81	0xbd499b37	-0.04922029
82	0xbd087f87	-0.033324745
83	0xbd6c3aac	-0.05767314
84	0xbdc0c095	-0.09411732
85	0xbd9a2679	-0.07526869
86	0x3b3b7b14	0.0028607296
87	0xbc0a4215	-0.008438607
88	0x3b8a6129	0.004223008
89	0x3cd2f888	0.025753275
90	0xbda273d3	-0.07932248
91	0xbc908ae0	-0.017644346
92	0xbe347b58	-0.17625177
93	0x3dfe4b81	0.12416745
94	0xbd83bfa8	-0.0643304
95	0x3c87653b	0.016527763
96	0xbe06d533	-0.13167267
97	0x3dd93406	0.10605626
98	0xbcea42ad	-0.028596247
99	0x3db7f19b	0.089816295
100	0xbd9d1e63	-0.076718114
101	0xbe2276e7	-0.1586567
102	0x3d323fec	0.043517992
103	0xbe1c2f93	-0.15252523
104	0xbe203dc7	-0.15648566
105	0x3de3fbe7	0.11132031
106	0x3e2d970d	0.16952153
107	0xbd9cf00f	-0.07662975
108	0xbd7d7166	-0.061875723
109	0xbd9c2fc4	-0.07626298
110	0xbd70aa69	-0.058756266
111	0xbd8ad93f	-0.06779718
112	0x3e94934b	0.29018626
113	0x3d80f2d9	0.062963195
114	0xbd0253d9	-0.031818245
115	0x3d3e5538	0.04646799
116	0x3d9be44b	0.07611903
117	0x3d89da6a	0.06731112
118	0x3d8f8052	0.07006897
119	0x3d88068a	0.06641872
120	0x3da537b9	0.08067269
121	0xbde38611	-0.111095555
122	0xbdac82e3	-0.08423402
123	0x3e001425	0.12507685
124	0x3d875ae8	0.06609136
125	0x3d6a058b	0.057134192
126	0xbd667eff	-0.056273457
127	0xbe4e7054	-0.20160037
128	0xbdc864ea	-0.09784873
129	0x3befe5e1	0.007321105
130	0x3de69f68	0.11260873
131	0xbdb9e6a9	-0.09077198
132	0x3d46b210	0.048509657
133	0x3c30e7e2	0.010797473
134	0x3d5b7a05	0.053583164
135	0x3d98a52c	0.07453379
136	0xbdad9bed	-0.08477006
137	0xbd96dd6f	-0.07366454
138	0xbdd6227a	-0.10455795
139	0x3cfebfcc	0.031097315
140	0xbceae326	-0.028672766
141	0x3cbc5991	0.022991927
142	0xbd0c79e0	-0.034295917
143	0xbd293799	-0.041312788
144	0x3db1e767	0.086867146
145	0x3e144109	0.14477934
146	0xbde4905a	-0.111603454
147	0xbddd7bdf	-0.10814642
148	0xbd8fe6c2	-0.070264354
149	0xbe0138bb	-0.12619297
150	0x3d2f7da6	0.042844437
151	0xbcc5988d	-0.024120593
152	0x3d32f6b1	0.043692295
153	0x3dc8eae0	0.09810424
154	0xbd6706ad	-0.05640285
155	0x3c3a8e81	0.011386515
156	0xbd81bab2	-0.063344374
157	0x3c8bca75	0.017064312
158	0xbe1d0e65	-0.15337522
159	0x3dc9c256	0.0985152
160	0xbbf1d90a	-0.0073806094
161	0xbd4d4535	-0.05011483
162	0x3c87ec83	0.01659227
163	0x3d00feea	0.031493105
164	0x3c4b872b	0.012422363
165	0xbce1efe2	-0.027580205
166	0x3df78cff	0.1208744
167	0xbd5ee315	-0.05441578
168	0x3de2d90e	0.11076556
169	0xbdd9cda4	-0.10634926
170	0x3e1707b4	0.14749032
171	0xbe100ee8	-0.14068186
172	0xbda75bf9	-0.08171839
173	0x3dac1fb3	0.08404484
174	0xbe41a6c0	-0.18911266
175	0x3cd24630	0.025668234
176	0xbde452d4	-0.11148611
177	0x3ce5678f	0.028003482
178	0x3d307afb	0.043086033
179	0xbda5bf27	-0.080931
180	0x3e240cbb	0.16020481
181	0xbdb2252b	-0.086984955
182	0x3dbeed35	0.093225874
183	0x3d46487a	0.048408963
184	0xbd1a803e	-0.037719958
185	0x3d5638ca	0.052300252
186	0xbd7f0355	-0.062259037
187	0x3dc10eda	0.09426661
188	0xbe2ac62a	-0.16677156
189	0xbe043001	-0.12908937
190	0x3d86b10c	0.06576738
191	0xbcb794b7	-0.02240978
192	0x3e3336d3	0.17501383
193	0x3d568c3c	0.05237983
194	0x3e22bbcf	0.15891956
195	0x3cb2ecfe	0.021841522
196	0xbd940660	-0.072277784
197	0xbb2f600f	-0.0026760136
198	0x3e23d68a	0.15999809
199	0x3e892956	0.2678935
200	0x3dcab501	0.09897805
201	0x3d0c547c	0.034260258
202	0x3e59514c	0.21222419
203	0xbcd48999	-0.025944518
204	0x3bb8b115	0.005636344
205	0x3ab8a91e	0.0014088487
206	0x3ea68a73	0.32527503
207	0xbda49f16	-0.08038156
208	0x3e73390f	0.23752235
209	0xbd2ee07d	-0.042694557
210	0x3d701611	0.058614794
211	0x3e033f6b	0.12817161
212	0x3c28e27f	0.010307907
213	0x3e41d5be	0.18929192
214	0x3e2d30f3	0.16913204
215	0xbd22b29e	-0.039721124
216	0x3ce0b40f	0.027429609
217	0xbb792587	-0.0038016753
218	0x3e0f60e8	0.1400181
219	0x3e238f14	0.15972549
220	0xbd4aabaa	-0.049480118
221	0x3df3a05d	0.11895821
222	0x3dc7e9d2	0.097613946
223	0x3eba72b7	0.36415645
224	0xbe088c0c	-0.13334674
225	0xbd6d61b9	-0.057954524
226	0xbc2612fa	-0.01013636
227	0x3e7cc12b	0.24683063
228	0x3d3f9e49	0.046781812
229	0x3e908bf7	0.28231785
230	0xbd0a1aa6	-0.03371682
231	0x3df58247	0.11987739
232	0xbe14a99e	-0.14517829
233	0xbd6258ad	-0.05526035
234	0x3e8b7258	0.27235675
235	0x3ecbe222	0.39820963
236	0x3d512d5c	0.05106865
237	0xbcbe2c7e	-0.023214575
238	0x3e5d79f8	0.21628559
239	0xbc826e56	-0.015921753
240	0x3d1ca48b	0.038242858
241	0xbe17db7e	-0.14829823
242	0xbbf57381	-0.007490576
243	0x3cbaaded	0.022788012
244	0xbdcc4f49	-0.0997606
245	0x3ecb1f67	0.39672396
246	0xbd27a3e8	-0.040927798
247	0x3e453264	0.19257504
248	0x3be1c6e4	0.0068901647
249	0xbdf6a826	-0.120437905
250	0xbdabd4d7	-0.08390205
251	0x3e843a5f	0.25825784
252	0x3d795ed8	0.060881466
253	0x3d9d034c	0.076666445
254	0x3d08d6d6	0.03340801
255	0xbd95823a	-0.07300229

lstm.bias_hh_l0 f4 [256]
0	0x3e2c7881	0.16842844
1	0x3d8fe879	0.070267625
2	0xbe0ced86	-0.13762483
3	0x3d88b76e	0.066756114
4	0xbd210174	-0.039308026
5	0xbd83977b	-0.06425377
6	0x3d93207f	0.071839325
7	0x3e5565bd	0.20839591
8	0xbd64abdf	-0.05582797
9	0x3dab467e	0.08363055
10	0x3e585403	0.21125798
11	0xbd0fe7a2	-0.03513301
12	0x3d76a8e5	0.060219664
13	0xbe1564ad	-0.14589186
14	0x3e85ce78	0.26134086
15	0x3d8b753b	0.06809469
16	0x3e6e3937	0.23264013
17	0xbc522abe	-0.012827573
18	0x3d986d22	0.074426904
19	0x3e84481a	0.2583626
20	0xbd887c47	-0.06664329
21	0x3e71f7c2	0.23629668
22	0x3d1c871f	0.0382148
23	0x3d8a6506	0.0675755
24	0x3dfe7dd9	0.12426347
25	0x3d91eb41	0.07124949
26	0x3d1fee67	0.039045718
27	0x3e99d234	0.30043185
28	0x3e12aca4	0.1432367
29	0x3d821218	0.06351107
30	0x3ddf3086	0.10897927
31	0x3e2703c9	0.16310038
32	0x3dcf3a6e	0.101185665
33	0x3d7dded4	0.061980084
34	0x3b62c2ef	0.0034601053
35	0x3e2a0f57	0.16607414
36	0xbdc510cc	-0.096223444
37	0x3e4012d6	0.18757185
38	0xbd6868f8	-0.05674073
39	0xbda9ec44	-0.08297017
40	0xbda61abc	-0.08110568
41	0x3d74d930	0.05977744
42	0x3c924bc9	0.017858403
43	0x3dd72877	0.10505765
44	0x3cdcfaad	0.026975
45	0x3e3c1e89	0.18371023
46	0x3d923c76	0.07140438
47	0x3e7d067f	0.2470951
48	0x3d5cd340	0.0539124
49	0x3e2ea695	0.17055734
50	0x3deeb625	0.11655835
51	0xbce0104d	-0.027351523
52	0x3e1223f8	0.14271533
53	0x3eac584d	0.33661118
54	0xbd59728a	-0.05308775
55	0xbd3fce77	-0.04682776
56	0x3dc878a1	0.09788633
57	0xbdbadf15	-0.09124581
58	0x3e283917	0.16428028
59	0x3e8c2eb1	0.27379373
60	0x3d23ef17	0.040022936
61	0x3c286766	0.010278558
62	0x3d069fa4	0.03286709
63	0xbe099349	-0.13435091
64	0xbdd1e0a7	-0.10247927
65	0x3c8c52c7	0.017129315
66	0x3d860d56	0.065455124
67	0x3c7792ee	0.015110714
68	0x3b848801	0.0040445332
69	0x3d3a0b39	0.04542086
70	0xbde0fddb	-0.10985919
71	0x3c10f8d2	0.008848386
72	0xbc6d6d48	-0.014491387
73	0xbd3ca7a7	-0.046058323
74	0x3db6d9be	0.0892825
75	0x3e25f74c	0.16207618
76	0x3e425b3d	0.18980117
77	0x3d83b331	0.064306624
78	0x3c0c92df	0.008579939
79	0x3e5629f1	0.20914437
80	0xbd9ccb51	-0.07655967
81	0x3da120a3	0.07867553
82	0x3bd4598f	0.006480403
83	0xbd496d66	-0.049176596
84	0x3c1a06f4	0.009401072
85	0xbd5bcd8e	-0.05366283
86	0x3d9681b7	0.0734896
87	0xbd9904b4	-0.074716
88	0x3e286bb4	0.16447335
89	0x3d20f61d	0.039297212
90	0xbe5ffb3b	-0.2187318
91	0x3df99904	0.121873885
92	0xbe14c90e	-0.14529821
93	0xbc716c6c	-0.014735322
94	0xbe22c69a	-0.15896073
95	0xbce65c69	-0.028120236
96	0xbe066a74	-0.13126546
97	0x3cf338c4	0.029690154
98	0xbd2d931f	-0.042376634
99	0xbe03c595	-0.1286834
100	0xbcb17c71	-0.021665784
101	0x3d9754b4	0.07389203
102	0xbd08e2b1	-0.033419315
103	0xbd3ae42b	-0.045627754
104	0xbd9a9585	-0.0754805
105	0xbd164f6d	-0.03669684
106	0x3e12ec97	0.14348064
107	0xbe47a630	-0.19496989
108	0xbe072189	-0.13196386
109	0xbd9b06ac	-0.07569632
110	0x3e0880e1	0.13330413
111	0xbe1ffc43	-0.15623574
112	0x3dfd91b5	0.12381307
113	0x3d15ac54	0.036541298
114	0xbcda80db	-0.026672771
115	0x3c9e0bb3	0.019292688
116	0x3d63700a	0.05552677
117	0xbc8df4b2	-0.017328594
118	0x3ad38bbb	0.0016139665
119	0xbd8669f3	-0.06563177
120	0xbe071fb4	-0.13195688
121	0xbdb79795	-0.08964459
122	0xbd88e6dd	-0.06684659
123	0xbdc67911	-0.0969106
124	0x3dadcb5e	0.08486055
125	0xbcb8a80e	-0.022541072
126	0xbc062aa6	-0.008188879
127	0xbd566053	-0.052337956
128	0x3dd56740	0.10420084
129	0xbc440edd	-0.011966434
130	0xbcbaf700	-0.022822857
131	0xbdd4ced0	-0.10391009
132	0x3e36cf64	0.1785255
133	0x3bdb1f87	0.006687108
134	0xbdf37ea5	-0.1188939
135	0x3d54ea6e	0.051981382
136	0xbe0f7dcd	-0.14012833
137	0x3e1811b1	0.14850499
138	0xbc21e480	-0.009881139
139	0xbd8eb03a	-0.06967206
140	0x3e12ec77	0.14348017
141	0xbcc2753b	-0.02373754
142	0x3d7121a7	0.058869984
143	0x3e17260b	0.14760606
144	0x3d492e0e	0.049116187
145	0xbdab8a47	-0.08375984
146	0xbb4fea98	-0.0031725522
147	0x3b398a06	0.0028311028
148	0x3d675c8d	0.056484748
149	0xbcd18ba6	-0.025579285
150	0x3def4538	0.11683124
151	0xbd9332a7	-0.071873955
152	0xbcbadbdc	-0.022809915
153	0x3e010ee2	0.12603334
154	0xbd4bdaaa	-0.04976908
155	0xbe17d430	-0.14827037
156	0x3dd03d80	0.1016798
157	0xbd71d4fc	-0.05904101
158	0xbc0fbf83	-0.008773687
159	0x3dd14986	0.102191016
160	0xbd20e26f	-0.039278444
161	0x3dc7e751	0.09760917
162	0xbd26f22e	-0.040758304
163	0x3d9c6c9c	0.07637903
164	0x3df86ba5	0.121299066
165	0xbd963209	-0.07333762
166	0x3d97c58a	0.074107245
167	0x3d4137d1	0.04717237
168	0xbd17d744	-0.037070528
169	0x3c92c1d8	0.017914698
170	0x3c9b9ab6	0.01899467
171	0x3d8c5873	0.06852808
172	0x3ddc5e1d	0.10760138
173	0xbdd9f563	-0.10642507
174	0xbd404474	-0.046940282
175	0xbe0a0d61	-0.13481666
176	0xbd13766b	-0.036001604
177	0x3d9ae89c	0.07563898
178	0xbcd9479c	-0.026523404
179	0xbd30bb51	-0.04314739
180	0x3dcb3267	0.09921723
181	0xbb37fb0f	-0.0028073227
182	0x3e06e3d6	0.1317285
183	0xbc681572	-0.014165269
184	0x3dd3f58f	0.10349571
185	0x3e2ed5f5	0.17073806
186	0x3ca3d1bc	0.01999747
187	0x3d86e94b	0.06587466
188	0xbde88b55	-0.113547005
189	0xbdac9526	-0.08426885
190	0xbe049b78	-0.12949932
191	0xbcfb0403	-0.030641561
192	0x3e3885b1	0.18019749
193	0x3d116266	0.03549423
194	0x3de7649b	0.11298486
195	0x3deccdd4	0.11562696
196	0x3d8c10fc	0.06839177
197	0x3c6ab413	0.01432516
198	0x3e46e15a	0.19421902
199	0x3ebcfb91	0.3691068
200	0x3d766e0d	0.060163546
201	0x3ddddc41	0.10833026
202	0x3e60f5dd	0.2196879
203	0xbdab57a3	-0.08366325
204	0x3ddd62fe	0.10809897
205	0xbddb48df	-0.107072584
206	0x3e4a8e72	0.19780901
207	0xbce47a52	-0.027890358
208	0x3e6d852c	0.23195332
209	0x3d1b6b05	0.03794386
210	0xbd4008a6	-0.046883248
211	0x3e02606c	0.12732095
212	0xbd4bcecc	-0.049757764
213	0x3e69ffb2	0.22851446
214	0x3e2230a2	0.15838864
215	0x3dcfb174	0.101412684
216	0x3cb6ea69	0.022328572
217	0xbd5d74c0	-0.05406642
218	0x3eb8c5df	0.36088464
219	0x3d92fafb	0.07176777
220	0xbd362ac9	-0.044474397
221	0x3cc6a7d1	0.024249943
222	0xbd613b24	-0.05498804
223	0x3e06c705	0.13161857
224	0x3c8d305f	0.01723498
225	0xbe13ba2b	-0.14426486
226	0xbbfa5021	-0.0076389466
227	0x3e62f09b	0.22162096
228	0xbd91fbcf	-0.07128107
229	0x3e80cf9d	0.25158396
230	0x3cc1c368	0.023652747
231	0x3dc191df	0.09451651
232	0xbd2d279b	-0.0422741
233	0xbdebe786	-0.11518769
234	0x3e9b7533	0.30362853
235	0x3e953cf6	0.29148072
236	0xbd4f0468	-0.05054131
237	0xbca3b425	-0.01998336
238	0x3e1bbdfc	0.15209192
239	0x3e155483	0.1458302
240	0x3d33746f	0.04381221
241	0x3c76490e	0.015032066
242	0x3c1dd8ed	0.009634239
243	0x3d250003	0.040283214
244	0x3d876aa2	0.066121355
245	0x3e52f840	0.20602512
246	0xbc12ef45	-0.008968179
247	0x3d4029a4	0.04691471
248	0x3e3627d4	0.1778863
249	0xbdc5cdbe	-0.09658383
250	0x3cc54d2d	0.024084652
251	0x3ec26186	0.3796503
252	0xbd9848c1	-0.07435752
253	0x3dc6aefe	0.09701346
254	0x3d249b1c	0.040186986
255	0xbd029e62	-0.031889327

classifier.0.weight f4 [32, 64]
0	0xbe6d6ea4	-0.23186737
1	0xbdcc5fae	-0.09979187
2	0x3e090ff4	0.13384992
3	0x3dcf670f	0.10127079
4	0x3e197217	0.14984928
5	0xbe767b05	-0.24070366
6	0xbecbaa61	-0.39778426
7	0xbdaab954	-0.0833613
8	0xbde3c39e	-0.111212954
9	0x3e5ce82a	0.21572939
10	0xbde989d1	-0.114032395
11	0xbe625791	-0.22103716
12	0x3e49bbdc	0.19700569
13	0x3eb3ce62	0.35118395
14	0xbf61769a	-0.88071597
15	0x3d9adb9d	0.07561419
16	0x3dfff54b	0.12497958
17	0x3d949fa3	0.07257011
18	0xbdf4e6c2	-0.11958076
19	0x3e970bb2	0.2950111
20	0x3e1e2cad	0.1544673
21	0xbd2987e0	-0.041389346
22	0x3e692587	0.22768222
23	0x3ce3d1aa	0.027809937
24	0xbba2c2e9	-0.0049670828
25	0x3e4ecece	0.20196077
26	0xbe2e1d9a	-0.1700348
27	0xbe7ba462	-0.24574426
28	0x3e738c1b	0.23783915
29	0xbe20b04a	-0.15692249
30	0xbe08c6dd	-0.1335711
31	0xbd56a2ae	-0.052401237
32	0xbe354558	-0.17702234
33	0x3e89c0a4	0.26904786
34	0xbe8277f1	-0.25482133
35	0x3d991be3	0.07476022
36	0x3f152b2d	0.58269006
37	0x3ddc1e17	0.10747927
38	0x3d95aadd	0.0730798
39	0xbe3bf899	-0.18356551
40	0x3e7afa5c	0.24509567
41	0xbdbb9a33	-0.091602705
42	0xbf37307f	-0.71558374
43	0x3e4416a6	0.19149265
44	0xbd59735e	-0.05308854
45	0xbe6f5780	-0.23373222
46	0xbd2ef011	-0.042709414
47	0xbea84aca	-0.3286956
48	0xbdc428f6	-0.09578125
49	0x3e0c1d1c	0.1368298
50	0x3e8322af	0.256124
51	0xbe02ab68	-0.12760699
52	0xbc2242d9	-0.009903633
53	0xbf2810c1	-0.65650564
54	0xbe932535	-0.28739324
55	0xbe119a1f	-0.14218949
56	0xbe82683c	-0.2547015
57	0x3e98c876	0.2984044
58	0x3ec2ccd1	0.38046888
59	0x3e76727d	0.24067111
60	0xbea76fbb	-0.3270243
61	0xbe68d42b	-0.22737186
62	0xbeb80750	-0.3594308
63	0xbe8b22ff	-0.27175137
64	0xbe9d7a38	-0.30757308
65	0xbd0fda78	-0.035120457
66	0xbd3652fe	-0.04451274
67	0xbdb2f81d	-0.0873873
68	0xbbd2add6	-0.0064294143
69	0x3e54f580	0.20796776
70	0x3ea0c0d4	0.31397116
71	0x3e759c03	0.23985295
72	0xbc3f7f64	-0.011688087
73	0xbd9ec1cc	-0.077518076
74	0x3e71eac0	0.23624706
75	0xbdb498ba	-0.08818193
76	0x3e56026d	0.20899363
77	0x3e5112c8	0.2041732
78	0xbdac938d	-0.084265806
79	0x3df1f640	0.118145466
80	0x3ea386b9	0.31938723
81	0x3d829574	0.06376162
82	0xbe32b30c	-0.17451113
83	0xbe45bbe5	-0.19309957
84	0x3e02bf92	0.12768391
85	0x3e5b6cd4	0.21428233
86	0xbd534301	-0.05157757
87	0x3d2cfc6d	0.04223292
88	0xbe592e5d	-0.21209092
89	0x3e148f16	0.14507708
90	0xbe8d1945	-0.27558342
91	0xbe94482d	-0.28961316
92	0x3d06922d	0.032854248
93	0xbe157e07	-0.14598857
94	0xbdbb2b69	-0.09139139
95	0xbdc1e80f	-0.0946809
96	0xbdcf68b2	-0.10127391
97	0x3d684c84	0.056713596
98	0xbe424c83	-0.189745
99	0x3dea997a	0.114550546
100	0x3c3b8bb5	0.011446883
101	0x3db6547e	0.08902834
102	0x3ccb517e	0.024819132
103	0xbe282073	-0.16418628
104	0x3ca32f3a	0.01991998
105	0xbd8cccf8	-0.06875032
106	0x3ea09f8f	0.31371734
107	0xbb12e7a7	-0.0022415908
108	0xbdf86acd	-0.12129746
109	0xbe2522af	-0.16126512
110	0xbd188a0e	-0.037241034
111	0xbe0fa09c	-0.14026111
112	0xbe6f7440	-0.2338419
113	0x3dc09a56	0.09404437
114	0x3db936b5	0.09043638
115	0x3cb502e9	0.022096114
116	0x3e541b7a	0.20713606
117	0x3c6d25b9	0.014474326
118	0xbe20b320	-0.15693331
119	0x3de5c778	0.11219686
120	0xbe5fb1ca	-0.21845165
121	0x3dabdd95	0.08391873
122	0xbd71af66	-0.059005164
123	0xbdc38a73	-0.095478915
124	0xbdf4b32b	-0.11948236
125	0xbdcf5844	-0.10124257
126	0xbe17820c	-0.14795703
127	0xbd843bf5	-0.064567484
128	0x3c982824	0.018573828
129	0x3e536d1d	0.20647092
130	0xbe1d3ded	-0.15355654
131	0x3e901d86	0.28147525
132	0xbd6d92be	-0.058001272
133	0x3e12c8d9	0.1433443
134	0xbe673776	-0.2257975
135	0xbd8bc352	-0.06824364
136	0xbd870967	-0.0659359
137	0x3e0f3ed6	0.13988814
138	0xbdd4bd4e	-0.103876695
139	0xbcc42a22	-0.023945872
140	0xbecdb39d	-0.40176097
141	0x3e5c3ed5	0.21508344
142	0x3e9c7a2c	0.3056196
143	0x3d80a9e4	0.06282404
144	0xbdfd3e9d	-0.12365458
145	0xbeb14ebf	-0.3463039
146	0xbc9fe70b	-0.01951935
147	0x3eac9bbb	0.33712563
148	0xbf081b8f	-0.5316705
149	0xbe0c1278	-0.1367892
150	0x3e7cd690	0.24691224
151	0x3e489b0c	0.19590396
152	0x3d590278	0.05298087
153	0xbe9f389f	-0.31097886
154	0x3e8e2e39	0.2776964
155	0x3ceea695	0.029132167
156	0xbecbc4eb	-0.39798674
157	0xbed0ce91	-0.40782598
158	0x3ead7594	0.33878767
159	0x3e85c7ef	0.261291
160	0x3ddee51c	0.10883543
161	0xbec94ee1	-0.39317992
162	0xbe80298d	-0.250317
163	0x3ed30551	0.41214994
164	0xbeb48390	-0.35256624
165	0xbe83d736	-0.2575013
166	0x3e879236	0.26478738
167	0x3e7d11f4	0.2471388
168	0x3e3b6c3b	0.18303005
169	0xbe02f54b	-0.12788884
170	0x3e8411d5	0.25794855
171	0xbe477acb	-0.19480436
172	0x3ed8e41e	0.4236154
173	0x3c6f1468	0.014592268
174	0xbd596578	-0.053075284
175	0x3e95e19f	0.29273698
176	0xbe458fba	-0.19293109
177	0xbed79631	-0.42106774
178	0x3e54cd22	0.20781377
179	0x3eb66cf9	0.35630015
180	0x3c64b2f2	0.0139586795
181	0xbdbf76e9	-0.09348852
182	0xbd1f9ccd	-0.038967896
183	0xbeb16369	-0.34646156
184	0xbea14585	-0.31498352
185	0xbf02e59d	-0.5113161
186	0xbedb7e13	-0.42869624
187	0xbe5a774c	-0.2133457
188	0x3ebc67d6	0.3679797
189	0x3d70a266	0.058748625
190	0x3ef66c74	0.48129618
191	0x3ed36125	0.41285053
192	0xbdad3958	-0.08458203
193	0x3da6571c	0.081220835
194	0x3dcb8d47	0.09939056
195	0x3d941b3d	0.07231758
196	0xbe21264c	-0.15737265
197	0xbc82b4fb	-0.015955439
198	0xbcabbf81	-0.02096534
199	0xbba7b68e	-0.0051181978
200	0xbdc4a258	-0.09601277
201	0xbda14a80	-0.07875538
202	0xb8611415	-5.3662883e-05
203	0x3d028828	0.03186813
204	0x3cc99f06	0.024611961
205	0xbd756e3d	-0.059919585
206	0x3ce75335	0.028237918
207	0xbcbec707	-0.023288263
208	0xbdd58a01	-0.10426713
209	0xbd19b930	-0.037530124
210	0x3da7c08b	0.081910215
211	0xbc2100c2	-0.009826841
212	0xbdf5cb83	-0.120017074
213	0x3d0d1a6c	0.034449026
214	0xbd45ae97	-0.048262205
215	0xbda128b7	-0.07869094
216	0xbbc764dc	-0.0060850214
217	0x3d745318	0.059649557
218	0xbcb27aa2	-0.021786992
219	0x3d6ef101	0.058335308
220	0xbd90cb4e	-0.07070027
221	0xbc147112	-0.009060161
222	0x3d005331	0.031329338
223	0x3b1ffe1b	0.0024412933
224	0x3dbf258b	0.09333333
225	0x3c422412	0.01184942
226	0x3bb88e20	0.005632177
227	0xbd7d448b	-0.061832946
228	0x3d6648d0	0.056221783
229	0xbd196d74	-0.0374579
230	0xbdc0866a	-0.094006374
231	0xbd858930	-0.06520307
232	0xbe326bea	-0.17423978
233	0x3e15dbca	0.14634624
234	0xbc9f8448	-0.019472256
235	0x3d9c6ac5	0.07637552
236	0x3e26795b	0.16257231
237	0xbdc241f0	-0.09485233
238	0x3da39280	0.07986927
239	0xbda11662	-0.07865597
240	0x3cd2897f	0.025700329
241	0xbe0198c3	-0.1265593
242	0x3d271c25	0.040798325
243	0x3e0a80f8	0.1352576
244	0xbd6d1e6c	-0.05789034
245	0x3cd9b5d8	0.026575968
246	0x3d8ed1fa	0.069736436
247	0x3d100ae6	0.035166644
248	0x3c3cc49e	0.011521487
249	0xbe0fbe3f	-0.14037417
250	0xbcb14f95	-0.021644393
251	0xbdc3bf95	-0.09558026
252	0x3dda2398	0.1065132
253	0x3da1b4b8	0.078957975
254	0x3e4b3e96	0.19848093
255	0x3dec87c9	0.115493365

classifier.0.bias f4 [32]
0	0xbba2b516	-0.004965435
1	0x3e26b35e	0.1627936
2	0x3d828b26	0.06374197
3	0x3dad742b	0.08469423
4	0xbd930e1d	-0.07180426
5	0xbd5343fd	-0.05157851
6	0x3e11444f	0.14186214
7	0x3dc3973a	0.095503286
8	0x3e51214b	0.20422857
9	0xbd4d25b2	-0.050084777
10	0xbd858afa	-0.06520648
11	0xbd9e6dd0	-0.07735789
12	0x3e232e76	0.15935692
13	0xbdb0998a	-0.08623035
14	0x3e99e69c	0.30058753
15	0x3da485c9	0.0803333
16	0x3d2247b6	0.03961917
17	0x3e0c6222	0.1370931
18	0xbd41273e	-0.047156565
19	0xbc19171b	-0.009343888
20	0x3dbe40a9	0.09289677
21	0x3eb905d5	0.36137262
22	0x3e307826	0.17233333
23	0x3d916c78	0.07100767
24	0x3d4a2e1f	0.04936039
25	0x3dcdeb8b	0.10054692
26	0x3e2bbc70	0.16771102
27	0x3d0e1205	0.034685154
28	0x3e74e679	0.23916043
29	0x3e12d2d9	0.14338244
30	0xbc3e3802	-0.011610033
31	0xbd250471	-0.04028744

classifier.2.weight f4 [6, 32]
0	0x3e0464e3	0.1292911
1	0x3e3ca481	0.18422128
2	0x3d769706	0.06020262
3	0xbe079cf3	-0.13243465
4	0xbe0f8afe	-0.14017865
5	0x3e5be77f	0.21475028
6	0x3e19253b	0.14955609
7	0xbd2a070f	-0.041510638
8	0xbed10bc0	-0.40829277
9	0xbdd96bc0	-0.10616255
10	0x3eab340a	0.3343814
11	0xbd211292	-0.03932435
12	0x3d3b1924	0.045678273
13	0x3eb2282c	0.34796274
14	0xbef6b564	-0.48185265
15	0x3deae9d7	0.11470383
16	0x3dea4925	0.114397325
17	0x3e844729	0.2583554
18	0xbe078b42	-0.13236716
19	0x3f04db3b	0.5189702
20	0xbf0baa07	-0.54556316
21	0xbf13a97d	-0.57680494
22	0xbd322e85	-0.043501396
23	0x3ea3de0c	0.32005346
24	0x3e586e37	0.21135794
25	0x3e50ee0c	0.20403308
26	0xbeec13d1	-0.4610887
27	0x3e2c3e46	0.1682063
28	0x3e3f916d	0.1870782
29	0xbcdc4cd5	-0.026892105
30	0x3e40769b	0.18795244
31	0x3e10d9ae	0.14145538
32	0xbec2353a	-0.37931234
33	0xbeaaf01e	-0.3338632
34	0xbe11f692	-0.14254215
35	0x3bf394fa	0.007433531
36	0xbed3e932	-0.4138885
37	0x3e1fb54d	0.15596505
38	0xbef4e10a	-0.4782794
39	0xbf218f3c	-0.63109183
40	0xbe89fade	-0.2694921
41	0xbeef8332	-0.46779782
42	0x3d8aae4a	0.06771524
43	0xbbfc09eb	-0.007691612
44	0x3e238122	0.15967229
45	0x3ba09311	0.004900344
46	0x3d21057a	0.039311863
47	0x3ec8f429	0.3924878
48	0xbdbf058d	-0.093272306
49	0xbf08b2c2	-0.5339776
50	0xbd82c05e	-0.063843474
51	0xbe23f2d0	-0.16010594
52	0x3d575a65	0.05257644
53	0x3dcab8f6	0.0989856
54	0x3cfabeae	0.030608501
55	0xbe353c4c	-0.17698783
56	0x3ad46434	0.0016204179
57	0xbe6b2648	-0.22963822
58	0x3e04038e	0.12891981
59	0xbef25f80	-0.47338486
60	0xbeb3abe4	-0.3509208
61	0xbef901a6	-0.4863407
62	0xbf30e4c0	-0.69099045
63	0xbedbebc1	-0.42953303
64	0xbee02fa5	-0.4378635
65	0x3da75520	0.08170533
66	0xbe39b4c8	-0.18135369
67	0xbda5bea1	-0.08093
68	0xbf2020e9	-0.62550217
69	0xbea6aa6e	-0.32551903
70	0x3e0f7bca	0.14012066
71	0xbe90db7f	-0.28292462
72	0x3e1db0da	0.15399495
73	0xbe9333e0	-0.28750515
74	0xbe5f6b39	-0.21818246
75	0x3b0fea19	0.0021959601
76	0xbe24faef	-0.16111349
77	0xbe5d9964	-0.21640545
78	0x3e3074c9	0.1723205
79	0xbecfb0e0	-0.40564632
80	0xbedc9381	-0.43081287
81	0xbcceac25	-0.02522857
82	0x3cfbe15d	0.03074711
83	0xbeda4c3e	-0.42636293
84	0x3ce860e3	0.028366512
85	0x3dc5dd1f	0.09661316
86	0x3da0aa0e	0.07844935
87	0x3d48aca7	0.04899278
88	0x3c60e60b	0.0137267215
89	0x3d346262	0.044039138
90	0xbe2c5bc8	-0.16831887
91	0xbe124fb4	-0.14288217
92	0xbd0ed6f3	-0.03487296
93	0x3e45e3af	0.19325136
94	0xbe21e6eb	-0.15810744
95	0xbe5f4696	-0.2180427
96	0xbe64894c	-0.22318
97	0x3c366ee8	0.011134841
98	0xbebb6adb	-0.36604962
99	0x3cf6624a	0.030076165
100	0xbf082a83	-0.5318987
101	0xbeff56d7	-0.4987094
102	0xbdfbbcfa	-0.12291904
103	0x3d666700	0.056250572
104	0xbe9733d8	-0.2953174
105	0x3e286b4c	0.1644718
106	0xbe88a456	-0.26687878
107	0xbdbfd46a	-0.09366687
108	0xbeea2dd1	-0.4573808
109	0xbe650c2f	-0.22367929
110	0xbe1224b4	-0.14271814
111	0xbf03799d	-0.5135744
112	0xbe96c7fd	-0.29449454
113	0xbe67482c	-0.22586125
114	0x3e0f9f1a	0.14025536
115	0xbef426a1	-0.47685722
116	0x3dababe4	0.08382395
117	0x3e014726	0.12624797
118	0xbe84150f	-0.25797316
119	0xbdb8e00d	-0.09027109
120	0x3a952fdf	0.0011382065
121	0xbe76d0e2	-0.2410312
122	0x3e352e7f	0.17693518
123	0xbf12898a	-0.5724112
124	0xbebab679	-0.3646734
125	0x3ded7151	0.11593879
126	0x3e6abed0	0.22924352
127	0x3db980f1	0.09057797
128	0x3e1cd276	0.1531466
129	0xbea713b5	-0.32632223
130	0xbf1108ac	-0.5665386
131	0x3d948fc0	0.07253981
132	0xbedeb5be	-0.43498033
133	0xbed9c732	-0.42534786
134	0x3e3eb61d	0.18624158
135	0x3e552d77	0.20818125
136	0x3e5a2cc3	0.21306138
137	0x3e83554f	0.25651023
138	0xbe8d28e7	-0.2757027
139	0xbda686ef	-0.08131205
140	0xbed884dd	-0.42288867
141	0xbe52735a	-0.20551816
142	0xbc7fd596	-0.015614888
143	0xbf18dbcd	-0.5971039
144	0x3e9a07ab	0.30083975
145	0xbed52889	-0.41632488
146	0x3d964543	0.073374294
147	0xbf146cf3	-0.57978743
148	0xbd122275	-0.035677392
149	0xbee18d0d	-0.44052926
150	0xbf0e7d1b	-0.55659646
151	0xbe629dd0	-0.22130513
152	0xbe8bcf67	-0.27306673
153	0xbebcd04e	-0.36877674
154	0x3d758682	0.05994273
155	0xbe801b68	-0.2502091
156	0x3e51caec	0.20487565
157	0xbe7c42aa	-0.24634805
158	0xbe888009	-0.26660183
159	0xbf22b5df	-0.63558763
160	0xbda80544	-0.08204129
161	0xbe82d6d3	-0.25554523
162	0x3ec43c41	0.3832722
163	0xbe174cfe	-0.14775464
164	0x3ed86c77	0.42270252
165	0xbf25a39b	-0.6470277
166	0xbe8957b0	-0.26824713
167	0xbeaa70bf	-0.33289143
168	0xbd04233b	-0.03226016
169	0xbcf9cd11	-0.030493291
170	0x3e5011a7	0.20319234
171	0xbe3ed031	-0.18634106
172	0x3eaf2ef6	0.34215516
173	0x3e38b1ff	0.1803665
174	0xbe55d21d	-0.20880933
175	0xbf015316	-0.50517404
176	0x3df9cea1	0.121976145
177	0x3d1e1800	0.038597107
178	0xbd8798ec	-0.066209644
179	0x3ea81518	0.32828593
180	0xbe009503	-0.12556843
181	0xbf6e3c86	-0.930611
182	0x3e21afa3	0.15789656
183	0xbe42283a	-0.18960658
184	0xbd9a5c4e	-0.07537137
185	0x3e11743c	0.14204496
186	0xbf133752	-0.5750629
187	0x3ca147da	0.019687582
188	0x3df079eb	0.11742004
189	0xbf2ef4e2	-0.6834241
190	0xbd093836	-0.033500873
191	0x3e4a2f2b	0.19744556

classifier.2.bias f4 [6]
0	0xbe3234c0	-0.17402935
1	0xbddb151a	-0.10697384
2	0x3e4b48e9	0.19852032
3	0x3ce32a71	0.027730199
4	0xbe239f75	-0.15978797
5	0xbd9c3adf	-0.07628416
