experiments/darpa2000/s1_inside/baselines/multi_class_lstm/models/multi_class_lstm_original_no_class_weights_w10.pth (torch, 195631 bytes, 8 tensors)

lstm.weight_ih_l0 f4 [256, 112]
0.08586549 -0.12757094 -0.21638414 0.047139198 -0.25060752 -0.03642071 -0.25329828 -0.26725042
-0.11372635 0.056805007 0.25776502 0.2053993 0.040360976 0.1727109 -0.251542 -0.18057586
0.08270444 -0.22890748 -0.057446312 -0.08613107 0.008398907 -0.69071895 0.15686779 0.095092565
-0.10478588 0.044883415 -0.5326477 0.2726087 0.26310855 -0.03528514 0.07550212 0.07294235
-0.030190438 0.12116735 0.018686464 0.21579675 0.04167346 -0.092404604 -0.12277484 0.07167741
0.13993883 -0.049907215 -0.11949926 -0.17851323 0.35990286 0.28419837 -0.20223379 0.021186043
0.024902795 0.07645671 0.04367194 0.04019428 0.06966768 0.0018719924 0.14475402 -0.064430475
-0.16196314 0.11229846 0.11473007 -0.055762272 0.26097023 0.20987989 -0.14322777 -0.13356307
-0.048202634 -0.38594037 0.011140309 -0.1480098 -0.05173896 0.24181221 -0.40264603 0.045201138
-0.10009456 -0.010226028 -0.039554577 0.0026292189 0.034899816 -0.1230463 -0.26534802 -0.046233315
-0.33304897 0.0045646727 -0.2608445 -0.3588373 -0.50766087 -0.05944715 -0.25141335 0.17132303
0.27312005 -0.00044136678 -0.10033701 -0.11989851 -0.117125615 0.22051746 -0.14467542 0.041476186
0.12909499 0.078725204 0.071457624 -0.020395111 0.081206776 -0.08423234 0.032944772 -0.29835904
-0.50618446 0.026076868 0.079053864 0.17416401 0.15725318 -0.035269666 0.08892378 0.23989466
0.04459768 -0.18094426 -0.05822489 0.014634177 -0.032453988 0.118868016 0.111482404 0.07081505
-0.12267033 0.072344646 0.065989345 -0.05763148 -0.08616201 -0.095598325 0.2967552 -0.105125956
-0.15233958 0.021368606 -0.27758977 -0.12934895 0.042029817 -0.16276161 -0.13162379 -0.10803071
0.023651846 0.06877545 0.03262604 -0.2927889 0.099334486 -0.121025525 0.06193645 0.016532028
-0.0878008 -0.10983397 -0.074772686 -0.045568362 -0.19615613 -0.10258072 -0.16511162 0.060050424
0.10798576 -0.01066577 0.035732545 0.23558885 -0.36703208 -0.070229575 -0.13992028 0.07148067
-0.051782764 0.12083867 -0.088260554 0.079454124 0.085111015 0.17314143 -0.21663299 0.061439674
-0.023254849 0.073748834 -0.17534095 -0.15471923 -0.22823313 -0.06705276 0.02449098 -0.02950686
-0.11719065 0.1491268 0.0125339115 -0.12715383 -0.063402615 -0.249848 -0.043396275 -0.08436407
0.018357655 -0.05364816 -0.087534405 0.06480583 0.10317724 -0.11615835 -0.056807507 0.040350378
-0.1456872 0.0976668 -0.115171924 -0.29361725 -0.09401558 0.014102156 0.062646896 -0.21849973
0.25754216 -0.006828216 0.033619 -0.04130849 -0.12844661 -0.090743124 0.0474672 -0.08280316
-0.022288645 0.07990472 -0.030439382 -0.015499888 0.05011075 -0.08451083 -0.0043350835 0.02002921
0.080339506 -0.04538725 -0.049814153 -0.04821501 -0.15065369 -0.17464446 0.07528037 -0.095331356
0.2320606 -0.075532064 -0.08629443 -0.10295774 0.31284934 0.22484666 0.19126186 -0.025060972
-0.06965748 0.19677062 -0.08863154 -0.020768214 0.0804512 -0.006524003 -0.27988768 0.28142953
0.1822798 -0.08345089 -0.12746961 0.053200867 0.26751035 0.2187288 -0.032898627 -0.033996068
0.18346985 0.12000923 0.085746065 0.009167688 0.098568335 0.009099283 0.005915152 -0.026767818
00000000: 3fda af3d f5a1 02be ce93 5dbe 0815 413d
00000010: a14f 80be e22d 15bd 50b0 81be 0cd5 88be
00000020: 5ce9 e8bd 5eac 683d c7f9 833e 3254 523e
00000030: 8d51 253d 20db 303e 1dca 80be e1e8 38be
00000040: f260 a93d b966 6abe d34c 6bbd 7d65 b0bd
00000050: 929b 093c f5d2 30bf f3a1 203e e4bf c23d
00000060: fb99 d6bd acd7 373d 9a5b 08bf 5e93 8b3e
00000070: 2ab6 863e 2787 10bd dba0 9a3d cc62 953d
00000080: f051 f7bc 9626 f83d 5b14 993c d3f9 5c3e
00000090: cab1 2a3d a03e bdbd 6071 fbbd 9bcb 923d
000000a0: 204c 0f3e 826b 4cbd 07bc f4bd 2ccc 36be
000000b0: 3045 b83e 7382 913e 6016 4fbe 5a8e ad3c
000000c0: f200 cc3c 5695 9c3d 59e1 323d c2a2 243d
000000d0: eead 8e3d a45d f53a 663a 143e 20f4 83bd
000000e0: aad9 25be bcfc e53d 99f7 ea3d fb66 64bd
000000f0: e49d 853e c1ea 563e 4daa 12be c2c4 08be
00000100: 2070 45bd fa99 c5be d885 363c e28f 17be
00000110: 3bec 53bd 9f9d 773e 9f27 cebe d424 393d
00000120: 60fe ccbd 128b 27bc fb03 22bd f94e 2c3b
00000130: 1cf3 0e3d b3ff fbbd b2db 87be 255f 3dbd
00000140: 6585 aabe 4093 953b 698d 85be 86b9 b7be
00000150: 10f6 01bf db7e 73bd 40b9 80be 4e6f 2f3e
00000160: 64d6 8b3e 3f67 e7b9 7e7d cdbd 5a8d f5bd
00000170: 8edf efbd 54cf 613e cb25 14be efe2 293d
00000180: 7a31 043e ae3a a13d 6058 923d a613 a7bc
00000190: bd4f a63d 0182 acbd 19f1 063d 84c2 98be
000001a0: 4e95 01bf 289f d53c fee6 a13d 0d58 323e
000001b0: fa06 213e ed76 10bd ac1d b63d f2a6 753e
000001c0: 0fac 363d 7449 39be 397d 6ebd 30c4 6f3c
000001d0: 79ee 04bd 1371 f33d e350 e43d 7b07 913d
000001e0: 953a fbbd 6e29 943d 6c25 873d fd0e 6cbd
000001f0: b575 b0bd 0ec9 c3bd 4cf0 973e 474c d7bd
00000200: e8fe 1bbe 370d af3c 3f20 8ebe 0d74 04be
00000210: 7527 2c3d fbaa 26be 63c8 06be 343f ddbd
00000220: 84c1 c13c 25da 8c3d e2a2 053d 6de8 95be
00000230: e16f cb3d 3bdc f7bd 13b1 7d3d 2d6e 873c
00000240: e8d0 b3bd a2f0 e0bd 6c22 99bd e4a5 3abd
00000250: 27dd 48be d715 d2bd 0513 29be 6ff7 753d
00000260: a327 dd3d 7bbf 2ebc 4a5c 123d 343e 713e
00000270: a1eb bbbe 86d4 8fbd 4347 0fbe 7564 923d
00000280: 2a1a 54bd 447a f73d f3c1 b4bd d8b8 a23d
00000290: af4e ae3d fd4b 313e 0ad5 5dbe 2ba8 7b3d
000002a0: f480 bebc a109 973d 948c 33be b86e 1ebe
000002b0: f2b5 69be f552 89bd 4fa1 c83c 5fb8 f1bc
000002c0: a701 f0bd b2b4 183e 095b 4d3c 9d34 02be
000002d0: 3bd9 81bd 27d8 7fbe 4bc0 31bd 12c7 acbd
000002e0: cb62 963c 2cbe 5bbd 3d45 b3bd ebb8 843d
000002f0: 974e d33d 6ee4 edbd fdae 68bd 7046 253d
00000300: 062f 15be 8805 c83d 42df ebbd 0055 96be
00000310: 3e8b c0bd bb0c 673c 044d 803d 65be 5fbe
00000320: 91dc 833e 3abf dfbb 14b4 093d 1733 29bd
00000330: 8287 03be 88d7 b9bd f76c 423d b494 a9bd
00000340: ad96 b6bc 16a5 a33d 035c f9bc 3ef3 7dbc
00000350: ee40 4d3d 0414 adbd 510d 8ebb 4c14 a43c
00000360: 0a89 a43d fbe7 39bd ed09 4cbd 1a7d 45bd
00000370: f644 1abe ffd5 32be 982c 9a3d 163d c3bd
00000380: 4ba1 6d3e 8eb0 9abd 22bb b0bd 82db d2bd
00000390: ca2d a03e 343e 663e 26da 433e ab4c cdbc
000003a0: 95a8 8ebd 3d7e 493e 7484 b5bd 1a22 aabc
000003b0: 99c3 a43d 4ec7 d5bb 704d 8fbe 8817 903e
000003c0: 8ea7 3a3e 4de8 aabd 6587 02be 27e9 593d
000003d0: 1ef7 883e 71fa 5f3e b6c0 06bd 763f 0bbd
000003e0: 85df 3b3e 66c7 f53d a29b af3d 1234 163c
000003f0: 32de c93d 2915 153c e4d3 c13b 2f48 dbbc

lstm.weight_hh_l0 f4 [256, 64]
0.106831565 0.041930176 -0.0006787082 0.011591136 0.25378224 0.25143263 -0.1433542 -0.00075825263
-0.21970652 0.022344802 0.22479719 -0.14442681 0.17410122 0.15819281 -0.14414486 0.20305656
0.07896921 0.058523774 -0.09406747 -0.33679697 0.1759142 -0.043149445 0.22643706 0.31099927
0.015358911 0.16429864 -0.10777268 -0.032719012 0.3137436 -0.02250939 0.035936624 -0.25043964
-0.09100617 0.31159747 -0.14727986 0.14929476 -0.12044842 -0.03489625 0.19926775 0.017224958
0.11133754 -0.2665195 -0.0894259 0.0712459 -0.097522356 -0.054692663 -0.18963198 0.015409914
-0.26251078 0.16015778 0.11184275 0.20020981 0.23821665 -0.22430055 -0.04043023 0.1514494
0.04886042 0.24320553 -0.11922583 0.047994133 -0.15645638 -0.081927255 -0.14519018 -0.13610718
-0.18357892 -0.04817693 -0.03671941 0.2001063 -0.04064719 -0.15937074 -0.09680272 0.10412538
-0.07482556 -0.058417134 0.018299656 0.088581875 -0.0898551 -0.04979075 0.09822602 0.0053729285
-0.17712165 -0.104224704 0.06588849 -0.09689411 -0.19493985 0.079522334 0.1277325 -0.059826862
-0.054965 -0.08867354 0.15902509 0.047784247 0.093079165 -0.027033811 0.29566213 0.18347093
0.014635794 -0.012411311 -0.055182964 -0.048709046 -0.027068265 -0.04551352 -0.08291416 0.09224941
0.08037866 -0.047855105 0.15111667 -0.007847581 0.031774838 0.040202036 0.11162231 -0.08139631
0.027608883 -0.055074755 0.038999993 0.109376326 0.094756834 -0.058254253 -0.07806423 0.0097256545
0.14356709 -0.066917144 -0.27686086 -0.083124526 -0.014265611 0.13011381 -0.056438927 0.0016242011
0.09254077 -0.001779598 0.014341408 0.061138455 0.02325821 0.102058716 -0.12008375 -0.080504425
-0.061096925 -0.080341935 -0.039876472 -7.218495e-05 -0.044614036 0.07258827 -0.023278639 -0.04433534
-0.04539026 -0.18071616 0.038642347 0.14832118 -0.14217304 0.010161152 -0.03671045 -0.162098
-0.008136528 -0.0010468129 -0.009929113 -0.04364427 -0.020878019 0.052228596 0.13919374 -0.1257453
-0.0557511 0.080013946 0.0339168 -0.004241163 0.11743584 -0.16883023 -0.044750452 -0.115107596
-0.04496487 -0.02134069 -0.29009822 -0.0020197195 -0.026435405 0.12502794 0.023830723 0.15507825
-0.11675389 -0.092957065 0.05796118 -0.052107725 0.12933871 0.050857823 -0.14640312 -0.13838677
-0.08364625 0.0118247485 -0.20224112 0.094035774 0.076800115 0.0091098705 0.11654576 0.00048312452
0.032393638 0.139623 -0.074144654 0.049955703 0.06549253 0.078889765 -0.13250856 -0.0929564
-0.15046959 0.098800756 0.18184279 -0.14622153 0.18066804 -0.014296345 -0.015022059 0.009861259
-0.05913573 0.18563451 -0.052625634 -0.08258868 0.06492176 -0.18277603 0.063890405 0.074596725
-0.1104283 0.08639974 -0.019762862 -0.10318647 0.1686633 0.11092325 -0.09282863 -0.10938485
-0.008888665 0.07345613 -0.19671859 0.10923172 -0.07933694 -0.15621112 -0.021363162 -0.04663288
0.10500608 -0.14282604 0.23148958 0.020048447 -0.24243274 -0.039609373 -0.10950964 0.039238267
0.027341789 -0.079384595 0.12271644 0.0023377899 0.1761467 -0.005640237 -0.13150387 0.0791225
-0.0751865 0.0860634 0.049501155 0.050218903 -0.040235374 -0.22544977 0.025119172 -0.05326169
00000000: 82ca da3d fabe 2b3d 56eb 31ba c0e8 3d3c
00000010: bfef 813e c7bb 803e 72cb 12be 79c5 46ba
00000020: bffa 60be 720c b73c 3c31 663e 9fe4 13be
00000030: 9747 323e 4cfd 213e b69a 13be 0fee 4f3e
00000040: 9cba a13d a0b6 6f3d 72a6 c0bd a770 acbe
00000050: da22 343e 79bd 30bd 1edf 673e 4c3b 9f3e
00000060: f1a3 7b3c e73d 283e ecb7 dcbd 5f04 06bd
00000070: 00a3 a03e 9d65 b8bc 4832 133d a039 80be
00000080: 7161 babd b489 9f3e 88d0 16be bae0 183e
00000090: a9ad f6bd 5fef 0ebd d80c 4c3e 5b1b 8d3c
000000a0: f004 e43d 3e75 88be ed24 b7bd 5fe9 913d
000000b0: cdb9 c7bd 6a05 60bd e32e 42be dd79 7c3c
000000c0: d067 86be 6700 243e d00d e53d cd03 4d3e
000000d0: 11ef 733e 0baf 65be 2b9a 25bd 8d15 1b3e
000000e0: dd21 483d df0a 793e ac2c f4bd 7f95 443d
000000f0: 1a36 20be 7ac9 a7bd bcac 14be ae5f 0bbe
00000100: 1dfc 3bbe 2c55 45bd 1867 16bd aae8 4c3e
00000110: ab7d 26bd 1532 23be 8140 c6bd b03f d53d
00000120: 253e 99bd ce46 6fbd 29e9 953c 6a6a b53d
00000130: f305 b8bd 63f1 4bbd b92a c93d 640f b03b
00000140: 615f 35be c373 d5bd 8bf0 863d 6b70 c6bd
00000150: 509e 47be 9bdc a23d 4fcc 023e 030d 75bd
00000160: fb22 61bd 799a b5bd 79d7 223e 6ab9 433d
00000170: 4aa0 be3d 0376 ddbc 0761 973e cedf 3b3e
00000180: f8ca 6f3c d058 4bbc 8807 62bd 2383 47bd
00000190: 44be ddbc 626c 3abd e6ce a9bd 42ed bc3d
000001a0: 919d a43d b703 44bd 54be 1a3e 2493 00bc
000001b0: 5526 023d e4aa 243d 3d9a e43d 1cb3 a6bd
000001c0: 062c e23c 1196 61bd 75be 1f3d b200 e03d
000001d0: df0f c23d 039c 6ebd 24e0 9fbd 5a58 1f3c
000001e0: 4003 133e db0b 89bd b5c0 8dbe 313d aabd
000001f0: 4fba 69bc 8e3c 053e 812c 67bd 25e3 d43a
00000200: 0486 bd3d 6641 e9ba 3af8 6a3c 516c 7a3d
00000210: 0088 be3c 2904 d13d 78ee f5bd 81df a4bd
00000220: c540 7abd 508a a4bd 8355 23bd 0062 97b8
00000230: 35bd 36bd 29a9 943d d8b2 bebc f998 35bd
00000240: 23eb 39bd a80d 39be 7047 1e3d 82e1 173e
00000250: cf95 11be f67a 263c b25d 16bd 05fd 25be
00000260: 124f 05bc 3635 89ba b8ad 22bc 56c4 32bd
00000270: 6108 abbc a7ed 553d ce88 0e3e 60c3 00be
00000280: 445b 64bd 5ade a33d 58ec 0a3d 74f9 8abb
00000290: 3482 f03d d5e1 2cbe 404c 37bd 88bd ebbd
000002a0: 152d 38bd acd2 aebc c187 94be 455d 04bb
000002b0: 108f d8bc 5307 003e a638 c33c d5cc 1e3e
000002c0: aa1c efbd 4660 bebd b468 6d3d e96e 55bd
000002d0: 5e71 043e 4b50 503d b3ea 15be 43b5 0dbe
000002e0: ba4e abbd 97bc 413c 4c18 4fbe d495 c03d
000002f0: 6149 9d3d 9141 153c 8baf ee3d e04b fd39
00000300: 31af 043d 55f9 0e3e 27d9 97bd 5a9e 4c3d
00000310: f320 863d f590 a13d 53b0 07be ed5f bebd
00000320: b314 1abe 0d58 ca3d ff34 3a3e 19bb 15be
00000330: 0b01 393e 383b 6abc 151f 76bc 1e91 213c
00000340: 4f38 72bd f916 3e3e fa8d 57bd 4124 a9bd
00000350: b3f5 843d a429 3bbe f9d8 823d 2bc6 983d
00000360: 3c28 e2bd 59f2 b03d bae5 a1bc 6e53 d3bd
00000370: 12b6 2c3e bb2b e33d f01c bebd 2a05 e0bd
00000380: c3a1 11bc 2b70 963d 9970 49be e1b4 df3d
00000390: 687b a2bd cff5 1fbe cc01 afbc 1e02 3fbd
000003a0: 6d0d d73d fd40 12be 9b0b 6d3e a43c a43c
000003b0: 4a40 78be 703d 22bd 9746 e0bd 4eb8 203d
000003c0: e3fb df3c 6494 a2bd c252 fb3d 9b35 193b
000003d0: cd5f 343e bdd1 b8bb f3a8 06be fa0a a23d
000003e0: 61fb 99bd 0242 b03d b9c1 4a3d 56b2 4d3d
000003f0: d9cd 24bd 4edc 66be b9c6 cd3c ee28 5abd

lstm.bias_ih_l0 f4 [256]
0.045424763 -0.07300488 0.009750678 -0.05515751 -0.08147386 -0.060662173 -0.091677055 0.19158195
0.07127449 0.14297102 -0.009288105 0.12636773 0.09780279 -0.19051172 0.04401488 -0.01023527
0.06822201 0.06191877 0.114712656 0.22026213 0.014012582 -0.030246949 0.15340672 0.20325603
0.06111309 0.09866154 0.02015717 -0.006959395 0.07603968 -0.034959026 0.17946494 0.24377127
0.09387725 0.11041492 -0.011241977 0.025527248 -0.113615155 0.03650144 0.095306784 -0.0006390629
0.060283378 0.14371929 0.08333927 0.119832456 0.10847578 0.0009177497 0.11005748 0.17015293
0.09253197 -0.075817786 -0.13666053 -0.013676331 0.057087556 0.11476002 0.116041206 -0.0067670257
-0.09828866 0.04822034 0.09997121 0.15867245 0.10758667 0.0038195336 0.10455323 0.021646682
-0.09908608 -0.09845637 0.13216524 0.015999839 -0.0690963 0.06547249 0.0937221 0.004246332
0.13301817 0.03682845 0.012667167 0.005518587 0.12282599 -0.05610563 0.08816224 0.06571035
-0.030712225 -0.10715095 -0.050971158 0.04649492 -0.0014684366 0.00030352466 0.041239478 0.09817323
0.009468623 0.02093 -0.004527945 -0.043478362 -0.09347343 0.12700263 0.010886235 0.058389883
-0.015746148 0.063173875 0.070775226 0.21337955 -0.097519435 -0.21789911 0.059143193 -0.0122451745
-0.08911611 0.116245754 0.23807476 -0.04593083 0.0639428 -0.012976555 -0.095258616 -0.015636941
0.21244468 0.0024437024 -0.04938031 0.07977116 0.16490921 0.14670071 0.06387112 0.022692958
0.22312814 -0.13974735 -0.09131634 0.19193536 -0.0048296354 0.080339074 -0.013792402 -0.04406768
-0.112255655 0.049708273 0.0061604674 -0.10224723 0.04423385 0.06095856 0.05725745 0.09047361
-0.03738244 -0.08586705 -0.116396986 0.04641047 -0.056624442 -0.024220234 -0.00063024194 -0.09170424
0.08052545 0.10975537 -0.07345811 -0.089219175 -0.062784195 -0.10211292 0.05084652 -0.024177324
-0.04373486 0.059011128 -0.09510029 0.022687798 -0.044987187 0.02624495 -0.10001269 0.012087321
-0.0033118394 -0.07156117 0.020772088 0.05712522 -0.0028687222 0.024963824 0.05161752 -0.057041902
0.099300854 -0.08222597 0.08624686 -0.095202 -0.17423019 0.06212875 -0.11771194 0.03810951
-0.11119419 -0.0052419556 0.05476754 -0.026970739 0.1906807 -0.064006336 0.048681818 0.036284283
-0.08483399 0.06797382 -0.06728164 0.07294014 -0.14691156 -0.1468966 0.14806812 -0.0733056
0.09203788 -0.067098975 0.08853817 0.101701975 -0.03476552 -0.04850105 0.046439443 0.1284776
0.11013703 0.048982184 0.085241094 -0.005496668 0.055332143 -0.025911223 0.12887526 -0.057397123
0.16656384 0.13011098 0.11279868 0.049502406 0.05368076 0.030385846 -0.002434963 -0.14468683
-0.11596475 0.12520668 -0.00636555 0.08830841 -0.03679124 0.14162415 0.24885847 0.2952466
-0.080624804 -0.039171305 -0.0015766504 0.014861176 0.02947211 0.20855637 -0.060062278 0.0698788
-0.20483088 -0.07662698 0.2175294 0.28715113 0.1405838 -0.039688934 0.11456791 0.020959986
0.03667325 -0.082925245 -0.18771152 -0.12687038 -0.119993314 0.07869622 -0.20183055 0.12082768
-0.051744867 -0.15418124 -0.03972878 0.054671694 0.074902594 -0.03712169 0.08005326 -0.0132271815
00000000: 510f 3a3d 9583 95bd 4fc1 1f3c d7ec 61bd
00000010: c4db a6bd e678 78bd 2ec1 bbbd 0f2e 443e
00000020: 5cf8 913d ff66 123e 232d 18bc 8b66 013e
00000030: d44c c83d 8115 43be f248 343d d5b1 27bc
00000040: fbb7 8b3d 899e 7d3d 78ee ea3d 658c 613e
00000050: 0795 653c 73c8 f7bc a716 1d3e 5922 503e
00000060: b851 7a3d 100f ca3d a620 a53c a30b e4bb
00000070: b1ba 9b3d 3231 0fbd a8c5 373e 2d9f 793e
00000080: b742 c03d 3821 e23d 4530 38bc 851e d13c
00000090: 10af e8bd 8982 153d 3430 c33d c986 27ba
000000a0: b4eb 763d 262b 133e c7ad aa3d b86a f53d
000000b0: 8d28 de3d 2495 703a d165 e13d 923c 2e3e
000000c0: 6781 bd3d 5b46 9bbd bdf0 0bbe b112 60bc
000000d0: a4d4 693d 4d07 eb3d 03a7 ed3d edbd ddbb
000000e0: 914b c9bd b182 453d b5bd cc3d 087b 223e
000000f0: 6656 dc3d 2451 7a3b 0120 d63d 6254 b13c
00000100: a5ed cabd 7ea3 c9bd 5356 073e 1812 833c
00000110: 5c82 8dbd 7116 863d 5ff1 bf3d d124 8b3b
00000120: ea35 083e 6ed9 163d f389 4f3c 43d5 b43b
00000130: 318c fb3d 04cf 65bd 688e b43d 2693 863d
00000140: 3498 fbbc f571 dbbd 22c7 50bd 7571 3e3d
00000150: 8e78 c0ba 6422 9f39 baea 283d 0c0f c93d
00000160: 4922 1b3c 6475 ab3c 285f 94bb 5e16 32bd
00000170: ff6e bfbd fa0c 023e 2e5c 323c 3b2a 6f3d
00000180: 11fe 80bc 4e61 813d 9af2 903d 2b80 5a3e
00000190: 45b8 c7bd f220 5fbe 2240 723d fc9f 48bc
000001a0: 8282 b6bd 4112 ee3d dfc9 733e f721 3cbd
000001b0: 71f4 823d 9e9b 54bc f316 c3bd 0b19 80bc
000001c0: 198b 593e 8626 203b 0243 4abd 105f a33d
000001d0: f6dd 283e b638 163e ddce 823d 95e6 b93c
000001e0: b47b 643e ee19 0fbe 1004 bbbd b48a 443e
000001f0: eb41 9ebb d088 a43d 87f9 61bc 5080 34bd
00000200: 4be6 e5bd e79a 4b3d bfdd c93b ff66 d1bd
00000210: 8e2e 353d afaf 793d ca86 6a3d 3a4a b93d
00000220: 541e 19bd 10db afbd 8b61 eebd e818 3e3d
00000230: 08ef 67bd 8369 c6bc d236 25ba 6fcf bbbd
00000240: 87ea a43d 6cc7 e03d 3571 96bd 8bb8 b6bd
00000250: 0095 80bd 9420 d1bd 7144 503d 860f c6bc
00000260: 5323 33bd a7b5 713d f1c3 c2bd c3db b93c
00000270: 7c44 38bd a6ff d63c 74d3 ccbd e609 463c
00000280: 720b 59bb aa8e 92bd 3a2a aa3c 22fc 693d
00000290: 2c01 3cbb ef80 cc3c e56c 533d c5a4 69bd
000002a0: 3f5e cb3d 1766 a8bd 32a2 b03d 44f9 c2bd
000002b0: 6669 32be b77a 7e3d f512 f1bd b818 1c3d
000002c0: c8b9 e3bd b6c4 abbb ee53 603d bdf1 dcbc
000002d0: cd41 433e c115 83bd 9666 473d d49e 143d
000002e0: 71bd adbd dc35 8b3d f5ca 89bd a461 953d
000002f0: fc6f 16be 106c 16be 2b9f 173e 3f21 96bd
00000300: 5b7e bc3d 306b 89bd 8053 b53d 2049 d03d
00000310: 4a66 0ebd 09a9 46bd 4937 3e3d a28f 033e
00000320: 868f e13d 8ba1 483d e292 ae3d 651d b4bb
00000330: f5a3 623d c643 d4bc e0f7 033e 3f19 6bbd
00000340: b68f 2a3e d03b 053e ff02 e73d 09c3 4a3d
00000350: 5be0 5b3d bdeb f83c e693 1fbb c928 14be
00000360: ed7e edbd 2e36 003e 1b96 d0bb 0adb b43d
00000370: 69b2 16bd ec05 113e c1d4 7e3e 902a 973e
00000380: 9e1e a5bd 1772 20bd 9ca7 ceba 4a7c 733c
00000390: 7f6f f13c cd8f 553e dd03 76bd 9e1c 8f3d
000003a0: 30bf 51be 9bee 9cbd 07c0 5e3e 7905 933e
000003b0: 33f5 0f3e dd90 22bd 95a2 ea3d 47b4 ab3c
000003c0: b136 163d b6d4 a9bd 7337 40be 4fea 01be
000003d0: 0ebf f5bd 7c2b a13d abac 4ebe 8174 f73d
000003e0: 6df2 53bd b0e1 1dbe a5ba 22bd 6def 5f3d
000003f0: 8866 993d ea0c 18bd f7f2 a33d d2b6 58bc

lstm.bias_hh_l0 f4 [256]
0.102701694 -0.021420086 -0.08411367 0.08814633 -0.0997103 -0.03206574 0.0041494938 0.2125661
-0.0072147367 0.0037070764 0.1598367 -0.0376991 0.02749677 -0.1449447 0.122964226 0.03526163
0.16846734 0.089112066 -0.04589329 0.23600383 -0.04481858 0.1283505 0.077190146 0.11745149
0.09129248 0.053814366 0.011016162 0.10236066 0.23513375 0.04384771 0.1680511 0.1443719
0.109356515 -0.028023217 0.12655129 0.067509785 -0.106859565 0.13452414 -0.07108651 -0.0579626
-0.054140992 0.0818153 -0.03209962 0.091823734 0.08887168 0.14277637 0.014534062 0.17898983
0.06523679 0.14098446 -0.061709885 -0.053109378 0.16915406 0.08885395 -0.083707236 -0.012055203
-0.024822593 -0.114324726 0.14125572 0.0825921 -0.024880383 -0.06573083 0.15963854 0.014944148
-0.018750332 0.091914386 0.09368589 0.10008541 -0.007186534 0.13628131 0.025387302 0.00466596
0.020520255 -0.06865499 0.04370132 0.19622639 0.09898906 0.12002158 0.0064872424 0.13367283
-0.11675057 0.020744964 -0.011165873 0.054991458 0.10205012 0.021909447 0.11186852 0.031895887
0.16971771 0.034474067 -0.14393711 0.096039735 -0.06251926 -0.0119007155 -0.08374397 0.013741922
-0.015338948 -0.013191981 0.056995012 -0.0051188967 -0.042467054 0.01464999 -0.017793564 0.094652355
-0.008111965 -0.031771585 0.21203405 -0.16427052 -0.0061450773 -0.012409816 0.09680276 -0.104075216
0.04607134 -0.023978233 -0.04423487 0.052595872 0.14431691 0.06206108 -0.004584195 -0.10935773
0.010497632 -0.11829633 -0.07392959 -0.030051995 0.013939311 0.0006637804 0.034291662 0.105194256
0.08979387 0.03042096 -0.129271 -0.115385346 0.17424946 0.056847896 -0.115218386 0.067921065
-0.09274097 0.13630274 -0.021720579 -0.054358907 0.11552835 -0.070949644 0.092535876 0.09721457
0.042774238 -0.11878299 0.034972996 0.021758372 0.06396558 -0.0014994587 0.12483292 -0.07193118
-0.110236615 0.08693931 -0.08846661 -0.13696867 0.12003744 -0.049860433 0.044588808 0.015763104
-0.03520968 0.07616318 -0.03657838 0.10201152 0.10600814 -0.020793231 0.004849912 0.044546295
-0.0485346 0.04203744 -0.042249363 0.11400822 0.015089668 -0.1283415 0.024460752 -0.12237513
-0.035709072 0.04239316 -0.014841855 0.01081346 0.12969238 0.02017098 0.08718498 -0.02628988
0.056381524 0.1864104 0.014974864 0.04454804 -0.093687594 -0.10207704 -0.0471985 -0.081537664
0.09722117 -0.083984464 0.042604182 0.19548659 0.10590409 -0.0314997 0.08066047 0.22969106
0.07132237 0.12305249 0.09270479 -0.063215144 0.15779497 -0.13439217 0.0014085021 -0.004905521
0.16099477 0.21074995 0.0073002544 0.0486517 -0.0063850507 0.06960808 -0.013178335 -0.0035524648
-0.12106592 0.07494178 0.21449882 0.00035099435 -0.031785417 0.046915725 0.096257634 0.06271029
0.06995691 -0.1254815 0.0009207106 -0.0103486255 -0.08859121 0.17782335 -0.0026929525 0.044517983
-0.101926565 -0.1365542 0.24880084 0.18042335 0.038974196 -0.03645769 0.050373394 0.18271105
0.042242248 0.080405146 -0.1705863 -0.109375305 0.045888245 -0.11200298 -0.16987084 -0.024832848
0.119250536 -0.13032737 0.068257935 0.17606309 -0.06033663 -0.016774392 0.08683225 0.027885955
00000000: 4455 d23d 2d79 afbc ca43 acbd 1086 b43d
00000010: ea34 ccbd 5e57 03bd 7af8 873b edaa 593e
00000020: 9969 ecbb 6cf2 723b 3bac 233e 5f6a 1abd
00000030: e840 e13c 626c 14be abd4 fb3d 806e 103d
00000040: b482 2c3e 6380 b63d 9afa 3bbd fdaa 713e
00000050: b093 37bd 506e 033e de15 9e3d 688a f03d
00000060: 8df7 ba3d 746c 5c3d 227d 343c 77a2 d13d
00000070: e7c6 703e a899 333d 9615 2c3e 3ad6 133e
00000080: 4ff6 df3d f290 e5bc a996 013e 9242 8a3d
00000090: 30d9 dabd b2c0 093e ce95 91bd 316a 6dbd
000000a0: f2c2 5dbd c88e a73d e47a 03bd 150e bc3d
000000b0: 5b02 b63d f833 123e 4620 6e3c 1c49 373e
000000c0: de9a 853d 3b5e 103e 81c3 7cbd 3889 59bd
000000d0: b936 2d3e 0ff9 b53d b36e abbd 3083 45bc
000000e0: c058 cbbc 1523 eabd 57a5 103e 0c26 a93d
000000f0: f2d1 cbbc e39d 86bd 4978 233e 4dd8 743c
00000100: 4c9a 99bc 9c3d bc3d 63de bf3d 94f9 cc3d
00000110: 047d ebbb 548d 0b3e 08f9 cf3c e9e4 983b
00000120: 181a a83c fd9a 8cbd 2800 333d 92ef 483e
00000130: c7ba ca3d e0cd f53d ef92 d43b 88e1 083e
00000140: ec1a efbd 58f1 a93c 11f1 36bc b93e 613d
00000150: a7ff d03d 717b b33c 531b e53d 43a5 023d
00000160: 7bca 2d3e ae34 0d3d 4064 13be 7bb0 c43d
00000170: 190a 80bd 38fb 42bc f581 abbd cc25 613c
00000180: 3650 7bbc 2e23 58bc 9a73 693d 6bbc a7bb
00000190: eff1 2dbd 8306 703c cfc3 91bc 18d9 c13d
000001a0: 0ce8 04bc ec22 02bd 741f 593e 8836 28be
000001b0: a55c c9bb 8a52 4bbc 8740 c63d 6325 d5bd
000001c0: 4db5 3c3d 006e c4bc 9f2f 35bd c56e 573d
000001d0: d0c7 133e c233 7e3d 0437 96bb f2f6 dfbd
000001e0: 43fe 2b3c 5945 f2bd 6668 97bd 9a2f f6bc
000001f0: b561 643c 8c01 2e3a 6a75 0c3d 1670 d73d
00000200: d9e5 b73d 6135 f93c 9e5f 04be 274f ecbd
00000210: 736e 323e 57d9 683d 9ef7 ebbd 331a 8b3d
00000220: faee bdbd f292 0b3e 5bef b1bc 72a7 5ebd
00000230: 219a ec3d 0c4e 91bd 7383 bd3d 6f18 c73d
00000240: 0a34 2f3d 7f44 f3bd d83f 0f3d 9d3e b23c
00000250: 6300 833d 7c89 c4ba 67a8 ff3d a850 93bd
00000260: bcc3 e1bd 3d0d b23d fb2d b5bd 8441 0cbe
00000270: 30d6 f53d 743a 4cbd c1a2 363d a021 813c
00000280: 0738 10bd 71fb 9b3d 36d3 15bd 6aeb d03d
00000290: cc1a d93d 9156 aabc 03ec 9e3b 2d76 363d
000002a0: 37cc 46bd 732f 2c3d ab0d 2dbd 247d e93d
000002b0: a83a 773c f46b 03be ea61 c83c d09f fabd
000002c0: ad43 12bd 73a4 2d3d 402b 73bc f02a 313c
000002d0: 14ce 043e 9c3d a53c 0a8e b23d e05d d7bc
000002e0: 50f0 663d 5ee2 3e3e 2259 753c 0178 363d
000002f0: 48df bfbd c40d d1bd 3753 41bd 38fd a6bd
00000300: e51b c73d 0c00 acbd b981 2e3d a32d 483e
00000310: 3ee4 d83d d405 01bd 5131 a53d 2234 6b3e
00000320: 7611 923d f202 fc3d 02dc bd3d f176 81bd
00000330: 0195 213e 1a9e 09be 7d9d b83a 7ebe a0bb
00000340: d0db 243e d6ce 573e f936 ef3b 0147 473d
00000350: b039 d1bb ae8e 8e3d f1e9 57bc 78d0 68bb
00000360: 69f1 f7bd 137b 993d 94a5 5b3e aa05 b839
00000370: 6d31 02bd b42a 403d b922 c53d 416e 803d
00000380: 9245 8f3d 397e 00be d85b 713a 488d 29bc
00000390: 4f6f b5bd 5317 363e 3f7c 30bb 7d58 363d
000003a0: e0be d0bd ddd4 0bbe a6c5 7e3e e6c0 383e
000003b0: 68a3 1f3d a954 15bd 5554 4e3d 9b18 3b3e
000003c0: 3506 2d3d 74ab a43d 2dae 2ebe 2900 e0bd
000003d0: 50f5 3b3d d261 e5bd 9ff2 2dbe 426e cbbc
000003e0: a039 f43d 8a74 05be d1ca 8b3d e249 343e
000003f0: 8b23 77bd 736a 89bc 1bd5 b13d 1671 e43c

classifier.0.weight f4 [32, 64]
-0.13217974 0.05671155 -0.118312 -0.20065041 0.06513351 0.008071507 -0.19015937 -0.03748213
-0.0028339862 0.036414117 0.036263857 -0.02861874 0.08872674 0.0043584434 -0.09993528 0.027801357
0.12204387 0.014119302 -0.07537947 0.06481128 0.004686504 -0.11689934 0.17794387 0.058189124
0.026285743 0.1022807 -0.17582422 -0.19390178 0.26637584 -0.19275178 0.05063167 -0.09266642
-0.13030471 0.20276257 -0.15476944 0.1118028 0.116914846 0.046128485 0.13907343 -0.057253323
0.07933866 -0.013518453 -0.014342037 0.031934492 -0.008959087 -0.07581327 -0.00045697443 -0.19518745
-0.01801036 -0.028264845 0.17707199 -0.0076789563 -0.0936275 -0.20527908 -0.051486906 -0.085378416
-0.09191624 0.13151199 0.13194889 0.040585294 -0.15803666 -0.13930921 -0.1759825 0.030285968
-0.3695908 -0.066849776 -0.06128011 -0.16874123 -0.059368916 0.08105106 0.06796931 0.26411057
0.024427375 -0.16149409 0.24799725 -0.09420122 0.18265168 0.13405718 -0.1855569 0.097003914
0.14550723 0.074004084 -0.09687586 -0.08517117 0.14837666 0.20370123 0.030145148 0.009982394
-0.1269263 0.18393058 -0.28962988 -0.1135605 0.093313314 -0.073176466 -0.18730965 -0.052414972
-0.04994808 0.0603978 -0.16720091 0.13653341 -0.03664634 0.046140593 0.09625635 -0.26459742
0.052657675 -0.0068609514 0.060275413 0.019802934 -0.17379956 -0.05539115 -0.011075817 -0.2695344
-0.20501852 0.072072774 -0.03191444 0.025459664 0.16833961 0.005582697 -0.06014517 0.053329866
-0.10324947 0.10229529 0.0549452 -0.07749019 -0.08111727 -0.036631037 -0.17638816 -0.0019339925
0.033084292 0.11299469 -0.054256316 -0.36841866 0.010265096 0.10317416 -0.07630919 -0.2055088
-0.05440756 0.15623985 -0.2578053 -0.012928479 -0.3256008 0.20880713 0.39387402 0.03788093
-0.112205975 -0.1358502 -0.114101484 0.39448795 -0.28948498 -0.20393476 0.16731793 0.03750756
-0.053729825 -0.12683591 0.3722815 0.0324532 -0.38308534 -0.33905098 0.05165013 0.11335445
0.11872553 -0.41061732 -0.09664976 0.08285268 -0.09651538 -0.3184528 0.17716104 0.21968096
0.14451057 -0.18177 0.22450867 -0.13483208 0.14471997 -0.04279672 -0.03127309 0.23553209
-0.21854745 -0.15040731 0.23390354 0.013330626 0.05612879 0.0027526286 -0.06971927 -0.31330994
-0.15413122 -0.24209975 -0.20112836 -0.19743389 0.3316676 -0.03975123 0.42356992 0.37791687
0.039367232 0.2282696 0.030035973 0.11156857 -0.2083572 0.16141962 0.06855677 -0.030354429
-0.17036724 -0.21722168 0.21378177 -0.07245907 0.1575809 -0.03949526 0.031261563 -0.042484127
-0.15503547 -0.088787526 -0.05013783 -0.32439962 -0.05877063 -0.018322308 0.23326664 -0.07207149
0.028696869 0.2901044 0.11727309 -0.013304058 0.06596461 0.17219701 0.121613696 0.45155066
0.06233226 0.23461132 -0.1664698 0.060019776 -0.21843177 -0.20671606 0.031958405 0.15225612
0.060134117 0.06490181 0.03977992 0.25341487 -0.12587912 -0.051715415 0.04685372 -0.05697823
-0.069160074 -0.16530277 0.023051172 0.11607348 0.0742505 0.032543775 0.056546222 0.073665425
0.10352363 -0.18349685 -0.024834722 -0.34316552 0.013933947 0.033148628 0.10015872 0.12904188
00000000: 205a 07be 5f4a 683d 904d f2bd 4d77 4dbe
00000010: b864 853d 5b3e 043c 23b9 42be dd86 19bd
00000020: 66ba 39bb f826 153d 6989 143d d971 eabc
00000030: 5db6 b53d 46d1 8e3b deaa ccbd acbf e33c
00000040: 23f2 f93d a554 673c 8d60 9abd c7bb 843d
00000050: 3f91 993b ec68 efbd eb36 363e b857 6e3d
00000060: 3355 d73c 8b78 d13d 440b 34be 308e 46be
00000070: 6a62 883e b960 45be 2763 4f3d e4c7 bdbd
00000080: 996e 05be fea0 4f3e e17b 1ebe def8 e43d
00000090: 0d71 ef3d 39f1 3c3d 4469 0e3e 7682 6abd
000000a0: 4f7c a23d 807c 5dbc ddfa 6abc becd 023d
000000b0: 22c9 12bc fd43 9bbd 1296 efb9 38df 47be
000000c0: 768a 93bc ad8b e7bc 5c52 353e c19f fbbb
000000d0: c6bf bfbd ae34 52be efe3 52bd e1da aebd
000000e0: 953e bcbd 14ab 063e 9c1d 073e c43c 263d
000000f0: 5dd4 21be 13a7 0ebe c234 34be 471a f83c
00000100: 013b bdbe 89e8 88bd da00 7bbd 80ca 2cbe
00000110: d22c 73bd 19fe a53d 7e33 8b3d 8039 873e
00000120: eb1b c83c b55e 25be fef2 7d3e 92ec c0bd
00000130: 0b09 3b3e 4946 093e a102 3ebe fda9 c63d
00000140: d9ff 143e 748f 973d da66 c6bd 396e aebd
00000150: 0df0 173e 0e97 503e f5f2 f63c 328d 233c
00000160: f8f8 01be 4c58 3c3e 5e4a 94be 6892 e8bd
00000170: 0d1b bf3d 8bdd 95bd 1ace 3fbe 15b1 56bd
00000180: 5c96 4cbd af63 773d b736 2bbe 6acf 0b3e
00000190: 791a 16bd ebfd 3c3d 0d22 c53d 5079 87be
000001a0: 93af 573d d5d1 e0bb 5ae3 763d c339 a23c
000001b0: 83f8 31be d5e1 62bd 5877 35bc 6a00 8abe
000001c0: 60f0 51be e49a 933d b7b8 02bd c990 d03c
000001d0: 3861 2c3e 0fef b63b c85a 76bd 6b70 5a3d
000001e0: 7574 d3bd 3180 d13d 380e 613d 2db3 9ebd
000001f0: d020 a6bd 6d0a 16bd 199f 34be 057e fdba
00000200: 6583 073d c369 e73d df3b 5ebd 5fa1 bcbe
00000210: ef2e 283c f94c d33d fe47 9cbd e670 52be
00000220: 76da 5ebd 57fd 1f3e 0eff 83be f9d1 53bc
00000230: 26b5 a6be 89d1 553e dba9 c93e 0929 1b3d
00000240: 3fcc e5bd 511c 0bbe 0aae e9bd 53fa c93e
00000250: 6037 94be 46d4 50be 6455 2b3e 87a1 193d
00000260: ce13 5cbd 46e1 01be ae9b be3e a6ed 043d
00000270: c323 c4be 1798 adbe 168f 533d 6126 e83d
00000280: 5f26 f33d 6f3c d2be 4ff0 c5bd aaae a93d
00000290: dba9 c5bd 3f0c a3be b469 353e 0cf4 603e
000002a0: 94fa 133e ea21 3abe 9ae5 653e 6c11 0abe
000002b0: 7931 143e 9d4b 2fbd 3618 00bd 532f 713e
000002c0: e7ca 5fbe 6004 1abe 6984 6f3e b368 5a3c
000002d0: 4de7 653d 7265 343b fac8 8ebd 296a a0be
000002e0: 93d4 1dbe ffe8 77be 98f4 4dbe 1c2c 4abe
000002f0: 56d0 a93e 30d2 22bd 28de d83e 527e c13e
00000300: 893f 213d 82bf 693e 000e f63c 107e e43d
00000310: 975b 55be 2f4b 253e 7e67 8c3d daa9 f8bc
00000320: c074 2ebe 5c6f 5ebe 9ce9 5a3e 6c65 94bd
00000330: e35c 213e c8c5 21bd 200c 003d d603 2ebd
00000340: 9ec1 1ebe 3cd6 b5bd 535d 4dbd b517 a6be
00000350: 79b9 70bd aa18 96bc 73dd 6e3e 389a 93bd
00000360: b215 eb3c 9088 943e e02c f03d 44f9 59bc
00000370: 7418 873d 6a54 303e 9a10 f93d a631 e73e
00000380: 1d50 7f3d f33d 703e 0f77 2abe 4cd7 753d
00000390: 94ac 5fbe 60ad 53be d1e6 023d 07e9 1b3e
000003a0: 314f 763d 3deb 843d 45f0 223d 98bf 813e
000003b0: 75e6 00be 8bd3 53bd b0e9 3f3d 0162 69bd
000003c0: cca3 8dbd 2145 29be d0d5 bc3c efb7 ed3d
000003d0: a510 983d 9f4c 053d 039d 673d e6dd 963d
000003e0: 3204 d43d 99e6 3bbe 3072 cbbc 64b3 afbe
000003f0: 364b 643c dbc6 073d 0420 cd3d 8e23 043e

classifier.0.bias f4 [32]
-0.05970136 0.15157448 0.10396108 0.15099728 -0.17230678 -0.0779375 0.14727582 0.03551714
0.07005176 -0.038111214 -0.013149901 0.09601077 0.10892657 -0.048172127 0.1599019 0.0851783
0.050427187 0.081699096 0.004099456 0.058610033 -0.05439879 0.16893739 0.08680292 -0.011558362
0.06724702 0.13766786 0.140263 -0.11524221 0.27332398 0.0859864 -0.004790267 0.013548944
00000000: 6a89 74bd 5736 1b3e 8ce9 d43d 089f 1a3e
00000010: 3071 30be b29d 9fbd 79cf 163e 6c7a 113d
00000020: 4c77 8f3d 811a 1cbd af72 57bc 4ba1 c43d
00000030: e514 df3d 2350 45bd 53bd 233e f671 ae3d
00000040: bd8c 4e3d db51 a73d bb54 863b 1311 703d
00000050: 44d1 5ebd ecfd 2c3e bbc5 b13d 495f 3dbc
00000060: ceb8 893d cef8 0c3e 1ba1 0f3e 1c04 ecbd
00000070: 1ff1 8b3e a319 b03d acf7 9cbb 64fc 5d3c

classifier.2.weight f4 [6, 32]
0.17060864 0.17194122 -0.07642294 -0.09841216 -0.0960799 -0.04226099 0.22519846 0.010742662
-0.17767973 -0.021993726 0.29704097 -0.25165403 -0.09378977 0.29431564 -0.14083531 -0.027046703
0.19849332 0.21401173 -0.15430404 0.41672695 -0.2087626 -0.29697686 0.027471904 -0.10424151
0.080418326 0.20281425 -0.3754352 0.10663696 0.22760515 0.07439618 0.26759058 0.17135069
-0.12331288 -0.387341 -0.06930731 0.21840917 -0.081155166 -0.32723558 -0.58573854 -0.61443
-0.22841021 -0.64027953 -0.07393569 0.13194667 -0.0116221 -0.0776363 -0.03183362 0.4448749
-0.25357962 -0.4748697 -0.100119196 -0.6814485 0.0074115116 0.035529952 -0.09331721 -0.17083976
-0.056404527 -0.15971538 0.07877057 -0.13139105 -0.4016231 -0.7083268 -0.44516876 -0.080689386
-0.18773706 0.10505853 -0.13358448 -0.020124933 -0.22351758 -0.6447236 0.14402233 -0.18728638
-0.11379736 -0.7658501 -0.39810315 0.097073674 -0.26409054 -0.30699626 -0.07392689 -0.21016537
-0.47218361 -0.14234024 0.03852005 -0.8804992 -0.21180755 0.18337123 -0.062090833 0.088455535
0.13055216 -0.061760843 0.029227948 -0.2155609 -0.035898834 0.18645929 -0.2586209 -0.11131704
-0.03670685 -0.08473021 -0.3614934 -0.06830003 0.10741746 -0.6683414 -0.1915935 -0.09505636
-0.38117135 0.11817832 -0.4147218 -0.059989 -0.31844586 -0.25266293 -0.21820398 -0.7128314
-0.5306163 -0.37943652 0.15274602 -0.85356617 0.113836914 0.17824306 -0.26323676 0.26877424
0.04352348 -0.52066064 0.2376946 -0.2439021 -0.6850986 0.12838195 0.008465922 0.006459277
0.043688156 -0.14716299 -0.22494861 -0.6288445 -0.011034794 -1.0157773 0.16385444 0.24382113
0.124311596 0.01655028 -0.41259405 -0.024240147 -0.08076666 -0.34860092 0.16113806 -0.6368008
0.04308051 -0.4151155 0.12314196 -1.0200169 -0.015327251 -0.23059626 -0.31509247 -0.30676523
-0.21805888 -0.2665582 0.25083214 -0.091248184 0.12504157 -0.19890131 -0.38859093 -0.32664755
-0.38009554 -0.08271819 0.2259676 -0.42223477 -0.048699804 -0.1852461 -0.0702455 -0.2185343
0.16839135 0.42491153 -0.07395549 -0.80658 0.29349446 -0.010641224 0.1659679 -0.56263775
0.065880746 -0.099754095 -0.0331048 -0.041940544 0.17804462 -0.77123237 0.22671017 -0.21332733
-0.20398085 0.18851525 -0.4442855 -1.0717114 -0.00049876043 -0.1605947 0.01621572 -0.32138425
00000000: 08b4 2e3e 5c11 303e a183 9cbd 518c c9bd
00000010: 8ac5 c4bd dc19 2dbd 6d9a 663e fd01 303c
00000020: adf1 35be 302c b4bc c115 983e ccd8 80be
00000030: da14 c0bd 8ab0 963e 2237 10be 0c91 ddbc
00000040: d541 4b3e e425 5b3e e101 1ebe 3c5d d53e
00000050: ddc5 55be 5a0d 98be c20c e13c 937c d5bd
00000060: 5db2 a43d 8aae 4f3e 0b39 c0be 7a64 da3d
00000070: 5311 693e 065d 983d a201 893e 8e76 2f3e
00000080: 778b fcbd 8f51 c6be fef0 8dbd a7a6 5f3e
00000090: ae34 a6bd 6c8b a7be f6f2 15bf 494b 1dbf
000000a0: 5ee4 69be 5ce9 23bf 986b 97bd 071d 073e
000000b0: 9f6a 3ebc c8ff 9ebd f863 02bd a5c6 e33e
000000c0: 30d5 81be 1f22 f3be 4b0b cdbd 6973 2ebf
000000d0: 44dc f23b db87 113d 181d bfbd 9ef0 2ebe
000000e0: 6f08 67bd 6e8c 23be 7752 a13d 608b 06be
000000f0: 8ba1 cdbe e854 35bf 29ed e3be 7a40 a5bd
00000100: 253e 40be ed28 d73d 5fca 08be 0bdd a4bc
00000110: cbe1 64be 9b0c 25bf 977a 133e 00c8 3fbe
00000120: 970e e9bd c10e 44bf 2dd4 cbbe 90ce c63d
00000130: e036 87be 9d2e 9dbe fb66 97bd 9735 57be
00000140: 0dc2 f1be a4c1 11be 33c7 1d3d 6568 61bf
00000150: 14e4 58be abc5 3b3e f552 7ebd 2d28 b53d
00000160: 77af 053e f0f8 7cbd 736f ef3c ffbb 5cbe
00000170: a80a 13bd 2fef 3e3e f569 84be 30fa e3bd
00000180: ec59 16bd 0887 adbd aa15 b9be e3e0 8bbd
00000190: affd db3d 6c18 2bbf 1631 44be e9ac c2bd
000001a0: e428 c3be 7a07 f23d 6a56 d4be 07b7 75bd
000001b0: 560b a3be 095d 81be dd70 5fbe 1e7c 36bf
000001c0: 78d6 07bf 8145 c2be 7469 1c3e 5083 5abf
000001d0: 5423 e93d 5985 363e f8c6 86be c79c 893e
000001e0: ad45 323d 044a 05bf 3766 733e 79c1 79be
000001f0: 9f62 2fbf 8f76 033e a7b4 0a3c 58a8 d33b
00000200: 5af2 323d e5b1 16be ee58 66be f4fb 20bf
00000210: 48cb 34bc fe04 82bf 75c9 273e 3fac 793e
00000220: 1497 fe3d 7494 873c 873f d3be 4693 c6bc
00000230: fe68 a5bd d27b b2be 6001 253e 6105 23bf
00000240: 3075 303d 058a d4be da31 fc3d ea8f 82bf
00000250: 261f 7bbc 6d21 6cbe cd53 a1be 5510 9dbe
00000260: d44a 5fbe 517a 88be 126d 803e 54e0 babd
00000270: e60a 003e c9ac 4bbe 64f5 c6be 593e a7be
00000280: e29b c2be 2868 a9bd 0d64 673e 282f d8be
00000290: 7279 47bd 27b1 3dbe dfdc 8fbd 75c7 5fbe
000002a0: c86e 2c3e 018e d93e fa75 97bd 077c 4ebf
000002b0: e844 963e 8758 2ebc 7df3 293e 0709 10bf
000002c0: 7cec 863d e04b ccbd e698 07bd d9c9 2bbd
000002d0: 5451 363e 7c6f 45bf b626 683e 7b72 5abe
000002e0: 5be0 50be 240a 413e 6479 e3be d72d 89bf
000002f0: 3fbf 02ba f072 24be d4d6 843c 7a8c a4be

classifier.2.bias f4 [6]
-0.033401284 -0.1588309 0.18241116 -0.07672967 -0.08096309 0.067429215
00000000: c9cf 08bd 91a4 22be fec9 3a3e 7224 9dbd
00000010: facf a5bd 5418 8a3d
