experiments/darpa2000/s1_inside/baselines/multi_class_lstm/models/multi_class_lstm_resampled_class_weights_w50.pth (torch, 195603 bytes, 8 tensors)

lstm.weight_ih_l0 f4 [256, 112]
000000 86 14 2b bd 9f 57 34 be 58 42 2b bf 08 15 41 3d
       -0.04176762 -0.1761155 -0.6689811 0.047139198
000010 9c 10 4d be 93 c7 b7 bb dd 6c 7b be 46 6b 2c bf
       -0.20025867 -0.005608508 -0.24553247 -0.67351186
000020 71 9c 60 be 8b 82 5a bd 09 bf bc 3d 6a ae 19 3e
       -0.21934678 -0.05334715 0.092161246 0.1500794
000030 ca b5 69 be 7a d7 8b bd 1f ef 1b 3f 41 bd b0 3d
       -0.22823253 -0.06828208 0.60911745 0.08629847
000040 1c ee 5e 3d 76 65 a4 bd 05 26 35 be f2 42 e8 bd
       0.054426298 -0.08027165 -0.17690285 -0.11340894
000050 d7 69 7c 3e fd 95 8a 3e bb 3b 99 3e 01 da ca 3d
       0.2464975 0.27067557 0.29928383 0.09904862
000060 40 ad 06 bd 0b 23 5f be c4 e2 80 be 0b 67 06 3f
       -0.032880068 -0.21790712 -0.25173008 0.5250098
000070 cf dd 41 3e 80 d9 ca 3d 73 3c 43 3e 30 a3 99 3d
       0.1893227 0.09904766 0.19066028 0.07501829
000080 67 33 a2 3d 92 a4 4a 3e a2 82 b0 3d d2 c7 68 3c
       0.079199605 0.19789341 0.08618666 0.014207797
000090 1a 77 2c bc 53 52 43 be 51 e0 69 be 12 9f 05 3e
       -0.010526443 -0.19074373 -0.22839476 0.13048962
0000a0 59 79 87 3d 08 ae a2 bd d3 44 d2 bc ec ab 3a 3e
       0.06614942 -0.0794335 -0.025667584 0.18229645
0000b0 2c 32 bf 3d b8 b6 0d 3e f2 1d 83 be a3 b0 a3 3c
       0.093357414 0.13839233 -0.25608784 0.019981688
0000c0 d1 db c5 3d 3b 8b 9c 3d 2b 30 31 3d 76 e1 cd 3d
       0.09661067 0.076437436 0.043258827 0.10052769
0000d0 dc 0a 2a 3d 8a 70 3d 3e 19 e7 95 bd 35 da 53 be
       0.041514263 0.18499961 -0.07319469 -0.20688708
0000e0 5b 56 57 bd 7b 69 1f bc 84 e1 9f 3e 4c f7 0f 3d
       -0.05257259 -0.009729738 0.31226742 0.03514795
0000f0 87 62 a4 3e 8f 19 98 3e 8a 49 d7 bd fb 96 d0 bd
       0.3210642 0.29707 -0.10512073 -0.10185047
000100 01 bb 8b bd 59 ab 65 3b 1e 32 5f be 98 1e 94 3e
       -0.068227775 0.0035044758 -0.21796462 0.2892959
000110 a3 b0 88 bd 97 09 fd 3e 96 6f 49 3d 4f 35 24 3e
       -0.06674316 0.4942138 0.049178682 0.1603596
000120 45 73 f0 bd d8 d6 d1 bd d1 6e bb 3d 9d 03 38 3b
       -0.11740736 -0.10246056 0.09151996 0.0028078326
000130 0c 62 98 3d d9 58 35 be 91 c0 14 bd 10 5c 05 3c
       0.07440576 -0.17709674 -0.036316458 0.008139625
000140 f6 fe a4 3e 40 93 95 3b 1b 28 83 3e 82 c5 77 be
       0.3222577 0.0045646727 0.25616536 -0.24196437
000150 9f 4b 06 3e 20 f8 8d bd 72 a0 18 bd 2a a2 15 3d
       0.13114785 -0.06932092 -0.037262388 0.036531605
000160 9b 13 6c 3d ef 34 99 3d e9 df c0 bd c1 78 33 3d
       0.057635885 0.074807994 -0.094177075 0.04381633
000170 74 70 e9 3d 30 53 8b 3e 55 23 91 bd 27 f6 d7 3e
       0.11398402 0.27211905 -0.07086817 0.42179987
000180 c7 f1 20 3e 93 61 ba 3d ff d2 a7 3d 77 0c 31 3a
       0.1571723 0.09100642 0.08194541 0.00067538716
000190 24 e7 b9 3d 04 ad 0a bd 5b 1c 23 3e 61 a5 92 be
       0.0907729 -0.033856407 0.15928786 -0.286418
0001a0 9a ac 66 be 3e 13 01 3d a9 86 1f 3e 3c 1b 11 3e
       -0.2252678 0.03151249 0.15578713 0.14170545
0001b0 55 17 a0 bb 97 45 10 be 04 e7 ad bc 9f 25 98 3d
       -0.004885594 -0.14089046 -0.02122832 0.07429051
0001c0 20 b8 44 bd b7 2c 0a be 7d 47 8e 3e 30 c4 6f 3c
       -0.048027158 -0.1349362 0.27788916 0.014634177
0001d0 a7 4e 34 be 61 44 f1 bc 1b 23 ac 3c d9 38 ce 3e
       -0.17608128 -0.02945155 0.021012833 0.40277746
0001e0 76 4c 20 be d2 ee e3 3d f3 a8 5f be 3f 55 5c 3d
       -0.15654168 0.11129536 -0.21841793 0.053792235
0001f0 ed 54 99 3d 61 60 c5 be 28 51 f8 3e b8 3e 8a 3e
       0.074869014 -0.38550094 0.48499417 0.27000976
000200 09 1d c1 3d f5 68 60 3b ee 48 d1 3d 59 c1 50 bd
       0.09429366 0.0034242247 0.10218988 -0.05096564
000210 4a 19 f6 3d 3c 04 2a be 6c a9 31 3d 8d 0d 1c be
       0.12016542 -0.16603178 0.043374464 -0.15239544
000220 49 3e e1 3c 1f 1c 21 be 0e ab 22 3e 58 60 90 3e
       0.02749552 -0.15733384 0.15885565 0.28198504
000230 11 62 d9 bc a9 22 ef 3e 85 2c e8 3d cd ed f2 3c
       -0.02653602 0.4670613 0.113366164 0.029654408
000240 93 cd 07 bc 51 82 48 3c 37 72 81 bd d7 1d d9 bd
       -0.008288759 0.012238101 -0.06320613 -0.106013946
000250 ac b9 8b bd c9 f2 3d be 16 c2 4b be c3 57 b0 be
       -0.068225235 -0.18549646 -0.19898257 -0.34441957
000260 9b 83 92 bc 52 50 a2 3d 36 6f 48 3d 71 a8 5e 3e
       -0.01788502 0.07925476 0.048934184 0.21743943
000270 e0 56 7e bb 21 bf c9 be 49 53 73 be bc d1 92 3d
       -0.0038809106 -0.39403632 -0.2376224 0.0716891
000280 2c be c0 3d b8 ea 08 3e 6d 87 b6 bd 77 52 3d 3e
       0.094112724 0.13370788 -0.08912549 0.18488489
000290 1f 16 1e 3e ee 7e 0e 3e 9b 80 8b be 51 c8 cf 3d
       0.15438126 0.13915607 -0.27246556 0.10145629
0002a0 2b 6d 66 3d 24 2c 43 3e 85 4d d9 3f ca 9b 7d bd
       0.056256454 0.19059807 1.6976782 -0.06191615
0002b0 6d 38 0c 3c d8 6a 82 bd 5f af e5 bd d9 54 f1 bd
       0.008558375 -0.06368035 -0.1121509 -0.117837615
0002c0 4a 84 fd bd cd a4 d8 be 72 fb c3 3c a7 61 8e bc
       -0.12378748 -0.42313233 0.02392361 -0.017380549
0002d0 17 66 81 3e bc 5c a6 3e 9b 6f 1e 3f 1f e5 06 bd
       0.252732 0.32492626 0.61889046 -0.03293335
0002e0 7a c1 aa 3e fe 7d cc bd c9 76 1d be 6e 86 64 3d
       0.33350736 -0.099849686 -0.15377344 0.055792265
0002f0 52 36 e7 3d fd 08 fa bd 0a dd 8e be 3a a2 f5 be
       0.11289658 -0.12208746 -0.27903014 -0.47975332
000300 8f ad 84 3d f2 0a ce 3d dd 6a ae be 9f 5d 04 bf
       0.06478416 0.100606814 -0.34065905 -0.51705354
000310 44 78 02 be c0 3d 0b 3d 22 75 ec 3d 4c 91 07 be
       -0.1274119 0.033994436 0.11545779 -0.1323902
000320 30 0c 32 3e e3 85 95 bc fa f2 12 3d c5 8d 0f bd
       0.17387462 -0.018252319 0.03587625 -0.03504731
000330 cd 3b 03 3d 9a 38 88 bd f8 90 05 bd 95 c2 9a 3e
       0.032039452 -0.06651421 -0.032608956 0.3022658
000340 57 b2 40 3d 0e 80 98 3d ec b8 e0 bd 17 68 cf bb
       0.047045078 0.074462995 -0.10972771 -0.006329547
000350 77 af 2b 3d 42 3d a2 bd 06 69 2e bc 60 38 f4 3d
       0.041915383 -0.0792184 -0.010645157 0.11924815
000360 b6 86 53 3e b3 30 36 be 01 18 84 3d 70 37 1c 3d
       0.20656857 -0.17792015 0.06449891 0.038138807
000370 4a 91 61 be 07 85 55 be 1a f2 e9 3d 54 6d c2 be
       -0.2202808 -0.20851527 0.1142313 -0.37974036
000380 15 2f 93 3e 08 48 8d 3d bc 48 bb be 82 db d2 bd
       0.28746858 0.068985045 -0.3657893 -0.10295774
000390 87 6d 3d 3d 1a b6 40 bd 14 95 6e be 2e 22 a2 be
       0.04624703 -0.047048666 -0.23299056 -0.31666702
0003a0 80 43 5c 3e c5 74 8f 3e 91 f3 3e be 97 2d 84 3e
       0.21510124 0.28018776 -0.186476 0.25816032
0003b0 00 0b 6f 3c e2 55 22 be fc ad 28 be bc 7d 67 3f
       0.014590025 -0.15853074 -0.1647262 0.9042623
0003c0 b6 83 00 3f 59 86 cd bd 55 9e e2 be 82 6f 15 be
       0.50200975 -0.100353904 -0.44261423 -0.14593318
0003d0 5a ce cb 3e 85 6f 2b 3f 64 6f d4 3c 74 f8 82 bd
       0.3980587 0.6696704 0.025932021 -0.06395045
0003e0 f3 59 c4 3d 61 42 93 3e 63 4e 51 3f 09 7a f0 3c
       0.09587469 0.2876158 0.81760234 0.029355066
0003f0 bd 5f 74 3e 16 0a ae be e2 07 cf bb cf 3b 66 bb
       0.23864646 -0.3399207 -0.0063180784 -0.0035130864

lstm.weight_hh_l0 f4 [256, 64]
000000 74 57 96 bd 53 4f 13 be 74 b1 13 bd 1c 13 27 3d
       -0.07340899 -0.14385729 -0.036057904 0.04078971
000010 f7 4f 65 bc 64 5c 48 3e 8e c7 be bb ae a0 d8 3b
       -0.013996116 0.19566494 -0.0058221286 0.0066109514
000020 f4 0a 12 be 32 db 34 bd 31 13 eb 3d 37 2f 11 3e
       -0.14261991 -0.044154353 0.1147827 0.14178167
000030 31 15 38 3d 7d f8 5e 3d 4e 83 52 3e ee 83 db 3d
       0.044942085 0.054436196 0.20557901 0.10718523
000040 93 55 e2 bd 6a c0 c6 bd 62 be 85 3e 5e 3b e8 be
       -0.11051478 -0.09704669 0.26121813 -0.45357794
000050 c5 08 36 be 70 b4 30 be 91 88 b2 3e f6 89 12 3d
       -0.17776783 -0.17256331 0.34869817 0.0357761
000060 bd 99 41 3e 2b ee 40 3d 4e e3 70 bd b0 65 34 3e
       0.18906303 0.047102135 -0.058810525 0.17616916
000070 fd 9c 1a 3e 23 8a 8c 3e 92 18 c8 3d 00 58 84 bd
       0.15098949 0.2744914 0.097703114 -0.06462097
000080 b8 06 14 3e 1f 3b 3c be e4 5e 1f 3d 61 6b b8 3c
       0.14455688 -0.18381928 0.038908854 0.02251214
000090 60 58 e2 bd f6 fe f7 bd 7d 32 0b 3d 37 8a 22 ba
       -0.110520124 -0.12109177 0.033983696 -0.0006200405
0000a0 a5 75 41 bd 56 b3 5f 3c b7 fd d8 be 41 48 c3 bd
       -0.047231335 0.013653597 -0.4238107 -0.09535266
0000b0 ea eb b4 3d 4b 95 13 3d 40 a0 2b bd 32 6b c5 bb
       0.088340595 0.03603105 -0.041900873 -0.0060247416
0000c0 26 79 eb bd dc 93 ed bc 48 db 83 be 74 b8 e5 bd
       -0.114977166 -0.029001169 -0.25753236 -0.11216822
0000d0 c5 a5 36 3c 18 b3 96 3c 0d 47 30 3d 7d 76 5a bd
       0.011147921 0.018395945 0.04303651 -0.053335655
0000e0 76 d1 94 3d 6f ad 0e bd 63 e5 88 bc 8d 7a fa 3d
       0.07266514 -0.034833368 -0.016710943 0.12230406
0000f0 05 60 0c bb 83 f1 ef 3d 86 83 ed be d9 52 15 3e
       -0.0021419537 0.117159866 -0.46389407 0.14582385
000100 8a 6d b9 bd 18 af c4 3e 05 59 f8 be 9e b1 10 3e
       -0.09054096 0.38414836 -0.48505417 0.14130256
000110 a1 3e 10 bd 7e ec 90 be 37 17 02 be 18 9a 30 be
       -0.035215978 -0.2830543 -0.12704168 -0.17246282
000120 3f 0b d2 be dd de 49 be 7d ae 89 bd 6d ac 57 3e
       -0.41024205 -0.19713922 -0.06722734 0.21061869
000130 00 f6 7a 3c e4 53 9c 3d 07 f7 48 3d 94 67 37 bd
       0.01531744 0.07633188 0.04906371 -0.044776514
000140 5a 56 ca be 87 c0 c1 be ea 16 35 3e dc a4 86 be
       -0.39519006 -0.378422 0.17684522 -0.26297653
000150 21 5e f0 be 22 a3 8e be 99 11 a8 3e 38 60 82 be
       -0.46946815 -0.27858835 0.32825926 -0.25464034
000160 8e de 72 3e d6 15 34 be d3 78 fe 3d 93 fa 49 3e
       0.2371771 -0.17586455 0.12425389 0.19724493
000170 ba 61 86 3e 45 a0 78 3e ff f6 99 3e d2 e6 53 3d
       0.26246434 0.24279888 0.30071256 0.0517338
000180 a0 60 36 3d c3 1d 92 be 52 fd 9c bc 88 3e c3 bd
       0.044525743 -0.2853833 -0.019163761 -0.09533411
000190 5b af 87 be d4 72 3d be aa 10 aa bd 13 ec ba 3b
       -0.26500973 -0.18500835 -0.0830396 0.005704412
0001a0 9c 03 8e 3e 73 59 82 bd ac 43 64 bd b2 f3 12 be
       0.2773713 -0.06364717 -0.0557286 -0.14350775
0001b0 59 44 07 3e b2 4b 9a bd 93 f8 36 3d cb f7 1b 3e
       0.13209666 -0.07533969 0.044670653 0.15231244
0001c0 80 d2 bf bd 82 f2 8b be 80 f9 f1 bb 31 94 8f bd
       -0.093663216 -0.27333456 -0.007384479 -0.07010687
0001d0 31 63 92 bb c7 12 26 bd 42 65 a2 3d 73 a7 12 be
       -0.004467391 -0.04054525 0.0792947 -0.1432169
0001e0 0a 61 17 3e bf fb be be 5d e7 a2 bc e8 36 ea bd
       0.14783111 -0.37301442 -0.019885713 -0.11436254
0001f0 e8 e9 49 be 10 de 0b 3d 77 71 d9 be e8 1b 51 bd
       -0.19718134 0.034147322 -0.4246938 -0.051052004
000200 61 42 87 bd bd f9 83 be 28 75 0d 3e 7e fc 1c be
       -0.06604458 -0.25776473 0.13814223 -0.15330693
000210 ed a1 01 3e 80 d8 3d 3d 4d 1b f3 be 35 99 ca 3b
       0.12659426 0.04634905 -0.47481766 0.0061828145
000220 88 49 9a bc e5 e7 42 bd c7 b5 a0 3d fc a4 4e be
       -0.01883389 -0.047584433 0.07847171 -0.20180124
000230 01 85 6c bc 27 44 53 3d d0 f0 a1 bd 7e f3 8c be
       -0.0144360075 0.051578667 -0.079072595 -0.2752952
000240 26 72 46 3e a1 9b e2 3d f7 35 dc bc 6f 6b c6 3c
       0.19379482 0.1106484 -0.026881201 0.02422115
000250 5b 3c 2c 3e 26 cf b2 3e df 8c ee bd 9d dc f8 3c
       0.16819899 0.34923667 -0.11647963 0.030378634
000260 8e 81 14 be 18 46 24 3e 58 67 fd ba cf 9a c6 bc
       -0.14502546 0.16042364 -0.0019333167 -0.02424374
000270 6c 7e 04 3d 3f 76 59 3e b0 8c 17 be cb 6e be be
       0.032347128 0.21236514 -0.14799762 -0.37193903
000280 73 a3 1c be 2a 55 c7 3b f9 d1 b9 bd 9f 38 a7 3d
       -0.15296726 0.0060831504 -0.09073252 0.081650965
000290 05 6c 83 3e 34 17 0a bd 9f 32 a5 be cb 93 d2 bd
       0.2566835 -0.033713534 -0.32265183 -0.102820955
0002a0 89 7b 1d bd d6 84 3d bd 68 f5 bc bd d8 ec 06 3e
       -0.03844789 -0.04626926 -0.09226495 0.13176286
0002b0 71 f4 41 be 45 39 ca 3c 4e c9 11 3e 40 82 0f be
       -0.18940903 0.024685511 0.14236948 -0.1401453
0002c0 25 0b 7e be 96 c4 03 3e 4d e1 c3 bd 5e 63 e0 bd
       -0.24808939 0.1286796 -0.09564457 -0.10956453
0002d0 bc 35 06 3e 6c c1 b8 3d e8 2e 77 be d9 0e 0d 3e
       0.13106436 0.09021267 -0.24138987 0.13775195
0002e0 b7 e5 d9 bd b7 6a 6b 3e b8 2c 89 3d cc 19 c4 bc
       -0.10639518 0.22989927 0.066979825 -0.023938082
0002f0 30 14 0c bb 4e dd 14 be 5e 8b 25 3e 7f 97 82 3d
       -0.0021374337 -0.14537546 0.16166446 0.06376552
000300 ec e4 5c bb 9f 06 21 3e 52 7c be bd 45 f6 85 be
       -0.0033705784 0.15725182 -0.09301056 -0.2616445
000310 40 6f e7 bd a6 bd a0 be bd 19 8c bd e1 24 6d bc
       -0.11300516 -0.3139469 -0.06840847 -0.014474125
000320 81 e3 15 be 04 3c 15 3d 54 08 54 bd 0e 75 8c bd
       -0.14637567 0.03643419 -0.051765755 -0.06858264
000330 ec bf eb bd 45 eb 04 be 02 8a a6 3d c2 b9 66 be
       -0.115112156 -0.12980373 0.08131792 -0.22531798
000340 0e b2 d1 bc 1d 50 c2 3c 88 1f 47 bc 16 82 e2 3c
       -0.025597598 0.023719842 -0.012153514 0.02764992
000350 c4 21 37 bd b2 83 b6 bc 5d 43 c4 bd 6f af 9a 3d
       -0.044709936 -0.022279594 -0.09583161 0.075529926
000360 a6 e0 86 bd 4b 4d 16 be ec 7f 69 3e df b6 2c 3c
       -0.06585817 -0.14677922 0.22802705 0.010541647
000370 1d e8 6e be 3f 63 31 3e 06 c1 e4 bd 4e 06 4f be
       -0.23330732 0.17323016 -0.11169629 -0.20217249
000380 b5 e7 24 3e f1 4d 11 3e ce 51 96 bd 2b 0f 9b bd
       0.16104014 0.14189889 -0.07339822 -0.075712524
000390 80 13 ed 3d 3e 8b f2 3d 7c a4 b1 bd 8c 5b 10 3e
       0.11575985 0.118429646 -0.08673951 0.14097422
0003a0 df 85 3e 3e 4c 6b 8b bd 86 a7 24 be 2c 36 6c bd
       0.18605755 -0.06807575 -0.1607953 -0.05766885
0003b0 80 e1 ba bd d5 5a bd bb f1 1c 84 bd 21 ac 4d 3d
       -0.09125042 -0.0057786503 -0.06450833 0.050212983
0003c0 44 ec 09 3e 08 96 4a be 63 b6 12 be 58 74 56 bd
       0.13469034 -0.19783795 -0.14327388 -0.052357048
0003d0 76 fe 65 bd 79 76 60 3e 78 c9 b1 bd 73 c4 6b be
       -0.056150876 0.21920194 -0.08681005 -0.23024158
0003e0 29 ca d8 3d fc 3b db 3d 40 76 1b 3e 55 0a 01 be
       0.10585434 0.107048005 0.15181828 -0.12601598
0003f0 f9 42 b4 3c 46 65 f4 bd fa 93 8f 38 88 35 30 3e
       0.022004591 -0.11933379 6.846334e-05 0.1720792

lstm.bias_ih_l0 f4 [256]
000000 53 0a ef bd e6 0d 12 be 51 e6 08 3e 7c 20 1d be
       -0.11671891 -0.14263114 0.13369109 -0.15344423
000010 fa bb 2c 3d 27 d6 47 bd e9 70 8b bc 24 fd d4 3e
       0.042171456 -0.048788216 -0.017021613 0.4159938
000020 57 fb c1 3d 50 6f 9a 3d 23 d7 56 bd ba 9c 8b 3e
       0.094717674 0.075407624 -0.052451264 0.2726801
000030 de 4e 56 3c 41 ee be bd eb e6 ff bd 3a 25 e8 bd
       0.013080327 -0.09322787 -0.12495216 -0.113352254
000040 43 83 61 3e 5d 79 96 3a 24 bf 08 3e 61 bc 1b 3d
       0.22022729 0.0011480261 0.13354164 0.03802145
000050 71 18 97 bd 9a 95 dd 3c a4 a8 0f 3d 19 1a d4 3d
       -0.07377709 0.027048875 0.035072938 0.1035654
000060 73 19 63 bd 30 f6 db 3d d3 f3 64 3d 59 36 88 3e
       -0.055444192 0.10740316 0.05589659 0.26603964
000070 34 11 81 3e 3a f2 d4 bd bf 6a ef 3d 43 00 c5 3e
       0.25208437 -0.103977636 0.11690282 0.38476762
000080 0f e2 c6 3e 28 e5 19 3e 76 ff 0d 3d 77 de 36 3d
       0.38844344 0.15028822 0.034667455 0.044645753
000090 da a1 3a be 80 30 0d be 42 95 38 bd c0 fb 55 be
       -0.18225804 -0.13788033 -0.04506422 -0.20896816
0000a0 e1 6f 07 be bc f7 2a 3d 4e 4e 5b 3d c4 73 ee 3d
       -0.13226272 0.041740164 0.053541474 0.11643174
0000b0 ac cf 31 3e 2f 58 d8 3d f5 47 2d 3e cd 59 03 3e
       0.17364377 0.10563695 0.1692198 0.12827225
0000c0 0f 3e 55 bd e8 b0 1b be c5 9b b0 bd 9b 7f 3d be
       -0.052061137 -0.15204203 -0.08623461 -0.18505709
0000d0 cd a4 6d bd 58 1d 05 3d 52 c0 d6 3d e3 8b 22 bd
       -0.058018494 0.032498688 0.10485901 -0.039684188
0000e0 9f c3 e4 ba 52 b5 76 3e ee ad 56 3d 19 b0 a6 3e
       -0.0017453319 0.24092606 0.052411966 0.32556227
0000f0 1c 9f bf 3d 7c 39 f2 bd 35 f9 93 bd f2 05 2c 3e
       0.093565196 -0.118273705 -0.07225267 0.16799143
000100 e0 de 2a be be af d8 bd 60 aa b1 bd bd b2 75 3d
       -0.16686583 -0.10580395 -0.086750746 0.05998491
000110 46 4a c2 bd 8f 73 9e 3d 19 6f b5 bc 30 25 6a 3d
       -0.09486823 0.07736885 -0.022147702 0.05716437
000120 29 9b 17 3d 9f 54 63 be a4 d2 9d 38 7c 72 e5 3d
       0.037013207 -0.22200249 7.525578e-05 0.11203477
000130 aa a8 1c 3e 99 60 bd bd 6a c5 5b 3e 1d dd b4 3d
       0.15298715 -0.0924694 0.21462026 0.088312365
000140 38 42 f1 bd 85 ad ab bd f2 20 4c 3d ce 07 33 bb
       -0.11780208 -0.083827056 0.049836107 -0.0027317884
000150 7c 2d 53 3b e5 d5 cc 3d 47 86 99 bd ed 2c 5b 3c
       0.0032223156 0.10001735 -0.074963145 0.01337741
000160 87 9d 44 be 7e d0 1b be 8e da 2c bd ed 43 c3 3d
       -0.19200717 -0.15216252 -0.042200617 0.0953444
000170 de 55 ae bd c4 eb 41 bc c9 e0 4d be 14 6a 1e be
       -0.085124716 -0.011835996 -0.2010528 -0.15470153
000180 a2 54 79 be ef c7 0a bd 9f c7 8a 3d 5e 27 df 3d
       -0.24348691 -0.033882078 0.06776356 0.108961806
000190 3d dc 55 be b4 45 bb bd 3e ae 42 be 5b ed 5a bc
       -0.20884795 -0.09144154 -0.1901178 -0.013362254
0001a0 b3 bc 08 be 8e 6a 54 bd 10 a9 0f 3e f0 8e 6f bd
       -0.13353233 -0.05185943 0.14029336 -0.058485925
0001b0 64 63 20 3e 7e 30 33 be ca 07 31 be bd e5 03 be
       0.15662915 -0.17498967 -0.17288128 -0.12880607
0001c0 b1 b1 f3 3d 67 2b 66 bd 2d 99 08 bd 82 bf d8 bd
       0.11899126 -0.056193735 -0.033349205 -0.10583402
0001d0 61 9b 21 bd 2b 1e 22 3d 0a 95 f1 bc 13 2f 03 bc
       -0.03945482 0.03957955 -0.029490013 -0.008006829
0001e0 1a d0 04 3d 35 f5 58 be ce ce 21 be 6d 7f 59 3e
       0.032425024 -0.21187289 -0.15801546 0.21240015
0001f0 ba 61 f6 bd e0 49 aa bd 71 80 33 3e 46 40 5e be
       -0.120303586 -0.08314872 0.17529465 -0.21704206
000200 58 93 dd bd 7a 7e 14 3d 04 df fa 3d ac a0 df bd
       -0.10819119 0.03625343 0.12249568 -0.109193176
000210 d9 90 39 3d 65 73 82 3d cf cb 52 3c 04 41 ce 3d
       0.045304153 0.06369666 0.012865975 0.100709945
000220 0c b3 09 bd c9 58 05 be 87 54 cf bc c3 05 b7 bb
       -0.033618018 -0.1302215 -0.02530886 -0.0055854036
000230 d5 b0 48 be 18 a2 90 3d ab 8f b4 bc 45 85 73 bd
       -0.19598706 0.07062167 -0.022041162 -0.059453268
000240 be 2e a2 3d f4 e2 8c 3d ff 66 e7 bd 29 57 84 bd
       0.079190716 0.068792254 -0.11298942 -0.06461937
000250 54 50 2c be de 40 85 bd 07 01 7b 3c 00 0b 77 3c
       -0.16827518 -0.06506513 0.015320069 0.015078306
000260 5f 49 a2 3b f2 dd 09 3e ee c3 f7 bd 10 1c 4d 3d
       0.004952594 0.13463572 -0.120979175 0.05007559
000270 8c 5a d7 bb 8d 36 0e bb e4 82 48 be 8f e4 42 bd
       -0.0065720733 -0.0021699995 -0.19581181 -0.04758125
000280 0e 31 38 bd 8f a9 14 be 55 10 87 bd 3b c3 08 3d
       -0.044968657 -0.14517806 -0.06594912 0.03338931
000290 0c b5 6b bd 82 a5 f1 bc 8b 3e 2c 3d 9a 95 59 bd
       -0.057545707 -0.029497866 0.042051833 -0.053121187
0002a0 f6 fc a0 3d 82 38 f1 bd 3a b8 db 3d 96 93 2b bb
       0.078607485 -0.11778356 0.10728498 -0.0026180497
0002b0 78 71 2e be cf 78 8d 3e 4f cc 17 be 49 c4 2b 3c
       -0.17035472 0.27631232 -0.14824031 0.01048381
0002c0 e6 60 0a be f0 a7 bb 3d ca b0 1d 3c b3 6a 0b be
       -0.13513526 0.09162891 0.009624669 -0.13614921
0002d0 25 e5 40 3e dc c3 5b bd 19 d8 42 3d 8a 81 62 3c
       0.18837412 -0.053653583 0.047569368 0.01382483
0002e0 dc a9 27 bd a4 ac b8 3c 19 55 ec bd 44 98 6f 3d
       -0.040933475 0.022543259 -0.115396686 0.05849482
0002f0 e4 24 d8 bd 4f a8 31 be f4 7d 32 3e 39 f8 54 bd
       -0.10553911 -0.17349361 0.1743086 -0.051994536
000300 9b 09 5c bd bd b4 0b be 45 25 81 3e 3f 7a fb 3c
       -0.053720098 -0.13643165 0.25223747 0.03069794
000310 05 69 37 be 11 fd 20 3b 70 19 b6 bd ce 37 13 be
       -0.17911156 0.0024564902 -0.088915706 -0.14376757
000320 1d 2f 20 3e 84 14 37 bc 10 c4 a4 bd 5e 54 10 be
       0.15642972 -0.011174325 -0.080452085 -0.14094684
000330 d0 d6 bc bd 68 7c 09 be b2 ac 38 3d 16 a8 5e bd
       -0.0922066 -0.13426363 0.04508657 -0.054359518
000340 0b 97 94 3e fe 56 b1 3c 50 0d 25 3e 0e 49 e7 bc
       0.29021487 0.021647926 0.1611836 -0.028233077
000350 8d 9f b4 3d 10 de 0f 3e 88 53 c5 3d 2f 69 06 bd
       0.088194944 0.14049554 0.09635073 -0.032815155
000360 25 8b 84 bd 11 1b a5 bd 47 11 b0 bd 8b 98 cc 3d
       -0.06471852 -0.08061803 -0.085970454 0.09990033
000370 3f a1 9e 3e 60 3c 86 3c cb d5 eb 3d 97 69 a1 3e
       0.30982396 0.01638621 0.11515387 0.3152587
000380 d6 97 a3 3e ba 24 8a 3c e7 69 05 be 2e 7c eb 3d
       0.3195178 0.016863216 -0.1302868 0.11498295
000390 de e9 dc 3c d4 16 8b 3d 04 1f 0d be 96 30 5a 3d
       0.026966985 0.067914635 -0.13781363 0.05326899
0003a0 4f d5 77 be 72 ad 81 bd cb 86 82 3d c5 87 b8 3e
       -0.24202465 -0.0633191 0.06373366 0.36041084
0003b0 37 c7 d4 3d 4d e6 1c be d1 f6 ed 3d c2 3c e3 3d
       0.1038956 -0.15322228 0.11619342 0.11095573
0003c0 b6 93 32 be f4 0a a0 3b 7d f6 9d bd 49 a0 20 be
       -0.1743916 0.004884118 -0.077130295 -0.15686144
0003d0 9c 9b 40 bd 26 79 e0 3b d3 12 61 bd fd 6f fc 3d
       -0.0470234 0.0068503795 -0.054949593 0.123260476
0003e0 57 20 a7 bd c2 3e 55 3d 19 85 10 be 13 94 b2 3d
       -0.08160465 0.052061804 -0.14113273 0.08719649
0003f0 a7 5f 81 3d 23 fd 2d be aa 92 9e 3e 54 6e 33 3e
       0.06317072 -0.16991095 0.3097127 0.17522556

lstm.bias_hh_l0 f4 [256]
000000 90 78 73 bd bf 76 ba bd 70 21 23 3d be 20 26 bc
       -0.05944115 -0.0910468 0.03982681 -0.010139642
000010 1a 13 c4 3c df 68 a5 bc a7 64 a1 3d 74 bb df 3e
       0.02393489 -0.020191608 0.07880526 0.43697703
000020 2f f1 84 3c 34 c7 82 bd b9 f1 ee 3d aa 70 de 3d
       0.016228287 -0.06385651 0.11667199 0.10861333
000030 f5 65 6a bd ec 36 43 bd d2 6c 3c bd 82 f7 8a bd
       -0.05722614 -0.0476598 -0.046002217 -0.067854896
000040 d9 14 a4 3e 72 2c e8 3c 3a b9 dd bc 38 37 5c 3d
       0.32047155 0.028341506 -0.027065862 0.0537636
000050 32 ca 07 be f9 19 3e 3e 1a 86 28 bd 1e 81 91 3c
       -0.13260725 0.18564595 -0.041143514 0.017761763
000060 6c f7 ce bc 75 1d 80 3d fa 82 3f 3d e4 2e c0 3e
       -0.025264464 0.062556185 0.04675577 0.37535775
000070 f4 85 d2 3e b3 32 ce bc 3e 0a d8 3d d5 1b 92 3e
       0.41117823 -0.02517066 0.105488285 0.2853686
000080 f5 ce ce 3e 24 23 42 3c 40 99 30 3e 4f 6a b1 3d
       0.4039227 0.0118491985 0.1724596 0.08662855
000090 cc b6 33 be d5 40 23 bd 45 88 58 be 43 57 88 be
       -0.175502 -0.03985675 -0.21145733 -0.26629075
0000a0 f1 9b 7c be 50 2d a5 bc 60 88 7d bd 06 17 b5 3d
       -0.24668862 -0.020163208 -0.061897635 0.08842282
0000b0 75 bc 1d 3e 71 6f 7d 3e 7c ee 96 3d 3f 66 0c 3e
       0.15403922 0.24749543 0.07369706 0.13710879
0000c0 bc 85 a2 bd 09 a0 84 3d b3 e0 38 bc c5 e0 65 be
       -0.07935664 0.06475837 -0.011284041 -0.22449024
0000d0 40 62 5d 3d c1 05 d8 3b fc 54 c2 bd d7 34 38 bd
       0.054048777 0.006592483 -0.09488866 -0.044972267
0000e0 fc e1 92 3d 5a 87 a0 3d 02 e4 bf 3d 67 78 7f 3e
       0.07172009 0.07838316 0.09369661 0.24948274
0000f0 d7 56 1f bd a1 54 40 be 36 a1 8c bc f0 28 25 3e
       -0.038901176 -0.18782283 -0.017166715 0.16128898
000100 56 36 b1 bd 98 31 ad 3d 4b 3c 00 be 6c 87 13 3e
       -0.08652942 0.08456725 -0.12523 0.14407128
000110 90 ff 06 bd 15 bc 17 3e 9b 4d b9 bd 30 dd 6b 3d
       -0.032958567 0.14817841 -0.09048005 0.057583988
000120 a4 97 9a bd f4 ab a7 be 9a d8 fe 3c b4 00 9b 3e
       -0.075484544 -0.32748377 0.031109143 0.30273974
000130 f8 3f 04 3e 69 54 ab 3d ce 22 08 3e c4 06 20 3e
       0.12915027 0.08365709 0.13294527 0.15627581
000140 ab bb 50 be c0 80 34 3d eb 95 b7 3d 00 e6 bc 3b
       -0.2038409 0.044068098 0.089641415 0.005764723
000150 29 9b da 3d 61 15 f9 3d 43 03 8e bb 64 ad 58 bd
       0.10674126 0.12162281 -0.004333885 -0.052899733
000160 f3 15 02 bd 0f f2 0d be 08 f8 39 be c1 7f 70 3e
       -0.031759214 -0.1386187 -0.18161023 0.23486234
000170 6e e1 5d bd 0d 5b 1a be bb 63 97 be 2c 22 4c be
       -0.054170065 -0.15073796 -0.29568276 -0.1993491
000180 e0 e9 78 be 54 c9 e1 bd 07 1e 5d 3d 7a 55 e0 bd
       -0.24307966 -0.110247284 0.053983714 -0.10953803
000190 ac 7c 1d be 7b 7e 10 3e 8d bb 88 be 43 8f bf 3d
       -0.1537959 0.14110748 -0.2670559 0.09353497
0001a0 42 28 57 bd 7f ac 4c be 5c fd e9 3d 9b 11 35 be
       -0.052528627 -0.19987677 0.114252776 -0.17682497
0001b0 4b 3d b1 3d ef 9b 32 be 4e 21 9d 3c 51 75 5e be
       0.08654269 -0.17442296 0.01918092 -0.2172444
0001c0 1f 14 42 bd 77 32 a9 bd 53 0b e7 bc a7 33 08 be
       -0.04738247 -0.082615785 -0.028203642 -0.13300954
0001d0 96 f3 75 bd ff 91 38 bd 52 97 c8 bd 32 6b 0f be
       -0.060046755 -0.045061108 -0.09794487 -0.14005736
0001e0 dd 87 38 be e7 fd 42 be b0 00 10 be 6b 17 1d bc
       -0.18020578 -0.19042169 -0.14062762 -0.009588103
0001f0 82 f1 cf bd 9f bb 26 be a7 bd 64 3e 40 d0 8a bd
       -0.10153486 -0.1628251 0.22337972 -0.06778002
000200 a0 38 c0 3d 01 fc 8a 3c 75 f0 53 bc fa 88 fa bd
       0.093858 0.016965868 -0.012935747 -0.122331575
000210 21 87 33 3e 98 10 74 3d 03 71 23 be 3e 11 a0 3d
       0.17532016 0.059586138 -0.1596108 0.07815789
000220 b3 39 b6 bd 55 4f bc 3d 48 10 8e 3d 3f d0 d9 bd
       -0.08897724 0.09194819 0.06936699 -0.10635423
000230 ca 41 c3 bc 28 b9 c3 3c cb a9 91 3d b7 92 04 3e
       -0.023835082 0.023892 0.071124636 0.12946592
000240 4c bc 29 3d 5c 94 23 be dc 5d 95 bb dd e1 3d 3d
       0.04143934 -0.15974563 -0.004558308 0.046357978
000250 bf 17 2a bd a5 9b 11 3d b8 e6 b6 3d ee d6 05 bd
       -0.041526552 0.035548825 0.08930725 -0.032675676
000260 f8 1a 7c bd 5b 77 26 3e f1 2d ea bd d0 6b e0 bd
       -0.061549157 0.16256468 -0.11434544 -0.109580636
000270 b9 40 22 3e 0f 4f a0 bd db c2 51 bd 15 d6 33 bd
       0.15845002 -0.07827579 -0.05121122 -0.043905336
000280 39 6c 9d bd 7c f7 26 3b 4a 84 fc bd be 4e a0 3d
       -0.076866575 0.0025477102 -0.1232992 0.07827519
000290 34 40 52 3d 22 1f 9a bd 02 81 9a bb fe 84 46 3d
       0.05133076 -0.07525469 -0.004715086 0.048466675
0002a0 6e c7 8d bd 22 4f d4 3b 41 c2 ad bc d0 8c 53 3e
       -0.06922804 0.00647916 -0.021210792 0.20659184
0002b0 80 5b 9b 3c 4a ce af 3d 5b d1 c6 bb cd 99 19 be
       0.018964529 0.085842684 -0.0060674376 -0.15000077
0002c0 aa 53 74 bd 45 9b 0e 3e fe b2 75 bd 13 74 c9 bd
       -0.0596501 0.13926418 -0.059985153 -0.098365925
0002d0 43 71 02 3e f7 0b fa 3c 48 47 b0 3d 70 ad 47 bd
       0.12738518 0.030523283 0.08607346 -0.048749387
0002e0 66 60 cd 3d 1b 5d 10 3e 65 be 07 bd 5e 99 f6 3c
       0.10028152 0.14098017 -0.03314056 0.030102428
0002f0 34 49 56 bd f4 c2 03 be 59 b1 ab bc e5 af 76 bd
       -0.052315906 -0.12867337 -0.02095859 -0.06022634
000300 42 ce 46 bd 29 ff 1c be 43 41 53 3e d9 f0 fe 3d
       -0.048536547 -0.15331711 0.20630364 0.12448282
000310 bd 75 1d bd 5f 64 9f 3c 1c 07 60 bd 55 4d 2e bd
       -0.038442362 0.01945704 -0.05469428 -0.04255422
000320 2a e0 f0 3d a3 cf 80 3d ec 7a 95 bd 36 6f 4b be
       0.11761506 0.062896036 -0.07298836 -0.19866642
000330 01 0a 28 3c ce 91 78 be d3 b6 a8 bd 5f de f4 ba
       0.010256291 -0.2427437 -0.08237996 -0.0018681994
000340 10 bd 91 3e 46 7b d1 3d ab 15 64 3d 20 41 ee bc
       0.28464556 0.10228591 0.055684727 -0.029083788
000350 89 6f e6 3c fb 07 38 3e e4 52 af 3d 1f d6 dd 3d
       0.028129356 0.17971794 0.08560732 0.10831856
000360 5d fd 8e bd 22 06 06 be b2 21 0a 3e 2a b1 43 3c
       -0.06981919 -0.13088277 0.13489416 0.011944095
000370 65 31 a1 3e 47 67 a0 bd 36 64 19 bd 62 6a a9 3d
       0.31482998 -0.078321986 -0.037449084 0.08272244
000380 b4 b0 f0 3e 30 3a 8e bd 47 db 02 be 41 db b7 3d
       0.47009814 -0.06944692 -0.1277896 0.08977366
000390 65 90 ba bd b1 4a 18 3d e2 bf a4 bd b0 9f e4 3c
       -0.09109572 0.037180606 -0.08044411 0.027908176
0003a0 a5 75 0e be 02 69 fc bd a2 92 c2 3d 97 e2 81 3e
       -0.13912065 -0.12324716 0.09500624 0.25368187
0003b0 f1 bc 15 3b 39 97 19 be 03 fe 54 3d 53 a0 8b 3e
       0.0022848214 -0.14999093 0.052000057 0.27270755
0003c0 ba df 2c be b0 3f 2c 3e 8f c8 75 bd 03 b6 0e be
       -0.1688222 0.1682117 -0.06000572 -0.1393662
0003d0 fa 6b f3 3d 80 42 3c be 37 56 bc bc 09 7f b7 bc
       0.11885829 -0.18384743 -0.02299033 -0.022399442
0003e0 ca 12 b7 3d 87 79 9b 3d c4 c3 07 bd 2d 98 55 3e
       0.089391306 0.07591539 -0.03314568 0.20858832
0003f0 e8 98 93 bd 34 27 19 be 3a 0b a2 3e b2 87 5d 3e
       -0.07206899 -0.14956361 0.3164919 0.21633795

classifier.0.weight f4 [32, 64]
000000 aa 7d eb be 4c e1 bd be e2 f4 ee bc 54 c8 b5 bd
       -0.45994312 -0.3708595 -0.029169504 -0.088761
000010 db e6 da bd 93 dd c7 bd 1f 22 81 be ef 70 d5 3c
       -0.106885634 -0.09759059 -0.25221345 0.026054827
000020 3b 9d 0d be 15 98 6a be 0e 3d d9 3d 87 9f cb bd
       -0.1382951 -0.22909577 0.106073484 -0.09942537
000030 01 21 32 be af 45 8d 3d d1 91 88 3e e0 8a 67 be
       -0.17395402 0.06898057 0.2667375 -0.2261157
000040 9c 82 65 3d 63 74 31 be 35 a7 5b 3d 09 8c b2 3d
       0.056032762 -0.17329554 0.053626258 0.08718116
000050 a8 88 32 bd 46 6c 07 bd 53 10 c5 3e 75 25 18 3e
       -0.043587357 -0.033062242 0.38489017 0.14858039
000060 bb 5a 09 3f 8d 0b 0e 3e 40 9e 0e bd d6 2d 22 3f
       0.5365407 0.13871594 -0.034818888 0.6335119
000070 9f a2 66 be 2c 55 b1 bc 1a bc 30 3c 27 0a 65 3e
       -0.22522973 -0.021647058 0.010787034 0.22367154
000080 13 1d 1e be f2 39 ac 3d 81 57 a2 be 3b df 35 be
       -0.15440778 0.0840949 -0.31707385 -0.17760937
000090 c8 31 14 3e e7 2f 00 bd b5 98 83 be 8c 27 72 3e
       0.14472115 -0.031295683 -0.25702444 0.23647898
0000a0 14 f4 14 3c 37 b9 0b 3f 8d 50 49 bf 1b 70 0b 3e
       0.009091396 0.5457949 -0.78638536 0.13616984
0000b0 a3 9e 0a bd 29 b7 ef bd b2 87 f4 3e d3 6f 04 be
       -0.033842694 -0.11704857 0.47759777 -0.12933283
0000c0 20 f1 66 be 44 53 14 be c2 b2 5f be 48 83 0f be
       -0.2255292 -0.14484888 -0.21845534 -0.14014924
0000d0 06 b6 b0 bd 29 92 93 3e 6f c5 08 3f 4a 46 d3 bc
       -0.08628468 0.2882245 0.5342626 -0.025790352
0000e0 1a 95 07 3f e4 66 06 3d cd 38 15 3f 19 a9 fa 3e
       0.52961886 0.032812968 0.58289796 0.48957136
0000f0 cd 8d a1 be 16 85 b2 be 96 c5 40 bf 1c 5a fc bd
       -0.31553498 -0.34867162 -0.7530149 -0.123218745
000100 e2 db 08 3c db 37 a2 be d2 93 7c be 71 e5 25 be
       0.008353205 -0.3168324 -0.24665764 -0.16200806
000110 de 5b fb 3d 65 ff 08 3e be da f5 bd 70 85 d0 3e
       0.12273382 0.13378675 -0.120046124 0.40726805
000120 ba 1a 32 be c8 69 34 bd 70 53 3b 3e c7 d8 4a be
       -0.17393008 -0.044046193 0.18293548 -0.19809256
000130 d9 b8 26 3e b4 eb cd 3e 31 e7 68 be 55 e1 9c 3d
       0.16281451 0.4021889 -0.22744443 0.07660166
000140 27 56 24 3d 02 32 14 be cd 3d a8 be c2 37 c8 bd
       0.040121224 -0.14472201 -0.3285965 -0.0977626
000150 81 90 19 3e 02 c6 dc 3b 4d e0 8a be c7 d7 7e 3e
       0.1499653 0.0067374716 -0.27124253 0.24887
000160 11 0d 7d be 7c 51 6a 3e 21 fe ae be 07 ec a4 be
       -0.24712016 0.22882646 -0.3417826 -0.32211325
000170 d3 b1 d2 3e 9e 86 e4 bd 4d 7e 85 be 81 cf 91 be
       0.41151294 -0.11158489 -0.26072922 -0.28478625
000180 5a ca bd bd fe 45 95 be ee 26 e8 be df 4e 05 3e
       -0.09267111 -0.29154962 -0.453422 0.13018368
000190 c6 7c 3a bc 8f f8 b2 be ce 2c 65 be 39 f3 98 be
       -0.011382287 -0.3495526 -0.22380373 -0.29873064
0001a0 2b 31 8d 3c d5 b1 d3 bd 79 2b 8c 3d 83 6d 12 be
       0.01723536 -0.10336653 0.06844229 -0.14299588
0001b0 61 d6 14 be 59 ca c2 bd 42 cf 7e be 95 07 71 be
       -0.14534904 -0.09511251 -0.2488375 -0.23538049
0001c0 75 56 9d be 83 2f f2 3d 58 23 09 be 7f 9c b0 be
       -0.30730024 0.118254684 -0.13392389 -0.34494397
0001d0 3a 1e 07 3f b1 3f 91 3c fc d0 83 be d5 c8 05 3e
       0.527805 0.017730566 -0.2574538 0.13064893
0001e0 48 be 91 be b1 23 f0 3d 7c 57 89 be 5e 0b 92 be
       -0.28465486 0.117255576 -0.26824558 -0.28524297
0001f0 5a 53 1e be dc 93 55 be a7 92 ae be 48 fd e7 be
       -0.15461484 -0.20857185 -0.34096262 -0.45310426
000200 26 04 83 3e 1b 45 b9 3e 46 4d 5c 3d 96 64 17 be
       0.25589103 0.36185536 0.05378463 -0.14784464
000210 11 10 45 3e 95 08 ab bd ca eb a1 bd 69 1a e3 bc
       0.1924441 -0.08351246 -0.07906301 -0.027722554
000220 f2 45 50 3e 3f 66 51 3d fa 4f f9 bd 81 9a 31 3d
       0.20339182 0.0511229 -0.121734574 0.043360237
000230 10 83 4d be 2b 68 04 3e 39 ec 75 3e bd 8b 80 3d
       -0.20069528 0.12930362 0.24015893 0.06276653
000240 04 25 d7 bd 32 38 70 3e e2 1c cf bd 28 cf 38 3d
       -0.10505107 0.23458937 -0.10112931 0.045119435
000250 11 d9 72 bd 8e b0 ab bd fb 7a cd 3e 66 d8 12 bf
       -0.059289042 -0.083832845 0.4013289 -0.5736145
000260 85 1d 82 3d b1 7b 81 bd 63 28 05 3f 45 9e bc be
       0.06353287 -0.063224204 0.5201475 -0.368395
000270 3e 94 76 bd b4 03 c5 3b 32 3c 55 3d dd aa 7d 3e
       -0.06019997 0.0060124043 0.05205936 0.2477221
000280 0c 5d eb 3d a8 66 be bd b7 9e 5f be 97 5d 9f 3d
       0.11492357 -0.09296924 -0.21837889 0.07781523
000290 89 39 96 bd 2c 97 a3 bd 50 f3 ff 3d 8d 44 7e 3e
       -0.07335193 -0.07987818 0.1249758 0.24830838
0002a0 af 85 93 3e cc c5 ba be 06 b3 37 3f a8 76 4d 3d
       0.2881293 -0.36479032 0.71757543 0.050161988
0002b0 da e1 3f b9 5e e7 d8 3c 12 3e 6f be cb 8c e2 3e
       -0.00018299316 0.026477512 -0.23363522 0.44248042
0002c0 db 81 12 be f3 48 ef be c6 7f 71 3e 6b 40 65 be
       -0.14307348 -0.46735343 0.23583898 -0.22387855
0002d0 21 bb 8a be b7 f8 a6 3d 55 bb c8 be 30 82 cf bc
       -0.27095893 0.08152907 -0.39205423 -0.025330633
0002e0 aa b3 c1 be eb 1f 21 bf 67 68 3e be 3c c8 0a bf
       -0.37832385 -0.6293933 -0.18594514 -0.54211783
0002f0 23 69 08 3f a7 07 df 3b 2d 5a 95 3e ab 25 2a 3f
       0.53285426 0.006806332 0.2917036 0.66463727
000300 ba 5d 93 3c 20 8d 0c be 1c 5f 83 bd 5c 40 3b 3e
       0.017989028 -0.1372571 -0.06414625 0.1828627
000310 3e 5a 0c be 74 89 2a be b0 9d 3a bd 82 e5 b7 bd
       -0.137063 -0.16653997 -0.04556054 -0.08979322
000320 22 f0 9b be 74 ab e5 bd 06 85 8c 3e d0 87 df bd
       -0.30456644 -0.11214343 0.2744524 -0.10914576
000330 82 ab 80 3d 07 04 db 3d 48 6b ca 3d 80 93 a0 3d
       0.062827125 0.106941275 0.098837435 0.078406334
000340 04 2e f5 be 9d b8 da 3e 59 f3 1e 3e 95 96 86 be
       -0.4788667 0.42718974 0.15522517 -0.2628676
000350 5b 70 d5 bb 14 1b ab 3d c8 c4 58 3e 5a 57 c1 be
       -0.006513638 0.08354774 0.21168816 -0.37761956
000360 41 e9 76 bd 9e 67 a5 3e 98 ad 90 3e 5d 19 a6 3e
       -0.060281042 0.32305616 0.28257442 0.32441226
000370 5b 96 fb be 34 a6 ca 3e cf 94 0a be af 52 17 3f
       -0.4913815 0.39579928 -0.13533328 0.5911054
000380 41 4c 8a 3e 26 97 c7 bd 14 cd 53 bd 19 22 8e be
       0.27011302 -0.09745626 -0.05170925 -0.2776039
000390 16 fa 23 3d 13 6c bc be 59 82 4d be 75 c6 60 3e
       0.040033422 -0.36801204 -0.20069255 0.21950705
0003a0 a3 0e 8a be 04 48 90 3e 4e 7e f1 be 8d 87 43 be
       -0.26964292 0.28179944 -0.47166675 -0.19094677
0003b0 95 77 ce bd 43 55 2d be 2c 93 8d bd 25 a8 1a 3f
       -0.10081402 -0.16927056 -0.069128364 0.6041282
0003c0 e9 d9 08 bd a3 a6 33 bf 81 a5 3d be 8e 2e af 3c
       -0.03341094 -0.7017614 -0.18520166 0.021384504
0003d0 b6 f8 dc be 85 6e aa 3e 6f a0 b9 3e 05 63 a0 3e
       -0.431585 0.33287445 0.36255214 0.31325546
0003e0 bb 89 1a 3f 3d 95 ca be 06 0e 34 be a8 1d 6a 3e
       0.6036641 -0.39566985 -0.17583475 0.22862875
0003f0 6c 2e 31 be 9f f0 67 3c 09 7b 10 be ab 75 27 3f
       -0.17302865 0.01415649 -0.14109434 0.6541392

classifier.0.bias f4 [32]
000000 30 74 bc 3d ec 4d 7b 3e c7 63 da 3d df fc c8 3d
       0.092018485 0.24541444 0.10663562 0.09813856
000010 21 81 8f 3d 14 3f 64 bb 4b cf c2 3d 27 d7 af 3d
       0.07007051 -0.0034827637 0.09512194 0.08585959
000020 fb dc 8a bd af 5c 37 3e 58 1d 5e 3b 56 ec ae 3d
       -0.0678043 0.1790645 0.0033892002 0.08541171
000030 72 16 be 3d 2e 8b c8 3d ae 46 a7 3c 92 73 86 3d
       0.09281625 0.097921714 0.020419445 0.06565012
000040 0e a6 b3 3d 0d 03 5f 3e 8a b8 4a 3d e2 1a 25 3e
       0.08771907 0.21778508 0.049492396 0.16123536
000050 7c 3f cf bd 0b 82 0b 3d d7 90 9e 3e 85 b3 62 3e
       -0.101195306 0.034059566 0.3096988 0.22138794
000060 c7 c8 02 3e e1 c5 f9 3e 36 47 57 bb 19 23 c3 bd
       0.12771903 0.48783782 -0.0032848842 -0.09528179
000070 6b 51 97 3e 1e 56 c9 3d 75 66 07 3e 6d d1 80 3e
       0.29554304 0.09830879 0.13222678 0.2515978

classifier.2.weight f4 [6, 32]
000000 0e b2 b5 3d a9 94 aa 3e 05 e5 85 bd db 5e 2b bf
       0.08871852 0.33316544 -0.06537823 -0.6694161
000010 2a cb 64 bc cc 0e 97 3d 6a 5b 5c 3e 74 1c 33 3e
       -0.013964454 0.07375869 0.21519247 0.17491323
000020 65 3a 2e be ca 6f 56 be 28 ac c4 3e 1e 03 0f be
       -0.17014463 -0.20941082 0.38412595 -0.13966033
000030 6c ce 91 be 2c 39 ed 3e 82 fc a6 be fe 09 2a 3e
       -0.284778 0.4633268 -0.32614523 0.16605374
000040 d0 86 c8 3e 1a 59 a0 3e 2d 95 f6 be 41 6c de 3e
       0.39165354 0.3131798 -0.48160687 0.43441966
000050 e6 80 b7 be eb 3a d0 be 17 81 e2 bd a2 dc 20 be
       -0.3584053 -0.4066995 -0.11059778 -0.15709165
000060 77 c0 23 3e a3 f8 b4 3e a6 89 2a bf 2d f4 be bd
       0.15991388 0.35345945 -0.66616285 -0.093239166
000070 58 c8 82 3e 24 d9 8c 3d f1 99 1c 3e 91 61 6e 3e
       0.25543475 0.06877354 0.15293099 0.23279406
000080 26 d4 1b 3e f2 03 bc be f2 47 5e 3d 02 55 07 bd
       0.15217647 -0.3672176 0.05426783 -0.033040054
000090 90 03 b4 3d 94 e5 9c 3e 6e 7a fc be 94 ff 26 c0
       0.08789742 0.30643904 -0.49312156 -2.6093493
0000a0 e5 72 f5 be c3 13 9a bf 0f 92 5e bf 79 36 83 bd
       -0.4793922 -1.2037281 -0.8694162 -0.06406874
0000b0 f3 3b 9d 3e be 96 56 bf 7f 2f 51 3e cc 38 ba 3e
       0.307098 -0.83823764 0.20428275 0.36371458
0000c0 16 3b 30 bf e1 81 0e bf 22 a9 02 bf 16 b6 ca bf
       -0.6884016 -0.5566693 -0.51039326 -1.5836818
0000d0 7a 33 a7 3e c4 6b b0 3d 35 e4 cd bd e7 7b 6a bb
       0.3265646 0.08614305 -0.10053293 -0.0035779418
0000e0 6e b0 9a 3e eb 36 b0 be 51 35 b7 3e dd 7d 37 bf
       0.3021273 -0.344169 0.35782865 -0.7167643
0000f0 95 58 e1 be c4 be 43 bf c8 ff b1 bf 31 cb c3 bf
       -0.44012895 -0.7646296 -1.3906183 -1.5296384
000100 e5 4a 89 bf 1c e4 80 3d 9d a2 cd 3e 48 58 be bd
       -1.0725981 0.062935084 0.40163127 -0.09294182
000110 6f 8c e2 bf 6c d5 5b bf 65 3e 33 3e 81 58 e6 bf
       -1.7699107 -0.8587253 0.1750427 -1.7995759
000120 ef 02 41 3e 51 89 c3 bf d6 5e 88 bf a2 1f 07 3f
       0.18848775 -1.5276281 -1.0653942 0.5278264
000130 a8 4d d8 be 2f 08 84 bf e3 6c 10 3f 8c c1 48 bf
       -0.42246747 -1.0314997 0.5641615 -0.7842033
000140 bd 2b 59 be cd 1c 86 3d df 8f d2 3d 97 6c 9e bf
       -0.21208091 0.06548462 0.102813475 -1.2376889
000150 fc 65 e4 3e ae 75 e9 3e d4 f7 ae 3e da 8b 24 3d
       0.44609058 0.45597595 0.34173453 0.040172435
000160 6a 3c 5f 3e 1a b5 6b 3d 1d 3f ee bd fc 80 62 3e
       0.2180039 0.05754576 -0.11633132 0.22119516
000170 69 d5 b5 be 15 22 1c 3f 87 76 ab be f6 36 8f bf
       -0.35514382 0.60989505 -0.33488867 -1.1188648
000180 21 87 16 3f e4 ce b6 be 21 36 3a bf 38 64 2d 3f
       0.5879994 -0.3570472 -0.72738844 0.67731047
000190 bf c7 e9 bf 60 d8 43 be 21 80 95 be c7 df 5c bc
       -1.8264083 -0.1912551 -0.29199317 -0.013481087
0001a0 16 5e 68 bf 6f 47 10 c0 3a 1c b8 bf 99 85 2e 3c
       -0.90768564 -2.25436 -1.4383614 0.010651969
0001b0 9f 76 36 bf 1b 08 7d bf f7 05 26 bf 53 8b 97 be
       -0.7127475 -0.9884049 -0.6485285 -0.29598483
0001c0 7a cd 9b bf a6 27 d1 be 4e a7 f0 3e ca 4b 78 bc
       -1.2172081 -0.40850562 0.47002643 -0.015154788
0001d0 3b 1e 0c bf 63 66 8b 3e 59 dd 46 bf ff 9a d6 3e
       -0.5473363 0.27226552 -0.776815 0.41915128
0001e0 bc 58 a5 3d 5b 71 79 bf 92 cf 29 3f c1 c6 7c bf
       0.08073565 -0.9743859 0.6633235 -0.98740774
0001f0 37 cf a8 bf e8 bf 05 bf 6a 92 85 3e 0b 9e 76 bf
       -1.3188237 -0.5224595 0.26088268 -0.96334904
000200 42 b9 90 bf e2 c5 88 bb 0a 52 e9 be e7 03 ea 3e
       -1.1306536 -0.00417398 -0.45570403 0.45706102
000210 e4 13 25 bf 6e 40 88 bf 5f f6 52 3e 3b 25 85 3e
       -0.64483476 -1.0644662 0.20601796 0.26004967
000220 f3 eb f6 3e 30 02 cc 3e ae 7b da be 5f fb 2e bf
       0.4822689 0.3984542 -0.42672485 -0.6835231
000230 3a eb a0 3f c6 fc 2f bf ba 02 ba 3d 27 61 0d bf
       1.2571785 -0.68745077 0.09082551 -0.5522637
000240 1b d0 a7 be f5 07 38 bf a4 0a ac 3e 0f f2 90 bf
       -0.3277596 -0.7188714 0.33601868 -1.132387
000250 8e 85 68 be c2 d1 53 3e c5 07 66 bf 87 6f 50 bf
       -0.22707197 0.20685485 -0.89855605 -0.8142018
000260 8e 5b bc bf d1 3d 81 bf fc 71 23 3f d1 27 d9 3e
       -1.471544 -1.009699 0.638458 0.4241319
000270 31 37 77 3e d6 c1 ab be 62 ec 5e bf 93 bd 8f bf
       0.24142148 -0.33546323 -0.8707944 -1.1229728
000280 e8 85 65 bf 10 44 50 be 1e 74 59 3e 7f 5e 99 bf
       -0.8965745 -0.20338464 0.21235701 -1.1981963
000290 26 3b 31 3f f2 e3 82 bf ba 19 98 bd 6b 06 83 be
       0.6923088 -1.0225813 -0.07426782 -0.25590834
0002a0 44 e7 b3 3d a3 08 91 3e ae ee 65 3d 8a f3 05 bf
       0.08784345 0.28326902 0.056135826 -0.52324736
0002b0 cf 56 12 3f d7 95 43 3e 53 14 3d 3e eb 78 4a be
       0.5716371 0.19100128 0.18464784 -0.19772689
0002c0 a0 a5 93 be 38 e3 bc bd 89 50 60 bf a3 97 c1 bd
       -0.288373 -0.09223026 -0.87622887 -0.094527505
0002d0 84 94 c0 3e ec a6 5d bf bd 1f ba 3e 48 47 7b bf
       0.37613308 -0.8658283 0.3635234 -0.9815564
0002e0 11 82 65 bf e5 dc b7 3e 3b a8 6e bf 2f cf d2 be
       -0.8965159 0.35910717 -0.9322545 -0.41173694
0002f0 d4 4f e1 3b 42 1c 47 bf d7 56 88 3d 78 75 88 3e
       0.0068759713 -0.77777493 0.066571884 0.26652122

classifier.2.bias f4 [6]
000000 bc db 01 bd 1b a2 93 be 5d 3a 16 be 72 35 23 be
       -0.031703696 -0.28834614 -0.14670701 -0.15938357
000010 df f0 d7 be e9 98 4b 3e
       -0.42175958 0.1988255
