experiments/darpa2000/s1_inside/baselines/multi_class_lstm/models/multi_class_lstm_original_no_class_weights_w50.pth (torch, 195631 bytes, 8 tensors)

lstm.weight_ih_l0 f4 [256, 112]
00000000: 4b2f 0d3e a01f 9cbd e444 92be 0815 413d
00000010: 79d7 86be e62e a0bd a0f1 9cbe f8d8 a5be
00000020: ee72 babd a8ea b93d 5656 873e e6a1 613e
00000030: 21dc a5bd 9369 193e f385 e6be 995d 29be
00000040: fbe1 82bc 5181 61be d6d9 c9bd 1266 ca3d
00000050: 784d 353e fa14 71be c0a3 323e e90a f63d
00000060: 3211 8d3d f4e7 a63c f46e 91be 13ef e13e
00000070: b391 0a3f a0fd 3f3d 28ae 563d 339b 933d
00000080: 746b 69bd 57fb 4b3e 4162 bd3d 2ca1 043e
00000090: 462f 07bd 9a63 033d d9fa ccbd 8484 793c
000000a0: 0413 d63e 6db8 edbd ef1b a5bd f9fa 16be
000000b0: 70e9 863e 4c01 613e 6ad1 9fbe d502 a13c
000000c0: 0b2c c43d a959 aa3d 97bd 353d d965 623c
000000d0: 3fe7 d03c a568 3a3e 02ba 9c3c 0cf6 13be
000000e0: d649 41be da81 083e 08e2 7f3d 03c7 c2bd
000000f0: 4423 173e 1b47 e93d 7219 5ebe efa6 eebd
00000100: ee68 4abd 59dc cbbe 37b4 c9bd 2414 2dbe
00000110: 0191 20bc 7f2a d23e bbf6 74be c322 b53c
00000120: f16a 90be cb29 43bd 3913 c03c 46ed 373b
00000130: 404c 143d 2bbf 09be 7d30 b6bc c4e7 b83e
00000140: 495a 11be 4093 953b cc02 5abd bbbc a6bd
00000150: 2341 bfbe af7f a7bd fd5f 57be a7c6 f13d
00000160: 9566 c3bd a15e 123d f7d7 d2bd 7e44 e4bd
00000170: 2ea0 cdbd 265c 2a3d 494d 1ebe d37c ec3d
00000180: 73b0 233e 5050 983d a8dc 543d b390 d5bc
00000190: dba2 b63d edf6 6bbd 88d2 22bb 5657 98be
000001a0: 78e2 83be 6233 8d3a a074 203e 7f5c df3d
000001b0: a114 1b3e a229 4ebc 31b2 fb3d 1b60 7c3e
000001c0: 5269 433d 709c bcbd 5226 0dbc 30c4 6f3c
000001d0: c571 31be 44bb f3bd 1a0a 3fbd fc2d 893d
000001e0: e352 19be 74ae 7c3d 95fe 053e 970f 0a3b
000001f0: c755 c73d a11d 93bd 7d10 693e d9c6 023e
00000200: 5080 763d bf5b dc3c 5545 093d ed6e 22b9
00000210: 48de 973d 538c a8bd 34fe 38bd a683 c5bd
00000220: 7e92 fc3d a8dc 3f3d 19e8 973d 68c6 f93a
00000230: 2f6c d53d f020 8c3d 8348 0c3d 4ea4 033e
00000240: 0d43 52bc 92e7 29bd 19a3 fdba 11e2 e93b
00000250: 9bf1 e8bd 2c1a 253d e9c8 44be fd25 e0bc
00000260: be23 e73d 5cfe 863d 2103 4a3d 9712 2f3e
00000270: dddc 13be b27f f53b b0da c2bd 1eda 923d
00000280: 1874 2f3b 7098 f73d 0512 b6bd 6371 cf3d
00000290: adc5 c43d 9d33 4d3e 6a4b 5cbb 1a29 d33d
000002a0: 51d0 533d f3a9 a83d 4ed6 093e d8e0 bcbd
000002b0: a1a3 f8bc ebb8 9a3c 56b2 8ebd 2a05 81bd
000002c0: edc0 0dbe d1c7 8a3d 7f01 b83d 1da4 bb3c
000002d0: f3be 03bd 13b1 373d 88f2 323e f47a e5bd
000002e0: 6d91 2cbd 44ff 38bd de59 9ebd 357e 4a3d
000002f0: 982b a13d 63e4 03be a7e8 03be fc0a d6bd
00000300: 50cd ad3c 5cdb c93d b68d 89bd 44f5 44be
00000310: 90ff 453b db8e 97bd 2390 d23d 58b3 c23c
00000320: 5477 2b3d c42c 2d3b c9ca 233d 9116 61bd
00000330: 760d 80bd 4734 0ebb 62e6 8d3b 1c9b 683e
00000340: 638e 8dbc 1d5c a63d edab 0cbd d697 40bc
00000350: 014a 523d a895 9fbd c297 023d 6933 1bbd
00000360: b39f f93d a585 6dbd 4198 973c 0bae 813a
00000370: 4c39 65bd 0b8c 4ebe 675a 843d 9395 f9bc
00000380: af71 edbb eb8f 0f3d 2815 02be 82db d2bd
00000390: a2ac f73d 5c2a 353d f5aa 363d b43c 97bd
000003a0: b6e3 5c3e d347 db3d 6c50 3b3c ad37 55bd
000003b0: 2430 9f3d 45ae 633d 81d3 92be 78f1 983e
000003c0: fe28 633d cd70 ec3d 39b5 44be 3304 8a3d
000003d0: 0535 be3d 9556 bc3e 8e3b 62bd ff3d 4dbd
000003e0: ae76 543d f4d8 083e 394f 613c 2b41 793d
000003f0: 1cf3 a0bd 843c 85be c998 bbba 9b33 a03d
0.13787572 -0.076232195 -0.28568184 0.047139198 -0.26336268 -0.07821445 -0.30653095 -0.32392097
-0.09103952 0.0907796 0.26433057 0.22034416 -0.08098627 0.1498168 -0.4502407 -0.16539611
-0.015976897 -0.22021987 -0.09856002 0.098827496 0.17705333 -0.23543158 0.17445278 0.120138
0.06888045 0.020374276 -0.28404963 0.44127712 0.5412857 0.046872735 0.052412182 0.07207336
-0.05698724 0.19920097 0.09247256 0.12952107 -0.033004068 0.03207741 -0.10008783 0.015229348
0.41811383 -0.11607442 -0.080619685 -0.14744176 0.26349974 0.21973151 -0.31214458 0.01965467
0.09578713 0.083178826 0.04437026 0.013818228 0.025500892 0.18203981 0.019131664 -0.14449328
-0.18875822 0.13330784 0.06247142 -0.09510615 0.14759547 0.113905154 -0.21689394 -0.11652934
-0.049416475 -0.3981655 -0.098488264 -0.16902214 -0.009800197 0.41048047 -0.23922245 0.022111302
-0.2820659 -0.04764728 0.023446666 0.002806501 0.03620553 -0.13451831 -0.022239918 0.36114323
-0.14194597 0.0045646727 -0.053225324 -0.08141466 -0.37354383 -0.081786506 -0.2103271 0.11805468
-0.0954105 0.035734776 -0.10295098 -0.11145876 -0.100403175 0.041591786 -0.1545917 0.11547246
0.15985279 0.074371934 0.051968247 -0.026069975 0.08917781 -0.057608534 -0.0024844725 -0.29754132
-0.2575872 0.001077276 0.15669489 0.10906314 0.15144588 -0.012583168 0.12289847 0.24646036
0.047707863 -0.092095256 -0.008615093 0.014634177 -0.17328556 -0.119009525 -0.046640493 0.06698224
-0.14973025 0.06168981 0.13085397 0.0021066421 0.097331576 -0.07183386 0.22760196 0.12771167
0.060180962 0.026899217 0.033513386 -0.00015490847 0.07415444 -0.0822989 -0.045164302 -0.096442506
0.12332629 0.046841294 0.07417316 0.0019056322 0.10421025 0.0684222 0.03424884 0.12855646
-0.012833369 -0.04148061 -0.0019350975 0.007137545 -0.113742076 0.040308163 -0.19217266 -0.027361864
0.11286114 0.06591484 0.04931939 0.17096935 -0.14439721 0.007492029 -0.095143676 0.07170509
0.0026772078 0.12089622 -0.08890156 0.10129049 0.09608016 0.2003922 -0.0033614286 0.10310574
0.051712338 0.0823554 0.13460657 -0.09222573 -0.030351462 0.018887004 -0.06967609 -0.06299813
-0.13843127 0.06776393 0.0898466 0.022905404 -0.032164525 0.044846606 0.17475331 -0.11205092
-0.042130876 -0.045165315 -0.077319846 0.049436767 0.07869643 -0.12880091 -0.12881719 -0.10451314
0.021216065 0.098562926 -0.06716482 -0.19234186 0.0030212142 -0.074002944 0.10281398 0.023767158
0.041861847 0.0026424387 0.039988313 -0.05495316 -0.062525675 -0.002169864 0.0043304423 0.2271542
-0.01727981 0.08123038 -0.03434365 -0.0117549505 0.051340107 -0.077922165 0.03188301 -0.037890825
0.12188663 -0.05798878 0.018505218 0.0009893788 -0.055962846 -0.2017061 0.064625554 -0.03046683
-0.007246218 0.03504936 -0.12703383 -0.10295774 0.12093474 0.04422985 0.04459663 -0.07384625
0.2157124 0.10707059 0.011432748 -0.05205505 0.07772854 0.05558612 -0.2867699 0.29871726
0.055459015 0.115449525 -0.19209756 0.06739082 0.092874564 0.36784807 -0.055232577 -0.050107952
0.051870994 0.13364011 0.013751798 0.060853165 -0.078588694 -0.26022732 -0.0014312501 0.07822343

lstm.weight_hh_l0 f4 [256, 64]
00000000: 3d2a 383e 055f 023a a50e 3c3d 2667 123e
00000010: 52cf 713e 52e6 5c3e 15d3 14be 6509 39be
00000020: a082 48be f0c1 da3d 8501 323e 1aea 11be
00000030: e9f6 2c3e e73b c53d c2d2 17be f6ce 013e
00000040: 9ce2 f93d cb61 123e 686f 68bd bcaa aebe
00000050: ec3b 0f3e 728b 203c 2ded 473e f9fb 8c3e
00000060: b93f 60bd d6c0 463d e730 0a3e 18a0 6dbd
00000070: ff9a a93e 44d2 2d3d 2bf0 1c3e 0af6 223d
00000080: df4f bebd d6f2 763e 3e56 3cbe fe08 4b3e
00000090: 228c 1fbe e558 4a3d 9d13 5b3e 82b3 1dbe
000000a0: d754 473d db18 89be ffab f73d 56f7 703d
000000b0: 80f9 d6bd e200 9cbd 12b7 0dbe eb04 bb3d
000000c0: 852d 78be 6958 273e f595 863d 6494 813e
000000d0: ca48 5e3e 7c63 60be 49eb 2e3d 8f68 153e
000000e0: f54e b0bd e983 453e 1c8b 11bd fe8f febc
000000f0: d145 01be f80e 9ebd 90ac 873d 9556 0fbe
00000100: 2c53 ecbd a25a 9a3d 9770 2bbd 9e5e 163e
00000110: 3f2e e13d c08e e9bc 021b 25be e1aa f9bd
00000120: 45ed 1cbe 8249 2b3d 51ab 1f3e f0de 573d
00000130: 9500 ab3d 768d 8d3c af6a a93c 89ba 083c
00000140: 238d 31be a81b e6bc 5141 c5bd 1031 73be
00000150: d13e a6bd 841d 9abc 6eeb 0a3e ebf3 333b
00000160: 965e 22be 40d9 5fbd 4e42 b93d 7cde 5f3d
00000170: 56d0 4b3e 2b7d bd3c ece1 383e cee2 25bd
00000180: 01bc d4bd e6b0 ae3d 3325 e9bd cff4 18bc
00000190: 3ea9 69be bd91 b63d 5543 c63c 0386 39be
000001a0: c7b6 a23d 2863 e6bd 8594 0e3e 9336 843d
000001b0: d025 c6bd 7301 5dbc 2f01 2c3d 0262 2bbd
000001c0: f9fb abbc c7d4 f8bd 9429 113e 07ad e13d
000001d0: 017e 243e 3e67 44be e35b a1bd f2e7 e13d
000001e0: 0817 8cbd bb75 0e3c 1d87 a1bd 10bd b8bd
000001f0: d8f8 68be 9abf 593d 354d f0bd 095a 2fbe
00000200: 240a b13d 013f 8b3c 66d6 ef3c e30e 06bd
00000210: 5961 003d 913f 013e 7f86 f8bd 700f 08be
00000220: 95bd afbd 5f6f 5bbd cc8b b5bd 62fd 01bd
00000230: e137 39bc 77d7 e63d 4b62 b4bd c683 35bd
00000240: 70be 663d 9e4c 92bd 9bbc 093d d53c 943d
00000250: 1454 99bd eeaa a63d 0416 793d 3882 bbbd
00000260: f758 bdbd 7149 143c 2ada 1bbe 2eed a9bd
00000270: 16d4 413d 8c57 6b3d c3ac ec3c 6896 dbbd
00000280: 1804 f0bd 40b8 fb3d eaa7 16bd 6d4f 693d
00000290: b381 3e3d 0f03 c4bd ba8d 8c3c b4fb 69be
000002a0: f045 c1bc ba43 69bd 2ac0 c4bd 6f57 bc3d
000002b0: 0af2 32bd 9b0b ae3d baf2 813d 95b6 6a3d
000002c0: 1a87 e6bd 55d3 a63d 0992 ae3d 24ab 973c
000002d0: 0cf1 153e c5b5 10bd f72a 1bbe ebf2 03be
000002e0: 1f45 e9bd c6a9 963d 3679 23be 4e1a 003d
000002f0: f26d 4e3d b55a 1dbd 9a84 203d e2f4 5bbd
00000300: 0991 b93d 5588 e53d 4cd2 5ebd 6ee1 0fbd
00000310: 2ff0 21bc b693 80bd 54e5 dabd 3ea8 6bba
00000320: 3e3e d2bd 834f 183d ae37 8abb d41b efbd
00000330: 6f4e bf3c 31ee aabd 7baf 903d dd28 09bd
00000340: db2b 2cbd af19 083e bc70 6ebd bc78 953d
00000350: 46a4 08bd c3f4 123d 17b0 76bb fd8d ec3c
00000360: 359f 3bbd 5ee4 053c 05f8 de3d 9c73 19be
00000370: 850b 753d 855a 20be c8c1 8e3b 0167 9d3d
00000380: 3a36 843d 32fc e5bb 5931 05be f2a5 783d
00000390: eeb6 a03d 1edb c8bd a5a9 4ebd 2d0b 433e
000003a0: f2bc fc3c c1cc d6bd e315 c13d d4b3 8dbb
000003b0: debb 66bd 863a 1dbd fb92 b7bb 1268 7e3d
000003c0: 5cdd da3d 3b85 26bd 99d4 bc3d 00ba 71bd
000003d0: c310 863d c1c9 da3c b678 bfbd 50f9 81bd
000003e0: 436d 383d 53ef a93c 1136 37be 17f3 46bc
000003f0: 6d50 b53d 2b17 f9bd f552 413e 2b2c 3d3c
0.17984863 0.00049732655 0.045912404 0.1429716 0.23614243 0.21572235 -0.14533646 -0.1806999
-0.1958108 0.10681522 0.17383392 -0.14249459 0.16891064 0.09630566 -0.14826491 0.12676606
0.122014254 0.14295118 -0.05674687 -0.34114635 0.13987702 0.009798871 0.19524069 0.2753599
-0.05474827 0.048523746 0.13495217 -0.058014005 0.33126065 0.042436853 0.15325992 0.039785422
-0.09292578 0.24116072 -0.18392274 0.19827649 -0.155808 0.049401183 0.213942 -0.15400508
0.048664894 -0.26776776 0.120933525 0.058829628 -0.10496807 -0.07617356 -0.13839367 0.091317974
-0.24236114 0.1634232 0.06571571 0.25308526 0.21707454 -0.2191295 0.042704854 0.14590667
-0.0860881 0.19288601 -0.035533056 -0.03107452 -0.12624289 -0.07717699 0.066247106 -0.13997872
-0.11539301 0.07536818 -0.04185542 0.14684531 0.10995149 -0.028510451 -0.16123584 -0.12190796
-0.15324886 0.04181815 0.15592696 0.052702844 0.083497204 0.017279368 0.020680754 0.008345255
-0.17338996 -0.02808936 -0.09631599 -0.23749185 -0.0811745 -0.018812902 0.13566372 0.002745862
-0.15856394 -0.054650545 0.0904585 0.054655537 0.19903693 0.023130974 0.18054932 -0.0404995
-0.103874214 0.085298344 -0.11384048 -0.009335711 -0.22818467 0.08914516 0.024202028 -0.18117528
0.07945018 -0.11249381 0.13923843 0.06455722 -0.09675181 -0.013489115 0.041993316 -0.041841514
-0.020994173 -0.12149959 0.14176017 0.110193305 0.16063692 -0.19180009 -0.07878854 0.11030568
-0.0684033 0.008695061 -0.07887099 -0.09020436 -0.22751176 0.05316124 -0.11733476 -0.1712419
0.08644512 0.016997816 0.029277038 -0.03272904 0.031342838 0.12621905 -0.12135028 -0.13287139
-0.08581082 -0.05357301 -0.08864555 -0.031735785 -0.0113048265 0.112715654 -0.088078104 -0.044315122
0.05633396 -0.0714352 0.033627134 0.07238165 -0.0748674 0.08138071 0.06081201 -0.09155697
-0.09245484 0.009050713 -0.15219942 -0.082971916 0.0473214 0.057456538 0.028890973 -0.10722047
-0.11719531 0.12291002 -0.03678123 0.056960512 0.04651041 -0.09570896 0.017157424 -0.22849923
-0.02359292 -0.056949355 -0.09606965 0.09196364 -0.043687858 0.08498307 0.063451245 0.05730303
-0.11256237 0.08145777 0.08523948 0.018514223 0.14642733 -0.0353296 -0.15153109 -0.12885635
-0.11390137 0.073566005 -0.15964207 0.031275086 0.05039782 -0.038416583 0.03918896 -0.053700335
0.090608664 0.11207644 -0.054399773 -0.035127096 -0.009883924 -0.062781736 -0.10688272 -0.00089896086
-0.10265778 0.037185203 -0.0042180633 -0.1167523 0.02335283 -0.08346213 0.0706472 -0.033486236
-0.04203401 0.13291048 -0.05821298 0.07298419 -0.03335979 0.035877954 -0.0037641579 0.028876299
-0.04580613 0.008172123 0.1088715 -0.14985508 0.05982544 -0.1565953 0.0043565966 0.07685662
0.064556554 -0.0070185894 -0.13007106 0.060705133 0.07847391 -0.09807418 -0.050454754 0.19047232
0.030851815 -0.104882725 0.09428003 -0.0043244157 -0.056331508 -0.03838589 -0.0056022382 0.062110968
0.10686752 -0.040654402 0.09220237 -0.059015274 0.06546166 0.026707532 -0.09349196 -0.06346381
0.045026075 0.020744001 -0.17891718 -0.012142918 0.088532306 -0.12162622 0.18879302 0.011546175

lstm.bias_ih_l0 f4 [256]
00000000: 0d44 223d a0a6 b13c a0ec f03c 62d9 00be
00000010: 6446 293c 38d9 b9bd 1f5e f0bd 288f 083e
00000020: bf8d e83d 6c18 233e 7c52 59bc 0b5c 083e
00000030: ba0e 283e 60be fbbd 54c1 c0bc a435 6f3d
00000040: 7b57 133e 4018 fabc e2f5 083e 9793 513e
00000050: bb85 693d 60f6 aa3b 9bb6 423e 6d5c ab3d
00000060: 882e fd3d 809c b03d 332f 853c 5ee4 8e3d
00000070: f048 4dbc 7a71 31bd fba1 293e 7284 d83d
00000080: 0dcc ec3d b31f 0a3e 8502 91bc ec6c 1b3d
00000090: acd2 05bd 0686 0c3d 7bf0 903d 3869 d63d
000000a0: 5243 2b3e eab8 403e 4e95 d93c a767 713d
000000b0: 7be9 353e 08bd 023c 93c5 0a3e 6f78 403e
000000c0: 410b f73d f9bd c7bd cb0f 5fbc 2cdb cbbc
000000d0: 84da a03d d2e3 823e ab6c 343e 02f8 fcbc
000000e0: c3a5 30bd 8cf1 543e a90a 3b3e 5b0d 373e
000000f0: b150 083e cfeb 8d3d b194 333d 912c 5f3c
00000100: 712a ecbd d8a7 cdbc 51e9 0a3e e63e 19bd
00000110: ac45 d03a 9fa8 353d 6ae8 8c3d 63c9 37bd
00000120: 0662 963d 24de 913b be07 c8bc ef2a a53b
00000130: e113 0f3d 7514 11be 5ee5 383d ac3c 143e
00000140: 4a0c 97bd c829 ccbd 4924 d3bd 49ef 1f3d
00000150: b6b5 e1bc 27ac 16bc bb48 023e da91 4d3d
00000160: 26b8 983d 2551 933d 10d7 f73d 7dcc dfbc
00000170: f21f f9bd cd1e 173e c187 453c a24a dcbc
00000180: eb46 2bbb 573d 8e3d 8c2b 6b3d a154 ae3d
00000190: 204d 8e3d 9b56 62be 1e33 c93c c58b c7bd
000001a0: dd85 2d3d fc3c 0f3e e176 be3d e67f c13c
000001b0: 3935 25bd 39a0 42bd 8566 c1bd 16ae 67bd
000001c0: 5769 613e 27f3 4b3d 4525 b43d 0f6e a1bc
000001d0: fdd4 293e 3693 bb3c c577 f23d b5f9 2e3b
000001e0: 5fc1 983d e629 fbbd b186 b4bd c298 0a3e
000001f0: ca82 9f3b 87b3 293e f409 3abc c287 b1bd
00000200: ebd0 b3bd 2809 9f3d 8119 983b 5fef ebbd
00000210: 54f1 1a3d 7507 523d 203e 1b3d 4720 4f3d
00000220: c268 93bd 4a18 babd 9c4c 20be d871 5c3d
00000230: 6c48 0fbd eba5 2d3d 4371 e8bb 498b aabc
00000240: 81fb ca3d 5597 b03d 6d38 dcbd a05d eabd
00000250: 4c3b 5dbd 2086 f1bd 7b87 393d 425b 26bd
00000260: 502b 6bbd 0e11 373d 8e43 58bd 0bc4 4f3d
00000270: 9c3d 84b8 2ff5 6e3d 2dfb bfbd 929e 5f3d
00000280: 4b24 acbc 7af6 5dbd 7b93 0f3d d7d1 6c3d
00000290: 13e1 7cbd f459 7bbc b613 ea3d 0c9d 91bd
000002a0: 73ff 0a3e 54e2 ddbd 50d8 143e 203c f8bd
000002b0: aa36 09be 6842 303d 5122 25be bd86 813d
000002c0: b4b5 f9bd 2834 63bc 6f99 a43d 3a12 873c
000002d0: 9119 483e 053f 9ebd b263 a13c d8c9 9c3d
000002e0: 17f1 d4bd 634f 3b3d d2a2 cabd 5e47 b73d
000002f0: 475d 33be 2eed 41be 81d7 e13d 65a7 8dbd
00000300: 7128 853d f615 f9bd c016 363d 1ec0 94bd
00000310: c703 e4bd 129e 86bd 68a8 3d3d 0db9 863d
00000320: a300 8e3d a308 91ba bcb8 753d 2e82 47bc
00000330: 1cd0 863c 7243 a8bd 16ce 503d 8898 d0bd
00000340: 464b 713e 4af4 823d 1526 a73d 9e13 cc3d
00000350: 9cfd a23d b14f 5b3d 3405 273a 06c5 31be
00000360: f779 d8bd 556a e93d c2a9 8a3d f81c e33d
00000370: df77 33bd e2de 243e 224c 923e 7909 843e
00000380: e8bf a7bd de10 46bd 01eb 103c ef8f f73c
00000390: 40cb de3c 0d8e 1d3e 493c 4fbd 3b97 043e
000003a0: 7d40 38be 4b9b 43bd 4e38 0b3d 48d6 ac3e
000003b0: ec64 0c3e a92f a9bd b128 dc3d b5b0 3b3c
000003c0: 6aab 193d e13a 53bd df6d 31be 849c f2bd
000003d0: 5630 fabd a0e2 8b3e 5a40 2abe 3035 043e
000003e0: 17e7 05be 5ed1 efbd 65ef 42bc b0d5 ac3d
000003f0: 20f7 fb3d f6b6 f63c 8d3d f13d bda7 0b3d
0.03961568 0.021685898 0.029409707 -0.12582925 0.010331724 -0.09074634 -0.11736702 0.1333586
0.11355161 0.15927285 -0.013264295 0.13316362 0.16411868 -0.122921705 -0.023529686 0.058400765
0.1438884 -0.030529141 0.13375047 0.20466457 0.0570123 0.0052173585 0.19014971 0.08367238
0.12362391 0.086236 0.016257858 0.06977151 -0.012529597 -0.04332111 0.16565697 0.10572137
0.11562357 0.13488655 -0.017701397 0.037945673 -0.032671615 0.034307502 0.07077118 0.10469288
0.167249 0.18820539 0.026560452 0.05893674 0.17764847 0.007979639 0.13551931 0.18795942
0.120626934 -0.09753031 -0.013614605 -0.024884783 0.078541785 0.25564438 0.17619579 -0.030879978
-0.043126833 0.20795268 0.18265785 0.17876188 0.13312031 0.069297425 0.043842975 0.013621465
-0.115315326 -0.025104448 0.13565566 -0.0374135 0.0015889904 0.044350263 0.06880267 -0.04486979
0.07342915 0.00445153 -0.024417754 0.0050405185 0.034931067 -0.1416796 0.045140617 0.1447627
-0.07375391 -0.09968907 -0.10309655 0.03904656 -0.027552467 -0.009196318 0.12723057 0.050187923
0.074569985 0.071932115 0.12101567 -0.027319187 -0.12164296 0.14757843 0.012056292 -0.026891056
-0.00261348 0.069452934 0.057414576 0.085122354 0.06948304 -0.2210335 0.024560507 -0.09743456
0.04236399 0.13988107 0.09300018 0.023620557 -0.04033396 -0.04751608 -0.09443382 -0.056562506
0.2201284 0.049792435 0.08796171 -0.0197058 0.16585155 0.022897344 0.118392505 0.002669913
0.074587576 -0.12263851 -0.08814753 0.13534835 0.004867886 0.1657239 -0.011354912 -0.08668472
-0.08780082 0.07765418 0.004641712 -0.11520266 0.037827805 0.051276643 0.037901044 0.05056789
-0.07197715 -0.09086664 -0.15654224 0.053819507 -0.034981176 0.04239456 -0.00709358 -0.02081837
0.09911252 0.08622614 -0.1075295 -0.11443639 -0.054011628 -0.117931604 0.04529522 -0.040614374
-0.057414353 0.044694 -0.0527988 0.05072407 -6.305726e-05 0.058339294 -0.0937408 0.054594584
-0.0210134 -0.054190136 0.035052758 0.057817306 -0.061738085 -0.015341271 0.11429541 -0.071100324
0.13574009 -0.10834184 0.14535642 -0.12120843 -0.13399759 0.04303208 -0.16126372 0.063245274
-0.1219286 -0.0138674155 0.08037078 0.016488183 0.19541003 -0.07726864 0.019700859 0.07655686
-0.10397547 0.045730006 -0.09894337 0.08949159 -0.17516051 -0.18938133 0.11027432 -0.069166936
0.06501854 -0.12162392 0.04445529 -0.07263206 -0.11133533 -0.06573118 0.046303183 0.065782644
0.06933715 -0.0011065196 0.05999063 -0.012177033 0.016456656 -0.08215989 0.05097779 -0.10185343
0.23563871 0.06394251 0.081615604 0.09964679 0.079585284 0.053542797 0.000637132 -0.17360315
-0.10570138 0.11397234 0.0677066 0.1108951 -0.04381549 0.16100648 0.2857371 0.25788477
-0.081909 -0.04835593 0.008845092 0.03022 0.027196527 0.1538622 -0.0505946 0.12948315
-0.1799335 -0.04775552 0.033989243 0.33757234 0.13710374 -0.082610436 0.10749949 0.011455704
0.03751699 -0.051569823 -0.17327069 -0.11846259 -0.122162506 0.2732134 -0.1662611 0.12910914
-0.13076435 -0.117098555 -0.011897896 0.08439195 0.12302995 0.03011654 0.11779318 0.034095515

lstm.bias_hh_l0 f4 [256]
00000000: 1270 c63d fa0e 963d 8700 84bd 9525 8f3c
00000010: 5582 01bc a790 7ebd 8275 b0bc f80b 1e3e
00000020: 0c9d 0f3d 24e8 a33c d799 1f3e c428 fdbc
00000030: cd20 c03d fa6b 9ebd f8ff 623d 14c8 d43d
00000040: c8fd 793e e29c 5abb 95ff dbbc 2fb2 613e
00000050: 026b eeba f3be 273e 5955 e93d 93bc 0bbb
00000060: 997e 1d3e 8587 293d 0233 e93b c263 373e
00000070: 3015 163e a759 113d e9f1 1d3e 1033 cf3b
00000080: d63f 063e 86d6 68bb 51f3 f53d 51b1 a33d
00000090: f74c d4bc 9181 073e cdd5 c3bd 4606 423d
000000a0: ea5e 583d 4755 013e ef05 b6bd 865d fd3c
000000b0: 4bd6 213e 416f 193e 33d3 233d f984 493e
000000c0: e724 bf3d 4944 f43d 2e3b 7b3d 1fb9 83bd
000000d0: 042f 433e 9140 6b3e 0bef c0bc d524 14bd
000000e0: f189 f83c b3fd 393d 1d51 653e 4d4a d23d
000000f0: 9a74 2b3a f8a0 84b9 0c9b ca3d 64b8 e23b
00000100: ea46 0fbd 413b 293e 2304 c73d 042b 3f3d
00000110: 8e0b 823d 85d8 eb3d d376 f539 5911 36bd
00000120: 9a06 20bd c4e9 cebd 50ce d83b 4472 483e
00000130: 3fc4 353c 1519 0d3d 05a5 15bd b4d4 593e
00000140: 88a0 23be 1811 e73c be9e 81bd 79bc 423d
00000150: 4694 9b3d 2351 4b3c a69b 4a3e 7bcd 83bc
00000160: 7174 703e 070e af3d e1ae 96bc 89c8 e53d
00000170: 06bb b9bd 7d24 0e3c b41c a9bd f282 92bd
00000180: 3f97 10bb c586 e2bb acb9 323d e693 08be
00000190: 5b0c ff3d 03ad 3c3c 6189 56bd 9408 1b3c
000001a0: 4aa8 fc3d 554d 05bc b621 893d 1cfc c1bd
000001b0: b824 e2bd 064e 40bd a9f0 c73d 0c7b 14be
000001c0: 2c2e 5c3d f972 bf3c f9ae be3d bd06 40bd
000001d0: cbbe 143e 6be5 7cbd ae8a 4c3d 607c 04be
000001e0: c05a 0dbe 803b cfbd b1ea 90bd 8c6f b1bd
000001f0: f0a1 c13c ce39 b03d c171 163d b128 803d
00000200: 4dfb e93d a611 6f3d 87ed 05be c16b 03be
00000210: dcde 2b3e 8131 413d 07ce 09be 1281 e53c
00000220: 7564 02be 3e74 063e 3167 7dbd 094f 40bd
00000230: b376 0c3e 960b 8ebb 9146 b03d b922 2c3e
00000240: f655 7b3d 5cba 11be 2453 6c3a aeb0 62bb
00000250: 6bf7 943d 43df 8dbc 354a f43d 4afa b4bd
00000260: a7c7 fdbd 00bb 943d 8217 3dbd b517 dfbd
00000270: 7feb 283e 508a 91bc 2c53 503d eaac 6e3d
00000280: 7db9 58bd ae8e bf3d f7a9 b6bc 0956 d23d
00000290: 7914 413d 4d42 7abd f34b 8a3d f6c0 f93c
000002a0: b12b 46bc 846e 823c 3121 8a3c 633a b43d
000002b0: 5699 623d 00fa 16be 4365 9cbc 6425 c7bd
000002c0: c73b 3ebd 6450 0a3d 2550 303c a54c 5e3d
000002d0: 24a6 093e 2464 e23b 4467 6e3d db16 653c
000002e0: e188 183d 621b 283e 5eb3 88bc 7b43 7a3d
000002f0: 4bb9 f9bd d307 14be 2910 aebd 3283 9ebd
00000300: 29c6 8f3d 58d5 0dbe b8e3 c1ba d448 ad3c
00000310: 1b4e f03c eb98 47bd fce9 a43d 1b01 2b3e
00000320: cd09 fa3c ec6d 953d 8625 8a3d 6225 8fbd
00000330: 928c f33d 6c37 43be 9ca6 9cbd 8b2f 4abd
00000340: 7097 6b3e 250d 143e b1a6 c3bc 9655 ca3d
00000350: c4e7 9f3c bbfb bd3d a494 25bc 0afe 04bd
00000360: 63ec e2bd 8879 823d b5bf 933e 0fe8 bb3c
00000370: f5f6 1ebd 46c7 873d d954 083e 39a8 cf3c
00000380: 6ba4 8c3d ffe5 09be bed5 393c a32c a43b
00000390: 5118 babd 0b2b fc3d 1300 de3b 323e d53d
000003a0: 77c1 9dbd cc88 dcbd 81a7 853d d962 6c3e
000003b0: 6c62 113d 8991 a2bd b961 313d 405d 313e
000003c0: 327b 303d dde2 e43d a9e4 1fbe 00c8 cebd
000003d0: 1613 333d aefd a83d 8f86 09be 9697 87bc
000003e0: 7fc9 243d 04f7 bebd 67ca c43d e9b8 523e
000003f0: 6b0b 48bc f0b2 4e3d c41f ff3d e306 9a3d
0.096893445 0.07327075 -0.06445413 0.017473975 -0.007904609 -0.06214967 -0.021540407 0.15434253
0.03506188 0.020008154 0.15586029 -0.030903228 0.09381256 -0.07735439 0.055419892 0.103897244
0.24413216 -0.003335767 -0.02685527 0.22040628 -0.001818985 0.16381435 0.11393232 -0.0021322116
0.15380324 0.041389007 0.0071166763 0.17909148 0.1465652 0.03548589 0.15424313 0.006323226
0.13110289 -0.0035528257 0.120092995 0.07992805 -0.025915606 0.1323302 -0.09562264 0.047369264
0.052824892 0.12630187 -0.088878505 0.030928385 0.15804403 0.14983846 0.039996337 0.19679631
0.093332104 0.11927087 0.061335735 -0.064317934 0.19060904 0.22973849 -0.023551485 -0.03616794
0.030339213 0.045407962 0.22394224 0.10268078 0.00065405073 -0.00025296933 0.09892854 0.0069189537
-0.03497974 0.1652651 0.09717586 0.046671882 0.0634986 0.11515907 0.00046818572 -0.044450138
-0.039068796 -0.10103181 0.0066163912 0.19574839 0.011094152 0.03444775 -0.036534328 0.21272546
-0.15979207 0.028206393 -0.06329106 0.047543023 0.0759664 0.012409481 0.19785938 -0.016089192
0.23481919 0.085475974 -0.018393936 0.1121989 -0.09068875 0.008675692 -0.08257428 -0.07153882
-0.0022062806 -0.0069130384 0.0436341 -0.13337669 0.124535285 0.011515859 -0.05237711 0.009462494
0.12336786 -0.008136113 0.06695883 -0.09471914 -0.1104216 -0.04694941 0.09762699 -0.14500064
0.05375497 0.023370253 0.09310717 -0.046881426 0.14525907 -0.061742228 0.049936943 -0.1293807
-0.1380415 -0.101187706 -0.07076014 -0.08663854 0.023636788 0.08604775 0.036729578 0.06257761
0.11424885 0.05836644 -0.1307889 -0.12834074 0.16784233 0.04716635 -0.134575 0.028015647
-0.12733634 0.1313028 -0.06186599 -0.046950374 0.13717155 -0.0043348772 0.086072095 0.1681012
0.061361276 -0.14231247 0.00090150745 -0.0034590173 0.07273754 -0.017318374 0.11928216 -0.08836801
-0.12391596 0.0726223 -0.046164997 -0.10893194 0.16496085 -0.017766148 0.05086057 0.058270372
-0.05291127 0.09353386 -0.022297842 0.10270316 0.047138665 -0.061098386 0.067527674 0.030487519
-0.012095378 0.015921839 0.01686153 0.08800199 0.055322014 -0.14743805 -0.019091254 -0.097239286
-0.046443727 0.033768073 0.010761295 0.054272313 0.13442284 0.0069089103 0.05820395 0.0139825
0.037239913 0.16416696 -0.016687091 0.06109951 -0.12193545 -0.1445611 -0.08499176 -0.07739867
0.07020218 -0.13850915 -0.0014792597 0.021152891 0.029334119 -0.04872982 0.080524415 0.1669964
0.030522252 0.072963566 0.06745438 -0.06989552 0.11892046 -0.1906411 -0.07648966 -0.049361747
0.23006988 0.14458139 -0.023883196 0.098796055 0.019519694 0.092765294 -0.0101062395 -0.032468833
-0.110802434 0.063708365 0.28857198 0.022937803 -0.038809735 0.06629805 0.13313617 0.02534877
0.06867298 -0.13466643 0.011342464 0.005010204 -0.09086669 0.12312897 0.006774911 0.104122534
-0.07702916 -0.107682794 0.065260895 0.23084582 0.035494253 -0.07937915 0.043306086 0.17320728
0.04308624 0.11176083 -0.1561457 -0.10096741 0.043719374 0.082515106 -0.13430236 -0.016551774
0.040231224 -0.09324458 0.09608918 0.2057835 -0.0122097535 0.050463617 0.12457231 0.07520845

classifier.0.weight f4 [32, 64]
00000000: d2fa 4bbe c75b 6c3e eae8 20be 89db f4bd
00000010: 8ad3 903d 3f48 e13c c931 43be c2c2 523a
00000020: 152d 46be 59d0 9b3c 9a01 c2bc 9e8c 8fbd
00000030: 2ae6 003e f5b4 b6bd c0f1 17be 67a0 58bd
00000040: c2c7 743e d852 993d 481f 13be f603 c8bd
00000050: 3bde 3f3d fc63 1ebd a5e3 803e 0da2 5bbe
00000060: 0c89 323d c59a 613e cd5d c33d 9994 96be
00000070: bcac 573e c4b8 57be 047e 14be b1fb 8ebe
00000080: 931f 39be 2b16 da3d 17e2 4bbe e798 eb3d
00000090: 11ba 903d 04bd da3d 9e5d 623e 0ad7 a7bd
000000a0: efc6 313e a376 21bd 0bd8 0bbe 67cc 503e
000000b0: 95ee dcbd 6ea1 debd 185b 903c 2a53 8fbd
000000c0: 0553 69bd e552 0f3e 26c8 843e 29e0 a53c
000000d0: f657 4dbd ac72 7bbe cd5a c7bd 41d8 2dbd
000000e0: 7a23 a4bd 7e49 8d3c b6b7 473e f21b 803d
000000f0: e532 46be aaae 2cbe 2d35 19bc 0821 7a39
00000100: 5a72 82be 0a02 78bd dc97 aebd 8512 adbd
00000110: d0df d2bc d209 803d c263 453d f371 643e
00000120: be75 993c 4cf4 d5bd 3526 723e 7101 cebd
00000130: 86d3 273e 9737 043e 2a1f 23be 309a 1a3e
00000140: 9243 3c3e e749 a83c 97af fbbd 662e 56bd
00000150: bfa1 063e a8c8 223e 46e1 0c3d afef d13c
00000160: 7926 10be c554 1f3e d668 13be f189 26be
00000170: 2c9d b33d 10d1 d8bd 2a28 79be 988d 71be
00000180: ff91 40bd 7eeb ed3c 7481 37be 6660 c33d
00000190: a710 09bd ea31 3cbd c520 773d ceee 4ebe
000001a0: 5d4b 903d c8f4 c3bc 6c57 c83d 1999 f13b
000001b0: 962f 1ebe 1c83 b5bd a8a2 39bd 091b a0be
000001c0: ce98 53be f260 033e 961a 98bc 4a5e 65bb
000001d0: 7f97 343e e7b0 883c ba7e 9fbd 1fe2 953d
000001e0: 0026 c2bd 2837 103e 686e 453d 5dd8 bcbd
000001f0: 4425 b5bd 4508 84bd d212 81bc 391c fabc
00000200: b2bc 223c 35ef b23d 368b 88bc c8a3 aabe
00000210: 0900 80bd 3330 f23d d25a b5bd 4679 22be
00000220: 2d59 9dbd ab19 c73d 993a 40be e42d aa3d
00000230: c742 c4be 6bc7 523e 72aa 093f 5c9b 623d
00000240: cfec 19be d25d 09be e539 5ebd e4ed c83e
00000250: b163 d3be fd2a 33be 187c 093e 6be3 60bd
00000260: 44cb 0f3d 984e 11be ebca 2b3e d9fe 253b
00000270: 6391 d9be 0ee1 a0be a3c4 7d3d e9a5 f93d
00000280: 4233 fa3d 129d e6be 5077 b3bc e691 d43d
00000290: 0f10 c9bd 3e99 8bbe 8614 3d3e ee19 b53e
000002a0: 6a0d b43d c37d 19be 23af 633e 6025 36be
000002b0: 1c34 aa3e 4825 c8bb 9fed 8d3c 0147 443e
000002c0: f7c1 32be 4a8e febd ea1c 403e e899 b73b
000002d0: e1f6 4abb ee13 49bd 1414 5b3c 0749 babe
000002e0: 4e69 0abe 1f50 ddbe 62ed 07be 230e 30be
000002f0: 7d52 cc3e 4cdc 16bc 3b09 4b3e a4cd e43e
00000300: 17d1 8dbd ed48 3f3d 8d90 ce3d e903 143d
00000310: 962a 12be 3d7b b5ba d607 353d 09b1 09bc
00000320: f554 c8bd f0c1 b2bd a7b9 b03b c56a 32bd
00000330: 6a49 903d 5f64 5fbd 5454 053d 93fe 04bd
00000340: 3625 ddbd a803 9c3c a2aa 373d daf2 82bd
00000350: cedb d7bd 7814 c83d 517a 043d 7336 8abd
00000360: 671c 153b 3d9d 363d bbf5 b3bc d25b 8e3d
00000370: ce75 5abd 714b 453d 7ee6 0abd f6c7 cb3d
00000380: d780 8c3d cae9 c73c 411f 65bd fb72 c0bc
00000390: 593b e23d 1487 20bd 7503 02be 601b 7bbd
000003a0: ccbf c5bd c702 013e 41f8 b1bc 217d ff3d
000003b0: ae63 b73d 908b 98bd a02c 933d 384a dcbd
000003c0: 620b 4abb f615 aabd 78b2 703d 7e8a 913d
000003d0: bf79 b6bc c4f2 303d 4ff8 a83d bf3c 923d
000003e0: c512 8d3d c67c 13be 17f9 6abc 76dc 05be
000003f0: 8bad b13d 2401 9b3d 9296 f73d d4e0 f33d
-0.19919899 0.23081885 -0.1571385 -0.119559355 0.07071598 0.02750027 -0.1906196 0.00080398854
-0.19353135 0.019020246 -0.023682404 -0.070092425 0.125878 -0.089212336 -0.14838314 -0.052887347
0.23904327 0.07486504 -0.14367402 -0.097663805 0.046842795 -0.03866957 0.2517368 -0.21448536
0.04358773 0.22031696 0.095393755 -0.29410246 0.21061987 -0.21066576 -0.14501196 -0.279264
-0.18078451 0.106487595 -0.19910465 0.11503773 0.07066739 0.10680583 0.22106025 -0.08195312
0.17361043 -0.03941978 -0.13656633 0.20390473 -0.107876934 -0.10870634 0.017621562 -0.06998284
-0.05696394 0.13996466 0.2593395 0.02024849 -0.050132714 -0.24555463 -0.09734116 -0.042442564
-0.08014579 0.017246958 0.19503674 0.0625533 -0.19355352 -0.16863504 -0.009351057 0.00023854163
-0.25477868 -0.06054882 -0.085250586 -0.08450798 -0.025741488 0.06251873 0.04819084 0.22309093
0.018732902 -0.104469866 0.23647387 -0.10058869 0.16389284 0.12911831 -0.15929857 0.1509788
0.18385151 0.020543052 -0.122893505 -0.052290343 0.13147639 0.15896857 0.034394525 0.025626985
-0.14077176 0.15559681 -0.1439546 -0.16263558 0.087702125 -0.105867505 -0.24331728 -0.2358917
-0.047014233 0.029042955 -0.17920476 0.09539871 -0.033463147 -0.04594604 0.060333986 -0.20208284
0.070456244 -0.023920432 0.097822994 0.007372987 -0.1544784 -0.08862898 -0.045321137 -0.31270626
-0.20663759 0.1282995 -0.018567365 -0.0034998828 0.17635916 0.016685916 -0.07787843 0.0731852
-0.09479904 0.1408354 0.048200995 -0.092209555 -0.088449985 -0.0644689 -0.015756045 -0.030531036
0.009932684 0.08737031 -0.016667943 -0.3332808 -0.06250007 0.118255995 -0.08855213 -0.15866575
-0.076830246 0.09721693 -0.18772353 0.08309534 -0.38332197 0.20583884 0.53775704 0.055323943
-0.15031742 -0.13414696 -0.05425443 0.39243996 -0.41286996 -0.17496867 0.13426244 -0.054904383
0.03510596 -0.14190137 0.16776626 0.0025328903 -0.42493734 -0.31421703 0.061955106 0.12189848
0.12216808 -0.4504171 -0.021907479 0.103793904 -0.09817516 -0.27265352 0.1846486 0.35371345
0.08791621 -0.1498938 0.22234778 -0.17787695 0.3324288 -0.00610796 0.01732522 0.19167711
-0.17456804 -0.12429483 0.1876103 0.005603064 -0.0030969905 -0.049091272 0.013371486 -0.3638384
-0.13516733 -0.4322519 -0.13274148 -0.17192893 0.39906684 -0.009207796 0.1982774 0.4468814
-0.06924646 0.046700407 0.100861646 0.03613654 -0.14274058 -0.0013845932 0.044196926 -0.008404025
-0.09781829 -0.08728397 0.0053932252 -0.043558855 0.070452526 -0.05453908 0.032551125 -0.032469343
-0.10798113 0.019044712 0.044840463 -0.063939765 -0.10539971 0.09769529 0.032343213 -0.067486666
0.0022752525 0.044583548 -0.02196776 0.06951107 -0.053335004 0.04816765 -0.03391122 0.09950249
0.06860512 0.024403471 -0.05593801 -0.023492327 0.11046476 -0.03919132 -0.12696631 -0.061305404
-0.09655723 0.12598716 -0.021724822 0.12475038 0.08954559 -0.074484944 0.07186246 -0.107563436
-0.0030829539 -0.0830497 0.05876395 0.071064934 -0.02227485 0.04320027 0.08250486 0.07140493
0.06888346 -0.14403066 -0.014341614 -0.1307238 0.08675679 0.07568577 0.12089266 0.11908117

classifier.0.bias f4 [32]
00000000: f27f 80bd ab6c 0e3e c3ab 5c3d e832 b33d
00000010: 83a9 27be 829d fcbd 790d ef3d fae5 833c
00000020: e3fc c63d dab5 0bbd b864 b7bc 62ee 493d
00000030: ef1d 2b3e b62b 5bbd 4f71 153e 2fa4 263d
00000040: 89d8 be3d 7912 f63d a6af 0a3d 88fb 423d
00000050: 865b d73b 27e7 023e 5691 a53d a054 5fbd
00000060: 5137 8e3d 7bbd 1a3e abe8 f23d aacc c03d
00000070: 978c 7c3e abb1 183e 7033 61bc 538e 18bd
-0.06274404 0.13908641 0.053874742 0.08749944 -0.16373257 -0.1233473 0.116724916 0.016100872
0.09716203 -0.034108974 -0.022386894 0.049299605 0.16710638 -0.053508483 0.14594005 0.04068392
0.093186446 0.12015242 0.033858918 0.04760316 0.0065721897 0.1278349 0.08084361 -0.054524064
0.069441445 0.15111344 0.11860784 0.094140366 0.24663006 0.14911525 -0.013745174 -0.037245106

classifier.2.weight f4 [6, 32]
00000000: 18f0 893e 4d7d 3c3e 8c05 05be 3ea7 dabd
00000010: 1170 04be 67ef 06be 337d 823e 553c 253d
00000020: 7f11 efbd 5cef d0bd 8fbd 983e 3aa6 dabd
00000030: 42b1 7bbd cbbb 933e 0958 1fbe c525 343d
00000040: 72e0 383e 8fe6 643e 5738 51be 6d6c d63e
00000050: ca84 1bbe 5389 6ebe 902f 0f3c 10c4 103d
00000060: 1f8d 023e 573c 683e fade b0be 6716 c6be
00000070: 9b1c 723e 8275 353e a7f7 703e 322e 443d
00000080: ee5c 20be 38e5 80be 44ff 78bd 359c 8ebd
00000090: 7ed2 96bd 52d6 a9bd 1c1f 08bf bc10 07bf
000000a0: 4151 4abe 818b 3bbe 54b4 a4bd 1e19 c13d
000000b0: 070c 0bbd 7189 9bbd d134 de3d 49cd d53e
000000c0: fefc 21be f9f0 bdbe 7fb6 98be 5b3e a7bf
000000d0: f60d 203d 39a9 09bf b925 61bd e5a3 f03d
000000e0: 2ff0 803b 6f4c c2bd 997e f5bd 366d 5b3d
000000f0: ad17 89be 825d 83bf 7079 08bf 719f 5abd
00000100: b255 5abe 4404 ab3c d37d 2dbd 36e8 90bd
00000110: 4602 65be d70f a5bd 9789 a33c 1257 87be
00000120: 050b 10be 1450 71bf f26e debe 2927 6e3e
00000130: 8a75 95be c793 8fbe 42cd d4bd f3b4 3ebe
00000140: b80a 0cbf 08fb 38be 12ad a63c d7ac 23bf
00000150: add2 26be 0e60 b83d 724f 0cbd c8d4 683d
00000160: c092 a83d d32e 09be ce20 393d 8f24 453e
00000170: f3a7 1bbe 8861 56bd c2a5 69be 874e 3ebe
00000180: bc5c 36bd 4073 c4bd 49e9 52be 52f4 553c
00000190: 6b21 db3d c966 16be 6f4a 01be 1e68 23bd
000001a0: 1bd2 b6be e611 e8be 51b5 01bf b0a9 23be
000001b0: e12b 04bf 0d15 96be 0204 b9be 0638 47bf
000001c0: 4c88 19bf 101d c9be 635f 243e af42 2bbf
000001d0: c716 2abe 7a10 693e 904b 7dbe e560 073e
000001e0: dd79 1e3d fe4a 18bf bb28 963e ecd5 fa3d
000001f0: d4d2 f8be bbb9 713d daac a23d ac23 e33d
00000200: 005e 37bc ec2b 22be 9f5d 9cbe 5ffd 8e3d
00000210: 7225 b0bc 4136 b3bd f943 c83d ada6 0d3e
00000220: 24c3 863e 5466 92bd aa40 c6be ce3f 02bf
00000230: 01ce c73d d48e 72be 8baa b93d b708 6bbf
00000240: 6e60 113e e613 aebe fc8c 3c3e 13e1 a8bf
00000250: 3358 a13d dd14 ddbe 5074 a5be 5920 263d
00000260: 1c0b babe 3e04 9dbe a4d1 533e fbc1 693d
00000270: ef4b 623d 786e c0be c2a3 42be 1e6a 6cbe
00000280: d023 f9be 319f b5bd 6349 753e 0bd5 18be
00000290: bf33 92bd 6dff 0abe a33f 80bd 6be3 51be
000002a0: 8d26 bb3d 481b e63e 7427 88bd dc69 33bf
000002b0: 5089 7f3e 729a 4bbc b296 4f3e d9ae febe
000002c0: f98f 293e 3266 d0bd a687 47be c4aa bfbe
000002d0: 6314 123e bcf0 42bf 6130 6b3e 2ac5 db3c
000002e0: c8a5 55be 12f2 353e 87ff c7be a64d 61bf
000002f0: a0cd fd3a 9191 e2bd 1fa1 4a3c 4eac 1bbe
0.2694099 0.18407173 -0.12990397 -0.1067643 -0.12933375 -0.13177262 0.25486144 0.04034074
-0.11673259 -0.10201904 0.29832122 -0.106762365 -0.061448343 0.28854212 -0.15560926 0.043981332
0.18054369 0.22353576 -0.20431648 0.41879597 -0.15187374 -0.23294573 0.008739367 0.03534323
0.12749146 0.22679268 -0.34545118 -0.38688967 0.23643725 0.17720607 0.23531972 0.047895618
-0.1566045 -0.2517488 -0.060790315 -0.06963388 -0.07364367 -0.082928315 -0.5317247 -0.5275991
-0.19757558 -0.18314935 -0.08042207 0.09428619 -0.033947017 -0.07594574 0.10849918 0.41758183
-0.15819165 -0.3709791 -0.29826733 -1.3065904 0.039075814 -0.5377384 -0.054967616 0.117500104
0.003934882 -0.09487235 -0.11987037 0.05357095 -0.26775876 -1.0262911 -0.533103 -0.05337471
-0.21321753 0.020876057 -0.042356323 -0.07075541 -0.22364148 -0.08059662 0.019963069 -0.26433617
-0.14066704 -0.94262815 -0.4344402 0.23257126 -0.29191238 -0.28042433 -0.10390712 -0.18623714
-0.54703856 -0.18064511 0.020346198 -0.6393561 -0.16291304 0.09002696 -0.034255452 0.05684355
0.08231115 -0.13396768 0.0451973 0.19252227 -0.15200786 -0.052339107 -0.22817138 -0.18584643
-0.044522032 -0.09592295 -0.20596804 0.013058739 0.10699733 -0.14687647 -0.1262605 -0.039894216
-0.35707173 -0.45326155 -0.5066729 -0.159827 -0.51629454 -0.29312935 -0.3613587 -0.7781986
-0.599736 -0.39279985 0.16052012 -0.66898626 -0.16610251 0.22760192 -0.24735856 0.13220556
0.038690437 -0.5948943 0.2932795 0.122478336 -0.4859835 0.059015017 0.07943125 0.11090788
-0.011191845 -0.15837067 -0.30540177 0.069819205 -0.02150223 -0.087505825 0.0977859 0.13833113
0.26320755 -0.07148424 -0.3872121 -0.5087861 0.09756089 -0.23687297 0.090657316 -0.9181017
0.14196941 -0.33999556 0.18413156 -1.3193687 0.07878151 -0.4317998 -0.32315302 0.040558193
-0.363366 -0.306673 0.2068544 0.05706976 0.055248197 -0.3758428 -0.19007781 -0.23087355
-0.48660135 -0.08868254 0.23953776 -0.1492502 -0.07138776 -0.13574 -0.06262138 -0.2049691
0.09138212 0.4494269 -0.0664815 -0.70083404 0.24954724 -0.012426959 0.2027233 -0.49742773
0.16558827 -0.10175742 -0.1948534 -0.3743497 0.1426559 -0.7614858 0.22967674 0.026827414
-0.20864022 0.17768124 -0.3906214 -0.8800911 0.0019363649 -0.11062921 0.012367516 -0.15202448

classifier.2.bias f4 [6]
00000000: 1d96 c8bc f987 42be 1b1b 193e 62ec cabc
00000010: d43b f6bd dfc6 b03d
-0.024485642 -0.18997182 0.14951746 -0.02477092 -0.1202313 0.08631682
