experiments/darpa2000/s1_inside/baselines/multi_class_lstm/models/multi_class_lstm_resampled_class_weights_w10.pth (torch, 195603 bytes, 8 tensors)

lstm.weight_ih_l0 f4 [256, 112]
0.12291512 -0.13518639 -0.17649344 0.047139198 0.007966871 0.16491996 0.005283524 -0.23652406
-0.0031007885 -0.0037701104 0.20464166 0.386103 -0.08154682 0.062746264 0.2687437 0.1634911
-0.026188405 -0.17463629 -0.0047292793 0.29985905 -0.2878064 -0.23867735 0.042692937 0.18466556
0.035280656 0.11535765 -0.09648153 0.5805723 0.474075 -0.16793169 0.2588811 0.22446804
0.049604714 0.08322076 0.03705464 0.27640343 0.10521269 -0.06103841 -0.012149238 0.17051487
0.3509057 -0.09418391 -0.018464336 0.018109072 -0.08033512 0.22544758 -0.015128114 0.018734628
0.20279609 0.13289458 0.044950396 0.022485485 0.033629946 -0.5762628 0.03662819 -0.118506506
-0.08216816 0.11031279 0.32284433 0.012596797 0.16749328 0.054991443 -0.02271891 -0.058749273
-0.03620118 0.093789846 -0.20917408 -0.194671 -0.2007173 0.5497761 0.49686924 0.22858034
-0.35747313 0.24565214 0.21612562 0.0027473797 0.05253917 -0.12329979 -0.2977234 0.09831405
0.41719708 0.0045646727 0.3097282 0.026331762 0.15733348 0.19511059 -0.08384526 0.23525776
0.39169922 0.0415442 -0.097154185 0.380744 0.41135594 0.13861555 0.012745831 0.7519462
0.1176494 0.09175717 0.13569431 -0.01747271 0.09987372 -0.06981529 -0.019749321 -0.19497462
-0.07001799 0.0071230493 -0.01168112 0.104071625 0.16171725 0.07535534 0.028348561 0.18677182
0.115042254 -0.22799985 0.3895438 0.014634177 -0.02625413 0.12756869 0.11823049 0.43704256
0.06354478 0.03541935 -0.0146646425 0.116571136 0.18442479 -0.41874972 0.7029457 0.2656428
0.21271324 -0.106981024 0.06537553 0.14446874 0.6168337 -0.47501364 0.12830472 -0.120464474
0.4959044 0.09247681 -0.077081025 -0.04134366 0.36268213 0.04472982 0.18977404 -0.06547427
0.012862171 0.042695187 0.03635933 -0.31409752 -0.40996516 -0.10730862 0.021102205 0.075909376
0.37133375 0.18316759 0.06941481 0.697272 0.16333614 -0.29946014 0.04720985 0.07143709
0.031717677 0.14787686 -0.08963725 0.094484985 0.14087002 0.7333953 0.0678958 0.14174636
0.077407375 0.096867055 0.1758797 0.041051917 0.06266407 0.06777582 0.039773572 -0.054487612
-0.11984154 -0.13321881 0.2864112 0.16667661 -0.07440673 0.0015976015 0.7154053 0.04347567
0.15155041 0.012384364 0.015542738 0.06429349 0.15302642 -0.12128003 0.20470183 -0.24470575
0.29880732 0.100606814 0.024514679 -0.24293828 0.34595934 -0.030387165 0.24625617 0.019302616
0.2529789 0.040443297 0.051387496 0.07135208 -0.08375762 -0.21383423 0.038602937 0.38025978
-0.023220625 0.092152536 -0.046063438 -0.0065344605 0.054164905 -0.06456476 -0.00034562734 0.018863063
-0.02936709 0.026227254 0.084878325 0.08006008 -0.29637933 0.011568739 0.038355228 -0.17598629
0.12416543 -0.056929085 -0.24045944 -0.10295774 -0.055208888 -0.08474102 -0.12908702 -0.18209532
-0.05187627 0.11345317 -0.079388596 0.047254056 0.2955349 -0.19401506 0.07996433 0.22690992
0.16300577 0.06764861 0.08022237 0.22959426 0.3750073 0.29779187 -0.037111342 -0.12306094
-0.13437858 0.12443058 0.049890295 0.023800924 0.36870942 -0.24980825 0.14295876 -0.016452914
00000000: ecba fb3d 4d6e 0abe b2ba 34be 0815 413d
00000010: 7b87 023c c7e0 283e 6921 ad3b 5d33 72be
00000020: 9936 4bbb f513 77bb 958d 513e 4baf c53e
00000030: 0502 a7bd 1d81 803d c698 893e 366a 273e
00000040: 1189 d6bc dbd3 32be 12f8 9abb 2087 993e
00000050: 5c5b 93be d667 74be cade 2e3d f818 3d3e
00000060: 7382 103d a240 ec3d 1c98 c5bd 63a0 143f
00000070: f5b9 f23e 49f6 2bbe 108c 843e f3da 653e
00000080: 502e 4b3d a56f aa3d 9bc6 173d c084 8d3e
00000090: c079 d73d 6903 7abd 990d 47bc 739b 2e3e
000000a0: e9a9 b33e 7ee3 c0bd 8542 97bc 7a59 943c
000000b0: bd86 a4bd bbdb 663e e9db 77bc 5d79 993c
000000c0: c7a9 4f3e 8415 083e e81d 383d 7b33 b83c
000000d0: 8ebf 093d f585 13bf 7107 163d 8ab3 f2bd
000000e0: c847 a8bd aceb e13d da4b a53e cc62 4e3c
000000f0: 5c83 2b3e b53e 613d 021d babc 14a3 70bd
00000100: b047 14bd e414 c03d bb31 56be d657 47be
00000110: d688 4dbe 20be 0c3f a565 fe3e f710 6a3e
00000120: b806 b7be 3c8c 7b3e 0950 5d3e 620d 343b
00000130: 5033 573d 9a84 fcbd 346f 98be e058 c93d
00000140: db9a d53e 4093 953b b294 9e3e b5b5 d73c
00000150: 071c 213e 12cb 473e 10b7 abbd 69e7 703e
00000160: cd8c c83e 402a 2a3d c6f8 c6bd e1f0 c23e
00000170: 3f9d d23e 3cf1 0d3e e4d3 503c 8c7f 403f
00000180: 2bf2 f03d 2feb bb3d 73f3 0a3e ee22 8fbc
00000190: 988a cc3d 52fb 8ebd 54c9 a1bc 6da7 47be
000001a0: 9865 8fbd 7868 e93b 2b62 3fbc 8123 d53d
000001b0: 3599 253e e753 9a3d 3e3b e83c 1d41 3f3e
000001c0: 469b eb3d cb78 69be 4972 c73e 30c4 6f3c
000001d0: e712 d7bc 5ea1 023e d422 f23d 0bc4 df3e
000001e0: c423 823d e113 113d f843 70bc d9bc ee3d
000001f0: dad9 3c3e 5d66 d6be 40f4 333f 5502 883e
00000200: 80d1 593e de18 dbbd 9be3 853d 9def 133e
00000210: d0e8 1d3f fd34 f3be 5062 033e 14b6 f6bd
00000220: 2ee7 fd3e 7b64 bd3d a8dc 9dbd f857 29bd
00000230: 79b1 b93e 9e36 373d 2054 423e 6017 86bd
00000240: dbbb 523c 26e1 2e3d 85ed 143d 64d1 a0be
00000250: f4e6 d1be 9fc4 dbbd 88de ac3c 6076 9b3d
00000260: 751f be3e 4990 3b3e 5a29 8e3d 6b80 323f
00000270: 9741 273e d752 99be 1e5f 413d 9c4d 923d
00000280: 65ea 013d 086d 173e bc93 b7bd 5881 c13d
00000290: 3b40 103e cbbf 3b3f f40c 8b3d f525 113e
000002a0: c287 9e3d 3c62 c63d cf19 343e 0e26 283d
000002b0: 0556 803d 0dce 8a3d 9de9 223d 672e 5fbd
000002c0: 7b6f f5bd 836a 08be 7da4 923e 46ad 2a3e
000002d0: 8e62 98bd 9c66 d13a cd24 373f 8b13 323d
000002e0: 0830 1b3e cae7 4a3c f8a6 7e3c 4eac 833d
000002f0: f5b2 1c3e aa61 f8bd 5b9d 513e 2594 7abe
00000300: 46fd 983e f20a ce3d 02d3 c83c d0c4 78be
00000310: 9521 b13e 81ee f8bc 942a 7c3e 8520 9e3c
00000320: 7386 813e dfa7 253d b27b 523d 0a21 923d
00000330: 1d89 abbd 5cf7 5abe 1d1e 1e3d 69b1 c23e
00000340: 2e39 bebc 78ba bc3d 04ad 3cbd 071f d6bb
00000350: 05dc 5d3d 873a 84bd 5135 b5b9 b686 9a3c
00000360: 4093 f0bc 8ada d63c b0d4 ad3d 8af6 a33d
00000370: 08bf 97be cf8a 3d3c 5f1a 1d3d c035 34be
00000380: 724a fe3d 792e 69bd 003b 76be 82db d2bd
00000390: b722 62bd b38c adbd 632f 04be 3277 3abe
000003a0: 367c 54bd 235a e83d 7d96 a2bd 788d 413d
000003b0: 5a50 973e e2ab 46be 57c4 a33d 135b 683e
000003c0: fcea 263e 5b8b 8a3d a04b a43d c21a 6b3e
000003d0: f500 c03e 2d78 983e 1002 18bd 6007 fcbd
000003e0: 8a9a 09be 76d5 fe3d c459 4c3d 28fa c23c
000003f0: 7bc7 bc3e bccd 7fbe c863 123e 43c8 86bc

lstm.weight_hh_l0 f4 [256, 64]
0.039904553 -0.3018263 0.19866283 -0.22159232 0.33742577 0.30174944 -0.08844394 0.25530005
-0.25396052 0.106477946 0.39979035 -0.29022747 0.036578555 0.29222926 -0.06725108 0.012823784
0.02483369 0.16456723 -0.20137872 -0.3495777 0.16258937 0.15121005 -0.09125898 0.3290368
0.031667065 0.26260006 -0.039154783 -0.13677436 -0.036795475 -0.24013588 -0.28268588 -0.12658338
-0.07310942 0.07258022 -0.09952985 0.024780355 -0.34946543 -0.12322008 -0.07440719 0.10415215
0.059500787 -0.038470637 -0.27025795 -0.037398055 0.03688962 -0.10821675 -0.04939938 -0.20397402
-0.124930136 0.26313683 -0.01242562 -0.05942395 0.1637973 -0.019961039 -0.22462137 0.13049239
0.19462387 0.06324693 -0.17763662 -0.021589005 0.14027424 -0.008070181 0.025263136 -0.09140119
0.23839307 0.024341919 -0.36257014 0.21615651 -0.028805714 -0.3624431 -0.22220622 -0.26283485
-0.014017897 -0.17188081 -0.08379145 0.21908355 -0.24619523 -0.15932913 -0.031462345 0.021992791
-0.41338795 -0.030508177 0.19802405 -0.09247059 -0.29931596 -0.1782737 0.047445104 0.083197325
-0.19758347 -0.27729774 0.4137576 0.093529664 -0.25604457 0.17497543 0.11848294 -0.08355612
0.11687032 -0.18766217 -0.087643035 -0.1225267 -0.37695715 0.08682215 -0.19044715 0.057854217
0.07604904 -0.27873382 0.026664339 -0.22551979 0.0077720606 0.1476528 -0.046041567 0.22091705
-0.15847045 -0.27917734 0.00656559 -0.04212776 -0.13861814 -0.23310807 -0.010462663 0.019715277
0.06073737 -0.24974723 -0.25756642 -0.039177723 -0.19613045 -0.028806292 0.036862496 0.2875985
0.39385337 -0.030188646 -0.086763054 -0.09335506 -0.13285275 -0.090302214 -0.009676074 -0.20037709
0.07388218 -0.21528985 -0.120664544 0.11206895 -0.2056933 -0.09413652 0.08312465 0.087390944
0.18680367 -0.2956241 0.08537117 0.16913226 -0.23265725 -0.053990077 0.36071986 -0.14353369
-0.0506388 0.03807757 -0.07307406 -0.16800582 -0.21322069 0.16766424 0.08170629 0.31054416
0.0631533 -0.06106325 0.2288547 -0.30683088 0.10143323 0.05513364 -0.1552835 -0.008277247
0.06659497 -0.22534263 0.09447659 -0.0726107 0.10059188 0.25270972 0.20503145 0.18748796
-0.0078380415 -0.0026542526 0.22948681 -0.16012122 -0.27665517 0.41195327 -0.03922504 0.06124759
-0.17287731 -0.16197713 -0.37469777 -0.06900509 0.080031134 -0.116803505 0.050209437 0.280698
0.08167527 -0.11635227 -0.2651319 -0.13367154 0.026117537 -0.03478235 -0.19203517 -0.01348087
-0.23392403 -0.012694117 0.013109639 -0.08248152 -0.033308808 -0.02638977 0.1998791 0.33372694
-0.14562437 0.10519554 -0.13970375 0.05001712 -0.07126589 -0.10345976 -0.070523135 0.020746281
-0.49598664 -0.033765707 -0.07528007 -0.07261055 -0.06124484 0.10661948 -0.123623595 -0.038349517
0.1910558 -0.4169287 -0.23781165 -0.040044643 -0.25154015 -0.13923582 -0.33712396 -0.05508736
-0.15800643 -0.30941185 0.08213503 -0.51970804 0.08722589 -0.036029205 -0.351498 0.13565472
-0.15593721 -0.16977058 0.14466271 -0.17476872 0.02089816 0.021802774 -0.04992319 -0.17339863
0.07723573 -0.106261335 -0.37388474 -0.062222492 -0.028390797 -0.52179044 0.06884801 0.07184816
00000000: f572 233d fa88 9abe 456e 4b3e 19e9 62be
00000010: 12c3 ac3e e77e 9a3e 1922 b5bd b0b6 823e
00000020: 1d07 82be 1c11 da3d 52b1 cc3e b298 94be
00000030: 65d3 153d 139f 953e efba 89bd d91a 523c
00000040: 0670 cb3c 5084 283e 3936 4ebe d9fb b2be
00000050: d47d 263e cfd6 1a3e fde5 babd 8377 a83e
00000060: 53b5 013d 8473 863e c460 20bd 940e 0cbe
00000070: dab6 16bd 2ee6 75be 34bc 90be 139f 01be
00000080: 64ba 95bd f0a4 943d 4ed6 cbbd 2c00 cb3c
00000090: 22ed b2be cf5a fcbd cc62 98bd b94d d53d
000000a0: 19b7 733d 6393 1dbd 405f 8abe b42e 19bd
000000b0: 9219 173d bea0 ddbd 0157 4abd 91de 50be
000000c0: 5fdb ffbd dfb9 863e d494 4bbc 8766 73bd
000000d0: 7bba 273e 5585 a3bc 2503 66be cc9f 053e
000000e0: 7b4b 473e 9b87 813d 60e6 35be 6ddb b0bc
000000f0: 0da4 0f3e cb38 04bc a3f4 ce3c 8c30 bbbd
00000100: 501d 743e b468 c73c cba2 b9be 2258 5d3e
00000110: f6f9 ebbc 2492 b9be 078a 63be 4a92 86be
00000120: 52ab 65bc 8601 30be da9a abbd 7057 603e
00000130: 9a1a 7cbe 2d27 23be a9de 00bd 3a2a b43c
00000140: 96a7 d3be 49ec f9bc d1c6 4a3e 3861 bdbd
00000150: f13f 99be 618d 36be cc55 423d 5c63 aa3d
00000160: 5253 4abe f8f9 8dbe 09d8 d33e 7b8c bf3d
00000170: 4618 83be c22c 333e 2fa7 f23d 791f abbd
00000180: b559 ef3d 832a 40be 317e b3bd 47ef fabd
00000190: 8700 c1be d0cf b13d 9404 43be 8bf8 6c3d
000001a0: 99bf 9b3d 33b6 8ebe 2c6f da3c a9ee 66be
000001b0: c5ac fe3b 4c32 173e 1596 3cbd 1438 623e
000001c0: 1446 22be 55f0 8ebe 2924 d73b 288e 2cbd
000001d0: eaf1 0dbe e2b3 6ebe 976b 2bbc ef81 a13c
000001e0: c0c7 783d bdbd 7fbe bfdf 83be d278 20bd
000001f0: 6cd6 48be 2cfb ebbc 21fd 163d 1c40 933e
00000200: 26a7 c93e 2e4e f7bc d4b0 b1bd f030 bfbd
00000210: 8d0a 08be 5ef0 b8bd 6588 1ebc a72f 4dbe
00000220: 8a4f 973d f174 5cbe f91e f7bd 6884 e53d
00000230: 44a1 52be a6ca c0bd 423d aa3d 06fa b23d
00000240: 7649 3f3e 0b5c 97be 14d7 ae3d 0231 2d3e
00000250: b43d 6ebe b324 5dbd 46b0 b83e 7ffa 12be
00000260: a16a 4fbd 3af7 1b3d daa7 95bd b809 2cbe
00000270: 8656 5abe 2db0 2b3e a155 a73d a5ff 9e3e
00000280: 8456 813d 751d 7abd e358 6a3e f018 9dbe
00000290: 3abc cf3d d0d3 613d a302 1fbe 4a9d 07bc
000002a0: f262 883d 38c0 66be f17c c13d ebb4 94bd
000002b0: 1e03 ce3d 2b63 813e c4f3 513e d8fc 3f3e
000002c0: 216b 00bc f8f2 2dbb 97fe 6a3e d1f6 23be
000002d0: bfa5 8dbe 8aeb d23e 6faa 20bd c1de 7a3d
000002e0: c006 31be 55dd 25be 63d8 bfbe 8a52 8dbd
000002f0: 5de7 a33d ad36 efbd 69a8 4d3d a6b7 8f3e
00000300: 5d45 a73d 194a eebd 5ebf 87be 31e1 08be
00000310: 72f4 d53c f077 0ebd dea4 44be dede 5cbc
00000320: c889 6fbe fcfa 4fbc d0c9 563c 12ec a8bd
00000330: d16e 08bd 5c2f d8bc 1bad 4c3e 42de aa3e
00000340: 8e1e 15be c270 d73d 800e 0fbe c0de 4c3d
00000350: daf3 91bd b6e2 d3bd 6f6e 90bd 1bf4 a93c
00000360: f6f1 fdbe e94d 0abd 702c 9abd d7b4 94bd
00000370: dfdb 7abd 505b da3d 5e2e fdbd 6214 1dbd
00000380: 22a4 433e ae77 d5be e684 73be da05 24bd
00000390: dfc9 80be d693 0ebe 839b acbe 49a3 61bd
000003a0: 70cc 21be 3b6b 9ebe 6936 a83d 960b 05bf
000003b0: 7da3 b23d 5c93 13bd 8cf7 b3be 12e9 0a3e
000003c0: 01ae 1fbe 57d8 2dbe 7622 143e 92f6 32be
000003d0: 9e32 ab3c bb9b b23c 427c 4cbd 698f 31be
000003e0: c42d 9e3d 8b9f d9bd d26d bfbe 03dd 7ebd
000003f0: d193 e8bc 0f94 05bf 2f00 8d3d 2125 933d

lstm.bias_ih_l0 f4 [256]
0.04988719 -0.21872802 -0.051848993 -0.21566063 0.011644963 -0.07582761 -0.2650429 0.15876804
0.14206427 0.0090488 0.065912336 0.12311357 0.111911885 -0.18579698 -0.08268142 -0.06534282
0.032971006 -0.059616584 0.093656376 -0.061036624 -0.057952803 -0.079821154 0.12414607 0.22304459
0.032715328 0.1647598 0.030606603 -0.041049212 0.03326192 -0.040758923 -0.02205559 0.33075666
0.20975609 0.037052285 -0.3213437 0.07225383 -0.3006276 -0.25395453 -0.02629157 -0.15651344
0.12462275 0.28476053 0.030113079 -0.102753565 0.08661367 0.10840305 0.089588195 0.36840513
-0.13065095 0.023476167 -0.18382199 -0.09465954 -0.044233833 0.24636227 0.040900975 -0.18926966
0.15013944 0.09035351 0.26814756 0.3287886 -0.05729852 -0.149495 -0.19214745 0.081779964
-0.06917566 -0.2618298 0.27098384 -0.08834043 -0.040294595 0.021221612 0.057828262 0.0429432
0.3215687 0.033701178 0.19211544 0.03491297 0.04895782 -0.118224174 -0.1027656 0.12744886
-0.13727115 -0.05110509 -0.22847594 -0.03864595 -0.15497057 0.065880045 -0.24596438 -0.14769532
0.022122098 0.085411556 -0.13763472 0.03495418 -0.18626069 -0.027360387 0.11700958 -0.25104022
-0.20764762 -0.02419914 -0.19940254 0.068339445 -0.16351703 -0.3007496 0.079964526 -0.09081503
-0.009186709 0.08760419 0.1510552 -0.03580451 0.09093759 -0.061809156 -0.061826218 -0.051183723
0.06273345 -0.21360333 0.13151264 -0.0894013 -0.0401142 -0.051592883 -0.06371344 -0.0411201
0.13507439 -0.29905087 -0.05121717 0.13224247 -0.045723062 0.05628161 -0.026148524 -0.31865558
-0.13861945 0.0039107497 0.05281072 -0.10625735 0.025657432 0.018471932 0.017514084 0.111859016
-0.09732811 -0.0860554 -0.04851004 0.0032763008 -0.040790305 0.015850207 -0.028681787 -0.11464586
0.064545915 0.11420171 -0.12836015 -0.04432792 -0.04202322 -0.082811974 -0.04927393 0.033840813
0.06953469 0.19081976 -0.0862904 0.043549202 -0.020117342 -0.05794486 -0.24327895 0.032919455
-0.027950602 -0.056989975 0.11735161 0.07370841 0.093426146 -0.014171717 0.17376043 -0.12533578
0.12733166 -0.031662982 0.12262364 -0.07266491 -0.06681956 0.09979384 -0.047983073 -0.02038132
-0.01875298 0.049339592 0.0073481905 -0.08462039 0.13287555 -0.061684232 0.08014349 0.0393405
-0.038881857 0.045702185 -0.041801 0.12026434 -0.049192045 -0.05424693 0.18392622 -0.093313046
-0.009718314 -0.1967342 0.12335652 -0.15446936 -0.14854147 -0.03806124 -0.019968225 -0.07069839
-0.06632183 -0.045404673 -0.09403859 -0.048908673 0.03118791 -0.19406034 0.040667027 -0.037989065
0.12916552 -0.027173702 0.029492768 -0.1605456 -0.0014726282 0.020976922 0.13730186 -0.040651806
0.06824934 -0.07638703 0.016709587 0.069904834 0.029882934 0.106871 0.076064475 0.31441206
-0.065337434 -0.13311926 -0.14686112 0.059560508 -0.13491179 -0.11696709 -0.07485889 -0.052618958
-0.038691428 0.14810453 0.16693436 0.12674798 0.3642071 -0.13400544 0.19752735 0.16576712
8.5145315e-05 -0.0811753 -0.019666407 -0.12146931 -0.09877932 0.28268945 -0.18846771 0.093216844
0.13070594 -0.11516112 0.004992392 0.10660092 -0.03937067 -0.03496397 -0.1404969 0.22787148
00000000: 8356 4c3d 3dfa 5fbe 9c5f 54bd 24d6 5cbe
00000010: 84ca 3e3c 824b 9bbd b4b3 87be 1794 223e
00000020: 4c79 113e 6b41 143c 0cfd 863d f822 fc3d
00000030: 0f32 e53d 9041 3ebe e054 a9bd 75d2 85bd
00000040: 9b0c 073d 8530 74bd eace bf3d 8a01 7abd
00000050: eb5f 6dbd 4679 a3bd 4b40 fe3d cd65 643e
00000060: 8200 063d cbb6 283e b3ba fa3c 3823 28bd
00000070: a73d 083d d4f2 26bd edad b4bc f058 a93e
00000080: 4dca 563e 23c4 173d 2987 a4be d1f9 933d
00000090: dceb 99be 5406 82be 6b61 d7bc 0f45 20be
000000a0: 363a ff3d 22cc 913e b4af f63c 7670 d2bd
000000b0: 8262 b13d 6b02 de3d 047a b73d 999f bc3e
000000c0: 5dc9 05be 1751 c03c d53b 3cbe dcdc c1bd
000000d0: 892e 35bd 6446 7c3e c887 273d e8cf 41be
000000e0: 27be 193e 430b b93d a34a 893e fb56 a83e
000000f0: dab1 6abd 3815 19be 4dc2 44be 417c a73d
00000100: f8ab 8dbd 8e0e 86be 65be 8a3e d4eb b4bd
00000110: f20b 25bd f2d8 ad3c 54dd 6c3d 35e5 2f3d
00000120: a7a4 a43e 3f0a 0a3d e9b9 443e e700 0f3d
00000130: ff87 483d 841f f2bd c576 d2bd f481 023e
00000140: cf90 0cbe 9253 51bd 99f5 69be 374b 1ebd
00000150: 9bb0 1ebe 1eec 863d 16de 7bbe 713d 17be
00000160: 6739 b53c 41ec ae3d 1ef0 0cbe 1d2c 0f3d
00000170: 1fbb 3ebe e422 e0bc b8a2 ef3d 5888 80be
00000180: 94a1 54be 463d c6bc 2e30 4cbe 8df5 8b3d
00000190: 0271 27be dafb 99be 71c4 a33d 3bfd b9bd
000001a0: da83 16bc d369 b33d 37ae 1a3e c0a7 12bd
000001b0: 7d3d ba3d 992b 7dbd 7d3d 7dbd 06a6 51bd
000001c0: 657a 803d d5ba 5abe 40ab 063e 0718 b7bd
000001d0: ca4e 24bd 0f53 53bd 317c 82bd 8d6d 28bd
000001e0: f150 0a3e 321d 99be 18c9 51bd 926a 073e
000001f0: 1b48 3bbd 8c87 663d 6e35 d6bc d326 a3be
00000200: 42f2 0dbe bf25 803b 0e50 583d 749d d9bd
00000210: 892f d23c 7352 973c b279 8f3c 5716 e53d
00000220: f653 c7bd d03d b0bd 77b2 46bd 35b7 563b
00000230: bc13 27bd 4bd8 813c 11f6 eabc 73cb eabd
00000240: a630 843d 96e2 e93d d870 03be 3191 35bd
00000250: 8a20 2cbd 5399 a9bd 76d3 49bd aa9c 0a3d
00000260: 3468 8e3d 4166 433e 05b9 b0bd a660 323d
00000270: 20cd a4bc 9757 6dbd 1e1e 79be 8dd6 063d
00000280: a9f8 e4bc 526e 69bd 0a56 f03d 6ff4 963d
00000290: 3556 bf3d 7d30 68bc 41ee 313e 0658 00be
000002a0: 3b63 023e 0bb1 01bd 1a22 fb3d 57d1 94bd
000002b0: b2d8 88bd b660 cc3d e689 44bd baf6 a6bc
000002c0: d99f 99bc 5018 4a3d 17c9 f03b 744d adbd
000002d0: 8710 083e 9ba8 7cbd 4522 a43d 8123 213d
000002e0: 9542 1fbd 3732 3b3d 8637 2bbd 264d f63d
000002f0: 997d 49bd 0732 5ebd 2857 3c3e e91a bfbd
00000300: 9039 1fbc b174 49be 58a2 fc3d 372d 1ebe
00000310: 411b 18be 1ae6 1bbd 6794 a3bc 51ca 90bd
00000320: bdd3 87bd 40fa 39bd 4e97 c0bd 7654 48bd
00000330: ca7d ff3c c1b7 46be 7892 263d 6c9a 1bbd
00000340: f743 043e 629b debc d19a f13c 1166 24be
00000350: 3405 c1ba cbd7 ab3c dc98 0c3e 8282 26bd
00000360: 4fc6 8b3d ce70 9cbd 8be2 883c 442a 8f3d
00000370: 0ecd f43c 2fdf da3d b1c7 9b3d 9efa a03e
00000380: a2cf 85bd 6a50 08be c362 16be b8f5 733d
00000390: 5126 0abe 718c efbd 9e4f 99bd fa86 57bd
000003a0: e77a 1ebd b7a8 173e d7f0 2a3e 39ca 013e
000003b0: 5a79 ba3e b938 09be 9c44 4a3e dbbe 293e
000003c0: 0b90 b238 3c3f a6bd 721b a1bc e7c4 f8bd
000003d0: d04c cabd acbc 903e aefd 40be 79e8 be3d
000003e0: c7d7 053e 98d9 ebbd 3897 a33b 9551 da3d
000003f0: 2443 21bd 6136 0fbd 6bde 0fbe 2457 693e

lstm.bias_hh_l0 f4 [256]
0.107164085 -0.16714366 -0.14571194 -0.07235749 -0.006591386 -0.04723156 -0.16921873 0.1797523
0.06357551 -0.13021588 0.23503634 -0.0409536 0.041606028 -0.14023036 -0.0037317132 -0.019845475
0.13321614 -0.03242346 -0.06694814 -0.04529468 -0.116783276 0.07877572 0.047928594 0.1372391
0.062895365 0.11991164 0.021465344 0.06826913 0.1923563 0.038048416 -0.033469606 0.23135778
0.22523569 -0.10138607 -0.18354975 0.11423654 -0.29387105 -0.15593177 -0.19268501 -0.2138396
0.010198539 0.2228564 -0.08532551 -0.13076168 0.06700981 0.2502636 -0.005935001 0.37724188
-0.15794581 0.24027699 -0.108871214 -0.13409378 0.06783379 0.22045645 -0.15884817 -0.19455722
0.22360943 -0.072191246 0.30943143 0.25270694 -0.1897648 -0.21904585 -0.13706124 0.075077645
0.011160121 -0.07145993 0.23250595 -0.004255322 0.021614784 0.09202972 -0.010505643 0.043362845
0.2090701 -0.07178204 0.22314946 0.22562051 0.02512102 0.057901807 -0.18444133 0.19541167
-0.22331122 0.07678984 -0.18867107 -0.030149423 -0.051452246 0.08748537 -0.17533532 -0.21397267
0.1823735 0.0989551 -0.27704445 0.17447178 -0.15530731 -0.16626382 0.022377804 -0.2956897
-0.2072404 -0.10056475 -0.21318272 -0.1501601 -0.10846557 -0.06819995 0.0030271802 0.016082773
0.071816914 -0.06041306 0.12501429 -0.15414493 0.020849915 -0.061242487 0.13023368 -0.13962185
-0.103639804 -0.24002491 0.13665827 -0.11657673 -0.060706455 -0.13623269 -0.13216771 -0.17317076
-0.07755744 -0.2775983 -0.033830225 -0.0897432 -0.026953876 -0.023393525 0.02193575 -0.16939302
0.06342981 -0.015376727 -0.08262112 -0.119394556 0.15567409 0.014361448 -0.15496136 0.08930672
-0.15268809 0.13611372 0.046165776 -0.097492814 0.13136235 -0.030879138 0.064484596 0.074272804
0.02679448 -0.11433661 -0.019929936 0.066648714 0.08472638 0.017801588 0.024712833 -0.013912119
0.0030327556 0.21874817 -0.07965643 -0.11610728 0.14490794 -0.13404955 -0.09867712 0.03659516
-0.059848573 0.090734765 0.060001694 0.11859488 0.20230326 -0.059929386 0.1269928 -0.023748152
-0.02050356 0.09259995 -0.005872779 0.13654563 0.12249963 -0.09067598 0.094189204 -0.18086441
0.05673084 0.09697507 -0.062260523 -0.046836186 0.07188541 0.022492766 0.118647136 -0.023233654
0.10233345 0.16413893 0.040455274 0.09187184 0.004031976 -0.009426899 -0.011339972 -0.10154473
-0.0045347465 -0.21361922 0.0774218 -0.06068391 -0.007872256 -0.021060167 0.014252703 0.03051528
-0.10513639 0.028665429 -0.08657499 -0.106626585 0.13365164 -0.302541 -0.08680026 0.0145025635
0.123596296 0.05346464 -0.07600578 -0.16139631 -0.06153762 0.06019958 0.12655813 0.10048172
0.063148245 -0.12665188 0.23757319 -0.01805344 0.034888584 0.012162244 -0.07653823 0.08187901
0.08524424 -0.21942946 -0.14436391 0.034352086 -0.25297448 -0.1476997 -0.01748941 -0.07797978
0.064212665 0.088177495 0.1982059 0.02002016 0.26259902 -0.13077441 0.13333416 0.3275177
0.005654261 0.08215479 -0.0025413183 -0.10397356 0.067103125 0.09198958 -0.15650836 -0.05244371
0.30170158 -0.09130728 0.11297724 0.22799127 -0.17460895 -0.014617379 -0.13371782 0.26898253
00000000: d878 db3d b527 2bbe 8335 15be 2a30 94bd
00000010: 8efc d7bb e175 41bd ad47 2dbe fd10 383e
00000020: e133 823d 5057 05be 5ead 703e f6be 27bd
00000030: 156b 2a3d 8c98 0fbe c28f 74bb fa92 a2bc
00000040: d069 083e 76ce 04bd 1b1c 89bd ea86 39bd
00000050: 122c efbd 2a55 a13d c650 443d 6888 0c3e
00000060: 49cf 803d 3c94 f53d 17d8 af3c b0d0 8b3d
00000070: 0df9 443e a8d8 1b3d 6d17 09bd 0ee9 6c3e
00000080: 2fa4 663e 80a3 cfbd 77f4 3bbe d9f4 e93d
00000090: 4476 96be 94ac 1fbe 384f 45be c5f8 5abe
000000a0: c617 273c 7834 643e 24bf aebd 64e6 05be
000000b0: 703c 893d 8d22 803e 667a c2bb d925 c13e
000000c0: 8cbc 21be 2c0b 763e dff7 debd e14f 09be
000000d0: 71ec 8a3d 56bf 613e 18a9 22be 023a 47be
000000e0: dff9 643e 01d9 93bd cc6d 9e3e ce62 813e
000000f0: b451 42be 8e4d 60be c859 0cbe 4fc2 993d
00000100: f1d8 363c 9559 92bd 0a16 6e3e 3a70 8bbb
00000110: 7d11 b13c 147a bc3d dc1f 2cbc 3d9d 313d
00000120: 7916 563e 7602 93bd 4b81 643e 1009 673e
00000130: 99ca cd3c 722a 6d3d 30de 3cbe ff19 483e
00000140: b2ab 64be fe43 9d3d fd32 41be ecfb f6bc
00000150: 97bf 52bd 882b b33d 1a8b 33be a71b 5bbe
00000160: 1ec0 3a3e f9a8 ca3d c5d8 8dbe bba8 323e
00000170: e108 1fbe 1041 2abe a851 b73c a464 97be
00000180: d436 54be e4f4 cdbd 924c 5abe 92c3 19be
00000190: 3223 debd 6aac 8bbd a863 463b 05c0 833c
000001a0: bf14 933d af73 77bd bf03 003e 2bd8 1dbe
000001b0: 71cd aa3c 67d9 7abd fa5b 053e 08f9 0ebe
000001c0: 1b41 d4bd 17c9 75be 25f0 0b3e c8bf eebd
000001d0: 55a7 78bd 9580 0bbe f956 07be ad53 31be
000001e0: 6fd6 9ebd 5d21 8ebe 9091 0abd 48cb b7bd
000001f0: 60ce dcbc c7a3 bfbc 9ab2 b33c 5d75 2dbe
00000200: 7de7 813d abee 7bbc 4335 a9bd 2285 f4bd
00000210: 0769 1f3e 474c 6b3c 31ae 1ebe 71e6 b63d
00000220: 445a 1cbe 6561 0b3e 5318 3d3d 50aa c7bd
00000230: da83 063e 3ff6 fcbc 8010 843d 571c 983d
00000240: 1980 db3c 5029 eabd 1b44 a3bc 1f7f 883d
00000250: 0685 ad3d a3d4 913c 9172 ca3c a8ef 63bc
00000260: 32c1 463b 85ff 5f3e e922 a3bd a7c9 edbd
00000270: bf62 143e 4944 09be 3b17 cabd cee4 153d
00000280: c723 75bd 26d3 b93d 56c4 753d dfe1 f23d
00000290: 9628 4f3e 8478 75bd 670a 023e 7c8b c2bc
000002a0: 15f7 a7bc 0ba5 bd3d 7170 c0bb 9ed2 0b3e
000002b0: 16e1 fa3d 54b4 b9bd 45e6 c03d 8534 39be
000002c0: 995e 683d de9a c63d e404 7fbd 4dd7 3fbd
000002d0: a838 933d c042 b83c 45fd f23d 8154 bebc
000002e0: 3394 d13d 0914 283e 6eb4 253d 4e27 bc3d
000002f0: ab1e 843b 4873 1abc 4acb 39bc aff6 cfbd
00000300: 3698 94bb ffbe 5abe 528f 9e3d b18f 78bd
00000310: a3fa 00bc 5f86 acbc 2b84 693c 2efb f93c
00000320: bf51 d7bd c3d3 ea3c 3a4e b1bd 0a5f dabd
00000330: fadb 083e a7e6 9abe 56c4 b1bd 299c 6d3c
00000340: 0e20 fd3d bdfd 5a3d eba8 9bbd 1345 25be
00000350: df0e 7cbd d693 763d 7498 013e 5cc9 cd3d
00000360: de53 813d 08b1 01be 6346 733e cfe4 93bc
00000370: 55e7 0e3d 2644 473c 13c0 9cbd 2fb0 a73d
00000380: 8894 ae3d 1eb2 60be 22d4 13be c6b4 0c3d
00000390: df85 81be 973e 17be f345 8fbc ddb3 9fbd
000003a0: ee81 833d 6796 b43d 7df6 4a3e 5201 a43c
000003b0: 6173 863e bae9 05be c088 083e 66b0 a73e
000003c0: 6147 b93b c540 a83d 3f8c 26bb 17f0 d4bd
000003d0: 5d6d 893d 0865 bc3d ba43 20be 37cf 56bd
000003e0: a178 9a3e 50ff babd 9c60 e73d 8b76 693e
000003f0: b0cc 32be bb7d 6fbc 53ed 08be 14b8 893e

classifier.0.weight f4 [32, 64]
-0.55808353 -0.058640208 -0.040228326 -0.1563386 -0.11371788 -0.25728458 -0.17340317 -0.116064094
-0.08655614 -0.23903689 -0.007556463 0.08009424 0.111354984 0.05960281 0.06360471 -0.17585316
-0.11937626 -0.07211344 -0.13319331 -0.06332443 -0.06390965 -0.15134309 0.2568027 -0.096113
0.14041246 0.12389789 0.030389644 0.5197286 0.210606 0.09895447 -0.055840503 0.14376247
-0.015314218 -0.05013172 -0.16874748 -0.24589962 0.03822693 -0.3753639 0.37053153 0.17549333
0.036585167 0.62703717 -0.39143416 0.030789403 -0.17403322 0.08286159 -0.45648637 -0.079390526
-0.31736422 -0.4047595 -0.43260348 -0.20867974 -0.2770026 0.03062656 0.6312046 -0.2812633
0.56026524 0.05031591 0.7001126 0.35980663 -0.107659586 -0.16210409 -0.102157176 -0.0315778
-0.21005996 -0.26431146 -0.07083823 -0.38305193 0.02812085 0.39434466 -0.05521507 0.48704657
-0.058838524 -0.16642979 0.1597395 -0.101978004 0.27348226 0.30346763 -0.1987818 0.055691157
0.1873196 0.12985133 -0.3412142 0.00824295 0.20711936 0.237254 -0.21679273 0.04670207
-0.281138 0.22934425 -0.24211776 -0.4083516 0.07166994 -0.16528226 -0.24076161 -0.12389859
-0.139721 -0.18998797 -0.16368723 0.14594547 0.0020830852 -0.13305245 -0.09927113 -0.26541156
-0.16204585 -0.32750478 0.17027538 -0.22182837 -0.33606598 -0.33839455 -0.121312775 -0.3282553
-0.33371532 0.21952641 -0.06622374 -0.2332157 0.20506269 0.073264755 -0.18470247 0.13907295
-0.3471966 0.18700504 -0.23919673 -0.1651265 -0.18774348 -0.020401835 0.10297671 -0.4551932
0.38346604 0.14767739 -0.21145818 -0.2147493 -0.018856172 -0.0030201827 -0.20426255 -0.21872793
-0.014770748 0.17774543 -0.11740616 0.1315556 -0.20076229 0.08438443 0.577363 -0.05214243
-0.049246173 -0.2010817 -0.26544666 -0.016781306 -0.29587048 -0.16072431 0.38235947 -0.55957943
0.1784404 0.02432902 0.4255427 -0.14077707 -0.48558912 0.041934934 0.29033902 0.3810357
0.15048468 -0.25175434 -0.11993038 0.035141382 -0.06470721 -0.21124732 0.32153833 0.2532109
0.31948838 -0.3652869 0.51266307 -0.090567105 -0.07320333 0.07651289 -0.107910104 0.5218689
-0.290088 -0.31189528 0.24251564 -0.12969516 -0.13180582 0.13388301 -0.26234305 -0.16602227
-0.5789429 -0.44887424 -0.26713684 -0.324848 0.07813387 -0.085871205 0.21991614 0.41689476
0.1177589 -0.03304574 0.2789145 0.14433932 -0.19938155 -0.05407519 -0.10704641 0.014315414
-0.07309159 -0.13301438 -0.022119796 0.095706776 -0.09889398 0.14444064 0.25687987 0.11220278
-0.4494817 0.38895813 0.078854665 -0.27153152 0.041403152 0.03950562 0.21368293 -0.30718446
-0.07699682 0.076040484 0.49576682 0.22426583 -0.13044778 0.44813207 0.024158562 0.13516939
-0.00030053366 -0.22998224 -0.040876973 -0.4481358 0.12313577 -0.16177753 -0.23624203 0.01776608
-0.13542275 0.16775388 -0.3846676 -0.43181002 -0.2610024 -0.13110918 0.02654146 0.6395186
-0.0406138 -0.42344502 -0.024374874 0.057955544 -0.30906135 0.102021955 0.26563984 0.11799275
0.20334722 -0.5321143 -0.0078880545 0.2160271 -0.06608168 -0.056190956 0.06982622 0.48597
00000000: 90de 0ebf b730 70bd 75c6 24bd 3a17 20be
00000010: ebe4 e8bd ceba 83be 9a90 31be 03b3 edbd
00000020: 5844 b1bd 16c6 74be 359c f7bb 7308 a43d
00000030: 150e e43d 1322 743d 3043 823d da12 34be
00000040: 8a7b f4bd 36b0 93bd d463 08be 3db0 81bd
00000050: 10e3 82bd aff9 1abe a57b 833e e4d6 c4bd
00000060: 49c8 0f3e 2dbe fd3d b4f3 f83c ef0c 053f
00000070: 19a9 573e a4a8 ca3d 03b9 64bd 7836 133e
00000080: 7ce8 7abc eb56 4dbd 24cc 2cbe 1ccd 7bbe
00000090: d793 1c3d b22f c0be 4fb6 bd3e 86b4 333e
000000a0: 54da 153d 8285 203f 0f6a c8be 0f3a fc3c
000000b0: c435 32be 56b3 a93d 95b8 e9be 8097 a2bd
000000c0: 907d a2be a33c cfbe 347e ddbe 24b0 55be
000000d0: 49d3 8dbe 8de4 fa3c a096 213f be01 90be
000000e0: 8b6d 0f3f 0e18 4e3d 943a 333f 9338 b83e
000000f0: a17c dcbd 9dfe 25be c837 d1bd b957 01bd
00000100: f519 57be d553 87be a213 91bd 621f c4be
00000110: b25d e63c 8be7 c93e 3229 62bd 2b5e f93e
00000120: aa00 71bd 926c 2abe c092 233e d8d9 d0bd
00000130: de05 8c3e 1c60 9b3e 758d 4bbe 691c 643d
00000140: b6d0 3f3e bff7 043e a1b3 aebe 700d 073c
00000150: 1917 543e b6f2 723e eafe 5dbe ab4a 3f3d
00000160: 52f1 8fbe 38d9 6a3e b8ed 77be 7613 d1be
00000170: b1c7 923d c13f 29be 368a 76be 8bbe fdbd
00000180: 0613 0fbe 358c 42be a09d 27be bb72 153e
00000190: 5f84 083b e73e 08be aa4e cbbd 06e4 87be
000001a0: 59ef 25be b5ae a7be ab5c 2e3e fa26 63be
000001b0: d710 acbe 0d42 adbe d572 f8bd 1411 a8be
000001c0: bcdc aabe 88cb 603e 50a0 87bd 19d0 6ebe
000001d0: f4fb 513e d50b 963d a522 3dbe 2469 0e3e
000001e0: c1c3 b1be 407e 3f3e fdef 74be ec16 29be
000001f0: d43f 40be c021 a7bc 74e5 d23d 150f e9be
00000200: a955 c43e be38 173e 7e88 58be 3ee7 5bbe
00000210: 4278 9abc 42ee 45bb 342a 51be 37fa 5fbe
00000220: 0201 72bc e602 363e a472 f0bd 83b6 063e
00000230: a194 4dbe bed1 ac3d 10ce 133f 4d93 55bd
00000240: 5bb6 49bd 5ce8 4dbe a0e8 87be f378 89bc
00000250: 567c 97be ea94 24be 9fc4 c33e 9940 0fbf
00000260: 15b9 363e a74d c73c bce0 d93e dd27 10be
00000270: 239f f8be f7c3 2b3d 51a7 943e 1c17 c33e
00000280: a818 1a3e f2e5 80be 0f9e f5bd 69f0 0f3d
00000290: 3785 84bd 3851 58be aca0 a43e dca4 813e
000002a0: fb93 a33e e206 bbbe e33d 033f 3f7b b9bd
000002b0: a1eb 95bd cab2 9c3d f9ff dcbd 3399 053f
000002c0: 6a86 94be bdb0 9fbe 0556 783e cfce 04be
000002d0: 1bf8 06be a118 093e d451 86be be01 2abe
000002e0: 9a35 14bf d8d2 e5be 29c6 88be 7a52 a6be
000002f0: a704 a03d 3edd afbd b231 613e 3b73 d53e
00000300: 942b f13d f85a 07bd e2cd 8e3e b0cd 133e
00000310: ad2a 4cbe f27d 5dbd 263b dbbd 338b 6a3c
00000320: 0bb1 95bd ec34 08be 9334 b5bc ea01 c43d
00000330: ed88 cabd 3fe8 133e c285 833e 92ca e53d
00000340: 7722 e6be 8525 c73e 8e7e a13d 2e06 8bbe
00000350: 5a96 293d a5d0 213d b3cf 5a3e 4847 9dbe
00000360: 82b0 9dbd 1dbb 9b3d 26d5 fd3e f1a5 653e
00000370: 1a94 05be 9171 e53e 2de8 c53c d869 0a3e
00000380: f290 9db9 7780 6bbe 9d6e 27bd 0e72 e5be
00000390: 9b2e fc3d 02a9 25be 6ee9 71be 2c8a 913c
000003a0: 43ac 0abe acc7 2b3e 27f3 c4be 3416 ddbe
000003b0: 1ba2 85be 7c41 06be 7a6d d93c 7eb7 233f
000003c0: a85a 26bd c9cd d8be d1ad c7bc cb62 6d3d
000003d0: 4a3d 9ebe e3f0 d03d f201 883e 2fa6 f13d
000003e0: 413a 503e a538 08bf e63c 01bc 3536 5d3e
000003f0: d555 87bd 7d28 66bd 0d01 8f3d 0fd1 f83e

classifier.0.bias f4 [32]
-0.095381595 0.28034326 0.0314358 -0.054237947 -0.2038282 -0.15033995 0.12383394 0.15747851
-0.025301475 -7.3129595e-05 0.18876424 0.057598118 0.11378956 0.19539951 0.06272526 0.108455725
0.12872447 0.36118942 0.00977577 0.11231823 -0.029990876 0.2577537 0.12386279 0.15948056
0.16227378 0.39214805 0.1727859 -0.23114717 0.26893124 0.10855075 0.13139516 -0.049365852
00000000: 6d57 c3bd 2789 8f3e d3c2 003d 9c28 5ebd
00000010: 57b8 50be b7f2 19be a69c fd3d 0c42 213e
00000020: 0a45 cfbc 275d 99b8 6a4b 413e 01ec 6b3d
00000030: 800a e93d cf16 483e 1a76 803d 091e de3d
00000040: 59d0 033e d2ed b83e 8d2a 203c 1a07 e63d
00000050: 6daf f5bc 4bf8 833e c6ab fd3d df4e 233e
00000060: 192b 263e a1c7 c83e c9ee 303e d8b1 6cbe
00000070: 5bb1 893e db4f de3d 748c 063e d933 4abd

classifier.2.weight f4 [6, 32]
0.14240316 0.27967024 -0.1288393 -0.6399289 0.10849564 -0.072332524 0.23541325 0.06815238
-0.14903419 -0.13413037 0.44219586 -0.12966454 -0.054046884 0.6181064 -0.31587756 0.15649611
0.0889918 0.34624907 -0.7554417 0.1476678 -0.26973248 -0.35514745 -0.046470862 -0.28998417
0.12995006 0.39011562 -0.48917702 -0.17887034 0.25594118 0.1706827 0.30483463 0.14295775
0.62180287 -0.47739792 0.042162977 -0.88911456 0.62240744 0.352656 -0.8032932 -2.4046574
-1.4781369 -0.8859679 -0.0987863 -0.17562085 0.20757063 -0.4111807 0.19299857 0.38436043
-1.60739 -0.5891947 1.0638591 -0.6601125 0.29742026 -0.097575895 -0.049002104 0.022417773
0.26379704 -0.24829552 0.45038292 -2.702453 -0.95004976 -0.7141564 -0.91575634 -1.7620596
-1.0953131 0.12458024 0.41281632 0.047494583 -0.59482616 -1.2446202 0.2670767 -1.8283095
0.20219548 -1.143594 -1.0030433 0.5842324 -1.284266 -1.4444561 0.55491596 -1.1332699
-1.4006927 0.12039757 0.33618787 -0.39987737 0.7436699 0.48766088 0.39720386 0.24963711
0.46498954 0.1919627 0.0408077 0.44432443 -0.10019309 0.10200116 -0.79551697 -1.4818004
0.5489998 -0.37949425 -0.8705181 0.5589227 -2.542598 -0.5466222 -0.43846616 -0.58681536
-1.1345103 -1.3819842 -1.1586974 0.08693364 -0.670945 -1.174137 -0.8081405 -0.65570974
-1.7360175 -0.3154981 0.5472701 -2.5821853 -0.6687156 0.3197935 -0.76086235 0.5079667
-0.029254608 -0.8579195 0.430417 -1.268708 -1.7517253 0.5492575 0.2621526 0.51480544
-0.8336361 -0.1686103 -0.7604439 0.41141543 0.39350495 -0.46377164 0.21312898 0.2000785
0.33108243 0.47041184 -0.5843349 -1.8849612 -0.32650363 -1.1003463 1.7067003 -0.6851779
0.38860062 -0.8032769 0.58272666 -0.6846611 -0.78111947 0.040370904 -0.83140934 -0.11979169
-1.600523 -0.92603695 0.6138734 0.52743316 0.19211453 -0.07732674 -1.1922398 -0.77555984
-0.077545665 -0.030805137 0.2586417 -0.89364296 -0.20394124 -2.213655 -0.011242502 -0.042150773
0.10960549 0.41815817 0.029065084 -0.57596546 0.60725546 0.16301289 0.22256565 0.028983766
0.13461053 -0.0905311 -0.85972327 0.0023168982 0.35456377 -0.7518457 0.17810163 -1.1614623
-0.60241765 0.28170118 -1.0418997 -0.23471159 0.08673199 -0.9942695 0.033506937 0.1797803
00000000: 22d2 113e f030 8f3e 73ee 03be 61d2 23bf
00000010: f632 de3d 1323 94bd 2c10 713e 7a93 8b3d
00000020: 6b9c 18be 7959 09be 7f67 e23e c8c6 04be
00000030: 4460 5dbd 393c 1e3f b4ba a1be 8440 203e
00000040: 5541 b63d 8f47 b13e a164 41bf 3a36 173e
00000050: 601a 8abe e3d5 b5be 3b58 3ebd ce78 94be
00000060: a111 053e 3cbd c73e 6975 fabe c929 37be
00000070: b90a 833e 72c7 2e3e 4913 9c3e 8463 123e
00000080: 792e 1f3f 806d f4be 16b3 2c3d 039d 63bf
00000090: 1856 1f3f 548f b43e a0a4 4dbf e8e5 19c0
000000a0: 9733 bdbf cbce 62bf 7950 cabd f4d5 33be
000000b0: 658d 543e 4786 d2be 6ba1 453e e4ca c43e
000000c0: f5be cdbf 77d5 16bf 892c 883f 22fd 28bf
000000d0: 7847 983e dfd5 c7bd 6eb6 48bd 7aa5 b73c
000000e0: 6810 873e 2e41 7ebe 9798 e63e fdf4 2cc0
000000f0: 7636 73bf f4d2 36bf 026f 6abf 2b8b e1bf
00000100: 3833 8cbf ed23 ff3d a95c d33e ae89 423d
00000110: 8746 18bf b74f 9fbf 47be 883e 0c06 eabf
00000120: 550c 4f3e 4a61 92bf b963 80bf 4190 153f
00000130: d462 a4bf f0e3 b8bf f90e 0e3f fd0e 91bf
00000140: e649 b3bf 0093 f63d d120 ac3e babc ccbe
00000150: 2761 3e3f b0ae f93e 4e5e cb3e dfa0 7f3e
00000160: 1c13 ee3e df91 443e fa25 273d 7e7e e33e
00000170: 0932 cdbd fce5 d03d 00a7 4bbf a3ab bdbf
00000180: 408b 0c3f 124d c2be 46da 5ebf 8f15 0f3f
00000190: edb9 22c0 6fef 0bbf a37e e0be 8839 16bf
000001a0: a237 91bf dce4 b0bf 3250 94bf 440a b23d
000001b0: 0dc3 2bbf 1f4a 96bf 4ce2 4ebf 98dc 27bf
000001c0: d235 debf f888 a1be e519 0c3f 8642 25c0
000001d0: f230 2bbf f9bb a33e e0c7 42bf 1b0a 023f
000001e0: 5ca7 efbc 9da0 5bbf 9e5f dc3e 0665 a2bf
000001f0: 8938 e0bf 249c 0c3f de38 863e 4aca 033f
00000200: 2d69 55bf 2ea8 2cbe 74ac 42bf 0ba5 d23e
00000210: 7b79 c93e 7a73 edbe 7c3e 5a3e 61e1 4c3e
00000220: a383 a93e d2d9 f03e f996 15bf 6946 f1bf
00000230: 7c2b a7be 26d8 8cbf 2875 da3f d267 2fbf
00000240: a9f6 c63e 8ea3 4dbf 932d 153f f345 2fbf
00000250: 72f7 47bf f65b 253d 3ed7 54bf 5855 f5bd
00000260: f0dd ccbf c210 6dbf cf26 1d3f dc05 073f
00000270: acb9 443e 7b5d 9ebd 509b 98bf 178b 46bf
00000280: 43d0 9ebd 0e5b fcbc af6c 843e c9c5 64bf
00000290: f9d5 50be 86ac 0dc0 7932 38bc 4aa6 2cbd
000002a0: d878 e03d d418 d63e e619 ee3c 7972 13bf
000002b0: 1875 1b3f daec 263e 40e8 633e 5d6f ed3c
000002c0: 58d7 093e 5f68 b9bd d316 5cbf 1ad7 173b
000002d0: 6289 b53e f678 40bf 4660 363e ccaa 94bf
000002e0: 0b38 1abf 233b 903e f85c 85bf 3c58 70be
000002f0: 8ba0 b13d 7288 7ebf 923e 093d 5418 383e

classifier.2.bias f4 [6]
0.14476813 -0.18570295 0.052297547 -0.03180472 -0.3653107 0.03082916
00000000: 193e 143e ea28 3ebe f435 563d ab45 02bd
00000010: 010a bbbe 6f8d fc3c
