src/DARPA/baselines/multi_class_lstm/original/no_class_weights/run_20260126_1118/model.pth (torch, 194545 bytes, 8 tensors)

lstm.weight_ih_l0 f4 [256, 112]
-0.003977062 -0.011444176 0.001563855 0.06488088 0.026555778 -0.03926702 0.09453173 -0.012447627
-0.006249793 0.029305007 -0.061283324 -0.030732712 0.22247408 0.07566772 0.057120226 -0.06546478
0.14240322 0.098265745 0.27368128 0.22178422 0.04208915 0.043990944 0.15845567 0.0017628749
-0.11636508 -0.013530719 0.2463947 -0.053904008 -0.1616144 -0.13340302 0.17976654 0.025787743
0.25302595 -0.053828824 -0.16122116 0.109286636 0.07741481 0.0044729235 -0.051612966 0.11279385
-0.15640183 0.17462991 0.10177682 0.00027145442 0.2140239 0.13233174 0.24448782 -0.00884216
0.032263268 -0.115007825 -0.0046794247 -0.04049203 -0.0069061946 0.012391655 0.23749942 0.18307401
0.15922426 -0.12298025 -0.09257193 0.21570611 0.1638797 0.19667283 0.0020309691 -0.034996085
0.10570709 0.2807054 0.43515828 -0.07766669 0.027932372 -0.20329121 -0.15309793 0.10055271
-0.0045242715 -0.03398374 -0.06809408 -0.05570815 -0.021871233 -0.10637116 0.13015313 0.19314387
0.25518316 0.061272155 0.07981605 -0.012303538 0.18396233 0.16852437 0.12913175 0.06881771
0.068281285 0.102624185 -0.047823735 0.1618888 -0.0048060697 -0.107292995 0.023545586 -0.08117532
-0.015486184 0.024671696 0.15605696 0.07332806 0.091299824 0.123654 0.23688474 0.07146916
0.1749076 0.0519598 0.17380896 0.07743977 0.110351406 -0.13763805 -0.07285988 0.026940007
-0.2194878 0.11003372 -0.012880105 -0.022056505 -0.049329557 -0.085825905 -0.10588844 0.02083269
-0.11397962 -0.007457994 0.12190972 -0.039301205 0.29957756 0.026469931 -0.09364498 -0.18940428
0.1859971 0.14752902 0.23985599 0.14559804 0.089905515 -0.11035787 0.079376996 -0.05625969
-0.0019842158 -0.011378309 0.249969 -0.009359432 0.04652306 -0.060032614 -0.12050398 0.013087922
0.109036766 0.13864836 -0.032047834 0.18427546 0.17238441 0.09299183 -0.05426647 0.13115871
0.017433379 0.11428667 -0.015093387 0.14731863 0.28235555 0.06936321 -0.03211587 -0.12672259
0.032881945 0.07514477 -0.09179648 0.0833953 -0.003617948 0.057991814 0.17882752 -0.05275967
-0.012442234 0.051256873 0.12741761 0.16508849 0.10496467 0.28043112 0.14457351 0.008773976
0.0014160443 0.1497156 0.26889572 0.10855444 0.06535974 -0.0910151 0.054914985 -0.09958452
0.0065606716 -0.040732738 -0.16120732 -0.121651515 -0.050935287 0.051437914 -0.096950494 -0.0717465
-0.08873855 -0.060341522 -0.21067908 0.14544597 0.2615668 -0.15503004 0.069025986 0.13074479
-0.052647438 0.14788274 -0.05396285 0.040699705 -0.004126563 -0.10427035 -0.015034504 -0.11378848
0.0035328185 -0.04429383 0.07312203 -0.034027934 0.08372417 -0.0007257866 0.1877605 0.19118252
0.10341517 -0.07966786 0.04926755 0.07152301 -0.06719948 -0.01561368 0.08981984 0.110005125
-0.012315831 0.103279404 0.04376933 -0.095902294 -0.14270914 -0.16003437 0.08499033 -0.0030061016
0.03008076 -0.0022584635 0.10584038 0.10367678 0.20482278 0.00042947035 -0.07448245 -0.026696803
0.008743021 -0.1154932 -0.003917648 0.092745654 -0.03296173 -0.091749184 0.16445027 0.16539499
0.005284837 -0.045124624 0.25533107 -0.1169235 -0.048101585 -0.0406694 0.03570492 -0.09611654
00000000: 0452 82bb 5a80 3bbc 44fa cc3a 44e0 843d
00000010: 818b d93c 74d6 20bd da99 c13d 22f1 4bbc
00000020: 10cb ccbb 0e11 f03c 3904 7bbd 2bc3 fbbc
00000030: 3fd0 633e adf7 9a3d e6f6 693d 6612 86bd
00000040: 26d2 113e 8d3f c93d f41f 8c3e 671b 633e
00000050: ac65 2c3d d92f 343d 3442 223e 4410 e73a
00000060: d150 eebd f3af 5dbc e44e 7c3e 73ca 5cbd
00000070: 3f7e 25be cd9a 08be b814 383e d140 d33c
00000080: 9e8c 813e 9d7b 5cbd 2917 25be acd1 df3d
00000090: a88b 9e3d 9a91 923b 1e68 53bd 7600 e73d
000000a0: cd27 20be 2fd2 323e 5e70 d03d ff51 8e39
000000b0: 1529 5b3e f981 073e 045b 7a3e b5de 10bc
000000c0: 7d26 043d 3989 ebbd dc55 99bb f9da 25bd
000000d0: 5c4d e2bb 5e06 4b3c 0c33 733e c177 3b3e
000000e0: af0b 233e 12dd fbbd 5a96 bdbd 10e2 5c3e
000000f0: 14d0 273e 9a64 493e 021a 053b 0e58 0fbd
00000100: f57c d83d 9eb8 8f3e 11cd de3e b70f 9fbd
00000110: 6ed2 e43c 922b 50be b4c5 1cbe 94ee cd3d
00000120: 5740 94bb 8932 0bbd e974 8bbd 3b2e 64bd
00000130: 4d2b b3bc 1fd9 d9bd dd46 053e 82c7 453e
00000140: 5ea7 823e 83f8 7a3d 9976 a33d c794 49bc
00000150: 9f60 3c3e a791 2c3e 1d3b 043e 4df0 8c3d
00000160: 0fd7 8b3d a12c d23d d2e2 43bd 2dc6 253e
00000170: 3c7c 9dbb 6ebc dbbd ace2 c03c 3f3f a6bd
00000180: c3b9 7dbc 4c1c ca3c 65cd 1f3e 062d 963d
00000190: 67fb ba3d 4f3e fd3d ea91 723e 6c5e 923d
000001a0: fa1a 333e cdd3 543d fafa 313e be98 9e3d
000001b0: ebff e13d fdf0 0cbe 9037 95bd 4ab1 dc3c
000001c0: 69c1 60be 5c59 e13d 1307 53bc d8af b4bc
000001d0: ca0d 4abd 7ec5 afbd 0adc d8bd 51a9 aa3c
000001e0: 266e e9bd 3062 f4bb ceab f93d 4dfa 20bd
000001f0: 3b62 993e 78d7 d83c f0c8 bfbd 32f3 41be
00000200: 0676 3e3e d911 173e cf9c 753e a717 153e
00000210: 6220 b83d 4f03 e2bd 6890 a23d 9070 66bd
00000220: 9e09 02bb 166c 3abc e0f7 7f3e 4e58 19bc
00000230: f78e 3e3d c2e4 75bd caca f6bd b96e 563c
00000240: ab4e df3d d6f9 0d3e 9744 03bd b5b2 3c3e
00000250: 8a85 303e 8072 be3d 8546 5ebd 784e 063e
00000260: 72d0 8e3c 210f ea3d 414a 77bc b2da 163e
00000270: e890 903e 4c0e 8e3d ee8b 03bd 91c3 01be
00000280: 38af 063d 80e5 993d cbff bbbd 28cb aa3d
00000290: 181b 6dbb d388 6d3d 901e 373e 861a 58bd
000002a0: 83da 4bbc baf2 513d c379 023e f50c 293e
000002b0: b8f7 d63d ab94 8f3e 140b 143e b9c0 0f3c
000002c0: 909a b93a 0c4f 193e b3ac 893e ca51 de3d
000002d0: 54db 853d 2066 babd 89ee 603d f8f2 cbbd
000002e0: e7fa d63b 5fd7 26bd 8813 25be 6e24 f9bd
000002f0: 85a1 50bd 90b0 523d fb8d c6bd d4ef 92bd
00000300: 8fbc b5bd ac28 77bd 42bc 57be caef 143e
00000310: 15ec 853e 32c0 1ebe 7f5d 8d3d f6e1 053e
00000320: d7a4 57bd 936e 173e 2608 5dbd bcb4 263d
00000330: 1f38 87bb b18b d5bd 4853 76bc ef09 e9bd
00000340: dc86 673b 726d 35bd 01c1 953d e060 0bbd
00000350: 9477 ab3d b742 3eba 4a44 403e 5ac5 433e
00000360: 55cb d33d e728 a3bd c5cc 493d a87a 923d
00000370: e29f 89bd 85d0 7fbc 77f3 b73d 5e4a e13d
00000380: 57c8 49bc 2784 d33d 7847 333d 6c68 c4bd
00000390: 5822 12be 0de0 23be 690f ae3d 0402 45bb
000003a0: ed6b f63c bb02 14bb d7c2 d83d 7e54 d43d
000003b0: 10bd 513e 892a e139 418a 98bd 41b3 dabc
000003c0: e33e 0f3c b387 ecbd 9d5f 80bb 6ff1 bd3d
000003d0: e102 07bd ffe6 bbbd a765 283e 4e5d 293e
000003e0: 6d2c ad3b 99d4 38bd c1ba 823e 9775 efbd
000003f0: 2b06 45bd f594 26bd 523f 123d c0d8 c4bd

lstm.weight_hh_l0 f4 [256, 64]
0.008898755 0.13418867 -0.083968535 -0.11881193 0.124658465 0.036230855 0.05802691 0.06907394
-0.090056546 0.11937499 0.049000517 0.055259377 0.17288224 0.03974699 0.10685087 -0.07001831
0.071182385 0.00032975577 -0.10068676 -0.101844236 0.16701874 -0.11928305 0.16910987 0.054766264
-0.05684994 -0.1344775 -0.04574222 -0.027241671 0.07714026 0.015484326 -0.056108255 0.021527847
0.07323434 0.031785317 0.06425217 0.06642769 -0.04527951 -0.1150871 0.023582166 -0.13749191
0.11527768 0.05127563 -0.0035026101 -0.04262755 0.12431599 -0.09743229 -0.07446926 0.13504565
0.0063262237 0.0556305 0.07637418 0.06545686 -0.022398379 -0.06763882 0.033624463 0.08248083
-0.08253391 0.0587462 0.032422725 0.07792748 0.12157075 -0.102570675 -0.03581089 0.09794655
0.01632936 -0.056770332 -0.06116335 0.028913446 -0.029382322 -0.14937009 0.07427529 0.03788596
-0.05384405 0.040750224 0.06724526 -0.029188735 -0.019871308 -0.07043168 -0.13054001 0.076323874
-0.118923195 -0.03013212 0.06433971 -0.0028762496 0.07269329 -0.0023838135 0.08694839 0.111446984
-0.05701354 0.03546535 -0.04526002 0.055606704 0.13097584 -0.1190888 0.0074109193 0.04205014
0.08452753 0.019945148 -0.10981939 -0.009846934 0.08985126 0.05232781 0.11285847 0.012397707
0.039179042 0.049425703 -0.048417002 -0.07374302 -0.04635573 -0.018494245 -0.001854219 -0.018013077
-0.15732872 0.083482794 0.01817436 0.010654768 0.050118405 -0.06132889 -0.098523475 0.06629554
-0.08071499 0.022748385 -0.16901074 0.07039831 -0.02358404 0.035471696 -0.040427297 0.0634535
-0.02387048 0.05561004 -0.12501815 0.036883395 0.15923144 0.10503147 -0.081916325 -0.041456856
0.06519328 0.14527057 0.013494993 0.0039468054 0.007991384 -0.11277551 -0.050888523 -0.045985147
0.008468417 0.056532335 -0.13491346 0.08558434 -0.040066022 0.08443956 -0.0048565646 -0.10575367
-0.13716428 -0.113229625 0.11515897 0.004735348 0.15209557 -0.062659375 0.0006969756 0.0873996
0.0067404257 -0.096539855 0.018229514 0.03389196 -0.10045894 0.03380426 -0.029334031 0.004993025
-0.1521729 -0.040762004 -0.073473416 -0.0016475944 0.16387 -0.02507293 -0.095620155 -0.031068295
-0.14494358 -0.054290563 0.082093686 -0.054494377 -0.06635796 -0.050184738 0.07795542 0.06285106
-0.09601343 -0.08856748 -0.03096304 -0.08885887 -0.0002461999 -0.053790852 -0.06522777 0.028289605
0.017814945 0.14627832 -0.10557169 0.043363705 0.030982269 -0.19874042 -0.008698913 0.0014362802
0.13974206 0.17659186 0.041938394 0.0044402443 0.07859262 -0.20123497 0.021639284 -0.15649498
-0.17611997 -0.07348324 -0.08369323 -0.009374281 0.08346013 -0.032577515 0.0041046045 0.16940366
-0.009969409 0.19356625 0.2030244 -0.006731855 0.10833724 -0.078436755 -0.18675847 -0.05489802
0.14653109 0.004623205 -0.0070076515 -0.01003404 -0.06658066 0.15501255 0.02293335 0.057443075
-0.20128255 -0.09346434 0.08971951 0.009636646 0.1835637 -0.026970726 0.17201568 0.09337029
-0.08741027 -0.104499966 -0.031150319 0.12425739 0.046889983 0.07646305 -0.027878955 0.09380675
-0.005183735 -0.06077305 -0.060950853 0.060889717 0.11637182 -0.05477884 -0.19270748 -0.17829098
00000000: 15cc 113c c168 093e b2f7 abbd ab53 f3bd
00000010: f04c ff3d ce66 143d a0ad 6d3d a376 8d3d
00000020: 916f b8bd e07a f43d c4b4 483d a857 623d
00000030: 0b08 313e bdcd 223d a1d4 da3d c265 8fbd
00000040: 12c8 913d 12e3 ac39 dc34 cebd b693 d0bd
00000050: f606 2b3e ac4a f4bd 232b 2d3e 9752 603d
00000060: 7cdb 68bd 78b4 09be 325c 3bbd ed29 dfbc
00000070: b6fb 9d3d f8b1 7d3c c5d1 65bd 2b5b b03c
00000080: e3fb 953d 5231 023d a496 833d 3e0b 883d
00000090: 0277 39bd c9b2 ebbd 632f c13c aeca 0cbe
000000a0: b416 ec3d 6506 523d 0c8c 65bb 3a9a 2ebd
000000b0: 6299 fe3d 958a c7bd 5783 98bd 6849 0a3e
000000c0: 364c cf3b cfdc 633d 116a 9c3d 3f0e 863d
000000d0: ce7c b7bc 3986 8abd ceb9 093d b6eb a83d
000000e0: 8a07 a9bd db9f 703d b1cd 043d 7198 9f3d
000000f0: 16fa f83d 9310 d2bd 71ae 12bd 3398 c83d
00000100: 26c5 853c 0288 68bd 6c86 7abd e4db ec3c
00000110: 32b3 f0bc 79f4 18be a51d 983d 4f2e 1b3d
00000120: 948b 5cbd b5e9 263d e2b7 893d 371d efbc
00000130: 27c9 a2bc 7c3e 90bd 48ac 05be b14f 9c3d
00000140: 018e f3bd a3d7 f6bc 8ac4 833d 767f 3cbb
00000150: 38e0 943d c139 1cbb ff11 b23d 513e e43d
00000160: 0887 69bd 1d44 113d 9262 39bd dbc3 633d
00000170: 881e 063e d4e4 f3bd 4cd7 f23b c53c 2c3d
00000180: c51c ad3d 0264 a33c fde8 e0bd 0955 21bc
00000190: f003 b83d b055 563d 5722 e73d c11f 4b3c
000001a0: 347a 203d 9b72 4a3d e850 46bd 9506 97bd
000001b0: 82df 3dbd 3e81 97bc 4409 f3ba 2990 93bc
000001c0: c81a 21be 07f9 aa3d 65e2 943c 5691 2e3c
000001d0: f548 4d3d 0134 7bbd adc6 c9bd f5c5 873d
000001e0: e74d a5bd d25a ba3c 2711 2dbe fd2c 903d
000001f0: 5133 c1bc c54a 113d 1897 25bd e9f3 813d
00000200: 068c c3bc 5ac7 633d c204 00be 0b13 173d
00000210: 910d 233e bd1a d73d bfc3 a7bd aace 29bd
00000220: 0e84 853d cfc1 143e 1a1a 5d3c 3454 813b
00000230: 4bee 023c d9f6 e6bd 7c70 50bd ec5a 3cbd
00000240: 1ebf 0a3c 738e 673d c126 0abe d846 af3d
00000250: 451c 24bd a6ee ac3d d123 9fbb 6195 d8bd
00000260: cb74 0cbe efe4 e7bd 77d8 eb3d fa2a 9b3b
00000270: f1be 1b3e 8f53 80bd 3eb5 363a 90fe b23d
00000280: cade dc3b b0b6 c5bd 1056 953c 4cd2 0a3d
00000290: 6bbd cdbd 5676 0a3d ec4d f0bc 889c a33b
000002a0: 36d3 1bbe 0ff6 26bd 3b79 96bd 18f4 d7ba
000002b0: 8acd 273e bf65 cdbc 80d4 c3bd f082 febc
000002c0: 176c 14be c85f 5ebd bc20 a83d 7f35 5fbd
000002d0: afe6 87bd 838e 4dbd 17a7 9f3d 0eb8 803d
000002e0: b0a2 c4bd de62 b5bd 34a6 fdbc a4fb b5bd
000002f0: 6414 81b9 cc53 5cbd 2396 85bd 9abf e73c
00000300: a6f0 913c fcc9 153e f835 d8bd 249e 313d
00000310: 87ce fd3c 9c82 4bbe e385 0ebc 9141 bc3a
00000320: 8b18 0f3e 7fd4 343e 98c7 2b3d 787f 913b
00000330: 2bf5 a03d 8a10 4ebe de44 b13c 3840 20be
00000340: cb58 34be 627e 96bd 5b67 abbd 9696 19bc
00000350: 25ed aa3d 0070 05bd eb7f 863b 2778 2d3e
00000360: bb56 23bc 3b36 463e a1e5 4f3e e596 dcbb
00000370: eadf dd3d 73a3 a0bd 9d3d 3fbe bfdc 60bd
00000380: 3f0c 163e 417e 973b 71a0 e5bb d065 24bc
00000390: 715b 88bd 9cbb 1e3e b9de bb3c 6e49 6b3d
000003a0: 031d 4ebe 3b6a bfbd ddbe b73d 06e3 1d3c
000003b0: 1ff8 3b3e b6f1 dcbc e124 303e ec38 bf3d
000003c0: 2804 b3bd 1404 d6bd f42e ffbc a97a fe3d
000003d0: b60f 403d a998 9c3d 6862 e4bc c11d c03d
000003e0: 52dc a9bb 29ed 78bd 9aa7 79bd 7f67 793d
000003f0: 5954 ee3d c75f 60bd 1c55 45be e991 36be

lstm.bias_ih_l0 f4 [256]
0.05374788 0.0430003 -0.07835741 -0.03641102 0.0069067525 -0.04203464 0.17105351 0.14011845
0.1613302 -0.042368677 0.13006961 -0.061429612 -0.07576077 0.04490274 -0.0838399 -0.07582422
0.13843767 0.007969475 -0.0362222 0.019054797 -0.038241647 -0.001804563 0.16137037 -0.05246323
0.01768278 -0.05021947 -0.06237515 -0.007845661 0.10269766 0.035901256 0.035254437 -0.050952256
-0.03086538 -0.05626348 -0.08038481 0.04960038 -0.05720884 0.16983895 0.015868891 0.08210481
-0.08354596 -0.08229132 -0.05679554 0.016161572 0.1172959 0.1874561 0.14624503 0.0516997
0.06931979 -0.04406136 0.09709487 0.008802156 0.13007629 -0.0328866 0.02448894 0.049099196
0.03749247 0.0030431757 0.13575752 0.09161674 0.1958684 -0.022331443 0.0034521245 -0.044523776
0.09015729 -0.06538373 -0.0036403735 -0.044487152 0.098443255 -0.07279765 0.16348533 -0.013454413
0.08481345 0.052686274 0.05973864 -0.025847202 0.09503173 -0.05998197 0.09638488 0.070375055
0.095934555 -0.013638148 0.10454237 0.09361281 0.021941498 0.03650559 0.02769699 0.116205275
0.04906071 0.12533182 0.09059453 0.0004946421 -0.010928268 0.1150124 0.14280733 -0.08066254
0.06988373 -0.0687384 -0.05673127 -0.0054822327 -0.09239169 -0.02820922 0.030500082 0.07004353
-0.094095595 -0.022661822 0.09619704 0.071577385 0.07137746 0.15594938 -0.07840792 0.059819955
0.105590254 0.12671414 0.0853601 0.016884936 -0.007333657 0.013056616 0.023376295 0.041843627
0.09191344 0.0039008812 0.13144824 0.10109765 0.035129394 0.06608016 0.073485136 0.07423863
0.012618714 0.0075243902 -0.10687946 -0.042640075 0.12672861 0.053167917 0.073151246 -0.033160973
0.02523003 0.072097555 -0.056681067 0.038072117 -0.019345973 -0.08648506 0.045290448 -0.13365063
-0.11084953 -0.104757056 -0.024885844 -0.035442825 0.003149416 0.008905406 0.070879586 0.123127095
0.064974025 0.08090416 0.08266592 0.12774755 0.07065403 0.02196641 0.10384137 0.11385984
0.002260709 -0.06892086 0.022276683 -0.1136782 -0.12965566 -0.06747215 -0.030415768 -0.0028119904
-0.12694046 0.034946132 -0.03620346 0.05384952 -0.076520965 -0.09343042 0.13327634 -0.021001108
-0.011261567 -0.05937755 -0.0444031 0.09071199 0.08693161 0.0108248 -0.082695425 0.080780886
0.063797675 0.028501106 -0.016820023 0.049547676 0.09721189 -0.05476236 -0.11483436 -0.06542485
-0.086163335 -0.005044803 0.14483042 0.017853938 0.0063061244 0.052847307 -0.029153064 0.11371694
0.05835792 0.1737689 0.029041288 0.11082498 -0.034336172 0.14887477 -0.08131958 -0.072209045
0.11210277 -0.0031694635 0.048887465 0.0493075 -0.006322922 0.08930477 0.14248186 -0.0027312627
0.1591618 0.12718844 0.11558187 -0.05115344 0.17073807 -0.049135495 -0.056441482 -0.05166561
0.11421504 -0.015958007 -0.10428147 0.1540237 0.00417323 0.017368762 0.06757066 0.029235844
0.09192194 0.15383911 -0.052956734 0.09383156 0.0954974 0.10945304 0.07863983 0.17457028
0.15811674 -0.027824234 0.17481604 0.053267222 0.05614694 -0.078692086 0.09746517 0.056188233
-0.05371038 0.086340144 0.09821695 0.08641343 0.054193214 0.067455254 0.1235931 -0.009541926
00000000: bd26 5c3d 1521 303d da79 a0bd b923 15bd
00000010: 0a52 e23b 842c 2cbd a728 2f3e 367b 0f3e
00000020: be33 253e c78a 2dbd f830 053e 9e9d 7bbd
00000030: 7628 9bbd efeb 373d 41b4 abbd bb49 9bbd
00000040: 9bc2 0d3e 6792 023c bb5d 14bd ce18 9c3c
00000050: 46a3 1cbd 1687 ecba 463e 253e afe3 56bd
00000060: 7adb 903c eeb2 4dbd 167d 7fbd 168b 00bc
00000070: 2753 d23d 320d 133d f566 103d 50b3 50bd
00000080: 65d9 fcbc 8974 66bd cba0 a4bd c529 4b3d
00000090: d153 6abd 43ea 2d3e 7aff 813c 9126 a83d
000000a0: 251a abbd 5a88 a8bd 71a2 68bd 4665 843c
000000b0: d538 f03d 7ef4 3f3e 42c1 153e 11c3 533d
000000c0: 89f7 8d3d af79 34bd add9 c63d eb36 103c
000000d0: b832 053e 19b4 06bd 089d c83c 3d1c 493d
000000e0: b491 193d 0470 473b 0504 0b3e 8fa1 bb3d
000000f0: ba91 483e 6ef0 b6bc 0a3d 623b 905e 36bd
00000100: 63a4 b83d e8e7 85bd 5593 6ebb 2938 36bd
00000110: 9e9c c93d ef16 95bd b368 273e e66f 5cbc
00000120: adb2 ad3d 90cd 573d 81b0 743d 83bd d3bc
00000130: ff9f c23d a7af 75bd 7065 c53d cc20 903d
00000140: 5679 c43d 8a72 5fbc 4f1a d63d 13b8 bf3d
00000150: a8be b33c e386 153d cce4 e23c 08fd ed3d
00000160: e2f3 483d fc56 003e a089 b93d dfaa 013a
00000170: 7a0c 33bc 9f8b eb3d 163c 123e 6732 a5bd
00000180: 331f 8f3d b8c6 8cbd 0c5f 68bd 4da4 b3bb
00000190: db37 bdbd 0617 e7bc 4fdb f93c fb72 8f3d
000001a0: 31b5 c0bd 49a5 b9bc f402 c53d 2a97 923d
000001b0: 592e 923d 32b1 1f3e 5594 a0bd c505 753d
000001c0: b43f d83d 5ac1 013e 47d1 ae3d 4752 8a3c
000001d0: 2c4f f0bb 6beb 553c a57f bf3c 3964 2b3d
000001e0: 1d3d bc3d eda5 7f3b 5e9a 063e 490c cf3d
000001f0: d7e3 0f3d 0955 873d 607f 963d 6c0a 983d
00000200: b9be 4e3c 298f f63b 9ee3 dabd 5ca7 2ebd
00000210: 25c5 013e 9ac6 593d 52d0 953d cdd3 07bd
00000220: 35af ce3c e2a7 933d 682a 68bd 82f1 1b3d
00000230: 727b 9ebc 141f b1bd 7a82 393d b6db 08be
00000240: 1405 e3bd de8a d6bd 66dd cbbc 7f2c 11bd
00000250: 6f66 4e3b fbe7 113c 5129 913d 0f2a fc3d
00000260: 1a11 853d 15b1 a53d c04c a93d 41d0 023e
00000270: 0fb3 903d e7f2 b33c c9aa d43d 592f e93d
00000280: 6728 143b 6126 8dbd 977d b63c 1ed0 e8bd
00000290: 74c4 04be d72e 8abd 7d2a f9bc 5f49 38bb
000002a0: aefc 01be ad23 0f3d 144a 14bd 5091 5c3d
000002b0: 06b7 9cbd 7358 bfbd 9879 083e 840a acbc
000002c0: 6f82 38bc e035 73bd 06e0 35bd 35c7 b93d
000002d0: 3309 b23d 805a 313c 385c a9bd 7370 a53d
000002e0: 5ba8 823d 277b e93c 25ca 89bc 81f2 4a3d
000002f0: 0717 c73d 7f4e 60bd 472e ebbd 77fd 85bd
00000300: 6776 b0bd e04e a5bb 6d4e 143e 6c42 923c
00000310: 9ba3 ce3b 6b76 583d 68d2 eebc 6de4 e83d
00000320: b708 6f3d 79f0 313e ffe7 ed3c 35f8 e23d
00000330: 16a4 0cbd a172 183e e18a a6bd 56e2 93bd
00000340: 2396 e53d c6b6 4fbb 393e 483d a9f6 493d
00000350: 8430 cfbb 6be5 b63d c4e6 113e fcfe 32bb
00000360: 50fb 223e b03d 023e 30b6 ec3d 4586 51bd
00000370: f6d5 2e3e 4d42 49bd 2f2f 67bd 529f 53bd
00000380: 93e9 e93d 5eba 82bc 8691 d5bd 64b8 1d3e
00000390: 97bf 883b ef48 8e3c 7c62 8a3d 0280 ef3c
000003a0: 9241 bc3d 0088 1d3e 29e9 58bd c32a c03d
000003b0: 2494 c33d ea28 e03d eb0d a13d 8dc2 323e
000003c0: 5be9 213e a6ef e3bc fa02 333e bb2e 5a3d
000003d0: 55fa 653d 5129 a1bd d29b c73d a225 663d
000003e0: 6aff 5bbd 1ad3 b03d f825 c93d 86f9 b03d
000003f0: b4f9 5d3d fb25 8a3d 611e fd3d bd55 1cbc

lstm.bias_hh_l0 f4 [256]
-0.027997665 -0.06057251 0.12001686 0.02085327 0.13412541 0.08901905 0.009305692 0.13455364
-0.030832577 -0.014728225 0.059189465 0.030456569 0.08440313 0.15159038 0.15044291 -0.0038990353
-0.08321708 0.06330217 0.11452559 0.029331848 0.115090854 -0.081767134 0.015111956 0.0027694453
0.11131607 0.04065512 -0.0029467219 0.036474366 0.06709535 0.028887745 0.03374404 0.116205096
-0.038361117 0.03949478 0.09628282 0.020633394 0.13284533 -0.011629498 -0.04485599 0.11617575
0.0012869044 0.14193715 -0.06962729 -0.006343144 -0.054823518 0.084429495 0.044886257 -0.03775509
0.042525895 0.12612537 0.15133594 0.029282773 -0.07465718 0.07297639 0.18924187 0.017732114
0.14852168 0.21344931 0.009691621 0.16727838 0.21731314 0.038444933 0.056056563 -0.07009655
-0.011842777 -0.019749397 -0.018523699 0.084336594 0.050090466 0.06626225 0.06512745 0.06608433
-0.09816601 0.011646628 0.08674178 0.124282785 0.1278179 -0.057509173 -0.062340245 0.002306687
-0.016178677 0.026038235 0.18815653 0.018717853 -0.07344114 -0.08462071 -0.030837137 -0.02409194
-0.077196464 0.056305107 0.058644686 0.07162037 0.11589489 -0.09609594 -0.039927382 0.12549002
0.090322606 0.09069827 -0.11169804 0.05926766 0.11206267 0.059660804 0.03588795 0.21558961
-0.07025748 0.0009870507 0.057758294 0.060732894 -0.082728066 0.026343545 -0.03732217 0.059177328
-0.108834594 -0.057675652 0.08769149 -0.010308729 -0.017155316 0.00798802 0.04245802 0.11501086
0.0016430065 -0.0666347 -0.008471568 -0.08600653 -0.09802052 0.121287994 -0.009714052 0.022520922
0.015729928 0.024772316 -0.10171436 0.1021679 0.010758325 -0.095818944 0.064773224 0.037521783
-0.018316036 -0.00041858488 -0.045860663 -0.017294269 -0.026484475 0.10169144 -0.068127565 -0.11759162
0.04484267 -0.027427768 -0.12040292 0.09435072 0.08103237 0.025237978 -0.06465422 -0.028128883
0.001076675 -0.07963724 0.040706567 -0.036331482 -0.037035935 -0.034835495 -0.05971402 0.12888214
-0.02752889 -0.11526256 0.008976229 -0.06552999 -0.019567478 0.04728278 0.034816913 -0.06182392
0.05055817 -0.106919214 -0.06733562 0.001228648 0.026436744 -0.06133376 0.12447724 -0.09419787
-0.0108885085 0.050466947 -0.070921704 0.037523173 -0.05780498 -0.009325594 -0.03458469 0.02573418
-0.029026248 0.05603619 0.087693654 0.12090627 0.09737558 -0.09322958 -0.035606198 0.05492259
0.15157393 -0.022526987 0.12612455 -0.04174085 -0.070964396 0.04781845 0.030697152 0.07186853
0.13236707 0.05787952 -0.049244527 0.0042894105 0.14508039 0.0154190725 -0.05860345 -0.0051443456
0.03504952 0.22379118 -0.0013536153 -0.098367244 0.07390776 -0.02894056 0.025040751 -0.019393196
-0.073823035 0.06965078 -0.0795276 -0.08292396 0.19831802 0.013372977 -0.057602372 -0.08874886
-0.015255392 0.07863361 0.07907498 0.009139448 0.11865691 0.12614909 0.024198292 0.031587183
0.108558536 0.12833764 0.12344774 0.04506196 0.09327774 0.030220415 -0.022191986 0.091004014
0.051126413 0.1201287 0.15192544 0.11314803 0.005052941 0.054687396 0.077001005 -0.076843105
0.010304598 0.15147793 -0.045914892 0.1417247 0.054103717 0.1608876 -0.08350029 0.050375585
00000000: 5c5b e5bc e11a 78bd 66cb f53d 7ad4 aa3c
00000010: 2c58 093e 9f4f b63d e776 183c 6ec8 093e
00000020: 9a94 fcbc a74e 71bc a770 723d 0e80 f93c
00000030: 8cdb ac3d 823a 1b3e b50d 1a3e f586 7fbb
00000040: b76d aabd 91a4 813d 648c ea3d 5849 f03c
00000050: c1b4 eb3d 8775 a7bd 2398 773c 957f 353b
00000060: aef9 e33d fc85 263d ca1d 41bb 2566 153d
00000070: 4969 893d fea5 ec3c 3137 0a3d f0fc ed3d
00000080: 8c20 1dbd 47c5 213d ed2f c53d 5d07 a93c
00000090: 9b08 083e a689 3ebc eaba 37bd 8ded ed3d
000000a0: 59ad a83a f957 113e c198 8ebd 26da cfbb
000000b0: a08e 60bd 5fe9 ac3d a7da 373d 15a5 1abd
000000c0: a22f 2e3d 0227 013e cff7 1a3e 6de2 ef3c
000000d0: dde5 98bd a574 953d 9fc8 413e f042 913c
000000e0: 1116 183e 7592 5a3e 9bc9 1e3c 064b 2b3e
000000f0: 5687 5e3e 6f78 1d3d 919b 653d c88e 8fbd
00000100: 3508 42bc 7dc9 a1bc 03bf 97bc aab8 ac3d
00000110: a92b 4d3d 81b4 873d 8a61 853d 3957 873d
00000120: 430b c9bd 80d1 3e3c ada5 b13d f987 fe3d
00000130: b2e2 023e bd8e 6bbd 7c58 7fbd c92b 173b
00000140: 2589 84bc 234e d53c 1bac 403e 2f56 993c
00000150: 4f68 96bd 9f4d adbd 2a9e fcbc 765c c5bc
00000160: 2e19 9ebd 2fa0 663d 6935 703d b3ad 923d
00000170: 4d5a ed3d f3cd c4bd e58a 23bd 7580 003e
00000180: 0ffb b83d 04c0 b93d f1c1 e4bd a5c2 723d
00000190: 1d81 e53d e35e 743d 3eff 123d 86c3 5c3e
000001a0: 27e3 8fbd ed5f 813a f693 6c3d 0ec3 783d
000001b0: 556d a9bd 6bce d73c 22df 18bd ed63 723d
000001c0: ace4 debd 4e3d 6cbd 9997 b33d f1e5 28bc
000001d0: 4e89 8cbc 2fe0 023c 76e8 2d3d d08a eb3d
000001e0: 265a d73a c677 88bd 55cc 0abc 3124 b0bd
000001f0: fbbe c8bd d765 f83d b027 1fbc cc7d b83c
00000200: 0ddc 803c 50ef ca3c 9e4f d0bd 673d d13d
00000210: b043 303c b93c c4bd d3a7 843d 71b0 193d
00000220: 830b 96bc 8375 dbb9 64d8 3bbd b6ac 8dbc
00000230: f8f5 d8bc 9a43 d03d 7786 8bbd e0d3 f0bd
00000240: f3ac 373d 33b0 e0bc ce95 f6bd f33a c13d
00000250: 4df4 a53d e0bf ce3c 6f69 84bd 8b6e e6bc
00000260: 381f 8d3a d918 a3bd eebb 263d 52d0 14bd
00000270: feb2 17bd aaaf 0ebd b096 74bd aef9 033e
00000280: 4484 e1bc c70e ecbd 0811 133c 9634 86bd
00000290: fa4b a0bc 97ab 413d 2e9c 0e3d 143b 7dbd
000002a0: 1516 4f3d 76f8 dabd 42e7 89bd 960a a13a
000002b0: df91 d83c 1c39 7bbd eced fe3d d0ea c0bd
000002c0: b765 32bc 6eb6 4e3d 663f 91bd e6b1 193d
000002d0: eac4 6cbd 60ca 18bc ada8 0dbd 7dd0 d23c
000002e0: 74c8 edbc 3486 653d bb98 b33d b59d f73d
000002f0: d96c c73d 26ef bebd ced7 11bd 82f6 603d
00000300: 3236 1b3e 848a b8bc cb26 013e 74f8 2abd
00000310: c855 91bd 47dd 433d 9878 fb3c cf2f 933d
00000320: 3c8b 073e 1313 6d3d a1b4 49bd 2f8e 8c3b
00000330: f48f 143e 47a0 7c3c 2c0a 70bd e691 a8bb
00000340: 1690 0f3d 8429 653e cb6b b1ba c474 c9bd
00000350: f45c 973d c114 edbc 4322 cd3c 7bde 9ebc
00000360: 8830 97bd 11a5 8e3d 5edf a2bd 0ad4 a9bd
00000370: e113 4b3e 551a 5b3c 77f0 6bbd f6c1 b5bd
00000380: c0f1 79bc a80a a13d 10f2 a13d a0bd 153c
00000390: 6502 f33d 3a2d 013e 7f3b c63c 9061 013d
000003a0: f053 de3d f16a 033e 2bd2 fc3d e492 383d
000003b0: 6608 bf3d ce90 f73c f8cb b5bc 5060 ba3d
000003c0: ee69 513d 0906 f63d 5892 1b3e 28ba e73d
000003d0: 2493 a53b e4ff 5f3d b4b2 9d3d eb5f 9dbd
000003e0: 9ed4 283c 081d 1b3e 4111 3cbd 4820 113e
000003f0: dc9b 5d3d b8bf 243e 3302 abbd a156 4e3d

classifier.0.weight f4 [32, 64]
0.052689854 0.017606203 -0.0608695 0.0019083982 -0.07077701 0.057312287 -0.120290235 -0.050604016
-0.06230343 -0.12246295 -0.08209852 0.015435172 0.07666773 -0.082442366 -0.10119468 -0.0067041004
-0.11471742 -0.0860995 0.038107537 0.094237335 -0.09155338 -0.067975625 0.108441316 -0.06596123
0.10864564 0.04568881 -0.12183338 0.018670164 -0.020448754 0.029322382 0.049267706 -0.083410844
0.037477024 0.051640898 0.095120415 0.026484733 0.0052147387 -0.060986184 -0.058954187 0.07127695
0.13972545 0.08772897 -0.06359741 0.061956592 -0.011931433 -0.05413546 -0.03130446 0.048267964
0.10469716 -0.040535524 0.001929306 0.08399936 -0.07396909 -0.020673001 0.06115134 -0.015896393
0.0104538575 0.012138971 0.032596212 -0.11851531 -0.03710323 0.0273032 -0.021058237 0.102706656
-0.07564446 0.042477876 -0.036563236 0.059418663 0.0059382464 0.023849213 -0.10732285 -0.07525339
-0.0660642 -0.052156102 0.042064466 0.0293825 0.10551643 0.020397894 0.037266657 0.004789116
0.13589285 -0.121773265 -0.07436243 0.13299567 -0.03165615 -0.027377708 0.13179773 0.016535277
0.017368406 -0.16376571 -0.009575489 0.081953585 0.103365116 -0.028950227 -0.047883246 0.066878885
0.028369615 -0.08561503 0.10878269 -0.08263855 -0.1354802 -0.061125632 -0.06353639 -0.0944776
-0.020466205 0.03359605 -0.07213874 0.021710137 0.12598673 0.14901677 0.094941616 -0.0682527
0.08081441 -0.020980682 0.15393014 -0.022058442 -0.03988963 -0.105533384 -0.090439826 -0.083061755
-0.0053800927 0.03872382 -0.071340136 0.13760817 0.12919387 0.032683723 -0.10299999 0.027090432
0.011794965 0.14880219 -0.08380468 0.10821878 -0.06860669 -0.0129624745 0.14025088 0.095705025
-0.14468864 -0.017141065 0.1845123 0.027179178 0.006549789 -0.090079874 0.050357196 -0.03199091
0.14074028 0.23045507 -0.007650407 0.109118596 -0.2344 -0.11118614 -0.1955948 0.06154553
0.13306627 0.07504417 0.012403648 0.10347743 -0.21403891 -0.14921245 -0.034510914 -0.01772077
0.07627782 -0.017422218 -0.07172451 0.19984011 0.1018846 0.15107292 -0.06993076 0.055241343
-0.041892968 -0.023136824 -0.0296856 -0.22407764 0.06389139 -0.07310947 -0.06826057 -0.13506119
-0.104542725 0.027142147 -0.010719008 -0.040795743 -0.041660972 0.008423491 -0.08053796 0.13446939
0.023761647 -0.10677623 0.03042357 -0.12716123 -0.14456029 0.07042201 0.03892727 0.021463132
-0.034912497 0.09770769 0.033886448 0.06519561 0.08254399 0.07376857 -0.033974115 -0.09599252
-0.07973566 0.047988527 -0.061181795 -0.0017851038 0.010965178 0.010352312 0.116364494 -0.03604482
-0.012130644 0.09300245 -0.043202225 0.056223515 -0.02378223 0.032722227 -0.116297245 -0.11996482
0.017916448 0.0055844495 -0.11679321 -0.09638442 0.0062640756 0.102259964 -0.11040327 0.0368275
-0.017091144 -0.069889516 0.021644356 0.06796169 0.094862394 -0.1321179 -0.113271475 0.072572686
0.08604348 0.009437426 -0.09459867 0.117009 0.07323465 0.10752031 0.06442382 -0.057472106
0.073124796 -0.11352137 -0.11434742 -0.08404177 -0.047083285 0.03772424 -0.081633285 -0.11165862
-0.07970624 0.07114738 0.079649925 0.074661635 0.07954446 0.088701025 -0.06990172 0.028794562
00000000: 51d1 573d e23a 903c 4c52 79bd 3823 fa3a
00000010: 89f3 90bd 4ac0 6a3d ba5a f6bd 2846 4fbd
00000020: e231 7fbd dbcd fabd 4523 a8bd cee3 7c3c
00000030: f903 9d3d 8bd7 a8bd 283f cfbd 12ae dbbb
00000040: f7f0 eabd ef54 b0bd a616 1c3d 81ff c03d
00000050: 5780 bbbd ce36 8bbd 7b16 de3d ae16 87bd
00000060: 9b81 de3d 3124 3b3d c783 f9bd 2cf2 983c
00000070: 2584 a7bc 7e35 f03c efcc 493d 4ed3 aabd
00000080: 8281 193d 6885 533d 7ece c23d 83f6 d83c
00000090: 66e0 aa3b a6cc 79bd f279 71bd a6f9 913d
000000a0: 3014 0f3e 3fab b33d 5c3f 82bd 32c6 7d3d
000000b0: 0f7c 43bc 25bd 5dbd 1b39 00bd a1b4 453d
000000c0: 776b d63d 9408 26bd c4e0 fc3a db07 ac3d
000000d0: 1b7d 97bd 6d5a a9bc d479 7a3d 2739 82bc
000000e0: a846 2b3c 89e2 463c 9b83 053d 28b8 f2bd
000000f0: 8ef9 17bd f6aa df3c 5382 acbc de57 d23d
00000100: 7ceb 9abd 48fd 2d3d 55c3 15bd fc60 733d
00000110: 9f95 c23b 6d5f c33c 15cc dbbd 731e 9abd
00000120: ab4c 87bd a3a1 55bd ca4b 2c3d 92b3 f03c
00000130: 0019 d83d 7c19 a73c eca4 183d 04ee 9c3b
00000140: 7f27 0b3e 4364 f9bd 544b 98bd 0430 083e
00000150: e1a9 01bd 3747 e0bc fcf5 063e fd74 873c
00000160: 3048 8e3c 33b2 27be 83e2 1cbc 48d7 a73d
00000170: 17b1 d33d 0729 edbc 3921 44bd ccf7 883d
00000180: 6567 e83c ef56 afbd 75c9 de3d 663e a9bd
00000190: 52bb 0abe df5e 7abd 5e1f 82bd 797d c1bd
000001a0: bea8 a7bc 039c 093d 7abd 93bd 75d9 b13c
000001b0: aa02 013e da97 183e c070 c23d 12c8 8bbd
000001c0: 0682 a53d aedf abbc dd9f 1d3e e8b3 b4bc
000001d0: 4f63 23bd e321 d8bd 8438 b9bd 481c aabd
000001e0: 7d4b b0bb de9c 1e3d c71a 92bd 28e9 0c3e
000001f0: 664b 043e 5edf 053d a9f1 d2bd c1ec dd3c
00000200: ab3f 413c 9a5f 183e caa1 abbd cfa1 dd3d
00000210: aa81 8cbd 8f60 54bc ed9d 0f3e ff00 c43d
00000220: 4229 14be 6b6b 8cbc cbf0 3c3e dea6 de3c
00000230: 9d9f d63b cc7b b8bd 5943 4e3d e708 03bd
00000240: 381e 103e 6afc 6b3e 44b0 fabb 9279 df3d
00000250: 8e06 70be 8fb5 e3bd 014a 48be 2a17 7c3d
00000260: 8642 083e c2b0 993d ac38 4b3c faeb d33d
00000270: 042d 5bbe 26cb 18be 515b 0dbd 262b 91bc
00000280: 8c37 9c3d 0ab9 8ebc 4de4 92bd e3a2 4c3e
00000290: e0a8 d03d dcb2 1a3e dc37 8fbd bf44 623d
000002a0: f697 2bbd 7089 bdbc 372f f3bc 9c74 65be
000002b0: 7dd9 823d 6bba 95bd 33cc 8bbd 7b4d 0abe
000002c0: 7f1a d6bd 3559 de3c c79e 2fbc 7019 27bd
000002d0: b2a4 2abd af02 0a3c 16f1 a4bd 58b2 093e
000002e0: c9a7 c23c 7fad dabd da3a f93c 8e36 02be
000002f0: 9d07 14be 6a39 903d 3372 1f3d 73d3 af3c
00000300: 6800 0fbd f81a c83d 84cc 0a3d 4785 853d
00000310: d30c a93d fa13 973d 7128 0bbd ba97 c4bd
00000320: 734c a3bd 9e8f 443d c399 7abd 25fa e9ba
00000330: 4aa7 333c be9c 293c 8250 ee3d bca3 13bd
00000340: 9cbf 46bc 1278 be3d d1f4 30bd a14a 663d
00000350: f4d2 c2bc be07 063d 402d eebd 1eb0 f5bd
00000360: 84c5 923c c2fd b63b 4731 efbd 3265 c5bd
00000370: e042 cd3b ac6d d13d 1c1b e2bd 6fd8 163d
00000380: ba02 8cbc 3c22 8fbd 814f b13c 802f 8b3d
00000390: 3747 c23d ea49 07be e0fa e7bd fda0 943d
000003a0: 9037 b03d 6f9f 1a3c f3bc c1bd 6aa2 ef3d
000003b0: 0cfc 953d 9c33 dc3d a3f0 833d df67 6bbd
000003c0: 74c2 953d e47d e8bd fb2e eabd 171e acbd
000003d0: 67da 40bd bc84 1a3d 5a2f a7bd 46ad e4bd
000003e0: 063d a3bd b8b5 913d 801f a33d 33e8 983d
000003f0: 35e8 a23d e2a8 b53d a228 8fbd 93e2 eb3c

classifier.0.bias f4 [32]
-0.107440546 -0.03343891 0.07851681 -0.116007134 0.1084689 -0.09051302 -0.007257301 0.063576736
0.13045377 -0.1343017 -0.008660675 0.14577752 0.11650747 -0.013115386 -0.09019006 -0.009156655
0.061269693 0.031342663 0.09795449 0.13240251 0.10541633 -0.063155465 0.01890943 0.00026096572
-0.09486594 0.07885049 -0.082635485 -0.10169311 0.045100756 0.16926202 -0.043885984 0.009703948
00000000: ca09 dcbd 3df7 08bd 6ccd a03d 2695 edbd
00000010: f124 de3d e45e b9bd a7ce edbb 8534 823d
00000020: ac95 053e 6386 09be 81e5 0dbc b446 153e
00000030: 789b ee3d eae1 56bc 91b5 b8bd cb05 16bc
00000040: eef5 7a3d 2a61 003d 5d9c c83d 8694 073e
00000050: 84e4 d73d a757 81bd f3e7 9a3c 3ad2 8839
00000060: 1349 c2bd 5e7c a13d cb3c a9bd 7a44 d0bd
00000070: 92bb 383d 0653 2d3e cac1 33bd 4ffd 1e3c

classifier.2.weight f4 [6, 32]
-0.09572048 -0.09709176 -0.21020739 -0.043187536 0.20393305 0.1610311 0.17381543 0.09364315
0.10516498 0.0031281675 0.10198581 0.01684395 -0.008328235 -0.18543085 0.035616506 -0.16412441
0.16057467 0.18619892 -0.15666941 -0.08525721 0.15940362 0.16062102 -0.05242705 0.17863722
-0.14685963 0.19279683 0.26171345 -0.014136589 -0.22441946 -0.0981899 0.11371409 -0.24395664
-0.09926917 -0.34698203 0.22706334 -0.16481906 -0.18465073 -0.15979493 -0.11769555 -0.31096855
-0.09295471 -0.094565816 -0.24696475 -0.009408378 -0.07230981 -0.79807544 -0.394358 -0.101174176
-0.28494298 -0.14268038 -0.09660738 -0.099222206 -0.07368877 0.033602647 0.16567104 -0.036218718
-0.026913356 -0.18739603 -0.20339537 -0.030134276 0.15801252 0.27161744 -0.015493434 0.21152274
-0.019076416 -0.8686179 0.031255927 0.111581154 0.016013011 -0.15899329 0.0042841504 -0.17607664
-0.28747362 0.108678706 -0.022782093 -0.08532446 -0.19765732 -0.8106971 -0.088982776 -0.28096792
-0.024773186 0.014827524 0.04368029 -0.43615496 -0.12563154 -0.020177608 0.024946397 -0.1630985
0.075471945 -0.21134822 0.10763091 -0.055441424 -0.02886973 0.091771305 -0.10629611 -0.12787823
0.16917734 -0.77576655 0.1571195 -0.04631315 -0.025223745 -0.07730617 0.039526314 -0.022421096
-0.0020716225 -0.030519187 -0.19289944 -0.256445 -0.049921114 -0.7546422 -0.20832643 0.18905695
0.036492642 0.065376624 0.030039921 -0.5969956 -0.272273 -0.18190739 -0.09247186 -0.122270465
0.2925786 -0.028931703 0.05073588 -0.006683193 0.12939271 -0.09176637 -0.33037412 0.09774227
-0.14672963 -0.90949917 -0.099347614 -0.07669275 -0.1550109 -0.17503363 -0.18797007 0.013367621
-0.08203503 0.08197316 0.008021322 -0.3366086 -0.24749385 -0.57162243 -0.08874723 -0.1044345
-0.019749926 -0.038258974 0.07902077 -0.3493448 -0.011723447 0.03846202 -0.08780024 -0.24911523
-0.07732007 -0.062241077 -0.058049735 0.07245007 0.17494668 -0.050976675 -0.25981405 -0.118392006
0.14347287 0.12966426 -0.2114735 0.11186213 -0.013982618 -0.046363275 0.08429992 0.0053268066
0.19618902 -0.00922135 -0.15163518 0.18218969 0.12152498 0.1372807 0.18526736 -0.084464096
0.109273866 -0.033241626 -0.029352536 0.19294822 -0.065160684 -0.15964676 0.08762769 0.18913206
0.08717912 0.006392136 -0.48248896 -0.034787647 -0.11933743 -0.10847215 0.059204314 -0.17820035
00000000: 1909 c4bd 0bd8 c6bd 9b40 57be 6ae5 30bd
00000010: d3d3 503e 56e5 243e acfc 313e fbc7 bf3d
00000020: bd60 d73d f101 4d3b f0dd d03d 53fc 893c
00000030: 2673 08bc 96e1 3dbe 9de2 113d 3b10 28be
00000040: b06d 243e eeaa 3e3e f26d 20be 559b aebd
00000050: b43a 233e d679 243e bfbd 56bd adec 363e
00000060: 5f62 16be 886c 453e 4eff 853e 279d 67bc
00000070: 37ce 65be c917 c9bd efe2 e83d c5cf 79be
00000080: a24d cbbd a1a7 b1be 4b83 683e 54c6 28be
00000090: 1515 3dbe 48a1 23be 5d0a f1bd 4537 9fbe
000000a0: 0a5f bebd b9ab c1bd 54e4 7cbe 9925 1abc
000000b0: 2a17 94bd ac4e 4cbf 4be9 c9be 6834 cfbd
000000c0: 0ce4 91be ce1a 12be 17da c5bd 0335 cbbd
000000d0: 23ea 96bd eea2 093d aba5 293e 145a 14bd
000000e0: 6679 dcbc bfe4 3fbe e046 50be 28dc f6bc
000000f0: 09ce 213e 7111 8b3e 2cd8 7dbc 6b99 583e
00000100: 2546 9cbc be5d 5ebf 3706 003d a984 e43d
00000110: b82d 833c 23cf 22be 0f62 8c3b 6f4d 34be
00000120: be2f 93be f192 de3d 83a1 babc 97be aebd
00000130: ae66 4abe d889 4fbf 9a3c b6bd 07db 8fbe
00000140: 23f1 cabc 25ef 723c 1bea 323d b44f dfbe
00000150: 8ea5 00be 834b a5bc 635c cc3c 4b03 27be
00000160: 0991 9a3d ab6b 58be 986d dc3d 8c16 63bd
00000170: 3680 ecbc 98f2 bb3d c6b1 d9bd 83f2 02be
00000180: d33c 2d3e a398 46bf efe3 203e dcb2 3dbd
00000190: 07a2 cebc b252 9ebd 58e6 213d 72ac b7bc
000001a0: 0fc4 07bb 6003 fabc 6e87 45be c24c 83be
000001b0: 157a 4cbd 3b30 41bf 8653 55be 2598 413e
000001c0: 4f79 153d 2ee4 853d 4816 f63c b4d4 18bf
000001d0: 5e67 8bbe ee45 3abe e361 bdbd f068 fabd
000001e0: ddcc 953e 2e02 edbc 6dd0 4f3d b0fe dabb
000001f0: 867f 043e 02f0 bbbd cc26 a9be 192d c83d
00000200: 4b40 16be f0d4 68bf c376 cbbd 1711 9dbd
00000210: 2dbb 1ebe 043c 33be 3a7b 40be de03 5b3c
00000220: fb01 a8bd 8be1 a73d dd6b 033c f657 acbe
00000230: 076f 7dbe d955 12bf 1cc1 b5bd c1e1 d5bd
00000240: 99ca a1bc 71b5 1cbd a4d5 a13d 52dd b2be
00000250: b313 40bc 5a8a 1d3d 9dd0 b3bd 1018 7fbe
00000260: fc59 9ebd 80f0 7ebd 8fc5 6dbd b460 943d
00000270: 3925 333e ebcc 50bd 5906 85be 8277 f2bd
00000280: 8dea 123e b5c6 043e 828c 58be f917 e53d
00000290: 5a17 65bc 6be7 3dbd 70a5 ac3d 7e8c ae3b
000002a0: c6e5 483e 2515 17bc 4146 1bbe ef8f 3a3e
000002b0: 17e2 f83d 5093 0c3e bab6 3d3e 83fb acbd
000002c0: faca df3d 5f28 08bd bb74 f0bc 3894 453e
000002d0: f772 85bd 717a 23be 2576 b33d d6ab 413e
000002e0: f78a b23d 2075 d13b cb08 f7be 7e7d 0ebd
000002f0: 2f67 f4bd a626 debd 3980 723d 277a 36be

classifier.2.bias f4 [6]
-0.049427092 0.09832966 -0.08839581 -0.15542626 0.0765326 -0.09373905
00000000: 1074 4abd 1061 c93d dd08 b5bd 1028 1fbe
00000010: 20bd 9c3d 42fa bfbd
